best_model_episode_200.pth (torch, 561686 bytes, 10 tensors)

actor_log_std f4 [4]
0	0xbeb2599d	-0.34833995
1	0xbe36b176	-0.17841133
2	0xbe18c36c	-0.14918298
3	0xbe58e2a2	-0.21180204

shared.0.weight f4 [256, 24]
0	0x3e1bda8c	0.15220088
1	0xbc6832ed	-0.014172298
2	0x3d9ae284	0.07562736
3	0x3de01acc	0.10942611
4	0xbdf35417	-0.11881273
5	0x3d613053	0.054977726
6	0xbe23ce9c	-0.15996784
7	0x3dcdfab4	0.100575835
8	0x3e31d099	0.1736473
9	0xbdd9c181	-0.10632611
10	0x3e6266c6	0.22109517
11	0x3d854df9	0.06509013
12	0x3e723df5	0.23656447
13	0xbd92db7b	-0.07170769
14	0x3dd58a51	0.104267724
15	0xbccc1d4a	-0.02491631
16	0x3e23ad97	0.15984188
17	0x3d033543	0.032033216
18	0xbdc044d5	-0.09388129
19	0x3d5bfd7c	0.05370854
20	0xbdb5664c	-0.08857402
21	0xbc12183e	-0.008916913
22	0xbd60da00	-0.0548954
23	0x3e287c35	0.16453631
24	0xbe9ba034	-0.30395663
25	0xbe36a0a5	-0.17834719
26	0xbe3c1ef0	-0.18371177
27	0xbd4a8292	-0.049440928
28	0x3d5adc13	0.053432535
29	0xbe48dde2	-0.19615892
30	0x3e7743f3	0.24147014
31	0xbe20cced	-0.15703173
32	0x3e2a1a3a	0.16611567
33	0xbc1408b9	-0.009035283
34	0xbd5ba920	-0.053628087
35	0x3e0bd1a6	0.13654193
36	0x3d0459ab	0.032312077
37	0x3e116277	0.14197718
38	0x3ce9b462	0.028528396
39	0xbd657058	-0.056015342
40	0x3d86ca6f	0.0658158
41	0xbd244d9c	-0.040113077
42	0x3dd9d21d	0.10635779
43	0x3e538401	0.20655824
44	0x3e14fbd5	0.14549191
45	0xbd6dc5ff	-0.058050152
46	0x3e08d00c	0.13360614
47	0x3dd0c422	0.10193659
48	0x3e76453f	0.24049853
49	0xbe1e501e	-0.1546025
50	0xbda2bd57	-0.0794627
51	0xb9c5e825	-0.0003774773
52	0xbe788a44	-0.24271494
53	0x3df73922	0.12071444
54	0x3d353fd8	0.04425034
55	0x3db61a72	0.08891763
56	0x3d883833	0.06651344
57	0x3c7b911f	0.015354424
58	0x3dd46204	0.103702575
59	0xbe3192fd	-0.17341228
60	0xbc14b7c8	-0.00907702
61	0xbd8f7551	-0.07004798
62	0x3d86e31a	0.06586285
63	0xbd8f2f24	-0.06991413
64	0x3d7a55cd	0.061116982
65	0xbd368eea	-0.044569887
66	0x3e2b84e2	0.1674991
67	0xbdf831a3	-0.121188425
68	0xbdf2a116	-0.11847131
69	0xbde8c88b	-0.113663755
70	0x3e4fbde2	0.20287278
71	0x3d938526	0.072031304
72	0x3ed33ec8	0.41258836
73	0xbcc8733e	-0.024469014
74	0xbe142c09	-0.14469923
75	0xbe7236e6	-0.23653755
76	0xbd61d737	-0.055136885
77	0x3d999104	0.07498363
78	0x3e288ead	0.16460676
79	0x3d1dcf05	0.038527507
80	0xbd07e37f	-0.03317594
81	0xbe4d9113	-0.20074873
82	0xbb4d2057	-0.0031299794
83	0xbdd8885f	-0.10572886
84	0xbcb2d95f	-0.021832166
85	0xbd5b4ccd	-0.05354004
86	0x3da86182	0.08221723
87	0xbe454417	-0.19264255
88	0xbe0c19e0	-0.13681746
89	0x3ce26431	0.027635666
90	0x3bd0b8ee	0.0063697016
91	0xbdbad14a	-0.0912195
92	0x3da18ba3	0.07887962
93	0x3db9acb4	0.09066144
94	0xbe4328e1	-0.19058563
95	0xbe1dc0ad	-0.15405531
96	0x3e87e606	0.2654268
97	0x3d4d4f1c	0.050124273
98	0x3bdde014	0.006771097
99	0xbe81bc08	-0.2533877
100	0xbe3c1652	-0.1836789
101	0x3db99373	0.09061327
102	0xbd81c376	-0.06336109
103	0xbe649e29	-0.22325958
104	0x3d9f3073	0.07772913
105	0xbdb2ae63	-0.08724668
106	0xbe750646	-0.23928174
107	0xbe296e45	-0.1654597
108	0xbe0e06ba	-0.13869753
109	0xbda1041f	-0.07862114
110	0x3e775984	0.24155241
111	0x3d98c460	0.074593306
112	0x3dc79f49	0.09747178
113	0xbe20f7f3	-0.15719585
114	0xbdcff253	-0.101536416
115	0xbd111a67	-0.03542557
116	0x3d8548c2	0.06508018
117	0xbe16d898	-0.14731061
118	0xbd5d8e40	-0.05409074
119	0xbdac8b49	-0.08425004
120	0xbd582c60	-0.052776694
121	0xbe2da182	-0.16956142
122	0xbd92d337	-0.07169192
123	0xbe7dfc17	-0.24803196
124	0xbe43a1b7	-0.19104658
125	0xbdd1b8ea	-0.10240348
126	0xbe2751dc	-0.1633982
127	0xbe0daa37	-0.13834463
128	0x3deeb6f3	0.116559885
129	0xbcff8e21	-0.031195702
130	0x3e1484bf	0.14503764
131	0xbb6122fa	-0.0034353123
132	0xbe61c472	-0.22047594
133	0x3e30204a	0.17199817
134	0xbce488f2	-0.027897332
135	0xbd52bfe1	-0.05145252
136	0xbe144375	-0.14478858
137	0xbe397ad3	-0.1811326
138	0x3d9f00fc	0.0776386
139	0xbce9e1ec	-0.02855011
140	0x3dbac442	0.091194645
141	0xbe23bc51	-0.15989806
142	0x3e23acd5	0.15983899
143	0xbde510a0	-0.111848116
144	0xbeb97d34	-0.36228335
145	0xbede41b9	-0.43409517
146	0x3e822298	0.25417018
147	0x3e82436b	0.2544206
148	0x3dea1850	0.114304185
149	0xbd47b749	-0.04875878
150	0x3d7da46c	0.061924383
151	0xbd903ea5	-0.070431985
152	0xbd91b756	-0.07115047
153	0xbe96d183	-0.2945672
154	0x3d89b599	0.0672409
155	0xbe972fb0	-0.2952857
156	0x3d440ce5	0.04786386
157	0x3dc803b9	0.09766335
158	0x3d79c477	0.06097838
159	0xbde93335	-0.1138672
160	0x3e3b81b1	0.18311192
161	0x3d2db729	0.042411003
162	0x3cb783cb	0.022401711
163	0xbe3fb72c	-0.18722218
164	0x3d99b385	0.07504944
165	0xbd31dac5	-0.043421526
166	0xbdc7d464	-0.09757307
167	0x3e60c92e	0.21951744
168	0xbd5d14bf	-0.053974863
169	0xbe81a655	-0.25322214
170	0xbe0a866c	-0.1352784
171	0xbda43741	-0.08018351
172	0x3da7063a	0.081554845
173	0xbd13ff80	-0.036132336
174	0x3dc60b55	0.0967013
175	0xbd4d4d32	-0.050122447
176	0xbe820357	-0.25393173
177	0xbd880660	-0.06641841
178	0x3d93a2b3	0.07208767
179	0xbeb96310	-0.3620839
180	0x3d7e2fde	0.06205737
181	0x3e1df735	0.15426333
182	0x3cf9b099	0.030479716
183	0xbd9d0a54	-0.076679856
184	0x3dd7b931	0.10533369
185	0x3ddee388	0.10883242
186	0x3da5d48a	0.08097179
187	0xbcebff54	-0.028808273
188	0xbd3e1c98	-0.046413988
189	0x3cf98605	0.030459413
190	0xbd267bed	-0.04064553
191	0xbcce16eb	-0.025157413
192	0x3ec53a59	0.38521078
193	0x3ee0111e	0.4376306
194	0xbe822d2d	-0.2542509
195	0xbe6f717e	-0.23383138
196	0x3e0b187a	0.13583556
197	0xbb7210b8	-0.0036936235
198	0x3e7c1251	0.24616362
199	0xbbc3eef4	-0.005979413
200	0xbdd58fa1	-0.10427786
201	0xbd7b058a	-0.06128458
202	0x3bbc61ee	0.005748979
203	0x3d9d2521	0.076730974
204	0xbca2bb85	-0.019864807
205	0xbe38d46a	-0.1804978
206	0xbe07c7f0	-0.13259864
207	0xbe4505c8	-0.19240487
208	0xbda0dd0e	-0.07854663
209	0x3d5a258d	0.053258467
210	0x3de2344a	0.110451296
211	0x3d8ff05a	0.07028265
212	0xbe562232	-0.20911482
213	0xbe1ec259	-0.15503825
214	0xbd6547db	-0.05597673
215	0x3e3b9094	0.18316871
216	0x3d3f4cda	0.04670415
217	0xbdfe994f	-0.12431585
218	0xbcf97ac3	-0.030454045
219	0xbe4393fd	-0.19099422
220	0xbdeb7854	-0.1149756
221	0x3e2d79de	0.1694102
222	0xbdf06afa	-0.11739154
223	0xbc8f472c	-0.017489992
224	0xbe640257	-0.22266518
225	0x3e336fba	0.17523089
226	0x3e100eee	0.14068195
227	0x3db32c58	0.08748692
228	0xbe10350c	-0.14082736
229	0xbe68f3c8	-0.22749245
230	0xbe274886	-0.16336259
231	0x3e1cc030	0.15307689
232	0x3dc6ef84	0.09713653
233	0x3e2e5c15	0.17027314
234	0x3dd74e9c	0.105130404
235	0x3d4a02d9	0.049319122
236	0xbb83ddd3	-0.0040242462
237	0xbe1f3422	-0.15547231
238	0xbe35062a	-0.17678133
239	0xbe08420a	-0.13306442
240	0x3ddd8e0b	0.10818108
241	0xbd9a7b93	-0.07543101
242	0x3d5439b9	0.05181286
243	0xbe554ff8	-0.20831287
244	0xbcc8af23	-0.024497574
245	0xbde2fb47	-0.110830836
246	0xbea66241	-0.32496837
247	0x3d0d2085	0.03445484
248	0xbd21cc9c	-0.03950177
249	0x3e44262a	0.19155183
250	0xbd979bdd	-0.074027754
251	0xbe230ac5	-0.15922077
252	0xbd107f82	-0.03527785
253	0xbc4512e5	-0.012028431
254	0xbcab6660	-0.02092284
255	0xbe1d66ed	-0.15371294

shared.0.bias f4 [256]
0	0xbe0c1189	-0.13678564
1	0x3dd44e66	0.10366516
2	0xbd2e7dbb	-0.042600375
3	0x3dfcea9a	0.12349434
4	0xbe2e32af	-0.17011522
5	0x3d4cef98	0.050033182
6	0x3e114c30	0.1418922
7	0x3d89cdeb	0.06728729
8	0xbd805c0a	-0.06267555
9	0x3e8023cb	0.25027308
10	0xbdd49940	-0.103807926
11	0x3e84a814	0.25909483
12	0x3d0202ef	0.03174108
13	0x3e2cbd75	0.16869147
14	0x3e367070	0.17816329
15	0x3daf784d	0.085678674
16	0x3e0ebda2	0.13939527
17	0xbd011e69	-0.031523142
18	0xbe198067	-0.14990388
19	0x3e0cf08a	0.13763633
20	0x3e51ad74	0.20476323
21	0x3e269856	0.16269049
22	0x3ab31a07	0.0013664373
23	0xbe08eeca	-0.13372341
24	0x3d8f417a	0.069949105
25	0x3dc312db	0.09525081
26	0xbdfb08a9	-0.12257511
27	0x3e727ac9	0.23679651
28	0x3d4d6874	0.050148442
29	0x3db806f5	0.08985702
30	0x3e4bc9ce	0.19901201
31	0x3dec9681	0.11552144
32	0xbd211ce9	-0.03933421
33	0x3dea9f57	0.11456173
34	0x3ddf0fe2	0.10891701
35	0x3e19fd49	0.15038027
36	0xbcda1a81	-0.026623966
37	0x3d7418d7	0.059594
38	0xbe0185fe	-0.1264877
39	0x3d3d445c	0.04620777
40	0xbdc36db8	-0.095424116
41	0x3e59ffb3	0.21288948
42	0x3e80a969	0.2512925
43	0xbd9a1c9b	-0.07524987
44	0xbd30c2aa	-0.043154396
45	0xbbb618b8	-0.005557146
46	0xbe11e37c	-0.14246935
47	0x3e78e5f2	0.24306467
48	0xbdaaad17	-0.083337955
49	0xbd6b22ed	-0.057406355
50	0xbe06a96f	-0.13150571
51	0xbc0101e6	-0.007873988
52	0xbdf0e22d	-0.117618896
53	0xbe21690a	-0.15762725
54	0x3e5ec4b8	0.2175473
55	0x3e1a2059	0.15051402
56	0x3daf1efb	0.08550831
57	0x3e41131a	0.18854943
58	0x3d7733d7	0.060352173
59	0x3dc6501e	0.0968325
60	0xbe0e6645	-0.139062
61	0x3dc4fc69	0.09618456
62	0xbde11481	-0.10990239
63	0x3d814ced	0.063135006
64	0xbddebc15	-0.108757176
65	0xbd3ab7a1	-0.04558528
66	0xbd9742dc	-0.07385799
67	0xbd906df6	-0.070522234
68	0xbd9e7de1	-0.07738853
69	0xbd977cc3	-0.07396843
70	0xbd1f38f0	-0.03887266
71	0xbe53d12d	-0.20685263
72	0x3e4f7616	0.2025989
73	0x3dd7f30c	0.105444044
74	0xbe08135f	-0.1328864
75	0xbe261f21	-0.16222812
76	0xbd920609	-0.07130057
77	0x3d8ccff9	0.06875605
78	0x3e067012	0.13128689
79	0xbb4a2be5	-0.0030848917
80	0x3e31cb9f	0.17362832
81	0xbd2bb8ce	-0.04192429
82	0xbbd564db	-0.006512267
83	0x3d25f16e	0.04051345
84	0xbe594e93	-0.2122138
85	0x3c2d2a98	0.010569237
86	0x3dcf9cf8	0.10137361
87	0x3e5bd237	0.2146691
88	0xbdcf1672	-0.10111703
89	0xbc9b9c01	-0.018995287
90	0x3cb4ca49	0.022069113
91	0x3d7402a9	0.05957285
92	0x3d49e694	0.049292162
93	0xbdd2a09d	-0.10284541
94	0x3e2ac628	0.16677153
95	0xbe2081ed	-0.15674563
96	0xbdb5656e	-0.08857237
97	0x3e2df850	0.16989255
98	0xbcf343bc	-0.029695384
99	0xbd6f80dc	-0.0584725
100	0xbe177d60	-0.1479392
101	0x3e474aab	0.19462077
102	0xbcb72cff	-0.022360323
103	0x3e1b4395	0.15162499
104	0x3d3bb273	0.04582448
105	0xbdf6dadc	-0.12053463
106	0xbcc9ef4b	-0.024650237
107	0x3e559687	0.20858203
108	0xbdc4840f	-0.09595501
109	0xbcd140c0	-0.02554357
110	0x3e565163	0.20929484
111	0xbcf4b172	-0.029869769
112	0x3dcc9c80	0.099907875
113	0xbd6d5fef	-0.057952818
114	0x3df04674	0.11732188
115	0x3d5f7750	0.054557145
116	0xbdac61cc	-0.08417091
117	0xbde13bff	-0.109977715
118	0x3dec15cf	0.11527597
119	0xbd0dcf53	-0.034621548
120	0x3e19b9dc	0.15012306
121	0x3da77fd3	0.081786774
122	0xbcf89ab9	-0.030347215
123	0x3d987f3a	0.074461415
124	0xbd693cf1	-0.056942884
125	0x3de522ea	0.111883
126	0x3e3c802a	0.18408266
127	0x3de5ac5e	0.11214517
128	0xbdea9254	-0.11453691
129	0x3e4fcbaf	0.20292543
130	0x3e6f5770	0.23373199
131	0x3e50ea7b	0.20401947
132	0x3d01c958	0.031686157
133	0x3dba2310	0.09088719
134	0x3d396d19	0.04527006
135	0xbcacf28f	-0.021111755
136	0xbe2b2ca7	-0.16716252
137	0xbbe78081	-0.0070648794
138	0x3e12e7a0	0.1434617
139	0x3dfb827c	0.12280747
140	0x3dd2c6ad	0.10291801
141	0x3e12b5a2	0.143271
142	0x3e098cfe	0.1343269
143	0xbd0aa56e	-0.033849172
144	0x3e614e83	0.22002606
145	0x3da65192	0.08121027
146	0xbd048b7a	-0.032359578
147	0x3b3d9dd9	0.0028933196
148	0xbd8cf5d2	-0.06882824
149	0xbe13a131	-0.14416958
150	0x3aee1c0b	0.0018166316
151	0x3e7341f1	0.23755623
152	0x3da04330	0.07825315
153	0x3d2cab85	0.04215576
154	0xbd3b0003	-0.045654308
155	0x3a825ffa	0.0009946816
156	0xbd20cc52	-0.039257355
157	0x3df9fa35	0.12205926
158	0x3e20c974	0.15701848
159	0xbd30f45e	-0.043201797
160	0x3d96f7e9	0.07371504
161	0x3c937906	0.018002044
162	0x3c997fe6	0.018737745
163	0x3e5707b5	0.20999034
164	0xbcfab7aa	-0.030605156
165	0x3e694814	0.22781402
166	0xbd899772	-0.06718339
167	0x3e6f5509	0.23372282
168	0x3ddf7bf7	0.10912316
169	0x3dd80c58	0.105492294
170	0x3bb5e7d1	0.0055513163
171	0xbca16e8c	-0.019706033
172	0xbdf4e6e5	-0.11958102
173	0xbe325a29	-0.17417206
174	0x3e521aee	0.20518085
175	0x3e6586b8	0.22414672
176	0x3dee62ff	0.11639976
177	0xbcc88ecd	-0.024482155
178	0x3de9f7f1	0.11424244
179	0x3c1542e3	0.009110185
180	0xbddb2604	-0.1070061
181	0xbdf4b12a	-0.11947854
182	0x3e0439f4	0.12912732
183	0xbdd2ca17	-0.10292452
184	0xbd1b0df4	-0.037855104
185	0xbdb65b1e	-0.08904098
186	0x3e1cc16d	0.15308161
187	0xbc52ac35	-0.01285844
188	0xbbcc3368	-0.006231714
189	0x3e2dec45	0.16984661
190	0x3e70c9ab	0.2351443
191	0x3e4ad896	0.19809183
192	0x3db21791	0.08695901
193	0x3d67fa8b	0.05663542
194	0x3e07ad66	0.1324974
195	0x3e6dc347	0.23219024
196	0x3e011994	0.12607414
197	0x3e12a759	0.1432165
198	0x3db20ec3	0.08694222
199	0x3dae0e09	0.08498771
200	0x3e2b69dd	0.16739602
201	0x3e01059b	0.12599795
202	0xbdeb8444	-0.11499837
203	0xbdfde57c	-0.12397286
204	0xbe0322c7	-0.12806235
205	0xbd11ad9b	-0.035565954
206	0x3d5ccd14	0.053906515
207	0xbd39b18b	-0.045335334
208	0xbe336e35	-0.1752251
209	0xbda0464d	-0.07825909
210	0x3e1e3f48	0.15453827
211	0x3d48341b	0.048877817
212	0x3cea7d6e	0.028624263
213	0x3dbf43e4	0.09339121
214	0xbd355319	-0.0442687
215	0xbd21ba4b	-0.039484303
216	0x3c49bc49	0.012312957
217	0xbcb930de	-0.02260631
218	0xbe0e343c	-0.13887113
219	0xbdd1981d	-0.102340914
220	0xbc904964	-0.01761312
221	0x3e0e3640	0.13887882
222	0x3e465cf9	0.19371404
223	0x3c3dd7e3	0.011587116
224	0x3e631a7e	0.22178075
225	0x3d5e16d0	0.054220974
226	0xbdbaf75c	-0.09129211
227	0xbd7dd368	-0.06196919
228	0xbdb50d9c	-0.088404864
229	0xbe0e652b	-0.1390578
230	0x3db3589c	0.08757135
231	0x3da27672	0.07932748
232	0xbe3eabab	-0.18620174
233	0x3c12b42d	0.00895409
234	0xbde5d487	-0.11222177
235	0x3e878491	0.26468328
236	0x3e1fa22e	0.1558921
237	0xbd48c9a4	-0.049020424
238	0x3e66be1b	0.22533457
239	0xbdcbce1d	-0.09951422
240	0x3e40cff2	0.18829325
241	0xbd86989e	-0.06572078
242	0x3d9ae5e8	0.075633824
243	0x3e3640a3	0.17798094
244	0x3ddf6729	0.10908348
245	0x3db8f84a	0.090317324
246	0xbd87e52c	-0.06635508
247	0x3d871980	0.065966606
248	0x3e660626	0.22463283
249	0x3cc72574	0.024309851
250	0xbd557489	-0.05211309
251	0x3da962d4	0.08270803
252	0xbcb44f24	-0.022010393
253	0xbd27d900	-0.04097843
254	0x3d1c0c11	0.038097445
255	0x3e77cbb7	0.24198805

actor_mean.0.weight f4 [256, 256]
0	0xbd8481e9	-0.06470091
1	0xbcea3183	-0.028588062
2	0x3cb52139	0.022110568
3	0xbc553ee8	-0.013015486
4	0x3d27f910	0.04100901
5	0x3ce2b45d	0.027673895
6	0x3cab76b9	0.020930635
7	0xbd7f5319	-0.062335107
8	0xbae1ad38	-0.0017217761
9	0xb90690af	-0.00012833135
10	0xbd8c916f	-0.06863677
11	0xbca0f78b	-0.019649288
12	0x3d4c5bad	0.049892116
13	0xbcca7468	-0.02471371
14	0x3c3b1eb3	0.0114208935
15	0xbcbbda86	-0.022931349
16	0xbd1e1121	-0.038590554
17	0xbce1731b	-0.027520707
18	0xbde895b8	-0.113566816
19	0x3d846932	0.06465377
20	0xbd88d694	-0.066815525
21	0xbd0b3e17	-0.03399476
22	0x3d2ce518	0.04221067
23	0xbd20e49a	-0.03928051
24	0x3ca3addc	0.019980364
25	0x3bf9712b	0.0076123676
26	0x3d3628b2	0.044472404
27	0x3c1a67a7	0.009424127
28	0x3cbb1fd4	0.022842325
29	0xbd5ffc9b	-0.054684263
30	0xbc9beeda	-0.019034792
31	0x3d83f4d8	0.064431846
32	0xbce8d15d	-0.028420145
33	0xbc888542	-0.016665105
34	0x3cb1aa91	0.021687778
35	0x3d6231a6	0.05522313
36	0x3d2a696b	0.04160444
37	0xbb87ca4e	-0.0041439896
38	0xbd95a4d3	-0.07306828
39	0xbd44a6f9	-0.0480108
40	0x3d4861a9	0.04892126
41	0x3d540c7a	0.05176971
42	0x3b0b0ac9	0.0021216145
43	0x3d0b4355	0.03399976
44	0x3c27506b	0.010212044
45	0x3cacec32	0.02110872
46	0x3dc8a59a	0.09797211
47	0xbd9a5828	-0.07536346
48	0xbc357461	-0.01107511
49	0x3d455b50	0.048182786
50	0xbd6cbee0	-0.05779922
51	0x3bc6dfb2	0.006069147
52	0x3c7178e3	0.014738294
53	0xbdb46cbf	-0.08809804
54	0x3cc4f163	0.024040883
55	0xbb9794ee	-0.004625908
56	0x3d5f6315	0.05453785
57	0xbe017c71	-0.12645127
58	0x3d8f003c	0.069824666
59	0xbbfe5a87	-0.0077622565
60	0x3da09b5b	0.07842132
61	0xbc759cf1	-0.014991031
62	0xbc510c57	-0.01275929
63	0x3cfeefb6	0.031120162
64	0x3dc03840	0.09385729
65	0x3b54d112	0.0032473248
66	0xbb83dd7a	-0.004024205
67	0x3ca6430b	0.02029564
68	0xbc2c9ef4	-0.010535944
69	0x3c6e3ca0	0.014540821
70	0x3daaf66a	0.08347781
71	0x3db6f297	0.08932989
72	0xbd25ea6b	-0.04050676
73	0x3cd7f4d9	0.02636187
74	0x3c687ed7	0.014190397
75	0xbc567774	-0.013090003
76	0x3d90a568	0.07062799
77	0xbc861eec	-0.016372167
78	0xbd126946	-0.035744928
79	0xbd62c75b	-0.0553659
80	0x3b48c932	0.00306375
81	0x3cd07219	0.025445031
82	0x3cb7cc34	0.022436239
83	0xbdbe9586	-0.09305863
84	0xbd44ae97	-0.048018064
85	0x39fa6ea6	0.00047766155
86	0xbd931cd2	-0.071832314
87	0xbcd3e388	-0.025865331
88	0x3d1ab416	0.0377694
89	0x3ca829d9	0.020527767
90	0x3cb73ec9	0.022368805
91	0xbde05e2b	-0.10955461
92	0xbdc93814	-0.09825149
93	0x3cf9f301	0.030511381
94	0x3cb108b8	0.021610603
95	0x3ceb1fa1	0.028701605
96	0x3cc422bb	0.023942342
97	0xbc71389b	-0.014722968
98	0x3c77c2c8	0.015122123
99	0xbd5fbd30	-0.054623783
100	0xbd80e007	-0.0629273
101	0x3d91f4ab	0.07126745
102	0xbd6353d6	-0.055499874
103	0xbd8bc3f0	-0.068244815
104	0xbda20221	-0.07910562
105	0x3d2ac0dc	0.04168783
106	0xbd36425d	-0.044496883
107	0x3dad7806	0.08470158
108	0xbbecb463	-0.007223652
109	0xbd78e2d7	-0.060763206
110	0x3c94390a	0.018093605
111	0x3d325eb0	0.043547332
112	0xbd131ce8	-0.03591624
113	0xbd2035d1	-0.039113823
114	0x3d104c74	0.03522916
115	0xbdc16579	-0.094431825
116	0xbd7aa362	-0.06119097
117	0xbc4ad922	-0.01238087
118	0xbdbb59fe	-0.09148024
119	0x3c8b6f3a	0.01702081
120	0x3c642547	0.013924903
121	0x3d7aafc2	0.061202772
122	0x3d978551	0.07398475
123	0x3ab1e7e1	0.0013573134
124	0xbb8f766b	-0.00437813
125	0x3c10d3b5	0.008839537
126	0x3d09b709	0.03362182
127	0xbb6bfacf	-0.0036007648
128	0x3d1854bb	0.03719018
129	0xbcd91b84	-0.026502378
130	0xbd1fcc88	-0.039013416
131	0xbbeb1a34	-0.0071747545
132	0xbd7c36c6	-0.061575674
133	0x3c9c6486	0.019090902
134	0x3d332342	0.043734796
135	0x3c3159d8	0.010824643
136	0x3d121f1f	0.03567421
137	0x3d495247	0.04915073
138	0xbd24a00f	-0.040191706
139	0x3d52410a	0.051331557
140	0x3d46fa0d	0.04857831
141	0x3c38372b	0.011243622
142	0x3b22f397	0.002486443
143	0xbdc48d22	-0.095972314
144	0xbd452aef	-0.048136648
145	0xbc3acd9a	-0.011401558
146	0xbdbac3b3	-0.09119358
147	0x3c5e2e7b	0.0135608865
148	0xbd70cabb	-0.05878709
149	0xbce7d7be	-0.028301116
150	0xbd0a1f2a	-0.033721127
151	0x3d56bb46	0.05242469
152	0x3d31426e	0.043276243
153	0xbd8186f1	-0.06324566
154	0xbd05d63a	-0.032675005
155	0x3d4166f9	0.047217343
156	0x3d1de08d	0.038544226
157	0xbdc73a5f	-0.0972793
158	0xbd221673	-0.03957219
159	0xbd572126	-0.052521847
160	0x3bdf1801	0.0068082814
161	0x3d1b0627	0.037847664
162	0x3d9bc501	0.07605935
163	0xbde77868	-0.113022625
164	0x3dab8403	0.083747886
165	0x3ca2e07e	0.019882437
166	0xbb008075	-0.0019607816
167	0x3d66ecd9	0.05637822
168	0xbba231f0	-0.0049498007
169	0xbca82cc7	-0.020529164
170	0xbceb3bc5	-0.028715024
171	0x3ce16cf2	0.02751777
172	0xbd971698	-0.07377356
173	0x3d058e0b	0.032606166
174	0x3d7d7caf	0.061886486
175	0x3d46c311	0.048525874
176	0x3d84df5d	0.06487916
177	0x3d3081c1	0.043092493
178	0xbd5b00d2	-0.05346758
179	0xbd565a9f	-0.052332517
180	0xbc9dc6cd	-0.019259835
181	0x3d52051a	0.051274396
182	0x3c171036	0.009220174
183	0xbbc9fcf4	-0.0061641876
184	0xbd0cd123	-0.034379136
185	0x3c884ef5	0.016639212
186	0xbc409949	-0.011755296
187	0xbcc861b2	-0.024460647
188	0xbc14a27b	-0.0090719415
189	0xbdaeedfe	-0.08541487
190	0xbdc11b9a	-0.09429093
191	0x3d158449	0.03650311
192	0x3d5e9a31	0.054346267
193	0xbd5f290f	-0.054482516
194	0x3c6fbf17	0.014632962
195	0xbd186c9e	-0.03721296
196	0xbd22a5eb	-0.039709013
197	0xbd8b1c81	-0.06792546
198	0x3d9634cf	0.07334291
199	0xbd754e12	-0.059888907
200	0x3d72f4eb	0.059315603
201	0xbd1a622f	-0.03769129
202	0xbad3145e	-0.0016104092
203	0xbdc0325c	-0.09384605
204	0xbde1fe99	-0.11034889
205	0x3d9acaff	0.0755825
206	0xbd4853e6	-0.048908137
207	0xbdc32a9b	-0.09529611
208	0xbd9284a1	-0.07154203
209	0x3d3ccf42	0.046096094
210	0x3c273583	0.010205629
211	0x3d8d6a03	0.06904986
212	0xbce35951	-0.02775255
213	0xbca54ec7	-0.020179166
214	0x3cbaf163	0.02282018
215	0x3d256238	0.04037687
216	0x3d07533f	0.033038374
217	0x3d5fd9b7	0.05465099
218	0x3cf7c5f1	0.030245753
219	0xbdd9d126	-0.10635595
220	0xbd512b9e	-0.051066987
221	0x3cf26665	0.029589841
222	0xbd018b92	-0.031627245
223	0xbc4db1f4	-0.012554634
224	0x3bf0cad8	0.0073483996
225	0x3c10c712	0.008836525
226	0xbcf97baf	-0.030454485
227	0xbd583570	-0.052785337
228	0x3bf35239	0.007425573
229	0x3d41a339	0.047274802
230	0x3886313c	6.3987885e-05
231	0xbd2cec19	-0.042217348
232	0x3d98e491	0.074654706
233	0x3c90e18e	0.017685678
234	0x3cc7a03f	0.024368403
235	0x3d8c2a8c	0.06844053
236	0x3d54b9f7	0.051935162
237	0xbd5094ef	-0.050923284
238	0x3d2db1ec	0.042406008
239	0xbc0a14fa	-0.008427853
240	0x3bd290eb	0.006425967
241	0xbd64b154	-0.055833176
242	0xbd1560b1	-0.036469165
243	0x3ccdc654	0.025118984
244	0xbd2b5164	-0.041825667
245	0xbca61d74	-0.020277716
246	0xbd2417e6	-0.040061854
247	0x3d5d325a	0.054003097
248	0xbd530777	-0.05152079
249	0x3c44c298	0.012009285
250	0x3c8ac1a8	0.016938046
251	0x3c2e24b9	0.010628873
252	0xbcbe3870	-0.02322027
253	0x3cdaaffd	0.026695246
254	0x3c7bf1f5	0.015377511
255	0xbe09de58	-0.13463724

actor_mean.0.bias f4 [256]
0	0x3ad88611	0.0016519447
1	0xbd8b0670	-0.06788337
2	0x3d0be696	0.03415545
3	0x3d31cfcb	0.043411057
4	0x3d82b18c	0.06381521
5	0x3c71113d	0.014713583
6	0xbca0b7cc	-0.019618891
7	0xbc9b5c82	-0.01896501
8	0x3d13874d	0.036017705
9	0x3d57c024	0.052673474
10	0xba8015ce	-0.0009772123
11	0xbc915e15	-0.017745057
12	0x3d41227c	0.047152027
13	0xbcf6501c	-0.030067496
14	0xbbc9f3d0	-0.006163098
15	0x3b9de136	0.004818107
16	0xbca96be4	-0.02068133
17	0xbcaa1bb0	-0.020765156
18	0xbd112b65	-0.035441775
19	0xbce22da1	-0.027609648
20	0xbb3933b7	-0.0028259584
21	0xbd1396fc	-0.03603266
22	0x3c5ec869	0.013597586
23	0x3d57de89	0.05270246
24	0x3cb579de	0.022152837
25	0x3c963dd3	0.018340027
26	0x3c8e87e4	0.017398782
27	0xbd7152ea	-0.058916964
28	0x3d211fab	0.03933684
29	0x3c9420dd	0.018082077
30	0x3bb3f4fb	0.0054918504
31	0xbd1314bc	-0.035908446
32	0xbd59399f	-0.053033467
33	0xbce0c128	-0.027435854
34	0xbd1f04aa	-0.038822807
35	0x3d4f6d8b	0.050641578
36	0xbcc5c7e4	-0.024143167
37	0xbc1158bf	-0.008871256
38	0x3d99e65c	0.07514641
39	0xbc540e90	-0.012942925
40	0x3c6d3ab7	0.014479331
41	0xbd26f139	-0.04075739
42	0xbd052064	-0.032501593
43	0x3d3f14af	0.046650585
44	0x3d2e65f0	0.042577684
45	0x3d100a96	0.035166346
46	0xbd2bb887	-0.041924026
47	0xbb915107	-0.004434708
48	0xbd6ac0d0	-0.057312787
49	0xbccd1a4b	-0.025036952
50	0xbd1e977d	-0.03871869
51	0x3d787708	0.060660392
52	0xbd1e88e9	-0.038704786
53	0x3d4604ac	0.0483443
54	0x3c600be2	0.013674708
55	0xbd007116	-0.031357847
56	0x3cad4b60	0.021154106
57	0xbd09aa06	-0.033609413
58	0xbd46cda6	-0.048535965
59	0xbb894019	-0.0041885492
60	0x3cd92aa4	0.02650959
61	0x3d03e011	0.03219611
62	0xbcc4b621	-0.024012627
63	0x3d435214	0.047685698
64	0x3c3c647f	0.0114985695
65	0xbcc7e429	-0.024400787
66	0xbd0694cf	-0.03285676
67	0x3d7b94f4	0.06142135
68	0xbd65ebf9	-0.056133244
69	0x3d436409	0.047702823
70	0xbd172ce9	-0.036908064
71	0xbd3aefff	-0.045639034
72	0xbc5896d7	-0.013219557
73	0x3c71d00e	0.014759077
74	0xbc8aa66b	-0.016925057
75	0x3ccfbb8c	0.025357984
76	0x3d3d807e	0.046265118
77	0xbc0d45c6	-0.008622592
78	0x3a88bda6	0.0010432496
79	0x3cbe0047	0.023193492
80	0xbcaf054d	-0.021364832
81	0xbd8115ed	-0.0630301
82	0x3d7de848	0.0619891
83	0xbd581cd3	-0.052761864
84	0x3c86f1e3	0.016472762
85	0x3ccddf59	0.025130915
86	0xbd1e3526	-0.038624905
87	0xbd50048c	-0.050785586
88	0x3da27d2f	0.07934033
89	0x3c17bc2a	0.00926117
90	0x3b2cf77a	0.0026392625
91	0x3d36fa50	0.04467231
92	0x3bfec95f	0.00777547
93	0x3cc918b6	0.024547916
94	0xbc70ee15	-0.014705201
95	0x3c5f4099	0.013626241
96	0xbd7e9bd7	-0.06216034
97	0x3cf66d6f	0.030081479
98	0xbbb4d62c	-0.0055186953
99	0x3d0f3538	0.034962863
100	0x3d340ccc	0.043957517
101	0xbd71c791	-0.059028212
102	0x3cb5726f	0.022149293
103	0xbd65e9b5	-0.056131084
104	0x3b02c909	0.0019956252
105	0xbd452e4c	-0.048139855
106	0xbd045ad3	-0.03231318
107	0x3b17fcff	0.002319157
108	0x3ac94a1c	0.0015357169
109	0xbc915bf5	-0.017744044
110	0x3d6b7162	0.057481177
111	0xbc177ee4	-0.009246562
112	0xbd1e0149	-0.038575444
113	0x3d39a165	0.045319933
114	0xbd4122d1	-0.047152344
115	0xbc71f855	-0.01476868
116	0xba9053e1	-0.0011011326
117	0x3cdea74c	0.027179383
118	0xbc969e82	-0.01838613
119	0x3d42498c	0.04743342
120	0xbc055d44	-0.008139912
121	0xbcba8fb0	-0.022773594
122	0x3d399f83	0.045318138
123	0x3d3230ed	0.04350369
124	0xbc81c13f	-0.015839217
125	0x3cc1ae52	0.023642693
126	0x3c4bd727	0.012441433
127	0x3ceafe88	0.028685823
128	0xbb86322a	-0.0040953355
129	0xb9960336	-0.00028612622
130	0x3d87b9a6	0.066272065
131	0x3d42a07c	0.04751633
132	0xbce87ead	-0.028380716
133	0x3c9f1128	0.01941736
134	0xbd11ffed	-0.03564446
135	0xbcdf6aca	-0.0272726
136	0x3d36eeed	0.04466145
137	0x3d325a03	0.043542873
138	0xbcd0d53e	-0.025492307
139	0xbd4d9e2e	-0.05019968
140	0xbca80a84	-0.020512827
141	0x3d5b7181	0.053575043
142	0x3d15eec7	0.03660467
143	0xbc0ac0a4	-0.008468781
144	0xbba04c6c	-0.0048919227
145	0x3d1e84f4	0.038701013
146	0xbcb21cb3	-0.0217422
147	0x3d1e5f4c	0.0386651
148	0xbd154df4	-0.036451295
149	0x3d80b5c6	0.062846705
150	0xbcda2bfe	-0.026632305
151	0xbbe2e186	-0.006923857
152	0xbd46ec7d	-0.048565377
153	0x3d0b8c2e	0.034069233
154	0x3d070e97	0.0329729
155	0x3cc54848	0.024082318
156	0x3cf73d19	0.0301805
157	0xbcd6b396	-0.02620868
158	0x3d4cf43d	0.05003761
159	0x3cbe5b81	0.023236992
160	0x3c924981	0.017857315
161	0x3d58785c	0.05284916
162	0xbd6a47a4	-0.057197228
163	0xbd3f78ee	-0.046746187
164	0xbcddd998	-0.027081296
165	0xbc3db67b	-0.011579151
166	0x3d3bf58b	0.045888465
167	0x380b3ced	3.3196924e-05
168	0xbcce7d01	-0.02520609
169	0x3d3c6fd7	0.046005096
170	0xbcea1d3f	-0.028578399
171	0xba8c7776	-0.0010716754
172	0xbd6077d9	-0.054801796
173	0xbd317af8	-0.043330163
174	0x3d3d75d5	0.04625495
175	0x3d4b873d	0.04968952
176	0xbce386bd	-0.02777421
177	0x3d32a502	0.043614395
178	0x3d18474b	0.037177365
179	0x3d72875b	0.059211116
180	0xbd1481d3	-0.036256623
181	0xbd169e22	-0.0367719
182	0x3c82a911	0.015949758
183	0x3d505e7b	0.050871354
184	0x3d0d5ffc	0.034515366
185	0xbd57ba51	-0.05266792
186	0xba0b74ce	-0.00053198345
187	0xbb9c008f	-0.004760809
188	0x3d5abc86	0.053402446
189	0x3ce7bf19	0.028289365
190	0x3c049882	0.008093001
191	0x3aadcb9c	0.0013259533
192	0x3d8b0b21	0.06789232
193	0x3d4c4390	0.04986912
194	0x3cb28eee	0.02179667
195	0xbd28f5f7	-0.041250195
196	0x3c606e62	0.013698192
197	0xbcc2d8a3	-0.023784941
198	0x3c03df3a	0.008048827
199	0x3d496d52	0.04917652
200	0x3d4b0331	0.04956359
201	0x3d76c1e9	0.06024352
202	0x3ca9e457	0.020738764
203	0xbd01304a	-0.031540193
204	0xbcdb8f17	-0.026801629
205	0xbd188ca5	-0.037243504
206	0x3d3831dc	0.044969425
207	0x3bbaa235	0.005695606
208	0x3c7ad05f	0.015308469
209	0xbd113025	-0.035446305
210	0xbd208ac5	-0.03919484
211	0x3c12f32a	0.008969108
212	0xbd03820b	-0.03210644
213	0x3d4a5425	0.049396653
214	0x3d803b2d	0.06261287
215	0xbb89ffa6	-0.004211384
216	0x3d33adb8	0.043866843
217	0xbd17cf76	-0.037063085
218	0x3ca01df1	0.019545527
219	0xbc2f45c1	-0.010697783
220	0x3cc6cda3	0.024267977
221	0xbbab9277	-0.005235966
222	0xbc3be0f9	-0.011467212
223	0x3d7ae061	0.06124914
224	0xbc50dcf7	-0.012747995
225	0x3d89d6d8	0.06730431
226	0x3c0e60e0	0.008690089
227	0x3d1d5aad	0.038416553
228	0x3d8c2b6c	0.068442196
229	0xbd184920	-0.037179112
230	0x3d6673c8	0.05626276
231	0xbd7eb991	-0.06218869
232	0xbd6866f2	-0.0567388
233	0xbc2853b0	-0.010273859
234	0x3d410ce0	0.04713142
235	0xbd216b5d	-0.03940903
236	0xbd03450f	-0.03204828
237	0x3c6f35f1	0.014600263
238	0xbd125037	-0.03572103
239	0x3d0de828	0.03464523
240	0x3d299c21	0.04140866
241	0x3b67cc3f	0.0035369543
242	0xbb55cc61	-0.003262304
243	0x3c853783	0.016261822
244	0x3c674194	0.014114756
245	0xbd57264a	-0.05252675
246	0x3bd0bc85	0.0063701295
247	0x3d5c492d	0.053780723
248	0xbd3d59d5	-0.04622825
249	0x3d37c598	0.044866174
250	0x3d34cc2c	0.044140026
251	0xbd1fdad8	-0.039027065
252	0x3d7c10c8	0.06153944
253	0x3c672af7	0.014109365
254	0x3cdca867	0.02693577
255	0xbccb2e23	-0.024802273

actor_mean.2.weight f4 [4, 256]
0	0x3d52c7eb	0.051460188
1	0xbd92a5da	-0.0716054
2	0x3d17167d	0.03688668
3	0x3d16249b	0.036656003
4	0x3dc17c3c	0.09447524
5	0x3e554bc3	0.20829682
6	0x3e312d42	0.1730242
7	0xbd7d8b41	-0.06190038
8	0xbd9896a0	-0.074506044
9	0xbd37671f	-0.04477608
10	0xbd9c5b49	-0.07634599
11	0xbe236ea9	-0.15960182
12	0x3e1edfd4	0.15515071
13	0x3ccf6885	0.025318393
14	0x3cef5f46	0.029220235
15	0x3dbb92e2	0.09158875
16	0xbddf12f5	-0.10892288
17	0xbdf55bbf	-0.1198039
18	0xbbd8939f	-0.0066093947
19	0xbd36aec2	-0.044600256
20	0x3d6e6449	0.058201108
21	0xbd4a523f	-0.049394842
22	0xbd5fbf69	-0.054625902
23	0x3d5de36d	0.05417197
24	0x3d827e1d	0.063717104
25	0x3d0d2e8b	0.034468215
26	0xbda5ec4b	-0.0810171
27	0xbdb7e581	-0.08979321
28	0xbc164159	-0.0091708535
29	0x3d6cd7fd	0.05782317
30	0x3dcf4eed	0.10122476
31	0xbbc0bbe7	-0.0058817747
32	0x3cc42637	0.023944004
33	0xbd7d4ba7	-0.061839726
34	0xbc929b34	-0.017896272
35	0x3c4846ca	0.012223909
36	0xbd6d0d86	-0.057874225
37	0x3d962753	0.07331719
38	0x3dc10230	0.09424245
39	0xbb916b82	-0.0044378648
40	0x3d3f4d27	0.046704438
41	0x3d9c23d9	0.07624025
42	0x3d1997a0	0.037498116
43	0xbd7420ce	-0.059601597
44	0x3ccb1e9d	0.024794871
45	0xbd8029d5	-0.06257979
46	0x3b1f3c4a	0.002429741
47	0xbda18978	-0.07887548
48	0xbc953ee2	-0.018218461
49	0x3dbda4d2	0.092599526
50	0x3db4493f	0.08803033
51	0xbc8b3e23	-0.016997403
52	0x3d28c398	0.041202158
53	0xbdeb7fba	-0.11498971
54	0xbdd4a4d1	-0.10382999
55	0x3d13fe5f	0.03613126
56	0xbd9cb513	-0.07651725
57	0xbdc1c84c	-0.09462032
58	0x3d0b9980	0.034081936
59	0x3d09b8a8	0.033623368
60	0xbd0e9109	-0.034806285
61	0xbdcb98a4	-0.09941223
62	0x3c9057e0	0.017620027
63	0x3bcec2b0	0.0063098297
64	0x3d917e28	0.071041405
65	0xbd64c2ab	-0.055849712
66	0x3bfd6ac3	0.0077336743
67	0xbdaf8587	-0.0857039
68	0x3d4ced99	0.05003128
69	0x3dc4b204	0.09604266
70	0xbdacd576	-0.08439152
71	0xbdd4d542	-0.10392238
72	0xbcfe082c	-0.031009756
73	0x3d37a53e	0.04483532
74	0x3c44dbe2	0.012015315
75	0x3d9dfe3b	0.07714506
76	0x3db6ff93	0.08935466
77	0x3d9aacba	0.07552476
78	0xbbe60a03	-0.0070202365
79	0x3da1e649	0.079052515
80	0x3d10980d	0.035301257
81	0xbc54fe1c	-0.0130000375
82	0x3e09ec41	0.1346903
83	0x3d2c7f3d	0.04211353
84	0xbdcace9f	-0.09902691
85	0x3d5541f4	0.05206485
86	0x3de07c69	0.10961229
87	0x3de262d0	0.11054003
88	0x3dc34936	0.09535448
89	0xbc17d53b	-0.009267147
90	0x3db8db55	0.09026209
91	0xbd98b6ea	-0.07456763
92	0x3cdd0241	0.026978614
93	0xbcb48719	-0.022037076
94	0xbd3a9b37	-0.04555818
95	0x3dffb7ed	0.12486253
96	0x3d660f41	0.05616689
97	0x3e2b9525	0.16756113
98	0xbd232bdf	-0.03983676
99	0x3d0fc7c8	0.035102636
100	0x3d84faa6	0.0649312
101	0x3c153afc	0.009108301
102	0xbd68881f	-0.05677044
103	0xbc7cdc8a	-0.01543344
104	0xbd0e2b35	-0.034709174
105	0xbd90e8c8	-0.070756495
106	0xbd4178ef	-0.047234472
107	0x3c90a65b	0.01765745
108	0x3c3fc422	0.011704477
109	0x3d3ce01f	0.046112176
110	0x3c9e29d6	0.019307058
111	0x3d0e20d1	0.034699265
112	0xbc7d2314	-0.015450258
113	0x3c5c85f4	0.013459671
114	0xbc9e3133	-0.01931057
115	0xbd3242ce	-0.04352074
116	0xbd82e8fe	-0.06392096
117	0x3d08e865	0.033424754
118	0xbd5fb8e7	-0.054619696
119	0x3db99814	0.0906221
120	0x3d09cecb	0.03364448
121	0x3d2aa790	0.041663706
122	0xbd373a3c	-0.04473327
123	0x3d09c35e	0.033633582
124	0xbd8ba447	-0.06818443
125	0x3ddeef6b	0.10885509
126	0x3d0a9b8c	0.033839747
127	0xbc19b69f	-0.009381919
128	0x3d77a50d	0.06046014
129	0xbd74c5d0	-0.05975896
130	0x3cc52577	0.024065716
131	0xbde1b6f5	-0.110212244
132	0xbd78a942	-0.06070829
133	0x3da1af10	0.07894719
134	0x3ba959c8	0.0051681735
135	0x3da72869	0.081620045
136	0x3d8f753c	0.070047826
137	0xbcf1ba12	-0.02950767
138	0xbbdab299	-0.0066741225
139	0xbb855abc	-0.0040696543
140	0xbcf20ff7	-0.029548628
141	0x3db54e7e	0.08852862
142	0x3e031de6	0.12804374
143	0x3d8c7ed7	0.0686013
144	0x3dc276ff	0.09495353
145	0x3ba31500	0.0049768686
146	0xbbede260	-0.007259652
147	0xbd61beea	-0.05511371
148	0xbca7d5b1	-0.020487638
149	0xbd8e10e2	-0.06936814
150	0x3dfb3981	0.122668274
151	0xbdd20fcc	-0.10256919
152	0x3daf059f	0.08545994
153	0xbdf376de	-0.118879065
154	0xbd601d11	-0.05471522
155	0xbddf588f	-0.10905563
156	0x3d41d3cd	0.04732113
157	0x3daffa5b	0.085926734
158	0x3d8120e4	0.063051015
159	0x3d190c64	0.037365332
160	0xbd4b90cb	-0.049698632
161	0xbd4d530c	-0.050128028
162	0xbdd784ad	-0.10523353
163	0x3d1bccd4	0.038037136
164	0xbc96a4f9	-0.018389212
165	0x3dda9528	0.106729805
166	0xbcce631a	-0.02519374
167	0xbd06423e	-0.032778017
168	0x3cc7f87e	0.024410482
169	0xbd350a13	-0.04419906
170	0xbdfee177	-0.12445348
171	0x3e0fa06b	0.14026038
172	0xbd119428	-0.035541683
173	0xbd1ee8cf	-0.038796242
174	0x3ddc74d8	0.10764474
175	0xbd878f5c	-0.066191405
176	0x3dcab5f3	0.09897985
177	0xbb65af2e	-0.0035047042
178	0x3d538a80	0.051645756
179	0xbc5afb72	-0.013365613
180	0xbd576f28	-0.05259624
181	0x3db12ed8	0.08651513
182	0x3d972137	0.07379382
183	0x3dabb4ef	0.0838412
184	0x3df66af1	0.12032116
185	0xbd457780	-0.048209667
186	0xbd78ac30	-0.060711086
187	0xbd998b37	-0.07497256
188	0x3dd8a6f5	0.105787195
189	0xbcb3ac37	-0.021932704
190	0x3d3c195e	0.04592263
191	0xbd471500	-0.04860401
192	0xbcb839a7	-0.022488428
193	0xbc5c503a	-0.013446862
194	0xbda57d85	-0.080805816
195	0x3ce12bd6	0.027486723
196	0x3dbcec7a	0.09224792
197	0xbde36182	-0.111025825
198	0x3e05e6e0	0.13076353
199	0xbc3ca912	-0.011514919
200	0x3cab52fd	0.020913595
201	0xbda78941	-0.08180476
202	0x3d8149fe	0.06312941
203	0xbd955d6c	-0.072932094
204	0xbd9d33a7	-0.076758675
205	0xbdb07355	-0.08615748
206	0xbdc36788	-0.095412314
207	0xbc34f9fc	-0.011045929
208	0x3d91fc85	0.071282424
209	0xbc56cd29	-0.013110437
210	0xbd4c14ad	-0.049824405
211	0x3d87a960	0.066241026
212	0xbcb8f63e	-0.022578355
213	0xbd92198f	-0.07133781
214	0xbc9daf9a	-0.019248772
215	0xbda42e69	-0.080166645
216	0xbd3c2950	-0.045937836
217	0x3cae0fdf	0.021247802
218	0xbd0bbe29	-0.034116898
219	0x3dae3a6f	0.08507239
220	0x39689d87	0.00022183928
221	0x3d1c6070	0.038177907
222	0x3db665f1	0.089061625
223	0xbbdde5dd	-0.0067717866
224	0x3d290903	0.04126836
225	0x3d2d5a09	0.042322192
226	0xbca95d58	-0.020674393
227	0xbd3d10b3	-0.046158504
228	0xbc3ed48d	-0.011647356
229	0x3d885236	0.066563055
230	0xbdd7a6fe	-0.10529898
231	0xbdb176fc	-0.086652726
232	0x3d78d4c6	0.06074979
233	0xbd3a8cad	-0.045544315
234	0xbcca3be8	-0.024686769
235	0xbd61ad2a	-0.055096783
236	0x3d9ed302	0.0775509
237	0x3da4a47c	0.080391854
238	0xbd4366aa	-0.04770533
239	0xbd8e5075	-0.0694894
240	0xbc0f3ba4	-0.008742247
241	0x3c91b185	0.017784843
242	0x3d935fb8	0.07195991
243	0x3d1aeeb8	0.037825316
244	0xbd843b74	-0.06456652
245	0xbd858a83	-0.0652056
246	0xbdac2d7d	-0.08407114
247	0xbdb1d7ef	-0.08683764
248	0x3d629b1d	0.05532371
249	0x3d3cae42	0.046064623
250	0x3d0cfc7a	0.034420468
251	0xbcbbb5b8	-0.022913799
252	0x3dba5f48	0.09100205
253	0x3da5c45f	0.080940954
254	0x3df72461	0.120674856
255	0x3d86aa97	0.06575506

actor_mean.2.bias f4 [4]
0	0x3c79a35f	0.015236705
1	0x3d6ce2d7	0.05783352
2	0x3cd86d73	0.026419377
3	0x3d202013	0.03909309

critic.0.weight f4 [256, 256]
0	0xbbffc3d2	-0.007805326
1	0x3d082a0d	0.033243228
2	0xbc547798	-0.0129679665
3	0xbd605801	-0.054771427
4	0x39a14c94	0.00030765368
5	0xbc4d29a3	-0.012522134
6	0x3d48842a	0.048954166
7	0x3d577a9f	0.052607175
8	0xbcfe85e2	-0.0310697
9	0x3c9cdac0	0.019147277
10	0x3cccbde4	0.02499289
11	0x3b6f5771	0.0036520625
12	0x3cf47c50	0.029844433
13	0x3d6e35ec	0.058156893
14	0x3d3915c4	0.045186773
15	0x3dadd473	0.08487787
16	0x3c9bfc72	0.019041274
17	0x3d92c997	0.071673565
18	0x3dd2d288	0.10294062
19	0x3d12417b	0.03570698
20	0xbd4955ea	-0.0491542
21	0x3dad02ae	0.08447777
22	0x3d3ee02a	0.0466005
23	0xbc92f2ff	-0.017938135
24	0x3d669d56	0.05630239
25	0x3d1ecf9e	0.038772218
26	0xbd917cb4	-0.07103863
27	0x3d94560b	0.07242974
28	0xbc743759	-0.014905774
29	0x3d9b482b	0.07582124
30	0xbb4f6ff4	-0.0031652423
31	0x3d847c5e	0.06469034
32	0xbd95b75d	-0.073103644
33	0x3d17b007	0.037033107
34	0xbd1ed84c	-0.038780496
35	0x3d883c3d	0.066521145
36	0xbd6dd788	-0.058066875
37	0x3d3cf7e1	0.046134833
38	0xbc870c43	-0.016485339
39	0xbcde6e07	-0.027152075
40	0x3cb7f424	0.022455283
41	0x3d209a1a	0.039209463
42	0xbd1d90cb	-0.038468163
43	0xbd54b886	-0.051933788
44	0x3cf81b56	0.030286472
45	0x3ca2a0c3	0.019852048
46	0x3b195c69	0.0023401028
47	0xbc930cc9	-0.017950432
48	0x3d3b36c0	0.04570651
49	0x3d9edfbb	0.07757517
50	0x3d96e8a2	0.0736859
51	0xbcfc2a32	-0.030781839
52	0xbd105f71	-0.03524727
53	0x3d9eaa81	0.07747365
54	0xbb95002f	-0.004547141
55	0xbd94f767	-0.07273751
56	0x3dc6d10f	0.097078435
57	0xbbb4d23f	-0.0055182273
58	0x3d00a1fc	0.03140448
59	0xbcd8bafb	-0.026456347
60	0x3e11d41c	0.1424107
61	0x3d8407f2	0.06446828
62	0x3cbecf5f	0.023292242
63	0xbd946402	-0.072456375
64	0x3d6ddefb	0.05807398
65	0xbd1b5a6d	-0.037928034
66	0x3ce012df	0.027352748
67	0xbd7f9a06	-0.062402748
68	0xbccfcd6e	-0.025366511
69	0x3d2ec617	0.042669382
70	0xbd96327a	-0.073338464
71	0x3d9eb192	0.077487126
72	0x3cb17e40	0.021666646
73	0x3db17636	0.08665125
74	0x3da46d0a	0.0802861
75	0x3d13e7e0	0.036109805
76	0x3be662ba	0.007030812
77	0xbc9577de	-0.018245634
78	0xbd4d4be2	-0.050121196
79	0x3cd2b996	0.02572326
80	0x3d8683e0	0.06568122
81	0x3e3d2f47	0.18475066
82	0xbd44204b	-0.04788236
83	0xbd6fd08a	-0.058548488
84	0x3c698c0a	0.014254579
85	0x3b9d778d	0.0048055113
86	0x3ce91917	0.028454347
87	0x3cfebe73	0.031096673
88	0xbd9f4e61	-0.077786215
89	0xbd13c364	-0.03607501
90	0x3d733097	0.05937251
91	0x3ccc134d	0.024911547
92	0x3cc3b25e	0.023888763
93	0xbd19fbe4	-0.037593737
94	0x3c9c0e79	0.01904987
95	0x3d7294ef	0.059224065
96	0x3d011a11	0.031519
97	0x3d63c28c	0.055605456
98	0xbc95a708	-0.018268123
99	0x3cd8889d	0.02643233
100	0x3d794a85	0.060862083
101	0x3d461a80	0.048365116
102	0xbda15873	-0.078781985
103	0x3c826769	0.01591845
104	0x3d8da2d4	0.069158226
105	0x3ca7cb58	0.020482704
106	0x3d88a27c	0.066716164
107	0xbc84702d	-0.01616677
108	0xbd0073ac	-0.031360313
109	0x3d51a551	0.05118305
110	0xbc0ce04a	-0.008598397
111	0x3d82cff9	0.06387324
112	0x3d02857b	0.03186558
113	0x3d71d3fe	0.059040062
114	0xbd6cc97f	-0.05780935
115	0x3d39de24	0.045377865
116	0x3c82c960	0.015965164
117	0x3dada591	0.08478845
118	0x3cc177c4	0.023616679
119	0xbcd54cfb	-0.026037684
120	0x3d246f52	0.040145226
121	0x3d331da1	0.04372943
122	0x3d2171ad	0.03941505
123	0xbc82923f	-0.015938876
124	0x3c6ec424	0.014573131
125	0x3dc90d46	0.09816985
126	0xbd53820d	-0.051637698
127	0x3bf3f18d	0.0074445666
128	0xbd374c41	-0.044750456
129	0xbd461408	-0.048358947
130	0x3dae60d8	0.08514565
131	0x3d30eeff	0.043196674
132	0x3d8922cf	0.06696092
133	0xbd2393de	-0.03993594
134	0x3df7a5e9	0.12092192
135	0x3cda07d4	0.02661506
136	0x3d2b15cc	0.041768834
137	0xbd143bc5	-0.036189813
138	0x3d2eccff	0.04267597
139	0x3c961cf7	0.018324358
140	0x3b98641d	0.0046506063
141	0xbc8312d5	-0.01600019
142	0x3d8b66fa	0.068067506
143	0x3c64acb8	0.013957195
144	0x3aa97115	0.0012927378
145	0x3c656e6c	0.014003377
146	0x3d7444c1	0.05963588
147	0xbbbff16f	-0.0058576385
148	0xbd27c6e1	-0.04096115
149	0x3d6cbeb3	0.057799052
150	0xbc1cc97c	-0.009569522
151	0x3ba49f7d	0.0050238953
152	0xbc83143f	-0.016000865
153	0x3de6072c	0.11231837
154	0x3d1f52eb	0.038897436
155	0xbc0de015	-0.008659382
156	0xbbf846ea	-0.007576813
157	0x3d325088	0.04353383
158	0xbcaf3cbd	-0.021391267
159	0x3d120ec6	0.03565862
160	0x3d3f7b05	0.04674818
161	0x3d3fdd9e	0.04684221
162	0xbc0d61c3	-0.008629265
163	0x3d08765a	0.033315994
164	0x3ccf73f0	0.025323838
165	0x3b2f482f	0.0026745906
166	0x3cabde85	0.020980129
167	0x3d158ba1	0.036510114
168	0xbc834c5c	-0.016027622
169	0x3c383d13	0.01124503
170	0x3c8c4d0d	0.017126584
171	0x3b14f88c	0.0022731153
172	0x3d84ec3b	0.0649037
173	0x3cfa944a	0.030588288
174	0x3b2f38f9	0.002673684
175	0x3d3bd949	0.045861516
176	0xbd6b84fe	-0.057499878
177	0x3cb2c83b	0.021823993
178	0x3bb618a8	0.0055571385
179	0x3bfc3690	0.007696934
180	0x3d25e21f	0.04049885
181	0x3b866a3a	0.0041020187
182	0xbd411d54	-0.04714711
183	0xbd075087	-0.03303578
184	0xbc54fe52	-0.013000088
185	0xbc10eb1c	-0.008845117
186	0xbd203c35	-0.039119918
187	0x3cb0b20a	0.02156927
188	0xbce31896	-0.027721684
189	0x3c0fbac4	0.008772556
190	0xbd937c60	-0.07201457
191	0xbca6d451	-0.020364912
192	0x3d63d5cd	0.05562382
193	0x3c90e7ee	0.017688718
194	0x3bb135a5	0.0054080063
195	0xbb93efc5	-0.0045146667
196	0xbd23b422	-0.03996671
197	0xbd176b56	-0.036967598
198	0x3d95caa0	0.07314038
199	0x3df07ea5	0.117429055
200	0x3d624dc6	0.05524995
201	0xbc36b520	-0.011151582
202	0xbcdcd533	-0.02695713
203	0xbc700724	-0.01465014
204	0xbd185b02	-0.037196167
205	0x3d8bcab0	0.06825769
206	0xbce9024e	-0.028443482
207	0x3d47952c	0.048726246
208	0x3d8aed8a	0.06783588
209	0xbce08a93	-0.027409827
210	0xbc1ff3a0	-0.009762675
211	0x3cc3490d	0.023838544
212	0x3cfebebe	0.031096812
213	0xbd0e0282	-0.03467036
214	0x3d0ae459	0.033909176
215	0x3c74844d	0.014924121
216	0xbd58ebcb	-0.052959245
217	0x3cfb47c3	0.030673867
218	0x3ce38e3e	0.027777787
219	0x3d933e74	0.07189646
220	0xbcd58787	-0.026065601
221	0xbc70c877	-0.014696232
222	0xbcc34f17	-0.023841424
223	0xbd3bfdac	-0.045896217
224	0xbd3f3f8e	-0.04669147
225	0x3d23cd99	0.039990995
226	0xbaf8a960	-0.0018971376
227	0xbcfde61c	-0.030993514
228	0x3c25e06f	0.01012431
229	0x3b4cb056	0.0031233034
230	0x3b3a1959	0.0028396456
231	0xbc59e680	-0.013299584
232	0x3d44017a	0.04785297
233	0x3d3bd093	0.04585321
234	0xbd775b92	-0.060390063
235	0xbd40daa4	-0.047083512
236	0x3d7794b1	0.060444538
237	0xba4d57cc	-0.0007833212
238	0xbb488519	-0.003059691
239	0x3d87bc88	0.06627756
240	0xbd02df14	-0.031951025
241	0x3d99a7d9	0.075027175
242	0xbbee6570	-0.007275276
243	0xbb9a2df5	-0.0047051855
244	0xbd7b2770	-0.061316907
245	0xbc03ab6a	-0.008036474
246	0xbca52c9c	-0.020162873
247	0xbd2db66b	-0.042410295
248	0x3d930fed	0.07180772
249	0xbca81fd8	-0.020522997
250	0xbd5faedc	-0.05461012
251	0x3d5576db	0.052115303
252	0x3c8875f6	0.01665781
253	0xbd4f4cfe	-0.050610535
254	0x3b3853a2	0.002812602
255	0x3d58d0bc	0.05293344

critic.0.bias f4 [256]
0	0x3d0cbb5f	0.03435838
1	0x3ced99f5	0.029004076
2	0x3dadbd30	0.0848335
3	0x3dc7ed8d	0.09762106
4	0x3c4eb753	0.01261695
5	0xbccbd279	-0.024880635
6	0xbcf3a0f1	-0.029739829
7	0xbd642246	-0.05569675
8	0xbac825f3	-0.0015270099
9	0x3d6be4bb	0.05759118
10	0xbd1d3388	-0.038379222
11	0xbccd0c68	-0.02503033
12	0x3dba4aa9	0.090962715
13	0x3d5164a6	0.051121376
14	0x3d1b472d	0.037909675
15	0x3da2cbf0	0.07949054
16	0xbd778a45	-0.0604346
17	0x3d2a6a04	0.04160501
18	0x3b53f87d	0.0032344155
19	0x3c065031	0.00819783
20	0x3dad8275	0.08472148
21	0xbd5f1a10	-0.054468215
22	0x3d3fc868	0.04682198
23	0xbc7e52d9	-0.015522682
24	0x3d2e5b72	0.042567678
25	0x3db40e89	0.08791835
26	0x3c5c7d71	0.013457642
27	0x3d9b0605	0.075695075
28	0x3d27461c	0.040838346
29	0x3c801800	0.015636444
30	0xbd1f7da6	-0.038938187
31	0x3d9aaca9	0.075524636
32	0x3d93cd73	0.07216921
33	0x3d802e2d	0.06258807
34	0x3dc8758f	0.097880475
35	0xbd13476c	-0.035956785
36	0x3d44cf4f	0.048049267
37	0xbb9b84a4	-0.0047460366
38	0x3c89a9b6	0.016804557
39	0x3cee7b80	0.029111624
40	0x3ca448b8	0.020054206
41	0x3d8f10af	0.06985604
42	0x3da9d5d5	0.08292738
43	0xbc662246	-0.014046257
44	0x3d2fef08	0.042952567
45	0x3ced1bc1	0.028943898
46	0xbd040a9c	-0.03223668
47	0x3c94d852	0.018169556
48	0x3c5a3eaf	0.013320609
49	0xbd35bbb1	-0.04436845
50	0xbd03662c	-0.03207986
51	0x3a061b19	0.0005115732
52	0xbd0cc550	-0.03436786
53	0xbc40e361	-0.011772961
54	0xbcbbd181	-0.022927048
55	0x3db3155d	0.08744309
56	0x3d87fb9c	0.066397876
57	0x3d2f3a15	0.04278
58	0x3c06a674	0.008218396
59	0x3d31f790	0.043448985
60	0xbd232e14	-0.039838865
61	0x3ce3e4e1	0.027819099
62	0x3d995575	0.07487003
63	0x3d86a29e	0.065739855
64	0x3d82b1d4	0.06381574
65	0x3db4fe5a	0.08837576
66	0x3cda3420	0.026636183
67	0x3c1ef9b7	0.009703091
68	0xbc8395be	-0.016062614
69	0x3c8782a8	0.016541794
70	0x3d8d1540	0.06888819
71	0x3d57f213	0.052721094
72	0x3c44d6e7	0.012014127
73	0x3d92788f	0.07151901
74	0xbd399e1b	-0.045316797
75	0x3d4a0727	0.049323227
76	0xbc3807f8	-0.011232369
77	0xbc02b490	-0.00797762
78	0xbd91982e	-0.07109104
79	0x3da5ddd8	0.08098954
80	0x3dbad9a9	0.09123547
81	0x3db7d986	0.08977036
82	0x3d6f09a4	0.058358803
83	0xbc9bec9d	-0.019033724
84	0xbc6c51b3	-0.0144237755
85	0x3ce1f1d2	0.02758113
86	0x3d8ee73a	0.06977697
87	0xbc7c9ff2	-0.015418993
88	0x3d259fb7	0.04043552
89	0xbd55d537	-0.05220529
90	0x3d45486b	0.048164766
91	0x3bd9cd91	0.00664682
92	0x3ca7ff2c	0.020507418
93	0xbd85379e	-0.06504749
94	0x3c4f92d7	0.012669287
95	0x3d3d4165	0.046204943
96	0xbd6c1596	-0.057637773
97	0x3d1b6089	0.03793386
98	0x3b694373	0.0035593181
99	0x3cc89f23	0.024489945
100	0x3dca18df	0.09868025
101	0x3c9e294e	0.019306805
102	0x3d366182	0.044526584
103	0x3d922fa0	0.0713799
104	0x3d8e1964	0.069384366
105	0x3cd2cc17	0.025732083
106	0x3c639436	0.013890317
107	0x3cdf4504	0.027254589
108	0x3d1e6469	0.038669977
109	0x3db3b74c	0.087751955
110	0xbccb7278	-0.024834856
111	0x3d567edb	0.052367073
112	0x3b8169af	0.003949366
113	0xbce8ec6f	-0.028433053
114	0x3d9ab2f0	0.07553661
115	0xbbc2622e	-0.005932114
116	0x3b168ed7	0.0022973323
117	0x3d3cfc1a	0.04613886
118	0x3ccdbeba	0.02511536
119	0xbc8fe095	-0.017563144
120	0x3d0573b5	0.03258105
121	0x3d9735a1	0.07383276
122	0x3d507f1d	0.050902475
123	0x3cd66b56	0.026174229
124	0x3ce2575f	0.027629552
125	0xbd47ca9e	-0.048777215
126	0xbc56d13d	-0.01311141
127	0xbc12a5b1	-0.008950637
128	0xbcafcfec	-0.02146145
129	0x3ce3f8e8	0.027828649
130	0x3d8f50f8	0.069978654
131	0x3c2ff626	0.010739839
132	0xbcc17459	-0.02361505
133	0xbc6e8658	-0.014558397
134	0x3d5edd2b	0.05441014
135	0x3dc3ab98	0.09554213
136	0x3c9616f1	0.018321486
137	0x3c98ee6c	0.018668376
138	0x3c25264d	0.010079932
139	0x3c52c781	0.012864948
140	0x3da9cc76	0.08290951
141	0x3d58905e	0.052872054
142	0x3d833cab	0.06408056
143	0x3d0977ee	0.03356164
144	0xbc90dc48	-0.017683163
145	0xbca91d82	-0.020643953
146	0xbcc9db72	-0.024640772
147	0x3db107c9	0.08644063
148	0xbc47fb69	-0.012205937
149	0x3c971282	0.018441442
150	0x3db5976c	0.08866772
151	0x3cb50f59	0.022102045
152	0xbd2d1761	-0.042258624
153	0x3d506c57	0.05088457
154	0xbd4c528f	-0.04988342
155	0x3da3ada7	0.07992106
156	0x3d9e49f1	0.07728947
157	0xba5c918a	-0.0008414021
158	0x3d15ed2d	0.03660314
159	0x3d716c04	0.058940902
160	0xbc5db540	-0.013531983
161	0x3d2f225a	0.04275737
162	0x3d263c15	0.040584642
163	0x3d80153f	0.06254052
164	0xbce042e1	-0.02737564
165	0x3cf446cc	0.029818915
166	0x3dc0aa1b	0.09407445
167	0x3d5c70c6	0.053818487
168	0x3d8eac82	0.06966497
169	0x3d417574	0.047231153
170	0xbba9b430	-0.0051789507
171	0x3d85289d	0.06501887
172	0x3d755f5b	0.05990539
173	0xbce90369	-0.028444009
174	0xbceaa369	-0.028642373
175	0xbd3afb65	-0.045649905
176	0x3d0b988a	0.03408102
177	0xbd2d77e8	-0.04235068
178	0xbcb70a19	-0.022343682
179	0x3d6df6dc	0.05809675
180	0x3d9308f9	0.07179446
181	0x3d8ab215	0.06772248
182	0x3d2b4c27	0.04182067
183	0x3dab78d3	0.08372655
184	0x3d9a3673	0.075299166
185	0x3d9d1071	0.076691516
186	0x3c053956	0.008131346
187	0x3d2d0c7b	0.04224823
188	0x3c8d0cb7	0.017217977
189	0x3dccf6ca	0.10008009
190	0x3db7d2a6	0.08975725
191	0x3d0db3ed	0.03459542
192	0x3da20974	0.07911959
193	0xbca12f76	-0.019675951
194	0xbcbb784e	-0.022884514
195	0xbc6e3b17	-0.014540455
196	0xbc5cf292	-0.013485568
197	0xbbac6718	-0.005261313
198	0xbb0c59af	-0.002141576
199	0xbca70cc7	-0.020391835
200	0xbce2ef84	-0.0277021
201	0xbcde3a7d	-0.027127499
202	0x3c76331f	0.015026837
203	0x3cec7dfb	0.028868666
204	0xbbc1a8de	-0.005910023
205	0x3ce01b6c	0.027356826
206	0x3d34ba51	0.044122998
207	0x3dc95eac	0.0983251
208	0x3d54a925	0.05191912
209	0x3db9eead	0.09078727
210	0x39ed6d98	0.00045285816
211	0x3dbcdd71	0.09221924
212	0x3d7ef350	0.06224376
213	0x3d84b367	0.06479531
214	0x3d3de6c6	0.04636266
215	0xbc8f0b4b	-0.01746144
216	0x3d9dde77	0.077084474
217	0xbcbf22bb	-0.02333199
218	0xb957f0ba	-0.00020593675
219	0xbd0467cc	-0.03232555
220	0x3bfbffd8	0.007690411
221	0x3dc204eb	0.09473594
222	0x3dd01235	0.10159723
223	0x3c67c2af	0.014145537
224	0xbc982971	-0.018574448
225	0x3d49f489	0.049305473
226	0x3da998b6	0.082810804
227	0x3d9e218a	0.07721241
228	0xbd363c7e	-0.044491284
229	0xbc6c4072	-0.014419662
230	0x3ccebf28	0.025237635
231	0x3d202757	0.039100017
232	0xbd8569f2	-0.06514348
233	0xbad9956d	-0.0016600318
234	0x3d9926ba	0.0747809
235	0x3d6fcad8	0.058543056
236	0x3c688fcf	0.014194443
237	0x3d6faec8	0.058516294
238	0x3da284da	0.07935496
239	0x3dc76d6f	0.0973767
240	0x3d82e6a3	0.06391647
241	0x3c4c158a	0.012456307
242	0x3d14663f	0.036230322
243	0x3da570ea	0.08078177
244	0x3d42acbd	0.047528017
245	0xbcdf0af3	-0.0272269
246	0xbbd5649a	-0.006512237
247	0x3d46fe17	0.048582163
248	0x3d30b300	0.043139458
249	0xbd17a62e	-0.037023716
250	0xbccd5beb	-0.025068244
251	0x3d08bb6d	0.03338187
252	0xbd6c6ff3	-0.05772395
253	0xbc93f697	-0.01806192
254	0x3dd61eb1	0.10455073
255	0x3d161879	0.036644433
