best_model_episode_900.pth (torch, 561686 bytes, 10 tensors)

actor_log_std f4 [4]
-0.7514783 -0.9672745 -0.18026161 -0.61276317
00000000: e260 40bf 4d9f 77bf 8096 38be 0cde 1cbf

shared.0.weight f4 [256, 24]
0.20157759 -0.008527749 0.035667595 0.2005321 -0.10126305 -0.054143377 -0.20000193 0.05255318
0.18486217 -0.1534302 0.26939866 0.034392457 0.17068599 -0.048043646 0.10735963 -0.024028843
0.15624055 0.020000106 -0.114536665 0.025133993 -0.11711856 -0.015772635 -0.07331081 0.1887294
-0.35340014 -0.091943845 -0.24403992 -0.085736066 0.07815046 -0.20035556 0.25672132 -0.16277163
0.13310616 -0.070890374 -0.038583916 0.15336017 0.020388333 0.10953235 -0.027650211 -0.111045085
0.0072360076 -0.10501692 0.038392246 0.13707371 0.07781983 -0.10888749 0.084001094 0.09046735
0.39229512 -0.19609998 -0.008442442 0.09498006 -0.26682892 0.098649055 -0.009940907 0.06921139
0.056422185 0.020448748 0.020926 -0.20441976 0.010664089 -0.053308632 0.062000595 -0.0749049
0.049779266 -0.06563991 0.13895935 -0.15618193 -0.15850025 -0.13984488 0.1655027 0.112615
0.4319389 0.21436727 -0.33634955 -0.25575462 0.03483436 0.05301906 0.188089 0.020850895
-0.02321583 -0.1934754 0.024475897 -0.090650685 0.010490888 -0.083604455 0.06813035 -0.20455265
-0.14660962 0.019729845 -0.00021048963 -0.09574185 0.07661694 0.089145474 -0.20032501 -0.18557592
0.35878414 -0.09853266 0.07381877 -0.37512815 -0.22421297 0.17974125 -0.015641952 -0.19965306
-0.027347993 -0.078449145 -0.17065915 -0.18095128 -0.13071257 0.0019870447 0.24932642 0.08249715
0.10143844 -0.15970087 -0.10826324 -0.04600423 0.048982594 -0.16030751 -0.07205307 -0.06332255
-0.08142294 -0.024845768 -0.06402138 -0.361439 -0.22104883 -0.15539692 -0.15528075 -0.11471507
0.15461288 0.007997658 0.17816979 0.020059742 -0.14540839 0.22512859 -0.0028484156 -0.03067565
-0.12288684 -0.15501137 0.106624074 0.0039657606 0.12984726 -0.1258955 0.23285682 -0.094233826
-0.53825617 -0.9668419 0.16167827 0.5058653 0.094720446 0.025103342 0.13316263 -0.01792246
-0.007030837 -0.28634855 -0.025127001 -0.22959088 -0.014900886 -0.010895454 0.14700656 -0.039540127
0.2436478 0.09045304 0.05416221 -0.17294286 0.07444627 -0.0604485 -0.098172165 0.24083742
-0.23817246 -0.0891458 -0.09810794 -0.17657539 0.08200303 -0.04707083 0.19000222 -0.055119235
-0.42070073 -0.069782704 0.100414105 -0.2358508 -0.015279871 0.118203804 0.050853383 -0.046229485
0.14401548 0.15524131 0.13837929 0.036169127 0.016007252 0.08478673 -0.023835756 0.00020570486
0.41670224 0.76151997 -0.37641805 -0.25552177 0.24761789 0.0011018376 0.19191419 -0.0065697464
-0.038927708 -0.039507598 0.03609432 0.029460914 0.01610609 -0.18691336 -0.13775778 -0.1955091
-0.07955013 0.054247316 0.1128645 0.07424727 -0.20338698 -0.14950088 -0.056303803 0.15917371
0.008317932 -0.11997569 -0.060408477 -0.343893 -0.055176966 0.19284075 -0.19867389 -0.034419443
-0.22201519 0.14566056 0.120353304 0.2011099 -0.038383737 -0.25275767 -0.15382217 0.16501586
0.1123458 0.18986991 0.1307626 0.08190009 0.03308473 -0.11642607 -0.15259722 -0.16474985
0.17538118 -0.14128932 0.06900172 -0.200832 -0.04878996 -0.09651099 -0.34737754 0.01223027
-0.04567371 0.20433472 -0.06922138 -0.16073199 -0.0325394 -0.011725692 -0.023028042 -0.15371123
00000000: 5b6a 4e3e f9b7 0bbc 2f18 123d 4958 4d3e
00000010: 0163 cfbd 72c5 5dbd 4ecd 4cbe 0142 573d
00000020: 824c 3d3e ce1c 1dbe 9fee 893e 1bdf 0c3d
00000030: 4fc8 2e3e 6ac9 44bd 5edf db3d 23d8 c4bc
00000040: 86fd 1f3e 43d7 a33c 3392 eabd cee5 cd3c
00000050: dbdb efbd 9d35 81bc fa23 96bd 4842 413e
00000060: ddf0 b4be 0e4d bcbd 9ae5 79be 6496 afbd
00000070: 590d a03d 022a 4dbe fa70 833e 9bad 26be
00000080: fb4c 083e f92e 91bd 2b0a 1ebd 730a 1d3e
00000090: 6f05 a73c 7f52 e03d b282 e2bc 9b6b e3bd
000000a0: 081c ed3b 1c13 d7bd 3041 1d3d 0d5d 0c3e
000000b0: 0160 9f3d 6800 dfbd c408 ac3d f246 b93d
000000c0: e8da c83e 6fce 48be 2b52 0abc e884 c23d
000000d0: cd9d 88be 8408 ca3d 30df 22bc b4be 8d3d
000000e0: f31a 673d 2284 a73c 016d ab3c 6a53 51be
000000f0: 6eb8 2e3c 275a 5abd 56f4 7d3d bd67 99bd
00000100: 58e5 4b3d 386e 86bd 5c4b 0e3e 28ee 1fbe
00000110: e44d 22be 7f33 0fbe 8a79 293e b1a2 e63d
00000120: 1827 dd3e 1883 5b3e 0236 acbe 45f2 82be
00000130: 79ae 0e3d 842a 593d 679a 403e 7fcf aa3c
00000140: 202f bebc 6a1e 46be ad81 c83c 11a7 b9bd
00000150: f9e1 2b3c d038 abbd ed87 8b3d 4076 51be
00000160: d520 16be 7ca0 a13c e1b6 5cb9 4e14 c4bd
00000170: 58e9 9c3d e791 b63d 0022 4dbe 9d07 3ebe
00000180: 8eb2 b73e 7ecb c9bd 4c2e 973d cc10 c0be
00000190: 1698 65be 170e 383e 8d23 80bc da71 4cbe
000001a0: e608 e0bc f2a9 a0bd 46c1 2ebe 4b4b 39be
000001b0: 84d9 05be 1439 023b 6d4f 7f3e 44f4 a83d
000001c0: f5be cf3d a088 23be 1eb9 ddbd ee6e 3cbd
000001d0: f9a1 483d a727 24be 8f90 93bd 41af 81bd
000001e0: 12c1 a6bd 5a89 cbbc a41d 83bd 880e b9be
000001f0: a05a 62be 5f20 1fbe eb01 1fbe bcef eabd
00000200: d752 1e3e 9c08 033c 2472 363e 5454 a43c
00000210: f0e5 14be 1c88 663e 7cac 3abb 804b fbbc
00000220: 18ac fbbd 4dbb 1ebe b95d da3d 36f3 813b
00000230: aef6 043e c0ea 00be 0572 6e3e aafd c0bd
00000240: 28cb 09bf f382 77bf fd8e 253e 6380 013f
00000250: cbfc c13d 86a5 cd3c c95b 083e 1fd2 92bc
00000260: ef62 e6bb 479c 92be 24d7 cdbc df19 6bbe
00000270: d922 74bc d982 32bc e388 163e d4f4 21bd
00000280: cf7e 793e 723f b93d 32d9 5d3d ef17 31be
00000290: 4977 983d d998 77bd 7d0e c9bd 169e 763e
000002a0: 7be3 73be 1392 b6bd d1ec c8bd 2ed0 34be
000002b0: 34f1 a73d 58cd 40bd f18f 423e b5c4 61bd
000002c0: 1666 d7be 3cea 8ebd e9a5 cd3d df82 71be
000002d0: 6d58 7abc d614 f23d a34b 503d 215b 3dbd
000002e0: cb78 133e 94f7 1e3e 4db3 0d3e 1426 143d
000002f0: a421 833c aaa4 ad3d 3443 c3bc 7ab2 5739
00000300: ff59 d53e f9f2 423f deb9 c0be c0d3 82be
00000310: 8b8f 7d3e 896b 903a 2785 443e 0747 d7bb
00000320: a972 1fbd b8d2 21bd a3d7 133d 0458 f13c
00000330: ebf0 833c 3766 3fbe 6010 0dbe 8a33 48be
00000340: 2eeb a2bd 6f32 5e3d 8125 e73d f40e 983d
00000350: ad44 50be c216 19be d19e 66bd 6ffe 223e
00000360: ef47 083c d1b5 f5bd e16e 77bd be12 b0be
00000370: 3e01 62bd 0c78 453e 2b71 4bbe 67fb 0cbd
00000380: f357 63be 0b28 153e cb7b f63d c1ef 4d3e
00000390: 4438 1dbd 7469 81be 8f83 1dbe ebf9 283e
000003a0: 8e15 e63d 426d 423e a2e6 053e 3cbb a73d
000003b0: db83 073d cb70 eebd 7242 1cbe 2fb4 28be
000003c0: 2097 333e 26ae 10be c650 8d3d e7a6 4dbe
000003d0: fbd7 47bd 8ea7 c5bd 78db b1be 7861 483c
000003e0: 5b14 3bbd 1f3d 513e f0c3 8dbd ed96 24be
000003f0: 0948 05bd 1e1d 40bc 4ea5 bcbc 7a66 1dbe

shared.0.bias f4 [256]
-0.12641086 0.08040696 -0.019607272 0.09021856 -0.15786451 0.07997376 0.15668646 0.089749455
-0.08841494 0.21304123 -0.076040946 0.2783497 0.06614675 0.14210717 0.17359571 0.06732429
0.13566355 -0.0891693 -0.11457392 0.11663773 0.29181665 0.1392201 -0.08938444 -0.14159137
0.015895579 0.08337242 -0.15523002 0.25757405 0.17627029 0.07607594 0.2315947 0.06364559
-0.060252175 0.100022614 0.1375872 0.15255196 -0.014161653 0.042022258 -0.038771473 0.018747294
-0.12654851 0.17445917 0.24758823 -0.06031096 -0.029067412 -0.033600885 -0.14437197 0.2392934
0.0051311413 -0.057279978 -0.19258499 0.013864311 -0.080059014 -0.1572581 0.1676697 0.11937299
0.08393346 0.17846347 0.059852075 0.018180758 -0.12690383 0.14229558 -0.007460929 0.030476693
-0.09483393 0.0075014345 -0.08661013 -0.09266203 -0.019913053 -0.062747054 -0.06426608 -0.21688399
0.18538211 0.014125306 -0.15118545 -0.1890132 -0.055158604 0.018655896 0.104838185 0.03186489
0.19147235 -0.006181886 -0.07946241 0.008623296 -0.25733554 -0.004167816 0.13596828 0.23080914
-0.08366529 -0.03782121 0.00038424914 0.08381365 0.074546844 -0.12279192 0.16327953 -0.15198816
-0.13850112 0.16696768 -0.04225374 -0.10759387 -0.16663677 0.2530861 -0.052309185 0.110318005
0.016539643 -0.102003306 -0.017802209 0.14993975 -0.12100556 0.027608614 0.1852737 -0.09452831
0.074798025 -0.042077776 0.1306605 0.12136724 -0.1488058 -0.1329026 0.089598276 -0.067083016
0.14599378 0.048199788 -0.008765789 0.101964004 -0.09908042 0.102932945 0.21318835 0.1276338
-0.148536 0.18994527 0.2144165 0.22298574 0.0229519 -0.002354374 0.06422706 -0.030076526
-0.22629516 0.011736106 0.23950948 0.0790732 0.115536556 0.109709546 0.14204237 -0.06814232
0.1994103 0.10464793 -0.029554231 -0.055087753 -0.090978354 -0.11050891 -0.05619468 0.2731994
0.018965669 0.03689184 -0.06650316 0.020137701 -0.010081158 0.19473998 0.14046623 -0.031090839
1.12957805e-05 0.08587749 0.0021913312 0.25033545 -0.02198036 0.1893276 -0.0898076 0.23006287
0.13710377 0.015751638 0.002240244 0.025669754 -0.1431142 -0.19491601 0.14330229 0.23659612
0.03487942 0.0036958004 0.0825221 0.011529529 -0.087016344 -0.092617914 0.09519659 -0.10864445
0.014898155 -0.10837624 0.13214998 -0.042097684 -0.054947976 0.16077092 0.20205605 0.18752715
0.06407568 0.006271643 0.10558706 0.21491677 0.16071288 0.19488528 0.11273807 0.09865418
0.2072992 0.10004319 -0.1700231 -0.0872168 -0.10121503 -0.068749234 0.08973943 -0.022887072
-0.24456377 -0.0820613 0.14086106 0.061870523 0.038771328 0.052621435 -0.014658177 -0.018689115
0.022038713 -0.038810067 -0.19911078 -0.12353262 0.00898468 0.15105927 0.21854891 -0.022963993
0.21786338 -0.0019506412 -0.14069682 -0.10602348 -0.09209314 -0.12785934 0.077257365 0.07540544
-0.20074946 0.052936196 -0.14694856 0.27048776 0.14492331 -0.021055788 0.2153179 -0.12920634
0.22349101 -0.0744303 0.074001595 0.20741016 -0.0030162607 0.08356374 0.034612913 0.07266724
0.22986731 -0.010039541 -0.051904455 0.065989055 0.016260589 -0.043529116 -0.057606857 0.19892727
00000000: d971 01be 67ac a43d 6e9f a0bc 82c4 b83d
00000010: 3ca7 21be 48c9 a33d 6a72 203e 90ce b73d
00000020: e412 b5bd 7b27 5a3e 5bbb 9bbd da83 8e3e
00000030: f277 873d 8b84 113e 13c3 313e 51e1 893d
00000040: 63eb 0a3e 659e b6bd bba5 eabd c3df ee3d
00000050: fe68 953e b78f 0e3e 300f b7bd 54fd 10be
00000060: 7237 823c 29bf aa3d 9ef4 1ebe bfe0 833e
00000070: 3380 343e b4cd 9b3d 2927 6d3e 9e58 823d
00000080: fcca 76bd a8d8 cc3d a9e3 0c3e 9536 1c3e
00000090: 4706 68bc 881f 2c3d d6ce 1ebd ed93 993c
000000a0: ef95 01be 6da5 323e c587 7d3e a008 77bd
000000b0: c81e eebc 15a1 09bd 3fd6 13be 5409 753e
000000c0: 2223 a83b 699e 6abd 0035 45be 2327 633c
000000d0: fbf5 a3bd 4408 21be 9bb1 2b3e d479 f43d
000000e0: 4ee5 ab3d 21bf 363e 7327 753d d0ef 943c
000000f0: 14f3 01be efb5 113e cf7a f4bb 42aa f93c
00000100: 4b38 c2bd 98ce f53b a760 b1bd 97c5 bdbd
00000110: b320 a3bc 8781 80bd ef9d 83bd d616 5ebe
00000120: cfd4 3d3e d46d 673c 5cd0 1abe ad8c 41be
00000130: fded 61bd 40d4 983c 67b5 d63d c284 023d
00000140: 5411 443e 6b91 cabb 30bd a2bd ba48 0d3c
00000150: 7cc1 83be 2d92 88bb 453b 0b3e 3b59 6c3e
00000160: b558 abbd 6aea 1abd 0c75 c939 7ea6 ab3d
00000170: 04ac 983d 557a fbbd c032 273e c9a2 1bbe
00000180: 3dd3 0dbe 93f9 2a3e 4212 2dbd 2d5a dcbd
00000190: d4a2 2abe 8094 813e 2842 56bd 68ee e13d
000001a0: 257e 873c 1ce7 d0bd f0d5 91bc ce89 193e
000001b0: c3d1 f7bd 762b e23c 64b8 3d3e 0f98 c1bd
000001c0: b52f 993d bf59 2cbd decb 053e 638f f83d
000001d0: 8c60 18be 9f17 08be 4d7f b73d d262 89bd
000001e0: 657f 153e 246d 453d 629e 0fbc 81d2 d03d
000001f0: adea cabd 82ce d23d 0c4e 5a3e 6fb2 023e
00000200: d219 18be 0381 423e 0090 5b3e 6056 643e
00000210: 9f05 bc3c d74b 1abb 7a89 833d 0c63 f6bc
00000220: ebb9 67be cc48 403c f941 753e 21f1 a13d
00000230: 6e9e ec3d 66af e03d 8e73 113e 338e 8bbd
00000240: 3732 4c3e a751 d63d b71b f2bc b2a3 61bd
00000250: dc52 babd 7f52 e2bd 652c 66bd cbe0 8b3e
00000260: e45d 9b3c e61b 173d cf32 88bd d2f7 a43c
00000270: 712b 25bc eb69 473e 61d6 0f3e 37b2 febc
00000280: 0283 3d37 8ae0 af3d 709c 0f3b f82b 803e
00000290: 2810 b4bc 18df 413e 0ced b7bd 9a95 6b3e
000002a0: ee64 0c3e 9409 813c 0fd1 123b 6049 d23c
000002b0: 878c 12be 1098 47be d6bd 123e 4146 723e
000002c0: b9dd 0e3d 3e35 723b 5901 a93d 59e6 3c3c
000002d0: a035 b2bd 76ae bdbd 6ef6 c23d fb80 debd
000002e0: 6417 743c 5df4 ddbd 5352 073e 9f6e 2cbd
000002f0: 2111 61bd 22a1 243e c8e7 4e3e 1e07 403e
00000300: 1c3a 833d 5b82 cd3b 073e d83d 2413 5c3e
00000310: eb91 243e 0290 473e 38e3 e63d 340b ca3d
00000320: 3e46 543e 72e3 cc3d 891a 2ebe b99e b2bd
00000330: d349 cfbd 66cc 8cbd 4ec9 b73d ab7d bbbc
00000340: ed6e 7abe c10f a8bd e23d 103e f26b 7d3d
00000350: afce 1e3d 9389 573d da28 70bc ea19 99bc
00000360: 888a b43c 4ef7 1ebd b2e3 4bbe acfe fcbd
00000370: 7b34 133c 48af 1a3e 49cb 5f3e fc1e bcbc
00000380: 9417 5f3e a8ac ffba d412 10be d722 d9bd
00000390: 549b bcbd 8fed 02be 1c39 9e3d 2b6e 9a3d
000003a0: 4491 4dbe a0d3 583d af79 16be 5f7d 8a3e
000003b0: c766 143e 307d acbc 4c7c 5c3e ab4e 04be
000003c0: d4da 643e ea6e 98bd 268e 973d 5463 543e
000003d0: 75ac 45bb 7723 ab3d 45c6 0d3d 90d2 943d
000003e0: 5662 6b3e e37c 24bc c499 54bd 4525 873d
000003f0: ed34 853c 964b 32bd 2bf5 6bbd 97b3 4b3e

actor_mean.0.weight f4 [256, 256]
-0.13227586 -0.005237549 0.030523581 -0.028754765 0.06413579 0.07496311 0.06640765 0.035723217
-0.10706024 0.029462883 -0.105512254 -0.0045589413 0.07808219 -0.0035820403 0.031893786 0.025477912
-0.06747537 -0.027843986 -0.11326335 0.15197188 -0.06953904 -0.050640848 0.08458848 -0.15371808
-0.0051466576 -0.09198937 0.0676102 0.021811128 0.009741069 0.020367494 0.012986727 0.088030234
-0.0012777041 -0.031164728 0.05758071 0.048252568 0.027248193 0.030670451 -0.08979342 -0.043649122
0.054607946 0.086236775 0.045312546 0.042168275 0.12274385 0.07424637 0.16436422 -0.06910528
-0.020456437 0.068786405 -0.06565308 0.00596852 0.04623231 -0.1937162 0.025148205 0.07048485
0.100596584 -0.08082954 0.088029936 -0.019119533 0.17897193 -0.0068756077 -0.033979952 0.0051028817
0.14588171 -0.003007327 0.030245714 0.04732019 0.103454314 0.040801164 0.087556414 -0.020543585
-0.054341517 0.033977073 -0.0020810834 0.040231045 0.094460376 -0.038004346 -0.058344185 -0.07207701
0.0004917373 -0.0115920985 0.106130995 -0.1597279 -0.06776813 0.10972737 -0.087011606 -0.046205454
0.037979674 -0.03191583 -0.0153543865 -0.26107737 -0.12679198 0.049382817 0.04821415 -0.016328175
-0.04010798 0.048403535 -0.014842544 -0.1271058 -0.1541229 0.07551491 -0.032850966 -0.08517435
-0.06891772 0.020563567 -0.012384731 0.049918 -0.15698731 -0.08847461 0.061365552 0.1010927
-0.016735885 -0.016663855 0.031913728 -0.10096208 -0.010460808 -0.027762095 -0.1745381 0.08428434
0.032707483 0.062468737 0.075526394 0.02478397 0.0024218494 0.002080462 0.07476922 0.004540945
-0.0073816804 -0.055124372 -0.09398781 0.008933161 0.023804754 0.067155086 0.08058078 0.037484813
0.073658414 0.04963849 -0.049320623 0.0010645044 0.054933075 0.02610399 0.0018999474 -0.18684262
-0.047111243 -0.072136454 -0.0627837 0.13574003 -0.0387771 0.12039368 0.08768952 0.06626543
0.027960418 -0.0638057 -0.036652192 0.060234904 0.047302302 -0.10715011 -0.08479375 -0.04284556
0.05644026 0.036619794 0.03763011 -0.15353921 0.13537961 0.030715674 -0.036590416 0.093704246
0.0022452066 -0.057946038 -0.034534946 0.051346764 -0.08937125 0.115106024 0.06803035 0.10693202
0.12533952 0.045883622 -0.009766613 -0.040121283 -0.007180549 0.06620452 0.045386896 -0.089311294
-0.084523186 -0.0074854563 -0.09188493 0.0014046123 -0.035216957 -0.03416569 -0.052597634 0.032640878
0.09785613 -0.09793562 0.026836345 -0.043024592 -0.0154199 -0.091444366 0.083208345 0.0005547826
0.05858588 -0.037220877 0.0107938545 -0.056387518 -0.1309565 0.07726618 -0.046983905 -0.15678893
-0.07594066 -0.0005850943 0.050640352 0.069771826 -0.04162684 -0.05483 0.047783785 0.020222781
0.05634774 0.065842696 -0.005349963 -0.15418212 -0.016914912 0.031523935 -0.015033707 -0.01095153
0.005717457 -0.03053058 0.017630558 -0.12155916 -0.055842727 0.05406073 0.0007359167 -0.012450054
0.17825285 0.028513571 0.10014744 0.15120444 0.0585042 -0.07360945 0.052859724 -0.06810226
0.017723328 -0.15849862 -0.0052597257 0.04667024 0.03099155 -0.0051819193 0.03830039 0.18114819
-0.041088227 -0.019003358 0.1119509 0.028401606 -0.045794707 0.056495488 0.02020307 -0.14715905
00000000: 5373 07be bf9f abbb 970c fa3c 1d8f ebbc
00000010: a059 833d 4286 993d bc00 883d 8252 123d
00000020: 6642 dbbd 255c f13c cf16 d8bd 2c63 95bb
00000030: 8ee9 9f3d aac0 6abb 0fa3 023d 0eb7 d03c
00000040: 8730 8abd 1219 e4bc 9ef6 e7bd 849e 1b3e
00000050: 7c6a 8ebd c76c 4fbd ba3c ad3d 4668 1dbe
00000060: 4ba5 a8bb ec64 bcbd 3777 8a3d 40ad b23c
00000070: 0199 1f3c bbd9 a63c 48c6 543c 3249 b43d
00000080: a378 a7ba 2c4d ffbc c0d9 6b3d 7ca4 453d
00000090: 9a37 df3c 9940 fb3c 9de5 b7bd 6cc9 32bd
000000a0: 95ac 5f3d e89c b03d a699 393d a4b8 2c3d
000000b0: 2161 fb3d 7b0e 983d 184f 283e 1287 8dbd
000000c0: 4294 a7bc e3df 8c3d 1f75 86bd 9393 c33b
000000d0: 175e 3d3d 8a5d 46be 9c03 ce3c 5c5a 903d
000000e0: 9505 ce3d f589 a5bd 0a49 b43d 91a0 9cbc
000000f0: 6b44 373e c74c e1bb 902e 0bbd 1336 a73b
00000100: 0462 153e 9316 45bb dcc5 f73c d1d2 413d
00000110: dbdf d33d 1f1f 273d c750 b33d 054b a8bc
00000120: 3695 5ebd 8b2b 0b3d c962 08bb 4fc9 243d
00000130: 7174 c13d 72aa 1bbd 50fa 6ebd 1d9d 93bd
00000140: eee7 003a c9ec 3dbc 355b d93d b68f 23be
00000150: 04ca 8abd beb8 e03d 2433 b2bd ee41 3dbd
00000160: 9390 1b3d 2cba 02bd f790 7bbc efab 85be
00000170: c2d5 01be a345 4a3d 337c 453d aac2 85bc
00000180: 4448 24bd c942 463d 242e 73bc 0628 02be
00000190: 65d2 1dbe 90a7 9a3d bc8e 06bd e46f aebd
000001a0: bc24 8dbd ed74 a83c 54e9 4abc d176 4c3d
000001b0: 48c1 20be 2d32 b5bd 725a 7b3d b109 cf3d
000001c0: b219 89bc a382 88bc f8b7 023d 35c5 cebd
000001d0: cf63 2bbc 556d e3bc 1eba 32be 459d ac3d
000001e0: 48f8 053d 38df 7f3d 95ad 9a3d c107 cb3c
000001f0: e4b7 1e3b 5c58 083b 9b20 993d 35cc 943b
00000200: 06e2 f1bb 18ca 61bd ae7c c0bd 655c 123c
00000210: 3002 c33c 9b88 893d 8907 a53d ad89 193d
00000220: 39da 963d bb51 4b3d 6c04 4abd d786 8b3a
00000230: 8101 613d 09d8 d53c a807 f93a ac53 3fbe
00000240: b8f7 40bd 47bc 93bd be94 80bd 6fff 0a3e
00000250: bdd4 1ebd f690 f63d 9096 b33d 2bb6 873d
00000260: 3f0d e53c 90ac 82bd 9c20 16bd e0b8 763d
00000270: 0fc0 413d 8471 dbbd 58a8 adbd d37e 2fbd
00000280: e72d 673d a3fe 153d 0822 1a3d 6239 1dbe
00000290: f4a0 0a3e 709f fb3c d5df 15bd 03e8 bf3d
000002a0: 5124 133b d358 6dbd 8474 0dbd fc50 523d
000002b0: 4608 b7bd b5bc eb3d 7f53 8b3d 2dff da3d
000002c0: 0159 003e 77f0 3b3d 2504 20bc 3756 24bd
000002d0: d04a ebbb 3c96 873d 9ce7 393d d7e8 b6bd
000002e0: 7e1a adbd 8f48 f5bb 2b2e bcbd f81a b83a
000002f0: a83f 10bd 53f1 0bbd 9e70 57bd 71b2 053d
00000300: cb68 c83d 7892 c8bd e5d7 db3c 8e3a 30bd
00000310: c0a3 7cbc 2f47 bbbd 2369 aa3d d46e 113a
00000320: bff7 6f3d eb74 18bd b5d8 303c 99f6 66bd
00000330: 7619 06be bb3d 9e3d 3272 40bd 478d 20be
00000340: c786 9bbd 0461 19ba 426c 4f3d 88e4 8e3d
00000350: e880 2abd 6c95 60bd eeb8 433d 3faa a53c
00000360: e3cc 663d 89d8 863d be4e afbb ebe1 1dbe
00000370: 2491 8abc 3e1f 013d f04f 76bc 0c6e 33bc
00000380: 8159 bb3b 441b fabc f66d 903c 02f4 f8bd
00000390: 58bb 64bd c96e 5d3d 89ea 403a 50fb 4bbc
000003a0: ea87 363e 4b95 e93c 1a1a cd3d 56d5 1a3e
000003b0: 1aa2 6f3d 8dc0 96bd 7083 583d 3379 8bbd
000003c0: 8330 913c 764d 22be c759 acbb 4b29 3f3d
000003d0: fee1 fd3c 17cd a9bb dfe0 1c3d e97e 393e
000003e0: 214c 28bd eeac 9bbc 8346 e53d 7caa e83c
000003f0: 3b93 3bbd d067 673d e980 a53c ddb0 16be

actor_mean.0.bias f4 [256]
0.004111324 -0.06839817 0.040034503 0.031116774 0.058032963 0.03079954 -0.031243857 -0.0031322853
0.036605258 0.044905085 -0.0024060814 -0.023977775 0.042408656 -0.027192166 -0.008155728 0.008179514
-0.038293097 -0.025722345 -0.017482964 -0.025231758 -0.029282862 -0.030378401 0.012948699 0.044903096
0.030681415 0.030721078 0.01813165 -0.06478409 0.043096296 0.01687878 0.004387547 -0.035908446
-0.052402154 -0.012125958 -0.04316842 0.07099239 -0.027180223 -0.0137600005 0.08766233 -0.019669408
0.016486974 -0.032853972 -0.028449072 0.043700736 0.028716998 0.027261762 -0.01459478 0.016666554
-0.057312787 -0.033742256 -0.041854233 0.055983808 -0.030916914 0.04274058 -0.015697502 -0.03755358
0.0035457346 -0.04335548 -0.07571439 -0.0014506096 0.05088648 0.041126143 -0.03792208 0.044866733
0.025422852 -0.036562756 -0.03285676 0.061096244 -0.06108187 0.039384946 -0.03902773 -0.064940155
-0.022321735 0.041294914 -0.034952976 0.027685096 0.044359375 0.0058755903 0.020559885 0.03409996
-0.0009827464 -0.07372417 0.05368664 -0.05283072 -0.00065515464 0.00042538528 -0.03438421 -0.031405024
0.078137234 0.019254431 0.007528971 0.018540189 0.017516507 0.037996177 0.001553717 0.021375284
-0.065275945 -0.005705627 -0.009683477 0.026095493 0.035053883 -0.0857349 0.025123918 -0.042274136
-0.0042206896 -0.04151011 -0.027263824 -0.0052728946 -0.0070670056 -0.017744044 0.04858672 -0.020418584
-0.008377035 0.049788006 -0.04605294 -0.019940428 -0.00439246 -0.010195809 -0.029205268 0.031518336
-0.024322726 -0.03206064 0.052888773 0.036681876 -0.01723529 0.026412118 0.037480995 0.020021623
-0.011433714 -0.00028612622 0.061821714 0.031976897 -0.03542755 0.036573455 -0.03673169 -0.018723756
0.03874202 0.04567088 -0.025492307 -0.06113993 -0.023231298 0.06347269 0.04445428 0.017777946
0.00029895923 0.03590341 -0.0217422 0.041284543 -0.03145472 0.055273257 -0.024303038 -0.032711506
-0.05126626 0.0334697 -0.006227356 0.020106891 0.054446425 -0.019876672 0.05058385 0.022644544
0.021209424 0.05284916 -0.054668445 -0.043774556 -0.036391992 -0.013701408 0.042818706 3.3196924e-05
-0.033199992 0.059785042 -0.026836077 -0.0075075054 -0.04832138 -0.0329096 0.04989123 0.025310514
-0.03896398 0.045674015 0.033071455 0.06854698 -0.028898682 -0.04365538 0.021171417 0.042553656
0.017361557 -0.051012114 -0.0066250474 -0.01857318 0.039091207 0.01933453 0.0062070815 -0.0020906837
0.06471492 0.0378498 0.02834861 -0.043239284 0.009055808 -0.012312247 0.004283553 0.053640403
0.022762083 0.056359224 0.034262232 -0.03213283 -0.032796625 -0.04548442 0.03719602 -0.011813808
0.017691482 -0.027161656 -0.03919484 0.008061816 -0.039038323 0.055306233 0.07604576 -0.008521749
0.044356696 -0.024481887 0.019545527 -0.016253209 0.032975737 -0.003311854 -0.007520544 0.0665792
-0.0270056 0.044313584 0.006140344 0.031589206 0.0841245 -0.03133764 0.06899508 -0.08578897
-0.0567388 -0.010550757 0.036367625 -0.04811432 -0.035933763 0.022497296 -0.061271038 0.034992978
0.044864845 0.0032671674 -0.009935148 0.022744425 0.014963091 -0.0566393 0.0073799016 0.07306778
-0.04304728 0.044866174 0.05543981 -0.02887357 0.073191755 0.028127763 0.02105241 -0.03012557
00000000: 49b8 863b 5714 8cbd 38fb 233d 9be8 fe3c
00000010: f9b3 6d3d 514f fc3c 1ef3 ffbc 0747 4dbb
00000020: 65ef 153d 65ee 373d 59af 1dbb 0a6d c4bc
00000030: b3b4 2d3d 1bc2 debc 9a9f 05bc 5e03 063c
00000040: 39d9 1cbd abb7 d2bc 6f38 8fbc d5b2 cebc
00000050: 9de2 efbc 20dc f8bc c826 543c 4fec 373d
00000060: 9757 fb3c c5aa fb3c d388 943c 85ad 84bd
00000070: be85 303d 5e45 8a3c 69c5 8f3b bc14 13bd
00000080: a4a3 56bd f4ab 46bc 5fd1 30bd 7564 913d
00000090: 0fa9 debc a071 61bc 4f88 b33d bd21 a1bc
000000a0: b10f 873c e391 06bd 070e e9bc 8bff 323d
000000b0: e93f eb3c 0f54 df3c f21e 6fbc 4c88 883c
000000c0: d0c0 6abd 5235 0abd 586f 2bbd 474f 653d
000000d0: 7845 fdbc bf10 2f3d 0c98 80bc c8d1 19bd
000000e0: 8e5f 683b 8495 31bd 2510 9bbd 6222 beba
000000f0: 576e 503d e373 283d 2f54 1bbd 2ec6 373d
00000100: 9643 d03c d4c2 15bd cf94 06bd 0e40 7a3d
00000110: fc30 7abd 1c52 213d 8adb 1fbd 58ff 84bd
00000120: 12dc b6bc db24 293d da2a 0fbd dbcb e23c
00000130: 2db2 353d 0688 c03b 346d a83c 66ac 0b3d
00000140: 7fcf 80ba b3fc 96bd 86e6 5b3d 0665 58bd
00000150: afbe 2bba 3f06 df39 75d6 0cbd 8ea2 00bd
00000160: 6a06 a03d 78bb 9d3c 96b5 f63b 98e1 973c
00000170: c77e 8f3c e1a1 1b3d 17a6 cb3a 381b af3c
00000180: 65af 85bd 45f6 babb 72a7 1ebc 37c6 d53c
00000190: a994 0f3d c795 afbd add0 cd3c a527 2dbd
000001a0: b64d 8abb 8106 2abd 6258 dfbc 3fc8 acbb
000001b0: 5792 e7bb f55b 91bc de02 473d e044 a7bc
000001c0: d53f 09bc 82ee 4b3d 02a2 3cbd 1c5a a3bc
000001d0: a0ee 8fbb 530c 27bc e33f efbc 5f19 013d
000001e0: 7440 c7bc 0552 03bd e6a1 583d bc3f 163d
000001f0: 0631 8dbc 3a5e d83c ac85 193d 6304 a43c
00000200: 7954 3bbc 3603 96b9 c438 7d3d 35fa 023d
00000210: 7b1c 11bd 0cce 153d f873 16bd 9062 99bc
00000220: f4af 1e3d 6311 3b3d 3ed5 d0bc dd6d 7abd
00000230: 904f bebc f8fd 813d b115 363d 0ea3 913c
00000240: a1bd 9c39 740f 133d b31c b2bc fb19 293d
00000250: aad6 00bd 3666 623d 2a17 c7bc 80fc 05bd
00000260: 92fc 51bd 8617 093d d90e ccbb 35b7 a43c
00000270: 3703 5f3d 67d4 a2bc 0331 4f3d 0d81 b93c
00000280: 63bf ad3c 5c78 583d 05ec 5fbd f34c 33bd
00000290: c50f 15bd df7b 60bc ab62 2f3d ed3c 0b38
000002a0: b7fc 07bd 29e1 743d 55d7 dbbc 8501 f6bb
000002b0: a4ec 45bd 37cc 06bd bf5a 4c3d ff57 cf3c
000002c0: b298 1fbd ad14 3b3d ef75 073d 5c62 8c3d
000002d0: eebc ecbc fccf 32bd ae6f ad3c be4c 2e3d
000002e0: d339 8e3c 14f2 50bd ed16 d9bb c826 98bc
000002f0: 1a1e 203d 7363 9e3c c664 cb3b da03 09bb
00000300: 4289 843d 6408 1b3d 583b e83c ad1b 31bd
00000310: d05e 143c 4fb9 49bc 0c5d 8c3b 0ab6 5b3d
00000320: 8c77 ba3c eed8 663d 8e56 0c3d b79d 03bd
00000330: c155 06bd df4d 3abd db5a 183d b48e 41bc
00000340: baed 903c 1f82 debc c58a 20bd b515 043c
00000350: a6e6 1fbd ca88 623d e1bd 9b3d ce9e 0bbc
00000360: 5eaf 353d 3d8e c8bc f11d a03c 7325 85bc
00000370: 9111 073d b10b 59bb e56e f6bb ad5a 883d
00000380: d93a ddbc 2982 353d f034 c93b af63 013d
00000390: 7749 ac3d e65b 00bd 4b4d 8d3d 21b2 afbd
000003a0: f266 68bd 15dd 2cbc 38f6 143d 8513 45bd
000003b0: 482f 13bd 404c b83c 57f7 7abd cc54 0f3d
000003c0: 33c4 373d f91d 563b 08c7 22bc 8452 ba3c
000003d0: c127 753c 9cfe 67bd 1ad3 f13b 8fa4 953d
000003e0: 5852 30bd 98c5 373d db14 633d 4488 ecbc
000003f0: 8fe5 953d 326c e63c 1b76 ac3c e6c9 f6bc

actor_mean.2.weight f4 [4, 256]
0.09077917 -0.124271855 0.11825837 0.026755875 0.13569804 0.2390548 0.34312665 -0.0848879
-0.12240836 -0.03130352 -0.08406863 -0.19391775 0.24012142 0.021050014 0.022052774 0.122469045
-0.16837049 -0.17145279 0.033522382 -0.123102084 0.08976244 -0.034073908 -0.0733054 0.073227875
0.1355681 0.0836072 -0.09311404 -0.12512556 -0.021086376 0.13455856 0.18099597 -0.0058817747
0.09867355 -0.093254074 -0.003611706 0.03743627 -0.057303146 0.073063225 0.13742045 0.0024418833
0.13084997 0.1125257 0.0816496 -0.05234714 0.069855906 -0.08289082 0.085941784 -0.16470674
-0.018218461 0.15048873 0.20372412 -0.028706675 0.14365056 -0.118188 -0.09503871 0.0069914814
-0.15539919 -0.17462265 0.061841533 0.07316521 -0.090249844 -0.1389162 0.061209373 0.0024384523
0.1937662 -0.07031039 0.0077336743 -0.07757985 0.050060283 0.11574752 -0.080901146 -0.18309851
-0.045966864 0.123729445 0.1607854 0.15006788 0.107877254 0.14448322 -0.1292469 0.16351558
0.071832314 -0.03307455 0.16601655 0.12888381 -0.0977871 0.14108047 0.20808496 0.24257281
0.1853545 -0.018268878 0.17456797 -0.104656056 0.02522916 -0.007846759 -0.079082824 0.19631575
0.054792266 0.26053143 -0.031876534 0.020045638 0.06368316 -0.019312656 -0.052392185 0.019062983
-0.0401362 -0.08973628 -0.011794321 -0.0014494647 0.05865082 0.046112176 0.01813208 0.022107469
-0.015590785 0.01682012 0.027776444 -0.05566251 -0.11269176 0.059302017 -0.059425186 0.122164644
0.054129567 0.053339873 -0.06342142 0.04449097 -0.0906561 0.15566996 0.057945162 -0.00075493084
0.06415082 -0.05975896 0.03295338 -0.121519744 -0.07046318 0.18166819 0.00516806 0.1330428
0.06798758 -0.026303407 -0.0066741225 -0.06525849 -0.029463356 0.08877352 0.28517294 0.21281686
0.10189036 0.004675134 -0.007259652 -0.06796932 -0.041229866 -0.08783933 0.26754394 -0.11689977
0.3319818 -0.137518 -0.1223726 -0.12622677 0.16572608 0.17413436 0.04666074 0.12283664
-0.07335297 -0.050128028 -0.11720186 0.026931843 -0.024196018 0.20824346 -0.026160447 -0.032778017
0.02921784 -0.058984037 -0.12554897 0.2440612 -0.029273208 -0.03683639 0.16599649 -0.09977758
0.14270554 0.010728348 0.04510034 0.024685325 -0.048385035 0.24039973 0.16593805 0.122216195
0.25982696 -0.023980385 -0.14432149 0.0012508588 0.152665 -0.048888866 0.21839108 -0.10787523
-0.029008705 -0.026160546 -0.073018186 0.029145613 0.23383397 -0.12604116 0.3792507 -0.008507162
0.015640276 -0.12676269 0.19150062 -0.025719939 -0.06751256 -0.10463553 -0.14127102 -0.046002757
0.08633497 -0.0018532166 -0.049824405 0.18490654 -0.027916567 -0.1388127 -0.01958725 -0.08336321
-0.05647118 0.07649774 -0.034116898 0.0492057 0.039969537 0.029444322 0.17145155 0.004870833
0.07554394 0.032104503 -0.018009992 -0.05163681 -0.014136414 0.18816225 -0.09771448 -0.11325117
0.06074979 -0.043609858 -0.013845772 -0.032867204 0.09745204 0.17106144 -0.07606317 -0.06635923
0.05533376 0.018307265 0.09877506 0.11048449 -0.10726022 -0.072524615 -0.15856268 -0.15689018
0.12597299 0.046064623 0.06498819 -0.024526147 0.12924717 0.12626651 0.18785161 0.07275831
00000000: 6eea b93d 3e82 febd 7231 f23d 232f db3c
00000010: 6df4 0a3e c8ca 743e 4cae af3e b5d9 adbd
00000020: 3cb1 fabd 1f38 00bd 2d2c acbd 6092 46be
00000030: 64e2 753e 1471 ac3c 05a8 b43c 0dd1 fa3d
00000040: 5069 2cbe 5291 2fbe c44e 093d f21c fcbd
00000050: 5fd5 b73d 1591 0bbd 2421 96bd 7ff8 953d
00000060: 5dd2 0a3e 403a ab3d 93b2 bebd ea20 00be
00000070: 56bd acbc b8c9 093e 0257 393e e7bb c0bb
00000080: 5c15 ca3d fefb bebd 5fb2 6cbb c656 193d
00000090: b4b6 6abd 2ca2 953d f2b7 0c3e 0108 203b
000000a0: 89fd 053e e073 e63d e837 a73d f469 56bd
000000b0: 9d10 8f3d aac2 a9bd 3f02 b03d e2a8 28be
000000c0: e23e 95bc b819 1a3e 0e9d 503e 432a ebbc
000000d0: 2219 133e 8d0c f2bd a8a3 c2bd cc18 e53b
000000e0: f720 1fbe 48d0 32be 8c4d 7d3d a4d7 953d
000000f0: e9d4 b8bd 0c40 0ebe aeb6 7a3d 71ce 1f3b
00000100: a66a 463e e5fe 8fbd c36a fd3b 2fe2 9ebd
00000110: 030c 4d3d 090d ed3d 80af a5bd 2d7e 3bbe
00000120: c047 3cbd dd65 fd3d eea4 243e 65ab 193e
00000130: c0ee dc3d 69f3 133e 4d59 04be a170 273e
00000140: d21c 933d 2e79 07bd 3e00 2a3e 1efa 033e
00000150: 9a44 c8bd 6677 103e 3914 553e 0265 783e
00000160: 92cd 3d3e 9da8 95bc f2c1 323e ea55 d6bd
00000170: 62ad ce3c b18f 00bc 2df6 a1bd ff06 493e
00000180: db6d 603d 6064 853e f890 02bd c036 a43c
00000190: 516c 823d 9335 9ebc 3099 56bd f929 9c3c
000001a0: db65 24bd a8c7 b7bd f83c 41bc f7fb bdba
000001b0: d83b 703d 1fe0 3c3d ba89 943c b91a b53c
000001c0: 7e70 7fbc 59ca 893c 6d8b e33c 5ffe 63bd
000001d0: f0ca e6bd ace6 723d d367 73bd 7531 fa3d
000001e0: f7b6 5d3d e97a 5a3d 17e3 81bd 2a3c 363d
000001f0: e8a9 b9bd f267 1f3e e857 6d3d 8de6 45ba
00000200: 8161 833d d0c5 74bd 20fa 063d 58df f8bd
00000210: 004f 90bd 3a07 3a3e d458 a93b 5f3c 083e
00000220: 133d 8b3d 3e7a d7bc 99b2 dabb 3ea6 85bd
00000230: 235d f1bc e4ce b53d 3002 923e aaec 593e
00000240: e5ab d03d de31 993b 60e2 edbb 8033 8bbd
00000250: a6e0 28bd 1be5 b3bd 85fb 883e 2669 efbd
00000260: 85f9 a93e 85d1 0cbe 7c9e fabd 9741 01be
00000270: 19b4 293e 4750 323e 551f 3f3d c791 fb3d
00000280: 153a 96bd 0c53 4dbd 8707 f0bd 2ba0 dc3c
00000290: ba36 c6bc c63d 553e 6f4e d6bc 3e42 06bd
000002a0: 405a ef3c 3f99 71bd e98f 00be 2eeb 793e
000002b0: 5ece efbc c1e1 16bd fcfa 293e 3058 ccbd
000002c0: 6721 123e f4c5 2f3c 22bb 383d e138 ca3c
000002d0: 632f 46bd 592b 763e aaeb 293e 7c4c fa3d
000002e0: 0a08 853e 8372 c4bc 03c9 13be dbf3 a33a
000002f0: 3754 1c3e b13f 48bd e9a1 5f3e b0ed dcbd
00000300: aaa3 edbc a44e d6bc 8f8a 95bd c8c2 ee3c
00000310: 2c72 6f3e ef10 01be 262d c23e a061 0bbc
00000320: 0920 803c 14ce 01be bd18 443e 9fb2 d2bc
00000330: 0644 8abd 274b d6bd 5aa9 10be 636d 3cbd
00000340: 64d0 b03d a1e7 f2ba ad14 4cbd 2458 3d3e
00000350: 49b1 e4bc eb24 0ebe 7175 a0bc 55ba aabd
00000360: 534e 67bd d9aa 9c3d 29be 0bbd eb8b 493d
00000370: 19b7 233d 3835 f13c ff90 2f3e 829b 9f3b
00000380: c8b6 9a3d 0380 033d b189 93bc 1f81 53bd
00000390: 6b9c 67bc 9bad 403e 871e c8bd 3bf0 e7bd
000003a0: c6d4 783d 40a0 32bd 60d9 62bc c39f 06bd
000003b0: ef94 c73d bb2a 2f3e 02c7 9bbd 59e7 87bd
000003c0: a7a5 623d 1ef9 953c 944a ca3d b145 e23d
000003d0: 3fab dbbd c987 94bd 415e 22be d2a7 20be
000003e0: 10ff 003e 42ae 3c3d 8718 853d 0feb c8bc
000003f0: 5f59 043e 024c 013e 2c5c 403e 4f02 953d

actor_mean.2.bias f4 [4]
0.018012024 0.059202388 0.041194458 0.033026055
00000000: f48d 933c 347e 723d 85bb 283d 5446 073d

critic.0.weight f4 [256, 256]
0.0139385415 0.043201897 -0.0008472934 -0.21286955 -0.029197631 0.0016338355 0.06564464 0.1285613
-0.21260396 -0.041815676 -0.03994951 0.03576086 0.052551787 0.10544325 0.058067556 0.10691231
0.035488464 0.11256828 0.1591078 0.053917304 -0.025575377 0.11421699 0.032838747 0.04938218
0.06962022 0.009184599 -0.06491641 0.10210477 -0.0035663676 -0.012271442 -0.0075089443 0.101349436
-0.07873962 0.04812844 -0.11483475 0.07525299 -0.07093719 0.009975448 -0.14014402 -0.0045942543
0.050712734 0.06365515 -0.020487849 -0.08767344 0.032734226 0.09317631 -0.028746491 -0.05286671
0.01378604 0.03203295 0.059917662 -0.0373822 -0.117872626 0.7075503 -0.009015612 -0.08585477
0.06554761 0.05180896 -0.033950593 -0.013468586 0.11409581 0.015471694 0.028557343 -0.06400359
0.05795209 -0.03735702 0.17539555 -0.067052014 0.033152327 0.006378066 -0.087056614 0.03297856
0.029657606 0.022681804 0.16081001 0.061691526 -0.0027099636 0.084258296 -0.21193042 0.0027820065
0.05677768 0.28093138 -0.08604021 -0.26809484 0.011777378 -0.04543669 -0.045906287 0.019780679
-0.1116067 -0.011901145 -0.00629284 0.11774658 -0.039797567 0.2504522 0.036988016 0.08162651
0.14190543 0.07254725 -0.2021637 -0.040570546 0.28241736 0.036795937 0.074915804 0.067921095
0.13627522 0.031202976 0.10463667 -0.00925753 -0.20413813 0.047501013 0.015057381 -0.022581879
0.04913204 0.24093075 -0.065657474 -0.023676991 0.20534918 0.13688886 0.035191897 -0.09868565
0.0037001537 0.035124097 0.015762202 0.014653473 0.04489452 0.13337068 -0.016428785 0.0031569777
-0.06415933 -0.05948307 0.13229476 0.032689445 0.0141565595 -0.081371 0.22440894 0.05673575
0.14386314 0.22814268 0.07588422 0.026184047 0.008261504 0.004556981 0.04582086 0.00084385206
0.044698726 0.12724623 0.16711451 -0.0041809934 -0.06106222 0.025015304 -0.004904421 0.023697503
-0.0054744296 0.18266645 0.06659902 -0.055884793 -0.012618565 0.04703083 0.008248241 0.04007875
0.13705935 0.0139608495 -0.2224652 0.048572488 0.01341864 -0.0074587064 0.05664321 0.103600524
0.009687577 0.08809474 0.067428656 -0.020575326 0.17060477 0.025010515 -0.00039095114 0.11831677
-0.061332226 0.009893975 0.041395802 0.25212696 -0.0024820128 -0.041961335 0.010002715 -0.21558703
-0.0008679825 0.21728404 0.05197607 0.015205013 -0.04006281 0.011744031 -0.041486572 -0.16021402
0.035817027 -0.024815135 -0.2698163 0.00237079 -0.03460679 -0.02778447 0.037162565 -0.11793874
0.047693137 0.023196382 -0.088472955 -0.041986406 -0.008712166 0.22618988 -0.085851 0.0075935354
0.09181289 0.034746744 0.03171902 0.021263804 0.037385747 -0.0239554 0.0121135535 -0.011326188
-0.11370751 0.07141441 0.01764936 0.05162553 -0.06813869 -0.034475848 -0.14211124 -0.10971605
-0.085080944 0.0568841 -0.026497083 -0.27481985 -0.023428474 -0.023411643 0.022946918 0.43596515
0.092983484 0.07865837 -0.015100039 -0.060890313 0.117484696 -0.058429286 0.0072143786 0.19489408
-0.041599233 0.0008980809 -0.002824612 0.07340983 -0.15381728 -0.04402308 0.019402323 -0.041185945
0.061702184 -0.20524922 -0.07089118 0.03177677 -0.0017725355 -0.070833616 0.043659143 0.0018131664
00000000: 7b5e 643c 79f4 303d e61c 5eba 7afa 59be
00000010: df2f efbc 6c26 d63a b270 863d 93a5 033e
00000020: dab4 59be ea46 2bbd 19a2 23bd fb79 123d
00000030: 8b40 573d a1f2 d73d 3fd8 6d3d d7f4 da3d
00000040: 5a5c 113d 338a e63d 28ed 223e 64d8 5c3d
00000050: 7483 d1bc 99ea e93d ec81 063d f844 4a3d
00000060: 0c95 8e3d 007b 163c e5f2 84bd 4e1c d13d
00000070: b8b9 69bb 290e 49bc 970d f6bb 4b90 cf3d
00000080: 3d42 a1bd 5422 453d 7b2e ebbd 3d1e 9a3d
00000090: 8447 91bd 1070 233c ea81 0fbe 668b 96bb
000000a0: 28b8 4f3d a25d 823d 22d6 a7bc 228e b3bd
000000b0: 5314 063d 39d3 be3d c37d ebbc c38a 58bd
000000c0: d8de 613c fc34 033d 396c 753d 141e 19bd
000000d0: 3467 f1bd 0422 353f 38b6 13bc a0d4 afbd
000000e0: d33d 863d a235 543d c70f 0bbd 58ab 5cbc
000000f0: 10ab e93d fd7c 7d3c 17f1 e93c 5014 83bd
00000100: 2c5f 6d3d ad03 19bd e49a 333e 9152 89bd
00000110: bcca 073d 18ff d03b bd4a b2bd 8714 073d
00000120: 82f4 f23c 31cf b93c 61ab 243e 41b0 7c3d
00000130: a599 31bb 9d8f ac3d 4a04 59be 5352 363b
00000140: b68f 683d 3dd6 8f3e da35 b0bd ba43 89be
00000150: e7f5 403c d31b 3abd 3b08 3cbd 170b a23c
00000160: 0e92 e4bd 05fd 42bc 2b34 cebb 1e25 f13d
00000170: c602 23bd 453b 803e bf80 173d cd2b a73d
00000180: a84f 113e a793 943d 0004 4fbe 4d2d 26bd
00000190: 0299 903e 56b7 163d 756d 993d 371a 8b3d
000001a0: bb8b 0b3e 629d ff3c c04b d63d e5ac 17bc
000001b0: 9609 51be 6c90 423d 3cb3 763c a2fd b8bc
000001c0: ae3e 493d 8db6 763e 6d77 86bd 40f6 c1bc
000001d0: 0e47 523e 982c 0c3e 6125 103d b41b cabd
000001e0: 477e 723b 49de 0f3d bc1f 813c 1f15 703c
000001f0: 51e3 373d 5392 083e a995 86bc 4ce5 4e3b
00000200: f865 83bd 85a4 73bd 4778 073e 5ee5 053d
00000210: eaf0 673c d7a5 a6bd 75cb 653e bf63 683d
00000220: dc50 133e 3c9e 693e 3069 9b3d ed7f d63c
00000230: 425b 073c ba52 953b a7ae 3b3d f435 5d3a
00000240: 0316 373d d64c 023e 1120 2b3e b700 89bb
00000250: 611c 7abd e5ec cc3c 44b5 a0bb 4421 c23c
00000260: d862 b3bb ea0c 3b3e 1165 883d 74e7 64bd
00000270: 19be 4ebc 66a3 403d a123 073c 9e29 243d
00000280: 4959 0c3e 0cbc 643c ebcd 63be f2f3 463d
00000290: dbd9 5b3c 2a68 f4bb b602 683d 832c d43d
000002a0: a5b8 1e3c 046b b43d 0918 8a3d 968d a8bc
000002b0: 04b3 2e3e dae2 cc3c 93f8 ccb9 1050 f23d
000002c0: 8037 7bbd 571a 223c a58e 293d c916 813e
000002d0: 44a9 22bb a6df 2bbd 6de2 233c d9c2 5cbe
000002e0: 5289 63ba b57f 5e3e dce4 543d 721e 793c
000002f0: e718 24bd 096a 403c d3ed 29bd 250f 24be
00000300: e0b4 123d 1c49 cbbc 5d25 8abe 425f 1b3b
00000310: d9bf 0dbd 429c e3bc c637 183d de89 f1bd
00000320: e159 433d 5706 be3c 4f31 b5bd f0f9 2bbd
00000330: 79bd 0ebc 529e 673e a6d2 afbd 31d3 f83b
00000340: 6508 bc3d 9a52 0e3d ceeb 013d 6e31 ae3c
00000350: cc21 193d 1d3e c4bc ed77 463c 7a91 39bc
00000360: 7cdf e8bd b841 923d 6495 903c 4b75 533d
00000370: 4c8c 8bbd 8c36 0dbd 9c85 11be cfb2 e0bd
00000380: eb3e aebd 4dff 683d 6910 d9bc 30b5 8cbe
00000390: 12ed bfbc c6c9 bfbc 2dfb bb3c d336 df3e
000003a0: 206e be3d a417 a13d 2766 77bc 1f68 79bd
000003b0: d19b f03d 8c53 6fbd 9866 ec3b 5092 473e
000003c0: f563 2abd 306d 6b3a 201d 39bb e557 963d
000003d0: 4782 1dbe 8c51 34bd 9ff1 9e3c 98b2 28bd
000003e0: 6ebb 7c3d da2c 52be 652f 91bd 5c28 023d
000003f0: 6c54 e8ba 3711 91bd eed3 323d c5a7 ed3a

critic.0.bias f4 [256]
0.051822998 0.011418348 0.06745411 0.079328 0.024575721 -0.024880635 0.008326265 -0.004113637
0.01666715 0.07361097 -0.038379222 0.014811845 0.13075247 0.08758834 0.09243795 0.06135871
-0.0604346 0.07657005 -0.015079344 -0.009089769 0.122034706 -0.054468215 0.029410172 0.024505157
0.023961538 0.07075703 0.048540257 0.11302449 0.07635733 0.05522311 -0.038938187 0.058029152
0.108900435 0.045363482 0.08030413 -0.035956785 0.08715399 -0.022566628 0.06409845 0.011378187
0.002225878 0.08270121 0.11980493 -0.014046257 0.025258 0.011367292 -0.03223668 -0.0143213
0.047668394 -0.032932032 0.0027698965 0.0005115732 -0.037378065 -0.011772961 -0.0057467907 0.06969552
0.066397876 0.04278 0.04371577 0.025895834 -0.039838865 0.026763394 0.11258252 0.04848444
0.1023463 0.061840013 -0.011372456 0.045620933 -0.03349507 0.05783841 0.051412247 0.094825454
0.008885263 0.05415095 -0.0082254615 0.031507473 -0.028019937 0.02931935 -0.09327187 0.062968925
0.07288768 0.072527654 0.039910167 -0.04881417 -0.03262814 0.009647277 0.03999026 -0.032700233
0.04043552 -0.009600444 0.048164766 -0.011074435 0.037483 -0.0164722 0.049560674 0.046204943
-0.057637773 0.021648547 0.038703147 0.0072738454 0.08116077 0.019306805 0.02571262 0.05271276
0.051529977 0.0073690144 0.056820277 0.06951385 0.02114406 0.07044933 -0.024834856 0.037914872
0.04049386 -0.028433053 0.11609302 -0.023068009 0.0383505 0.027533337 0.043314997 -0.017563144
0.014123402 0.056562006 0.032995664 0.06477833 0.06498309 -0.05176065 0.027584275 -0.027312
-0.03869376 0.01058057 0.05148687 -0.0074459105 -0.02361505 -0.014558397 0.091546945 0.0781043
-0.0023583563 0.018668376 0.06146153 -0.004501517 0.06520762 0.03522294 0.040888697 0.076493524
0.023648083 0.019016638 0.015141127 0.12430126 -0.014950475 0.018441442 0.07097456 0.0051490907
-0.042258624 0.02395054 -0.04988342 0.062026557 0.11452106 0.04991503 0.0073671485 0.058581162
-0.032013465 0.025376873 0.07576289 0.043878928 -0.02737564 0.011581869 0.07680074 0.08961737
0.05259664 0.030064574 -0.0051789507 0.102581166 0.1006673 -0.028444009 -0.028642373 -0.045649905
0.015817087 -0.13230331 0.017678266 0.04045278 0.054738127 0.10442441 0.023838798 0.06573137
0.11100572 0.058430426 -0.00930552 0.06513723 0.053938888 0.081921674 0.07159476 0.016040204
0.116181284 -0.037514426 -0.040447697 -0.035818625 -0.031026788 -0.005261313 -0.03160578 0.018239632
0.00788165 0.021865256 0.052446794 0.028868666 -0.023193125 0.066864185 0.08068925 0.08082058
0.08875441 0.07393512 0.040222727 0.07365327 0.044940975 0.04760389 0.028398167 0.020068692
0.05949052 0.013193432 -0.018705163 -0.0567259 -0.009772 0.07762039 0.14133084 0.05386224
-0.035786744 0.08694477 0.06448607 0.117426366 -0.044491284 -0.031983003 -0.0018506026 0.021781119
-0.06514348 -0.01907037 0.056838438 0.04011434 -0.003166584 0.0965221 0.061709605 0.07956393
0.04650772 -0.0071665063 0.040412493 0.12291236 0.02950013 -0.0293308 -0.02423608 0.031376097
0.025389489 -0.037023716 0.012604746 0.030227289 -0.042852324 -0.03512063 0.08747015 0.01938515
00000000: 5a44 543d 0614 3b3c 6125 8a3d b876 a23d
00000010: 0653 c93c 79d2 cbbc e36a 083c b0cb 86bb
00000020: 8c89 883c 59c1 963d 8833 1dbd 61ad 723c
00000030: fae3 053e 8461 b33d 1c50 bd3d 4553 7b3d
00000040: 458a 77bd c2d0 9c3d 5a0f 77bc 41ed 14bc
00000050: 55ed f93d 101a 5fbd 9aed f03c 0abf c83c
00000060: fd4a c43c 10e9 903d 26d2 463d 6279 e73d
00000070: 3b61 9c3d a131 623d a67d 1fbd faaf 6d3d
00000080: 3107 df3d 0fcf 393d 7e76 a43d 6c47 13bd
00000090: cb7d b23d a6dd b8bc 0c46 833d 936b 3a3c
000000a0: 09e0 113b 415f a93d 4a5c f53d 4622 66bc
000000b0: dde9 ce3c e13d 3a3c 9c0a 04bd e3a3 6abc
000000c0: ef3f 433d bde3 06bd 2787 353b 191b 063a
000000d0: be19 19bd 61e3 40bc 934f bcbb 86bc 8e3d
000000e0: 9cfb 873d 153a 2f3d 4f0f 333d 8023 d43c
000000f0: 142e 23bd e83e db3c aa91 e63d 9f97 463d
00000100: f09a d13d f44b 7d3d 8a53 3abc 04dd 3a3d
00000110: 2032 09bd f8e7 6c3d a695 523d d933 c23d
00000120: 7f93 113c 63cd 5d3d 16c4 06bc fb0d 013d
00000130: 118a e5bc 222f f03c 5205 bfbd daf5 803d
00000140: 2346 953d 6189 943d d878 233d 5ef1 47bd
00000150: 16a5 05bd 9d0f 1e3c d4cc 233d aef0 05bd
00000160: b79f 253d 2e4b 1dbc 6b48 453d 8c71 35bc
00000170: c687 193d b5f0 86bc 2200 4b3d 6541 3d3d
00000180: 9615 6cbd 4b58 b13c 3187 1e3d 7059 ee3b
00000190: 9e37 a63d 4e29 9e3c 46a3 d23c 56e9 573d
000001a0: 1911 533d c677 f13b 61bc 683d 475d 8e3d
000001b0: 4f36 ad3c bd47 903d 7872 cbbc a04c 1b3d
000001c0: e4dc 253d 6fec e8bc 2dc2 ed3d 1ff9 bcbc
000001d0: 6a15 1d3d 988d e13c 116b 313d 95e0 8fbc
000001e0: d765 673c 90ad 673d 7626 073d 80aa 843d
000001f0: db15 853d fa02 54bd 6bf8 e13c 6abd dfbc
00000200: 597d 1ebd 215a 2d3c e5e3 523d d3fc f3bb
00000210: 5974 c1bc 5886 6ebc f77c bb3d 26f5 9f3d
00000220: a78e 1abb 6cee 983c 16bf 7b3d 7681 93bb
00000230: 938b 853d ee45 103d e87a 273d a3a8 9c3d
00000240: a0b9 c13c c8c8 9b3c 7d12 783c a991 fe3d
00000250: d6f2 74bc 8212 973c 1c5b 913d b4b9 a83b
00000260: 6117 2dbd ec33 c43c 8f52 4cbd 8f0f 7e3d
00000270: 048a ea3d b473 4c3d 1f68 f13b cdf2 6f3d
00000280: 8d20 03bd 29e3 cf3c 9329 9b3d 64ba 333d
00000290: e142 e0bc e1c1 3d3c b549 9d3d 5089 b73d
000002a0: 936f 573d fb49 f63c 30b4 a9bb 1316 d23d
000002b0: a82a ce3d 6903 e9bc 69a3 eabc 65fb 3abd
000002c0: d692 813c 857a 07be 03d2 903c d0b1 253d
000002d0: 1635 603d 77dc d53d 9549 c33c 2b9e 863d
000002e0: f856 e33d be54 6f3d 2e76 18bc ab66 853d
000002f0: 06ef 5c3d 8dc6 a73d 46a0 923d bf66 833c
00000300: 74f0 ed3d baa8 19bd 7cac 25bd 8db6 12bd
00000310: e42b febc 1867 acbb 1075 01bd 486b 953c
00000320: 0922 013c c41e b33c 73d2 563d fb7d ec3c
00000330: 82ff bdbc 17f0 883d 6840 a53d 4385 a53d
00000340: dfc4 b53d 4c6b 973d 96c0 243d 87d7 963d
00000350: 0714 383d 4cfc 423d 46a3 e83c 1967 a43c
00000360: 55ac 733d 4429 583c 923b 99bc 6b59 68bd
00000370: bd1a 20bc 70f7 9e3d 08b9 103e a79e 5c3d
00000380: 1f95 12bd 1910 b23d 4611 843d 3c7d f03d
00000390: 7e3c 36bd 9c00 03bd eb8f f2ba 516e b23c
000003a0: f269 85bd 7739 9cbc 6ccf 683d ef4e 243d
000003b0: 7786 4fbb 61ad c53d 36c3 7c3d 6af2 a23d
000003c0: e17e 3e3d 03d5 eabb 9287 253d 7ab9 fb3d
000003d0: 42aa f13c 2547 f0bc be8a c6bc 3984 003d
000003e0: 9efd cf3c 2ea6 17bd 2384 4e3c 389f f73c
000003f0: eb85 2fbd a6da 0fbd 8d23 b33d 9bcd 9e3c
