best_model.pth (torch, 592162 bytes, 13 tensors)

net.0.weight f4 [256, 24]
0.24249649 0.20773016 -0.004004472 0.20764785 -0.054022267 -0.0035690027 -0.24349946 0.07063323
0.15828638 -0.18000966 0.17381334 -0.014432735 0.18516597 -0.04675886 0.07429151 -0.053359076
0.13190877 0.0039228373 -0.12216742 0.024523161 -0.12187832 -0.051690403 -0.1230034 0.07674888
-0.42907447 -0.39452702 0.0065436284 -0.05094334 -0.06479102 -0.15416388 0.11819842 -0.0980991
0.1319365 0.13330938 -0.005339568 0.23280156 0.00045225592 0.109812416 -0.056643084 -0.14246066
-0.022137525 -0.13168956 0.01038549 0.107392594 0.04267172 -0.1668555 0.053235147 0.013851634
0.1166922 -0.14796548 -0.18792063 -0.025468249 -0.17468305 0.16162297 0.08206297 0.12303654
0.058065306 0.009864048 0.16433233 -0.19814412 0.022224402 -0.13746886 0.023271393 -0.109911196
0.022552148 -0.08293254 0.12844583 -0.16236718 -0.16367033 -0.16329068 0.13473362 -0.0030523445
0.28812158 -0.19436309 -0.17621733 -0.0541187 -0.15538439 0.060516324 0.109798454 0.15133366
-0.033549596 -0.098925084 0.10464648 -0.1631827 0.12096464 -0.021093797 0.1836857 -0.09293587
-0.038808323 0.12529233 0.105617136 0.011462274 0.18937679 0.21525095 -0.06994245 -0.072107814
0.23386726 0.043584548 -0.06382595 -0.16022773 -0.11098142 0.0974279 -0.0723379 -0.14882562
-0.061164618 -0.12493123 -0.17802328 -0.07545714 -0.24551871 -0.16624898 0.23478687 0.06939485
0.093923986 -0.15925878 -0.10283994 -0.0367668 0.06298672 -0.14862284 -0.062198095 -0.1077225
0.030245509 -0.010620631 -0.09432382 -0.20544338 -0.15926278 -0.08834435 -0.05559291 -0.13938238
0.24775474 -0.093043886 0.18971707 0.032815542 -0.209782 0.17669508 -0.04104512 -0.063812405
-0.15560833 -0.18928741 0.07206034 -0.031243905 0.09287368 -0.15627056 0.16884889 -0.10596504
-0.18185799 -0.27474794 0.48872504 0.15632473 0.13308503 -0.12413891 -0.017769353 -0.08713219
-0.060293663 -0.3510266 0.12361859 -0.14050293 0.077071026 0.07181853 0.003875427 -0.17300254
0.122590266 -0.018534057 -0.0379026 -0.24561273 0.017746301 -0.10172925 -0.14875022 0.16382986
0.0639841 -0.14799842 -0.11417653 -0.03863683 0.16238154 -0.11591787 0.022458334 -0.05943219
-0.12014798 0.049021468 0.12599675 -0.36218932 0.08849929 0.08008163 0.058457963 -0.05302755
0.12414483 0.123051055 0.090498924 -0.021999264 -0.037717745 0.046396405 -0.0015033057 -0.059660565
0.32623252 0.42251426 -0.2609562 0.16739371 0.079106666 0.010326009 0.14143553 -0.06651095
-0.23086636 0.033488553 0.058463246 0.16740802 0.06426299 -0.06246455 -0.094476365 -0.1513497
-0.03366221 0.10305068 0.16575176 0.1314461 -0.14225759 -0.08612117 0.005059277 0.2209239
0.14536718 -0.07472015 0.018740427 -0.10797038 -0.18957813 0.046071813 -0.17861144 -0.08186819
-0.18637867 0.23261818 0.16423047 0.025797306 -0.12635559 -0.21643485 -0.14308769 0.17422883
0.119699255 0.19305407 0.12816526 0.07345524 0.019490318 -0.1350021 -0.13628563 -0.11456966
0.119243376 -0.12116047 0.021719342 -0.18156895 0.020370778 -0.15093878 -0.08001509 0.012518805
0.022740943 0.12885924 -0.070010684 -0.32991588 -0.011853032 -0.05957275 0.010362642 -0.12274326
00000000: 0051 783e 37b7 543e f237 83bb a3a1 543e
00000010: 7446 5dbd eee5 69bb ec57 79be 28a8 903d
00000020: d315 223e 7454 38be 20fc 313e 4777 6cbc
00000030: 269c 3d3e 3886 3fbd 2626 983d 0c8f 5abd
00000040: 1813 073e 258b 803b ea32 fabd cce4 c83c
00000050: 579b f9bd 51b9 53bd 35e9 fbbd 842e 9d3d
00000060: a6af dbbe 72ff c9be ef6b d63b f7a9 50bd
00000070: 27b1 84bd 23dd 1dbe 0312 f23d 2ee8 c8bd
00000080: 5d1a 073e 4182 083e 8bf7 aebb 8863 6e3e
00000090: c31c ed39 55e5 e03d 9402 68bd 35e1 11be
000000a0: c159 b5bc a1d9 06be e727 2a3c a6f0 db3d
000000b0: 8bc8 2e3d 2bdc 2abe 190d 5a3d f7f1 623c
000000c0: 52fc ee3d 4384 17be 446e 40be caa2 d0bc
000000d0: 1de0 32be 7e80 253e a110 a83d 95fa fb3d
000000e0: e3d5 6d3d d19c 213c bc46 283e 4be6 4abe
000000f0: f30f b63c a3c4 0cbe a6a3 be3c 1f19 e1bd
00000100: 48bf b83c 89d8 a9bd 4e87 033e 9543 26be
00000110: 3299 27be ac35 27be 9cf7 093e d809 48bb
00000120: ac84 933e 1e07 47be 5172 34be 92ab 5dbd
00000130: 161d 1fbe f7df 773d 03de e03d 36f7 1a3e
00000140: 4d6b 09bd 3c99 cabd e550 d63d 5e19 27be
00000150: 4fbc f73d e6cc acbc 1b18 3c3e 2955 bebd
00000160: 7af5 1ebd a24c 003e cc4d d83d 43cc 3b3c
00000170: fdeb 413e bf6a 5c3e fd3d 8fbd 43ad 93bd
00000180: e67a 6f3e b685 323d 2eb7 82bd bd12 24be
00000190: 3a4a e3bd 4788 c73d e525 94bd be65 18be
000001a0: c087 7abd f2db ffbd bc4b 36be 4689 9abd
000001b0: 4269 7bbe 2c3d 2abe f86b 703e e31e 8e3d
000001c0: 385b c03d bc14 23be bf9d d2bd c998 16bd
000001d0: 2eff 803d 9630 18be 6ec3 7ebd 9d9d dcbd
000001e0: 6ec5 f73c 2802 2ebc d92c c1bd c05f 52be
000001f0: c815 23be e2ed b4bd 64b5 63bd 41ba 0ebe
00000200: 6bb3 7d3e cb8d bebd 3145 423e 9769 063d
00000210: 18d1 56be 8eef 343e ee1e 28bd 14b0 82bd
00000220: ca57 1fbe 8fd4 41be 5f94 933d 38f3 ffbc
00000230: 8e34 be3d 6405 20be b9e6 2c3e 3304 d9bd
00000240: fb38 3abe c3ab 8cbe 2b3a fa3e 9713 203e
00000250: 7147 083e 8a3c febd 0991 91bc 5d72 b2bd
00000260: 7df6 76bd c2b9 b3be be2b fd3d 00e0 0fbe
00000270: 6ad7 9d3d 9815 933d e0fa 7d3b 9427 31be
00000280: 9b10 fb3d bcd4 97bc c23f 1bbd e781 7bbe
00000290: b160 913c 6d57 d0bd fa51 18be 04c3 273e
000002a0: 190a 833d e68c 17be 62d5 e9bd a741 1ebd
000002b0: 5947 263e 5966 edbd 8afa b73c 2b6f 73bd
000002c0: 2510 f6bd bcca 483d 4b05 013e e170 b9be
000002d0: 1e3f b53d d601 a43d 9e71 6f3d 6b33 59bd
000002e0: a53f fe3d 3102 fc3d 8057 b93d cd37 b4bc
000002f0: ec7d 1abd 280a 3e3d 920a c5ba a35e 74bd
00000300: f307 a73e ca53 d83e 0d9c 85be 4269 2b3e
00000310: ad02 a23d 6c2e 293c 7ad4 103e e536 88bd
00000320: 3b68 6cbe 4b2b 093d 2877 6f3d 026d 2b3e
00000330: 519c 833d d4da 7fbd d37c c1bd 6afb 1abe
00000340: 63e1 09bd 3c0c d33d d4ba 293e ce99 063e
00000350: f9ab 11be 4c60 b0bd 4bc8 a53b e039 623e
00000360: 22db 143e e106 99bd 8685 993c 931f ddbd
00000370: c520 42be ccb5 3c3d ebe5 36be 82aa a7bd
00000380: 0dda 3ebe 7633 6e3e 082c 283e df54 d33c
00000390: 5c63 01be 19a1 5dbe 9485 12be 0b69 323e
000003a0: e224 f53d f7af 453e c13d 033e b36f 963d
000003b0: 29aa 9f3c fe3d 0abe 768e 0bbe 7fa3 eabd
000003c0: df35 f43d fb22 f8bd c3ec b13c 36ed 39be
000003d0: 9ee0 a63c b28f 1abe f4de a3bd ad1b 4d3c
000003e0: 374b ba3c adf3 033e c361 8fbd bcea a8be
000003f0: 3833 42bc 8e02 74bd 12c8 293c d160 fbbd

net.0.bias f4 [256]
-0.22170493 0.018176798 -0.11333917 0.18788967 -0.18949951 0.05186272 0.08063836 0.024562223
-0.03131897 0.26975667 -0.11376704 0.258111 -0.056584567 0.14982924 0.18003924 0.032747164
0.020118363 -0.005444829 -0.0888718 0.11214625 0.18423192 0.10113536 -0.10734754 -0.1833509
-0.023421066 0.12437095 -0.17748176 0.1436961 -0.01110768 -0.061272986 0.09025917 0.072784014
-0.025537696 0.098653086 0.061997473 0.012142761 -0.12142624 0.052284066 -0.1584659 0.08805768
-0.12246008 0.1796536 0.26133472 -0.17702004 -0.13455726 -0.11300408 -0.08279306 0.21820846
-0.20671695 -0.13531697 -0.14375676 0.005435582 -0.0976243 -0.19404456 0.24600552 0.109296836
0.03342183 0.16780612 0.010500696 0.032273915 -0.21380801 0.11795117 -0.14522973 -0.034707338
-0.14784025 -0.12865919 -0.12195883 -0.09743076 -0.12897888 -0.10938572 -0.07229134 -0.14823666
0.056954004 0.0522983 -0.19054635 -0.17578132 -0.1436877 -0.030380817 0.21797992 -0.05587775
0.08919906 -0.15256625 0.038075004 0.009231818 -0.17960176 0.036665093 0.063812755 0.085134
-0.16766462 -0.07704842 0.008266147 0.031582754 -0.038181756 -0.13397567 0.17136616 -0.15150702
-0.09960878 0.17991671 -0.0981244 -0.0937236 -0.17117982 0.09473849 -0.034424588 0.13837115
-0.05193541 -0.17796974 -0.06360579 0.12639254 -0.13834429 -0.05896476 0.13582513 -0.09863963
0.087597206 -0.08196339 -0.05233972 0.04140534 -0.14585131 -0.15908134 0.09637762 -0.09175993
0.099952534 -0.081315264 -0.10212603 0.02034565 -0.023622502 0.011249158 0.18543611 -0.033435963
-0.16854714 0.22301684 0.24951422 0.046252523 0.006570831 -0.065501355 -0.043797467 -0.084262624
-0.2197592 -0.035431277 0.13415782 0.057342794 0.0021831482 0.1468088 0.10007951 -0.03177644
0.12372618 0.010853959 -0.019088138 -0.04334647 -0.010964207 -0.119326375 -0.0072006583 0.14404397
0.021157967 0.062099207 -0.056092676 -0.088303514 -0.04639185 0.08950413 0.0687168 -0.07605996
0.07621614 0.032238834 -0.009475495 0.16474088 -0.10765643 0.06211218 -0.06022044 0.21815516
0.03166105 0.07042343 -0.09213439 -0.072208904 -0.20213866 -0.19804518 0.07634894 0.24724771
0.06890594 -0.15038867 0.078014486 0.02750872 -0.18519068 -0.14092228 0.1272545 -0.08388669
-0.12604935 -0.09644799 0.11908584 -0.04852929 -0.087598674 0.03123527 0.2324894 0.17279981
0.05039886 0.029458102 0.025987022 0.18099964 0.0223115 -0.017566025 0.08903438 0.059962932
0.108198434 0.0013601655 -0.25468016 -0.194574 -0.22519535 -0.060066845 -0.008282052 -0.15442523
-0.25164396 -0.10989392 0.16154653 -0.034792207 -0.12548931 0.004539219 -0.09530807 -0.14793676
-0.1452703 -0.04838926 -0.23753646 -0.13509959 -0.15564962 0.05423625 0.14627202 -0.040003974
0.1383053 0.15951902 -0.115683064 -0.076315194 -0.14629175 -0.17990026 -0.061788924 0.006898657
-0.20639859 -0.089753374 -0.13593541 0.22052982 0.17272447 -0.12482161 0.18154748 -0.15396477
0.10127469 -0.047805358 0.027161375 0.079899296 0.077757396 0.015620501 -0.055773903 0.12411585
0.1153009 -0.039644133 -0.10960703 0.1303071 -0.099184975 -0.13087465 -0.059666585 0.23128779
00000000: 9e06 63be 82e7 943c 5e1e e8bd 2666 403e
00000010: 290c 42be 016e 543d b925 a53d b736 c93c
00000020: 5248 00bd 8c1d 8a3e b2fe e8bd 2027 843e
00000030: 38c5 67bd d66c 193e 355c 383e e421 063d
00000040: 44cf a43c 896a b2bb 6b02 b6bd efac e53d
00000050: 4ba7 3c3e 0e20 cf3d 07d9 dbbd 57c0 3bbe
00000060: 89dd bfbc 32b6 fe3d c7bd 35be 1225 133e
00000070: fdfc 35bc 62f9 7abd cdd9 b83d c90f 953d
00000080: 6e34 d1bc a10a ca3d 10f1 7d3d 6ef2 463c
00000090: 52ae f8bd d127 563d e344 22be 9657 b43d
000000a0: 5acc fabd 1df7 373e aacd 853e be44 35be
000000b0: 61c9 09be af6e e7bd 688f a9bd 0a72 5f3e
000000c0: 9cad 53be 8890 0abe f934 13be f71c b23b
000000d0: 40ef c7bd 9eb3 46be dfe8 7b3e 05d7 df3d
000000e0: 54e5 083d 5ed5 2b3e 1c0b 2c3c a731 043d
000000f0: 7df0 5abe 6290 f13d 1ab7 14be 4829 0ebd
00000100: 6f63 17be 3cbf 03be 8dc5 f9bd c789 c7bd
00000110: 0a13 04be 9f05 e0bd 7b0d 94bd 5acb 17be
00000120: 9a48 693d be36 563d 951e 43be 0500 34be
00000130: de22 13be 31e1 f8bc 2136 5f3e 11e0 64bd
00000140: ffad b63d 543a 1cbe 89f4 1b3d 0d41 173c
00000150: 86e9 37be 232e 163d 43b0 823d bc5a ae3d
00000160: 46b0 2bbe 90cb 9dbd bc6e 073c eb5c 013d
00000170: 7964 1cbd eb30 09be 9c7a 2f3e a824 1bbe
00000180: b0ff cbbd 163c 383e 72f5 c8bd 29f2 bfbd
00000190: c349 2fbe 4106 c23d cc00 0dbd 2bb1 0d3e
000001a0: 39ba 54bd b33d 36be c143 82bd 0c6d 013e
000001b0: 20aa 0dbe 0885 71bd be15 0b3e 9303 cabd
000001c0: 2a66 b33d 6cdc a7bd 2d62 56bd a598 293d
000001d0: 0c5a 15be 38e6 22be a161 c53d a1ec bbbd
000001e0: eab3 cc3d 9e88 a6bd 7427 d1bd ecab a63c
000001f0: fa83 c1bc 634e 383c f7e2 3d3e 26f4 08bd
00000200: 9f97 2cbe 875e 643e a880 7f3e 4973 3d3d
00000210: 2050 d73b 9325 86bd f964 33bd e291 acbd
00000220: 8e08 61be 6320 11bd ab60 093e 47e0 6a3d
00000230: 2613 0f3b 0c55 163e 7cf6 cc3d 0328 02bd
00000240: 2764 fd3d ced4 313c ba5e 9cbc 118c 31bd
00000250: 38a3 33bc 6361 f4bd 80f3 ebbb 4380 133e
00000260: 7953 ad3c bd5b 7e3d 6fc1 65bd 79d8 b4bd
00000270: 6105 3ebd f14d b73d 65bb 8c3d 53c5 9bbd
00000280: 3517 9c3d de0c 043d 1b3f 1bbc d5b1 283e
00000290: f97a dcbd 5769 7e3d b5a9 76bd 1164 5f3e
000002a0: 04af 013d 293a 903d f4b0 bcbd 43e2 93bd
000002b0: 70fd 4ebe 5bcc 4abe d55c 9c3d 812e 7d3e
000002c0: 8f1e 8d3d 7dff 19be 0fc6 9f3d f859 e13c
000002d0: a0a2 3dbe ee4d 10be 014f 023e c9cc abbd
000002e0: 1513 01be 8686 c5bd 47e3 f33d a6c6 46bd
000002f0: ef66 b3bd 1ce1 ff3c b411 6e3e 6ff2 303e
00000300: 096f 4e3d 1e52 f13c bce2 d43c f857 393e
00000310: 9bc6 b63c a0e6 8fbc a857 b63d b19b 753d
00000320: 2497 dd3d 9547 b23a 7065 82be 683e 47be
00000330: 9c99 66be a708 76bd 72b1 07bc a621 1ebe
00000340: 7ad7 80be 1010 e1bd 746c 253e 4682 0ebd
00000350: 4580 00be bbbd 943b e130 c3bd bc7c 17be
00000360: bdc1 14be d133 46bd c23c 73be 8c57 0abe
00000370: 9d62 1fbe d526 5e3d 55c8 153e 35db 23bd
00000380: e89f 0d3e f458 233e 3eeb ecbd 244b 9cbd
00000390: 81cd 15be c637 38be 6216 7dbd 210e e23b
000003a0: 275a 53be 9ed0 b7bd a732 0bbe 92d2 613e
000003b0: afde 303e 79a2 ffbd 95e7 393e f1a8 1dbe
000003c0: 1b69 cf3d 8dcf 43bd 8881 de3c 3ea2 a33d
000003d0: 453f 9f3d 21ed 7f3c 2d73 64bd 7330 fe3d
000003e0: e122 ec3d e361 22bd a779 e0bd 396f 053e
000003f0: 7e21 cbbd 0104 06be f364 74bd b5d6 6c3e

net.2.weight f4 [256, 256]
0.030587606 -0.07516694 0.0369822 -0.03400581 -0.013920384 -0.00010109153 0.024892898 0.007375813
-0.026921876 -0.047199197 -0.034861334 -0.05062419 0.022781666 -0.008125321 -0.0028902192 -0.06887685
-0.016889755 -0.039773062 -0.076613575 -0.0011949745 -0.089276604 -0.04073051 -0.04126814 -0.03901787
0.027464775 0.03248245 0.00502544 -0.01474076 0.019529702 -0.035632905 -0.08563792 0.08544695
-0.076889254 -0.009459508 -0.027999686 0.033417564 0.031140978 -0.07661125 -0.005488661 -0.120646685
0.025192732 0.05541645 -0.061354645 -0.03213669 -0.037943624 -0.029209021 0.0070721367 -0.077620246
0.0035269144 -0.036266632 -0.056994017 -0.0027836245 0.04534506 -0.0689701 -0.010454235 -0.04007152
0.038186327 -0.095746815 0.013767249 -0.06110371 0.025100848 -0.049262803 -0.009972589 0.01073122
0.021043297 0.024181124 0.058545392 -0.033660173 -0.1176679 -0.061776415 0.032172136 0.06297443
-0.07086597 0.011680815 0.08081184 -0.023958309 0.02296339 -0.03089622 -0.018577276 -0.07929264
-0.038577147 0.060349982 -0.009811452 -0.008111101 -0.05034061 0.020320807 -0.017356044 -0.017278673
0.021386579 0.030183818 0.06958468 -0.07503091 -0.07453399 0.04021446 -0.043774266 0.03651393
0.037035737 -0.057934664 0.010996002 0.008978782 -0.019933034 0.0076319138 0.007348666 -0.048304297
-0.06793763 0.03012614 -0.09814807 -0.0012102887 -0.04300265 -0.015245311 -0.064447775 0.034610264
-0.055214938 -0.052994043 0.005929372 -0.04137013 -0.019656055 -0.0019572233 -0.033940066 -0.013647506
-0.053278357 0.03988257 0.0401419 0.014472493 0.0058669746 0.013453912 -0.0018456155 -0.024658164
0.035471663 -0.02263047 -0.03003767 -0.08223962 -0.026613554 -0.035805248 -0.04595762 0.08256959
0.042189434 0.06223716 -0.06742146 0.022515245 0.019194916 0.0004738483 0.007197831 -0.04357978
-0.067964815 -0.014906253 -0.03196576 0.028577397 -0.096290834 -0.07010373 -0.055550627 -0.015476079
0.03448122 -0.066392206 -0.07381587 0.02064164 -0.04386422 -0.039907254 0.009521087 -0.08575465
-0.004533933 -0.0021359092 0.042137887 -0.048909258 0.0028810082 -0.0064957673 0.049010813 0.043187782
-0.051740665 -0.00984052 -0.050172318 0.039030317 -0.027470171 0.04272908 0.0077148215 0.044372614
0.044911344 0.01891649 -0.06187177 -0.047566544 -0.06264959 0.017759772 0.02871977 0.008685271
0.012047306 -0.045519434 -0.035495434 -0.09578912 0.00029181154 -0.065170094 -0.07001202 -4.0819126e-05
0.055407908 -0.008011931 0.05601779 -0.05582378 -0.101894684 -0.0057723643 0.058449183 -0.042793807
0.030399797 -0.045329675 -0.044254888 -0.044922557 -0.07248406 0.04913281 -0.061155498 -0.05345987
-0.046514265 0.094366685 0.007436451 -0.0008844128 -0.029461771 0.034790408 -0.027180247 0.05037381
0.018016258 0.015597516 0.027441313 -0.0027549993 -0.0704562 0.011559911 -0.06791824 -0.004401567
-0.012523225 -0.020172955 -0.012016362 -0.039613076 0.03566196 0.017056549 -0.040037055 -0.02058996
0.046081774 -0.018362561 -0.04566047 0.017556703 0.03776431 -0.025870634 0.0066962023 -0.003660967
-0.023202382 -0.007939346 -0.095232844 0.0057637184 -0.064716384 -0.08468125 -0.046769734 -0.09703989
-0.08792049 -0.035653096 -0.015729189 -0.049026974 0.02686405 -0.03296008 -0.012659035 -0.06575247
00000000: dc92 fa3c 20f1 99bd a67a 173d ad49 0bbd
00000010: 5312 64bc 1a01 d4b8 31ec cb3c ceb0 f13b
00000020: 448b dcbc f253 41bd c2ca 0ebd 505b 4fbd
00000030: 9ea0 ba3c 1120 05bc d569 3dbb 4e0f 8dbd
00000040: 625c 8abc 14e9 22bd 94e7 9cbd b1a0 9cba
00000050: a7d6 b6bd 09d5 26bd c808 29bd 34d1 1fbd
00000060: cffd e03c 510c 053d 72ac a43b 3b83 71bc
00000070: c1fc 9f3c cff3 11bd ef62 afbd cffe ae3d
00000080: 1d78 9dbd 0dfc 1abc 995f e5bc dbe0 083d
00000090: 5d1b ff3c 5ce6 9cbd 3ada b3bb 9c15 f7bd
000000a0: fd60 ce3c 5cfc 623d 024f 7bbd c3a1 03bd
000000b0: c66a 1bbd c247 efbc 62bd e73b 5df7 9ebd
000000c0: ce23 673b 528c 14bd 8f72 69bd 786d 36bb
000000d0: bebb 393d 3240 8dbd 3d48 2bbc 0922 24bd
000000e0: 4469 1c3d e816 c4bd 0790 613c e247 7abd
000000f0: 4ba0 cd3c cbc7 49bd 1264 23bc 00d2 2f3c
00000100: fe62 ac3c 7e17 c63c 4bcd 6f3d 40df 09bd
00000110: defb f0bd 4409 7dbd eec6 033d bdf8 803d
00000120: 2d22 91bd e460 3f3c ae80 a53d 3744 c4bc
00000130: b81d bc3c 121a fdbc 5f2f 98bc 2e64 a2bd
00000140: 1203 1ebd 8b31 773d 36c0 20bc 6ce4 04bc
00000150: f531 4ebd d277 a63c 432e 8ebc 018c 8dbc
00000160: e832 af3c 0e44 f73c 6a82 8e3d cea9 99bd
00000170: 47a5 98bd ebb7 243d a54c 33bd a18f 153d
00000180: c9b2 173d e64c 6dbd 9328 343c be1b 133c
00000190: 9a4a a3bc 2215 fa3b 14cd f03b bada 45bd
000001a0: e222 8bbd 18cb f63c db01 c9bd 8da2 9eba
000001b0: 8c23 30bd 78c7 79bc 32fd 83bd 7ec3 0d3d
000001c0: 0f29 62bd 4810 59bd 2d4b c23b ba73 29bd
000001d0: bc05 a1bc c244 00bb bd04 0bbd ca99 5fbc
000001e0: 683a 5abd e85b 233d d56b 243d 091e 6d3c
000001f0: c03f c03b cc6d 5c3c 94e8 f1ba ebff c9bc
00000200: bc4a 113d 8963 b9bc 8f11 f6bc 3f6d a8bd
00000210: ab04 dabc 86a8 12bd 0f3e 3cbd 3f1a a93d
00000220: d4ce 2c3d 64ec 7e3d 4314 8abd e471 b83c
00000230: a83e 9d3c d86e f839 c8db eb3b b680 32bd
00000240: 2331 8bbd 5b39 74bc 87ee 02bd 251b ea3c
00000250: 2134 c5bd 8b92 8fbd 0e89 63bd 618f 7dbc
00000260: 2e3c 0d3d a3f8 87bd c62c 97bd a818 a93c
00000270: f8aa 33bd ca75 23bd 55fe 1b3c 22a0 afbd
00000280: 6391 94bb 9cfa 0bbb c798 2c3d 1355 48bd
00000290: 4ccf 3c3b 72da d4bb 90bf 483d ace5 303d
000002a0: 05ee 53bd 223a 21bc 7d81 4dbd 41de 1f3d
000002b0: 2009 e1bc b004 2f3d 9dcc fc3b 0fc0 353d
000002c0: f5f4 373d c1f6 9a3c 416d 7dbd 23d5 42bd
000002d0: 6e4e 80bd f17c 913c b945 eb3c ab4c 0e3c
000002e0: 1062 453c 9672 3abd a963 11bd 162d c4bd
000002f0: 48fe 9839 e677 85bd 7662 8fbd 3435 2bb8
00000300: 67f3 623d 7944 03bc e972 653d 7aa7 64bd
00000310: 29ae d0bd 1a26 bdbb 6968 6f3d 8f48 2fbd
00000320: ff08 f93c 9cab 39bd 9d44 35bd b700 38bd
00000330: 8672 94bd 7c3f 493d 307e 7abd bdf8 5abd
00000340: be85 3ebd 5243 c13d 79ad f33b f0d7 67ba
00000350: d059 f1bc 6380 0e3d 1ca9 debc c554 4e3d
00000360: d596 933c b98c 7f3c 9bcc e03c 388d 34bb
00000370: 574b 90bd c865 3d3c b818 8bbd 053b 90bb
00000380: 362e 4dbc c141 a5bc 46e0 44bc 5241 22bd
00000390: 4612 123d 2dba 8b3c e5fd 23bd 47ac a8bc
000003a0: 3ec0 3c3d 156d 96bc 7906 3bbd 13d3 8f3c
000003b0: c0ae 1a3d a7ee d3bc d16b db3b d6ec 6fbb
000003c0: ec12 bebc 0814 02bc 7009 c3bd 93dd bc3b
000003d0: 068a 84bd 5d6d adbd 9f91 3fbd dabc c6bd
000003e0: a80f b4bd fb08 12bd 80da 80bc 82d0 48bd
000003f0: ff11 dc3c 2601 07bd d767 4fbc 3ba9 86bd

net.2.bias f4 [256]
-0.0242984 -0.0052210777 0.05388148 0.030754913 0.07277357 -0.004019021 -0.021404276 -0.030095693
0.046337076 0.073144704 -0.0020437252 -0.02175452 0.063156106 -0.022592166 -0.041038148 0.004468151
-0.010475803 -0.04223289 -0.03967818 -0.02063553 -0.02436245 -0.07988984 0.040128086 0.011519748
0.044468828 -0.030377237 -0.041546043 -0.07620558 -0.016417246 0.04582022 -0.0026781904 -0.065873176
-0.06623929 -0.018260429 -0.09445461 0.0759453 -0.034676712 -0.04980765 0.02862311 -0.05309773
0.05758639 -0.05267949 -0.04130999 -0.017770303 0.026613297 0.02564007 -0.06146687 -0.000424918
-0.031102294 -0.016220612 -0.078150906 0.008375674 -0.012522218 0.022122255 -0.017667705 -0.033937678
0.06353648 -0.07459264 -0.023076793 -0.017389331 0.045552257 0.05799779 -0.0063801203 0.07645049
0.04391302 -0.071334034 -0.033497527 0.020846339 -0.06023176 0.078575104 -0.059038185 -0.040994037
-0.03713925 0.0066590942 -0.004649778 0.018262872 0.07107643 0.016125886 0.011269133 0.04216365
0.019044606 -0.04290709 0.01756744 -0.06423392 0.0005903203 0.00027739743 -0.047478516 -0.067791745
0.062242415 -0.049537178 0.0030930475 0.07026874 0.017923733 0.040112328 -0.05597525 -0.0077411947
-0.045915823 -0.006267759 -0.03111804 -0.027817842 0.040354945 -0.1100685 -0.0100301 -0.06821562
0.013655355 -0.049264167 -0.07905607 -0.0026540428 0.02946931 -0.027094923 0.02900426 -0.07073677
-0.044866342 0.03826578 -0.026617821 -0.0010698331 0.0028667022 0.0070068636 0.027642777 -0.0033205403
0.0043709995 -0.050166927 0.06847928 0.011318527 -0.018432166 0.02888415 0.031580538 0.005616258
-0.01770284 0.055994976 0.05794066 0.01645565 -0.06866152 -0.026816878 -0.0431652 -0.03755204
0.04126231 0.04653488 -0.005775746 -0.024971878 0.037416007 0.009702188 0.08677068 -0.00044570817
0.04465913 0.025879005 -0.023907319 0.058953248 -0.058665242 0.056545977 -0.076822415 -0.03255672
-0.10135964 0.006246746 0.019689878 -0.016297914 -0.0035943314 -0.042301703 -0.002329141 0.030998295
-0.007341544 0.029220708 -0.07083158 -0.010708386 0.022052888 0.006091957 0.060011555 0.025505872
-0.055351984 0.03565219 -0.05142053 -0.045038626 -0.08298154 -0.056794107 0.057250045 0.0045374823
-0.03927173 -0.012503604 -0.018114131 0.039413165 -0.05908009 -0.044791024 -0.042078663 0.07111073
0.04097631 -0.12355348 -0.00793433 -0.012218069 0.0521256 0.011904004 -0.009068113 -0.033339236
0.09798857 -0.004962448 0.011369332 -0.099502966 0.021868328 -0.023461502 0.037580345 0.02491074
0.03882785 0.041229937 0.013044424 -0.06002438 -0.03710084 -0.046736833 0.02674863 -0.0041438327
-0.041212454 -0.070691995 -0.031503167 -0.034413874 -0.06009944 -0.017328123 0.02837534 -0.04743133
0.061903734 -0.0632755 -0.009633358 -0.045164082 -0.0413531 -0.03839046 -0.056697194 0.06727165
-0.036273725 0.004741155 0.021580467 0.008995151 0.03075714 -0.0698477 0.044636685 -0.08249238
-0.07221218 0.0064176964 0.08017577 -0.065949395 0.0035175348 0.01729426 -0.012693113 -0.010484726
0.002382773 -0.012163526 -0.08201759 0.041768026 -0.025787253 -0.11321682 -0.04926213 0.031351414
-0.06723278 0.03351487 0.031595364 -0.062447846 0.03628106 -0.011982985 0.025075939 -0.09190844
00000000: 700d c7bc 9315 abbb d4b2 5c3d baf1 fb3c
00000010: 4f0a 953d feb1 83bb 0558 afbc 3e8b f6bc
00000020: f2cb 3d3d e4cc 953d 05f0 05bb 8936 b2bc
00000030: fd57 813d 3513 b9bc 9e17 28bd 9169 923b
00000040: b4a2 2bbc 65fc 2cbd 9685 22bd d80b a9bc
00000050: c393 c7bc 499d a3bd 595d 243d 53bd 3c3c
00000060: f224 363d afd9 f8bc 2f2c 2abd ac11 9cbd
00000070: 767d 86bc fcad 3b3d 9484 2fbb 84e8 86bd
00000080: 77a8 87bd e596 95bc 6b71 c1bd 3689 9b3d
00000090: 2b09 0ebd 1b03 4cbd 037b ea3c 017d 59bd
000000a0: b5df 6b3d 73c6 57bd aa34 29bd 0793 91bc
000000b0: 2104 da3c 200b d23c afc4 7bbd 87c7 deb9
000000c0: 3dca febc 17e1 84bc 950d a0bd 1f3a 093c
000000d0: fd29 4dbc bb39 b53c ddbb 90bc 3c02 0bbd
000000e0: 6a1f 823d 07c4 98bd 8b0b bdbc 1274 8ebc
000000f0: 0195 3a3d 178f 6d3d 5410 d1bb 1392 9c3d
00000100: 24de 333d 9417 92bd b434 09bd f1c5 aa3c
00000110: 94b5 76bd fceb a03d 06d2 71bd 5de9 27bd
00000120: 541f 18bd 8834 da3b 2a5d 98bb 059c 953c
00000130: 8590 913d 6f1a 843c 2ba2 383c cbb3 2c3d
00000140: 6f03 9c3c 58bf 2fbd 98e9 8f3c 138d 83bd
00000150: babf 1a3a a76f 9139 d578 42bd 66d6 8abd
00000160: e7f1 7e3d 7fe7 4abd bab4 4a3b 0fe9 8f3d
00000170: cbd4 923c d34c 243d 4e46 65bd d9a9 fdbb
00000180: 3b12 3cbd c661 cdbb 43eb febc 3ee2 e3bc
00000190: 3a4b 253d 986b e1bd 4a55 24bc a2b4 8bbd
000001a0: b6ba 5f3c 39c9 49bd 26e8 a1bd 73ef 2dbb
000001b0: 9f69 f13c 2cf6 ddbc 589a ed3c 71de 90bd
000001c0: c5c5 37bd 94bc 1c3d 9e0d dabc a439 8cba
000001d0: 48df 3b3b d599 e53b 1b73 e23c 6c9d 59bb
000001e0: 9a3a 8f3b d67b 4dbd dd3e 8c3d 5871 393c
000001f0: 0eff 96bc 749e ec3c 985a 013d 9608 b83b
00000200: 8c05 91bc fd5a 653d 2f53 6d3d 00ce 863c
00000210: 699e 8cbd 12af dbbc fecd 30bd 2bd0 19bd
00000220: ab02 293d 5c9b 3e3d 7842 bdbb d391 ccbc
00000230: 8741 193d edf5 1e3c d4b4 b13d f0ad e9b9
00000240: 7eec 363d 3500 d43c 48d9 c3bc f678 713d
00000250: f74a 70bd c19c 673d 1255 9dbd 325a 05bd
00000260: a595 cfbd 81b1 cc3b ab4c a13c 3483 85bc
00000270: e08e 6bbb 8d44 2dbd 80a4 18bb 23f0 fd3c
00000280: 5691 f0bb 4460 ef3c 2610 91bd 3a72 2fbc
00000290: 42a8 b43c 0a9f c73b adce 753d b1f1 d03c
000002a0: c3b8 62bd 0808 123d 559e 52bd 6c7a 38bd
000002b0: 3af2 a9bd f0a0 68bd 067f 6a3d 29af 943b
000002c0: 65db 20bd ebdb 4cbc 1664 94bc b36f 213d
000002d0: f7fd 71bd cb76 37bd ad5a 2cbd 81a2 913d
000002e0: c6d6 273d 9b09 fdbd fefe 01bc 4c2e 48bc
000002f0: a781 553d 0309 433c 6c92 14bc b98e 08bd
00000300: 3bae c83d 089c a2bb 6f46 3a3c 36c8 cbbd
00000310: 3525 b33c 5632 c0bc d9ed 193d 9c11 cc3c
00000320: f409 1f3d b9e0 283d 48b8 553c 20dc 75bd
00000330: 0df7 17bd 1f6f 3fbd f11f db3c fdc8 87bb
00000340: 64ce 28bd f7c6 90bd 7709 01bd 90f5 0cbd
00000350: d52a 76bd b5f3 8dbc 6773 e83c 5b47 42bd
00000360: c58e 7d3d 9696 81bd 3bd5 1dbc f9fd 38bd
00000370: de61 29bd 513f 1dbd 513b 68bd b8c5 893d
00000380: c293 14bd b15b 9b3b 85c9 b03c 6660 133c
00000390: 66f6 fb3c 500c 8fbd f5d4 363d c4f1 a8bd
000003a0: fbe3 93bd 8a4b d23b 3233 a43d 7a10 87bd
000003b0: 7186 663b b1ac 8d3c c6f6 4fbc 21c8 2bbc
000003c0: 4c28 1c3b 8749 47bc d7f8 a7bd f314 2b3d
000003d0: ca3f d3bc 38de e7bd 16c7 49bd 576a 003d
000003e0: 57b1 89bd e346 093d 246a 013d 50c9 7fbd
000003f0: 739b 143d 4854 44bc 0e6c cd3c 7e3a bcbd

mean_layer.weight f4 [4, 256]
0.014202381 0.016093614 0.035194635 0.024805862 0.07392299 0.04916769 0.100827456 0.00870279
-0.0086502945 0.06438723 -0.0074585057 -0.016261341 0.07313406 0.09060754 0.025472717 0.12011641
0.027125074 -0.025516521 -0.023486244 0.056068417 0.016492132 0.015381016 -0.041125547 -0.004289066
0.05702455 0.0120958565 -0.018938016 -0.05174994 0.0047693583 0.08016142 0.070220985 0.029876234
0.050653473 0.05035274 0.013760189 0.083905935 -0.07198379 0.0391249 0.02243909 -0.0035720966
0.015461419 0.046600893 0.036544446 -0.025553703 0.06782341 -0.028366432 -0.019272858 0.049938772
0.04941092 0.1596975 0.047358643 -0.00655104 0.07347854 -0.047398493 -0.06545584 0.05235533
0.07069743 -0.069820866 0.1599485 0.032406185 0.095971726 0.04179361 0.059914954 -0.019211266
0.035348512 -0.053953834 0.045939583 -0.049520526 0.040046394 0.12226932 -0.028350418 0.0070388387
-0.009305646 0.11568121 0.11892635 0.027603185 0.17098628 0.19295183 0.014666637 0.11300423
0.012255104 0.16865315 0.079701185 0.016154103 -0.043885726 0.028375762 0.014128414 0.05224452
0.09110862 -0.015807478 0.05020532 -0.013350788 0.063264675 -0.014013563 -0.0035327743 0.05055537
0.20936726 0.031631693 0.003580511 0.030271301 0.22165532 0.007214707 -0.039539326 -0.016636122
0.16132668 0.061144844 -0.037424695 0.034054127 0.017581904 0.04660749 0.0329487 0.008572721
-0.019927634 0.056840945 0.013386811 -0.09490014 0.02958822 0.009283354 0.010204688 0.04891195
0.032610007 0.011518687 0.025472604 -0.007175411 -2.1102687e-05 0.05450588 0.040625215 -0.02428585
0.048382476 0.039721005 0.04298195 0.001699779 -0.017544726 0.039919008 -0.004357667 0.091506414
0.06679903 0.14601414 0.06221973 0.029899646 0.0053415387 0.06641558 0.093453534 -0.0050607715
0.055883024 0.014264649 0.0048224158 0.0013563927 -0.027565645 0.11183413 0.07949449 -0.039139293
0.048920564 -0.051976096 -0.019180343 -0.046221834 0.03187536 0.037604846 0.05490615 0.055620093
-0.032173827 -0.06187172 -0.015488079 0.025461936 0.09743355 0.10196394 -0.00397467 0.04571904
0.012592866 0.0831786 -0.046742488 0.061163943 -0.08982292 -0.01770335 0.22941592 -0.00981427
0.07359502 0.015755601 0.042817432 0.0020826715 0.03594025 0.10929011 0.04829554 0.084141165
0.09810904 -0.008088543 0.052172296 -0.034035604 0.14338477 0.009884541 0.034227286 -0.013480827
-0.002854518 0.01822038 -0.00353077 0.04484491 0.021618593 -0.033160824 0.1400457 0.10712082
0.095153816 -0.03167717 0.051875383 -0.035938647 -0.037265826 -0.0046555656 0.0019973742 -0.017614808
0.08503061 -0.012255774 0.07902382 0.018904665 0.04224585 -0.028493928 0.009966261 -0.021368798
-0.0034740232 0.0063937227 -0.017493919 0.047499478 -0.001031066 0.01575193 0.028830452 -0.05580359
0.016162328 0.052129235 0.16599828 -0.013747123 0.015325259 -0.011376577 -0.004520363 -0.027460836
0.068477385 0.020436155 0.03989411 -0.046107013 0.08557565 0.14010765 0.0203833 -0.007973211
0.016615553 0.09631737 0.06098474 0.06356318 -0.015076421 -0.03011813 -0.05888059 -0.043397084
0.02157188 0.05890189 0.048130102 0.020044195 0.018520484 0.05947104 0.13466056 0.015639588
00000000: 1ab1 683c c1d6 833c 4028 103d aa35 cb3c
00000010: f064 973d 0f64 493d a07e ce3d 2696 0e3c
00000020: f7b9 0dbc 74dd 833d 7b66 f4bb 8136 85bc
00000030: 4fc7 953d 7290 b93d 29ac d03c 98ff f53d
00000040: 6735 de3c 0608 d1bc 3966 c0bc ffa7 653d
00000050: 821a 873c a800 7c3c 4373 28bd 4b8b 8cbb
00000060: 9392 693d b32d 463c e623 9bbc bff7 53bd
00000070: 4748 9c3b ac2b a43d 05d0 8f3d 01bf f43c
00000080: 047a 4f3d ad3e 4e3d 6a72 613c e0d6 ab3d
00000090: 3d6c 93bd 6e41 203d 2fd2 b73c d619 6abb
000000a0: e451 7d3c 94e0 3e3d a1af 153d 0056 d1bc
000000b0: 00e7 8a3d b860 e8bc 1de2 9dbc 998c 4c3d
000000c0: 1b63 4a3d be87 233e 23fb 413d 1baa d6bb
000000d0: eb7b 963d ec24 42bd b60d 86bd 8b72 563d
000000e0: d0c9 903d 3efe 8ebd 8ac9 233e 59bc 043d
000000f0: d38c c43d c72f 2b3d 6269 753d f260 9dbc
00000100: 9ac9 103d b2fe 5cbd 252b 3c3d 09d6 4abd
00000110: b007 243d 5668 fa3d 233f e8bc 0fa6 e63b
00000120: b576 18bc 45ea ec3d a88f f33d 1320 e23c
00000130: 0717 2f3e 2a95 453e 564c 703c c36e e73d
00000140: a2c9 483c 69b3 2c3e 603a a33d 9c55 843c
00000150: 85c1 33bd 4974 e83c dd7a 673c 5afe 553d
00000160: 2897 ba3d af7e 81bc 18a4 4d3d 43bd 5abc
00000170: e990 813d 2599 65bc 1e86 67bb 2613 4f3d
00000180: 5f64 563e 3c90 013d 02a7 6a3b 85fb f73c
00000190: 9df9 623e 5969 ec3b fdf3 21bd 7a48 88bc
000001a0: d232 253e 0473 7a3d a34a 19bd 577c 0b3d
000001b0: ed07 903c 7fe7 3e3d 37f5 063d 9974 0c3c
000001c0: 473f a3bc 0dd2 683d 5b54 5b3c 015b c2bd
000001d0: ff62 f23c 3519 183c 9031 273c e657 483d
000001e0: 1292 053d e0b8 3c3c ecab d03c b61f ebbb
000001f0: ad05 b1b7 8f41 5f3d a066 263d 1ef3 c6bc
00000200: b42c 463d 7eb2 223d d70d 303d 1ecb de3a
00000210: f5b9 8fbc 1d82 233d c3ca 8ebb b767 bb3d
00000220: eecd 883d bb84 153e 1eda 7e3d 1af0 f43c
00000230: 1308 af3b e404 883d 9164 bf3d d4d4 a5bb
00000240: 99e5 643d 46b6 693c 5b05 9e3b fdc8 b13a
00000250: 59d1 e1bc 4b09 e53d 02ce a23d 8650 20bd
00000260: ee60 483d e3e4 54bd 1820 9dbc 1b53 3dbd
00000270: bd8f 023d 8a07 1a3d 45e5 603d e5d1 633d
00000280: b4c8 03bd 336d 7dbd b6c1 7dbc 8d95 d03c
00000290: 3e8b c73d 78d2 d03d f33d 82bb e343 3b3d
000002a0: 4f52 4e3c 8b59 aa3d 0d75 3fbd 0b87 7a3d
000002b0: 14f5 b7bd 9e06 91bc 02ec 6a3e 08cc 20bc
000002c0: fcb8 963d e411 813c 5561 2f3d 6e7d 083b
000002d0: 1536 133d 7ed3 df3d 8bd1 453d 3452 ac3d
000002e0: 64ed c83d cf85 04bc 9eb2 553d eb68 0bbd
000002f0: 75d3 123e c5f2 213c e931 0c3d b0de 5cbc
00000300: dd12 3bbb e842 953c 7e64 67bb 4caf 373d
00000310: 7a19 b13c a5d3 07bd 2468 0f3e 2962 db3d
00000320: 01e0 c23d ecbf 01bd 487b 543d 6734 13bd
00000330: 0da4 18bd b78d 98bb 61e6 023b ee4c 90bc
00000340: 8724 ae3d 71cc 48bc 3ed7 a13d f5dd 9a3c
00000350: fc09 2d3d 196c e9bc 8749 233c 9e0d afbc
00000360: 70ac 63bb 6f82 d13b 684f 8fbc d08e 423d
00000370: d624 87ba 310a 813c d72d ec3c 4e92 64bd
00000380: dc66 843c 7785 553d 74fb 293e 9d3b 61bc
00000390: cc16 7b3c d364 3abc 8e1f 94bb 8cf5 e0bc
000003a0: df3d 8c3d b969 a73c 0268 233d b5da 3cbd
000003b0: 4942 af3d 6178 0f3e e1fa a63c 12a2 02bc
000003c0: 571d 883c 0b42 c53d 22cb 793d 6a2d 823d
000003d0: 1803 77bc 4cba f6bc c62c 71bd 24c1 31bd
000003e0: 83b7 b03c 1c43 713d 1224 453d b933 a43c
000003f0: 45b8 973c e897 733d 75e4 093e 981e 803c

mean_layer.bias f4 [4]
0.056598905 0.054493994 0.030232383 0.0515719
00000000: 41d4 673d 1835 5f3d e7a9 f73c 0e3d 533d

log_std_layer.weight f4 [4, 256]
0.029779948 0.15700832 -0.10241087 -0.15680464 0.16352582 -0.014708796 0.17431667 -0.00048121708
0.089234516 0.0700828 -0.07112613 0.0036344412 0.03256126 0.19639814 0.013620024 0.24521926
0.1469701 0.052007716 0.1548984 0.11714982 -0.050237723 -0.06168772 0.0009128979 -0.057928286
0.17618494 -0.015581023 -0.11435789 0.049000256 -0.07315918 0.16138126 -0.13090807 0.20133086
-0.037655972 0.10857141 -0.10094688 0.032213982 -0.022351114 0.01310237 -0.06974907 -0.05313518
0.039592646 -0.11780738 0.12164732 -0.08795692 0.15034688 0.002339365 0.010581746 -0.14992137
-0.045480803 0.32767704 0.04667091 -0.06264729 -0.020502202 0.041363664 -0.05983298 -0.17583947
0.17073983 0.024604758 0.3149522 -0.046348844 0.2390104 0.16707791 0.025391959 -0.08644268
0.11229219 -0.052453075 0.03446929 -0.04928114 -0.011303443 -0.029801633 -0.051211484 0.0065800366
0.10361283 0.17582722 0.10744297 -0.03747551 0.121491626 0.05376796 -0.095643975 0.19468442
0.080806956 0.2279577 -0.07915462 -0.04797881 -0.001020017 0.00088565995 0.01515638 0.012902139
0.06621245 -0.09641925 0.21672449 0.28361627 0.008432036 -0.11030653 -0.042873044 0.047053427
0.20190021 -0.041308157 -0.02635127 -0.030526243 0.2619238 -0.046569154 -0.038222153 0.043848637
0.18628605 0.206498 -0.0045912727 0.0794649 -0.050713997 0.15695174 0.013239844 -0.07414284
0.014420876 0.1709393 -0.14985326 -0.036684282 -0.19505782 0.0542133 0.2034225 -0.110494226
-0.06478458 0.007093417 0.047032554 -0.035227045 -0.06922132 0.19695647 0.007435925 0.09909549
-0.12476404 0.024212852 0.19613266 0.012525742 -0.024130823 -0.10816997 0.043887377 0.28110984
0.088836566 0.24717163 0.23622932 0.23490338 -0.065959424 -0.0071117515 0.13130689 -0.062250808
0.10445437 0.005407765 -0.023301624 -0.033509757 -0.040662322 0.21923402 -0.13141112 0.12188066
-0.048112206 0.06425204 0.15161435 -0.008060415 0.0013145239 0.023152826 -0.054653343 -0.061963316
0.06411951 0.00753512 0.0266383 0.116288066 0.13540682 -0.006138402 0.1420155 0.25928882
-0.025159726 0.3147546 -0.017404873 -0.03883419 0.11609108 0.031069992 0.25159281 -0.03678301
-0.17798969 -0.039622046 -0.104603074 0.002432179 0.27087697 0.10566136 -0.10894666 -0.0885468
0.039171547 -0.09472384 -0.00017228693 -0.0054121027 0.15780361 -0.013307699 0.06823305 -0.025039045
0.16040494 -0.046953987 -0.016076922 -0.083572194 -0.13479382 -0.12510705 0.19928354 0.27859914
0.28920972 0.00044200083 0.13447319 0.036006782 -0.029335042 0.371313 -0.034230795 -0.0028687601
0.071259886 -0.024727937 0.18864065 -0.04268277 0.0751215 -0.10197627 0.01740264 -0.16390076
-0.11240528 0.012653569 0.0056842375 0.17732069 -0.04710586 -0.05089277 -0.08875334 -0.03678504
-0.04463586 -0.025075011 0.27062833 -0.1857117 -0.017571395 0.011816818 -0.07913579 -0.10956242
-0.012079512 0.12201194 -0.027934749 -0.03111174 0.23119847 0.17273882 -0.020722333 0.011495997
-0.098481566 0.21652617 -0.039786186 0.12335473 -0.044753306 -0.11686866 -0.082981914 0.005873214
0.28066963 0.019798819 -0.052546334 0.01416135 0.025558835 -0.06262391 0.1339798 -0.10435215
00000000: 14f5 f33c cac6 203e cabc d1bd 6591 20be
00000010: 5073 273e 29fd 70bc 1280 323e dd4b fcb9
00000020: 96c0 b63d 9287 8f3d 94aa 91bd ce2f 6e3b
00000030: f55e 053d 981c 493e 8526 5f3c c21a 7b3e
00000040: 547f 163e 0b06 553d b09d 1e3e 3fec ef3d
00000050: 12c6 4dbd 43ac 7cbd 8b4f 6f3a 3646 6dbd
00000060: d369 343e 8c47 7fbc 7834 eabd 7eb4 483d
00000070: 7bd4 95bd 2141 253e c40c 06be ad29 4e3e
00000080: 263d 1abd b05a de3d 3dbd cebd cff2 033d
00000090: af19 b7bc 53ab 563c 9ad8 8ebd 46a4 59bd
000000a0: e62b 223d ff44 f1bd 3b22 f93d c222 b4bd
000000b0: 88f4 193e 0850 193b 0f5f 2d3c fd84 19be
000000c0: 144a 3abd 49c5 a73e ff29 3f3d 394d 80bd
000000d0: 3cf4 a7bc f26c 293d 6d13 75bd 430f 34be
000000e0: 6cd6 2e3e eb8f c93c 6a41 a13e 49d8 3dbd
000000f0: 24bf 743e 7916 2b3e cc02 d03c dc08 b1bd
00000100: 73f9 e53d 09d9 56bd ac2f 0d3d 05db 49bd
00000110: 1432 39bc 8e22 f4bc 22c3 51bd 599d d73b
00000120: f732 d43d 0d0c 343e 0f0b dc3d ec7f 19bd
00000130: 9ad0 f83d cb3b 5c3d fde0 c3bd 5a5b 473e
00000140: 1e7e a53d be6d 693e d11b a2bd 6e85 44bd
00000150: 17b2 85ba a22b 683a 7752 783c 7e63 533c
00000160: 659a 873d 7577 c5bd 06ed 5d3e 2736 913e
00000170: 8626 0a3c 64e8 e1bd a59b 2fbd 18bb 403d
00000180: eebe 4e3e be32 29bd 9ede d7bc 2c12 fabc
00000190: e01a 863e 4cbf 3ebd d58e 1cbd a19a 333d
000001a0: c5c1 3e3e 3674 533e 6372 96bb 7ebe a23d
000001b0: 7bb9 4fbd f5b7 203e eeeb 583c 34d8 97bd
000001c0: 8a45 6c3c b60a 2f3e 2273 19be 4242 16bd
000001d0: 3dbd 47be c40e 5e3d fd4d 503e cc4a e2bd
000001e0: c7ad 84bd e56f e83b 35a5 403d 3c4a 10bd
000001f0: e8c3 8dbd f5ae 493e 0fa9 f33b 94f2 ca3d
00000200: 4a84 ffbd 085a c63c 00d7 483e c538 4d3c
00000210: 01ae c5bc 3888 ddbd 40c3 333d a1ed 8f3e
00000220: f2ef b53d 8f1a 7d3e 19e6 713e 838a 703e
00000230: bc15 87bd b209 e9bb 5075 063e b4fa 7ebd
00000240: 2cec d53d 9f33 b13b 0ce3 bebc 8741 09bd
00000250: 898d 26bd e27e 603e a390 06be 919c f93d
00000260: 4e11 45bd 9396 833d cb40 1b3e d50f 04bc
00000270: 1a4c ac3a ffaa bd3c 2fdc 5fbd 3fcd 7dbd
00000280: 1751 833d 2be9 f63b 9038 da3c 7028 ee3d
00000290: 16a8 0a3e a624 c9bb 836c 113e 81c1 843e
000002a0: c51b cebc 8427 a13e aa94 8ebc 9a10 1fbd
000002b0: 29c1 ed3d 7f86 fe3c c6d0 803e c8a9 16bd
000002c0: ee42 36be ba4a 22bd 233a d6bd 3165 1f3b
000002d0: 63b0 8a3e fc64 d83d 6d1f dfbd 0658 b5bd
000002e0: 5872 203d 93fe c1bd eca7 34b9 0258 b1bb
000002f0: 4597 213e 8908 5abc c5bd 8b3d af1e cdbc
00000300: 3141 243e d352 40bd c0b3 83bc e627 abbd
00000310: 6407 0abe 101c 00be fc10 4c3e 8ca4 8e3e
00000320: 4c13 943e 59bc e739 57b3 093e d97b 133d
00000330: 0b50 f0bc bd1c be3e 9735 0cbd cf01 3cbb
00000340: b4f0 913d 3e92 cabc 042b 413e 21d4 2ebd
00000350: 4dd9 993d efd8 d0bd fb8f 8e3c 9ad5 27be
00000360: bd34 e6bd ea50 4f3c d742 ba3b 8e93 353e
00000370: 13f2 40bd f074 50bd 50c4 b5bd e9ab 16bd
00000380: 17d4 36bd 1c6a cdbc cc8f 8a3e 352b 3ebe
00000390: e3f1 8fbc 549b 413c f211 a2bd 4362 e0bd
000003a0: 25e9 45bc 65e1 f93d 6ad7 e4bc 0cde febc
000003b0: 4bbf 6c3e 72e2 303e e2c1 a9bc b559 3c3c
000003c0: b4b0 c9bd 09b9 5d3e d7f6 22bd 68a1 fc3d
000003d0: 3e4f 37bd d658 efbd 6cf2 a9bd 1774 c03b
000003e0: eeb3 8f3e 2231 a23c d33a 57bd 0205 683c
000003f0: c360 d13c f740 80bd 0032 093e 94b6 d5bd

log_std_layer.bias f4 [4]
-0.006196923 -0.0795615 -0.04061184 -0.08273249
00000000: 8f0f cbbb 24f1 a2bd 9a58 26bd a76f a9bd

net.0.weight f4 [256, 24]
0.22793858 -0.08897981 0.43507332 -0.050223 0.24556476 0.009292732 -0.023673773 -0.022051467
0.11325075 -0.06822417 0.14106295 -0.0733791 0.11983432 0.15290362 0.10513948 0.21305574
0.16533913 0.06939308 0.24342822 -0.097177036 0.13287908 0.033353034 -0.048150815 -0.07099932
-0.4626913 -0.6646247 -0.055050477 0.2937618 -0.313974 -0.020517102 -0.28527218 -0.0341888
-0.006324949 -0.05583072 -0.018663438 -0.08097091 -0.0015892006 0.10278026 0.09848436 0.14168476
-0.14682518 0.10916384 0.0017109526 -0.06787977 0.011925269 0.12791993 0.045149844 0.22411926
-0.47068274 -0.5089625 -0.019695163 -0.19381659 -0.10461491 -0.09140728 -0.119100586 -0.040919352
0.098460406 -0.26198056 0.03297318 -0.049116533 0.019171536 0.020371726 0.15096383 0.13318764
0.0981996 0.03541987 0.15993033 -0.19391407 -0.20216478 -0.051144347 -0.14119531 0.23114973
-0.14913464 -0.44919074 0.31883448 0.17160387 0.032780614 -0.05046103 0.00064388494 0.04066424
-0.032368466 -0.20736332 0.035503205 -0.11038274 -0.023379438 0.09634601 -0.0965222 0.022431847
-0.20745218 0.12594049 0.14073448 0.047666106 -0.11292908 -0.1391964 -0.041739326 0.101027235
-0.22042474 -0.32254675 0.11333473 0.2550028 -0.29049027 -0.080491215 -0.17466468 0.080824785
0.08123699 -0.12538855 -0.01705033 0.21117482 0.03428804 0.053475667 -0.17592342 -0.21379833
-0.10403019 -0.11383576 0.1879844 0.036067232 -0.026183698 0.04740329 0.08143866 0.123802885
0.029523054 -0.47350156 0.14956318 0.17935273 -0.25501278 0.15230215 0.010854826 0.030376356
-0.08680107 0.0050819875 -0.16895804 -0.04651978 0.13249278 -0.003360336 0.0958794 0.056512997
0.0001208063 -0.0607251 -0.18081269 0.0772729 0.15699868 -0.007079479 0.15283412 -0.032939754
0.056399994 0.19600494 0.10354039 -0.2679126 0.26856583 0.07661851 -0.023374463 -0.08134115
0.10539359 -0.1286064 0.07443544 -0.3404543 -0.03164928 -0.16492414 0.1581748 0.18600297
0.09850261 0.13979086 0.09633619 0.16923106 -0.10099824 0.19153568 0.08648358 -0.17691292
0.029561434 -0.20624065 -0.33534986 -0.10276594 -0.26006424 -0.108054034 -0.08758864 -0.05550253
0.009402256 0.017865004 0.12558718 -0.088326804 0.08308168 -0.19888565 -0.18829489 -0.00064794056
-0.04537548 0.01380865 0.14916 0.009646822 -0.03772038 -0.20524453 -0.10085704 -0.09782255
-0.06015026 -0.43049848 0.32513922 0.2646249 -0.24586818 0.016521784 -0.5392521 -0.018153897
0.07960359 -0.30141556 0.035230275 0.21535201 -0.028151195 -0.027990513 -0.08886084 -0.048170768
-0.00950619 0.26827258 0.19627105 0.06944535 0.17185828 -0.106443934 -0.018115718 -0.117387176
-0.55499995 -0.78079414 0.2103179 0.508591 -0.3329163 0.025846215 -0.3049931 0.02344432
0.03316739 0.019109258 -0.044767987 -0.029482545 0.0014817485 -0.035912998 0.035142038 0.08184382
0.05050285 -8.174005e-05 -0.10366216 -0.13940895 0.16286021 0.035970688 0.1858973 -0.13047776
-0.08223556 0.25812957 -0.026805306 -0.33663005 0.12783012 -0.023644011 0.041013952 -0.00059857476
-0.06069073 -0.21571244 -0.10976868 0.14124587 -0.0068556056 0.07997052 -0.07010617 0.031604324
00000000: bb68 693e 0c3b b6bd eec1 de3e a2b6 4dbd
00000010: 5475 7b3e 8b40 183c 80ef c1bc 47a5 b4bc
00000020: 02f0 e73d 1db9 8bbd ce72 103e c847 96bd
00000030: b26b f53d c492 1c3e 5e53 d73d 492b 5a3e
00000040: a94e 293e f61d 8e3d 3f45 793e c104 c7bd
00000050: 7411 083e 319d 083d ca39 45bd 1768 91bd
00000060: e0e5 ecbe d824 2abf 9c7c 61bd f267 963e
00000070: 33c1 a0be 7b13 a8bc 320f 92be 8e09 0cbd
00000080: 8541 cfbb c1ae 64bd 11e4 98bc 14d4 a5bd
00000090: b94c d0ba 757e d23d 2bb2 c93d cf15 113e
000000a0: 5759 16be 4b91 df3d 0b42 e03a 8d04 8bbd
000000b0: 3462 433c 71fd 023e 0bef 383d 857f 653e
000000c0: 54fd f0be 5e4b 02bf c057 a1bc db77 46be
000000d0: 5840 d6bd bd33 bbbd 02eb f3bd 0d9b 27bd
000000e0: 9ca5 c93d 5122 86be e30e 073d 6b2e 49bd
000000f0: a00d 9d3c 9be2 a63c 4396 1a3e 5762 083e
00000100: df1c c93d 6d14 113d c7c4 233e 6991 46be
00000110: 4904 4fbe bc7c 51bd 8195 10be 84b2 6c3e
00000120: c0b6 18be 54fc e5be 463e a33e edb8 2f3e
00000130: f744 063d 3ab0 4ebd 63ca 283a 8c8f 263d
00000140: cc94 04bd 0d57 54be cf6b 113d 5910 e2bd
00000150: 3c86 bfbc 0f51 c53d 6ead c5bd fec2 b73c
00000160: 586e 54be 8bf6 003e b31c 103e 893d 433d
00000170: 5d47 e7bd 8089 0ebe dbf6 2abd 5ee7 ce3d
00000180: 06b7 61be d924 a5be 0a1c e83d ba8f 823e
00000190: 24bb 94be 94d8 a4bd 4cdb 32be 7787 a53d
000001a0: 945f a63d db65 00be 22ad 8bbc 363e 583e
000001b0: 9e71 0c3d 4d09 5b3d 4525 34be f3ed 5abe
000001c0: c80d d5bd b922 e9bd fc7e 403e 3cbb 133d
000001d0: 327f d6bc f429 423d 50c9 a63d 5e8c fd3d
000001e0: 55da f13c cc6e f2be 1727 193e 3ea8 373e
000001f0: 0991 82be 18f5 1b3e 71d8 313c d6d7 f83c
00000200: c2c4 b1bd cd86 a63b 5603 2dbe 868b 3ebd
00000210: 30ac 073e 1539 5cbb 6b5c c43d 2c7a 673d
00000220: 6359 fd38 e2ba 78bd f626 39be 4141 9e3d
00000230: 43c4 203e f9fa e7bb 8c80 1c3e d6eb 06bd
00000240: ae03 673d 85b5 483e fc0c d43d d72b 89be
00000250: 7681 893e 2aea 9c3d cd7b bfbc 3096 a6bd
00000260: 98d8 d73d 65b1 03be 9c71 983d 0750 aebe
00000270: ada2 01bd e0e1 28be 93f8 213e 9077 3e3e
00000280: bdbb c93d 5625 0f3e e94b c53d e84a 2d3e
00000290: 2ad8 cebd ee21 443e 4e1e b13d a928 35be
000002a0: d22a f23c c030 53be fab2 abbe f376 d2bd
000002b0: 2427 85be 6f4b ddbd ac61 b3bd 9f56 63bd
000002c0: ec0b 1a3c a159 923c ed99 003e afe4 b4bd
000002d0: ba26 aa3d aea8 4bbe 60d0 40be 8eda 29ba
000002e0: a4db 39bd ad3d 623c 66bd 183e b40d 1e3c
000002f0: af80 1abd 9f2b 52be 238e cebd 3057 c8bd
00000300: 1e60 76bd 4c6a dcbe a678 a63e ea7c 873e
00000310: dec4 7bbe b158 873c 6d0c 0abf 7bb7 94bc
00000320: 3507 a33d 2453 9abe 9f4d 103d 3d85 5c3e
00000330: 569d e6bc 5c4c e5bc acfc b5bd b64e 45bd
00000340: dabf 1bbc 065b 893e 47fb 483e 5d39 8e3d
00000350: 9efb 2f3e 47ff d9bd 6a67 94bc b068 f0bd
00000360: 7a14 0ebf 20e2 47bf 935d 573e 0533 023f
00000370: 0174 aabe 71bb d33c 0e28 9cbe 4d0e c03c
00000380: 87da 073d 058b 9c3c a35e 37bd 6185 f1bc
00000390: 3b37 c23a 8219 13bd 19f1 0f3d bc9d a73d
000003a0: 14dc 4e3d db6b abb8 d44c d4bd 38c1 0ebe
000003b0: d4c4 263e 0056 133d dd5b 3e3e f69b 05be
000003c0: 1e6b a8bd 8f29 843e cd96 dbbc c65a acbe
000003d0: e6e5 023e 16b1 c1bc 3ffe 273d ace9 1cba
000003e0: d896 78bd b9e3 5cbe 67ce e0bd c2a2 103e
000003f0: fda4 e0bb 96c7 a33d d393 8fbd 8973 013d
