best_model_episode_500.pth (torch, 561686 bytes, 10 tensors)

actor_log_std f4 [4]
00000000: 3066 d3bf cafc 01c0 ecef b9bf 3e50 b1bf
-1.651556 -2.031054 -1.4526343 -1.3852613

shared.0.weight f4 [256, 24]
00000000: b55f 17ba 41e9 173f c457 97be 9877 fb3e
00000010: 9d92 33be 0cef 283e bca3 8ebc d998 a1bc
00000020: ecd2 103d 69a2 1bbe dc49 e4bb 7bf9 333e
00000030: 8ce6 a13e 8df2 a93d 4cee db3d 2216 2bbd
00000040: 8087 f93d cad1 b2bc 74f0 20be d236 5abc
00000050: cbe9 24be 7ec6 10be 6cfc 26be 737f fb3d
00000060: 30a1 05bf 2cdd 853d 85f7 03bf 0b8e 73be
00000070: fdbb 453e d8cb fabe b989 243e d3bb 96be
00000080: e7ca 383d cd80 34be fe6f 5abe 0b0b 99bd
00000090: 6a17 6bbd 35ad 113d 568e 93bd 2776 1dbe
000000a0: b15e d8bc 6918 06be 8591 1c3c c6ee db3d
000000b0: 2729 333d b097 49be 2a33 0c3c 6779 b4bc
000000c0: 7d84 b83e e84a 78be 7614 843e fa57 8bbd
000000d0: 0c8d 86be 462a ab3c 6cd9 453d 6ba9 573d
000000e0: e223 8a3d bf0a 983c 6972 843d a807 4dbd
000000f0: 1ec6 9c3c 7a9c 06be ceda 87bc 5954 0ebe
00000100: 3561 443a 704f d6bd 4958 cf3d 2375 4bbe
00000110: cc5e 50be ec65 d3bd ba34 7f3e 0f28 363e
00000120: 14cc c03d 7f0f cdbe 4888 bdbd 000c 04bf
00000130: 729a 0bbe cd35 c53d 34e1 163e ec6c 76bd
00000140: c59f 87be 7978 dfbe 2455 e33d c94e 74bc
00000150: dffe d23c b82e 0a3d daed 033e 1010 15be
00000160: 04d9 afbd 5dd7 b03d 8f2e 9c3d 870e a3bb
00000170: 92d1 383e e8cc 6e3e 392f 32be 5d31 3cbe
00000180: 7b7d ce3e 0e50 a6bd a647 81bd bde6 93be
00000190: bf86 2fbe 0ecc c13c 901e 42be af66 06be
000001a0: b9b9 8cbd 7b1b 12be c431 a9be 7dec a0be
000001b0: 3d12 83be 2e37 be3d 38df 823e b8bf b13d
000001c0: c18b dc3d aa1e 19be f628 c3bd 84bc e7bc
000001d0: 6ca4 923d f4f4 1fbe ab09 4ebd e3f8 76bd
000001e0: 5cbc f0bb de06 323e 55aa 2c3e b1d8 f2bd
000001f0: 09cf 53be 2314 51be c6b9 aa3c 0683 8bbd
00000200: d262 953d a491 b3bd e689 be3d 29c9 e83c
00000210: f716 69be 233d 483e d2b4 82bd de04 a9bd
00000220: 7e99 32be 8ef2 58be e7da 3f3d 4f51 84bd
00000230: 7bef 333d 2618 2ebe 4157 3e3e 5c8c 6bbd
00000240: a97b abbd 4045 0fbf 58ad 473d fbb5 9e3e
00000250: 03ea a63e d1d7 83bd 9cb8 12be ee39 0ebe
00000260: eab1 053d bb74 99be c4ce c73d 9647 b9be
00000270: e6d3 943d 8d80 a33d 0bbf d63c fa9c 22be
00000280: 905d 053e 91e9 70bc 9fc6 21bd 073e 85be
00000290: ec06 01bc 52eb 10be 0a86 0abe 6b54 513e
000002a0: 389b 123e 20d1 2e3c 7ea1 4abe 1a6f 28be
000002b0: 4557 343e ae72 8abd c289 bbbd 54fa 57bd
000002c0: c06c 23be c8b1 633c 3070 ad3d 529f 05be
000002d0: a149 823d 2ab0 b93d d67e 59bd d6b6 26be
000002e0: 4992 863c d089 8c3c b6f8 61bc c317 01be
000002f0: dad4 13be 4f85 8dbd 8f2c ebbd 037e 76bd
00000300: 5b73 853e a582 b23f 2e65 08bf eaba 3a3f
00000310: 115a 733d 64bc 1a3d a3f0 64bd 3775 c83c
00000320: 57c0 3c39 bccb eabd 37ac 983d d135 1cbe
00000330: 317c 353b 13f1 7fbe 97d3 d7bd dee3 3bbe
00000340: 5e77 a9bd e741 3e3d 4ffa e83d d5ba c83d
00000350: 75c9 10be 8838 15be fcc3 d2bc 3e07 693e
00000360: e3b0 0b3e 1924 c0be 2ed9 3fbe 3db4 98be
00000370: 935b 923d 818e 613e b73b 9dbd 9300 a23d
00000380: afdb 5dbe febb 90bd 0ed9 143e 908c 983b
00000390: de7c 1dbe e2e1 8ebe b8d9 0cbe d0fe 353e
000003a0: a81f f93d 1bf9 473e 9fa9 073e ff45 a33d
000003b0: b623 863c 941a 32be 8c35 84be 2619 49be
000003c0: 3cb8 c83e 4301 ac3e d9b0 b4be e7d4 ccbe
000003d0: 5d2d ec3d 00af 5fbd 78c3 babd 4e2c 55bc
000003e0: 048d 15bd 8942 1cbd d092 013c 99df 1cbe
000003f0: 5d7b b63d 61ea 53bd 12f3 62bd 1561 44be
-0.00057744543 0.5934029 -0.29559147 0.4911468 -0.17536397 0.16497439 -0.017412059 -0.019726204
0.0353574 -0.15198673 -0.0069668125 0.17575638 0.31621206 0.08298216 0.10738811 -0.041769154
0.12184048 -0.02182855 -0.15716726 -0.013318734 -0.1610481 -0.14138219 -0.16307229 0.122801684
-0.5219908 0.06536326 -0.5154956 -0.23784654 0.19309993 -0.48983645 0.16068162 -0.29440174
0.045115378 -0.17627259 -0.21331784 -0.074728094 -0.057395376 0.035565574 -0.07204883 -0.15377103
-0.02641234 -0.13095249 0.009556179 0.10738902 0.043740418 -0.1968677 0.00855712 -0.022030545
0.3603858 -0.24247324 0.2579686 -0.068038896 -0.26279485 0.020894181 0.048303053 0.052651804
0.06745125 0.018559812 0.064671345 -0.05005613 0.019137438 -0.13145629 -0.016583826 -0.13899364
0.00074912916 -0.1046437 0.10124261 -0.19868903 -0.20348662 -0.103221744 0.24922457 0.17788719
0.09413925 -0.40050885 -0.09254509 -0.5158081 -0.13633135 0.09629402 0.14734346 -0.06016247
-0.26489082 -0.436466 0.11100224 -0.014911362 0.025756298 0.03373596 0.12883702 -0.14556909
-0.08586314 0.08634827 0.07626068 -0.004976097 0.18048695 0.23320353 -0.17400827 -0.18378206
0.4033011 -0.08120738 -0.06312494 -0.28886977 -0.17141245 0.023656871 -0.18956971 -0.13125108
-0.06871361 -0.14268295 -0.3304578 -0.31430426 -0.25599852 0.092878684 0.25560927 0.086791456
0.107688434 -0.14953104 -0.09529297 -0.028288133 0.07160267 -0.15620786 -0.05030219 -0.06029595
-0.007346673 0.17385432 0.16861852 -0.11857737 -0.20684446 -0.20417838 0.020840537 -0.068121
0.07294239 -0.08768013 0.09303646 0.028416233 -0.22762667 0.19554572 -0.06382145 -0.082528815
-0.17441365 -0.21186277 0.04683962 -0.06460821 0.04392956 -0.170014 0.18587972 -0.057506904
-0.08373196 -0.5596504 0.048749298 0.30998215 0.32600412 -0.06437648 -0.14328235 -0.13889286
0.032640375 -0.2997187 0.09756234 -0.36187428 0.07266979 0.079835035 0.026214143 -0.15880194
0.13023973 -0.014704124 -0.03949606 -0.26023886 -0.007875185 -0.14152268 -0.13527694 0.20442359
0.14317024 0.0106699765 -0.19788167 -0.16448632 0.17611416 -0.06760155 -0.091571346 -0.052728966
-0.15959454 0.013897367 0.08468664 -0.13049057 0.063617 0.09066804 -0.053099476 -0.16280684
0.016427176 0.017155558 -0.013792207 -0.1260672 -0.14436665 -0.06910192 -0.11483108 -0.060178768
0.26064572 1.394612 -0.5327939 0.7294146 0.059412066 0.03777732 -0.05589355 0.024469955
0.0001800073 -0.114646405 0.074547224 -0.15254904 0.0027692432 -0.24994306 -0.105384044 -0.18348643
-0.082747206 0.046449568 0.113758676 0.098012604 -0.1413935 -0.14572346 -0.025728218 0.22756669
0.13641696 -0.3752754 -0.18735191 -0.2982501 0.07146373 0.22027017 -0.07677405 0.07910266
-0.21665834 -0.07067107 0.14535925 0.004655428 -0.15379664 -0.2790671 -0.13754928 0.17772985
0.12164241 0.1952862 0.13248299 0.07972335 0.01637445 -0.17392951 -0.25822103 -0.196385
0.3920306 0.33594713 -0.35291174 -0.40006182 0.1153209 -0.054610252 -0.09119314 -0.013011051
-0.036511436 -0.03814939 0.007908538 -0.1531967 0.089102484 -0.051737193 -0.05540759 -0.19177659

shared.0.bias f4 [256]
00000000: 7d44 23be fff1 963c d20b 043d 29ed ca3d
00000010: f39f 0dbe 0170 b13d b02f 023e 7a56 153d
00000020: 5de7 20bc 7abe 753e 1880 15be 426c c03e
00000030: 6154 283e 1a9c 2f3e 2fc9 583e 50ce f73d
00000040: bfcf 3a3e d9b4 9c3d a0d8 7cbe b076 143e
00000050: 9bd7 7b3e 46d0 403d 988f 05bc f3b4 773b
00000060: 2486 293e afac 193e 80a3 13bd f5b2 933e
00000070: e31e ce3d f41d b13c ae17 653e c59b be3d
00000080: 263e 29bd 64b4 223e 756c 383e 404e 323e
00000090: 21da 32bd 17e2 2f3e c5ba f7bd 5e7b 303e
000000a0: efdf 27be af59 293e 3238 8b3e d004 abbd
000000b0: 00cd f3bd 62db 72bd 8807 8d3d 68b5 aa3e
000000c0: e34d 96bd 4f99 86bd 9829 48bd f012 5dbb
000000d0: 8f07 c9bc 6933 a9bd d67d 923e 9460 733e
000000e0: 0523 ad3d 15a6 2c3e 9f57 e6bc 012f c53d
000000f0: f266 50be fa07 673e fd6d cfbc ab93 b33c
00000100: 3792 8abd 2eba f4bc 2d23 33be 50ac 17be
00000110: 3bcf 0bbe c5af 54be 168c 303c e9b5 10be
00000120: b8bb 153e 847c 0c3e b36c 10be bbd9 4cbe
00000130: 0ad1 17be 9aa3 fe3d ef55 a93e c506 903d
00000140: 63e8 103e 382f e43d 6179 33be 98d5 52bd
00000150: eb33 42be 656b da3d fcec 1c3d 10c2 773e
00000160: c66e f3bc fcf2 9abd e490 053e 0df0 0f3e
00000170: e46e 14bc f8fd 51be 4ce2 2c3e b387 1cbe
00000180: 7cb4 84bc 0e7b 333e 91da 4c3d 3519 6b3b
00000190: 3474 c2bd a077 9d3e f227 7c3d 4333 3b3e
000001a0: 935f cb3d dc33 2ebe a606 97bd 5615 2f3e
000001b0: 6fee 20be e20f 95bc ecdc 9c3e bed1 f3bd
000001c0: 432b 543d 95cd 6b3c af67 a53d f873 cd3d
000001d0: 0d0f cfbd 6d54 95bd 55cf 493e 1598 c1bd
000001e0: da1f 663e 3fb9 023e 6055 1bbd 2c7c 733d
000001f0: 51c3 9d3c 0a71 293e 63ae 513e 9d60 763d
00000200: 9e74 7bbd 8ce3 3b3e 4375 a83e 5224 a23e
00000210: 5ca8 943c 95cc 363d cfb0 76bd 4e14 193d
00000220: 43d2 0dbe 63a7 07bc 9dd1 193e 230a ed3d
00000230: 899d 2b3e 10e6 d53d 80aa 0d3e 7e6f d4bd
00000240: d785 703e e234 d43d 9587 603d af20 f03a
00000250: 6363 aebd b658 7bbe 4a85 7f3d ba7f 713e
00000260: 29b7 763d 9fa2 f23d fbb6 c5bd 10bb f0bd
00000270: c753 8dbd 4611 103e 6715 2b3e 870c 993b
00000280: e44e 393e 81ba a83d f7c3 2fbd 7a91 843e
00000290: 21cc e2bc 03ae 523e 0c17 883d 3345 6c3e
000002a0: c7a0 393e 2993 743e 31a9 473d 88d2 3dbd
000002b0: cc2d 1ebd d8eb 1fbe 186c 543e 1cd2 993e
000002c0: c5fb 863d 960a 38bd 9ce7 dc3d 14b7 bc3d
000002d0: 2208 1ebe e0d8 d5bd 0cf1 a73d 9423 16be
000002e0: 8a65 553d 1ab9 5abc 8f7c 1d3e 72d8 343d
000002f0: 6d01 6e3b 33b3 7f3e e30a c73e 21d3 613e
00000300: af1d 013e d2cc 143d 6c42 863e 0a82 603e
00000310: 21b0 193e 2cb2 433e e6fa 3e3d 5523 583e
00000320: 199b fa3d a45a 4a3e 7098 f8bd fdf6 cdbd
00000330: 325e 27be eeb6 953c efa0 e2bc e266 8b3d
00000340: b112 4ebe 5393 d0bd c7ca 9d3e 88cb ee3c
00000350: ab29 5f3d c1bc f73d 4e68 32bd 1835 f7bc
00000360: 708b a9bd 2ba2 313d 7d21 32be 362d e3bd
00000370: 6fef 243a 7a52 373d 60d1 743e 99ac c73d
00000380: bb6f 893e c560 453e 4471 21be 4503 ccbc
00000390: 255a 35bd efc8 d3bd a664 213d e174 1e3e
000003a0: eeae 6dbe 3463 483d 2ee2 66be 0a04 b13e
000003b0: ac83 d23d b910 403d 3207 783e 8253 a1bb
000003c0: 55bb 683e cea3 8d3c 87ed e73c 54fc f03d
000003d0: 2e5c 8d3d 60f9 473d 4262 893d 317a 5a3d
000003e0: 1b6d 7a3e ed79 083d 9691 e3bc 1e5b 4a3e
000003f0: fcd9 efb8 69b8 e3bd 3e10 e43d a19d 8e3e
-0.15944095 0.01842594 0.032237835 0.09908516 -0.13830547 0.08663941 0.12713504 0.036459424
-0.009820786 0.23998442 -0.14599645 0.37582594 0.16438438 0.17149392 0.21170495 0.12099898
0.18243311 0.076516815 -0.24692011 0.144984 0.24593966 0.047073625 -0.008151911 0.0037797063
0.16555077 0.1500728 -0.036044598 0.2884747 0.10064485 0.021620728 0.22372314 0.093070544
-0.041319035 0.15889126 0.18010123 0.17412663 -0.043665055 0.1717609 -0.1209617 0.17234561
-0.16394018 0.16538118 0.2719131 -0.08350527 -0.11904335 -0.05929125 0.06886202 0.33341527
-0.073390745 -0.0657221 -0.048867792 -0.0033733211 -0.024539737 -0.08261759 0.2861163 0.2376731
0.08453945 0.1686023 -0.028117953 0.09628106 -0.2035177 0.22561637 -0.025321001 0.021921
-0.067661695 -0.029873934 -0.17493887 -0.14811826 -0.13653271 -0.20770176 0.010775587 -0.14131893
0.1462239 0.13719374 -0.14103965 -0.20004933 -0.14825836 0.12433548 0.33073375 0.07032541
0.14151148 0.11141819 -0.17526771 -0.05147323 -0.18965118 0.10665015 0.038311943 0.24195123
-0.029715907 -0.07565877 0.13043553 0.14056416 -0.0090596415 -0.20507038 0.168832 -0.1528614
-0.016199343 0.1752741 0.05001313 0.003587318 -0.0949482 0.3075533 0.061561532 0.18281274
0.09930339 -0.1701197 -0.07374315 0.17097983 -0.15715955 -0.01819605 0.306373 -0.119052395
0.05179907 0.014392276 0.08076417 0.10031885 -0.101102926 -0.072914936 0.19707997 -0.094528355
0.22473088 0.12765978 -0.037923217 0.05944459 0.019258173 0.16547027 0.2047668 0.06015073
-0.06139051 0.18348521 0.32901964 0.31668335 0.018146686 0.0446287 -0.06022721 0.03737288
-0.1384974 -0.008279654 0.15021367 0.11574199 0.16759314 0.104442716 0.13834572 -0.10372828
0.23488556 0.10361649 0.0548168 0.0018320287 -0.0851505 -0.2454556 0.062382974 0.2358388
0.06023327 0.11847424 -0.096540414 -0.11754429 -0.06900745 0.1406909 0.16707383 0.004670683
0.180965 0.08238698 -0.042911496 0.2589224 -0.027685227 0.20574193 0.06645021 0.23073272
0.18127738 0.23884262 0.048745338 -0.046343356 -0.038617894 -0.15617311 0.2074436 0.30043113
0.0659099 -0.04493197 0.107863635 0.09214607 -0.1543279 -0.10441756 0.08200273 -0.1466201
0.05209879 -0.013349796 0.15379547 0.04415173 0.0036316768 0.24970703 0.38875493 0.22053196
0.1260898 0.036328144 0.2622255 0.21924606 0.15008594 0.19110936 0.046625994 0.21107228
0.12236614 0.19761139 -0.1213845 -0.10056875 -0.16344526 0.018275704 -0.02766463 0.06806733
-0.20124318 -0.1018435 0.3081877 0.029149786 0.054483097 0.12096549 -0.043556504 -0.030176684
-0.08278549 0.043367546 -0.17395587 -0.11092608 0.0006291782 0.04475639 0.23907995 0.09749717
0.26843056 0.19275196 -0.15765864 -0.024903903 -0.04427542 -0.103410594 0.039402626 0.15474273
-0.23211262 0.048922732 -0.22547218 0.34573394 0.10279021 0.046890948 0.24221495 -0.004923285
0.22727711 0.017290022 0.028311504 0.11766878 0.069023475 0.048821807 0.06708194 0.053339187
0.24455683 0.033319402 -0.027779382 0.19761321 -0.00011437011 -0.11119158 0.111359105 0.27854636

actor_mean.0.weight f4 [256, 256]
00000000: 108e b9bb 3c99 7abd da50 173d 8744 35bd
00000010: 1905 963c d7b4 e3bb e2b7 2f3d 7cd4 72bc
00000020: 74d7 6fbd 5b1c 95bd 007f 7abc e146 4cbd
00000030: 8271 093d 458b febc 0a1b 29bd c37f c2bd
00000040: ae3f 9dbd b92f 36bd a500 d8bd da28 a1bc
00000050: 790e 7abd 11d9 98bc 0caa 25bd b7bf 9dbd
00000060: e219 663d d869 fc3c 82a9 09bb 6aa2 bfbb
00000070: 71d2 ac3c b175 67bd 1c5f c5bd 6e0f 2c3d
00000080: 933d 00be eda2 bd3c 66ee 943b 0c3d 1a3d
00000090: be50 873d d9b1 aebd 9036 a63c 8eff d2bd
000000a0: c6ae 1a3b 0c00 443d c2c5 28bd cd18 ba3c
000000b0: f050 10bd 7739 eebc 5e72 623b 2ba9 9fbd
000000c0: 7a5d b3bc 7462 c8ba 734c 29bd e28d 853d
000000d0: f336 773d 5430 96bd 2515 bb3b 4609 713b
000000e0: 8e79 273d f197 34bd be46 6f3d 1c74 8dbd
000000f0: d665 8c3d ef58 8ebd b211 94bc 2202 253c
00000100: 71ca 30bc 3b56 36bd 6dee e83c 096d 7fbd
00000110: 1389 42bd 7bae 193c 98f6 773d a0e6 113d
00000120: 4b18 65bd a0e9 473c 6749 c33c 74a8 9bbc
00000130: f892 1f3d b753 a6bc 6e5c 7cbd acef b4bc
00000140: 3763 1ebd 2263 f33c 4f19 303d 5baa 1ebd
00000150: 44ee 16bc e330 703d b769 febc c81a 4cbd
00000160: 7c01 743c aabc 5b3d 95ba 673c 2e16 a1bd
00000170: 568f 61bd 2e15 233d c2bc 35bc 6afa ea3b
00000180: d394 4abc 0e57 85bd e1d1 8cbc c45a 503d
00000190: 289f 1cbd 696f af3c 59c3 8dbc 6336 98bd
000001a0: 0c55 5bbd 02fb 1f3c ceb6 bdbd f3f8 d63c
000001b0: 0fd7 a4bc cab4 f23b 5e07 9a3b e5f8 9b3d
000001c0: fcaa 58bd 3a0d 98bd 51b0 eb3c 1e1a 08bd
000001d0: 245d b1bc ccff e93c ad03 cfbc 88dc 4abc
000001e0: 1f4e b7bd a561 883c 3a8e 113d 11e3 09bd
000001f0: 0e3b 96bd 3e33 e73c 1d8f 693c 6784 a5bb
00000200: 5aeb e33b c619 7abd b91b 173d 7c40 5fbc
00000210: 4823 40bc 9642 c6bc 4a56 3cbd 1c2e 9a3b
00000220: c18c 1d3d ee35 193d 8d50 15bd d11d 5b3d
00000230: a667 713c f3d0 813c b682 033d 496e 03bd
00000240: c5d4 35bd 0b93 45bb ac3e bebd c98d 893c
00000250: 01f3 ccbd e74e 80bd 39b3 9abb a65c 0a3a
00000260: 5788 013d e052 4bbd 70cc 5cbd d841 12bc
00000270: 15bb 73bd ec75 78bd abf4 d63b d99f 55bd
00000280: 0cff f3bc 43c9 733c 73c9 593d 2599 79bd
00000290: a584 e33c d630 66bc c1c6 bd3d 071d 813d
000002a0: 6d8d 1bbd 42e1 8bbc 7f1d 73bd 3d46 9d3c
000002b0: 88d5 99bd f77a e23d 0ecd adbc b4b0 4a3d
000002c0: 9fc6 003d e1aa 413d a66d a2bd 7d99 9cbd
000002d0: c02b a5bd ea66 f5bc 4cbb 1b3d 44c9 b03c
000002e0: 810a 183d 5f7e 40ba f377 933b 905d 70bd
000002f0: b06b 2f3d dfeb a9bd 1cb6 90bd 45ff 873c
00000300: c35f 113d 2f0f 3cbd f5cf e13c 52f9 eabc
00000310: 3152 8fbd 173c 13bd 86c8 c6bc 91f0 68bd
00000320: 6acb 2e3d 6069 27bd 53c3 45bd f0f7 dcbc
00000330: 4efb 3dbc 7171 0b3d 61c7 38bd d288 09bd
00000340: 574b e5bb a147 3b3d 127f 3a3c a41c c0bc
00000350: 2931 04bd f5f2 f43b 8bbc 683c 67ca 653c
00000360: a84f 263d 0dfd ee3c 7715 063b 4dd8 de3b
00000370: ade9 54bd 77ac 33bd 25f8 a2bd 9af3 53ba
00000380: e9dd 4dbd 191c f63d 6752 8cbd 1a3e 7cbd
00000390: 2373 b83c 6b0b 773c a073 51bd 498a cbbc
000003a0: e995 be3b 577e 33bc 2fb8 debc 880a 46ba
000003b0: 8d64 85bc 9438 99bc b9d3 ca3c 42d3 0abd
000003c0: d83e 1ebd be50 93bb ee1f 86bd 5cf5 a23c
000003d0: ff0b 72bd 3b82 85bd 54d2 c9bb 9b65 6abd
000003e0: 0b15 27bd f701 d13c f2f1 46bc 0854 0cbd
000003f0: 20b0 1b3c 6500 a0bd e6d5 453b 935d c3bd
-0.005662687 -0.061181292 0.03694234 -0.044254806 0.018312978 -0.006949048 0.042899974 -0.014821168
-0.05855508 -0.07280799 -0.015289068 -0.049872283 0.033555515 -0.031072268 -0.041285552 -0.09497025
-0.076781616 -0.044479106 -0.10546998 -0.0196728 -0.06104896 -0.018658193 -0.040445372 -0.07702582
0.056177028 0.030812189 -0.0021005576 -0.0058482187 0.02109644 -0.056508724 -0.09637281 0.042006902
-0.12523489 0.023148978 0.004545021 0.037655875 0.06607197 -0.085300155 0.02028969 -0.103026494
0.0023602708 0.047851607 -0.04120422 0.022716904 -0.035233438 -0.029080136 0.0034553031 -0.07795938
-0.021895159 -0.001528813 -0.041332673 0.065212026 0.060355138 -0.073334366 0.0057093077 0.003677921
0.040887408 -0.044090215 0.058417074 -0.06906912 0.06855361 -0.069505565 -0.018074844 0.010071309
-0.010790453 -0.04451583 0.028434003 -0.062359843 -0.047494005 0.009379978 0.060537905 0.03562033
-0.05593137 0.012201697 0.023838712 -0.019001223 0.03895852 -0.02030359 -0.061611585 -0.02208694
-0.038668837 0.029710356 0.042992886 -0.038736682 -0.00921208 0.058640372 -0.031056268 -0.049830228
0.014892932 0.05364672 0.014143606 -0.078655586 -0.055068336 0.03981512 -0.011092367 0.007170965
-0.012364584 -0.06510745 -0.017189922 0.05086781 -0.03823772 0.02141543 -0.017305063 -0.074322484
-0.053547904 0.009764435 -0.09263383 0.026241755 -0.02012208 0.0074068056 0.0047005853 0.07615832
-0.05289744 -0.07424398 0.028770598 -0.033228032 -0.021650858 0.028564356 -0.025270307 -0.01238168
-0.08950447 0.016648123 0.03553603 -0.033663813 -0.073354825 0.028222676 0.014255312 -0.005051184
0.0069555463 -0.061059736 0.036891673 -0.013626214 -0.011727162 -0.024201673 -0.04598073 0.0047052037
0.03846431 0.037404947 -0.036453772 0.053495232 0.014734184 0.015846705 0.032107078 -0.032087598
-0.044392366 -0.003014746 -0.092892975 0.016791241 -0.10007287 -0.062650494 -0.004721072 0.0005278088
0.031624164 -0.049639583 -0.053905904 -0.008926831 -0.059504587 -0.060659334 0.0065599284 -0.052154396
-0.029784702 0.0148795275 0.053170633 -0.060937066 0.02777321 -0.014049729 0.09266425 0.06304365
-0.03797667 -0.017075185 -0.0593543 0.019198531 -0.07511431 0.1105861 -0.021215942 0.049484923
0.03143942 0.047282103 -0.0793107 -0.07646463 -0.08064985 -0.0299563 0.038020417 0.021580346
0.037119392 -0.00073430495 0.004500383 -0.05868298 0.04282731 -0.08296942 -0.070659846 0.016601214
0.035491716 -0.045912918 0.027564982 -0.028683338 -0.06998099 -0.035945978 -0.024265539 -0.056870047
0.04267446 -0.040871978 -0.04828198 -0.026973695 -0.01159556 0.034043733 -0.045112018 -0.033577748
-0.0069975066 0.045722608 0.011382835 -0.023451157 -0.032273445 0.007475252 0.014205108 0.014025307
0.04060331 0.029173398 0.0020459571 0.0068006874 -0.051980663 -0.043865647 -0.07957486 -0.00080853107
-0.05026046 0.12017078 -0.068516545 -0.061582662 0.022515839 0.015078406 -0.05113566 -0.024846213
0.0058162105 -0.010955415 -0.027187435 -0.000755467 -0.016283298 -0.018703736 0.02475916 -0.033892877
-0.03863415 -0.004495709 -0.06549059 0.019892387 -0.05909347 -0.0651898 -0.0061591063 -0.057225805
-0.040791553 0.025513632 -0.012142645 -0.034259826 0.009502441 -0.07812575 0.0030187308 -0.09539332

actor_mean.0.bias f4 [256]
00000000: 0e1a 88bc 83a3 adbd f1db eebc f39e 903d
00000010: 7d1c eb3c ee02 31bc 04f4 17bd 9056 c5bd
00000020: 4b1f e83b 93bc 1fbd c579 c8bb 5f02 1cbd
00000030: 4f7c 143d 23e7 94bd 05e2 f4bd 6a2d 933b
00000040: 343b 9fbc a254 2dbd 6205 35bd 7c8f d2bd
00000050: 88b8 eabd 046b 9ebd ed52 033b 8ce3 48bc
00000060: b917 14bd bd62 4fbb 388f 6dbd aa61 fcbd
00000070: 3b1e 9cbd 0f8c 4ebd 4721 8dbb 3e96 3dbd
00000080: 561b b1bd 1b56 72bd 8b2f 97bd bd73 3f3c
00000090: e04d 2bbd 5ead 2c3c c6e9 dc3d 1141 27bd
000000a0: d0af 83bc 6370 91bd c573 1cbd 4dbd 363a
000000b0: 1993 553d 97ac e83b 7144 f9bd 4bab c2ba
000000c0: b37c 77bd cf28 83bc 9e1d 94bd debb 1b3d
000000d0: cd62 5bbd ef3b aebc fa81 88bd 0b14 84bd
000000e0: 3d6c 87b9 9c22 9cbd 370c 64bc 2e74 f9bc
000000f0: 716f 543c 1967 e43c b308 c4bd 7cec 00bb
00000100: c5f1 a4bb 254e 2bbd 4929 16bd c286 ea3c
00000110: 8384 72bd 7d1a 82bb ec27 ddbd 0dae ccbd
00000120: 7e31 adbd 1459 ee3c dba1 75bd b9ae 45bd
00000130: b4ac d0bc 5a5a c9bd 8688 7bbd 0251 83bb
00000140: 4661 40bd 1b10 dabd 2316 ac3c 42ac d3bd
00000150: 1e58 afbc 0aeb 623d bfb5 81bd bd7d acbd
00000160: 11da c13c d60d 77bd eb5c 96bc 883d d13b
00000170: 5e38 c3bd fb70 a83c a53e 1bbd c650 c63c
00000180: 86e6 bfbd 2fb6 d9bc 0e63 b6bd 88fb b8bc
00000190: a105 393c 75cc c9bd ef59 f33b e0e4 2ebd
000001a0: f3da 54bd f44e a1bd b319 a0bd 33a9 28bd
000001b0: b01d 62bc 1269 bdbc c3ef 633c e39e debc
000001c0: d5ae ed3b ec9b 8f3d 7bd1 cabd 0be9 21bd
000001d0: ffd6 6cbc 7012 93bb d9b0 50bd a8fe 6b3d
000001e0: 43b7 36bd caaf 87bd b954 4abb ef59 473b
000001f0: feac 40bd b3d3 b7ba 3795 16bb e957 63bd
00000200: 5988 efbc ed33 f0bc cb08 513c 8258 83bc
00000210: 308c 443b e37f 3bbd a35b cbbd 76a0 8abd
00000220: f4d0 0d3c 5e95 9bbc 2a97 90bd b908 bcbd
00000230: cdff 0ebd ab17 ac3c b38d 10bd 45a0 f0bc
00000240: d178 83bd 3c00 c13c 06d3 18bd 2e72 ddbc
00000250: b518 9bbd 88fa 2e3d 5b72 99bd ef91 b4bd
00000260: c338 95bd 60d3 923d 0850 313c 9b86 93bd
00000270: 76d6 813c 799f 983b 9c41 293d 4e72 6b3c
00000280: 4a31 97bc 7243 5f3d 6054 0abe 93b5 86bd
00000290: 2688 4bbd 63df 493b 6045 d13c 2060 92bd
000002a0: 6f6c 9abc a1be 993c f1f3 03bd 5e37 bcbc
000002b0: 951e b5bd fdaa 3dbd 01c8 563c efa1 a63b
000002c0: 69f2 33bd 8785 273d 6e9b b13b da0b 1f3d
000002d0: 653f 9cbd f28b 10bd f080 8fbb 7d66 133d
000002e0: 418a 1cbb ff75 89bd d957 0dbd d891 2abd
000002f0: 934d 0c3d e88f 01bd 382e 2fbd bc71 0abd
00000300: 5bd9 35bc a16e ac3c 9a85 6e3a 0244 13bd
00000310: 992c 7e3a bb57 c2bd 5f2b 48bc f2ca 0dbc
00000320: d2c5 b2bc ee33 2d3d e76c c6bc 8206 82bd
00000330: 0bbf 44bd 7072 8fbd 2ee0 08bc 0d3a 8ebd
00000340: 1663 e8bc 4970 87bd efed abbd 1b2d 01bd
00000350: c850 8fbd d995 cfbb 2c54 133d 5971 033d
00000360: 56ed 013d cc91 9cbd e1e6 583c cb62 04bd
00000370: 90cc 7ebd f362 afbc 13e2 65bd 4c9e 7a3d
00000380: 54cd 12bc 97d7 243d ad80 5abc 1672 793b
00000390: f332 843d 8d13 32bd 0402 1e3d 879d f5bd
000003a0: 5d25 04bd e02d d8bc 4d90 183d 9aaf 79bd
000003b0: d2c6 aebc 79e9 4d3d 91ab 8cbc eb2a e73b
000003c0: 2e31 893c c604 2bbb a6b1 42bd d7bc 6f3d
000003d0: aae2 96bc 953e f6bd cd80 64bc 6527 7b3c
000003e0: 6a0e a9bd 6cd2 c73c 43dc f93c 004d d5bb
000003f0: 24f1 923d b1f5 22bd 08ec d4bc bf0a 4fbd
-0.016613986 -0.08478453 -0.02915761 0.07061567 0.028700108 -0.010803921 -0.037097946 -0.09635651
0.0070838085 -0.038998198 -0.0061180317 -0.0380882 0.036251362 -0.07270648 -0.11957172 0.0044914978
-0.01943741 -0.04231704 -0.044194587 -0.10281274 -0.11460978 -0.07735255 0.0020038441 -0.012261283
-0.036155436 -0.0031644546 -0.057997912 -0.123233154 -0.076229535 -0.05042654 -0.0043069455 -0.04628586
-0.08647792 -0.059164148 -0.07382115 0.011685309 -0.041822314 0.010539381 0.10786776 -0.040833537
-0.016075045 -0.07101514 -0.038196344 0.0006970957 0.052142236 0.0071006524 -0.12171257 -0.0014852075
-0.060421657 -0.01601067 -0.072322115 0.03802096 -0.05356102 -0.021268813 -0.06665416 -0.064491354
-0.0002582985 -0.07623789 -0.013918928 -0.030450907 0.012966023 0.027881192 -0.09571972 -0.0019672206
-0.005033704 -0.04182257 -0.036660466 0.02862871 -0.059208404 -0.003970443 -0.1079863 -0.09994135
-0.084567055 0.02909521 -0.05996881 -0.04826233 -0.025472976 -0.09831686 -0.061409496 -0.0040074596
-0.046967767 -0.10647603 0.02100665 -0.1033559 -0.021404322 0.055399932 -0.063334934 -0.0842242
0.023663552 -0.06031593 -0.018354854 0.006385509 -0.095322356 0.020561686 -0.03790154 0.024208438
-0.09370141 -0.02657613 -0.08905612 -0.022580877 0.011292846 -0.0985345 0.0074264924 -0.04269874
-0.05196662 -0.07876387 -0.07817402 -0.041176986 -0.013801023 -0.02312139 0.013912144 -0.027175372
0.0072535076 0.070121616 -0.099032365 -0.039528888 -0.014455556 -0.004488282 -0.050949905 0.057615906
-0.044608366 -0.06625326 -0.0030873253 0.0030418595 -0.04703998 -0.0014024883 -0.0022977123 -0.05550376
-0.02923982 -0.029321635 0.012758444 -0.016033415 0.0029990785 -0.04577626 -0.09929588 -0.06768887
0.008655775 -0.018992122 -0.07060082 -0.09181351 -0.03491192 0.02100738 -0.035291385 -0.029373297
-0.06419528 0.023559682 -0.037310623 -0.027031984 -0.07573072 0.042719394 -0.07492515 -0.08816897
-0.07286217 0.07169223 0.010822304 -0.07203408 0.015849333 0.0046576825 0.041322336 0.014370514
-0.01845612 0.05450768 -0.13508749 -0.06577601 -0.04969039 0.0030803315 0.025545776 -0.07147241
-0.018850533 0.018767657 -0.032215063 -0.02297562 -0.08843724 -0.046305645 0.013109208 0.005085222
-0.043932352 0.040898826 0.00542014 0.038829662 -0.07629279 -0.035289712 -0.004379384 0.035986412
-0.0023886117 -0.06711959 -0.034507606 -0.041642994 0.034253668 -0.03163138 -0.042768687 -0.03379987
-0.011099185 0.021048846 0.00090988877 -0.03595353 0.00096959766 -0.094893895 -0.012217372 -0.008654343
-0.021822844 0.042285852 -0.02422185 -0.063488975 -0.048033755 -0.07004249 -0.00835423 -0.06944666
-0.02836756 -0.066132136 -0.083949916 -0.031537157 -0.0699783 -0.006335002 0.035968944 0.03209052
0.03172048 -0.07644996 0.01323864 -0.03232078 -0.062206805 -0.021409487 -0.056123804 0.06118612
-0.008960087 0.040244665 -0.013336343 0.0038062385 0.0645503 -0.043475676 0.03857614 -0.119929366
-0.032262195 -0.026389062 0.03724699 -0.060958482 -0.02133504 0.050271485 -0.017171653 0.007054677
0.016747084 -0.0026095374 -0.0475327 0.0585297 -0.018418629 -0.12023655 -0.013946724 0.015329217
-0.082547024 0.02439233 0.030500537 -0.0065094233 0.071749 -0.03978509 -0.025991455 -0.050547358

actor_mean.2.weight f4 [4, 256]
00000000: 344c 4e3d 9bc8 03bd a0a8 733c 15ff 46bd
00000010: a184 433d d180 a23d e647 ba3d db65 b93d
00000020: 0f13 bfbc c176 7bbe 38ec 4cbe dee7 6cbd
00000030: e07c 293e a313 f63c 40d5 333d e59e 243e
00000040: 7a3a 8dbd c9da 3cbd fae7 853c 2604 f6ba
00000050: 8d32 1e3e d056 1abe f050 1ebe 764d 7b3e
00000060: 4f97 a5bc 2bd8 cd3b ebea c0bd 5533 cbbe
00000070: 8517 23be 3aba 9f3c 49ad 933d 44a3 26be
00000080: 5666 983d 1614 993d 3a3c bfbb 7763 c2bc
00000090: 309d 40bd e899 7d3e 70eb 8e3d acd7 46bd
000000a0: 7e1c 5a3e b02c 273d d2ee 503e 609c 10bd
000000b0: 243b fdbc 058f 68be 1f60 3fbe 8714 fb3d
000000c0: f971 6ebc 62da e23d e36a 1b3d d408 dc3c
000000d0: dcdf a83c 7974 93bc be9e 08bd 737f ea3c
000000e0: 33cc 30bd 8445 aebe fa1d 973d faa0 bfbd
000000f0: 0483 87bc 5190 0ebe f837 12be 8558 af3b
00000100: 822f f03b 8e48 edbd 3d2d 89bb 2e6f 3fbd
00000110: b61e 5a3d d78b d63d a29a dabd 600a 8cbd
00000120: 224a 663c 6fa3 e13d d11a 4cbe 0743 563e
00000130: 6f71 0c3e 24e7 1e3e 4868 39bc 2137 a1bd
00000140: 7925 64ba 4c33 8abd 348f 8f3d e50d 013e
00000150: 6f6d 07be c7e8 893e d035 3d3d 8b83 883d
00000160: 0e3f cd3c 2e7a 53be c947 403d f8c3 b6bd
00000170: cb3e 293e 6052 b8bd 05c4 f6bd 0bd9 223e
00000180: 2a83 a03e 3e36 893d 50ad aabd 4ce9 273e
00000190: 17d8 c63c 8599 6d3d 428a 6fbd 43e6 723d
000001a0: e5e9 dabc 07de 02be 1fa0 c4bc 3273 133d
000001b0: 4ff5 29bc c06d e93c b446 363e d412 9c3c
000001c0: fbdc 87be f7fb 1fbe c13c abbd f27a f23b
000001d0: 0aee 1dbd 5fe1 9b3c 4b84 20be 6522 733d
000001e0: dd5a 49bc 301d 6fbd 7076 ccbd df15 a03b
000001f0: 2fb3 74bc ff0c 0f3e 4863 e53c b6c9 77bd
00000200: 4558 393d 2b79 debd f16b 1d3e 854d c3be
00000210: 016c 823d f0f4 0ebc 977d 3dbe 7215 683d
00000220: 0f6b db3d cc86 26bd cde5 3abe a053 f93d
00000230: 8444 26bc a5ca a73d 8eb4 bb3d 4c83 0c3d
00000240: 4d14 ec3d d58b 5d3c 20a7 4fbc 19dc 77be
00000250: f156 943c 6c83 5dbe 9167 b13d 98ff 96bd
00000260: a16f 863c 9da0 d1bd b19e 2bbd e71d a3be
00000270: 91bf c53c 2a7a 1b3e 5f4b a43d a02b 023e
00000280: 4a3c 73be 55d6 7abe b30e b7be 91f7 6a3c
00000290: 0f25 a5bb bfd7 443d 5f16 453b e876 8dbe
000002a0: fa00 203d 67e7 8ebd 5712 c3bd 8101 093c
000002b0: f305 843c ea8f 66be 88a5 773d 5b09 56bd
000002c0: baf6 823d ef95 ca3d c936 163d 1923 96bc
000002d0: 5a5c 913d 7a08 a2bd 0654 3e3e f6f6 273d
000002e0: 8bf4 b63d 16db 9bbe 8419 c4bd 32b3 03be
000002f0: a145 883d b244 8ebe a088 2b3d 3b58 a2bc
00000300: 56e5 cfba 7e93 1b3a 572c 8bbb 1c70 80bd
00000310: 0b69 023e cc32 e3be c9b5 e0bb 5d4c 343e
00000320: 1e06 ea3d 4987 69bc 4263 1bbe 1c6e 56bd
00000330: d3dc 49be ef03 4abd b9bb 00bf 6927 573d
00000340: 3fbe 043e a5e1 34bd 00a3 e5bd 00e4 9d3c
00000350: 4c36 3f3d 04ec 793d f0c0 33be 689e bfbc
00000360: 880e e1bc c5e5 3b3d 02c5 683d c24e 873e
00000370: ff94 2dbc bdec 883c f071 893b fe57 d0bc
00000380: ee9e fb3c ae88 a1bc efb9 27bd 282b 22bd
00000390: dba8 723d f040 85bd d583 a4bd 0920 c3bd
000003a0: 23d9 b53d 081a 51be 1d66 18bd 8dfc 1bbd
000003b0: 29c6 4f3e bcc3 b93d d1ba e43b 6a32 dd3c
000003c0: d728 68bd 6310 ebbd c705 3a3d 8d23 bbba
000003d0: 2db4 853c 4941 d0be e58c 8dbe 5a00 5dbe
000003e0: 7530 b23c 8780 543d 7341 4ebc ff8e 823d
000003f0: 6a68 523c 0605 043e aaf4 893d f0a0 f83c
0.05036564 -0.032173734 0.014871746 -0.04858311 0.047733907 0.07934726 0.09095745 0.090526305
-0.023324518 -0.2455702 -0.20011985 -0.057838313 0.16551542 0.03003866 0.043904543 0.16076238
-0.06895919 -0.046107087 0.016345967 -0.0018769547 0.15448971 -0.15072179 -0.15460563 0.24541268
-0.020213751 0.0062818727 -0.09419807 -0.396876 -0.1592694 0.01949798 0.07210786 -0.16273218
0.07441394 0.07474534 -0.005836037 -0.02372907 -0.047024906 0.24765742 0.069785 -0.048545524
0.21299931 0.0408141 0.20403603 -0.03530538 -0.03091199 -0.22710808 -0.18689011 0.12259775
-0.01455354 0.110768095 0.037943732 0.026859678 0.020614557 -0.017999874 -0.033354513 0.028625226
-0.04316349 -0.3403741 0.073787645 -0.09356876 -0.016541965 -0.1392224 -0.14279163 0.0053511285
0.007329882 -0.11586104 -0.004186301 -0.04673689 0.053251944 0.10475891 -0.10674025 -0.068379164
0.014055761 0.110175006 -0.19932105 0.20924006 0.13715146 0.1551786 -0.0113163665 -0.07871843
-0.00087030936 -0.06748065 0.07009736 0.12602957 -0.1322534 0.26935408 0.046193898 0.06665715
0.02505448 -0.20652077 0.04694346 -0.08924097 0.1652786 -0.09000087 -0.120491065 0.15903108
0.3135007 0.06699799 -0.08333838 0.1639759 0.024272962 0.058007736 -0.058481462 0.059301626
-0.026722858 -0.12780009 -0.024002133 0.03599853 -0.0103734275 0.028494716 0.17800409 0.019051947
-0.26535782 -0.1562346 -0.08361197 0.00739991 -0.03855709 0.019028364 -0.15675466 0.059358973
-0.01228973 -0.058377445 -0.09983528 0.0048854197 -0.014935299 0.13969801 0.028001443 -0.0604951
0.045250196 -0.10862955 0.15373208 -0.3814508 0.06368256 -0.00872539 -0.1850494 0.056661077
0.10713779 -0.040655896 -0.18251725 0.12174153 -0.010148171 0.08192948 0.091652974 0.034304902
0.115273096 0.013522108 -0.012674123 -0.24205054 0.018107863 -0.21632165 0.08662332 -0.073729694
0.01641065 -0.10235713 -0.041899387 -0.3185875 0.024139198 0.1518332 0.080221884 0.12711954
-0.23753467 -0.24495824 -0.35753402 0.014341251 -0.005039818 0.048057314 0.0030073149 -0.2762978
0.03906343 -0.0697773 -0.095249824 0.008362175 0.016116118 -0.22515836 0.060460597 -0.052255016
0.063947156 0.09891879 0.03667334 -0.018327283 0.07097693 -0.07911773 0.1858674 0.041007005
0.089333616 -0.30440587 -0.09575179 -0.12861326 0.06653906 -0.27786785 0.041878343 -0.019817462
-0.0015861194 0.0005934759 -0.004247229 -0.06271383 0.12735383 -0.44374692 -0.006857608 0.17607255
0.11426948 -0.014253446 -0.15174583 -0.052351102 -0.19713144 -0.049320158 -0.5028644 0.05252782
0.12963198 -0.044160504 -0.112127304 0.019273758 0.04668264 0.061016098 -0.17554069 -0.023390964
-0.02747275 0.045873422 0.056828506 0.26427275 -0.0105946055 0.016714448 0.0041944906 -0.025432583
0.030715432 -0.019718494 -0.040948804 -0.03959194 0.059243064 -0.065065265 -0.080329575 -0.095275946
0.08879306 -0.20420086 -0.037206758 -0.038082648 0.20290436 0.090705365 0.006980278 0.027001578
-0.056679573 -0.11477735 0.045415666 -0.0014277563 0.016321266 -0.4067481 -0.27646556 -0.21582165
0.021751622 0.051880386 -0.0125888465 0.063749306 0.012842277 0.12892541 0.06736119 0.030350178

actor_mean.2.bias f4 [4]
00000000: a10e 453c 6751 923d d1d9 d33c 7996 923c
0.012027414 0.071444325 0.025860699 0.017894017

critic.0.weight f4 [256, 256]
00000000: 98c2 403d 2a4a 463e 2731 c6bd c7d0 653e
00000010: 36ce a1bd 8fc6 523c 3437 babb 3726 5b3d
00000020: f0a9 23be 1565 d5bc 3ffd ab3d 6081 0a3c
00000030: f20d 1d3d b3cb 433e 349c 8dbb f93e 1d3e
00000040: 0ff6 2e3d 3794 453e 2ebd f33d 8cdd 7a3d
00000050: 3920 d3bd 70f8 953c aae6 2d3e 776b 34be
00000060: 942a a3bd 3fb8 2f3e d468 eebd ae9c ffbc
00000070: e31e 81be 910e 00bd f0e9 4fbb cf86 1f3e
00000080: 5e84 0f3d 9ead 0cbe ea9c 1dbd 43b7 d93d
00000090: cce9 87bd d0f1 173c 91a2 17bd 516c 353d
000000a0: 974b c93b 788b de3d 7736 08bd 7552 d8bd
000000b0: 1bff b13d 66ef 9f3e 0604 98bd c4e2 87bb
000000c0: cc02 08be 6aef 133e f813 52bd 0e4a bcbd
000000d0: 13fe 42bd d0cc 99bd 1d10 3abe a6f8 e2bd
000000e0: 33bd db3d 96df 493e e15e 0abd d969 863b
000000f0: 65dd 1e3e 4dd3 43bd 8748 0ebb 3a45 203e
00000100: 551d 92bd 2474 25bd 69b0 76bc b490 803d
00000110: 9a96 e83d 3822 033b 523a 26be acd5 d7bd
00000120: a24d 91be 10c2 2b3d e25f 893c 0851 d93d
00000130: abfa 68bd 61ea c6bd 3835 d2bd 00c3 27bd
00000140: e1ba 223e 0be8 d93d 4058 dd3c abb1 cb3c
00000150: bd00 9f3d 868a babd 22d6 0bbe 62e4 81bd
00000160: a03e 85be 6860 06bd e074 de3d 1bf5 993d
00000170: 5141 f8bd 0625 24bd c49f ee3a 7a8c b93d
00000180: 4e17 3fbe 942e 303c 964a 5d3d 6c91 553e
00000190: bf97 313e 4a9e a03c fb59 32be 0f5a 8c3d
000001a0: a748 193e 445e 5dbd af5f cb3e 8755 5f3b
000001b0: d053 d2bd 72a2 7e3d 2790 33be 4a1c 99bd
000001c0: 51cc 38bd 2165 ee3b 8484 2abe 908e f53d
000001d0: 0189 953e aa0f 7c3e 7752 7bbb fc89 a2bd
000001e0: fa20 e73d 7413 b73d ab8f 4abd 48ea dbbc
000001f0: afcd bdbc 3580 cd3d b33d 3cbd c11b c6bd
00000200: 8260 fdbd f409 24be 60c1 2bbb 1c1b 453d
00000210: 621c 933e 02ba cfbd 2cc6 7abd ac4d b23d
00000220: 7423 463e d0b2 7a3c b53e c2bc 7eb4 6a3e
00000230: 2015 03bb fa54 c8bd 2e0f ef3d cb5e 36bd
00000240: 1bef f93d 137f dcbc 0903 1dbe a0be cfbd
00000250: 437b 3fbd c203 253d b5b7 2ebe 6dc5 94bd
00000260: ceb2 293d 6ece 88be 4131 ef3d e2fc dfbc
00000270: f744 2d3e ee33 e9bd 7d53 7b3e 679a d7bd
00000280: a677 84bd 3598 bfbd 772c e73c 3696 0cbd
00000290: 009b b4bd b1ca 29bd ba34 80bd 4884 04be
000002a0: 6309 a9bd 7305 b03e c6ea 833d a800 b83c
000002b0: 2901 723d ff13 cd3d 49b7 6cbd 9638 fdbd
000002c0: 5193 493e 997d a73d bb3c 13be aba0 ffbd
000002d0: 4f43 e23c 6d01 ddbd 80c1 963d cda2 00be
000002e0: 14a3 9abd 4a6a 043e 40c1 173d 10ce 8f3e
000002f0: 5ea5 1bbd 6a49 49be 9800 43bd adb6 59bd
00000300: b91a 223d 297d 3abb a1fc 20be 5080 b63c
00000310: 72e0 bbbd ab7b 4cbe f739 773e 9dd8 2f3d
00000320: 6d73 b5bc 00a9 6bbe 21f8 fabd 6a86 163e
00000330: 1aeb 89bd 09fb a83d 3b45 bebb d1e5 213d
00000340: 0635 2b3e df6d d6bd a216 20be 9ac4 1ebe
00000350: 8830 f43b 5366 1bbe 2c9e 6cbd d803 bcbd
00000360: 3d63 1ebe c316 a23c cc5d 73bc e4e3 8b3c
00000370: 1642 32bd 31cf 89bd 04ca ecbd 019e 23be
00000380: eb77 96be 051d fbbd e987 733d 38af 2cbe
00000390: 5b4b a1bd 1c8e 58bd 9f6f c3bd 8400 17bd
000003a0: b901 dbbd 5d57 2d3d f7be 213d 8e18 4cbe
000003b0: 1850 df3d 8b5f 4dbe 2d08 e73d 4699 c3bc
000003c0: d2eb b6bc c750 a53e 6ab7 ffbc 6541 8d3d
000003d0: 00fe 363c 5833 ac3c 5fa9 03be 5046 5abd
000003e0: a3b8 f3bd d05c f93d 3cc9 58bd 1a20 83bc
000003f0: 7f72 15be a512 b23d 5493 7f3a 9e9a 593e
0.04706058 0.19364229 -0.09677344 0.22442923 -0.0790066 0.012864723 -0.0056828503 0.05350324
-0.15982795 -0.026049176 0.08397912 0.008453697 0.038343377 0.19120674 -0.0043215994 0.15356053
0.04271513 0.1929482 0.119013175 0.06124644 -0.1030888 0.01830694 0.16982523 -0.1761912
-0.079671055 0.17160128 -0.11641088 -0.03120264 -0.25218877 -0.03126389 -0.003172513 0.15578769
0.035038345 -0.13738105 -0.038479723 0.106306575 -0.0663639 0.009273961 -0.03702027 0.04429275
0.006143044 0.10866445 -0.033255067 -0.105626024 0.08691236 0.31237334 -0.074226424 -0.0041469056
-0.13282317 0.14446798 -0.051288575 -0.09193812 -0.047605585 -0.07509768 -0.18170209 -0.11082582
0.10729446 0.19714198 -0.03378189 0.0041019735 0.15514143 -0.047808934 -0.002171071 0.15651408
-0.07134501 -0.040393963 -0.015056708 0.062776 0.1135685 0.002000941 -0.16233185 -0.105388016
-0.28379542 0.04193312 0.016769353 0.106111586 -0.05687968 -0.09712673 -0.10264057 -0.04095745
0.15891601 0.10639962 0.02701962 0.024864992 0.07763813 -0.091084525 -0.13655904 -0.06342389
-0.26024342 -0.032806784 0.10862136 0.07517453 -0.12121833 -0.04007437 0.0018205573 0.09059997
-0.18661234 0.010753293 0.05402621 0.20856255 0.17343043 0.019606728 -0.17417137 0.06853115
0.14969121 -0.054044977 0.39721438 0.0034078078 -0.10269892 0.06216664 -0.17535459 -0.07476099
-0.045116726 0.007275239 -0.16652113 0.11990082 0.29206088 0.2461535 -0.0038348713 -0.07936475
0.11285587 0.08939257 -0.04945342 -0.026845112 -0.023169367 0.10034219 -0.04595728 -0.096732624
-0.12371923 -0.16019422 -0.002620779 0.048121557 0.28732592 -0.101429 -0.061224148 0.08706221
0.19349462 0.015301421 -0.023711542 0.22920415 -0.0020001605 -0.09781833 0.11672817 -0.044523995
0.12203809 -0.026916062 -0.15333189 -0.10143781 -0.04674841 0.040286787 -0.17062266 -0.072642185
0.041430287 -0.26719993 0.11679316 -0.027342264 0.16920839 -0.11386858 0.24543567 -0.10527497
-0.06468134 -0.09355203 0.028219445 -0.03432294 -0.088186264 -0.041453067 -0.06260057 -0.12941086
-0.082537435 0.34379157 0.06441264 0.02246125 0.059083138 0.100135796 -0.05779198 -0.123643085
0.19685103 0.08178253 -0.14378636 -0.12481817 0.027619986 -0.107912876 0.07361126 -0.12562104
-0.07550636 0.12931171 0.037049532 0.280869 -0.037999503 -0.19656911 -0.047607988 -0.05315273
0.039576266 -0.002845595 -0.1572137 0.022277981 -0.09173669 -0.1996905 0.24143206 0.042931188
-0.022149766 -0.23013687 -0.12254358 0.14699712 -0.06734295 0.08251006 -0.0058065928 0.03952581
0.16719446 -0.10470175 -0.15633634 -0.15504685 0.0074520744 -0.15175752 -0.057768032 -0.09180421
-0.15467544 0.019786244 -0.014853906 0.01707644 -0.043520056 -0.06728972 -0.11561969 -0.15978242
-0.29388365 -0.122613944 0.059455786 -0.16863716 -0.07875701 -0.0528699 -0.095427744 -0.036865726
-0.10693688 0.042319644 0.03948876 -0.19931242 0.109039485 -0.20055978 0.11280856 -0.023876797
-0.022329245 0.3228819 -0.031215388 0.06897239 0.011168957 0.021020576 -0.12857579 -0.05328971
-0.11900451 0.12175906 -0.052926287 -0.016006518 -0.14594458 0.086949624 0.00097494316 0.21250388

critic.0.bias f4 [256]
00000000: 1fce 553c be93 ab3d 8452 233e 0097 e53d
00000010: e77d 083c d774 a5ba 6cce ec3b 8629 5c3d
00000020: 7004 8a3d 9b75 0e3e 4eb6 633d aada 5abc
00000030: 37c0 e23d cd80 d83d 8a1d 7f3c b783 c53d
00000040: 0e50 94bd 3926 403c 1848 ae3d 110c f8bc
00000050: 05d4 1f3e 308c f2bc 69a9 24bb 6b87 ad3d
00000060: 2824 cd3d ab3e 113e 89e0 3ebd 2751 fa3b
00000070: cc95 be3d beae 3ebd 4780 c03d 92e8 c83d
00000080: 41a7 ed3c 72ab 7b3d 475c 7a3d a5de 963d
00000090: a38d cc3d b2ad d63c 8130 e23d 1fed e13d
000000a0: ce2d 3f3d 1868 a63c 84a1 c13c 6aa4 d73c
000000b0: b1f3 c93d a110 d53d fbdc 9a3d 963c 22bd
000000c0: b838 29bd 0a45 73bd 249d 7dbd 2da4 af3d
000000d0: 4e30 35bd cfb7 ce3b b00f a0bc 59db 183e
000000e0: d328 003e 7b57 093d 0509 8f3d 939c ae3d
000000f0: 9b8c 44bd 6c54 cc3d 6e93 c83c 9a10 023e
00000100: 6164 003e b2a1 0a3e 3a56 0b3d dc2d 863d
00000110: 204f d7bb d83a 9dbc 76e8 973d 1099 0f3e
00000120: 4fb6 93bb d23b 483d 44e2 eabb 428e 0e3e
00000130: 0f17 923c a043 a23b 9221 02bd c080 dd3d
00000140: ed34 1a3e eb8f c53d 7381 753d c222 a2bc
00000150: ab47 2fbc 5783 823d 847d 533d d344 4abd
00000160: f938 883d 00ee 74bd 08e4 d73c d9bb 953d
00000170: fc0d 423d 6429 9bbd 56eb b43d 4ef4 d73d
00000180: 134b 88bd 8e94 78bb c452 913d baf8 75bd
00000190: e15d 093e a9e4 1b3c cda3 523d a8d7 e43d
000001a0: 714b 153e c944 263d 7924 8cbc 9e00 a23b
000001b0: 151f 693d 0d75 793d c39f 07bd 1cb5 b03d
000001c0: ad29 3bbd bb16 4d3d aab5 c63d a7f4 623d
000001d0: 22f8 8e3d fa48 9a3d c649 aa3d 65a6 02bd
000001e0: 816a 043d 3b8c 1e3e 4a7e 753d f58d 99bc
000001f0: de90 fdbc b814 74bd b315 7f3d f1b2 2f3c
00000200: 6020 493b 501c 293e aefe 923d ab86 463e
00000210: 9d8b 5ebd 4c09 9e3d 1965 a33c 7503 d73d
00000220: a594 b43c c45a 803d e135 993d 4b88 5e3d
00000230: 43ae 413d 383a d43d 2eab 963d 4b7d cf3b
00000240: 26ab 85bd a8c4 75bd 27e4 aa3c 55a6 0e3e
00000250: 6570 89bc be44 073c 5623 1b3e d858 033e
00000260: e151 08bd e613 993d d836 53bd 2656 f53d
00000270: 76b7 fb3d 466f 03bd 18fe ef3d d078 ed3d
00000280: f79f 4e3d 0375 023e 5aef dd3b 7a58 d33d
00000290: 1cf4 bb38 8771 fb3d b4b3 023e 9626 b83b
000002a0: 8959 8d3d 866f 053e 797a 853d f1e8 ea3b
000002b0: 2bd2 f13d f136 cfbc dd09 dbbc cd5e 04bd
000002c0: e321 a33c 6fc6 343d cb3a 113c 9348 d33d
000002d0: 43f7 283e 1501 a53c bcdc c83d 4373 083e
000002e0: 1f1d fa3d 54bb 083d b0da ca3d fd81 033d
000002f0: c367 a3bc fb09 6a3c d311 f03d 49cd 7a3d
00000300: bda7 153d 056d 2b3d 6fc0 7abd 135e e03d
00000310: 110f a2ba 85ab 35bc 5081 5c3d cdc6 9abd
00000320: 4708 183d 396a ad3d 4a59 0bbd c6ac dd3c
00000330: 1115 d93c 4d13 2f3b 4ffd 793d fc4f 323d
00000340: 3c1b 4a3c a66e 9b3d 6417 11bd 6dbc c73d
00000350: 60ee 073d dc6f 9bbb 59e7 a93d b497 42bd
00000360: 7ad7 353d 7cdb 113d babf 64bd 5bf6 c13a
00000370: 32a5 2abc f0fe a33c 4dce fe3d 00a9 4c3d
00000380: 1296 2f3d 0674 5f3c 1990 1e3e f986 eb3d
00000390: 2d6c 6ebd 72cd e83c f97d 013e 9d20 9f3c
000003a0: e9a7 96bd 0210 c6bb 3294 e63d 75a1 ae3d
000003b0: f62e c1bb eff9 c33b 9c8f 993d 2e17 1e3e
000003c0: f6ad a33d d3dd 3e3d 7ae3 013e 1e54 e63c
000003d0: 4418 b93d 6d1d 463d 52fe bc3c aba1 cf3c
000003e0: 8542 093d 1a1f 3ebd dc10 a5bd 6dd5 9c3d
000003f0: 72d3 97bd 3ff5 78bd d1f8 c33d 3303 353d
0.013049631 0.08377789 0.15949446 0.112104416 0.008330799 -0.0012623322 0.007226756 0.053750537
0.06739128 0.1391205 0.05559378 -0.013357798 0.11071818 0.10571442 0.0155710075 0.09644263
-0.07241832 0.011727863 0.085098445 -0.030279191 0.15608223 -0.029607862 -0.002512539 0.084730946
0.10016662 0.14184062 -0.046600852 0.0076390686 0.09305915 -0.046553366 0.09399467 0.09809984
0.029010417 0.0614428 0.06112316 0.07366685 0.099879526 0.026205871 0.11044408 0.110315554
0.046674542 0.020313308 0.023636587 0.026323516 0.098609336 0.10403562 0.0756168 -0.03960856
-0.041313857 -0.059392013 -0.06191744 0.08576236 -0.04423552 0.006308533 -0.01953873 0.14927424
0.12515573 0.033530694 0.06984142 0.08525958 -0.047985654 0.0997704 0.024484362 0.12701645
0.12538292 0.13538244 0.03401778 0.06551716 -0.0065707117 -0.019193098 0.07417385 0.14023232
-0.004507817 0.048885174 -0.0071680862 0.13921455 0.01783326 0.004951909 -0.031770296 0.10815573
0.15059252 0.09646591 0.059937906 -0.019791964 -0.010698239 0.06372707 0.051633373 -0.049382042
0.06651492 -0.059797287 0.026353851 0.0731122 0.047376618 -0.07576254 0.08833949 0.10544644
-0.06654944 -0.0037930342 0.070958644 -0.060051657 0.13414718 0.009514966 0.051425744 0.11173946
0.1457956 0.040592942 -0.017107235 0.004943921 0.056914408 0.060902644 -0.033111345 0.08628294
-0.045694042 0.050070506 0.097026184 0.0554091 0.06980921 0.075334504 0.083148524 -0.031896967
0.032328133 0.15483181 0.05993489 -0.018744448 -0.030952867 -0.05959007 0.062276553 0.010723815
0.0030689463 0.16514707 0.071774825 0.19387309 -0.054332364 0.07716617 0.019945668 0.10498706
0.022043535 0.06267312 0.0748098 0.054329198 0.04728533 0.10362667 0.07356869 0.0063320748
-0.065267846 -0.060002 0.020860745 0.13930638 -0.016777227 0.0082561355 0.15150198 0.1282686
-0.03328121 0.074744985 -0.051565975 0.11979322 0.12290852 -0.03208854 0.117183864 0.11595309
0.050445523 0.12739949 0.0067729177 0.1031961 8.962324e-05 0.12277513 0.12763864 0.005619834
0.06901843 0.13030824 0.065175004 0.007168882 0.118076645 -0.025294753 -0.026738102 -0.03231697
0.01991362 0.044134554 0.008864115 0.10316577 0.16500573 0.020142118 0.09807727 0.13325219
0.12212586 0.033381775 0.099049926 0.03210639 -0.019946938 0.014284606 0.1172215 0.06123093
0.03653692 0.041852016 -0.061218675 0.10955443 -0.0012364109 -0.011088257 0.05383426 -0.075574495
0.03711727 0.08467526 -0.0340207 0.027059924 0.026499303 0.0026714385 0.06103259 0.04353331
0.012335595 0.07589464 -0.035422698 0.09752736 0.033186316 -0.0047435593 0.08296079 -0.047507957
0.044394948 0.035609707 -0.055846907 0.0014798151 -0.010415362 0.020019025 0.124416925 0.04996586
0.042867728 0.013638502 0.15484656 0.11500353 -0.058208633 0.028418276 0.12645711 0.01942473
-0.07356245 -0.0060443887 0.11258735 0.08526889 -0.0058954908 0.005980722 0.074980944 0.1543853
0.07992165 0.046598267 0.12684432 0.028116282 0.090378314 0.048367906 0.023070488 0.025345644
0.033510704 -0.04641638 -0.08059856 0.07657895 -0.07413377 -0.06078076 0.09568942 0.044192504
