best_model_episode_400.pth (torch, 825454 bytes, 12 tensors)

actor_log_std f4 [4]
0	0xbee1efff	-0.44128415
1	0xbefa0728	-0.48833585
2	0xbf78cfe1	-0.971922
3	0xbf81bf8c	-1.013658

shared.0.weight f4 [256, 24]
0	0x3e3157ff	0.17318724
1	0x3e5b46e6	0.21413764
2	0x3d929bbf	0.071586125
3	0xbe7c5841	-0.24643041
4	0x3af8ffcb	0.0018997131
5	0x3e06ff4e	0.13183329
6	0xb95f535b	-0.0002129799
7	0x3e1f3010	0.15545678
8	0x3e1b7838	0.15182579
9	0xbea2decc	-0.31810606
10	0x3e47d15c	0.19513458
11	0x3df2f95c	0.11863968
12	0x3e988172	0.2978626
13	0x3e19c1b2	0.15015295
14	0x3da869a7	0.082232766
15	0xbd379cc6	-0.044827245
16	0x3e14507a	0.14483824
17	0x3c966903	0.01836062
18	0xbdd9710e	-0.106172666
19	0x3d1ead27	0.03873935
20	0xbde2d092	-0.11074938
21	0xbd2ea81c	-0.04264079
22	0xbd9f14dc	-0.077676505
23	0x3de74711	0.11292852
24	0xbf00264c	-0.50058436
25	0x3e19068e	0.14943907
26	0xbe16dedf	-0.14733456
27	0x3e14c87d	0.14529605
28	0xbd830e99	-0.06399269
29	0xbe976844	-0.29571736
30	0x3d3293f0	0.043598115
31	0xbe30119f	-0.17194222
32	0x3e648997	0.22318111
33	0x3e0f2767	0.13979875
34	0xbda8d694	-0.082440525
35	0xbd855723	-0.06510761
36	0xbd59441b	-0.053043466
37	0x3dece236	0.11566584
38	0xbd88ead5	-0.06685416
39	0xbe199b5a	-0.15000668
40	0xbceae948	-0.02867569
41	0xbe0cc6ce	-0.13747713
42	0x3bfe5e60	0.007762715
43	0x3de5dc2a	0.112236336
44	0x3d408d50	0.047009766
45	0xbe4c31d8	-0.19940889
46	0x3d11fa84	0.0356393
47	0x3c6104b7	0.013734034
48	0x3d8276f3	0.06370344
49	0x3e3123ed	0.17298861
50	0xbebb8ea1	-0.36632255
51	0x3e196455	0.1497968
52	0xbe4ec330	-0.20191646
53	0x3d6cf34f	0.057849225
54	0xbbdba33f	-0.00670281
55	0x3d2f3919	0.042779062
56	0x3e27c02f	0.16381906
57	0x3b1bde19	0.0023783504
58	0x3e045957	0.12924705
59	0xbe3b2194	-0.18274528
60	0xbc8c7aa0	-0.017148316
61	0x3bbe2ec7	0.005803916
62	0x3dd81472	0.10550775
63	0xbcc7e21a	-0.024399806
64	0x3de7fe93	0.11327853
65	0x3c5e536e	0.013569696
66	0x3e6f75df	0.23384808
67	0xbd593272	-0.053026624
68	0xbd586479	-0.052830193
69	0xbd3afb3c	-0.045649752
70	0x3e709f0a	0.23498169
71	0x3dcdf7b7	0.100570135
72	0x3f22a72d	0.6353634
73	0xbe90aa0d	-0.28254738
74	0xbea3d345	-0.31997123
75	0xbf339073	-0.70142287
76	0xbe2c6b81	-0.16837884
77	0xbd8edd17	-0.06975763
78	0x3deeb9c0	0.11656523
79	0x3e0edc60	0.13951254
80	0xbd94016b	-0.07226833
81	0xbe4ed232	-0.2019737
82	0x3e63b765	0.22237928
83	0xbd908ea0	-0.070584536
84	0x3ba0d580	0.0049082637
85	0xbdfdedb0	-0.12398851
86	0x3ddf729c	0.10910532
87	0xbe3081a9	-0.17236961
88	0xbdfa22ef	-0.12213694
89	0x3d2cf64d	0.04222708
90	0x3cc25142	0.023720387
91	0xbd9210dd	-0.07132123
92	0x3dd6775c	0.10471985
93	0x3dde27bc	0.108474225
94	0xbe29868b	-0.1655523
95	0xbe0ea3c9	-0.13929667
96	0x3e952b7b	0.29134735
97	0xbe5791ce	-0.21051714
98	0xbdebe26c	-0.11517796
99	0xbf32a8cf	-0.6978883
100	0xbe28dad9	-0.16489734
101	0x3d535197	0.051591482
102	0x3d9fbe0a	0.07799919
103	0xbdb0e36f	-0.086371295
104	0xbe890c2c	-0.267671
105	0xbe043e89	-0.1291448
106	0xbe8cb789	-0.27483776
107	0xbebe5455	-0.37173715
108	0xbe6e899c	-0.23294681
109	0xbe601c3b	-0.21885769
110	0x3ea23404	0.3168031
111	0x3e1c4ca6	0.15263614
112	0x3e39a019	0.18127479
113	0xbd882d83	-0.06649306
114	0xbb9cced3	-0.0047853976
115	0x3d886260	0.066593885
116	0x3e2cf1b3	0.16889076
117	0xbd451bac	-0.048122093
118	0xbc5e47d7	-0.013566933
119	0xbd507ebe	-0.05090212
120	0xbe1310c5	-0.14361866
121	0x3eb659ca	0.3561538
122	0x3daffcb4	0.08593121
123	0x3e793a2b	0.24338596
124	0xbd6d2d77	-0.057904687
125	0xbe157435	-0.1459511
126	0xbcbe2c71	-0.02321455
127	0xbe636b9d	-0.2220902
128	0x3e6f3130	0.23358607
129	0xbe82663a	-0.25468618
130	0x3e65a1b1	0.22424962
131	0x3db7ae64	0.08968809
132	0xbe41008f	-0.1884787
133	0x3e504bf6	0.20341477
134	0xbd1e2064	-0.03860511
135	0xbd673b96	-0.05645331
136	0xbe116e1a	-0.14202157
137	0xbe2e98c8	-0.17050469
138	0x3dc751e4	0.09732416
139	0x39bb2ff2	0.00035703141
140	0x3e078cce	0.13237306
141	0xbdd378a0	-0.10325742
142	0x3e5317e8	0.20614588
143	0xbdd461c3	-0.10370209
144	0xbe07f332	-0.13276365
145	0x3d4782a2	0.048708566
146	0xbca663c4	-0.020311244
147	0xbe7f7fb7	-0.24951063
148	0x3db0e610	0.08637631
149	0xbd9460a7	-0.072449975
150	0xbce38b87	-0.027776493
151	0xbd586e63	-0.052839648
152	0xbd13657c	-0.035985455
153	0xbeb85f03	-0.36009988
154	0x3ddb94a2	0.10721709
155	0xbea91bfe	-0.3302917
156	0x3dd770fe	0.105195984
157	0x3d88f595	0.06687466
158	0xbd90fccf	-0.070794694
159	0xbe7489f4	-0.2388075
160	0x3d8090e0	0.06277633
161	0xbd8bbcfa	-0.06823154
162	0xbd9c963b	-0.07645842
163	0xbe8a61d5	-0.27027765
164	0x3a73719c	0.00092866435
165	0xbdeacbc9	-0.1146465
166	0xbe0a38be	-0.13498208
167	0x3e2c8fac	0.16851681
168	0x3ed21740	0.41033363
169	0xbdef4704	-0.11683467
170	0x3db5af89	0.08871371
171	0x3d8b2846	0.06794791
172	0x3dd9a6b2	0.10627498
173	0xbdebc6b7	-0.11512511
174	0xbe075d64	-0.1321922
175	0xbcf656cc	-0.030070685
176	0xbe50bd8e	-0.2038481
177	0x3dc2846b	0.09497913
178	0x3d43e4d6	0.047825657
179	0xbe456767	-0.19277726
180	0x3d1232b2	0.035692878
181	0x3df01455	0.11722628
182	0x3d20a156	0.039216362
183	0xbd9487a7	-0.07252436
184	0x3dd4f7c8	0.10398823
185	0x3dce64df	0.100778334
186	0x3d89f3d8	0.06735963
187	0xbd380f2b	-0.04493634
188	0xbd34cf8a	-0.044143237
189	0x3dc96650	0.09833968
190	0xbbb96ebb	-0.005658952
191	0xbd42884d	-0.047493268
192	0x3eb19eaa	0.34691364
193	0x3ea6bd32	0.3256622
194	0xbe2688a3	-0.1626306
195	0xbf74b529	-0.9558893
196	0x3afdff3d	0.0019378435
197	0x3b88e458	0.0041776113
198	0x3d8a8060	0.06762767
199	0xbc96600e	-0.01835635
200	0xbde94120	-0.11389375
201	0xbe67dc35	-0.22642596
202	0x3dd0eb09	0.102010794
203	0x3e73288c	0.23745936
204	0x3e039cc9	0.12852778
205	0xbc8d3ae9	-0.017240005
206	0xbe21f4ed	-0.15816088
207	0xbe5f7899	-0.21823348
208	0xbdd8533a	-0.10562749
209	0x3ce891da	0.02838986
210	0x3db6531c	0.089025706
211	0x3d56670d	0.05234437
212	0xbe683ea7	-0.2268015
213	0xbe4d53ca	-0.20051494
214	0xbcebba35	-0.028775314
215	0x3e62c662	0.2214599
216	0x3bf7cad3	0.0075620203
217	0xbeec1e67	-0.46116945
218	0x3e98fcbf	0.2988033
219	0xbe62741d	-0.22114606
220	0xbda00ea8	-0.078152955
221	0xbc7911d1	-0.015202002
222	0xbcc8d679	-0.024516331
223	0xbe2b2db3	-0.16716652
224	0xbe93fdf4	-0.28904688
225	0x3eb7b5bd	0.35880843
226	0x3d6ffa79	0.05858848
227	0x3e7dab9f	0.247725
228	0xbc2632c5	-0.01014394
229	0xbe2b60c5	-0.16736133
230	0xbd41146f	-0.047138628
231	0x3e88030d	0.26564828
232	0x3e525994	0.20541984
233	0x3e8bbb2e	0.27291244
234	0x3e4c111a	0.19928399
235	0x3e068692	0.13137272
236	0x3d7312fd	0.05934428
237	0xbde8000c	-0.11328134
238	0xbe07d606	-0.13265237
239	0xbe1ed6e5	-0.15511663
240	0x3e0f6fd4	0.14007503
241	0xbd1a8511	-0.03772456
242	0xbe3f43ff	-0.18678282
243	0xbe503732	-0.20333555
244	0xbda2c924	-0.07948521
245	0xbdf7c013	-0.12097182
246	0xbe20f2a5	-0.15717562
247	0xbc736409	-0.014855393
248	0x3d0c80dc	0.034302577
249	0x3dcdba36	0.100452825
250	0xbd587219	-0.052843187
251	0xbe6c4089	-0.23071493
252	0xbd899c0f	-0.06719219
253	0xbd5bf7e2	-0.053703196
254	0xbd8603fd	-0.065437295
255	0xbe4a2347	-0.1974002

shared.0.bias f4 [256]
0	0xbe3e2a7b	-0.18570893
1	0x3c79871c	0.0152299665
2	0xbc102607	-0.008798129
3	0x3e005fd2	0.12536553
4	0xbe06a113	-0.13147382
5	0x3d5a7786	0.053336643
6	0x3da40afd	0.08009908
7	0x3d2769c0	0.040872335
8	0xbcecf6de	-0.02892631
9	0x3e7805be	0.2422094
10	0xbe305dda	-0.17223302
11	0x3e6309cf	0.2217171
12	0x3d61e29b	0.05514775
13	0x3e2ea1a5	0.1705385
14	0x3e4e20a3	0.20129637
15	0x3c9ae46a	0.018907744
16	0x3d9c8901	0.07643319
17	0x3cddd847	0.027080668
18	0xbc312a46	-0.010813301
19	0x3da7ca4b	0.08192881
20	0x3e2e529c	0.170237
21	0x3d3b6f18	0.045760244
22	0xbd451cdc	-0.048123226
23	0xbe36faad	-0.17869063
24	0x3d3a1af2	0.045435853
25	0x3cd9eb62	0.026601497
26	0xbe2e6a5d	-0.17032762
27	0x3e41fb5a	0.1894354
28	0x3d12e5ea	0.035863794
29	0x3d0c3900	0.034234047
30	0x3e1e8662	0.1548095
31	0x3ddeb899	0.10875053
32	0xbda99ef1	-0.08282269
33	0x3ddea3ca	0.10871084
34	0x3dcb16de	0.09916471
35	0x3e111a7e	0.14170262
36	0xbd8b3c9e	-0.06798671
37	0x3d4420f3	0.047882985
38	0xbdd2309b	-0.10263177
39	0x3d7981c4	0.06091477
40	0xbdeca84c	-0.115555376
41	0x3e5dc743	0.21658044
42	0x3e251f86	0.16125306
43	0xbe258570	-0.16164184
44	0xbd1daef7	-0.038496938
45	0xbdb5e5f1	-0.088817485
46	0xbde82c00	-0.11336517
47	0x3e6f4f54	0.23370105
48	0xbdce7cc2	-0.100823894
49	0xbd27bc71	-0.040951196
50	0xbdbf02c1	-0.09326697
51	0x3cb722ce	0.022355463
52	0xbe5c6778	-0.21523845
53	0xbe193bc6	-0.14964208
54	0x3e49cd46	0.19707212
55	0x3dd24c95	0.10268513
56	0x3d62a49b	0.05533276
57	0x3e307ffa	0.17236319
58	0x3ccf3a91	0.025296481
59	0x3cb6a348	0.022294655
60	0xbdf55c54	-0.11980501
61	0x3e04e74c	0.12978858
62	0xbdb98bce	-0.09059869
63	0x3d643f6a	0.05572454
64	0xbda4ee20	-0.08053231
65	0xbe0c9616	-0.13729128
66	0xbe0fefe3	-0.14056353
67	0xbdaaa39c	-0.08331987
68	0xbd752e4b	-0.0598586
69	0xbe551003	-0.20806889
70	0xbbeb56f9	-0.007181999
71	0xbe227ad8	-0.15867174
72	0x3e0a2036	0.1348885
73	0x3d3abc04	0.045589462
74	0xbe140a7b	-0.14457123
75	0xbe4453ac	-0.19172543
76	0xbe1d08b5	-0.15335353
77	0x3c105eef	0.008811696
78	0x3e314b8d	0.17313977
79	0x3d1683ef	0.036746915
80	0x3dce7ff0	0.10082996
81	0xbcfe0ccd	-0.031011963
82	0xbc947915	-0.018124143
83	0xbd4f849b	-0.05066357
84	0xbdff008a	-0.12451275
85	0x3e0930b0	0.13397479
86	0x3d706f63	0.058699977
87	0x3e0654d0	0.13118291
88	0xbe07c031	-0.13256909
89	0xbdb7896f	-0.0896176
90	0x3d13c29d	0.03607427
91	0x3d8a860b	0.06763848
92	0x3ce4ea10	0.027943641
93	0xbe21f222	-0.15815023
94	0x3e2b28b6	0.16714749
95	0xbd8de56f	-0.069285266
96	0xbe121bc1	-0.142684
97	0x3e27f06a	0.16400304
98	0xbdea0cf2	-0.1142825
99	0xbdaba8b6	-0.083817884
100	0xbe054f06	-0.13018426
101	0x3e321e13	0.17394285
102	0x3bdd9135	0.006761695
103	0xbb41e0f0	-0.0029583536
104	0x3cfeb4eb	0.031092128
105	0xbe133771	-0.14376618
106	0xbd94a82a	-0.07258637
107	0x3e053ff3	0.13012676
108	0xbdd2cdb4	-0.10293141
109	0xbcf168bc	-0.029468887
110	0x3dd023f6	0.10163109
111	0xbd76a598	-0.060216516
112	0x3dc38ff1	0.09548939
113	0xbda020b6	-0.07818739
114	0x3caf27c3	0.021381265
115	0x3d957506	0.07297711
116	0xbdcd7135	-0.10031358
117	0xbe647b50	-0.22312665
118	0x3e1554b3	0.14583091
119	0xbd646387	-0.05575898
120	0x3e268b1f	0.16264008
121	0x3d624c21	0.055248383
122	0xbd9ba2ec	-0.07599434
123	0xbd9e0924	-0.07716587
124	0xbdc91272	-0.09817971
125	0x3cb00cb4	0.021490432
126	0x3e382afb	0.17985146
127	0xbda51a28	-0.080616295
128	0xbdaf3ed7	-0.085569076
129	0x3e6d092c	0.2314803
130	0x3e0e0d72	0.13872316
131	0x3e458757	0.1928991
132	0x3b3523f0	0.0027639829
133	0x3d6524ca	0.055943288
134	0xbba26e48	-0.004956994
135	0xbd899a15	-0.06718842
136	0xbe204d85	-0.15654571
137	0x3a801d0f	0.0009774285
138	0x3e30e7c6	0.17275915
139	0x3ddd8e3d	0.108181454
140	0x3d128235	0.035768706
141	0x3e00119f	0.12506722
142	0x3e41fe9e	0.18944785
143	0x3c02a0f4	0.0079729445
144	0x3db6f30c	0.08933076
145	0x3d8a6dd5	0.0675923
146	0x3c9ab27e	0.01888394
147	0xbd3e63f0	-0.046482027
148	0xbc5b3a6e	-0.01338063
149	0xbe39586b	-0.18100135
150	0x3d6057f7	0.05477139
151	0x3e5cfd94	0.21581107
152	0x3dcfb74e	0.101423845
153	0x3d96cb10	0.0736295
154	0xbd0e9a60	-0.034815192
155	0xbd9d9a9c	-0.07695505
156	0xbdd9e10b	-0.10638627
157	0x3d8f903d	0.07009933
158	0x3dbfb9d5	0.093616165
159	0xbd108c6b	-0.035290163
160	0x3de43f74	0.11144915
161	0xb9f310d1	-0.000463611
162	0x3cb36f72	0.021903727
163	0x3e246617	0.16054569
164	0xbd04b925	-0.03240313
165	0x3e181e74	0.14855367
166	0xbd68b349	-0.056811605
167	0x3e3cbb42	0.18430808
168	0x3dac9478	0.08426756
169	0x3dd1650a	0.1022435
170	0xbd147763	-0.03624667
171	0x3cb9d139	0.022682773
172	0xbe0f9344	-0.14021021
173	0xbe892342	-0.26784712
174	0x3df3389e	0.11876033
175	0x3e6c9e51	0.23107268
176	0x3e049051	0.12945677
177	0xbd6f3f3e	-0.05840992
178	0x3d3e1605	0.04640772
179	0x3c097858	0.008390509
180	0xbe196656	-0.14980444
181	0xbe2d8891	-0.16946627
182	0x3d473753	0.048636746
183	0xbdf58b99	-0.11989517
184	0xbd2e1865	-0.042503733
185	0xbd8b286e	-0.06794821
186	0x3e0b4d33	0.13603668
187	0xbcd20abd	-0.025639886
188	0xbd9a0a14	-0.075214535
189	0x3dac54f7	0.08414643
190	0x3e77c829	0.24197449
191	0x3e2c05d8	0.16799104
192	0x3d33cae1	0.043894652
193	0x3d1776fd	0.03697871
194	0x3e162a5c	0.14664596
195	0x3e11a3ca	0.14222637
196	0x3dc8b56e	0.0980023
197	0x3de852e2	0.11343934
198	0x3dc2a68e	0.09504424
199	0xbc0bea9d	-0.008539823
200	0x3d564f4c	0.052321717
201	0x3dfd6891	0.1237346
202	0xbdf45306	-0.11929898
203	0xbddc307e	-0.10751437
204	0xbe3ee563	-0.18642192
205	0xbd9a922b	-0.075474106
206	0x3c4a603b	0.012352045
207	0xbcd277e7	-0.02569194
208	0xbe26fd5e	-0.1630759
209	0xbdab3b0f	-0.08360874
210	0x3e210763	0.15725474
211	0xbde57ff7	-0.11206048
212	0xbd6159d0	-0.055017292
213	0x3d1cb118	0.038254827
214	0xbddf0b2a	-0.10890801
215	0xbe059cb5	-0.1304806
216	0xbde1a564	-0.11017874
217	0xbda29e63	-0.07940366
218	0xbe1e65fc	-0.15468591
219	0xbd9d4eaf	-0.07681023
220	0xbdbc624b	-0.091984354
221	0x3d7b03e2	0.061283
222	0x3e2dc073	0.16967945
223	0xbcbd8e08	-0.023139015
224	0x3e2cee93	0.16887884
225	0x3e148303	0.14503102
226	0xbe25a029	-0.16174378
227	0xbd75d859	-0.06002078
228	0xbdbccd8f	-0.09218895
229	0xbe45e47b	-0.1932544
230	0x3b83f236	0.0040266765
231	0x3d47b2fe	0.048754685
232	0xbe031432	-0.12800673
233	0xbcdf7113	-0.027275598
234	0xbdbe1422	-0.09281184
235	0x3e836d50	0.25669336
236	0x3e1ce260	0.1532073
237	0xbde6346f	-0.1124047
238	0x3e57b738	0.21065986
239	0xbd8dd6a0	-0.06925702
240	0x3e1c6e19	0.15276374
241	0xbe0ab969	-0.13547291
242	0x3cf531bb	0.02993094
243	0x3df82d07	0.12117963
244	0x3da8a5b2	0.08234729
245	0xbc800e97	-0.015631957
246	0xbb63bf85	-0.0034751606
247	0x3dd823bf	0.10553693
248	0x3e484854	0.19558841
249	0xbc434651	-0.01191862
250	0xbd9a7d25	-0.07543401
251	0x3b154b5a	0.0022780509
252	0xbe066460	-0.13124228
253	0xbdecce7f	-0.115628235
254	0xbc7e3534	-0.015515614
255	0x3e67b911	0.22629191

shared.2.weight f4 [256, 256]
0	0xbb207798	-0.0024485346
1	0xbdb08cd8	-0.08620614
2	0xbe5454b0	-0.2073543
3	0xbdb6aeb2	-0.08920039
4	0x3e467134	0.19379121
5	0xbc1f87f9	-0.009737008
6	0x3d4524b7	0.048130717
7	0xbdf8b393	-0.12143626
8	0x3d133962	0.035943396
9	0xbe678584	-0.22609526
10	0x3c0c7641	0.008573116
11	0xbbffdc3d	-0.007808237
12	0xbc8dc4ff	-0.01730585
13	0x3e0b47af	0.13601564
14	0xbd8b127c	-0.06790635
15	0xba7a689e	-0.00095523323
16	0x3d743eca	0.059630193
17	0xbd32b2e2	-0.043627627
18	0x3e2c307d	0.16815372
19	0x3d844447	0.06458335
20	0xbdaea55a	-0.08527632
21	0x3d81aacd	0.06331406
22	0xbd8a0598	-0.06739348
23	0xbe0fc0a7	-0.14038335
24	0xbca2dfc4	-0.01988209
25	0x3cd9be33	0.026579952
26	0xbbac0379	-0.0052494374
27	0x3d182d36	0.03715249
28	0xbe024c1e	-0.12724349
29	0xbdf53bb3	-0.11974277
30	0xbbef7260	-0.0073073357
31	0x3c88743c	0.016656987
32	0xb947f1a7	-0.00019068141
33	0x3cfe557a	0.031046618
34	0xbe6e3a59	-0.23264445
35	0xbc94c3a7	-0.0181597
36	0x3d53341e	0.051563375
37	0x3cb0aef6	0.021567803
38	0x3e01b2f3	0.1266592
39	0xbdff62e6	-0.12470035
40	0x3dc5f306	0.09665494
41	0x3e49aefb	0.19695656
42	0xbd298a17	-0.04139146
43	0x3b38c469	0.0028193241
44	0xbd45471a	-0.04816351
45	0xbdb2a805	-0.087234534
46	0xbdc793d3	-0.09744992
47	0x3c8f4db9	0.017493116
48	0xbda4441f	-0.080208056
49	0xbe91d416	-0.2848212
50	0xbdf2c00d	-0.11853037
51	0xbc699a52	-0.014257984
52	0xbd01de77	-0.0317063
53	0xbd1bbfeb	-0.038024824
54	0xbe26a3eb	-0.16273467
55	0x3c8d5173	0.017250752
56	0xbb9a05db	-0.004700405
57	0xbdd1e1e3	-0.102481626
58	0xbd6195f3	-0.055074643
59	0xbd210391	-0.03931004
60	0xbc9bdc05	-0.019025812
61	0x3e229c6b	0.15879981
62	0xbe1afc32	-0.15135267
63	0x3ba67899	0.0050802943
64	0xbd93953d	-0.07206199
65	0x3c799dd3	0.015235382
66	0x3c61ad09	0.013774165
67	0xbd98f818	-0.07469195
68	0xbda280e4	-0.0793474
69	0x3d041c76	0.032253705
70	0x3d1e4bfa	0.038646676
71	0xbe6dcf00	-0.23223495
72	0x3d4ee4b2	0.05051107
73	0x3df6748f	0.120339505
74	0x3e4a3727	0.19747601
75	0xbc363e26	-0.011123216
76	0xbe4228ca	-0.18960872
77	0x3d7e1b68	0.062037855
78	0xbd44354b	-0.047902387
79	0xbe234c4f	-0.15947078
80	0xbd86bdc4	-0.06579164
81	0x3e1a9dc3	0.15099244
82	0x3de9c04b	0.1141363
83	0xbd72bcba	-0.059262015
84	0x3d4aee92	0.049543925
85	0x3e48fc72	0.1962755
86	0x3e120b1f	0.14262055
87	0xbe131df6	-0.14366898
88	0xbc10eac6	-0.008845037
89	0x3d906035	0.070496
90	0xbc11dafe	-0.008902309
91	0xbe729787	-0.23690616
92	0xbdda20d3	-0.10650792
93	0x3dc1c428	0.09461242
94	0xbdebf7af	-0.11521851
95	0xbd323ba5	-0.043513913
96	0x3d1bf67a	0.038076855
97	0x3cab0811	0.02087787
98	0xbe0b159c	-0.13582462
99	0x3b9237f1	0.004462235
100	0xbd5c786e	-0.05382579
101	0x3d5fca7f	0.054636475
102	0xbe9171f0	-0.2840724
103	0x3d835360	0.06412387
104	0xbdf0ce38	-0.11758083
105	0x3c5dd26d	0.013538939
106	0x3c8fe245	0.017563948
107	0x3d893868	0.06700212
108	0xbc827448	-0.015924588
109	0xbd4350f2	-0.047684617
110	0x3c26605a	0.010154808
111	0x3de1e838	0.1103062
112	0xbdb5141f	-0.088417284
113	0xbeab8ddc	-0.33506668
114	0xbd9acbfe	-0.0755844
115	0xbda8d6b0	-0.082440734
116	0xbdf8c62c	-0.12147173
117	0x3d1ac190	0.03778225
118	0xbd0cf181	-0.034410004
119	0xbdb7f2a1	-0.08981825
120	0xbe05eef7	-0.13079439
121	0x3dc1699d	0.09443972
122	0x3e5477ca	0.20748821
123	0x3d51b9fb	0.051202755
124	0xbe6fc484	-0.23414809
125	0xbc28ad4e	-0.010295225
126	0x3e197616	0.14986452
127	0xbde475f5	-0.11155311
128	0x3d9cf418	0.07663745
129	0xbcf6c0af	-0.030121176
130	0xbda7dd01	-0.0819645
131	0x3e112901	0.14175798
132	0xbd05594e	-0.03255587
133	0xbbde0cbc	-0.0067764204
134	0xbdd9c03b	-0.10632368
135	0xbe183fea	-0.14868131
136	0x3b7b58a4	0.0038352394
137	0x3da49a3f	0.080372326
138	0x3c2bd34b	0.010487388
139	0x3e0b5652	0.13607147
140	0xbd8f0f33	-0.06985321
141	0x3d4b2650	0.049597085
142	0x3cc98156	0.024597805
143	0xbe398898	-0.18118513
144	0xbd1323a1	-0.03592265
145	0x3c3e8f84	0.0116308965
146	0xbc96808d	-0.018371845
147	0xbbcd6533	-0.0062681674
148	0xbddc4f88	-0.10757357
149	0xbdb7b00c	-0.08969125
150	0xbd025ef7	-0.031828847
151	0x3c9dd067	0.019264413
152	0x3c27f9ad	0.010252398
153	0xbdc5c9c4	-0.09657624
154	0x3c367fbd	0.011138854
155	0xbe11104b	-0.14166372
156	0xbcf3b25e	-0.029748138
157	0xbcd0690e	-0.025440719
158	0x3d531c99	0.051540945
159	0xbb962454	-0.0045819674
160	0x3d38205f	0.044952746
161	0xbe3f0708	-0.18655026
162	0x3dc523f9	0.09626002
163	0xbd981814	-0.074264675
164	0x3c052023	0.008125338
165	0x3d7b4c09	0.06135181
166	0x3de3dd3a	0.1112618
167	0x3bef001f	0.0072937156
168	0xbe1442d8	-0.14478624
169	0xbb6750a4	-0.0035295868
170	0xbe1357ac	-0.14388913
171	0x3e048d1b	0.12944452
172	0xbe590ef8	-0.21197116
173	0xbde48fd7	-0.11160248
174	0xbdb0bad4	-0.08629385
175	0x3db99353	0.09061303
176	0x3d861b92	0.06548227
177	0x3ce54607	0.027987493
178	0xbd224b5a	-0.039622642
179	0xbddb9e95	-0.107236065
180	0xbe36228d	-0.17786618
181	0x3d4a04f9	0.04932115
182	0x3d4b17aa	0.049583115
183	0xbbcd18a4	-0.006259041
184	0x3eaeab3a	0.3411501
185	0x3da32c80	0.07967472
186	0x3d829902	0.0637684
187	0x3d1cd2e9	0.038287077
188	0x3c8142d1	0.01577893
189	0xbe03e5d9	-0.12880649
190	0xbb93d70f	-0.004511721
191	0xbd52c243	-0.051454794
192	0x3dc6a518	0.09699458
193	0xbdf8cd65	-0.12148551
194	0x3cd1447f	0.025545357
195	0x3d49c812	0.049263068
196	0xbd2fefdc	-0.042953357
197	0xbdb0a333	-0.08624878
198	0x3e16c1e6	0.14722404
199	0xbe2796dd	-0.16366144
200	0x3df654ea	0.12027915
201	0x3b7b10aa	0.0038309493
202	0xbc83511e	-0.01602989
203	0xbd7b8218	-0.061403364
204	0xbd1b975c	-0.037986144
205	0x3d73a857	0.059486713
206	0x3d8cf5a9	0.068827935
207	0x3cb57a31	0.022152992
208	0xbdc355dd	-0.095378615
209	0x3dfd9378	0.12381643
210	0x3d8b1213	0.06790557
211	0x3d2df9e5	0.042474646
212	0xbe6e162f	-0.2325065
213	0x3ce48fbf	0.027900575
214	0xbc63dd66	-0.013907766
215	0xbd5b5d20	-0.053555608
216	0x3ccebba7	0.025235964
217	0x3d5acaf3	0.053416204
218	0x3c962d02	0.018332008
219	0x3d8ef5eb	0.06980499
220	0xbe542a69	-0.20719303
221	0xbcb643c2	-0.022249106
222	0xbddc0736	-0.10743563
223	0xbdd21c9e	-0.102593645
224	0xbdea4163	-0.11438253
225	0x3dcb83f5	0.09937278
226	0xbdc75a11	-0.09733976
227	0xbdeb4581	-0.11487866
228	0xbd3b2c17	-0.045696344
229	0xbe10258a	-0.1407682
230	0xbd11aa37	-0.03556272
231	0x3e3dc35a	0.18531552
232	0xbc1ee961	-0.009699197
233	0xbd0a5e78	-0.0337815
234	0x3cd42044	0.025894292
235	0xbc4c4137	-0.01246672
236	0x3e3b6a3a	0.18302241
237	0xbdfd6be7	-0.12374096
238	0x3dae6599	0.08515472
239	0xbda66a63	-0.081257604
240	0xbde03cd5	-0.10949103
241	0xbd92e49d	-0.07172511
242	0xbe1b2b5d	-0.1515326
243	0xbc15af4a	-0.00913603
244	0x3d154706	0.036444686
245	0xbda6fdef	-0.08153903
246	0xbd2bd4c9	-0.041950975
247	0xbe2f148e	-0.17097685
248	0xbd804c9b	-0.06264611
249	0xbceb4154	-0.028717674
250	0xbdb34967	-0.08754235
251	0x3d3b80cb	0.045777123
252	0x3c3bb942	0.011457743
253	0xbd91754f	-0.07102453
254	0x3dbd7ed1	0.09252704
255	0x3e162a43	0.14664559

shared.2.bias f4 [256]
0	0x3d3dc810	0.046333373
1	0xbd770139	-0.0603039
2	0x3cffc82f	0.031223385
3	0x3dabb870	0.08384788
4	0x3de43656	0.11143176
5	0xbcb5a8c3	-0.022175198
6	0xbd70f61a	-0.05882845
7	0x3d86f36e	0.06589399
8	0x3d269347	0.0406678
9	0x3df13c75	0.117791094
10	0xbcea0bcf	-0.028570084
11	0xbc85e61e	-0.01634508
12	0x3ce555fe	0.027995106
13	0xbdb5a5bc	-0.08869502
14	0xbca85626	-0.020548891
15	0x3cece9ec	0.028920136
16	0xbcd2ccc5	-0.025732407
17	0xbd36482b	-0.04450242
18	0xbd2bfa81	-0.041986946
19	0x3d7c931e	0.06166374
20	0x3d0ef620	0.03490269
21	0xbcda5c7c	-0.026655428
22	0x3d8f7a6c	0.07005772
23	0x3dc2e34f	0.09516012
24	0xbc9fddad	-0.019514883
25	0x3dba963c	0.09110686
26	0xbc41b487	-0.011822826
27	0xbd1442ed	-0.036196638
28	0x3bf52390	0.007481046
29	0x3ccaabc3	0.024740105
30	0xbccd2863	-0.025043672
31	0xbba46721	-0.0050171767
32	0xbdae010a	-0.08496292
33	0x3d1aa9a0	0.037759423
34	0xbd22aec4	-0.03971745
35	0x3c8273b0	0.015924305
36	0xbd2caada	-0.042155124
37	0x3d5356a1	0.051596288
38	0x3df515b2	0.11967029
39	0xbd2c3291	-0.04204041
40	0x3bf1ad9d	0.0073754326
41	0xbd15409d	-0.036438573
42	0x3c40b409	0.011761674
43	0x3dd97d23	0.10619571
44	0x3d18416a	0.03717176
45	0x3df0beac	0.11755118
46	0x3bb5abbc	0.005544154
47	0xbca7ad7e	-0.02046847
48	0xbc6b41c8	-0.014358945
49	0x3c92843e	0.017885324
50	0xbd8d608e	-0.06903182
51	0x3e0100b6	0.12597927
52	0xbdd1dd8c	-0.10247335
53	0x3c960108	0.018311039
54	0x3bcb38af	0.0062018256
55	0xbd56946c	-0.05238764
56	0x3c26c096	0.010177752
57	0xbd387c26	-0.045040272
58	0xbd87b9be	-0.066272244
59	0xbbce1e0b	-0.0062902025
60	0x3ca4c41f	0.02011305
61	0x3d631993	0.05544431
62	0xbd467656	-0.048452698
63	0x3d0067a3	0.031348836
64	0x3da75580	0.08170605
65	0xbd9cb214	-0.07651153
66	0xbd3ba6a0	-0.045813203
67	0x3dc3a3df	0.0955274
68	0xbd700bf5	-0.058605153
69	0x3d0e11f4	0.03468509
70	0x3d51a4dc	0.051182613
71	0xbd1c7a93	-0.038202833
72	0x3d972aca	0.07381208
73	0xbc0bebfb	-0.008540149
74	0x3c44e661	0.012017817
75	0xbb915c9c	-0.0044360887
76	0xbb8e035a	-0.0043338956
77	0xbc365f47	-0.011131114
78	0x3d03b4d1	0.03215486
79	0x3d661975	0.05617662
80	0xbb6856f3	-0.0035452216
81	0xbdbe2b37	-0.09285586
82	0x3df0fae0	0.117666006
83	0xba9941bc	-0.0011692564
84	0x3cc9d40c	0.024637245
85	0x3d536c69	0.05161706
86	0x3c68bd64	0.0142053105
87	0x3ca1d88a	0.019756574
88	0x3da051b9	0.07828087
89	0x3d595993	0.05306394
90	0x3cca397f	0.02468562
91	0x3d4289fd	0.047494877
92	0x3d88c0f5	0.06677429
93	0x3db63254	0.08896318
94	0x3bbf7984	0.005843343
95	0xbc81f862	-0.015865508
96	0x3d732dbe	0.059369795
97	0xbcb2a375	-0.021806458
98	0x3da6feba	0.08154054
99	0xbc97862e	-0.018496599
100	0x3db643c5	0.08899645
101	0x3d079c9e	0.033108346
102	0xbb0392b4	-0.0020076456
103	0xbda1fdaf	-0.079097144
104	0x3c5fc0e6	0.01365683
105	0xbb35b262	-0.0027724733
106	0xbd4075a7	-0.046987202
107	0x3be8f975	0.0071098157
108	0x3d82c185	0.06384567
109	0xbcbaf91c	-0.022823863
110	0x3d510f4b	0.051039975
111	0x3d1ae67c	0.037817463
112	0xbbb205f1	-0.005432837
113	0x3da4755f	0.08030199
114	0x3c444f33	0.011981773
115	0xbd2b9a16	-0.041894995
116	0x3d5bce62	0.05366362
117	0x3c67d059	0.014148795
118	0x3d57a74d	0.052649785
119	0x3dd81407	0.10550695
120	0x3cde4849	0.027134078
121	0xbaf92954	-0.0019009509
122	0x3c863113	0.016380822
123	0x3cdfe8c2	0.027332667
124	0x3ccd1a8a	0.025037069
125	0xbb9128f3	-0.0044299304
126	0x3c446b29	0.01198844
127	0x3d43a9a8	0.04776922
128	0x3d0da8f8	0.03458497
129	0xbcc29a79	-0.023755299
130	0x3cef2178	0.029190764
131	0x3dd5c78b	0.104384504
132	0xbd36a723	-0.044592988
133	0x3dbd3bae	0.092398986
134	0x3da599a2	0.08085944
135	0x3d06f6e1	0.032950286
136	0x3b47c652	0.0030483198
137	0x3c82bc0b	0.015958806
138	0xbcd56259	-0.026047872
139	0xbd1e2b09	-0.03861526
140	0xbcdc5276	-0.02689479
141	0x3d8b34e2	0.06797196
142	0x3d7ff0ee	0.062485628
143	0xbba49958	-0.005023163
144	0x3ccbf430	0.024896711
145	0x3cef123e	0.029183503
146	0xbd00f4d9	-0.031483505
147	0x3ccd53b0	0.02506432
148	0xbdd1573f	-0.10221719
149	0x3da0e989	0.07857043
150	0xbd8be925	-0.06831578
151	0x3cd2fe04	0.02575589
152	0xbd8f851f	-0.07007813
153	0x3d04e842	0.03244806
154	0xba97cd41	-0.0011581556
155	0x3cfd8819	0.030948685
156	0x3d367fd3	0.044555496
157	0x3b1188a2	0.0022206684
158	0x3b9e8bbd	0.0048384354
159	0x3c9fb246	0.019494187
160	0x37e61cf9	2.7431628e-05
161	0x3d0a71d6	0.03379997
162	0x3d0e4df5	0.034742314
163	0xbd498ba2	-0.04920543
164	0xbc99be94	-0.018767633
165	0x3d6ffdc2	0.05859161
166	0x3ce7ab06	0.028279793
167	0x3d62a265	0.055330653
168	0x3d5e80d6	0.054322086
169	0x3da88035	0.082275786
170	0xbdd3133f	-0.10306405
171	0xba8133a4	-0.0009857309
172	0xbd837f47	-0.064207606
173	0xbc02b087	-0.007976658
174	0x3cdd15d1	0.026987942
175	0x3da9523e	0.082676396
176	0xbc5fb34a	-0.013653586
177	0xbcd2ecc8	-0.025747672
178	0x3c0c144c	0.008549761
179	0x3d3654b1	0.04451436
180	0xbd0734e5	-0.03300943
181	0xbb3a1f38	-0.0028399955
182	0xbbe5b160	-0.00700967
183	0xbb4c4c69	-0.0031173474
184	0x3e0f474f	0.13992046
185	0xbd905610	-0.07047665
186	0x3d690818	0.056892484
187	0x3d684b35	0.056712348
188	0x3d4ee35e	0.050509803
189	0x3b94c096	0.0045395596
190	0x3cdb1cb6	0.026747089
191	0xbcf6e0b9	-0.030136453
192	0x3d6f64c8	0.058445722
193	0xbd661b00	-0.056178093
194	0x3c54287e	0.012949107
195	0xbc9f450f	-0.01944211
196	0x3ca7d8a0	0.020489037
197	0x3ce666d0	0.028125197
198	0x3da6a194	0.08136287
199	0x3e0bc4b6	0.13649258
200	0x3d5f658f	0.054540213
201	0x3de4a38b	0.11164006
202	0xb9626e36	-0.00021594096
203	0x3c259f5a	0.010108793
204	0x3d71d571	0.059041444
205	0x3c0b75e6	0.008511996
206	0x3dee3f5d	0.11633179
207	0x3db2ca34	0.087299734
208	0x3cd2f807	0.025753034
209	0xbd8458c8	-0.06462246
210	0xbd4d9118	-0.0501872
211	0xbd3a8224	-0.045534268
212	0xbcdd3c3a	-0.027006257
213	0x3d327327	0.04356685
214	0x3d98a0a1	0.074525125
215	0xbd1963a8	-0.037448555
216	0x3c46b01b	0.012126948
217	0x3c4cbd17	0.012496254
218	0xbd10b77e	-0.03533124
219	0xbd073740	-0.033011675
220	0x3d802a54	0.062580734
221	0x3dae3ac2	0.08507301
222	0xbd83bd46	-0.064325854
223	0x3d101b9f	0.03518259
224	0xbc5cba60	-0.01347217
225	0x3db8fd1a	0.0903265
226	0x3d2d6b29	0.042338524
227	0x3dc7508c	0.0973216
228	0x3d841c30	0.06450689
229	0x3d2fabcf	0.04288846
230	0x3da64fd9	0.081206985
231	0xbc042a4d	-0.008066726
232	0xbd915338	-0.07095951
233	0xbce44659	-0.027865576
234	0x3d094e16	0.033521734
235	0xbd8a01d4	-0.0673863
236	0xbc33bfef	-0.0109710535
237	0x3ca7360d	0.020411516
238	0xbd8a0026	-0.067383096
239	0x3b68eb19	0.003554052
240	0xbb987afe	-0.0046533337
241	0xbb82d5ff	-0.0039927955
242	0xbd1077bb	-0.035270434
243	0xbce85c48	-0.028364316
244	0x3d5d5f88	0.054046184
245	0xbd681c96	-0.056667887
246	0x3c33b6f3	0.010968911
247	0x3cc45efd	0.023971075
248	0xbcdfef1c	-0.027335696
249	0x3d03a2ff	0.032137867
250	0x3d972c48	0.07381493
251	0xbd4f2f00	-0.050581932
252	0x3e0ec653	0.13942842
253	0x3ce733c2	0.028222922
254	0x3dcc08d8	0.09962624
255	0xbcc2f2a6	-0.023797344

actor_mean.0.weight f4 [256, 256]
0	0x3d09efba	0.033675887
1	0xbd7fb787	-0.062430885
2	0x3cfe4381	0.031038048
3	0x3b1c1fd6	0.0023822687
4	0xbcfa9445	-0.030588279
5	0x3c715416	0.01472952
6	0x3e667031	0.22503735
7	0x3bf6a5d0	0.0075270906
8	0xba0b900f	-0.00053238956
9	0xbc4d5d17	-0.012534401
10	0xbccdb110	-0.025108844
11	0xbdcd5245	-0.10025457
12	0xbd16ed89	-0.036847625
13	0x3e58a327	0.21155988
14	0x3bd23e86	0.006416145
15	0x3d938cec	0.07204613
16	0xbd84f7e7	-0.06492596
17	0x3a76244d	0.00093895645
18	0x3c277492	0.010220664
19	0xbc9e8ad7	-0.019353313
20	0x3ccb7d89	0.024840133
21	0x3c948a70	0.018132418
22	0x3adbbba6	0.0016764298
23	0xba2282de	-0.00061993103
24	0x3d3b83a8	0.045779854
25	0xbdb2b952	-0.08726753
26	0xbd565e60	-0.052336097
27	0x3d83e213	0.064396046
28	0x3c94716a	0.018120486
29	0xbd4b2406	-0.0495949
30	0x3d6bd4ca	0.05757598
31	0x3ddd53c0	0.1080699
32	0x3d5a5a2f	0.053308662
33	0xbd0eaaa7	-0.034830716
34	0xbcdf07ef	-0.027225463
35	0x3da82a11	0.082111485
36	0xbd695971	-0.056970064
37	0xbd5a7937	-0.053338256
38	0x3cb2dbf6	0.021833401
39	0xbc4f2dd5	-0.012645205
40	0xbdf46cc8	-0.11934811
41	0x3cb5fdb5	0.022215704
42	0x3d908426	0.07056455
43	0x3e5192a0	0.20466089
44	0xbd73edc2	-0.059552915
45	0x3d4a4e9a	0.049391367
46	0xbd13abf6	-0.036052667
47	0xbc88d841	-0.01670468
48	0xbad3982c	-0.0016143373
49	0x3d886ea9	0.06661732
50	0x3d668fcb	0.056289475
51	0xbe1c0d8e	-0.15239546
52	0x3e0086b5	0.12551387
53	0xbdb3a9a7	-0.08772593
54	0xbe3604c4	-0.17775255
55	0x3d4f6617	0.05063447
56	0xbd10688c	-0.035255954
57	0xbd514757	-0.051093426
58	0x3ca9da1e	0.02073389
59	0x3d0d4fbc	0.03449987
60	0x3cb933f9	0.02260779
61	0xbe394628	-0.18093169
62	0x3d0822e1	0.033236388
63	0x3d1436e1	0.03618515
64	0x3c0594b7	0.008153132
65	0xbd8def34	-0.0693039
66	0xbceb6210	-0.028733283
67	0xbdf48f75	-0.11941425
68	0x3dcc744d	0.0998312
69	0x3c96e3ad	0.018419111
70	0x3d48d945	0.04903533
71	0x3c380d46	0.011233633
72	0xbc85e519	-0.016344594
73	0x3c85b6f7	0.016322596
74	0xbe0f1d8c	-0.13976115
75	0x3dc4b53a	0.09604879
76	0x3dd40fec	0.10354599
77	0x3d9fe818	0.0780794
78	0x3d0c677b	0.034278374
79	0x3e0362ec	0.12830704
80	0x3cbc3fee	0.022979703
81	0x3d94c6af	0.072644584
82	0x3df30157	0.1186549
83	0x3d411b11	0.047144953
84	0xbd6c487a	-0.057686307
85	0xbe6c305c	-0.23065323
86	0x3ba1d837	0.004939105
87	0xbb243625	-0.0025056687
88	0x3d987058	0.07443303
89	0xbd164f1b	-0.036696535
90	0xbd827059	-0.06369085
91	0xbd6b41c3	-0.057435762
92	0x3d357f6b	0.04431097
93	0xbe1d683f	-0.15371798
94	0xbe2a5087	-0.16632281
95	0x3d2abc31	0.04168338
96	0x3c9e9d4c	0.019362114
97	0x3d2bcbe0	0.041942477
98	0xbe0bd80e	-0.13656637
99	0x3da8d761	0.08244205
100	0x3e394463	0.18092494
101	0xbdb4c3bb	-0.08826395
102	0xbdd5c027	-0.10437041
103	0x3d13aa5c	0.03605114
104	0x3d104c99	0.0352293
105	0xbde1cb5e	-0.11025117
106	0xbe3d2a4c	-0.18473166
107	0x3d29178a	0.041282214
108	0x3d089d18	0.03335294
109	0x3d2f4d31	0.042798225
110	0xbcc41d7e	-0.023939844
111	0x3db46661	0.0880859
112	0xbe07d651	-0.13265349
113	0x3cb513c3	0.02210415
114	0x3d280630	0.041021526
115	0xbd6573ac	-0.056018516
116	0x3cee4d87	0.029089702
117	0x3bf0fbdc	0.0073542427
118	0xbd11e53c	-0.035619006
119	0x3dbb2ffe	0.09140013
120	0x3e38c518	0.18043935
121	0x3d978e03	0.074001335
122	0xbd56a4f5	-0.05240341
123	0x3d894e01	0.06704331
124	0xbc8a96ed	-0.01691767
125	0x3d0d2c25	0.034465928
126	0xbe01b78a	-0.12667671
127	0xbd760f78	-0.060073346
128	0x3e05eb12	0.13077953
129	0xbdda5d36	-0.1066231
130	0xbd972e3a	-0.07381864
131	0xbe42c799	-0.19021453
132	0xbd24ae62	-0.040205367
133	0x3e13ca3b	0.14432614
134	0xbe00a340	-0.12562275
135	0x3dd9d2ed	0.10635934
136	0x3d5f1f7a	0.054473378
137	0xbd01afff	-0.031661984
138	0xbccc9249	-0.024972098
139	0xbd1390e6	-0.036026858
140	0xbd21e529	-0.039525185
141	0xbda32b02	-0.079671875
142	0xbdc8941e	-0.09793876
143	0x3d57884a	0.05262021
144	0x3e1c3d81	0.15257837
145	0x3c683de6	0.014174914
146	0xbb4cd45d	-0.0031254508
147	0xbd938ae3	-0.07204225
148	0xbcdc09f2	-0.026860211
149	0xbd3e90e6	-0.046524905
150	0x3d3b3727	0.045706894
151	0x3df361a1	0.118838556
152	0xbc579d79	-0.013160103
153	0xbe52c5be	-0.20583245
154	0xbdf57db5	-0.11986867
155	0xbd3bef0d	-0.045882273
156	0x3c9f27fe	0.01942825
157	0xbdafcadf	-0.085836165
158	0x3d3910cd	0.045182038
159	0x3c799aea	0.015234688
160	0xbcdddd57	-0.027083082
161	0xbd19eb16	-0.03757771
162	0xbcab84fc	-0.020937435
163	0x3db542b9	0.08850617
164	0xbd842f4f	-0.06454336
165	0xbd7a24ff	-0.06107044
166	0x3c4e49ef	0.012590869
167	0x3d69f000	0.057113647
168	0x3d5d2094	0.053986147
169	0x3db648d9	0.08900613
170	0xbdec3e19	-0.11535282
171	0x3d918896	0.0710613
172	0x3d50fa2f	0.051019844
173	0x3dacca52	0.08437027
174	0x3d84709c	0.06466791
175	0x3dcc4c41	0.09975482
176	0x3d9dd1cb	0.077060305
177	0x3d17611f	0.036957856
178	0x3d4b1dc7	0.049588945
179	0x3e0ee380	0.13953972
180	0xbd6c7b4b	-0.05773477
181	0x3b2819d4	0.002565016
182	0x3d18019c	0.03711091
183	0x3e17bddd	0.14818521
184	0x3cf309b4	0.029667713
185	0x3d9399f3	0.07207098
186	0xbd71cbc9	-0.059032235
187	0xbe230975	-0.15921576
188	0x3db4413a	0.088015035
189	0x3ae079c1	0.0017126129
190	0x3bc1afbc	0.0059108417
191	0xbca33253	-0.019921457
192	0xbdb79728	-0.08964378
193	0x3d636cbc	0.05552362
194	0xbcafbf40	-0.0214535
195	0x3d5c564f	0.053793248
196	0x3d9b94c5	0.07596735
197	0xbd6985b4	-0.057012275
198	0x3d5b6ad8	0.05356869
199	0x3d570c7d	0.052502144
200	0xbcee1d74	-0.029066779
201	0xbcb78e1e	-0.022406634
202	0x3c23d5e8	0.00999973
203	0xbce6bce6	-0.028166246
204	0xbca76049	-0.020431655
205	0x3d6169cc	0.055032536
206	0xbd6cca78	-0.057810277
207	0xbd907115	-0.07052819
208	0xbe454d1f	-0.192677
209	0xbc92ffea	-0.017944295
210	0xbd2570ed	-0.040390898
211	0xbb89a6ca	-0.004200791
212	0xbcd18cbf	-0.025579808
213	0xbd584df3	-0.052808713
214	0xbc8d7556	-0.017267864
215	0xbc6a9c25	-0.014319454
216	0x3e14018e	0.14453718
217	0x3c58cb22	0.013232024
218	0xbcac03b1	-0.020997854
219	0x3d06eb93	0.032939505
220	0x3d688a33	0.056772422
221	0xbaed6404	-0.0018111472
222	0x3dcdfd3d	0.10058067
223	0xbcafd6aa	-0.021464664
224	0x3a362938	0.0006948891
225	0x3dbc7d1c	0.0920355
226	0x3ca3cc63	0.01999492
227	0xbdf0c59b	-0.1175644
228	0xbd586f96	-0.05284079
229	0xbe022e51	-0.12712981
230	0xbe9be99c	-0.30451667
231	0x3beb1b16	0.0071748598
232	0x3d592701	0.053015713
233	0xbd0dd468	-0.034626395
234	0x3cfee769	0.031116204
235	0xbe116e52	-0.1420224
236	0xbb617924	-0.003440448
237	0x3dc4c00b	0.09606942
238	0x3dac69f1	0.08418644
239	0xbe9c8660	-0.3057127
240	0xbc88273f	-0.016620276
241	0xbd3832a0	-0.044970155
242	0x3bf53f21	0.007484332
243	0x3cc4f9c3	0.024044877
244	0xbe910595	-0.2832457
245	0xbe47344c	-0.19453543
246	0xbdaeb44d	-0.085304834
247	0xbd27b624	-0.040945187
248	0xbccc14cd	-0.024912262
249	0x3d3912fc	0.04518412
250	0x3d555c35	0.05208989
251	0x3d378f5c	0.044814453
252	0x3cf84d8f	0.03031042
253	0x3dbcc50b	0.092172705
254	0x3e485335	0.19562991
255	0x3c279ee4	0.010230754

actor_mean.0.bias f4 [256]
0	0xbd90b0a6	-0.07064943
1	0x3c19114f	0.009342506
2	0x3deb2400	0.11481476
3	0xbc9d1c95	-0.019178668
4	0x3b536c77	0.0032260695
5	0x3d0c9ee9	0.034331236
6	0x3c684e62	0.014178844
7	0xbc1c0145	-0.009521787
8	0x3dc79c4d	0.09746609
9	0xbd10eed1	-0.035384003
10	0x3d40f6eb	0.04711048
11	0x3cfd28bc	0.030903213
12	0x3e0d37f7	0.1379088
13	0x3cc7c016	0.024383586
14	0x3c8173ef	0.015802352
15	0xbd03bf8b	-0.03216509
16	0xbd152d7f	-0.03642034
17	0xbcb9f4fa	-0.022699822
18	0xba92e12e	-0.0011206025
19	0xbd900c16	-0.07033555
20	0xbd2b75a6	-0.041860245
21	0xb9f52511	-0.00046757658
22	0xbbd03c5a	-0.0063548507
23	0x3c51a9fb	0.012796874
24	0x3bd8cec1	0.006616444
25	0xbd700859	-0.05860171
26	0x3bcf4e35	0.0063264617
27	0xbd72e264	-0.059297934
28	0xbd949275	-0.07254497
29	0xbca3d6ce	-0.019999888
30	0xbd002f76	-0.031295262
31	0xbd410304	-0.047122017
32	0xbd37d72b	-0.044882935
33	0x3d0bb65c	0.03410946
34	0xbd955964	-0.072924405
35	0x3bd1249e	0.006382539
36	0xbcafc149	-0.02145447
37	0x3c4bb8da	0.012434209
38	0xbd838870	-0.06422508
39	0xbd99ede5	-0.07516078
40	0x3cbeac3e	0.02327549
41	0xbdd65c63	-0.1046684
42	0xbd39d993	-0.04537351
43	0xbd8cb0c2	-0.068696514
44	0x3d0ae9eb	0.033914488
45	0xbd17747a	-0.036976315
46	0xbdafeca7	-0.0859006
47	0x3cec8aaa	0.028874714
48	0xbc099313	-0.008396882
49	0x3da52901	0.080644615
50	0xbd82a73b	-0.06379553
51	0xbd8533b0	-0.06503999
52	0x3dbc2016	0.091858074
53	0xbcebd4fb	-0.02878808
54	0xbce9c25e	-0.028535064
55	0x3d90b4f8	0.07065767
56	0x3d48d527	0.049031403
57	0xbcaf5a49	-0.021405356
58	0xbd23430a	-0.039858855
59	0xbce8a105	-0.028397093
60	0x3cfbd3f1	0.03074071
61	0xbd7c5aa5	-0.061609883
62	0xbcc794e6	-0.024362992
63	0x3d49b173	0.049241494
64	0x3d0c4402	0.034244545
65	0xbc30eb5f	-0.010798304
66	0xbd483d85	-0.048886795
67	0xbd3082cf	-0.0430935
68	0x3d1e563a	0.03865645
69	0xbc6b5536	-0.014363578
70	0xbda173ef	-0.07883441
71	0xba9aa5ab	-0.001179864
72	0x3d5f85c8	0.054570943
73	0xbba03bf7	-0.004889961
74	0xbd570d38	-0.05250284
75	0xbd9ed28e	-0.07755004
76	0x3b4dfbe3	0.0031430654
77	0xbbd55aa2	-0.0065110484
78	0xbc8e2c2a	-0.017355043
79	0x3befb4e2	0.007315264
80	0xbc87f245	-0.016595015
81	0x3d7d4248	0.06183079
82	0xbd903371	-0.07041062
83	0xbd716061	-0.058929805
84	0xbd546f86	-0.05186417
85	0x3c8a8833	0.016910648
86	0xbd3a50e9	-0.04548732
87	0xbd2f1020	-0.042739987
88	0x3cff2ebb	0.031150213
89	0xbcebfb29	-0.028806286
90	0x3be297de	0.0069150766
91	0x3d524d54	0.051343277
92	0xbd3877f0	-0.045036256
93	0x3cc6f2ef	0.024285762
94	0xbd9c638a	-0.07636173
95	0xbd016c78	-0.031597584
96	0xbdd05fab	-0.10174497
97	0xbdc9245e	-0.098213896
98	0x3cf1c877	0.029514534
99	0x3d7571e5	0.05992307
100	0x3c0a07b8	0.008424692
101	0xbd781659	-0.060568187
102	0x3cf59a51	0.02998081
103	0x3e00f48f	0.12593292
104	0xbd570c05	-0.052501697
105	0xbd5a19c6	-0.053247236
106	0x3ca0548d	0.019571567
107	0x3cfef002	0.031120304
108	0xbba9b9fe	-0.0051796427
109	0xbc4777db	-0.012174572
110	0xbd85a0e2	-0.065248266
111	0xbca70bf9	-0.020391451
112	0x3cd97671	0.026545735
113	0xbd546de2	-0.051862605
114	0xbcf2e53f	-0.029650329
115	0xbc9f2e22	-0.019431178
116	0x3d744809	0.05963901
117	0xbd4f51d2	-0.05061514
118	0xbb6b0b58	-0.0035864916
119	0x3cb286b6	0.02179275
120	0x3d6e8175	0.05822893
121	0x3d9383ae	0.0720285
122	0xbccc2497	-0.024919791
123	0x3d2dd45d	0.042438854
124	0xbcf4ed4d	-0.02989831
125	0xbd927560	-0.07151294
126	0xbd4d90ee	-0.050187044
127	0xbcd238da	-0.025661875
128	0xbd2f3cd2	-0.042782612
129	0xbb25423a	-0.0025216476
130	0xbcf75724	-0.03019292
131	0xbd86b8ce	-0.065782174
132	0xbc95535b	-0.018228224
133	0x3d8ca54c	0.068674654
134	0xbddedf9f	-0.10882496
135	0x3d6dd9ca	0.058069028
136	0x3d2a2766	0.04154148
137	0x3dbff5f9	0.093730874
138	0x3d8116b6	0.0630316
139	0xbcc23233	-0.023705577
140	0xbd7668dc	-0.060158595
141	0xbcf314cc	-0.029673003
142	0xbd7e6b56	-0.062114082
143	0xbd9cc0c3	-0.07653954
144	0xbd9d79ca	-0.07689245
145	0xbd9a4817	-0.07533281
146	0xbd8e3051	-0.069428094
147	0xba93e777	-0.0011284192
148	0x3cb14a3a	0.02164184
149	0x3c129304	0.008946184
150	0x3d2c8ee3	0.042128455
151	0x3bc63e1c	0.0060498845
152	0x3d22d9d1	0.039758507
153	0xbd0cc6b6	-0.034369193
154	0x3d10ddf6	0.03536793
155	0xbd60f593	-0.054921698
156	0xbc90d5a5	-0.017679999
157	0xbc2f4156	-0.01069673
158	0x3d14d46a	0.036335386
159	0x3beba1dd	0.0071909265
160	0x3be85b7e	0.007090985
161	0x3c0b92ea	0.008518914
162	0xbcd9c19c	-0.026581578
163	0x3d2bab5b	0.041911464
164	0xbbd6c0d0	-0.0065537468
165	0xbcb11410	-0.021616012
166	0x3cf547e6	0.02994151
167	0x3c18c04f	0.009323194
168	0x3cced39e	0.025247391
169	0xbd16cf75	-0.03681894
170	0x3d14287a	0.036171414
171	0xbde874ac	-0.113503784
172	0x3cb6adcb	0.022299668
173	0x3d9c5f82	0.07635404
174	0xbca7d1cb	-0.02048578
175	0xbd2144e1	-0.03937233
176	0xbb53558c	-0.0032247035
177	0x3c2a4d1a	0.010394359
178	0xbd9d7390	-0.076880574
179	0x3bc72d48	0.006078396
180	0xbd13a7d4	-0.036048725
181	0xbd07cc8d	-0.03315406
182	0x3bc18340	0.005905539
183	0xbd1dae09	-0.03849605
184	0x3bb6ea59	0.0055821356
185	0xbd45f65f	-0.04833066
186	0xbd661e2e	-0.056181125
187	0xbd72a139	-0.059235785
188	0xbd2863aa	-0.041110672
189	0xbdcdf27e	-0.10056017
190	0xbd47a70c	-0.048743293
191	0x3c7763ca	0.015099475
192	0x3d36eac0	0.04465747
193	0xbd29780e	-0.04137426
194	0xbbc469ff	-0.005994081
195	0x3c9f9317	0.019479318
196	0xbd3972ba	-0.045275427
197	0xbbbb1244	-0.0057089645
198	0x3bd20b6d	0.0064100535
199	0xbc582759	-0.013192975
200	0x3da39bd4	0.07988706
201	0x3d2dec0b	0.042461436
202	0xbc4b8033	-0.012420702
203	0x3db27e1b	0.08715459
204	0xbd3f066d	-0.046636987
205	0xbcc14a98	-0.02359514
206	0xbb35a69b	-0.0027717713
207	0x3c2490ce	0.01004429
208	0xbd9745cf	-0.07386362
209	0x3b715e9a	0.0036830069
210	0xbbcdb490	-0.0062776282
211	0x3bbacd54	0.0057007466
212	0xbd2b9dc9	-0.041898523
213	0x3b5de008	0.0033855457
214	0xbcd97bea	-0.026548345
215	0xbbf2a5df	-0.0074050273
216	0xbc3ba48d	-0.011452806
217	0xbd413e7a	-0.047178723
218	0x3d9c3bbb	0.0762858
219	0x3d854291	0.06506837
220	0xbd8cb245	-0.0686994
221	0x3da42e2e	0.080166206
222	0x3d9e213e	0.07721184
223	0xbd404d29	-0.046948586
224	0xbc898573	-0.016787266
225	0x3c9bf968	0.019039825
226	0xbca0e277	-0.019639237
227	0x3828d667	4.0254e-05
228	0xbd8db08c	-0.06918439
229	0xbd1289e5	-0.035776038
230	0xbd95c266	-0.07312469
231	0xbdf3f9a0	-0.119128466
232	0xbd18c88c	-0.03730063
233	0xbd02933f	-0.031878706
234	0xbc908c7d	-0.017645115
235	0xbd967796	-0.07347028
236	0x3de4ea46	0.111774966
237	0x3cd03848	0.025417462
238	0x3cafaace	0.02144375
239	0xbcd16636	-0.025561433
240	0x3d702ca7	0.058636334
241	0xbd365873	-0.044517945
242	0xbca6a61a	-0.020342875
243	0x3c8ca16b	0.017166814
244	0x3c8a7a69	0.016904073
245	0xbcd097fc	-0.025463097
246	0x3c90e8e6	0.01768918
247	0x3cde690f	0.027149705
248	0xbcfb0da4	-0.030646153
249	0x3c6c27e5	0.0144138085
250	0xbd88b16a	-0.06674464
251	0x3d7918e3	0.06081475
252	0x3cd828e1	0.02638668
253	0xbcdc6cd9	-0.026907371
254	0xbd902272	-0.0703782
255	0xbd086661	-0.03330076

actor_mean.2.weight f4 [4, 256]
0	0x3dae2353	0.08502831
1	0xbcdfd75c	-0.027324371
2	0xbe289ecf	-0.1646683
3	0x3b3120ae	0.0027027535
4	0xbe1f8a32	-0.15580061
5	0x3cf8c408	0.030366912
6	0xbd277383	-0.040881645
7	0x3e313651	0.17305876
8	0xbdaf0734	-0.08546296
9	0x3d34d70f	0.04415041
10	0x3e0d2f8c	0.13787669
11	0x3d4495bc	0.04799436
12	0x3dc9a962	0.0984676
13	0xbc941ea1	-0.018081011
14	0xbd7345d7	-0.059392776
15	0xbd8304ba	-0.06397386
16	0x3befc95f	0.0073177065
17	0x3c57ad5f	0.0131638935
18	0x3eb4b6ab	0.35295615
19	0x3d532572	0.051549383
20	0x3d2ed4e5	0.0426835
21	0xbb818da2	-0.0039536515
22	0xbc3055f4	-0.01076268
23	0xbdaa9236	-0.08328669
24	0x3d7a0059	0.061035488
25	0xbb873a43	-0.0041268184
26	0x3d05d92b	0.03267781
27	0x3c5fca2a	0.0136590395
28	0xbd3d43a0	-0.04620707
29	0xbd1a4127	-0.03765979
30	0x3b18c3a5	0.0023309973
31	0x3cf076e0	0.029353559
32	0x3c41ecbb	0.011836226
33	0x3c28266d	0.010263068
34	0x3d1aa92c	0.03775899
35	0xbc86d107	-0.016457094
36	0x3e1e8197	0.15479122
37	0xbd265834	-0.04061146
38	0x3e1a01d9	0.15039767
39	0x3b102b58	0.002199849
40	0x3e3e9db0	0.1861484
41	0x3c9fea37	0.019520862
42	0xbd5f4b94	-0.054515436
43	0x3cabada6	0.020956825
44	0xbda9c2c6	-0.08289103
45	0x3c597292	0.013271945
46	0xbd384438	-0.044986933
47	0x3d09a007	0.03359988
48	0xbb51ae32	-0.0031994698
49	0xbdfb7339	-0.12277836
50	0xbe251b47	-0.16123687
51	0xbd7603a1	-0.060062055
52	0x3cae9b87	0.021314396
53	0xbcaba26d	-0.020951474
54	0xbcb4de3a	-0.022078622
55	0x3d7a39cf	0.061090287
56	0x3d9b606d	0.07586751
57	0xbe16c8e8	-0.14725077
58	0x3c6307e1	0.013856859
59	0x3e37339d	0.17890783
60	0x3d0a3dda	0.033750392
61	0x3e1fc0ba	0.15600863
62	0xbc21a0b3	-0.009864974
63	0xbde9974f	-0.11405813
64	0xbcae6d4a	-0.021292347
65	0x3d0f8deb	0.035047453
66	0xbc3ea0e8	-0.011635043
67	0x3c9efa95	0.019406596
68	0x3d105c22	0.035244115
69	0xbe1f46e4	-0.15554386
70	0xbc4f3e9f	-0.012649207
71	0x3ed7a6b1	0.42119363
72	0x3e1a51e4	0.15070301
73	0x3e3f77b6	0.1869801
74	0x3d290f4c	0.041274354
75	0x3d029540	0.031880617
76	0x3d92d4ef	0.0716952
77	0x3e95a58a	0.2922786
78	0x3ab0e45c	0.0013495791
79	0xbcecc58a	-0.028902788
80	0x3cebceaf	0.028785078
81	0x3e16e4da	0.14735737
82	0xbd80c079	-0.06286711
83	0x3e9c806d	0.3056673
84	0x3df30a5b	0.118672095
85	0xbcd48c45	-0.025945792
86	0xbd6d98ce	-0.058007054
87	0xbd30c3c3	-0.043155443
88	0xbd978859	-0.07399053
89	0x3c4616ac	0.012090366
90	0xbe3b64bf	-0.1830015
91	0xbca9b13c	-0.020714395
92	0x3ccfddc6	0.025374305
93	0xbab79170	-0.0014005136
94	0x3d99efb5	0.075164236
95	0x3f00820f	0.50198454
96	0xbd581873	-0.05275769
97	0x3bfa0f11	0.0076311906
98	0xbd2658b7	-0.04061195
99	0xbcf5b5df	-0.02999395
100	0xbd3b630e	-0.045748763
101	0xbd1de844	-0.038551584
102	0xbcd46a1d	-0.025929505
103	0x3e028f8f	0.12750076
104	0xbe1ad1ca	-0.1511909
105	0xbc207bd3	-0.009795147
106	0xbc59878c	-0.013276946
107	0x3a41e823	0.0007396957
108	0x3dd695a5	0.10477761
109	0xbd7e9836	-0.06215688
110	0xbc50e928	-0.012750901
111	0x3e01eca5	0.12687929
112	0xbcb6897b	-0.022282353
113	0xbb8649a3	-0.0040981336
114	0xbd49523d	-0.049150694
115	0x3c37c3c2	0.011216106
116	0x3df6053e	0.120127186
117	0x3c7b15f9	0.015325063
118	0x3d87ef41	0.06637431
119	0x3e30d158	0.17267358
120	0x3e39ad71	0.18132569
121	0x3e565427	0.20930539
122	0x3d360ee3	0.04444779
123	0x3b57b633	0.0032914996
124	0xbcccd21d	-0.025002534
125	0x3ed0b47b	0.40762696
126	0xbcb9b8a6	-0.022671055
127	0xbd25c31e	-0.04046928
128	0xbd022bd1	-0.031780068
129	0x3dbf0676	0.09327404
130	0x3db0b89d	0.08628962
131	0xbc76c772	-0.0150622
132	0xbcb3fdf3	-0.021971678
133	0x3e238121	0.15967228
134	0x3da360fd	0.079774834
135	0x3d3346e6	0.043768786
136	0x3d83b34e	0.06430684
137	0xbdc290c2	-0.095002666
138	0xbd8a86be	-0.06763981
139	0x3d124e44	0.03571917
140	0xbd015711	-0.031577174
141	0xbd0ae314	-0.033907965
142	0x3d2cade1	0.04215801
143	0xbc8849fa	-0.016636837
144	0x3db73674	0.08945933
145	0x3e3e57c3	0.18588166
146	0xbd1e52f3	-0.038653325
147	0x3d27c91e	0.040963285
148	0x3d7002d2	0.05859644
149	0xbd82272a	-0.06355126
150	0x3e43d65d	0.19124742
151	0x3d506d08	0.05088523
152	0xbe018c66	-0.12651214
153	0xbcacc896	-0.02109174
154	0xbd282c2e	-0.041057758
155	0xbddb6419	-0.107124515
156	0xbd03e02b	-0.032196205
157	0xbc274b98	-0.010210894
158	0x3e62bfb7	0.22143446
159	0x3e002649	0.12514605
160	0xbdaa2b23	-0.08309009
161	0xbdd17331	-0.10227049
162	0xb9daa0b2	-0.00041699928
163	0xbe39eaf1	-0.1815603
164	0x3e06d46f	0.13166974
165	0xbbe51347	-0.0069908234
166	0x3e2283af	0.15870546
167	0x3d46b681	0.048513893
168	0xbc439461	-0.011937232
169	0x3c8208eb	0.015873393
170	0xbd789abe	-0.06069445
171	0x3daa656a	0.083201244
172	0x3e0440dc	0.12915367
173	0x3e88a396	0.26687306
174	0xbd0b4661	-0.034002665
175	0x3b7f639d	0.0038969286
176	0x3db040d2	0.086061135
177	0x3b5b5997	0.0033470148
178	0xbd03661e	-0.03207981
179	0x3d9c02c9	0.07617719
180	0xbd21a667	-0.039465334
181	0x3e14fcbb	0.14549534
182	0x3d5625ae	0.052282028
183	0x3cc55d74	0.024092413
184	0x3d1464a5	0.036228795
185	0xbcf96481	-0.030443432
186	0xbce546f1	-0.027987929
187	0x3c824c9a	0.015905667
188	0x3ba1b8c9	0.004935358
189	0x3db3145e	0.08744119
190	0xbd5de979	-0.054177735
191	0xbb7cbb25	-0.0038563695
192	0x3d093324	0.033496037
193	0xbd40fea9	-0.047117863
194	0xbca5328f	-0.02016571
195	0xbb8e9986	-0.0043517975
196	0xbd0bb0f0	-0.034104288
197	0x3eb1dd60	0.34739208
198	0x3e0c6ba9	0.13712944
199	0x3c6095ce	0.013707591
200	0x3d204f43	0.03913809
201	0x3d547fe2	0.05187977
202	0x3d25eaf5	0.040507276
203	0xbdc405ac	-0.09571394
204	0xbcf3ed18	-0.029776141
205	0x3daf05c9	0.08546025
206	0xbd8cc430	-0.06873357
207	0xbcb4c6cb	-0.022067448
208	0xbd10fd41	-0.03539777
209	0x3d0ca83a	0.03434012
210	0xbd282903	-0.041054737
211	0x3e0ac301	0.1355095
212	0xbb31cf69	-0.0027131683
213	0x3dad1201	0.084506996
214	0xbc198972	-0.009371148
215	0xbc548f90	-0.012973681
216	0xbb52b68d	-0.0032152266
217	0xbcfa6113	-0.030563867
218	0x3e4123aa	0.18861261
219	0xbc765e6b	-0.015037159
220	0xbd93e83d	-0.0722203
221	0xbe2b575e	-0.16732547
222	0xbd92b3e5	-0.071632184
223	0x3dafbe00	0.085811615
224	0x3d52291a	0.05130873
225	0xbaf4729e	-0.0018649881
226	0xba4d2e9a	-0.00078270736
227	0xbcf132c2	-0.029443149
228	0xbd30937a	-0.043109395
229	0x3d285090	0.041092455
230	0x3ce3f620	0.027827322
231	0x3de84718	0.11341685
232	0x3df7e526	0.121042535
233	0xbd49c47d	-0.04925965
234	0xbd03d6da	-0.03218732
235	0x3cb7c671	0.022433491
236	0x3e288621	0.16457416
237	0xbd913eb5	-0.070920385
238	0x3c803af8	0.015653118
239	0x3df9129d	0.12161753
240	0x3cc71bf2	0.024305318
241	0x3d8a8b61	0.06764866
242	0xbcce59b3	-0.025189256
243	0x3d3d85e5	0.04627027
244	0x3c055daf	0.008140012
245	0xbca9290a	-0.020649452
246	0x3d2e72d9	0.042589996
247	0x3e6ae54d	0.22939034
248	0x3dc47cb1	0.095940955
249	0x3d0663d3	0.032810044
250	0xbc8c7d54	-0.017149605
251	0x3e162b79	0.14665021
252	0x3e0533c2	0.13008025
253	0xbd04fd91	-0.032468382
254	0xbca8b7da	-0.02059548
255	0x3d7f6172	0.06234879

actor_mean.2.bias f4 [4]
0	0xbb6ca528	-0.0036109183
1	0xbd132fba	-0.035934187
2	0x3dc91fb5	0.09820501
3	0xbd51767b	-0.051138382
