best_model.pth (torch, 591970 bytes, 13 tensors)

net.0.weight f4 [256, 24]
00000000: 0d1c b23e 7552 fe3c f0ba 913d e6c7 4f3e
00000010: bd00 0dbd 3738 823c 4f77 12be 9e34 3f3e
00000020: cd4a fb3d 7628 3ebe c0a4 3a3e 333a 163d
00000030: c832 643e 827e 3aba 0352 cd3d c532 ccbc
00000040: 15e7 263e 66b2 0f3d cd1f bcbd da23 5b3d
00000050: 2730 bebd 1a1a 9ebc 2458 82bd ca20 f43d
00000060: 46b1 54be d7d4 c43c f77b 80be 1cb5 bcbe
00000070: 9fad b3bc e2a2 44be d432 6e3e d9c4 3cbe
00000080: eed7 1c3e c88a 953d 9b2b 2bbd 84c7 2e3e
00000090: 335e 9b3d 3a62 c73d e47b 89bd 3c64 1fbe
000000a0: dac3 19bd 0e07 16be 899a 66bb cafc c33d
000000b0: ad60 043d a357 3cbe e5f3 313c 925a 073b
000000c0: 69b8 843e 7ae3 4cbe 27e7 3dbe 1441 073e
000000d0: aa4b 2cbe 5942 da3d f931 893d 6ef8 003e
000000e0: ed76 b13d fa01 cdbc c4e2 863d 5881 5fbe
000000f0: cc68 9a3d 241c 28be 7635 4e3d a568 a8bd
00000100: 9484 533d d53d 5fbd 76de 1f3e 423a 0abe
00000110: 6d70 0bbe 5912 08be 0c48 493e 5e10 723d
00000120: 581c b43e 1ce0 72be 3e0b 66bd 0d7c 80be
00000130: ebb4 f2bd 0c0a 493b b3be 773d 59fd 3d3e
00000140: e14f 57bd f2aa 5dbe a8c0 fc3d 0d53 02be
00000150: 5780 113e 001f a4bd 23dc 1d3e 6f71 f2bd
00000160: 28f7 76bd 9293 d73d 5bbc af3d 5734 29bc
00000170: 7c3c 273e fce2 393e 56ae cabd 24a5 e8bd
00000180: e50b 203e 310d afbd dd0d fabc cac9 44be
00000190: c197 95bd 9c9e 1f3d 841a b5bc 6378 27be
000001a0: 0f57 c7ba 52e7 16be 0a66 20be 45b9 03be
000001b0: a882 2fbe 1d2d dcbd bbb5 2d3e e0f9 873b
000001c0: 4335 e93c dc43 66be 34a7 2cbe 9fd6 d1bd
000001d0: 9c50 2dbb 6481 5bbe 0b01 f9bd 8c56 21be
000001e0: 0b63 173d 7638 0d3e c86f 5fbe 5578 e8be
000001f0: d7a1 47be 0297 d4bd 4387 a5bc 7ef8 4fbe
00000200: a1e1 4a3e 587c 463a ff1a 5f3e 43ee a43d
00000210: 558e 2fbe e8be 2a3e 77f9 90bd 8a2e c2bd
00000220: df04 40be 8096 62be 2b85 213d ebcc 84bd
00000230: c38e 753d 0307 42be e828 013e 9be8 02be
00000240: c06f 1ebe 016e cebd 0832 a73e 90d5 343f
00000250: 4487 5e3e 8eba 67be e82c c23d 9eb2 e4bd
00000260: d6b9 ba3b 4883 21be 1c3e 5f3e 62a9 23be
00000270: 9205 f13d b301 313d 4b76 093e b0ef 1ebd
00000280: 8123 853e be0d f73d 555c d23d 184d d3bd
00000290: 7a7f 253e 349e 463d ecef abbb 97db 433e
000002a0: 633e 5abd 0057 edbd 571c 47be 2fd3 ecbb
000002b0: 3014 093e 5c40 c73c c578 ebbc 8305 cebd
000002c0: 5c54 72be 5629 063e 8f4f 383e 90f1 a0be
000002d0: 2fdc 043d 1161 ea3d 47ad 6b3d a90f 5dbd
000002e0: b3c2 fc3d 8e21 f93d 8905 b43d 725a ddbc
000002f0: 783e 39bd aff1 133d 5aa8 1fbb 7b6b 3bbd
00000300: 4d56 3a3e ba6f af3e e51b 87bd 1760 b5be
00000310: 136c f1bc 4013 223d 9293 113e e61a 7d3c
00000320: e17b 28be adf0 39bd f2e7 503e bd92 173e
00000330: c802 b3bd 342a 17be 542c edbd d89c 34be
00000340: a9c0 7cbd dd72 953d 2689 083e 532b c63d
00000350: 5248 36be af17 fabd 1e5d 18bd d711 663e
00000360: b3e4 b53d f51d 463d 4398 00bc b401 cfbe
00000370: b578 41be 4e6c 5f3e 32e7 c7bd d317 e1bc
00000380: fec3 55be 62ad 283e 35a6 1f3e 6d7e a83d
00000390: 3e62 33be a48d febd cc2e 28be fbbd 1a3e
000003a0: a4d5 c13d ed22 2b3e d9c4 cd3d 9199 333d
000003b0: ad4e 09bc 7b50 28be cf6f 44be 5398 24be
000003c0: df56 743d 093f 0bbe f706 14be ab89 033d
000003d0: 392a 3cbd f8b0 37be a061 07be b475 213e
000003e0: db7c 2abc 89ef 463e b242 02be 40ab 87be
000003f0: b742 ca3c 3a9f 51bd 6d59 2cbd 4c72 30be
0.34787026 0.031045178 0.071157336 0.20291099 -0.034424532 0.015895946 -0.14303325 0.18672416
0.122701265 -0.18570122 0.1822691 0.036676597 0.22284997 -0.0007114188 0.10025408 -0.024926553
0.16299088 0.035082243 -0.09185753 0.053500988 -0.09286528 -0.019299556 -0.06364468 0.119203165
-0.2077075 0.024027271 -0.25094578 -0.36856925 -0.021933375 -0.1920276 0.23261577 -0.18434466
0.15316746 0.07301861 -0.041789632 0.17068297 0.075863265 0.09735532 -0.067130834 -0.1556558
-0.037540294 -0.14651129 -0.0035187325 0.095697 0.03231876 -0.18392806 0.010861372 0.002065335
0.25921944 -0.2000865 -0.18545209 0.13208419 -0.16825739 0.10657186 0.06698985 0.12594768
0.086652614 -0.025025357 0.06586221 -0.21826684 0.0753952 -0.16416985 0.050343953 -0.08223084
0.05164011 -0.054502327 0.15612206 -0.13498786 -0.13617106 -0.13288249 0.1965639 0.05909764
0.35177875 -0.23718303 -0.056163065 -0.25094643 -0.118509136 0.0030676154 0.0604846 0.18553676
-0.052566413 -0.21647242 0.12341434 -0.12726994 0.14209114 -0.08013725 0.15416007 -0.11838042
-0.0602943 0.10526194 0.08580848 -0.01032742 0.16331667 0.18152994 -0.09896533 -0.11359623
0.15629537 -0.08547438 -0.030524189 -0.19217601 -0.073043354 0.03896962 -0.02210737 -0.16354518
-0.0015208441 -0.14736679 -0.15663925 -0.12863643 -0.17139685 -0.10750792 0.16963856 0.0041496605
0.02846778 -0.22486824 -0.16860658 -0.10246014 -0.0026445752 -0.21436077 -0.12158402 -0.15755671
0.03695969 0.1379107 -0.21819985 -0.45404306 -0.19495331 -0.10380365 -0.0202061 -0.20309636
0.19812633 0.0007571629 0.21787642 0.08053257 -0.17144139 0.16674387 -0.07078832 -0.09481533
-0.18751858 -0.22127724 0.03943364 -0.064843975 0.0599506 -0.18947987 0.12613261 -0.12784044
-0.15472317 -0.10079575 0.32655358 0.7063837 0.21731287 -0.22629759 0.094812214 -0.11166881
0.005698423 -0.15772736 0.21801037 -0.15982583 0.117686406 0.04321451 0.13424031 -0.038802803
0.2600365 0.12063168 0.10271517 -0.10317439 0.1616191 0.048490718 -0.005247107 0.19126736
-0.053282153 -0.115888596 -0.19444405 -0.0072273235 0.13386607 0.024322681 -0.02874411 -0.10059645
-0.23664993 0.13101706 0.17999099 -0.31434298 0.032436546 0.11444295 0.057538297 -0.053970013
0.123418234 0.12164603 0.08790118 -0.027020667 -0.04522559 0.03611916 -0.002436182 -0.0457568
0.18196984 0.34264928 -0.06597117 -0.35424873 -0.02947048 0.03956914 0.1421645 0.015448308
-0.16453506 -0.045395542 0.2040098 0.1480207 -0.08740765 -0.14762193 -0.115807205 -0.17637956
-0.061707173 0.07297299 0.13333568 0.09676232 -0.17801026 -0.122115485 -0.03719818 0.22467743
0.088815115 0.048368413 -0.007848802 -0.40430987 -0.18893702 0.21818659 -0.09760894 -0.02747718
-0.20875546 0.1647239 0.15590747 0.08227239 -0.17517945 -0.124293596 -0.16424102 0.15111534
0.09464577 0.16712542 0.10047311 0.043847624 -0.008380574 -0.16436951 -0.19183277 -0.16073732
0.05965316 -0.13598265 -0.14455782 0.032113712 -0.045938704 -0.17938602 -0.13220835 0.15767556
-0.010405744 0.19427313 -0.12720755 -0.2649784 0.024690015 -0.05117724 -0.04207747 -0.17231101

net.0.bias f4 [256]
00000000: 554f 3ebe 9622 563c 9037 65bd c9bb 123e
00000010: 069e 73be 835b 0d3d 3eae c43d 548c 293d
00000020: 83e3 c4bc 843f 6a3e 7cfe f2bd 5f77 643e
00000030: b167 ecbb d3d9 013e 95e1 c13d 0a87 673c
00000040: 382d c63d afa0 cdbc ce78 54be 5a8b e03c
00000050: 2914 143e dbe7 973d 18a4 e3bc 2d02 f7bd
00000060: c42a 37bc fee7 bc3d 7af8 20be 87e3 113e
00000070: fdbd 36bd 0ee9 1b3d 48f1 dd3d f72a ef3d
00000080: af31 81bd f82c 993d 9838 133e d12a f73c
00000090: 6be1 01be 4764 833d 1bff dfbd 5d65 13bd
000000a0: a13f 14be c79f 3c3e e090 673e 4831 49be
000000b0: 02cb 38bd 9f7a debd f135 e4bd 2a0f 5c3e
000000c0: 55fc 11be 411a f2bd b36e 16be d7ba 063d
000000d0: 9e0b 15be 40b5 22be a76b 723e 8353 e43d
000000e0: db0f 883d 97ce 283e 111e 4f3d 1d3c 1f3d
000000f0: 5367 3abe 1feb b43d 9996 16be 48ed 073d
00000100: 7ca1 e9bd 7d70 31bd 2a29 b0bd 1e19 01be
00000110: 505c 03be 4450 0fbe 35f5 b7bd b4c6 28be
00000120: 3ae5 a83d 1eda d23c f23f 03be 16e9 42be
00000130: 4521 05be cf47 513d eabc 5a3e 850e 9ebd
00000140: 0ecd bb3d def7 d1bd e156 a0bc 53df 293c
00000150: e8a7 5fbe a041 b93a fb62 7f3d 954a a23d
00000160: 9206 3abe 8390 abbd d196 0d3d b96d 383d
00000170: 08d3 d2ba ad98 d5bd fe8d 023e f711 03be
00000180: 344c 71bd dee0 273e a60b 71bd 624b 7abd
00000190: 13ce 20be 1cf3 ee3d 9bed c5bc 6afe e33d
000001a0: 806d d13c ee66 0fbe b0dc 14be d7db ed3d
000001b0: e1ce a7bd 5ffd 97bd f13c 3d3e 2aca 84bd
000001c0: 3195 243d 416f b5bd eafa 7bbc 389a 2d3d
000001d0: 1a43 47be 3954 47be 701b 553d d0d6 eebd
000001e0: 8525 163e 4b3f 4abd 8be3 05be b535 f63c
000001f0: 355b 0dbd 6e63 f53c d7dd 7b3d 9b7c 5abd
00000200: 0cbc 2ebe 2510 413e b7c6 323e 011e 143e
00000210: 24d9 febb 89c8 43bc f515 86bc 8a41 49bd
00000220: 6b99 4cbe b482 6dbc 5daa e53d 738b 883d
00000230: 8ace 123d bc12 c43d e20c 1b3d d0b8 0abd
00000240: 127d f33d b4e0 323c d010 0abd dd6f cbbc
00000250: 2af2 83bd b6b1 45be 99a9 9bbc a9ca 2d3e
00000260: 6f7c 833d 3263 003d 6b11 cdbd 1fc2 6fbd
00000270: c6ac 81bd 7fc5 ad3d 97bc 153d cbb2 96bd
00000280: 6c5a 57bb a80b 04bd 7a02 87bc 02d8 e83d
00000290: 9b10 a1bd 5638 e53d d51a 08be 3bcb 2a3e
000002a0: 6608 4e3d a76e 223d d2a2 91bd f5ab bcbb
000002b0: c482 0bbe a7b2 14be 231b d23d c6f3 473e
000002c0: e88f bf3d 4760 ddbd c29b 1a3d f6a4 fd3c
000002d0: 355f 57be 70bd 18be 606d 833d dfbb 0bbd
000002e0: a979 30bd 1cdb 5abd 346d f43d 0d90 97bd
000002f0: 3830 e6bd 65e1 e13d b6ee 4d3e ccd7 233e
00000300: a52b 893d 83dc 123c a8d2 fd3d ecf0 373e
00000310: a7fe a43c a2ea 7b3d e637 b33d 7681 a93d
00000320: 87b5 e73d 79cf f93c 573a 3dbe d8e7 e7bd
00000330: 168f 45be 0a39 b2bd aef5 453c d19d 62bd
00000340: 39ec 6dbe 93b5 22be e840 993d 42b3 04bd
00000350: 49fa 0dbd 4c5d 17bb 6afb 69bd e111 0cbe
00000360: 138d 65bd 8f53 95bd a747 58be 6f26 11be
00000370: 65b1 5bbd 5dc7 c33d d867 033e d56d 1bbc
00000380: cb59 eb3d d485 d13d c3a7 b7bd 0794 bfbd
00000390: 8618 8cbd feb0 50be 192d dabc 8c11 073d
000003a0: 06f2 0dbe 67ff 19bd 79e1 1fbe 6d5d 7c3e
000003b0: ec5d 393e b93e fdbc 790c 273e 5eba dbbd
000003c0: 65cc 0d3e b948 57bd d3fb 883d 61db ee3d
000003d0: 611f bc3d 34cd 443d ac6b 59bd b880 9b3d
000003e0: 1878 3c3e 120a 76bd 1606 96bd f6eb b23d
000003f0: fa01 d8bd 8ef3 d0bd 1833 85bd 691b 273e
-0.1858495 0.013069769 -0.05596119 0.14329447 -0.2379075 0.0345111 0.096035466 0.041393593
-0.024034267 0.22875792 -0.11864945 0.22311161 -0.0072145094 0.1268075 0.094668545 0.014131317
0.096765935 -0.025101034 -0.20749208 0.027410198 0.14460815 0.0741727 -0.027788207 -0.12060962
-0.01117963 0.092239365 -0.15719786 0.14246951 -0.04461478 0.038064055 0.10837036 0.11678117
-0.063083045 0.0747928 0.14377058 0.030171784 -0.12683646 0.06415611 -0.109373294 -0.03598534
-0.14477398 0.18420325 0.22613859 -0.19647706 -0.04511548 -0.10863232 -0.11143101 0.2149016
-0.14256413 -0.11821414 -0.14690666 0.032893028 -0.14555213 -0.15889454 0.23673879 0.11148741
0.06643649 0.16485058 0.050565783 0.038875688 -0.18203478 0.08833908 -0.14705886 0.033185273
-0.11407754 -0.043320168 -0.086016014 -0.12607238 -0.12828183 -0.13995463 -0.089823164 -0.16482049
0.082468465 0.025738772 -0.12817362 -0.19034228 -0.13000973 0.051093873 0.21361127 -0.07717613
0.091699705 -0.10252355 -0.019572677 0.010368186 -0.21841395 0.0014133938 0.062350255 0.07924382
-0.18166569 -0.08377173 0.034567658 0.045026515 -0.0016084621 -0.10429511 0.12749478 -0.12799822
-0.058910564 0.16394374 -0.058849 -0.061107047 -0.15703611 0.11667463 -0.02416115 0.1113251
0.025564909 -0.14004108 -0.1453731 0.11614197 -0.08193756 -0.074213736 0.18480279 -0.06483872
0.040181343 -0.088591106 -0.015379647 0.042383403 -0.19459191 -0.19465722 0.05202812 -0.11662066
0.1466275 -0.049376767 -0.13075082 0.030054906 -0.03451081 0.029954638 0.06149086 -0.05334149
-0.17063922 0.18853815 0.17458616 0.1446457 -0.00777735 -0.011949667 -0.016367892 -0.04913477
-0.199804 -0.014496494 0.11214135 0.06667223 0.035841502 0.09573886 0.037854083 -0.033867657
0.1188909 0.010917831 -0.03370744 -0.024833614 -0.064426735 -0.19306073 -0.019001769 0.1697184
0.06420218 0.0313446 -0.10013088 -0.058534738 -0.06331782 0.08484935 0.036556806 -0.07358321
-0.0032860292 -0.03223768 -0.016480673 0.11369325 -0.07864495 0.11192386 -0.13291486 0.16679089
0.050300978 0.039656308 -0.07111134 -0.0057578036 -0.13624102 -0.14521275 0.10259082 0.19526586
0.0935362 -0.10809379 0.0377462 0.030962449 -0.21032412 -0.14916015 0.06417346 -0.034114715
-0.043084774 -0.053431615 0.11934891 -0.074005224 -0.11239666 0.11029319 0.20110592 0.16000289
0.06697778 0.008963707 0.12393695 0.17962998 0.020140959 0.06150306 0.08750896 0.08276646
0.113139205 0.030494438 -0.18479286 -0.113235176 -0.19292864 -0.087022856 0.0120825 -0.055326287
-0.23234643 -0.15889578 0.07483083 -0.032397516 -0.03466252 -0.002309638 -0.057124533 -0.13678695
-0.056042742 -0.07291328 -0.21121083 -0.14174818 -0.053635973 0.0955951 0.12832582 -0.009486635
0.11491736 0.10230604 -0.08967545 -0.09354406 -0.06840615 -0.20380017 -0.026632832 0.03297572
-0.13861856 -0.037597086 -0.15613355 0.24645014 0.18102235 -0.030913698 0.16313352 -0.10728906
0.13847502 -0.052559588 0.06688657 0.11662937 0.091856726 0.04804726 -0.0530812 0.075929105
0.18405187 -0.060068198 -0.073253796 0.08736412 -0.10547252 -0.10202704 -0.06503886 0.1631905

net.2.weight f4 [256, 256]
00000000: 333b b1bc bc9a 67bd 837d d83c d246 89bd
00000010: d813 a03c 2d01 12bd bdb1 0bbc 5f1a c3bc
00000020: f976 b2bd ec90 96bd 9587 803d ab4a 40bd
00000030: fab5 193c d089 f0bc 4c80 55bc e497 e1bd
00000040: 9fb2 8cbd d3b8 07bd 4298 21bd ec76 e43c
00000050: 371c 9dbd c5f0 81bc e219 23bd b8a5 a6bd
00000060: ef7e 863d c21a bd3c d300 003d 9e5e c2bc
00000070: b8d9 5a3c f943 91bd c648 c7bd 48dd 863d
00000080: c671 11bc b635 09bc fe1f 8dbb 63c5 ae3c
00000090: e762 da3c fd85 69bb 86b6 a33c 5c20 65bd
000000a0: 9790 a73c 8094 203d 39c8 4abd 9531 cb3b
000000b0: 6678 4d39 c6db d7bc beab 663c 7954 00bd
000000c0: d90b 86bd ec72 0cbd d7b4 e7bd 3cae 3ebc
000000d0: bb99 a23d aa62 f2bd 7a79 c83c fcd6 83bc
000000e0: dc97 bc3b 438f adbd 0c02 283d 25db 71bd
000000f0: 1def 553d 9c62 4fbc d31a 80bc 7b36 ed3a
00000100: a20c 7e3d 9c6f 06bd 60f2 59bb 6c93 b6bd
00000110: 9ebd 5abd ebef adbb 4685 b53c beca 983d
00000120: c128 89bd 764e 39bc 5d30 463d 76d8 95bd
00000130: 6044 aabc fe21 4bbd 10e2 b4bc 908f 6ebd
00000140: 83b6 7dbc 7e2f 053d 553e 64bd efd1 fdbc
00000150: 511d 173c ca05 253d 756f 71bd dcf6 2bbd
00000160: a790 0a3d 510d c93c 01f6 2338 dd35 64bd
00000170: 6f1a 93bd 75c1 ed3b 66ab 0d3b a55d 163d
00000180: 2631 b53c 3e3a ffbb f578 3ebc 6565 c9bc
00000190: 9ee5 25bd b842 d43c 6548 083d caf2 54bd
000001a0: 97ab e6bd 950e ee3c 75ae aebd d47e f83c
000001b0: 923d 33bd 1eae 33bd f7e1 9c3d b993 d8bc
000001c0: 618b 583b 97be 8ebd a1a4 52bc 247a 71bc
000001d0: c483 9abc 2ed4 203d ff52 6dbd f618 413c
000001e0: 3588 27bd 5d22 21bc 32ab 2b3d c0e5 2cbd
000001f0: f7d3 e5bc 8c88 123c d9e0 94bc e149 fd3c
00000200: 64ad c83c e27b 48bc 30a0 803c 7e28 afbd
00000210: 3a0a fdbc 1785 24bd 1927 1b3c bc21 03bd
00000220: 7751 a33c f72c 613d 03e1 37bb 42c8 193d
00000230: 78bf 8c3b a1ae 7e3c 84b0 193c 7404 81bd
00000240: c922 d3bc 4ee8 40bc e0fd aabd 06b8 cebc
00000250: 9364 dcbd c9a3 15bd da0a 53bd 888b c13a
00000260: 234b e53c ad95 e5bd 2485 88bd 8ea2 243d
00000270: 8b65 85bd fc0e b0bd 7b2b 203c f4a7 9bbd
00000280: 76de 8cbd a92e e23c 92d3 933c 055d ddbd
00000290: 4331 76bc 38fd 2abd 0c50 103d 5a21 e33c
000002a0: 41bf 3fbd 458a c0bc 11a7 6cbd 50ac 363d
000002b0: 049c 4ebd bdc6 523d cada 77bd 0071 313d
000002c0: b276 2e3d fe36 373a 6fdf b8bc 8f2a 0bbd
000002d0: 1288 50bd 04de de3b 47b9 703c 4598 8cbd
000002e0: 2bf4 b1bb 3f79 d0bb 2282 e03c d84d 22bd
000002f0: 824a 573c c618 c5bd 328a 73bd 48f9 f63b
00000300: 20fb 7a3c 4759 52bd 0fc2 32bb f9b5 1fbd
00000310: faaa 80bd 6c9a b5bc 0cf7 193d 3e8e a6bd
00000320: a089 4a3d 028e 9dbd f437 1abd 3637 c0bc
00000330: a49f 84bd 3323 483d 94fb 8fbd 6196 92bd
00000340: d5d5 d6bc f2cb c43d 6533 6a3d f6ce 08bd
00000350: 8c8d b9bd 1ddc 603d 5f92 3fbd 950c eeba
00000360: 8ced 393d 11e0 a23d afd7 3bbc a5a8 d63c
00000370: 11bd bcbc 8719 7bbc ff4d 0cbe ad5d 5ebd
00000380: 5005 69bd d3aa 853d 753d 0c3d f436 2bbd
00000390: f979 bcbc 9c4d a23c 35d7 1abd d1f8 52bd
000003a0: 3598 243d 3ed7 e4bc 9447 973c 544e a53d
000003b0: 61d4 4b3d 266c 94bd e430 443d 2b78 c6bc
000003c0: d683 843b 9b07 80bb ba72 cabd 41b6 3bbc
000003d0: a8fb 9fbd 5e30 c7bd 10e1 46bd 2fd9 a5ba
000003e0: 84ee 00bd d8e5 41bc 4e2f 2b3d 934a 433d
000003f0: 202f 12bd 6d26 4ebd f2f2 1bbd 8a61 853c
-0.021634674 -0.05654405 0.026427036 -0.06702961 0.019540712 -0.035645653 -0.008526263 -0.023816286
-0.087140985 -0.073518604 0.0627586 -0.04694621 0.0093817655 -0.02936259 -0.013031077 -0.11015299
-0.06870007 -0.033135246 -0.039451845 0.027888738 -0.07671397 -0.015861878 -0.039819606 -0.08137077
0.065671794 0.023084048 0.031250786 -0.023726758 0.013357572 -0.07093043 -0.09730677 0.06585175
-0.008877223 -0.008374622 -0.0043067923 0.021334356 0.026658488 -0.0035632842 0.019984495 -0.055939063
0.020454688 0.03920412 -0.049507353 0.006200979 0.00019595175 -0.026349913 0.0140790325 -0.03133056
-0.065452285 -0.034289286 -0.11313789 -0.01163822 0.07939478 -0.11835225 0.024471987 -0.016093723
0.0057554077 -0.08474591 0.041017577 -0.059046883 0.05222999 -0.012657788 -0.01563779 0.0018097901
0.062023766 -0.032821283 -0.003325604 -0.08914837 -0.05340349 -0.0053081415 0.022158276 0.07460545
-0.06697226 -0.01131021 0.048385967 -0.07316677 -0.020784557 -0.049592964 -0.022080451 -0.05824238
-0.015485409 0.032515995 -0.055723507 -0.030983893 0.009223298 0.040288724 -0.058944184 -0.04198347
0.033829357 0.024542483 3.9091337e-05 -0.05571543 -0.07182776 0.007255728 0.0021617054 0.0367104
0.022118162 -0.0077889254 -0.011625518 -0.024584481 -0.040502183 0.02591072 0.033272166 -0.051989354
-0.11263197 0.029059688 -0.08529369 0.030333914 -0.04375989 -0.043867223 0.07660287 -0.026437627
0.003304206 -0.06969946 -0.012856633 -0.014738593 -0.018861659 0.03926485 -0.05794048 0.011785736
-0.04090138 -0.009834853 0.04191131 -0.042211294 -0.028055174 0.008943688 -0.018173622 0.030919017
0.024496742 -0.012236567 0.015701383 -0.08552645 -0.030888665 -0.040165987 0.009469771 -0.032014593
0.019936306 0.054974522 -0.0028057701 0.037544496 0.004295286 0.015544564 0.0093804635 -0.062996775
-0.025773423 -0.011774136 -0.08349204 -0.025234234 -0.107613705 -0.03653315 -0.05152402 0.0014766315
0.02798993 -0.11210189 -0.066660196 0.040194087 -0.065135084 -0.08596608 0.009775992 -0.07600394
-0.068783686 0.02761014 0.01804522 -0.10808758 -0.015026393 -0.041745394 0.03523259 0.027725864
-0.046813253 -0.023503432 -0.057776514 0.044597924 -0.050441757 0.051459063 -0.060511388 0.043320656
0.042593665 0.00069890905 -0.022567479 -0.033976134 -0.050911017 0.0068013687 0.014692611 -0.068649806
-0.0054307184 -0.00636211 0.027405802 -0.03962502 0.013140323 -0.09623866 -0.059457965 0.007537041
0.015318662 -0.051354673 -0.0027276312 -0.038991902 -0.06282611 -0.02216836 0.037589118 -0.08132599
0.049447656 -0.076931015 -0.037651017 -0.023463827 -0.064757615 0.048861694 -0.070304066 -0.07157589
-0.02622501 0.09609212 0.05717792 -0.0334005 -0.09060201 0.054897416 -0.04677045 -0.0018161709
0.045392558 0.079528935 -0.011464997 0.026203463 -0.023039373 -0.01532591 -0.13701628 -0.054288555
-0.056889832 0.06526723 0.034238297 -0.041800454 -0.02300738 0.019812398 -0.037802894 -0.05150682
0.04018422 -0.027934667 0.018466748 0.080715805 0.049763087 -0.0724719 0.04789819 -0.024227222
0.0040440364 -0.0039071566 -0.098851636 -0.011457027 -0.078116715 -0.09726022 -0.04855448 -0.0012653227
-0.031477466 -0.011834584 0.04179316 0.04767854 -0.035689473 -0.050329614 -0.038073488 0.016281862

net.2.bias f4 [256]
00000000: 2155 23bd 6d56 69bd e162 543d 205d 7e3c
00000010: c87f bf3d d1db 813d ff27 0ebd 59fd 7abd
00000020: ca22 7d3d fd21 ea3c 579d f1bc e59d 9cbd
00000030: e9c8 983d ab24 22bd a0b7 9cbc e278 eabc
00000040: c4f5 16bd 76f1 85bb a89a 5e3b 3270 62bc
00000050: 557b 223c c97b 74bd 8359 82bc 282e 7d3d
00000060: 5ac5 583d d00c d5bb 9b40 01bc 14f9 96bd
00000070: 49b0 ed3c c05e 5f3d 2ae4 6d3c 82a2 2fbd
00000080: bcb0 81bd 3318 1cbc de24 8abd ddab 513d
00000090: 02dd 09bd 3d8f 19bd b258 d93d fb25 4ebd
000000a0: f32d 363c 47fc 69bd d1be 84bd a657 923d
000000b0: 65d1 e0ba 7bec 903b b6cd 80bb b611 213c
000000c0: 59bc 82bd 83ba d2bc f868 87bd 8c1e 8b3d
000000d0: 2de2 32bc 85e2 2b3c 6fc1 4fbb 85e5 63bd
000000e0: e310 533d 94bd 93bd 02d0 bcbc e1a4 a7bc
000000f0: 7b8c e03c e410 8a3d 566b efbc 8e42 603d
00000100: ac0a 423d d2b8 85bd fbc9 12bd 0ee3 783c
00000110: aff0 a8bd 28ec 903d d073 5bbd 9fb9 a7bd
00000120: 9a04 e4bc 81ca 403d 5d2c 8f3b 017c 613d
00000130: 0bba 4b3d 24c8 9e3c 0c96 a4bc 720a 4d3b
00000140: 7cee 2abc b289 5fbd a619 f83c b81e c6bc
00000150: f5a9 1a3d 3957 ac3b 5ac5 82bd d775 9ebd
00000160: 0b46 ce3d ca00 ba3b 9aa5 763c b8d5 c63d
00000170: 5150 85bc 5294 4a3d 6a9d f9bb 22d9 adbb
00000180: e015 94bc 943a 3abc bf87 8dbc 9e71 263c
00000190: 1aac bf3d 5780 4bbd b096 2a3d 1bbf 28bd
000001a0: 16d8 993c eed1 94bd ccaf 8fbd 9d26 943c
000001b0: 2d7f 0fbc 5b47 edbc 302b 1a3d bee7 79bc
000001c0: 86fd 62bd 2631 963d 2311 30bb 7bfa edbc
000001d0: 791a bfbb 6af0 263c e708 39bc 0b65 363d
000001e0: 93fc a6bb 3912 74bd 0f33 593d 18ea 1c3c
000001f0: c85e 4abd 6394 2f3d 4dc8 1c3c 1c53 843c
00000200: c0da a7bb fedb ac3c 2d16 b13d 5bf2 c63c
00000210: 3ce1 eabc a5d2 1a3d 4da0 d6ba 07b7 e2bc
00000220: f59c 3e3d 18ec 8f3d dac1 01bc 9680 97bd
00000230: 9bf4 00bd 6c28 393d 7a01 8a3d d1ee 01bd
00000240: 0d7a 21bc d566 3d3d f2d6 bebc 1d64 583d
00000250: 5282 3abd 01ca a33d 7cd7 a0bc 50ff b73c
00000260: 64a7 cebd a41e 223c c5ea 6e3d b43c b13b
00000270: f512 1e3d e335 1abd 62cd 6a3c c132 583c
00000280: 801f 2f3d 3670 2e3d 5b6a 91bd e461 97bd
00000290: 4b3e d0bc 8c0a 5abc ebc7 553d 50d6 5a3c
000002a0: 93ac 91bd dca9 0e3d 3d20 56bd 341a 8fbc
000002b0: 003f a8bd bb28 59bd 18eb 023d a569 133d
000002c0: 53ec 2cbd 236e d33c 1930 3b3d db4c 2c3d
000002d0: 3113 c03b c91a 35bd 54ed 193d d962 713d
000002e0: 3f64 973d b45e aabd 2d6c 10bd 9aed 70bc
000002f0: 11e7 ad3d dcf6 ba3b 00e3 823c 0c01 12bc
00000300: 02bd 9e3d 111d bc3c 0c0f 3bba ad96 33bc
00000310: 5341 38bb ef4f 82bc 08f0 533d 5628 633c
00000320: f49d 873d 002b 293d 4a9b b8bc 3422 6dbd
00000330: 6298 46bd f383 83bd b3f9 7e3c b462 92bc
00000340: 4a45 fc3c 0542 4bbd 4377 73bb d699 babc
00000350: badf 7cbb cdc8 913c 3bb2 a53c 9336 f4bc
00000360: 143f 623d 303f bd3c d15c 693c 61b6 83bb
00000370: 1cec 733c 0483 acbc a4bd fabc 0249 7d3d
00000380: 36f8 04bd 83cd 853c d640 823c d0dc 5b3d
00000390: 27d6 bc3d 6d20 f4bb b0e2 ad3c 12f9 a9bd
000003a0: 4188 87bd f846 003c 61ee 1c3d b1a7 85bd
000003b0: eeca 653b 00ad 823d 062e c6bc 7441 363d
000003c0: 9f5f 2a3d 2f1c 9b3c 5630 983b 9c8d 1f3d
000003d0: f64f b13b cd23 1ebd 082f bbbc fb11 ba3d
000003e0: 8d52 80bd 5e3b 123d 4da5 443d 1892 6dbd
000003f0: 8af6 673d 2f43 44bc 1efb 213d cf59 c6bc
-0.039876107 -0.056967188 0.05185211 0.015525132 0.09350544 0.06340755 -0.034706112 -0.061276767
0.061800756 0.02858066 -0.02949397 -0.076473035 0.074601956 -0.03958575 -0.019130528 -0.028622095
-0.036855474 -0.0040876223 0.0033966694 -0.013820695 0.0099171 -0.059688363 -0.015911823 0.061811596
0.052922584 -0.0065017715 -0.007888938 -0.07371727 0.029014723 0.05453372 0.014519731 -0.04287959
-0.063325375 -0.009527254 -0.06745313 0.051189292 -0.033658035 -0.03749012 0.106126204 -0.05032919
0.011119354 -0.057125356 -0.06481708 0.07145624 -0.0017152248 0.004422722 -0.0039307727 0.009830883
-0.06383581 -0.025723701 -0.06611818 0.06792936 -0.010918182 0.010491018 -0.0031700989 -0.05563881
0.051529776 -0.072138935 -0.023048405 -0.020464363 0.027410736 0.06741503 -0.029225986 0.05475097
0.04737346 -0.06529392 -0.035837155 0.015190853 -0.08249032 0.07076293 -0.053577244 -0.08189701
-0.027834225 0.047068123 0.004369302 0.0550499 0.04973797 0.019382544 -0.02009108 0.0031286743
-0.010432836 -0.054574676 0.030285668 -0.02418457 0.03775974 0.005259421 -0.06385298 -0.0773732
0.100719534 0.0056763636 0.015054131 0.09708732 -0.01627365 0.049457856 -0.007617642 -0.0053054253
-0.018076837 -0.011366505 -0.017276643 0.010158924 0.09358998 -0.04968294 0.041647613 -0.041197877
0.018779796 -0.072666034 -0.070159525 0.018084818 -0.008758348 -0.028964689 0.037638843 -0.015253006
-0.05541756 0.07333593 -0.0026865683 -0.029050102 -0.005832013 0.010189155 -0.011293626 0.044529956
-0.005096027 -0.05958769 0.05302721 0.009577297 -0.049406797 0.042866122 0.00956924 0.01615291
-0.0051225126 0.021100994 0.08646808 0.024285486 -0.028671853 0.037798543 -0.0016374678 -0.027675165
0.046536405 0.07027453 -0.007919753 -0.07397573 -0.031483274 0.045204565 0.06738563 -0.031721894
-0.009855759 0.046240646 -0.023295853 0.05282985 -0.04553444 0.079975136 -0.019634001 0.02246061
-0.10090521 0.009895001 0.058329362 0.0054088477 0.038592298 -0.037649047 0.014331194 0.013195694
0.04275465 0.04258748 -0.07100364 -0.07391718 -0.025420329 -0.013308179 0.05219261 0.01335676
-0.07112994 0.03482996 -0.05227684 -0.01746855 -0.08215141 -0.05301736 0.031962484 0.035989422
-0.042217564 0.025809353 0.045700166 0.042065483 0.005861663 -0.044214997 0.03757985 0.05893216
0.07392167 -0.083188444 -0.035259414 -0.014705086 0.08491338 0.0057056975 0.015977383 -0.008911382
0.07750894 0.022963079 -0.0007135726 -0.010961217 -0.0028115108 -0.015907256 0.051742584 0.013864597
0.06621924 0.041300774 -0.022534985 -0.057893947 -0.048485167 -0.06421652 0.015562463 -0.017869331
0.030794758 -0.049623508 -0.0037149943 -0.022778433 -0.00385855 0.017795945 0.020226588 -0.02981118
0.055235937 0.02310142 0.014243321 -0.004019544 0.014887836 -0.021058567 -0.030608006 0.061837204
-0.032463275 0.016333347 0.015900057 0.05367738 0.09220534 -0.0074501545 0.021226257 -0.082994595
-0.06617785 0.00782942 0.038313273 -0.06526125 0.0035063582 0.063806534 -0.024191868 0.044496015
0.041595098 0.018934337 0.004644434 0.03895341 0.0054111434 -0.03860836 -0.022849575 0.09085461
-0.06265745 0.03570115 0.048009206 -0.058000654 0.056631602 -0.011978908 0.039546125 -0.024212746

mean_layer.weight f4 [4, 256]
00000000: 9827 813d d707 e33d d697 f13c bc3a 9b3d
00000010: a4fd 913d d7f4 123d ebdd 983d 1295 05bd
00000020: 5552 9c3b 99ad 34bd 6ba1 28bd d440 6fbd
00000030: 72d8 4b3e 6221 23bb bbc6 983d cc19 0d3d
00000040: 72e6 a7bd f75c 913d 8a03 283e 644a 8b3d
00000050: 6e8a 023e b6c5 55bd 6327 94bc 9a61 bf3c
00000060: 2aae 3dbc 546b 9b3c 16b4 6bbd abda 35bd
00000070: 94a1 81bc d7e3 b63e 1e79 d23d 974b 123c
00000080: 1387 3a3d 6921 113d e2ab 2bbd 680d 993c
00000090: 67a7 47bd cbb5 e23d 1beb 083d 306d f1bb
000000a0: 76f0 523c a422 ad3c feef 143e 6c35 62bd
000000b0: fc47 293d d000 0dbd 3cad 05bc 632f 07bd
000000c0: dfc3 e9bc 2b26 ab3d fc29 5d3d bf09 563d
000000d0: bd83 5c3c c641 b83c 7047 6bbd 1a7f dd3b
000000e0: 63dd 1b3d a0b3 0abc 00a6 553e fa27 963b
000000f0: 6fc6 913b 88d0 8bbd 4780 1dbe 978a 6abc
00000100: ff3f 5c3e 0a98 4bbd f9a0 413c 5ce8 80bd
00000110: f91e 4b3d a677 123e 7b6e 21bd ef7c 41bd
00000120: 98b7 903d a968 553e f29e 973c 1f16 673d
00000130: b9b2 803e c315 e23c 608f 07bc 0731 303d
00000140: 7d74 3a3c 1786 c23d 9f9b 623d 472f f53d
00000150: 2768 073d 5a6f 483c 041d 143d d0c9 bb3d
00000160: 29fa c23d 166e acbc 9953 d83d b31f 883d
00000170: e77a e13c 3db0 07bd f05b 58bd b207 663d
00000180: 8929 823e 488a 8f3d f2b8 3ebc 0875 c2bb
00000190: 34b8 9c3e ce4f c3bb 4e6b 8dbc d8a7 21bd
000001a0: 1fe1 38bc 3809 92bd edba a0bd 1e31 9e3c
000001b0: 1c04 aebd 93e0 1c3d b16c 153d 88cd 64bb
000001c0: 5e16 50bd 7cba f53d 5e63 b5bc c9e5 4abc
000001d0: eeeb 67bd 7b04 893c 58fc 533b eaab 193c
000001e0: 20da 80bc b0df 5b3d a6bf 5bbc 6d74 8a3c
000001f0: ec1b 8fbc c8ac 683e 0bcd 373c 306e c93c
00000200: 9e61 683c b74d dbbd 639f bd3d ff74 2bbd
00000210: 6cfb 2abd c643 ffbb f954 9ebc dd7a 833d
00000220: 9bec a23d 0b12 83bc 8e43 743d 99c7 17bc
00000230: b49f b5bc e2c3 4dbc b727 c03d 03a8 e83d
00000240: 8768 993d 2141 0c3d 0ac4 8fbc cf2b 2abd
00000250: 8ed5 e4bc 27c6 023e 75b0 293d e144 9bbd
00000260: 8dd1 1cbb ebd7 75bd 0d8e 16be 0084 d9bc
00000270: 4819 f43c 325e ff3c b14f 303d 486a 673c
00000280: 8334 1abc 4f3d 1dbd 5b44 6f3c 455c 5c3c
00000290: 48c9 033d 0edb 1b3e 7339 093d 94ba 833b
000002a0: 2c78 ca3d 7b5c 6abd 5b1e 74bd f65f 873d
000002b0: 38a3 98bd aa36 a6bc 164c 483d b67f 95bd
000002c0: 2503 943c 6fb8 4bbd 4346 b8bb 3dec 70bc
000002d0: 2f82 263e 926e 0e3d f976 1c3d 394d 733c
000002e0: ac73 f53d fdea efbc ddc0 b6bc 909d 48bd
000002f0: 0111 1c3e 3ee9 b0bc 6ab8 823d 2f02 81bd
00000300: c3ad afbd bb9b d8ba 46cf 32bd ca51 b5bb
00000310: 6668 853d 8351 6fbd 1606 c63e 3100 73bd
00000320: 64be 393e 83a3 3dbd 3507 c63b fa69 9abd
00000330: 5b96 bdbc e796 b1bd 0659 22bd a42f 073c
00000340: 92a1 da3c 695f d2bc 4080 84bd d4dd ea3c
00000350: ec73 88bc 6509 a2bd 5e31 913d aa03 293d
00000360: b80c 0c3d a004 c53d bdc3 e1bc 77d5 1ebb
00000370: 9c13 b2bc 6984 cf3c e275 8d3d a06b 83ba
00000380: 4754 aa3d ebb9 cc3b 7f14 fbbc b703 2abd
00000390: 2df5 32bc c622 c23d 6e3b a4bd 7b11 37bd
000003a0: 1667 cc3c 0889 4e3c 5637 2fbd d0ac 02bd
000003b0: b591 cb3d ec67 523e a688 f6bc 1c00 a4bc
000003c0: 1ca4 e4bc eb58 8d3e a171 833b 1f97 c13c
000003d0: efc6 1cbc 19a6 34bd 84a2 b0bd 9f44 06be
000003e0: 429b 043c d42a 173d 6683 e8bb a45f f7bc
000003f0: e8f6 553c 9ecd cc3d 4087 f03d 4956 6c3c
0.0630638 0.1108548 0.029491346 0.07579562 0.07128456 0.03587803 0.074642025 -0.032612868
0.004770557 -0.044110868 -0.041169565 -0.058411434 0.19906786 -0.0024891724 0.0745978 0.03444843
-0.08198251 0.0709781 0.164076 0.06801298 0.12748119 -0.052190505 -0.018085187 0.02336197
-0.0115771685 0.018972076 -0.05754479 -0.04439799 -0.015824117 0.35720703 0.102770075 0.008929155
0.045538973 0.035432253 -0.041911967 0.01868315 -0.04874363 0.110698305 0.03342734 -0.0073677525
0.012874713 0.021134682 0.14544675 -0.05522673 0.041328415 -0.034424603 -0.008158978 -0.033004176
-0.028535781 0.08356889 0.053995118 0.05225539 0.013459143 0.0224923 -0.057441175 0.0067595365
0.038052928 -0.0084656775 0.20864105 0.0045824023 0.004448704 -0.068268836 -0.15380965 -0.014315269
0.21508788 -0.049705543 0.011818164 -0.06294319 0.049590085 0.14303455 -0.039412003 -0.047238287
0.07066268 0.20840706 0.018508408 0.05641758 0.25136355 0.027598267 -0.008273929 0.043015506
0.011380312 0.09498232 0.055324193 0.11971908 0.03305831 0.0122335795 0.036160484 0.09169352
0.095203705 -0.021048587 0.1056282 0.06646671 0.027524425 -0.03312706 -0.052822053 0.056159683
0.25422314 0.07008797 -0.011640774 -0.0059343614 0.30609286 -0.005960441 -0.01726308 -0.03946671
-0.011284142 -0.071306646 -0.07848153 0.01931053 -0.084968776 0.03830011 0.03648061 -0.0034912545
-0.05080258 0.1199846 -0.022142109 -0.012383887 -0.056621484 0.01672577 0.0032346454 0.009379366
-0.01572901 0.053680122 -0.013412392 0.01690122 -0.017469369 0.22722161 0.01121832 0.024588674
0.01418343 -0.10708182 0.09258916 -0.041859623 -0.04174368 -0.0077900616 -0.019327627 0.06419919
0.07955285 -0.015999814 0.059634738 -0.009263896 -0.022170879 -0.012558909 0.09382575 0.11360171
0.0749064 0.0342418 -0.017549533 -0.041545685 -0.027933862 0.12770902 0.04142805 -0.07581497
-0.0023928613 -0.06002037 -0.14702626 -0.0265522 0.029797211 0.031172846 0.04304475 0.0141244605
-0.009411934 -0.038388547 0.0146037 0.013449733 0.03217438 0.15220281 0.033502053 0.0040200446
0.09886202 -0.057217102 -0.05959926 0.066101 -0.074530065 -0.020289738 0.048900686 -0.072997496
0.018067906 -0.049736436 -0.00562361 -0.014704761 0.16260599 0.034773417 0.0381994 0.014849954
0.11984953 -0.029286856 -0.022308761 -0.04897839 0.15240861 -0.021595594 0.063828304 -0.062992446
-0.08578064 -0.0016525903 -0.043654703 -0.0055334317 0.06514053 -0.058427345 0.38676518 -0.059326354
0.18139035 -0.046298515 0.0060433396 -0.07539745 -0.023142984 -0.086713605 -0.03963568 0.0082511045
0.02668837 -0.02568026 -0.06469774 0.028670229 -0.016656838 -0.07911948 0.07089494 0.04126326
0.034191817 0.09620023 -0.027559156 -0.0024236122 -0.021737866 0.025331693 0.0690725 -0.0010026582
0.08316856 0.006247749 -0.030649422 -0.04150745 -0.010922712 0.09479289 -0.08019148 -0.044694405
0.024951499 0.012605913 -0.04277738 -0.031903088 0.09939901 0.20547456 -0.030094456 -0.020019583
-0.027910285 0.27606902 0.0040113484 0.02363163 -0.009568914 -0.044103716 -0.086247474 -0.13112114
0.008093657 0.03690608 -0.007095742 -0.030196972 0.013059355 0.10000156 0.11744547 0.014424869

mean_layer.bias f4 [4]
00000000: 26d4 853c 31b8 9c3d 42b7 2f3d 0064 ef3c
0.016336512 0.07652319 0.042899378 0.029222488

log_std_layer.weight f4 [4, 256]
00000000: 9602 95bd 374f 803e a867 84bd 6c49 58bd
00000010: 7ffa e2bc 1a91 40bd 7c1e 783c 4485 fabb
00000020: 85e7 5a3d 160a c83c 9c8e 75bd cb91 cfbd
00000030: 35f2 5f3e 20f7 08bd 3455 dc3b cb45 be3d
00000040: 9b84 4f3d 45e0 d03e 0e7b 1e3e 2e2d e63d
00000050: 4f41 3d3e fb88 833c 5fbd 343d 7cf9 9fbd
00000060: ec3e 893d 3e23 973d e1a1 98bd ea3a 603d
00000070: 9cb6 70bd 8635 b33e 3fde bcbd 43e6 563d
00000080: d3be 16bd eab9 a03e 46c9 e9bd 9fbb f33d
00000090: bb62 4fbd 9ed7 02bd 0e2b 67bd 86c6 3dbd
000000a0: 09da 663c 704c f0bc bf79 4abd 0b78 f1bd
000000b0: e5f1 b0bc 6365 8aba a93d 473e 48d2 41bd
000000c0: e39a 513d 244b 083e 0702 283d a365 10be
000000d0: 2e73 9dbd 8505 c53d 735d 0fbe c060 44be
000000e0: a3a7 f03e cf2c eabc 03c2 6c3e 15fe b4bd
000000f0: 6880 82bc ecd5 3d3e a8c8 90bd c6fd acbd
00000100: 6163 313d b19b f9bc bbc2 023d eade 62bd
00000110: 801a 153c 5251 4e3d 0776 9cbd e606 d6bb
00000120: 9cb3 973c dfae b53e e947 8b3c 5aa5 7dbd
00000130: 9ddb 8a3d eb63 85bd 4a31 f0bc 8d50 6a3c
00000140: ebfe 973e eab7 3c3e afad 17bd 6a58 a73b
00000150: 6ab7 753e a841 8e3c d31c 893c 2d9e 073d
00000160: 8e29 05be 2152 82bb 9c5c 883d 41a4 623d
00000170: 1e91 db3c cc51 98bd 44bd 54bc 0710 003d
00000180: 925f 213e 6beb 4a3c 5244 cabd ce1e bcbc
00000190: 71e7 f23d ddb2 debd 35df dd3d 432f 2bbd
000001a0: 3e50 c73d 849e 19bc cda1 9c3d 363f 73bd
000001b0: 16e0 a9bc 769d b53c 0b8b a7bd 67b1 b4bd
000001c0: f8a1 e2bd 4672 8f3c b953 3fbe eabc 81bc
000001d0: 6cc6 b9bd d2fd 783d 867e bb3d 9986 3dbe
000001e0: af06 c1bd 9070 503a d330 ab3c 6b26 6ebd
000001f0: caac dcbd 4bbf f33e 7518 26be 06f4 b03c
00000200: 9943 48bd 7644 50be f518 c23d deb8 5e3d
00000210: 6cd3 843b 66d7 07be 23c0 50bd 8c82 3bbc
00000220: 64ad bfbc 6c61 1c3e 89fe 84bd 40c1 c73a
00000230: f8da e5bb 1313 0a3d 95e4 253e 4e7e 733d
00000240: d9fc b13c 7e41 e63d a560 acbc ad2d 84bd
00000250: f387 f0bd 8a56 663e 1ed8 3fbd 30c5 d33d
00000260: 3365 e53c 2449 773d d8fc 92bb 0dc1 29bd
00000270: a045 3abc f6cf d23c 1340 41bd f15d af3c
00000280: 273d 853b 5787 c43c d604 d03d 4ed8 d63b
00000290: 6b0a 2e3e f0c2 183b 8676 3bbb 33e6 d63c
000002a0: b5de 65bd dfb9 463e cf8d eebc e747 a53c
000002b0: 4829 b03d 998b f13c a2cc d43b ca38 67bd
000002c0: 1e5b dfbd 8b97 d6bd d9b0 91bd b924 e73c
000002d0: 7aac cb3e b772 59bd ff87 1abe cf40 00be
000002e0: 219f d3bd 3346 99bd 5cf6 c9bd 3073 03bb
000002f0: 4b85 afbd f1c9 08be e865 893d 5e99 2cbd
00000300: 5289 953e d5de d0bc 4e29 99bd c7ec dcbd
00000310: b70f 0bbe 3b40 1cbe 613b a63e c6ba 063d
00000320: cfd7 f73d 473e 80bb 7dcd 483c b5fd c6bc
00000330: 30ba 8bbc fa3d 313e d7eb ccbd 2a22 403d
00000340: bf50 13bd 92e7 edbd b943 a83d 994b d3bc
00000350: 7684 5e3d 0f18 a5bd d3be e73d cff9 40bd
00000360: 1c98 b6bd 9685 073e 8f2a ef3c f51a 233e
00000370: 69df 47bd 78ba 45be ffa1 c1bd 8eda fcbd
00000380: b5b8 2dbd b8bf 60bd b52f f8bb d720 88bd
00000390: 6569 7abc 8a30 8dbc f7eb 67bd 4064 50be
000003a0: 9bdf 11bc d1cc 713d 89b5 393d 41dc aebc
000003b0: a12f 933d f39a 7abc 0549 5a3d 2e60 23be
000003c0: df20 12be c71f e13d 7476 c6bd 332a c2bd
000003d0: 321e 1ebe a28c babd 9cc0 d1bc d9a1 4c3e
000003e0: 9646 523d 38ae e93c 06c8 3fbe 5d93 b1bc
000003f0: 9c41 653d 365b 94bc 6af6 523c 9395 b4bd
-0.07275884 0.25060436 -0.06465083 -0.052804396 -0.027707336 -0.04701338 0.015143987 -0.007645281
0.05344345 0.024418872 -0.059950456 -0.1013523 0.21869738 -0.0334388 0.006724024 0.09290656
0.05066357 0.40796104 0.15476629 0.11239086 0.18481945 0.016056528 0.04412591 -0.07811257
0.067014545 0.07379769 -0.07452751 0.054743685 -0.0587679 0.35001773 -0.092220776 0.05246569
-0.036803078 0.3139184 -0.11415343 0.1190102 -0.050631266 -0.03194391 -0.056437545 -0.046331905
0.01409007 -0.029333323 -0.049432512 -0.117904745 -0.02159972 -0.001055878 0.19457115 -0.04731968
0.051173102 0.13309914 0.04101756 -0.14101271 -0.076879844 0.096201934 -0.14000492 -0.19177532
0.47002897 -0.02858582 0.23120885 -0.08837525 -0.01593037 0.18538636 -0.07069522 -0.08446841
0.043307666 -0.030469747 0.03192399 -0.05538837 0.009100556 0.05037052 -0.076396994 -0.006531584
0.018518262 0.3548498 0.017002063 -0.06192527 0.06780169 -0.065131985 -0.029320378 0.014301431
0.29686674 0.18429533 -0.037030872 0.0051069753 0.23995748 0.017365292 0.016737377 0.033109833
-0.13004133 -0.0039770757 0.06658289 0.055332426 0.026802596 -0.074374765 -0.012984578 0.031265285
0.15759113 0.01238523 -0.09876312 -0.022963908 0.1186055 -0.10873959 0.10833589 -0.04179312
0.09732102 -0.009376172 0.076480485 -0.059386455 -0.020736735 0.02216981 -0.08180817 -0.08822899
-0.11066049 0.017510545 -0.18684281 -0.015837152 -0.09071049 0.060788937 0.09154992 -0.18508376
-0.09425103 0.00079513434 0.020897305 -0.058142107 -0.107751444 0.47606882 -0.16220267 0.021600734
-0.04889259 -0.20338616 0.094774164 0.05437552 0.0040535238 -0.13265762 -0.050964486 -0.011444699
-0.023398109 0.15271538 -0.06493861 0.0015240088 -0.0070146285 0.033709597 0.16200478 0.059446625
0.021727012 0.112429604 -0.021042177 -0.064540245 -0.1174468 0.2249395 -0.046836965 0.10340345
0.028002357 0.060372487 -0.0044857077 -0.041443873 -0.011369139 0.02573393 -0.047180247 0.0214071
0.004066128 0.023990316 0.101571724 0.0065565472 0.16996162 0.0023309551 -0.002860458 0.026232814
-0.056120593 0.19406842 -0.029120354 0.020175887 0.08601624 0.02948551 0.0064941207 -0.056450643
-0.10906051 -0.10478123 -0.07113809 0.028215753 0.39780027 -0.053087916 -0.15090941 -0.12524723
-0.10333086 -0.074840926 -0.098614424 -0.002005767 -0.085703455 -0.13358285 0.0670889 -0.04213845
0.2920633 -0.02549688 -0.07478581 -0.10787349 -0.13580213 -0.15258877 0.32467178 0.032892965
0.12101709 -0.003913674 0.0122560235 -0.024290899 -0.017056555 0.17308798 -0.100059204 0.04690758
-0.035965677 -0.11616434 0.08216042 -0.025792884 0.054325543 -0.080612294 0.11315694 -0.047113236
-0.08915731 0.13234553 0.029195098 0.15928252 -0.048797045 -0.19309413 -0.094547264 -0.123463735
-0.04241248 -0.054870337 -0.0075740465 -0.06646889 -0.015283917 -0.01723506 -0.056621518 -0.20350742
-0.008903409 0.05903322 0.04533914 -0.02134526 0.07186819 -0.015295732 0.053292293 -0.15954658
-0.14270352 0.10992389 -0.09690562 -0.09480705 -0.15441206 -0.09108855 -0.025604539 0.19983615
0.051336847 0.028525457 -0.18728647 -0.021676714 0.055970773 -0.018109899 0.0128761325 -0.088175915

log_std_layer.bias f4 [4]
00000000: 171b 42bd f33e ecbd eb93 08bb 43cc 5abd
-0.047389116 -0.11535444 -0.002084012 -0.053417455

net.0.weight f4 [256, 24]
00000000: 773c 093e daf9 7cbd f691 873e 1687 03bf
00000010: e840 163e 957e 9f3d 831b 00bd a5e8 fa3c
00000020: c747 033e 9b1e 02be 7848 933d a9b3 383e
00000030: 495b af3d d7d0 483e edae bc3d 834a 543e
00000040: 07d1 293e dcdb 9a3d 0fbf 823e 4a50 a5bd
00000050: 9f14 193e f24e 063d c117 54bd cd2f e93c
00000060: daba a6be 5f3f 82be ca65 5fbe b5ca 0ebd
00000070: 8f77 51be d496 d9bc c596 dcbd 471b 07be
00000080: 89fd 43bd fb44 82bd 21db 13be 926e 6bbe
00000090: 125e b4bd 69b3 0c3e ad66 c13d ae3a 003e
000000a0: 9991 32be 9a73 973d 1173 2dbd 704e f5bd
000000b0: cbee 24bd f46e b03d 66d6 c33b b1ff 823e
000000c0: 0f00 16bf 3ffe 0dbf eeab cc3e 47bf d1bd
000000d0: 8f61 34bc a36e 86bd de82 42be 4746 25bd
000000e0: 9c83 b13d 7702 85be 83c0 7d3d a5d8 a7bd
000000f0: de36 a63c 2f08 9a3c 0105 b03d 9b9e 883d
00000100: 6ce3 f33c 6fe3 00bd 01f9 be3d b96c 82be
00000110: 9622 7fbe 753d bbbd 9d4e 52be 672a 503e
00000120: f0e8 963c abf7 9dbd 5c81 66be e747 a7be
00000130: a943 ff3d d7ba 8ebd b07f 363e c8f2 103e
00000140: 4a40 4a3d 0552 abbe a7f9 913d 8a9d a23c
00000150: 450f 52bd a5e1 943c 81ac 0dbe de5e abbc
00000160: 971a 80be 756f b43d 7e12 de3d 8858 983c
00000170: db90 15be c80e 42be ee54 0cbe e16f c43d
00000180: c108 62bc 2040 fabd 3abf 903e fee4 ce3e
00000190: 9c8b 3abe cf67 883d 25bf 8bbd 1f0a 593c
000001a0: be6f e03d 2654 05be dedd 163b c402 9a3d
000001b0: 14e9 34bd 997d 033e 7589 75be 4e7f 88be
000001c0: ac1d 17be 1dc8 17be 7b49 273e 9b36 d03c
000001d0: d670 d6bc 303f cd3c e29c ce3c ebe4 3f3e
000001e0: 1772 123c 0db4 44be 8ca5 9d3e a3cd b23e
000001f0: 56f8 47be a1c6 b03d 48df 713e bee4 223c
00000200: fedc c6bd deb1 98bd d949 69be ac83 40bd
00000210: 7849 a63d 1547 123d a162 2e3c e270 97bc
00000220: ad9b 85bd 5846 ebbd e0fd 64be b190 3f3d
00000230: 7893 083e f2fd 72bd 38fd 4f3d 7e04 83bc
00000240: 1839 c63b a295 d43e c2fe b5be 17a6 10bf
00000250: e13f 873e bbe3 3d3e cc9c 8dbe 758b 2cbd
00000260: fd26 ef3d 4d68 0ebe be8a 063e a77a 2cbe
00000270: 25fb 8f3d 1909 83bd 2a45 3d3e 8f0f 623e
00000280: 42cc 0f3e b47f 423e 503f 1e3e 175c 703e
00000290: b27a 1dbd 817b 643e 0a8e 623d 2c77 43be
000002a0: 36fe f53d 79be 8ebe 345c 88be 3160 83be
000002b0: 9433 04be 39c5 cebd abce 3a3e 798f 1e3e
000002c0: 407f cb3c 511e debe d5c5 383e 9395 46bc
000002d0: 250f 5f3d b3fe 62be 0cfd 8ebe d477 babd
000002e0: 9d4d 0abe b979 98bd a19f 7e3d a812 9dbd
000002f0: d67a fabd 8e8f 94be cd9b 24be b0da 5ebd
00000300: 6812 0a3e edea 99bd da58 263e 103d e1be
00000310: 7735 3ebe b642 643e 4187 883e 8cf8 c3bd
00000320: 1b76 a83c eaf6 61be d182 7e3d 28d3 6c3e
00000330: e3d9 513e 09b2 ccbd abaa 8ebe e5cf 72be
00000340: aab2 49be 3904 ac3d 2b5f 863c fee3 d9bd
00000350: aa76 7c3b 97bd 89be 6563 1ebe 963f 0fbe
00000360: d81f d4be ec1e c4bd 1c16 4d3e 0c90 893e
00000370: ed5f 6bbe bbff b73d b86e 80bd dbf9 203d
00000380: c0ce 4c3d 9244 3cbe 9caf b03c 12ef e5bd
00000390: e5c1 1b3c cc70 bfbd 17d0 51bd 9112 a5bb
000003a0: c375 17bd 7749 aebd 9dbe 41be 7afb 69be
000003b0: ea07 a03d 8f5c 36bd 7612 e13d a360 40be
000003c0: 1e73 223c c86a ec3c bce8 5b3e 0654 edbe
000003d0: 7644 333e 1182 24be 7623 373e 9199 ba3d
000003e0: 407e 1cbe c074 5abe 7bb8 00bc bf47 0b3e
000003f0: 4584 50bd cebe 833d ebc3 c2bd 2144 ec3a
0.13401972 -0.061761715 0.26478547 -0.51378 0.14673197 0.077878155 -0.031276237 0.030628512
0.1282035 -0.12706988 0.07191557 0.18037285 0.08562333 0.19610916 0.09213052 0.20731549
0.16583644 0.07561466 0.2553639 -0.080719545 0.14949273 0.032790132 -0.051780466 0.028465176
-0.3256443 -0.25438973 -0.21816173 -0.034861285 -0.20455764 -0.026561178 -0.107709445 -0.13193999
-0.04784921 -0.06360813 -0.1443906 -0.22991398 -0.08807005 0.13740315 0.09443412 0.12522385
-0.17438354 0.07395096 -0.042346064 -0.119778514 -0.040266793 0.08614913 0.005976486 0.25585702
-0.5859384 -0.55466074 0.39974922 -0.102415614 -0.011009588 -0.06564071 -0.18995234 -0.040350225
0.086676806 -0.25978443 0.06195117 -0.081956185 0.020289835 0.01880273 0.085947044 0.066708766
0.02977153 -0.031466898 0.093248375 -0.25473574 -0.24915537 -0.091425814 -0.20537801 0.20328675
0.01842162 -0.077132545 -0.22510284 -0.32672045 0.12464077 -0.069692306 0.17822146 0.14155114
0.049377717 -0.33461013 0.071276955 0.019850511 -0.051284093 0.018174002 -0.13835336 -0.02091926
-0.25020286 0.08810321 0.10843371 0.018596902 -0.14606039 -0.18950951 -0.13704273 0.09591652
-0.013796032 -0.12219262 0.28270894 0.40409082 -0.18217319 0.06660425 -0.06823567 0.013247042
0.10958813 -0.13020381 0.0023020427 0.07520059 -0.044167593 0.1284088 -0.23978217 -0.26659626
-0.14757413 -0.14822431 0.16336624 0.025416663 -0.026176851 0.025054544 0.025221292 0.18739669
0.008938334 -0.19209309 0.30790365 0.34922513 -0.19528326 0.086316355 0.23620331 0.009942232
-0.0971012 -0.074558005 -0.22782077 -0.047000572 0.08119482 0.03571232 0.010643632 -0.018486444
-0.065238334 -0.114880264 -0.2236247 0.046768848 0.13337505 -0.059324212 0.050778598 -0.015993353
0.0060492866 0.4152041 -0.35545927 -0.56503433 0.26415923 0.18543904 -0.2765869 -0.042125184
0.11677358 -0.13906975 0.13138863 -0.16843663 0.07030324 -0.063982196 0.18483415 0.22076248
0.14042762 0.18994027 0.1545384 0.2347263 -0.03844709 0.22312738 0.05531124 -0.19088429
0.120113775 -0.27879694 -0.26632845 -0.25659326 -0.129103 -0.10096211 0.182429 0.15484418
0.024840951 -0.43382505 0.18044217 -0.012120622 0.054457802 -0.22167473 -0.27927434 -0.09104887
-0.1350617 -0.07445092 0.062163953 -0.07669574 -0.1223046 -0.29015774 -0.16075058 -0.054407775
0.13483584 -0.07515512 0.16244832 -0.439919 -0.18575083 0.22291073 0.2666569 -0.09568891
0.02056413 -0.22066846 0.062136475 0.23127425 0.20493273 -0.09994895 -0.27864584 -0.23712118
-0.19697061 0.08399243 0.016402801 -0.10639189 0.0038522878 -0.26902458 -0.15467604 -0.139891
-0.41430545 -0.095762104 0.20027965 0.26867712 -0.22985812 0.089843236 -0.06271118 0.03930078
0.05000186 -0.18385532 0.021568112 -0.1122724 0.009506677 -0.09347686 -0.05122384 -0.0050376137
-0.03697754 -0.08510106 -0.1892037 -0.22849837 0.078140095 -0.044521865 0.10989849 -0.18786864
0.009915141 0.028859511 0.214755 -0.46353167 0.17506585 -0.16065241 0.17884621 0.09111322
-0.15282536 -0.21333599 -0.007856484 0.13601588 -0.050907392 0.064328775 -0.09510025 0.0018025675
