best_model_episode_1500.pth (torch, 561701 bytes, 10 tensors)

actor_log_std f4 [4]
-2.7149258 -2.447851 -2.5930483 -2.7110295
00000000: 58c1 2dc0 97a9 1cc0 81f4 25c0 8281 2dc0

shared.0.weight f4 [256, 24]
-0.20739251 0.50179416 -0.6107655 0.52854633 -0.14235069 0.08298492 -0.017425764 -0.13575642
-0.16381209 -0.20375063 -0.06999382 0.07481297 0.2533206 0.27052334 0.044381507 -0.11969662
0.035672 -0.10722712 -0.23672485 -0.08827822 -0.22552082 -0.19344552 -0.19193757 0.05489627
-0.9885288 -0.041617755 -0.4876824 -0.27302286 0.2824993 -0.4920454 0.25623164 -0.1986207
-0.33328742 -0.19218448 -0.21592836 0.072491966 -0.22910467 -0.11208304 -0.09792337 -0.175984
-0.04305585 -0.13681024 0.019308751 0.1411442 0.09207874 -0.19747557 0.022246243 -0.0056228535
0.16403635 -0.38749897 0.2465991 0.031617835 -0.16525976 0.055549085 0.22328353 0.13504396
0.02807944 0.025894333 0.019294923 -0.13404411 0.011014618 -0.2039948 -0.09702992 -0.2209436
-0.08585551 -0.20070149 -0.007372953 -0.32328835 -0.35527214 -0.17069875 0.15212736 0.12454141
0.15601218 -0.30815548 -0.2532968 -0.8326847 -0.101076424 0.042508565 0.2513849 -0.053819705
-0.002991252 -0.4806842 -0.10884927 -0.040981293 -0.03596605 -0.039796874 0.17411143 -0.117386535
-0.07209625 0.09549377 0.08808901 0.017267216 0.23389702 0.48215532 -0.081622384 -0.17648213
0.4338595 -0.04016201 -0.1289086 -0.234967 -0.17627847 0.006907046 -0.16674605 -0.08877496
-0.17788094 -0.49136814 -0.36306426 -0.41449174 -0.22268069 0.083136 0.22927395 0.06242252
0.08346259 -0.17959964 -0.13483249 -0.07910872 0.011317467 -0.23137663 -0.123335145 -0.12498029
0.019889394 -0.13748272 0.24871218 -0.63655704 -0.19925535 -0.20590007 -0.25309476 0.024243407
0.17624405 -0.10310654 0.14025803 0.0603415 0.059040174 0.25235707 -0.271532 -0.2798346
-0.3573721 -0.3871354 -0.12309205 -0.23749693 -0.16423042 -0.383171 0.18022849 -0.05836321
-0.09325877 -0.56913805 0.039274424 0.30059925 0.33553135 -0.07373798 -0.13375668 -0.12936515
0.032640375 -0.3092423 0.107055575 -0.3523485 0.06314615 0.07030737 0.01669034 -0.1683258
0.12071567 -0.024228543 -0.049020924 -0.26976424 -0.01740124 -0.15104944 -0.14480428 0.19489588
0.18169346 0.015199998 -0.22047733 -0.20048672 0.13429134 -0.1395735 -0.13955584 -0.116703935
-0.26762933 -0.09712552 0.12894793 -0.11473289 0.012379795 -0.0048204754 -0.047773875 -0.15826623
0.021624854 0.023541437 -0.0072144237 -0.11904746 -0.13400275 -0.051397707 -0.09262798 -0.03226237
0.19752151 1.437646 -0.632979 0.7530937 0.10605993 0.03072041 0.007972683 0.042744815
-0.016200518 -0.14009935 0.08484719 -0.18620422 -0.02984694 -0.33604696 -0.15493312 -0.23674147
-0.13916303 -0.011129463 0.055705052 0.03406236 -0.2016111 -0.19646707 -0.069430105 0.19035691
0.1236349 -0.4176721 -0.23333015 -0.24945487 0.10666333 0.070013925 -0.070090055 0.08703
-0.23907806 -0.2011236 0.114773914 -0.027895605 -0.09556505 -0.31802654 -0.20520656 0.11044765
0.054872584 0.12853418 0.06546777 0.011654488 -0.051547803 -0.24280466 -0.33138126 -0.25343943
0.3591942 0.52093637 -0.43608412 -0.6109745 0.18308415 0.044891763 -0.27339593 0.20781727
0.08261175 0.026726112 0.10440974 -0.22648574 0.007449838 -0.08909679 -0.20607881 -0.3458553
00000000: b45e 54be 9575 003f 215b 1cbf d04e 073f
00000010: 61c4 11be fff3 a93d 7ac0 8ebc bb03 0bbe
00000020: 5bbe 27be 01a4 50be eb58 8fbd 8b37 993d
00000030: 3db3 813e 0982 8a3e 62c9 353d 8023 f5bd
00000040: ce1c 123d e499 dbbd 0068 72be 36cb b4bd
00000050: eeee 66be 9516 46be 488b 44be e9da 603d
00000060: 3910 7dbf 6177 2abd 82b1 f9be a7c9 8bbe
00000070: c0a3 903e 60ed fbbe cb30 833e 3a63 4bbe
00000080: a6a4 aabe 02cc 44be 531c 5dbe ab76 943d
00000090: 6a9a 6abe cb8b e5bd 0c8c c8bd 2635 34be
000000a0: 555b 30bd fc17 0cbe 632d 9e3c 1b88 103e
000000b0: c793 bc3d 0937 4abe c13d b63c ea3f b8bb
000000c0: 25f9 273e 4466 c6be 7984 7c3e b481 013d
000000d0: db39 29be 7087 633d 70a4 643e f748 0a3e
000000e0: db06 e63c 5a20 d43c 6310 9e3c dc42 09be
000000f0: a876 343c 03e4 50be 9fb7 c6bd 0a3f 62be
00000100: 03d5 afbd b184 4dbe d098 f1bb 0d86 a5be
00000110: 3be6 b5be a7cb 2ebe 46c7 1b3e 910f ff3d
00000120: a8c1 1f3e 8ec6 9dbe 1eb0 81be d32a 55bf
00000130: 2801 cfbd 761d 2e3d 86b5 803e 0d72 5cbd
00000140: e208 44bb 3d1c f6be 5eec debd 00dc 27bd
00000150: 2351 13bd 0c02 23bd 444a 323e 5a68 f0bd
00000160: 33a7 93bd 3d92 c33d 0368 b43d fa73 8d3c
00000170: b382 6f3e 10dd f63e a329 a7bd bbb7 34be
00000180: d522 de3e eb80 24bd 9e00 04be 309b 70be
00000190: 5882 34be 8054 e23b 7abf 2abe a5cf b5bd
000001a0: 6c26 36be 9b94 fbbe 8fe3 b9be 4338 d4be
000001b0: 6806 64be 3543 aa3d cac6 6a3e c2ae 7f3d
000001c0: 6fee aa3d f8e8 37be 8711 0abe c103 a2bd
000001d0: e66c 393c ffed 6cbe 2397 fcbd abf5 ffbd
000001e0: 15ef a23c 45c8 0cbe 68ae 7e3e 67f5 22bf
000001f0: 9809 4cbe 78d7 52be a395 81be 1c9a c63c
00000200: 5279 343e 8629 d3bd cd9f 0f3e a628 773d
00000210: 1cd4 713d f234 813e 3e06 8bbe 7b46 8fbe
00000220: 7af9 b6be 9c36 c6be af17 fcbd 6532 73be
00000230: 052c 28be fd2e c4be d18d 383e 430e 6fbd
00000240: 74fe bebd 08b3 11bf 38de 203d 25e8 993e
00000250: c4ca ab3e f003 97bd 83f7 08be 4c78 04be
00000260: eab1 053d 0255 9ebe f43f db3d 0667 b4be
00000270: c552 813d 4ffd 8f3d 2eba 883c 995d 2cbe
00000280: c739 f73d f07a c6bc 2aca 48bd 8a1e 8abe
00000290: 0c8d 8ebc b4ac 1abe 9347 14be c992 473e
000002a0: da0d 3a3e 6a09 793c cfc4 61be 644c 4dbe
000002b0: ab83 093e 5bec 0ebe bae7 0ebe 7902 efbd
000002c0: b606 89be bfe9 c6bd ed0a 043e 14f9 eabd
000002d0: a0d4 4a3c 14f5 9dbb 8aae 43bd 8b10 22be
000002e0: 9b26 b13c f9d9 c03c f966 ecbb 28cf f3bd
000002f0: 0438 09be 6786 52bd bdb3 bdbd 8c25 04bd
00000300: 1443 4a3e c904 b83f e90a 22bf c0ca 403f
00000310: f335 d93d 5fa9 fb3c db9f 023c 3015 2f3d
00000320: f3b6 84bc 3476 0fbe 5dc4 ad3d 52ac 3ebe
00000330: 9281 f4bc 590e acbe caa6 1ebe 5b6c 72be
00000340: c180 0ebe 5a58 36bc fb2a 643d f984 0b3d
00000350: 2473 4ebe aa2e 49be 5f31 8ebd ecec 423e
00000360: 4b34 fd3d 1ed9 d5be 19ee 6ebe 1971 7fbe
00000370: 4e72 da3d 7663 8f3d 608b 8fbd c93c b23d
00000380: e1d0 74be 58f3 4dbe 960e eb3d 5385 e4bc
00000390: 9cb7 c3bd 60d4 a2be ab21 52be 6132 e23d
000003a0: 13c2 603d 779e 033e f713 863d 77f2 3e3c
000003b0: ca23 53bd c9a1 78be ceaa a9be d0c2 81be
000003c0: 4de8 b73e 165c 053f 6b46 dfbe d368 1cbf
000003d0: 697a 3b3e 6de0 373d 8dfa 8bbe 0dce 543e
000003e0: 5930 a93d b8f0 da3c c6d4 d53d e1eb 67be
000003f0: c51d f43b 6178 b6bd 5306 53be f213 b1be

shared.0.bias f4 [256]
-0.2154276 0.03666306 -0.045817826 0.095043056 -0.20281611 0.07353997 0.11760736 0.06262094
-0.04786392 0.18785581 -0.22827779 0.53406364 0.21706937 0.10553388 0.18010335 0.1638778
0.08313882 0.09979238 -0.26175278 0.1983917 0.3388463 -0.009943541 0.055146717 -0.0015763184
0.18444511 0.23713696 0.0010630859 0.26900157 0.16583051 0.09043872 0.2642112 -0.0022350375
-0.07239073 0.18397184 0.12406616 0.16469152 -0.16227192 0.094821535 -0.12213283 0.122427724
-0.26118705 0.14203127 0.3794632 -0.1185567 -0.018902231 -0.015634673 0.23638359 0.42853296
-0.068610206 -0.10421323 -0.04529534 -0.010601745 -0.1439817 -0.12484338 0.31838673 0.24107029
0.11599336 0.16521093 -0.021961432 0.026860423 -0.18180832 0.35924274 -0.030624032 -0.017679883
-0.14277802 -0.024517125 -0.17826197 -0.24486361 -0.20530689 -0.29038426 -0.021987936 -0.100060865
0.099292986 0.095880136 -0.14103965 -0.22003755 -0.23519793 0.07686502 0.36829507 0.02167424
0.19594736 0.100731656 -0.22688174 -0.056103032 -0.07325077 0.096853964 -0.09108031 0.13774833
-0.06542446 -0.08475415 0.11062332 0.15106152 -0.14411421 -0.20507038 0.1929078 -0.13022779
-0.06623391 0.105662346 0.08002122 -0.046934333 -0.20723154 0.3785146 0.03704296 0.20840426
0.043209407 -0.15281187 -0.099590085 0.17530666 -0.2847271 -0.02450271 0.30423707 -0.17613076
0.050578594 -0.12899908 0.10165513 0.057496242 -0.18432693 -0.052853055 0.20578282 -0.10353316
0.27481276 0.16479358 -0.095539354 -0.036953386 0.008377906 0.1399846 0.16974775 0.093082756
0.0032064037 0.16508281 0.35141718 0.41999465 -0.041670665 0.047717255 -0.061363883 0.006113864
-0.2676267 -0.018382827 0.07871546 0.17390266 0.2580201 0.12771913 0.029942079 -0.113250956
0.26292485 0.17297372 0.039075896 -0.064654425 -0.16599382 -0.26288813 0.12296795 0.15122034
0.01646557 0.001772555 -0.11466486 -0.12705863 -0.13565028 0.1364367 0.2063434 -0.026296988
0.17887948 0.03259956 -0.042911496 0.25242633 0.0011402913 0.17302081 0.12162355 0.2825001
0.2931396 0.21661401 -0.020188697 -0.046343356 -0.011499895 -0.11349886 0.17322686 0.30485195
0.051481053 -0.092155315 0.050919037 0.06926218 -0.15957208 -0.15002668 0.05279881 -0.23287913
0.011050658 -0.07850965 0.13273013 -0.04063252 0.054564357 0.22571014 0.29914108 0.19472045
0.068804316 0.075274095 0.27648702 0.2657435 0.1315115 0.17367284 0.045372736 0.23608902
0.18518256 0.21506098 -0.08005524 -0.011808486 -0.25155315 0.002570041 -0.042958677 0.13605465
-0.18418173 -0.11265289 0.3778331 -0.005889632 -0.058213823 0.18665755 -0.1257928 -0.14889516
-0.08278549 0.02952247 -0.24708523 -0.12044769 -0.0467969 -0.03947234 0.2398114 0.10581909
0.2544075 0.21659963 -0.0031001805 -0.021526443 0.00032026204 -0.09882974 0.0059012054 0.12376549
-0.32501855 0.113166966 -0.2570171 0.2631741 0.10279021 0.09857858 0.33384973 -0.023350352
0.28663284 0.049245343 0.0069309906 0.14769404 0.0041706595 -0.020736216 0.063928485 0.03602369
0.24121752 0.021305991 -0.18851283 0.10959413 0.00667251 -0.115229584 0.08505086 0.21899095
00000000: 0e99 5cbe 012c 163d 79ab 3bbd efa5 c23d
00000010: 07af 4fbe 209c 963d 21dc f03d 683f 803d
00000020: f50c 44bd 465d 403e a7c1 69be 65b8 083f
00000030: 6f47 5e3e 2622 d83d 036d 383e 95cf 273e
00000040: b044 aa3d f35f cc3d 7604 86be 3227 4b3e
00000050: 437d ad3e 3cea 22bc 86e1 613d 789c ceba
00000060: 2edf 3c3e 08d4 723e 3e57 8b3a 93ba 893e
00000070: 79cf 293e f037 b93d b146 873e b579 12bb
00000080: 9741 94bd 1d63 3c3e 6616 fe3d e5a4 283e
00000090: 9c2a 26be cb31 c23d c720 fabd 63bb fa3d
000000a0: 4fba 85be a570 113e 0049 c23e dbcd f2bd
000000b0: dad8 9abc 4914 80bc 8a0e 723e ac68 db3e
000000c0: 8283 8cbd bf6d d5bd 9b87 39bd f1b2 2dbc
000000d0: f06f 13be e3ad ffbd 9603 a33e 21db 763e
000000e0: ed8d ed3d 0e2d 293e 76e8 b3bc 640a dc3c
000000f0: f62b 3abe aaee b73e 40df fabc 67d5 90bc
00000100: 6734 12be 23d8 c8bc 4e8a 36be 87bd 7abe
00000110: f83b 52be 3fad 94be 0b20 b4bc b6ec ccbd
00000120: 1f5a cb3d ce5c c43d b36c 10be 8651 61be
00000130: bad7 70be 686b 9d3d 2c91 bc3e 2d8e b13c
00000140: 6da6 483e 664c ce3d b053 68be 4bcc 65bd
00000150: 8004 96bd 5f5b c63d 5088 babd e60d 0d3e
00000160: 42fd 85bd 9593 adbd 7b8e e23d dfaf 1a3e
00000170: ad92 13be f8fd 51be 9f89 453e 6f5a 05be
00000180: a5a5 87bd 8065 d83d 2ae2 a33d 373e 40bd
00000190: 8134 54be aacc c13e 5cba 173d ed67 553e
000001a0: 59fc 303d b77a 1cbe e3f5 cbbd 9783 333e
000001b0: c0c7 91be e8b9 c8bc f6c4 9b3e 9f5b 34be
000001c0: 802b 4f3d 5618 04be 9130 d03d 2e81 6b3d
000001d0: 33c0 3cbe 727c 58bd bbb8 523e 3209 d4bd
000001e0: 42b4 8c3e a6bf 283e 23aa c3bd 6f5c 17bd
000001f0: 7c43 093c 1f58 0f3e 5bd2 2d3e 2ca2 be3d
00000200: 8722 523b 780b 293e f4ec b33e 8a09 d73e
00000210: dcae 2abd 2b73 433d b258 7bbd cf56 c83b
00000220: 5e06 89be 9597 96bc 9235 a13d 8a13 323e
00000230: 361b 843e cec8 023e 1749 f53c 1ef0 e7bd
00000240: 169e 863e 0620 313e 0c0e 203d 8a69 84bd
00000250: 49fa 29be 4699 86be 9fd6 fb3d 81d9 1a3e
00000260: cee2 863c 1455 e83a 69d5 eabd a81b 02be
00000270: e8e7 0abe 10b6 0b3e af4b 533e c86c d7bc
00000280: 2f2c 373e 1e87 053d f7c3 2fbd 063e 813e
00000290: d475 953a 5e2c 313e c515 f93d daa3 903e
000002a0: 6516 963e 10d0 5d3e c462 a5bc 88d2 3dbd
000002b0: 0e6a 3cbc 1772 e8bd 6262 313e 8e15 9c3e
000002c0: ccdd 523d edbb bcbd 7b90 503d 54d9 8d3d
000002d0: dd66 23be 98a0 19be 9143 583d de77 6ebe
000002e0: d20d 353c abc9 a0bd 68ea 073e 496e 26bd
000002f0: e07e 5f3d 8f20 673e 0529 993e cc64 473e
00000300: 47e9 8c3d 4e29 9a3d b58f 8d3e 880f 883e
00000310: f3aa 063e 4bd7 313e c3d8 393d 52c1 713e
00000320: 7fa0 3d3e f238 5c3e 00f4 a3bd 6178 41bc
00000330: 93cb 80be 226e 283b 70f5 2fbd e951 0b3e
00000340: 239a 3cbe 8fb6 e6bd 5773 c13e d0fd c0bb
00000350: 9e71 6ebd 2823 3f3e d4cf 00be f977 18be
00000360: 708b a9bd 1bd9 f13c e903 7dbe 47ad f6bd
00000370: 1bae 3fbd c0ad 21bd 1f91 753e aeb7 d83d
00000380: b341 823e 4bcc 5d3e 662c 4bbb 3958 b0bc
00000390: d8e8 a739 3f67 cabd e65e c13b c378 fd3d
000003a0: d568 a6be 15c4 e73d bf97 83be c1be 863e
000003b0: ac83 d23d 91e3 c93d 5aee aa3e 3d49 bfbc
000003c0: 8ac1 923e 7cb5 493d 5d1d e33b 1b3d 173e
000003d0: 07aa 883b ffde a9bc f0ec 823d 948d 133d
000003e0: ba01 773e e789 ae3c 8209 41be e372 e03d
000003f0: 12a5 da3b 7dfd ebbd 252f ae3d 2a3f 603e

actor_mean.0.weight f4 [256, 256]
-0.005662687 -0.061181292 0.03694234 -0.044254806 0.018312978 -0.006949048 0.042899974 -0.014821168
-0.05855508 -0.07280799 -0.015289068 -0.049872283 0.033555515 -0.031072268 -0.041285552 -0.09497025
-0.076781616 -0.044479106 -0.10546998 -0.0196728 -0.06104896 -0.018658193 -0.040445372 -0.07702582
0.056177028 0.030812189 -0.0021005576 -0.0058482187 0.02109644 -0.056508724 -0.09637281 0.042006902
-0.12523489 0.023148978 0.004545021 0.037655875 0.06607197 -0.085300155 0.02028969 -0.103026494
0.0023602708 0.047851607 -0.04120422 0.022716904 -0.035233438 -0.029080136 0.0034553031 -0.07795938
-0.021895159 -0.001528813 -0.041332673 0.065212026 0.060355138 -0.073334366 0.0057093077 0.003677921
0.040887408 -0.044090215 0.058417074 -0.06906912 0.06855361 -0.069505565 -0.018074844 0.010071309
-0.010790453 -0.04451583 0.028434003 -0.062359843 -0.047494005 0.009379978 0.060537905 0.03562033
-0.05593137 0.012201697 0.023838712 -0.019001223 0.03895852 -0.02030359 -0.061611585 -0.02208694
-0.038668837 0.029710356 0.042992886 -0.038736682 -0.00921208 0.058640372 -0.031056268 -0.049830228
0.014892932 0.05364672 0.014143606 -0.078655586 -0.055068336 0.03981512 -0.011092367 0.007170965
-0.012364584 -0.06510745 -0.017189922 0.05086781 -0.03823772 0.02141543 -0.017305063 -0.074322484
-0.053547904 0.009764435 -0.09263383 0.026241755 -0.02012208 0.0074068056 0.0047005853 0.07615832
-0.05289744 -0.07424398 0.028770598 -0.033228032 -0.021650858 0.028564356 -0.025270307 -0.01238168
-0.08950447 0.016648123 0.03553603 -0.033663813 -0.073354825 0.028222676 0.014255312 -0.005051184
0.0069555463 -0.061059736 0.036891673 -0.013626214 -0.011727162 -0.024201673 -0.04598073 0.0047052037
0.03846431 0.037404947 -0.036453772 0.053495232 0.014734184 0.015846705 0.032107078 -0.032087598
-0.044392366 -0.003014746 -0.092892975 0.016791241 -0.10007287 -0.062650494 -0.004721072 0.0005278088
0.031624164 -0.049639583 -0.053905904 -0.008926831 -0.059504587 -0.060659334 0.0065599284 -0.052154396
-0.029784702 0.0148795275 0.053170633 -0.060937066 0.02777321 -0.014049729 0.09266425 0.06304365
-0.03797667 -0.017075185 -0.0593543 0.019198531 -0.07511431 0.1105861 -0.021215942 0.049484923
0.03143942 0.047282103 -0.0793107 -0.07646463 -0.08064985 -0.0299563 0.038020417 0.021580346
0.037119392 -0.00073430495 0.004500383 -0.05868298 0.04282731 -0.08296942 -0.070659846 0.016601214
0.035491716 -0.045912918 0.027564982 -0.028683338 -0.06998099 -0.035945978 -0.024265539 -0.056870047
0.04267446 -0.040871978 -0.04828198 -0.026973695 -0.01159556 0.034043733 -0.045112018 -0.033577748
-0.0069975066 0.045722608 0.011382835 -0.023451157 -0.032273445 0.007475252 0.014205108 0.014025307
0.04060331 0.029173398 0.0020459571 0.0068006874 -0.051980663 -0.043865647 -0.07957486 -0.00080853107
-0.05026046 0.12017078 -0.068516545 -0.061582662 0.022515839 0.015078406 -0.05113566 -0.024846213
0.0058162105 -0.010955415 -0.027187435 -0.000755467 -0.016283298 -0.018703736 0.02475916 -0.033892877
-0.03863415 -0.004495709 -0.06549059 0.019892387 -0.05909347 -0.0651898 -0.0061591063 -0.057225805
-0.040791553 0.025513632 -0.012142645 -0.034259826 0.009502441 -0.07812575 0.0030187308 -0.09539332
00000000: 108e b9bb 3c99 7abd da50 173d 8744 35bd
00000010: 1905 963c d7b4 e3bb e2b7 2f3d 7cd4 72bc
00000020: 74d7 6fbd 5b1c 95bd 007f 7abc e146 4cbd
00000030: 8271 093d 458b febc 0a1b 29bd c37f c2bd
00000040: ae3f 9dbd b92f 36bd a500 d8bd da28 a1bc
00000050: 790e 7abd 11d9 98bc 0caa 25bd b7bf 9dbd
00000060: e219 663d d869 fc3c 82a9 09bb 6aa2 bfbb
00000070: 71d2 ac3c b175 67bd 1c5f c5bd 6e0f 2c3d
00000080: 933d 00be eda2 bd3c 66ee 943b 0c3d 1a3d
00000090: be50 873d d9b1 aebd 9036 a63c 8eff d2bd
000000a0: c6ae 1a3b 0c00 443d c2c5 28bd cd18 ba3c
000000b0: f050 10bd 7739 eebc 5e72 623b 2ba9 9fbd
000000c0: 7a5d b3bc 7462 c8ba 734c 29bd e28d 853d
000000d0: f336 773d 5430 96bd 2515 bb3b 4609 713b
000000e0: 8e79 273d f197 34bd be46 6f3d 1c74 8dbd
000000f0: d665 8c3d ef58 8ebd b211 94bc 2202 253c
00000100: 71ca 30bc 3b56 36bd 6dee e83c 096d 7fbd
00000110: 1389 42bd 7bae 193c 98f6 773d a0e6 113d
00000120: 4b18 65bd a0e9 473c 6749 c33c 74a8 9bbc
00000130: f892 1f3d b753 a6bc 6e5c 7cbd acef b4bc
00000140: 3763 1ebd 2263 f33c 4f19 303d 5baa 1ebd
00000150: 44ee 16bc e330 703d b769 febc c81a 4cbd
00000160: 7c01 743c aabc 5b3d 95ba 673c 2e16 a1bd
00000170: 568f 61bd 2e15 233d c2bc 35bc 6afa ea3b
00000180: d394 4abc 0e57 85bd e1d1 8cbc c45a 503d
00000190: 289f 1cbd 696f af3c 59c3 8dbc 6336 98bd
000001a0: 0c55 5bbd 02fb 1f3c ceb6 bdbd f3f8 d63c
000001b0: 0fd7 a4bc cab4 f23b 5e07 9a3b e5f8 9b3d
000001c0: fcaa 58bd 3a0d 98bd 51b0 eb3c 1e1a 08bd
000001d0: 245d b1bc ccff e93c ad03 cfbc 88dc 4abc
000001e0: 1f4e b7bd a561 883c 3a8e 113d 11e3 09bd
000001f0: 0e3b 96bd 3e33 e73c 1d8f 693c 6784 a5bb
00000200: 5aeb e33b c619 7abd b91b 173d 7c40 5fbc
00000210: 4823 40bc 9642 c6bc 4a56 3cbd 1c2e 9a3b
00000220: c18c 1d3d ee35 193d 8d50 15bd d11d 5b3d
00000230: a667 713c f3d0 813c b682 033d 496e 03bd
00000240: c5d4 35bd 0b93 45bb ac3e bebd c98d 893c
00000250: 01f3 ccbd e74e 80bd 39b3 9abb a65c 0a3a
00000260: 5788 013d e052 4bbd 70cc 5cbd d841 12bc
00000270: 15bb 73bd ec75 78bd abf4 d63b d99f 55bd
00000280: 0cff f3bc 43c9 733c 73c9 593d 2599 79bd
00000290: a584 e33c d630 66bc c1c6 bd3d 071d 813d
000002a0: 6d8d 1bbd 42e1 8bbc 7f1d 73bd 3d46 9d3c
000002b0: 88d5 99bd f77a e23d 0ecd adbc b4b0 4a3d
000002c0: 9fc6 003d e1aa 413d a66d a2bd 7d99 9cbd
000002d0: c02b a5bd ea66 f5bc 4cbb 1b3d 44c9 b03c
000002e0: 810a 183d 5f7e 40ba f377 933b 905d 70bd
000002f0: b06b 2f3d dfeb a9bd 1cb6 90bd 45ff 873c
00000300: c35f 113d 2f0f 3cbd f5cf e13c 52f9 eabc
00000310: 3152 8fbd 173c 13bd 86c8 c6bc 91f0 68bd
00000320: 6acb 2e3d 6069 27bd 53c3 45bd f0f7 dcbc
00000330: 4efb 3dbc 7171 0b3d 61c7 38bd d288 09bd
00000340: 574b e5bb a147 3b3d 127f 3a3c a41c c0bc
00000350: 2931 04bd f5f2 f43b 8bbc 683c 67ca 653c
00000360: a84f 263d 0dfd ee3c 7715 063b 4dd8 de3b
00000370: ade9 54bd 77ac 33bd 25f8 a2bd 9af3 53ba
00000380: e9dd 4dbd 191c f63d 6752 8cbd 1a3e 7cbd
00000390: 2373 b83c 6b0b 773c a073 51bd 498a cbbc
000003a0: e995 be3b 577e 33bc 2fb8 debc 880a 46ba
000003b0: 8d64 85bc 9438 99bc b9d3 ca3c 42d3 0abd
000003c0: d83e 1ebd be50 93bb ee1f 86bd 5cf5 a23c
000003d0: ff0b 72bd 3b82 85bd 54d2 c9bb 9b65 6abd
000003e0: 0b15 27bd f701 d13c f2f1 46bc 0854 0cbd
000003f0: 20b0 1b3c 6500 a0bd e6d5 453b 935d c3bd

actor_mean.0.bias f4 [256]
-0.016613986 -0.08478453 -0.02915761 0.005822232 0.028700108 -0.010803921 -0.04298135 -0.104186505
0.0070838085 -0.20241426 -0.03831037 -0.0380882 -0.00621438 -0.07270648 -0.11957172 0.10094853
-0.024383279 -0.04231704 -0.044194587 -0.10281274 -0.15595727 -0.07735255 -0.11884962 0.01483056
-0.04872622 -0.0126681905 -0.064315625 -0.2746264 -0.076229535 -0.059878834 -0.09702403 -0.16327994
-0.17757143 -0.096098624 -0.07382115 0.011685309 -0.041822314 0.022472123 0.056620445 -0.076882035
0.03773192 -0.07101514 -0.11280007 -0.15546264 -0.045979977 -0.08601298 -0.15144406 0.015722698
-0.060421657 -0.09180299 -0.072322115 0.064696684 -0.072022304 -0.056404646 -0.07611565 -0.07498215
-0.0002582985 -0.15058124 -0.10410849 -0.0112975845 0.003569535 -0.101710014 -0.09571972 -0.0019672206
-0.014504654 -0.110864066 -0.045929424 -0.013895738 -0.059208404 -0.07942897 -0.11086866 -0.15203388
-0.10999477 0.034176685 -0.014080103 -0.07632311 -0.092080764 -0.12705322 -0.12925185 -0.013493786
-0.06054248 -0.119499385 0.02100665 -0.1779437 -0.08206926 0.09747296 -0.07281164 -0.09084524
0.023663552 -0.098063275 -0.05573644 -0.014281132 -0.11439326 0.026945397 -0.03060617 -0.035477284
-0.11179169 -0.11810118 -0.09854182 -0.059198547 0.011292846 -0.22653626 -0.05679452 -0.11278
-0.05196662 -0.19617675 -0.12924585 -0.041176986 -0.04788252 -0.02312139 -0.09185358 -0.033413008
-0.0041130995 -0.008870485 -0.099032365 -0.039528888 0.015820598 -0.004488282 -0.09834513 -0.037801825
-0.044608366 -0.12120801 -0.046547607 -0.028340945 -0.04703998 -0.0020890825 -0.0022977123 -0.06502682
-0.03746588 -0.050085425 -0.08989748 -0.053797737 -0.116302386 -0.05530268 -0.2014821 -0.06768887
-0.070223495 -0.10272785 -0.07060082 -0.14171377 -0.04440272 -0.03482716 0.05373043 -0.11491544
-0.15879144 0.023559682 -0.037310623 -0.01821336 -0.0808072 -0.012789559 -0.19379687 -0.15094067
-0.20742744 -0.036490664 0.010822304 -0.174952 0.0068982164 -0.0026310529 -0.013950847 -0.09416694
-0.092094906 0.043539207 -0.19553447 -0.080493346 -0.059213776 0.024510955 0.025545776 -0.08084941
-0.08545862 -0.060592603 -0.15482356 -0.110821135 -0.17282774 -0.08166487 0.013109208 0.081661135
-0.05016393 0.081313446 0.00542014 0.029838419 -0.098497786 0.068281665 -0.028201245 -0.048670564
-0.0023886117 -0.08016171 -0.13502227 -0.11211836 -0.046667006 -0.09670371 -0.098408654 -0.11782264
-0.011099185 0.021048846 -0.008519789 -0.06729916 -0.08427823 -0.24608551 -0.013938856 -0.07795625
-0.035265468 0.09515019 -0.10485888 -0.063488975 -0.10556575 -0.07004249 -0.0403462 -0.11232898
-0.08815304 -0.074881434 -0.1108227 -0.04101017 -0.068824515 -0.0110223135 0.061106883 -0.11899292
-0.0606783 -0.07644996 -0.030084787 -0.089529075 -0.07054957 -0.033551257 -0.056123804 0.011067278
0.0013006049 0.009746768 -0.022207886 0.0038062385 0.029235894 -0.05170419 -0.034307502 -0.1800678
-0.16504072 -0.1263511 -0.072587326 -0.06902437 0.029642284 0.0010804662 -0.078455165 0.036793083
-0.05788884 -0.0020728249 -0.048646204 -0.088122815 -0.03592253 -0.1654375 -0.06565393 0.016228262
-0.091746986 -0.026608594 -0.053122018 -0.0846113 0.052250475 -0.03978509 -0.084833786 -0.050547358
00000000: 0e1a 88bc 83a3 adbd f1db eebc 6cc8 be3b
00000010: 7d1c eb3c ee02 31bc 360d 30bd bc5f d5bd
00000020: 4b1f e83b af45 4fbe 56eb 1cbd 5f02 1cbd
00000030: ffa1 cbbb 23e7 94bd 05e2 f4bd 1abe ce3d
00000040: 71bf c7bc a254 2dbd 6205 35bd 7c8f d2bd
00000050: 43b3 1fbe 046b 9ebd 6e67 f3bd e1fb 723c
00000060: 2595 47bd 3e8e 4fbc e9b7 83bd d59b 8cbe
00000070: 3b1e 9cbd 8243 75bd 89b4 c6bd db32 27be
00000080: 49d5 35be 5bcf c4bd 8b2f 97bd bd73 3f3c
00000090: e04d 2bbd 7517 b83c d7ea 673d 5474 9dbd
000000a0: c98c 1a3d 6370 91bd b903 e7bd 9931 1fbe
000000b0: 8055 3cbd 9327 b0bd 2714 1bbe e3cc 803c
000000c0: b37c 77bd 3503 bcbd 9e1d 94bd b27f 843d
000000d0: 6e80 93bd 8f08 67bd 86e2 9bbd 3e90 99bd
000000e0: 3d6c 87b9 f831 1abe d536 d5bd 8119 39bc
000000f0: dcee 693b 574d d0bd b308 c4bd 7cec 00bb
00000100: eea4 6dbc b30c e3bd 7e20 3cbd f3aa 63bc
00000110: 8384 72bd a8ab a2bd 1c0f e3bd c5ae 1bbe
00000120: f044 e1bd dafc 0b3d 3bb0 66bc 4a4f 9cbd
00000130: d794 bcbd 3d1a 02be 995a 04be 0a15 5dbc
00000140: 64fb 77bd 18bc f4bd 2316 ac3c e036 36be
00000150: ee13 a8bd e79f c73d 451e 95bd 120d babd
00000160: 11da c13c 66d5 c8bd e54b 64bd 69fb 69bc
00000170: 0347 eabd 98bc dc3c cab9 fabc a150 11bd
00000180: 0bf3 e4bd 08df f1bd 4bd0 c9bd 2d7a 72bd
00000190: a105 393c 1ff9 67be 5fa1 68bd 33f9 e6bd
000001a0: f3da 54bd 8fe2 48be 0659 04be 33a9 28bd
000001b0: 7620 44bd 1269 bdbc bb1d bcbd 14dc 08bd
000001c0: 2ec7 86bb 8355 11bc 7bd1 cabd 0be9 21bd
000001d0: 339a 813c 7012 93bb 2c69 c9bd 16d6 1abd
000001e0: 43b7 36bd e83b f8bd b4a8 3ebd 452b e8bc
000001f0: feac 40bd fde8 08bb 3795 16bb c82c 85bd
00000200: d375 19bd 6026 4dbd 2c1c b8bd 045b 5cbd
00000210: f22f eebd 1085 62bd 5351 4ebe 76a0 8abd
00000220: 56d1 8fbd fb62 d2bd 2a97 90bd 6a1d 11be
00000230: a0df 35bd eda6 0ebd 7014 5c3d c958 ebbd
00000240: 399a 22be 3c00 c13c 06d3 18bd 2f34 95bc
00000250: 3f7e a5bd 4c8b 51bc b072 46be 3190 1abe
00000260: dc67 54be 3c77 15bd 0850 313c 9e26 33be
00000270: 6f0a e23b be6d 2cbb 1892 64bc 99da c0bd
00000280: 419c bcbd 2b56 323d 303a 48be b2d9 a4bd
00000290: 258a 72bd 33cb c83c 6045 d13c 6094 a5bd
000002a0: ee04 afbd f32f 78bd 118a 1ebe 31f6 e2bd
000002b0: c1f9 30be e93f a7bd 01c8 563c f43d a73d
000002c0: b178 4dbd aa87 a63d 6e9b b13b b36f f43c
000002d0: 35b9 c9bd 42d7 8b3d 4c06 e7bc c95a 47bd
000002e0: 418a 1cbb d32b a4bd 4743 0abe 509e e5bd
000002f0: e725 3fbd 980c c6bd 7a8a c9bd ff4c f1bd
00000300: 5bd9 35bc a16e ac3c 9696 0bbc 24d4 89bd
00000310: 119a acbd d7fd 7bbe cd5f 64bc 87a7 9fbd
00000320: 8672 10bd 1ade c23d 41c0 d6bd 8206 82bd
00000330: db32 d8bd 7072 8fbd 0f42 25bd bc0c e6bd
00000340: 9589 b4bd 705b 99bd 03f7 e2bd 48fa 27bd
00000350: def3 8cbd ef96 34bc 364b 7a3d 8fb2 f3bd
00000360: cf89 78bd cc91 9cbd 5f74 f6bc 055b b7bd
00000370: 4b7c 90bd 0b6d 09bd 13e2 65bd 8753 353c
00000380: 0f79 aa3a e8b0 1f3c 50ed b5bc 1672 793b
00000390: 1d80 ef3c c6c7 53bd 0686 0cbd b263 38be
000003a0: 6f00 29be 2f62 01be aaa8 94bd a65c 8dbd
000003b0: 60d4 f23c 6e9e 8d3a 1aad a0bd 58b4 163d
000003c0: d91c 6dbd 3bd8 07bb 3e41 47bd bc79 b4bd
000003d0: 8123 13bd 7368 29be 9175 86bd 22f1 843c
000003e0: d8e5 bbbd 44fa d9bc 7996 59bd b048 adbd
000003f0: 9804 563d b1f5 22bd 56bd adbd bf0a 4fbd

actor_mean.2.weight f4 [4, 256]
0.05036564 -0.032173734 0.014871746 -0.048920378 0.047733907 0.07934726 0.08157881 0.12830241
-0.023324518 -0.10490339 -0.201178 -0.057838313 0.45607215 0.03003866 0.043904543 0.26035827
0.0068237307 -0.046107087 0.016345967 -0.0018769547 -0.10225681 -0.15072179 0.07501202 0.15568165
0.10943095 -0.0028899733 -0.10687376 -0.5550613 -0.1592694 0.028418275 0.018091865 0.14728847
0.48128602 0.21140583 -0.005836037 -0.02372907 -0.047024906 0.5650189 -0.008855971 -0.052708004
0.17817597 0.0408141 0.10024561 -0.22259279 -0.18999133 -0.06663782 -0.16572307 0.09065829
-0.01455354 0.23184341 0.037943732 0.076251335 0.0023158046 -0.2019774 -0.02880023 0.0009436183
-0.04316349 -0.25247923 -0.003961366 -0.11422084 -0.012324189 -0.15374646 -0.14279163 0.0053511285
0.0043100896 -0.100582324 -0.0044795363 -0.029657284 0.053251944 0.049556673 -0.22882117 -0.095964454
-0.079740375 0.7004909 -0.1402899 0.076511584 0.1921794 0.24113907 0.0077299112 -0.07870849
0.0055622417 -0.3623327 0.07009736 0.29506734 -0.25763106 0.4264206 0.036812775 0.06825604
0.02505448 -0.3321851 0.014530121 -0.11433472 0.1588431 -0.13427587 0.08290389 0.06780631
0.38047764 0.08405198 -0.080512 -0.10356686 0.024272962 0.3475992 -0.023516804 0.3328233
-0.026722858 -0.08761255 0.3779589 0.03599853 0.18425038 0.028494716 0.27671915 0.02950815
-0.5211062 -0.17740415 -0.08361197 0.00739991 -0.020150302 0.019028364 -0.08345449 0.32713455
-0.01228973 0.15709482 -0.17769648 -0.05916392 -0.014935299 0.13153571 0.028001443 -0.06305905
0.07564164 -0.071292564 0.06687403 -0.43091857 0.18033671 -0.018222414 -0.14782174 0.056661077
0.1415231 -0.008894596 -0.18251725 0.06877837 -0.019405335 -0.32092163 0.092762955 0.038088653
0.07006896 0.013522108 -0.012674123 -0.35873872 -0.02533901 -0.19284661 0.12606965 -0.061610166
-0.28002593 0.08414172 -0.041899387 -0.36202067 0.02361596 0.16051657 0.017471941 0.29192027
-0.2061504 -0.3724958 -0.44018593 0.020435859 -0.011757756 -0.03573498 0.0030073149 -0.2756464
0.060434762 -0.15602207 -0.15903689 0.058944304 0.020896029 -0.122359864 0.060460597 0.1613077
0.06739857 0.10255763 0.03667334 -0.069485314 0.09855237 0.008206015 0.17170858 0.035710268
0.089333616 -0.2429908 -0.11097837 -0.13841698 0.058799826 -0.30095252 0.057829306 -0.11707689
-0.0015861194 0.0005934759 0.0048624543 -0.0634422 0.28792262 -0.56040174 -0.06144897 0.21474351
0.104445204 -0.101531625 -0.053815067 -0.052351102 -0.18935074 -0.049320158 -0.5218417 -0.052235067
0.09686268 -0.045619108 -0.12715091 0.028171623 -0.05135549 0.124877 -0.1699347 0.16956197
0.0041750986 0.045873422 -0.0690256 0.45175448 -0.021353282 0.0104864 0.0041944906 0.030863337
0.09611288 0.102564834 -0.044392783 -0.03959194 0.17338268 -0.09975736 -0.14738083 0.44957578
0.2315304 -0.19172765 0.049502388 -0.038054872 0.358023 0.40982044 -0.06313116 0.19822377
0.0030834952 -0.093567595 0.041208845 0.204377 0.0059943027 -0.6888134 -0.26095432 -0.14755324
0.012330168 0.126257 -0.09519552 0.16743463 -0.0027445303 0.12892541 -0.035753023 0.030350178
00000000: 344c 4e3d 9bc8 03bd a0a8 733c bc60 48bd
00000010: a184 433d d180 a23d cb12 a73d b561 033e
00000020: 0f13 bfbc 97d7 d6bd 9b01 4ebe dee7 6cbd
00000030: 4a82 e93e a313 f63c 40d5 333d ae4d 853e
00000040: 9a99 df3b c9da 3cbd fae7 853c 2604 f6ba
00000050: 056c d1bd d056 1abe e79f 993d 036b 1f3e
00000060: 551d e03d b565 3dbb a1e0 dabd 7f18 0ebf
00000070: 8517 23be 71cd e83c 6435 943c cad2 163e
00000080: 1f6b f63e c57a 583e 3a3c bfbb 7763 c2bc
00000090: 309d 40bd 14a5 103f a218 11bc 59e4 57bd
000000a0: c373 363e b02c 273d 924d cd3d 5def 63be
000000b0: 168d 42be 6979 88bd 4fb3 29be 0eab b93d
000000c0: f971 6ebc 5c68 6d3e e36a 1b3d a929 9c3d
000000d0: c1c4 173b 2ad3 4ebe 76ee ebbc 275d 773a
000000e0: 33cc 30bd f544 81be 59ce 81bb 9eec e9bd
000000f0: 65eb 49bc b66f 1dbe f837 12be 8558 af3b
00000100: a73b 8d3b 1bfe cdbd 13c9 92bb d5f3 f2bc
00000110: b61e 5a3d f0fb 4a3d 1950 6abe 0389 c4bd
00000120: ec4e a3bd 5f53 333f 28a8 0fbe 1bb2 9c3d
00000130: adca 443e 29ed 763e 324b fd3b eb31 a1bd
00000140: 7743 b63b ac83 b9be 348f 8f3d 1113 973e
00000150: 38e8 83be cd53 da3e fec8 163d d3c9 8b3d
00000160: 0e3f cd3c 2a14 aabe bf0f 6e3c 5228 eabd
00000170: c4a7 223e 9d7f 09be 84c9 a93d 09de 8a3d
00000180: f7cd c23e 7223 ac3d 7ae3 a4bd dd1a d4bd
00000190: 17d8 c63c 86f8 b13e 50a6 c0bc d167 aa3e
000001a0: e5e9 dabc 356e b3bd d483 c13e 3273 133d
000001b0: 22ac 3c3e c06d e93c 22ae 8d3e 13bb f13c
000001c0: 3767 05bf 6fa9 35be c13c abbd f27a f23b
000001d0: 3f12 a5bc 5fe1 9b3c 30ea aabd 2e7e a73e
000001e0: dd5a 49bc 77dd 203e 11f6 35be de55 72bd
000001f0: 2fb3 74bc 4cb1 063e 4863 e53c 1a25 81bd
00000200: 01ea 9a3d d601 92bd 40f5 883d 5ca1 dcbe
00000210: 30aa 383e 2c47 95bc 955e 17be 7215 683d
00000220: 6eeb 103e a4ba 11bc cde5 3abe addb 8c3d
00000230: f0f7 9ebc d74f a4be 81fa bd3d d902 1c3d
00000240: 5180 8f3d d58b 5d3c 20a7 4fbc 9aac b7be
00000250: c193 cfbc 9579 45be 6718 013e f15a 7cbd
00000260: 8f5f 8fbe 7e52 ac3d b19e 2bbd c65a b9be
00000270: 4276 c13c 755e 243e 5121 8f3c 9376 953e
00000280: 1719 53be c5b7 bebe 0d60 e1be 1a69 a73c
00000290: 9aa3 40bc d85e 12bd 5f16 453b 8621 8dbe
000002a0: 718a 773d 40c4 1fbe 91da 22be 956f 713d
000002b0: 262e ab3c cf97 fabd 88a5 773d d92d 253e
000002c0: 4308 8a3d bc09 d23d c936 163d 514e 8ebd
000002d0: d3d5 c93d 8672 063c 60d4 2f3e ee44 123d
000002e0: 8bf4 b63d 95d2 78be a148 e3bd 2ebd 0dbe
000002f0: 16d8 703d 7316 9abe 6cde 6c3d 02c6 efbd
00000300: 56e5 cfba 7e93 1b3a 3955 9f3b fced 81bd
00000310: 986a 933e 7d76 0fbf eab1 7bbd b9e5 5b3e
00000320: 5ee7 d53d d0ef cfbd 306d 5cbd 1c6e 56bd
00000330: 29e5 41be ef03 4abd 6b97 05bf 70f4 55bd
00000340: f15f c63d 1adb 3abd d933 02be 2dc8 e63c
00000350: 225a 52bd 83bf ff3d 5d03 2ebe a7a1 2d3e
00000360: 44cf 883b c5e5 3b3d 4b5d 8dbd 5d4c e73e
00000370: 14ed aebc 26cf 2b3c f071 893b 1cd5 fc3c
00000380: d4d6 c43d 830d d23d 35d5 35bd 282b 22bd
00000390: 3b8b 313e 964d ccbd 00eb 16be cc2e e63e
000003a0: 4e16 6d3e 4154 44be 04c3 4a3d 6ddf 1bbd
000003b0: ca4e b73e fcd3 d13e e94a 81bd 2cfb 4a3e
000003c0: 7714 4a3b 5ea0 bfbd 9bca 283d 3448 513e
000003d0: db6b c43b 1356 30bf ce9b 85be 3218 17be
000003e0: 7904 4a3c 8449 013e def5 c2bd fc73 2b3e
000003f0: 94dd 33bb 0605 043e c371 12bd f0a0 f83c

actor_mean.2.bias f4 [4]
0.057716537 -0.04714848 -0.08305324 0.066963226
00000000: 2d68 6c3d c41e 41bd d117 aabd 0424 893d

critic.0.weight f4 [256, 256]
0.15694024 0.19224945 -0.055165116 0.67907584 -0.21728922 0.016094476 -0.0056828503 -0.07348705
-0.16628112 -0.11194598 -0.4556179 0.22624342 0.17117585 0.079949625 -0.32974932 0.104559265
0.18099943 0.15193392 0.13922167 0.14554404 0.05821386 0.15510763 0.41638288 -0.04239322
-0.015357196 0.27031383 -0.062024098 -0.009651417 -0.5244395 -0.063305385 0.13030355 0.19970332
0.1600618 -0.12848733 0.15370741 0.16528854 -0.11627495 -0.107689604 -0.12671883 0.2956148
-0.026973255 0.058242045 0.2344067 -0.021702945 0.12910399 0.46565723 -0.022452518 0.12146997
-0.11422411 0.31945187 -0.10448745 0.12134711 -0.18113622 -0.03320399 0.17828995 -0.015744869
0.118756145 0.35080633 -0.085310444 0.13237366 0.11484057 0.14851066 0.022030698 0.3052816
-0.2861783 -0.106044956 -0.030063724 0.07589878 0.16178879 0.1202345 -0.23265058 0.0065296525
-0.28446227 -0.15591648 0.016769353 0.17210986 -0.08931363 -0.11600926 -0.19225779 -0.14197212
0.21976884 0.17627144 0.14424427 0.014179613 0.27269262 0.087710865 -0.68862265 -0.22456214
-0.10342566 -0.2380319 0.12867127 0.12156654 -0.4961472 -0.04007437 0.21270387 0.0874848
-0.07354921 0.021535609 0.12762837 -0.05411937 -0.025031738 0.33913937 -0.14510429 0.19202957
0.099744715 0.30975488 0.42105493 -0.14164229 -0.72976255 0.020458993 0.297423 -0.15841293
0.30096757 -0.06458927 -0.18075243 0.07233546 0.23521572 0.40645614 0.13787334 0.009272579
0.104608975 0.1168207 -0.1879727 0.031839494 -0.30093068 0.3434822 0.024024814 -0.012490085
-0.21201439 -0.07302205 0.021891674 0.16926934 0.3517707 -0.10999212 -0.078049585 0.0071462328
0.3190899 -0.018456964 0.033918057 0.66482514 0.20912199 -0.2880829 0.20237754 -0.044523995
0.03921687 0.20341238 0.042312317 0.09552061 -0.0013639198 0.042870384 -0.022822514 -0.09556163
0.102150545 -0.39294112 0.21542333 -0.027342264 0.106745794 -0.01600064 0.30279383 -0.34418467
-0.02707842 -0.12938127 0.028219445 0.18522753 0.043208808 0.18048559 0.13302197 -0.18962286
0.0949189 0.41336998 -0.09093305 0.02246125 0.087964304 0.25353023 0.06715362 0.12135471
0.27574185 0.0056756306 0.011736728 -0.20621304 0.12155353 -0.2663753 0.09981245 -0.21462248
-0.006300246 0.03362743 0.15902863 0.2414424 0.1384583 -0.17294216 -0.0051242234 -0.08206727
0.04775406 0.20487589 -0.07929921 0.06997267 -0.12509437 -0.099533506 0.19785702 0.07862955
0.010254451 0.107211076 0.014048433 0.39071295 0.030267594 0.023362186 -0.023694584 0.10887144
0.21439864 -0.15917578 0.070549116 -0.043331597 0.18297327 -0.09083218 -0.158171 -0.24728309
-0.15467544 0.03253367 -0.18023837 0.022199338 0.04292698 -0.092871346 -0.08010526 -0.22924174
-0.22627412 -0.1646892 0.08996244 0.020844845 -0.2621107 0.08882547 0.13007483 0.041932985
-0.08304525 0.110884696 -0.033443566 -0.32178348 0.109039485 -0.040816464 0.3375779 0.0012192102
0.24186157 0.45852357 -0.022575675 0.055365767 -0.21015309 0.034852166 -0.13602339 0.21836032
-0.014530669 0.119990796 -0.11433275 -0.030151919 0.06478235 0.045488283 0.07647438 0.16989534
00000000: f1b4 203e 0add 443e d1f4 61bd ead7 2d3f
00000010: 1181 5ebe 90d8 833c 3437 babb 6180 96bd
00000020: 9945 2abe ef43 e5bd c046 e9be 5bac 673e
00000030: b948 2f3e a1bc a33d e7d4 a8be 2b23 d63d
00000040: ea57 393e 9194 1b3e 2090 0e3e 7f09 153e
00000050: a871 6e3d 89d4 1e3e 2330 d53e 83a4 2dbd
00000060: c09c 7bbc 9366 8a3e fb0c 7ebd fa20 1ebc
00000070: ab41 06bf 41a6 81bd 4b6e 053e 077f 4c3e
00000080: 3ee7 233e 2f92 03be 7a65 1d3e 6641 293e
00000090: 9021 eebd 5e8c dcbd 95c2 01be d35a 973e
000000a0: 04f7 dcbc 368f 6e3d 4f08 703e 60ca b1bc
000000b0: d633 043e a06a ee3e 58ee b7bc 3fc5 f83d
000000c0: 55ee e9bd 328f a33e 84fd d5bd d584 f83d
000000d0: c67b 39be e800 08bd a491 363e 62fb 80bc
000000e0: 6c36 f33d e39c b33e 3eb7 aebd f68c 073e
000000f0: 8831 eb3d 2e13 183e b979 b43c df4d 9c3e
00000100: f685 92be 192e d9bd 3348 f6bc d270 9b3d
00000110: f6ab 253e 813d f63d f43b 6ebe b2f6 d53b
00000120: 0aa5 91be 92a8 1fbe e25f 893c 913d 303e
00000130: 10ea b6bd 4396 edbd 3adf 44be 2461 11be
00000140: 150b 613e 8080 343e c5b4 133e 9c51 683c
00000150: 5e9e 8b3e c1a1 b33d 9349 30bf 9ef3 65be
00000160: d5d0 d3bd a2be 73be 67c2 033e e1f7 f83d
00000170: 0107 febe 0625 24bd 0bcf 593e 3b2b b33d
00000180: f8a0 96bd 726b b03c 03b1 023e 46ac 5dbd
00000190: 5c0f cdbc ada3 ad3e 3896 14be 66a3 443e
000001a0: f546 cc3d 3198 9e3e 8394 d73e ad0a 11be
000001b0: b8d1 3abf 9e99 a73c d447 983e 0037 22be
000001c0: 6c18 9a3e 6147 84bd 2a17 39be 9d24 943d
000001d0: 64dc 703e 051b d03e ab2e 0d3e 04ec 173c
000001e0: 3b3d d63d b13f ef3d ea7b 40be 216a 023d
000001f0: 9613 9abe e6dc af3e b0cf c43c 37a3 4cbc
00000200: 4d1a 59be 968c 95bd 2b56 b33c f154 2d3e
00000210: 4a1b b43e 8c43 e1bd 76d8 9fbd f22a ea3b
00000220: c05f a33e 0f33 97bc a9ed 0a3d fb31 2a3f
00000230: 1324 563e 9a7f 93be 0f3c 4f3e cb5e 36bd
00000240: dea1 203d 564b 503e ae4f 2d3d 4fa0 c33d
00000250: 8ec5 b2ba db98 2f3d 48f6 babc d1b5 c3bd
00000260: 4e34 d13d 942f c9be ef97 5c3e e2fc dfbc
00000270: 8a9d da3d c613 83bc cb07 9b3e f938 b0be
00000280: 90d3 ddbc 867c 04be 772c e73c 49ac 3d3e
00000290: b8fb 303d 37d1 383e e936 083e 7f2c 42be
000002a0: d764 c23d 3ba5 d33e 1b3b babd a800 b83c
000002b0: a126 b43d b7ce 813e d687 893d d188 f83d
000002c0: 092e 8d3e a4fa b93b 684b 403c 8329 53be
000002d0: 0ff1 f83d 5862 88be 786a cc3d ffc5 5bbe
000002e0: 4b72 cebb ebbc 093d 67d8 223e ad3c 773e
000002f0: 03c8 0d3e c017 31be 1ae9 a7bb e312 a8bd
00000300: c399 433d fcca 513e a067 a2bd d54d 8f3d
00000310: bd18 00be 39d8 cbbd 089b 4a3e 8808 a13d
00000320: 4902 283c 7b91 db3d 662b 663c 870b c83e
00000330: bff3 f73c 0e62 bf3c 251b c2bc fdf7 de3d
00000340: 518b 5b3e fafe 22be 0e7c 903d 797c 31bd
00000350: 585d 3b3e 3906 babd 94f7 21be c737 7dbe
00000360: 3d63 1ebe 0742 053d 6890 38be 63db b53c
00000370: 33d4 2f3d 5533 bebd 3a0e a4bd 59be 6abe
00000380: 67b4 67be 49a4 28be 3a3e b83d cfc2 aa3c
00000390: 6033 86be 21ea b53d 5632 053e ecc1 2b3d
000003a0: a113 aabd 8417 e33d 1ffc 08bd cec0 a4be
000003b0: 1850 df3d 2a2f 27bd 03d7 ac3e e8cd 9f3a
000003c0: 8faa 773e 9ac3 ea3e 9ff0 b8bc 37c7 623d
000003d0: 5f32 57be 25c1 0e3d b749 0bbe d999 5f3e
000003e0: 0b12 6ebc bcbd f53d 4a27 eabd 2801 f7bc
000003f0: 9cac 843d ec51 3a3d 9a9e 9c3d 0bf9 2d3e

critic.0.bias f4 [256]
0.22052702 0.05689924 0.14751422 0.1435457 0.008330799 0.1696573 0.085718624 0.2536244
0.26020935 0.040709578 0.2580711 0.105525106 0.113916114 0.31011236 0.0155710075 0.12298015
-0.07241832 0.056303088 0.06317045 -0.029051114 0.31447226 0.12554142 -0.002512539 0.26995724
0.03584471 0.25307676 0.12018397 0.0076390686 0.28843606 -0.05510632 0.10090795 0.1117372
0.013911642 0.094893984 0.06112316 0.28303748 0.28522533 0.051148653 0.24396811 -0.048895266
0.0014073931 0.23368084 0.24774607 -0.23636825 0.15139244 0.13726793 0.27358237 -0.03960856
-0.041313857 -0.059392013 -0.06788267 0.26543313 -0.04423552 0.20273647 0.059383895 0.120213024
0.12305551 0.02412034 0.24726193 0.12067442 -0.047985654 0.28104675 0.015691467 0.20766525
0.20997529 0.13637023 0.077641845 0.1038523 0.054944467 -0.019193098 0.055944037 0.3399903
-0.004507817 0.048885174 0.19374189 0.28693804 0.048952047 0.1540398 -0.10670672 0.15739162
0.11040191 0.07372992 0.13167146 0.07065805 -0.055216968 0.01963053 0.0026421181 -0.049382042
0.2097832 -0.0668461 0.27435735 -6.263675e-05 -0.047967628 -0.07576254 0.27416873 0.18488838
0.036953885 0.010324653 0.20684204 -0.13032018 0.15141368 0.00012910887 0.0093758395 0.08537538
0.11496308 0.15862128 -0.026399449 -0.0039610392 0.01848704 0.060902644 -0.033111345 0.12590708
-0.045694042 0.24334286 0.24956432 0.059013236 0.17792669 0.12736163 -0.020112732 -0.031896967
0.016175589 0.145057 0.019743856 -0.027963528 -0.033210855 -0.07297798 0.025199717 -0.0650559
-0.021512946 0.038281627 0.1186233 0.23226154 -0.054332364 0.22540876 0.004907951 0.23054375
0.053134724 0.20975105 0.20557642 0.0018209667 0.04728533 0.09310835 0.07356869 0.16143231
-0.065267846 -0.060002 0.20174338 0.28506646 -0.025835464 0.0082561355 -0.03439103 0.1468712
0.06835323 0.13683237 -0.051565975 0.2406087 0.31006172 -0.041494742 0.1039509 0.15817066
0.05629961 0.057578113 0.033218402 0.18740873 0.15659764 0.13113223 0.19213384 0.005619834
0.18768737 0.1726781 0.25975734 0.0015458236 0.31103316 -0.025294753 -0.040705282 0.1477606
0.050018635 0.23137413 0.18594772 0.24973795 0.09936707 0.070051044 0.120256394 0.34260672
0.082973845 0.033381775 0.021176534 0.022607863 0.1188363 0.0026621986 0.13393271 0.017496757
0.03653692 0.044736806 -0.061218675 0.15682587 -0.039293032 -0.011088257 0.087242015 -0.08378019
0.18071792 0.2517077 -0.0340207 0.017583271 0.031246135 0.0026714385 0.26408845 0.04353331
0.009132854 0.030493565 0.029602654 0.043456703 0.01662372 -0.0047435593 0.08700924 -0.056894664
0.08010191 0.1948148 -0.055846907 -0.044851854 -0.010415362 0.10682241 0.2797357 0.24654439
0.26361322 0.013638502 0.11529974 0.21869 -0.04034294 -0.010833175 0.13037145 0.117651515
0.011692844 -0.0561683 0.26657808 0.09554878 -0.01534377 0.005980722 0.07189746 0.1777098
0.14175045 0.046598267 0.32987896 0.014117536 0.16350512 0.16674761 0.09212755 0.025345644
0.121381685 -0.07052862 -0.09001205 0.23598427 0.04991608 -0.06078076 0.10167918 0.27869168
00000000: d6d1 613e 2d0f 693d f80d 173e a5fd 123e
00000010: e77d 083c a5ba 2d3e 3f8d af3d 0fdb 813e
00000020: 293a 853e 16bf 263d e521 843e 8c1d d83d
00000030: da4c e93d 0cc7 9e3e 8a1d 7f3c 04dd fb3d
00000040: 0e50 94bd 119e 663d 825f 813d 9afc edbc
00000050: 8202 a13e ee8d 003e 69a9 24bb d637 8a3e
00000060: e7d1 123d 4793 813e 0323 f63d 2751 fa3b
00000070: e4ad 933e 2ab7 61bd d4a8 ce3d 79d6 e43d
00000080: a8ed 633c c757 c23d 475c 7a3d 4aea 903e
00000090: 0e09 923e 4081 513d c7d2 793e 6746 48bd
000000a0: 4778 b83a 084a 6f3e 25b1 7d3e 850a 72be
000000b0: 9f06 1b3e f78f 0c3e fd12 8c3e 963c 22bd
000000c0: b838 29bd 0a45 73bd 1206 8bbd dae6 873e
000000d0: 4e30 35bd 269a 4f3e 873c 733d 3f32 f63d
000000e0: 8704 fc3d 0598 c53c 3b32 7d3e 2624 f73d
000000f0: 9b8c 44bd 5ce5 8f3e 648b 803c 33a6 543e
00000100: c303 573e a3a4 0b3e b002 9f3d 84b0 d43d
00000110: 730d 613d d83a 9dbc 9325 653d 3513 ae3e
00000120: 4fb6 93bb d23b 483d 4664 463e 8be9 923e
00000130: f181 483d 9cbc 1d3e 0e89 dabd 452b 213e
00000140: 661a e23d b6ff 963d e2d4 063e 2bb5 903d
00000150: 302b 62bd 35d0 a03c 6327 2d3b d344 4abd
00000160: 68d1 563e 9ce6 88bd 9178 8c3e d95b 83b8
00000170: b479 44bd 6429 9bbd d85f 8c3e 6153 3d3e
00000180: f55c 173d bc28 293c 66ce 533e a772 05be
00000190: 300c 1b3e 6661 0739 1f9d 193c 4ad9 ae3d
000001a0: c371 eb3d 9e6d 223e a843 d8bc 9bcb 81bb
000001b0: 2272 973c 0d75 793d c39f 07bd c9ed 003e
000001c0: ad29 3bbd df2e 793e ca8d 7f3e ddb7 713d
000001d0: 6a32 363e 166b 023e 75c3 a4bc 65a6 02bd
000001e0: ab82 843c d289 143e debd a13c c513 e5bc
000001f0: 1b08 08bd 7b75 95bd a36f ce3c 073c 85bd
00000200: eb3b b0bc 32cd 1c3d c6f0 f23d f8d5 6d3e
00000210: 9d8b 5ebd 8ed1 663e e1d2 a03b a913 6c3e
00000220: cca3 593d fbc8 563e a082 523e 81ad ee3a
00000230: 43ae 413d 97af be3d 2eab 963d 834e 253e
00000240: 26ab 85bd a8c4 75bd d195 4e3e 3bf4 913e
00000250: e5a4 d3bc be44 073c 9cdd 0cbd 6765 163e
00000260: c7fc 8b3d c91d 0c3e d836 53bd 2162 763e
00000270: 69c0 9e3e 64f6 29bd 36e4 d43d 7df7 213e
00000280: 6b9a 663d 07d7 6b3d 0510 083d 13e8 3f3e
00000290: 225b 203e 8747 063e bcbe 443e 9626 b83b
000002a0: 1e31 403e 87d2 303e eafe 843e 3c9d ca3a
000002b0: bd3f 9f3e f136 cfbc 95ba 26bd 8e4e 173e
000002c0: 57e0 4c3d 57ed 6c3e 1469 3e3e 4ebb 7f3e
000002d0: f680 cb3d ec76 8f3d fc48 f63d 266a af3e
000002e0: 31ee a93d 54bb 083d 697a ad3c 2034 b93c
000002f0: 7260 f33d 4878 2e3b a825 093e 5c55 8f3c
00000300: bda7 153d f13d 373d 6fc0 7abd f696 203e
00000310: bbf1 20bd 85ab 35bc f1ab b23d f394 abbd
00000320: 1e0e 393e d5df 803e 4a59 0bbd cb0a 903c
00000330: e5f7 ff3c 4d13 2f3b 9a36 873e fc4f 323d
00000340: f7a1 153c a4cd f93c 4481 f23c a8ff 313d
00000350: 782e 883c dc6f 9bbb e731 b23d 610a 69bd
00000360: 780c a43d 887d 473e babf 64bd 94b6 37bd
00000370: 32a5 2abc b5c5 da3d 8539 8f3e 2276 7c3e
00000380: 50f8 863e 0674 5f3c 4522 ec3d 45f0 5f3e
00000390: a33e 25bd a17d 31bc 1880 053e 47f3 f03d
000003a0: 5893 3f3c bb10 66bd ec7c 883e 14af c33d
000003b0: 7064 7bbc eff9 c33b fa3e 933d 8ff9 353e
000003c0: 0827 113e d3dd 3e3d e5e5 a83e 3d4d 673c
000003d0: e36d 273e e3bf 2a3e 5ead bc3d aba1 cf3c
000003e0: f696 f83d 4f71 90bd 3d58 b8bd dca5 713e
000003f0: ce74 4c3d 3ff5 78bd 2d3d d03d adb0 8e3e

critic.2.weight f4 [1, 256]
0.25272265 -0.7471608 -0.24750617 -0.30784756 -0.4193317 0.6780852 0.91940975 0.15128398
0.13167721 -0.8884066 0.16275145 0.21095921 0.5967723 0.22270556 0.002501295 -1.258173
0.034419633 0.036318123 -0.5246424 -0.2029509 0.06149908 0.9547867 -0.16906585 0.21016443
-0.3627186 -0.49140137 0.38200188 0.095278956 0.14084907 -0.0009850741 -1.8035431 -0.49182764
0.0012651272 -1.3588341 -0.1183786 0.19406842 0.10709347 -0.50716573 0.032384932 -0.7519661
-0.25900525 0.32091293 0.40728995 -0.4567505 -0.35346746 -0.510665 0.1439465 -0.003447253
0.017499847 0.0046909703 -0.0009023864 0.091460764 0.03173662 0.1230532 0.5817601 -0.23148748
-0.41933778 0.040428963 0.08070922 -1.0193641 0.021016229 0.09232895 0.008370862 -0.96554637
0.1141216 -0.3389253 -1.1671076 -0.22122937 -0.7499253 0.030321542 -0.48414436 0.1527012
0.053390227 -0.30982363 0.15052125 -1.0809001 -0.335107 0.62752324 -0.61932594 -0.68109345
-0.7908866 -0.58104837 -0.9344659 -0.70844793 -0.23896149 -0.9509868 -0.848656 -0.24381849
0.37539184 0.020153271 0.3815035 -0.5170289 -0.60281324 0.025104707 0.117990226 0.40848067
0.03175529 -0.17063156 0.38157517 -1.9125912 -0.19577341 0.038457196 -0.38373822 -0.08555099
-0.39586657 -0.30350685 -0.0025179512 0.042185448 -0.53216743 -0.18695143 0.08804125 -0.6193862
0.0066812714 0.13140787 0.4093509 -0.6304216 0.018071873 -0.58900887 -0.39774692 -0.0028135858
-0.34189388 -0.8717989 -0.6152001 0.026797362 0.00082183175 0.0048692008 0.61808795 -0.34449494
-0.5312314 -0.38585427 -0.26467264 -1.0739545 0.13156463 -1.1960158 -0.0015948071 -1.4171418
-0.41097033 0.40921947 0.74032867 -0.28332248 -0.19895534 -0.1800789 -0.3119173 0.6573012
0.0028277715 0.036675796 0.17752983 0.1467038 0.036331613 0.020608293 -0.62499684 -1.8632903
0.31150803 0.3620296 0.04051707 -1.3154523 0.11516829 0.020224962 -0.8901308 -0.35212559
-0.71526796 -1.0605972 0.21473594 -0.27019638 0.17168151 -0.48372766 -0.822476 0.030545946
-0.680257 -0.902495 0.18537717 -0.0020871696 0.13319118 0.01893009 0.07770306 0.39156342
-0.15774797 0.18814167 0.08474742 -0.80267555 -0.2645917 0.19240929 -0.80133724 -1.3601048
-0.8486999 -0.13415365 -0.95851547 0.04052775 0.25997317 -0.29168198 -0.111362144 -0.6481859
0.013893051 -0.9396525 -0.1656247 -2.335615 -0.17182854 0.030664667 -0.5269207 0.027844027
0.035431713 0.07486116 0.011907536 0.013868893 -0.7095285 0.036678698 0.16343193 -0.15816729
0.0117801605 -0.37478694 0.24047635 -0.64628005 -0.8577335 -0.264638 -0.8785607 0.016435243
-0.75415474 0.06538725 -0.11216637 -0.52156186 -0.11506881 -0.85762775 0.20677929 0.13759258
-1.283765 0.017652016 -0.4006775 0.56188154 -0.4783603 -0.25925425 -0.69077253 -0.4948896
0.42421702 -0.44653696 -1.7796267 -0.32495248 -0.35737506 0.0480615 -0.6409342 -0.5541111
-0.58345634 -0.29099107 0.16934007 0.044391487 -0.50282097 0.22266226 -0.25626218 -0.23108253
-0.6853195 -0.39994898 0.03741451 0.37131715 0.11710917 -0.18172482 -0.7751951 -1.6069212
00000000: dd64 813e ee45 3fbf 4272 7dbe 329e 9dbe
00000010: a5b2 d6be fe96 2d3f 705e 6b3f 30ea 1a3e
00000020: 64d6 063e 9d6e 63bf 51a8 263e b105 583e
00000030: 12c6 183f ed0c 643e c4ec 233b d00b a1bf
00000040: 9afb 0c3d 50c2 143d f74e 06bf 5cd2 4fbe
00000050: 76e6 7b3d e76c 743f 991f 2dbe 5835 573e
00000060: 41b6 b9be f698 fbbe c095 c33e 9d21 c33d
00000070: bd3a 103e 9a1d 81ba 80da e6bf d5d0 fbbe
00000080: a0d2 a53a 47ee adbf 7b70 f2bd dfb9 463e
00000090: d253 db3d 9dd5 01bf 10a6 043d da80 40bf
000000a0: 569c 84be b34e a43e 4f88 d03e 34db e9be
000000b0: b0f9 b4be f1ba 02bf b666 133e 4feb 61bb
000000c0: d75b 8f3c b6b6 993b 208e 6cba c84f bb3d
000000d0: 42fe 013d 5103 fc3d 3bee 143f 0e0b 6dbe
000000e0: 71b3 d6be d798 253d e04a a53d 867a 82bf
000000f0: 3a2a ac3c f616 bd3d f125 093c 0c2e 77bf
00000100: 96b8 e93d 9e87 adbe c863 95bf f489 62be
00000110: 1bfb 3fbf e264 f83c c5e1 f7be b45d 1c3e
00000120: b6af 5a3d 34a1 9ebe 3e22 1a3e ef5a 8abf
00000130: 2593 abbe 5da5 203f 258c 1ebf 245c 2ebf
00000140: 8b77 4abf 96bf 14bf 2839 6fbf d85c 35bf
00000150: 52b2 74be df73 73bf 8541 59bf 8eab 79be
00000160: 5c33 c03e 7918 a53c 6d54 c33e 025c 04bf
00000170: f851 1abf 63a8 cd3c dca4 f13d 6124 d13e
00000180: d611 023d 0aba 2ebe d25d c33e cacf f4bf
00000190: d378 48be 4b85 1d3d 5679 c4be 5c35 afbd
000001a0: 06af cabe 4065 9bbe 3604 25bb a6ca 2c3d
000001b0: 203c 08bf 3270 3fbe f94e b43d 1890 1ebf
000001c0: 91ee da3b c98f 063e 7196 d13e 4f63 21bf
000001d0: 770b 943c 49c9 16bf 7ca5 cbbe 2364 38bb
000001e0: b70c afbe 362e 5fbf c17d 1dbf 2486 db3c
000001f0: 3270 573a d18d 9f3b 033b 1e3f a461 b0be
00000200: c8fe 07bf b18e c5be 2c83 87be 5777 89bf
00000210: e1b8 063e 0c17 99bf d908 d1ba e764 b5bf
00000220: b46a d2be 3785 d13e 2e86 3d3f a50f 91be
00000230: f3ba 4bbe 9a66 38be a0b3 9fbe e444 283f
00000240: 2252 393b 5c39 163d 61ca 353e 8539 163e
00000250: 75d0 143d b9d2 a83c cbff 1fbf 4c80 eebf
00000260: fb7d 9f3e f25b b93e 3af5 253d be60 a8bf
00000270: 5add eb3d d2ae a53c 9ddf 63bf ce49 b4be
00000280: cd1b 37bf a6c1 87bf bde3 5b3e 2e57 8abe
00000290: 47cd 2f3e 27ab f7be ca8d 52bf 7e3b fa3c
000002a0: 5325 2ebf ea09 67bf 83d3 3d3e e5c8 08bb
000002b0: 4563 083e 4713 9b3c c822 9f3d 007b c83e
000002c0: af88 21be 36a8 403e 0e90 ad3d 257c 4dbf
000002d0: 9078 87be f106 453e 7024 4dbf ea17 aebf
000002e0: 6644 59bf 935f 09be 4561 75bf 6d00 263d
000002f0: 341b 853e 5757 95be d611 e4bd 83ef 25bf
00000300: ae9f 633c 118d 70bf 8599 29be b77a 15c0
00000310: d2f3 2fbe 7834 fb3c 46e4 06bf 2819 e43c
00000320: d820 113d cf50 993d d317 433c 5a3a 633c
00000330: a9a3 35bf 673c 163d b35a 273e 9bf6 21be
00000340: 9301 413c 13e4 bfbe 6f3f 763e 9c72 25bf
00000350: 6c94 5bbf a27e 87be 5be9 60bf 34a3 863c
00000360: 4910 41bf c0e9 853d 7bb7 e5bd 1485 05bf
00000370: 32a9 ebbd 7e8d 5bbf f3bd 533e 12e5 0c3e
00000380: 6952 a4bf f69a 903c 9a25 cdbe 78d7 0f3f
00000390: a4eb f4be f9bc 84be 78d6 30bf 2b62 fdbe
000003a0: f932 d93e 7ea0 e4be cfca e3bf 2c60 a6be
000003b0: ddf9 b6be 23dc 443d 4414 24bf 3ada 0dbf
000003c0: 655d 15bf c8fc 94be 7c67 2d3e d9d3 353d
000003d0: e0b8 00bf 9301 643e cc34 83be e6a0 6cbe
000003e0: 1971 2fbf 1dc6 ccbe f53f 193d 481d be3e
000003f0: efd6 ef3d 1216 3abe 3073 46bf 98af cdbf
