best_model.pth (torch, 591970 bytes, 13 tensors)

net.0.weight f4 [256, 24]
00000000: 66ca 523e 8906 0c3e 8659 b83d 8c24 263e
00000010: ea4b 7fbd 19a9 a83d 466a 29be 66cf c53d
00000020: 7589 463e a74d 04be 7915 643e 7721 cf3d
00000030: deed 213e 01be 813c 0a06 f83d 8cd7 c6bb
00000040: 786e 383e 31eb 573d 0dee 94bd 9f54 9a3d
00000050: 87a9 91bd 9226 89ba fac9 83bd a5ed 063e
00000060: e1f1 6fbe 0465 c6bd 9f6d 10be 6546 b5bd
00000070: c9e7 fd3c 0e4f 52be 4d2a 303e c1d9 33be
00000080: a75f 213e e53c a23c 71ab 79bd 3d58 c33d
00000090: 5fc0 873c 57d6 293e 678a 023c 636b a1bd
000000a0: fb78 253d c36e 8ebd 90d3 923d 5422 2b3e
000000b0: 4ea3 d33d 59c0 d3bd 803b d63d d8ce 063d
000000c0: 7ccb 0d3e e06f 1cbe 8487 18be 0bc9 54bd
000000d0: 7fe7 1ebe b191 2a3e 8529 2f3d d3f9 ed3d
000000e0: 89e3 a23d bde9 b0bb c5b2 713e ee31 fcbd
000000f0: 2f9f 8a3c 2733 00be c7de a73d 1ab9 51bd
00000100: 3416 a73d d951 c2bc 87c2 403e ba8f cfbd
00000110: bfe8 d1bd e082 d2bd 82eb 4c3e 71e7 7d3d
00000120: a479 7c3e 75d1 69be fa7f 05be fedc 41be
00000130: ac24 15be c7a4 ee3d f5fa 983d f377 433e
00000140: 713d 89bd 0f59 0abe 79aa 403e c7e8 6abd
00000150: 0f34 b83d 740e 64bd 1bfb 013e 97ed 17be
00000160: c10b bebd 98fa 933d af14 5a3d da31 29bd
00000170: 473d 073e f659 183e 279d 0fbe e292 efbd
00000180: ebb6 373e 75a7 b4bd 51f2 3bbd 42e4 44be
00000190: c347 e7bd 42c2 0a3d c0a4 1dbd 28b5 13be
000001a0: 0583 e5bc a1db 1fbe 9257 3cbe b671 11be
000001b0: d0d4 33be 49d0 e1bd 209e 4f3e 1293 183d
000001c0: 8a4c 7c3d f349 44be 2c9b 0abe c7b3 8dbd
000001d0: ca0d fb3c 4037 39be 0def b7bd 23d0 00be
000001e0: b6f5 ef3c f552 e8bc 504f eebc 5947 06be
000001f0: 7eab e4bd 61a0 01be 3e80 07bd 4c21 2cbe
00000200: 3f31 463e 2bd9 77bd dea1 693e 4683 7f3d
00000210: 1398 58be a3c7 083e c305 11bd 1516 6bbd
00000220: 4a3f 18be 90df 3abe e1ef a13d a0a5 bcbc
00000230: 30ba cd3d 4d1c 16be 772c 333e 8b8e 04be
00000240: 74e3 96bd 4da7 d8bc 75b5 a93d fc39 653e
00000250: 16e9 293e d758 15be a0ae 5d3d f8be d1bd
00000260: dd1a a2bc 1c3b 23be 07d6 4a3e 479a 2bbe
00000270: 1233 d93d a2a8 5e3d 0ea5 1a3d 205f 0ebe
00000280: a5b1 203e 1cbb 873c 008d 0ebb 5355 56be
00000290: f3d6 683d 7ea2 73bd ca3d fabd 1903 293e
000002a0: 71b4 5c3d c500 01be 9029 b6bd 4c6e f2bc
000002b0: 7270 ef3d 3438 7ebd a81a 18be 9f07 28bd
000002c0: d4ac edbd df64 b43d b1ff 3d3e 5e9d 48be
000002d0: 9078 6e3d 1000 bc3d 8001 573d a02e 6abd
000002e0: 6afd f93d 1437 fb3d eae1 bb3d 0488 a3bc
000002f0: c92e 1dbd da46 183d ab5d 9bbc e997 52bd
00000300: 2d64 f33d 6060 d83d 571d 663d d2a6 50bd
00000310: 2cc3 22bd b8db c2bc a09b 4c3d d41b 623d
00000320: 855a 46be 037f 83bd b736 443e 13e1 fb3d
00000330: ff65 01bc 45af 26be 23a7 17be 4b00 53be
00000340: 3fce b7bd 9b3d 3b3d ee03 db3d d881 913d
00000350: 0e89 50be b27e 15be d713 6fbd b521 273e
00000360: cc4c 5e3d 4cb9 6abd 2fbc 653d 3966 7dbd
00000370: 7efd 09be 8146 0f3e ab9c 84bd 0ac1 17bd
00000380: 6e7e 84be bcea bd3d 28b7 1b3e d0a7 993d
00000390: 1719 0dbe 9352 6abe 9b4a 3dbe a557 083e
000003a0: 91a8 a13d aa5e 1c3e e8f3 b33d 2f84 053d
000003b0: 838d acbc f89c 32be 871d 46be 9c59 53be
000003c0: aa51 9a3d fc4d 0dbe c78f 883b 3fb2 00be
000003d0: e0cf a5bd e251 09be 7b4e fbbd a7ce 7e3d
000003e0: 47c6 73bd 4328 ec3d 4462 5cbd 8ca1 fabd
000003f0: def6 3abd 54a9 efbd 2f0f adbd ea91 5dbe
0.20585021 0.13674368 0.0900145 0.16224879 -0.062328257 0.08235378 -0.16544446 0.09658699
0.19388373 -0.12920247 0.22273816 0.10113805 0.15813395 0.015837671 0.12110527 -0.0060681757
0.1801089 0.05271453 -0.07271967 0.075356714 -0.07112413 -0.0010463765 -0.06435008 0.13176592
-0.23432113 -0.09687236 -0.14104317 -0.08851317 0.030994313 -0.2053797 0.17203636 -0.17563535
0.15759145 0.019804427 -0.060954515 0.095383145 0.016571222 0.1658567 0.007967568 -0.078818105
0.04039858 -0.0695472 0.071692586 0.16712314 0.10333882 -0.10339422 0.104605675 0.032912105
0.13847154 -0.15277052 -0.14895445 -0.051949542 -0.15517996 0.1665714 0.042764205 0.11619916
0.07953555 -0.0053989575 0.23603351 -0.12314211 0.016921608 -0.12519513 0.08196788 -0.051201917
0.08158532 -0.023720669 0.18824206 -0.101348355 -0.10249471 -0.10278869 0.20011714 0.061988298
0.24655777 -0.22833808 -0.130371 -0.18931958 -0.1456477 0.116525225 0.07469741 0.19088726
-0.06701172 -0.13510536 0.1881503 -0.0573509 0.089943044 -0.055677846 0.12693445 -0.14836727
-0.09279586 0.07225531 0.05324238 -0.041307308 0.13206969 0.14878067 -0.14024793 -0.116979375
0.17940871 -0.088210024 -0.045885388 -0.19227698 -0.11292984 0.033876665 -0.038487196 -0.14424574
-0.028016577 -0.15611126 -0.1839278 -0.14203534 -0.1756165 -0.11026055 0.20275164 0.037249632
0.06159643 -0.19168834 -0.13535756 -0.069190554 0.030646224 -0.18087482 -0.08981142 -0.12579398
0.029291969 -0.02835987 -0.029090554 -0.13113154 -0.11165522 -0.12658836 -0.033081286 -0.16809577
0.19354723 -0.060509842 0.22815654 0.06238105 -0.21151762 0.13357405 -0.035405885 -0.057394106
-0.14867893 -0.18249345 0.079070814 -0.023028195 0.10045278 -0.14659233 0.1749743 -0.12945001
-0.07367602 -0.026446963 0.08286563 0.223854 0.16592821 -0.14584671 0.054121614 -0.102415025
-0.0197882 -0.15940517 0.19808207 -0.16758071 0.10605444 0.05436004 0.037755065 -0.13903475
0.15692766 0.016568713 -0.0021751523 -0.20930986 0.056845617 -0.059481137 -0.122188166 0.16505088
0.05388302 -0.1259795 -0.08894646 -0.02959361 0.11691369 -0.06206532 -0.14853919 -0.041022893
-0.1160523 0.08808302 0.1855457 -0.19591281 0.058220446 0.091796994 0.052491665 -0.05717337
0.12206538 0.12266365 0.09173949 -0.019962318 -0.038374696 0.037176944 -0.018965563 -0.051414404
0.118843414 0.10565257 0.056180324 -0.050940342 -0.03973691 -0.02378641 0.049953103 0.05520232
-0.19370468 -0.0642071 0.19161497 0.12298789 -0.007897853 -0.16277798 -0.14809851 -0.2060558
-0.08974885 0.04571305 0.10694109 0.07104844 -0.20364782 -0.14599112 -0.05836853 0.16321452
0.054272458 -0.05730562 0.05608767 -0.061865065 -0.13475606 0.13991739 -0.064751945 -0.03704933
-0.25877708 0.09273288 0.15206587 0.07502711 -0.13779102 -0.22883062 -0.18485491 0.13314684
0.078934796 0.15270486 0.08786756 0.032596763 -0.021063572 -0.17442691 -0.19347201 -0.20639652
0.075351074 -0.1379928 0.00416753 -0.12567995 -0.0809629 -0.13410142 -0.12270828 0.062208798
-0.059515264 0.11531117 -0.05380465 -0.12237844 -0.045645587 -0.11702219 -0.08450162 -0.21637693

net.0.bias f4 [256]
00000000: f32d 29be 3147 0e3d e4d4 3fbd a983 153e
00000010: 86d4 53be 8614 e13c 01a6 a33d 896b 133d
00000020: 22e9 b8bd c83c 343e d95b 36be 318f 653e
00000030: ac8b 613d 480b ca3d 24df 1b3e e2a7 4d3c
00000040: ef57 e93c 3cee 04bd cec5 36be e0a7 a63d
00000050: e1b3 083e 1316 a33d f9b4 74bd 9dc3 3bbe
00000060: 5556 af3c 5bd9 5f3d 19c6 19be 6e49 263e
00000070: 462e 34bc d8a6 5d3d 5412 253e 3d82 d63d
00000080: 69cc ccbd fb39 6b3d 3c91 0e3e 477a a03d
00000090: 0160 d8bd ffc0 433d 4d40 eabd 2b43 5bbc
000000a0: e0fc 0ebe af77 1e3e 9bd4 5e3e ef18 3dbe
000000b0: f981 84bd 981f cfbd 5d44 10be eb01 5a3e
000000c0: 71fc 12be 6f6b 8ebd 5b6d 31be e427 183b
000000d0: 7d9c 04be 34c6 14be 0a3c 513e a2e2 ba3d
000000e0: 12c1 d43d 8a2f 013e 1636 3f3d 3ee9 ff3c
000000f0: 4afd 15be f3ee 9a3d cd53 39be 9cc1 cb3b
00000100: 3b5e c4bd f219 febd 6a7b fabd 8f2f d8bd
00000110: 7aa6 d6bd cf51 b9bd 8a29 6cbd 3995 33be
00000120: bab9 133e fedd 783d 1a66 31be de81 50be
00000130: cfdd f4bd 6e20 723d be62 473e d2ea d2bc
00000140: 9d1f e93d 0995 babd 6f90 6ebc 749d 01bd
00000150: 6272 42be 81d2 843c af33 203d 8f3b da3d
00000160: 5cef 24be 01b9 8cbd b6ae e5bb c26e 803c
00000170: 2f1c 4b3d 934c 19be 6a4a 1c3e 3ae5 16be
00000180: c75c 98bd 094b 023e 3719 3bbd 58f3 6cbd
00000190: 6473 35be 3d98 083e 3102 ac3c 2929 b13d
000001a0: 4851 d23c e87c 25be fa86 b4bd c693 293e
000001b0: 1bdb e4bd 3588 a4bd 900d 073e c6fd 92bd
000001c0: 9506 6c3d 9119 c4bd 4a3d 323d 8c4f 633d
000001d0: a6e5 15be d971 13be 7249 bc3d 8be4 7ebd
000001e0: a29f db3d 7016 4fbc f18b 86bd 887d 11bd
000001f0: 193f 96bd 4cca bd3d 27e3 103e ddde 2ebc
00000200: 1928 18be c3af 0b3e 130a 363e e185 0c3e
00000210: 481f 0a3b 9a46 0f3d a0d5 dbbb 9cb5 afbd
00000220: c272 3cbe 394c 91bc 9470 f33d 32d9 d63d
00000230: 2344 323d ca19 e43d 7584 fd3d 1956 32bd
00000240: c9ee 0f3e 39ff 853b 39f7 48bd dfe0 83bd
00000250: dfc1 9cbd 1458 09be ff24 9d3c 0060 453e
00000260: 5f5e 813c 68cd 0d3d bff6 ecbd f8fe 39bd
00000270: 2d94 81bd cf25 a23d 1fc0 da3c 842b 86bd
00000280: a628 aa3c e4b3 95bc a62a b5bc c6a7 153e
00000290: 0332 8abd 204d 283e 4fb6 fbbd 4806 403e
000002a0: 785f 823d e001 c33d fa68 5abd 729d 4bbd
000002b0: c311 0ebe 9157 23be b372 033e e8b7 373e
000002c0: 6aab 8e3d d4da a2bd a239 4c3d cf83 2d3b
000002d0: fbfc 29be 2f92 d1bd acb8 aa3d 3275 88bd
000002e0: 3b1e 19bd 79bc 02be 817b 9e3d cabe c6bd
000002f0: 258b a7bd a03b a23d 3b2c 493e b456 373e
00000300: 55f0 a43d ea80 683c de3f 193e b543 363e
00000310: 3783 8b3d 6180 5e3d 2203 5d3d d09d 8e3d
00000320: da63 043e f0c8 5e3d 7fb1 44be b6f9 1abe
00000330: 8a9e 1ebe 62df 98bd ad17 50bb afc7 adbd
00000340: 6ad1 37be 1422 f8bd 21e7 e33d eaa5 df3c
00000350: 594f 31bd 0e61 223d c599 49bd 31db ffbd
00000360: ab70 babd 7f22 95bd 452b 46be 2b97 3dbe
00000370: 2fde 2abd 9eae 8f3d 729f 363e 2d86 28bc
00000380: b8ad 0b3e 5c91 8d3d 4989 ebbd 0c7c 81bd
00000390: 4c7f 6ebd ce9f 25be 18d4 d63b 8632 323d
000003a0: e520 2cbe 4a0b 65bd 6f24 1fbe 9912 5f3e
000003b0: 2ac8 213e ae2f afbd be0e 253e f8c5 d7bd
000003c0: 2cd6 363e 384c 8bbd 27fb 8c3d 5dff 0e3e
000003d0: f9fb b53d 9006 c33c 25e9 00bc 8ad4 453c
000003e0: 378c 3f3e 9ca4 743b a270 39bd e0f9 8d3d
000003f0: 9431 c7bd 6738 94bd 9055 c9bb 643a 433e
-0.16521434 0.034735862 -0.046833888 0.14601006 -0.2068654 0.027475607 0.07990647 0.035991225
-0.090288416 0.17601311 -0.17808475 0.22417904 0.055064842 0.09865433 0.1522184 0.012552233
0.028484313 -0.03245376 -0.17848894 0.08137488 0.13349868 0.07963195 -0.0597429 -0.1833634
0.021403471 0.054650646 -0.15016975 0.16238949 -0.010997361 0.054114193 0.16120273 0.1047406
-0.09999926 0.05742834 0.1392259 0.078358226 -0.10565186 0.047791477 -0.11438046 -0.013382713
-0.13963652 0.15475343 0.2176079 -0.18466543 -0.06470103 -0.10113448 -0.14088579 0.21289794
-0.14354111 -0.06954085 -0.17326872 0.0023217136 -0.1295032 -0.14528733 0.2043306 0.09125258
0.10388388 0.12615791 0.04668244 0.031239148 -0.14647403 0.07565107 -0.18098374 0.0062181484
-0.095882855 -0.124072924 -0.122305706 -0.10555946 -0.10480972 -0.09048807 -0.057656802 -0.17537393
0.14426318 0.060758583 -0.17324105 -0.2036204 -0.11956369 0.05911296 0.19471261 -0.025746737
0.11382983 -0.091104575 -0.014560803 -0.0316443 -0.18988946 0.016213657 0.03911179 0.10655891
-0.16106933 -0.06871224 -0.0070093526 0.015677813 0.049587425 -0.14970617 0.15262762 -0.1473588
-0.07439571 0.12723936 -0.045678344 -0.05784926 -0.177198 0.13339324 0.020997139 0.08650429
0.025673524 -0.16160929 -0.08814807 0.16560277 -0.111746036 -0.08033792 0.13188767 -0.0717731
0.057623465 -0.09575189 0.04351548 0.055495784 -0.14638385 -0.14398898 0.09193696 -0.062229674
0.10723807 -0.012639627 -0.065696605 -0.035520107 -0.07336254 0.09267101 0.14149152 -0.010673252
-0.14859046 0.13641267 0.1777728 0.13722946 0.0021075774 0.03497944 -0.0067088157 -0.08579561
-0.18403152 -0.017736541 0.11886707 0.104906455 0.04352201 0.111377314 0.1237878 -0.04353914
0.14055933 0.004089263 -0.049063895 -0.06439375 -0.076541655 -0.13412505 0.01918268 0.19274902
0.01579207 0.03461972 -0.115705006 -0.045409173 -0.063270904 0.07917368 0.026702939 -0.06551269
0.020771336 -0.018274255 -0.022115063 0.14614782 -0.0674782 0.16435671 -0.12290632 0.18752396
0.063658655 0.09521842 -0.05332277 -0.0497107 -0.13873963 -0.15951373 0.12836723 0.17941248
0.069662884 -0.079518944 0.04985965 0.002647627 -0.1660041 -0.102329604 0.083360046 -0.06662978
-0.037382346 -0.12767209 0.077384 -0.09704359 -0.081808366 0.07921529 0.19645779 0.17904168
0.08053652 0.014190892 0.1496577 0.17799266 0.068121366 0.05432165 0.053958066 0.06963694
0.12928715 0.054390848 -0.19208334 -0.1513432 -0.15490165 -0.07464482 -0.0031752393 -0.08485352
-0.17950979 -0.12115875 0.11128069 0.027300794 -0.043288562 0.03964334 -0.04921891 -0.12492979
-0.09103521 -0.0728197 -0.19352444 -0.18514697 -0.041715797 0.070157275 0.17834261 -0.010285896
0.13640487 0.06912491 -0.115007944 -0.06322488 -0.05822687 -0.16174242 0.0065560453 0.043505214
-0.16809423 -0.05591897 -0.15541242 0.21784438 0.15799013 -0.08554016 0.16118905 -0.105358064
0.17855138 -0.06801647 0.06883841 0.13964601 0.088859506 0.02380684 -0.007868086 0.012074599
0.18705831 0.003732956 -0.04527343 0.069324255 -0.09726253 -0.072373204 -0.006144233 0.19065243

net.2.weight f4 [256, 256]
00000000: 7d13 903b b57b 72bd 1a09 fb3c cb5e 15bd
00000010: 8f11 d93c 62a0 5a3c daa1 123d ed8b bcbc
00000020: 753c 1abd 61a8 85bb a0c1 f13a 7c46 ccbc
00000030: 7ae2 2e3d 4e5c e5bc 6b14 8a3b 9c3c 6cbd
00000040: 54af 523c 04b7 a6bc 92dd 52bc 4146 f63c
00000050: 2cee 8fbd f90a 633c 7552 09bd 4eb4 1cbd
00000060: 62b7 133d a696 383d 8d66 df3c 296a 82bc
00000070: ffd0 e03c b357 05bd 9fac 8dbd c9b0 333d
00000080: ffbd cc3a dc9e 993c 48f3 843c e593 043d
00000090: dbce 263d 07d5 1cbd 136f fa3c f7c6 71bd
000000a0: 1971 f33c a35a 783d f7b4 5fbd 764b a8bb
000000b0: 562f cbbc 55e4 16bd 633d 293d 43e9 81bd
000000c0: 5e45 c2bc 6ed6 de39 4790 bdbd e10d 5b3b
000000d0: 63d6 203d cfd3 90bd 989d 173c 533a 16bc
000000e0: da9a e33c f968 71bd fd9e 5c3d 1abf e4bc
000000f0: d115 8f3d 6280 2fbd 0a07 a63b 77f1 89b9
00000100: 6d47 e73c faf1 1d3d 024f f53c 3f97 3fbd
00000110: ff9b e2bc 0da8 c6bc 9da6 4c3d e5d5 463d
00000120: c1af 5abd 13c8 ce3c 2cc3 1e3d a733 cabc
00000130: b0cb 543c 3891 80bc 0094 c3ba 6385 3ebd
00000140: e33a b8bc 78eb 813d dcf3 323c 40e4 4ebd
00000150: f2d3 31bc f287 2c3d a00c 56bc f9c5 d9bb
00000160: f7f6 1fbc d8d5 083d f349 983d 58d1 e5bc
00000170: ea91 40bd 8215 823d 8d2d a0bc c494 913d
00000180: 9104 fb3c 42e1 b9bc a4c7 a03b 6d17 c53c
00000190: b861 923c e0ad 6c3d 9151 e23b 093c 9bbc
000001a0: 534e 76bd 1993 303d bba1 9dbd 2270 253d
000001b0: aafc 35bd b3d2 9239 d464 043d 3d41 843d
000001c0: 9323 22bd 44f2 93bd c50e 7a3c a9df aebc
000001d0: 3760 5dbc 6cb9 2d3d 17f9 cdbc c820 5b3c
000001e0: 3e0e fabc 6e84 073d d9a5 353d 30a3 0d3c
000001f0: dbf5 62bd 4250 933c a007 05bb a3c2 88bc
00000200: e917 333d 8013 8c3c 78cd 343d bc94 29bd
00000210: b963 a3bc 8a54 01bd b700 3cbc bef5 003d
00000220: 5831 313d 0106 ca3c 70d9 84bc fd22 103d
00000230: 250b f43c 7974 5e3c eb24 2ebb f9c9 56bd
00000240: 0908 50bd 075f 5abc 24dc f3bc 6603 403c
00000250: cccb 93bd 69d3 40bd 3d71 40bd 9d12 f73c
00000260: 1579 203d ceab 79bd d7bb 39bd 2d74 dfbc
00000270: 02a2 cebc d533 67bd e1f8 6d3c 1fd7 a4bd
00000280: 340b b23b 1fb5 0a3c c948 5f3d c25a 4bbd
00000290: 2e3c 6f3c eaa5 72bc 4dbd 7a3d 45ca 393d
000002a0: 2222 11bd 8e4d b1bc 25f7 acbc 3131 5f3d
000002b0: 305e 7abc 0278 143d 2523 923b 4e72 663d
000002c0: c0de 123d 1285 2c3d c1a2 7fbd 12a1 afbc
000002d0: ac3f 98bd 5423 043c 4c23 343d f069 a53b
000002e0: d63c dc3c 4f74 3bbc 32a1 b33c 1028 9cbd
000002f0: 5824 143d 8cf9 6ebd 34e9 6fbd acb7 f03b
00000300: 5124 653d c52f 0fbd f8d4 473d 8052 17bd
00000310: ae1c 89bd 53d5 573c 0c2a 653d 9f20 0ebd
00000320: d5b4 1d3d d84c 20bd 51f4 41bd 0307 ccbc
00000330: 305f 01bd 974e 2e3d d347 40bd 6de7 26bd
00000340: 6fde ecbc c6ee 983d 9e40 cb3c 0948 983c
00000350: 9a13 09bd e6f2 2a3d 64cb 68bc e95a 453d
00000360: 5496 9bbc 9930 283d 8b61 fd3c 352d a33c
00000370: d0c4 7ebd 0baa 103b abf4 91bd 0382 b9bb
00000380: 2b26 6bbc 6962 c33c 52c3 23bd c5d8 86bd
00000390: 146f f73b dd84 3e3d 7d47 eabc c352 7b3a
000003a0: ad48 cd3c dead 55bc e858 84bc 272a 0f3d
000003b0: 9928 8b3d b86e 85bc 3407 d03c 92ff 3b3b
000003c0: 047e 98bc cef9 04bb bc5f cdbd 9816 d03b
000003d0: eb90 08bd 7cbd 92bd 872f c0bc 37b3 b43b
000003e0: f9d2 36bd a26e 15bb 5bfa b5bb 414a 533d
000003f0: f6bb 2abc f706 98bc 9c5b e3bb 8031 7dbc
0.0043968544 -0.059200007 0.030643988 -0.036467355 0.02649763 0.013343902 0.035798885 -0.02301594
-0.037655313 -0.00407891 0.0018444546 -0.024935953 0.042696454 -0.027998116 0.00421386 -0.05767499
0.012859184 -0.02035094 -0.012870209 0.030062797 -0.070278496 0.013857597 -0.033525903 -0.03825789
0.03606356 0.045065545 0.02727058 -0.015919762 0.027443407 -0.03255434 -0.069176905 0.043869767
0.0015620588 0.018752508 0.016229287 0.032367606 0.040724616 -0.038289096 0.030570542 -0.05902764
0.029717015 0.060633313 -0.05461594 -0.005135949 -0.024802845 -0.03683885 0.04131831 -0.06343319
-0.023714717 0.00042502902 -0.09256034 0.003342502 0.039266955 -0.07071649 0.009253882 -0.009169179
0.0277838 -0.058938 0.05386256 -0.027923156 0.06986583 -0.042847045 0.005066757 -0.00026310582
0.0282323 0.038560845 0.0299449 -0.0467751 -0.027662275 -0.024250055 0.049963582 0.04854383
-0.05339027 0.025241887 0.03876035 -0.024682833 0.012988016 -0.015694246 -0.0014921427 -0.046513926
-0.022489017 0.0634374 0.010922398 -0.050510645 -0.010853754 0.042121835 -0.0130645335 -0.0066459146
-0.009763471 0.033407062 0.0743598 -0.028053924 -0.047014154 0.063517585 -0.01955297 0.07108453
0.030641826 -0.02269042 0.0049066115 0.024059022 0.017868862 0.057783008 0.006906696 -0.018949525
-0.06013329 0.043109033 -0.07696863 0.04039014 -0.044430412 0.00028004273 0.03232272 0.06457756
-0.039584707 -0.07223943 0.01526231 -0.021346884 -0.013511709 0.04241316 -0.02514319 0.013374515
-0.03052437 0.03308528 0.044347618 0.008644864 -0.055410247 0.017982606 -0.0020298734 -0.016694373
0.043723974 0.017099142 0.044141263 -0.04140161 -0.019945012 -0.031574763 -0.01147478 0.031484358
0.04325995 0.024661066 -0.016216964 0.035189617 0.02979047 0.013577574 -0.0026572298 -0.05243871
-0.050788913 -0.01332832 -0.029768057 0.01171956 -0.072166055 -0.047076616 -0.046982992 0.030160243
0.039177973 -0.06095486 -0.045345154 -0.027277077 -0.025223736 -0.056445915 0.014524669 -0.080488436
0.0054334644 0.008466034 0.054512773 -0.0496471 0.01460175 -0.014810065 0.061215688 0.045358915
-0.035432942 -0.021643426 -0.021113941 0.054490272 -0.015281245 0.03624726 0.004459756 0.056261353
0.035856962 0.042119093 -0.062411074 -0.021439109 -0.074340194 0.0080650635 0.043978974 0.005048029
0.026884478 -0.011441304 0.02192745 -0.07624829 0.036167473 -0.058343455 -0.05857201 0.007346114
0.055942837 -0.034957666 0.048787087 -0.036943913 -0.06694923 0.013173419 0.055948302 -0.03469908
0.038502533 -0.039135784 -0.04735214 -0.024905687 -0.03158492 0.042555418 -0.046943497 -0.04074805
-0.028914658 0.074674174 0.024811085 0.018589037 -0.03346596 0.041735552 -0.014208648 0.0481824
-0.01899258 0.04106197 0.030930301 0.019919017 -0.062199414 0.002207401 -0.07126745 -0.0056612506
-0.014352362 0.023850637 -0.039981194 -0.06584314 0.0075510833 0.046513427 -0.028598541 0.00095872226
0.025059069 -0.013041941 -0.016155675 0.03495231 0.06794853 -0.016288146 0.02539406 0.0028686267
-0.018614776 -0.0020290497 -0.100280255 0.0063503496 -0.03334133 -0.071650475 -0.023460163 0.005514528
-0.044634793 -0.0022801538 -0.0055535263 0.051584486 -0.01042079 -0.018558009 -0.006938411 -0.015453696

net.2.bias f4 [256]
00000000: 1bef cebb 26a4 44bd ac9f c63c a2c8 123d
00000010: cef0 7e3d 2353 fd3b 1511 8f39 0b2f d8bc
00000020: 7a36 2e3d c306 243d 0109 313a 0af7 e5bc
00000030: a6f2 103d 03fa f5bc aa76 93bc 787c a5bb
00000040: 7c0a abbc cbea 38bc 4593 cebb 617e cdbc
00000050: c83b d83b f346 2cbd d7ed 5bbb eeec 713d
00000060: 3d05 f13c d27b 6a3c 5f3e c63a 0c4b 8cbd
00000070: db4c 773c 58c6 143d c502 13bc 4cc6 c3bc
00000080: f548 82bd af3c ecbc 4e17 43bd e182 4c3d
00000090: e4c7 c5bc 3600 b0bb a0be 813d dd68 e5bc
000000a0: 852e ef3c d5b6 2fbd 683e 0abd 0c97 423d
000000b0: 6f9f 623d 72c6 3d3c d79f 5dbd 6716 9ebc
000000c0: 0c5b 65bd 36bc edbc 5c19 7dbd 000f 363d
000000d0: 8c51 cfbc 253f 3c3d 817d a63b ce9a 5abd
000000e0: 0fe7 2c3d dedc d9bc 2ec3 7fbd 623e 89bc
000000f0: 0c9d 1e3d 9aab b33c c9e5 95bc 7dd7 013d
00000100: ed64 f13c f23a 72bd 9bf6 13bd 1e14 013d
00000110: aff2 3abd c18e 303d 0b39 23bd af95 38bd
00000120: 0856 3cbc d22b 1d3b 0058 c3bb 2cb4 bd3c
00000130: 4ba8 203d 0947 5cbc 97cc 80bc 4734 b43c
00000140: 8443 5bbc 6f96 40bd 4baf 583d 12b6 13bd
00000150: 5e3f 2bba 35e1 9f3c a31d 61bd 110a 75bd
00000160: 268a 823d 0a89 583c 23aa 8f3a 36b0 773d
00000170: 5c69 cbbb 8354 e73b cfee 03bd cd3e b03a
00000180: fa34 64bd 6685 b83c 0835 acbc a099 fa3b
00000190: 22ad 003d 1144 78bd 9b0e e43b 9ec0 24bd
000001a0: 281e 373c de72 79bd f814 28bd 9fe0 003c
000001b0: 8415 f43b 18c7 5ebc ecea 933d 70df 74bc
000001c0: 4674 33bd 03d3 403d 0036 49bd 104c bebb
000001d0: 46bd b53b eddd e43c 2f3f 81bc 2cd1 763d
000001e0: cd52 58bc e336 90bc 9302 063d 3c47 de3c
000001f0: 5c28 c7bc 4176 143d 175a 6d3c 0eb2 bf3c
00000200: 7e66 cabb cff7 263c 62d6 653d 471e 4c3d
00000210: 8bb5 42bd cfd0 c53c 6274 07bd f604 e6bc
00000220: dfdb 623d 0300 5d3d 94e5 e6bc 4319 3bbd
00000230: d4be 93bc 9427 2d3d 95ce 573d f544 09bc
00000240: 4085 323c 48c8 373d a473 b0bc 315a a73c
00000250: a760 20bd 7c1f 593d ff02 d1bc 402b 4eb9
00000260: 9394 58bd 6cb4 7a3c 3ec1 b33c 756b c73c
00000270: f945 383d df82 83bc 69d8 083d 1634 703c
00000280: dea6 9f3c 56b9 983d b6cf 8dbd 24c5 03bd
00000290: 9709 c5bc b036 a6bc 0c66 823d 1292 aa3c
000002a0: aa7b 44bd d4a0 4a3d 781c 36bd 9fcc a6ba
000002b0: ec27 54bd e583 69bd c762 033d 156f 773d
000002c0: dfd8 f4bc acdb cc3c 00a7 b43c 47bb 543d
000002d0: 52fc 36bd 5660 0fbd 15d7 71ba 2778 1d3d
000002e0: 6786 2b3d 1dba 81bd 983e 253a 7d59 93bb
000002f0: 47c9 523d 02dd 4e3c cfb5 393c 1eed 8dbc
00000300: 72c9 8e3d ba00 083d 0c89 0c3c ef32 0cbd
00000310: 994a 2a3c 0113 2cbd aed0 d23c 4f6d 453d
00000320: e85a 813d dbd0 6a3d 99d2 9b3c 0136 3ebd
00000330: 683a 7fbc 3fdd e3bc f618 263d d42b 9f3c
00000340: f0aa 85bc dea5 62bd 2a2d 23bd 1bb7 bdbc
00000350: df20 ccbc faa4 323d 5056 5a3d 5805 26bc
00000360: 259e 353d bd63 6bbd 070c 0c3d 8c7b 14bc
00000370: de01 f33a e863 e9bb 8273 02bc f04f 553d
00000380: 8749 43bc 4c8a 473d 9741 183b bd88 a13c
00000390: 02be 503d e9af 18bd 2360 503d aa58 97bd
000003a0: 1340 55bd 4f01 8cbc 8aa1 e93c 3070 56bd
000003b0: a999 22bd be9d bd3c 52a9 26bd 2ff2 203d
000003c0: 4abd 463d 07bd abbc 7916 0abd 36b4 733c
000003d0: be00 603c 1c8e 67bd f202 673b a84e 483d
000003e0: d810 7bbd b1d2 253d 356b 113d 60b1 3ebd
000003f0: e40a 7c3d 82c2 833c f4b7 0a3d 6105 e8bc
-0.0063151247 -0.048008107 0.02424606 0.03583587 0.062241368 0.007730858 0.00027287813 -0.02638962
0.04253242 0.04004551 0.0006753356 -0.028071899 0.035387658 -0.030026441 -0.01800092 -0.005050238
-0.020879023 -0.011286448 -0.006304177 -0.025084676 0.0065989234 -0.04205985 -0.0033558512 0.059063844
0.029421443 0.014311748 0.0015124789 -0.068502516 0.015094007 0.036321968 -0.008972828 -0.023898266
-0.06361572 -0.02883753 -0.047629647 0.049929503 -0.024143167 -0.005371119 0.06335187 -0.028004104
0.029196987 -0.04289897 -0.03375092 0.04750733 0.05532783 0.011582958 -0.054107513 -0.019297792
-0.055995032 -0.02902041 -0.061791763 0.0444479 -0.02530744 0.045958657 0.005080879 -0.05337029
0.042212542 -0.026594575 -0.062441997 -0.01675338 0.03872399 0.021932412 -0.018298047 0.031699646
0.02946707 -0.059138246 -0.036123853 0.031513326 -0.045641597 0.04310489 -0.039849322 -0.045064624
-0.011495121 0.0023982418 -0.005961418 0.023157202 0.039222997 -0.0134446705 -0.015722556 0.021997584
-0.013382796 -0.047018465 0.052901547 -0.036062308 -0.0006532575 0.019516567 -0.054959904 -0.059824053
0.06374006 0.013216266 0.0010960739 0.060470782 -0.006207628 0.007059635 -0.032210167 0.001344645
-0.055714585 0.022524547 -0.021021381 0.007647708 0.031415112 -0.06061179 0.006959749 -0.040222757
0.011176623 -0.06090056 -0.041035622 0.007866054 0.007448854 -0.013597272 0.07222542 -0.01494585
-0.04381206 0.047076236 -0.049123764 -0.005807407 0.005546245 0.027937854 -0.015777199 0.060258076
-0.013203335 -0.017604297 0.0327173 0.027133577 -0.024311237 0.03624559 0.014486811 0.023400333
-0.006176769 0.010190918 0.056112655 0.049833562 -0.047536414 0.02414742 -0.033069976 -0.028078537
0.055385467 0.05395509 -0.028185643 -0.04567839 -0.01803533 0.042274073 0.052687246 -0.008378257
0.010896027 0.044868737 -0.021539517 0.020428749 -0.039154675 0.05300854 -0.025514124 -0.00019661803
-0.052876066 0.015301805 0.021942731 0.024343232 0.044988606 -0.016053615 0.03340951 0.014660856
0.019488748 0.07457225 -0.06924383 -0.03217043 -0.024052424 -0.020289749 0.0636712 0.020821605
-0.047969498 0.049469784 -0.044460744 -0.0012725777 -0.051795885 -0.05701055 0.032076623 0.06040867
-0.029888568 0.025007091 0.022052288 0.051936414 -0.044674225 -0.035003982 -0.000922547 0.038444664
0.041876223 -0.063343264 0.00063035777 -0.004496752 0.051461484 0.012625935 0.01133485 -0.01732498
0.069720164 0.033203818 0.008577596 -0.03422826 0.010393762 -0.04201031 0.025734272 0.048199948
0.06316167 0.057328086 0.01902132 -0.04643822 -0.01557789 -0.02781546 0.04055115 0.019430079
-0.01631686 -0.055333965 -0.039837994 -0.0231586 -0.024918018 0.043614365 0.05330497 -0.01013311
0.04434027 -0.057468165 0.034191158 -0.009062659 0.0018539985 -0.0071225055 -0.0079621095 0.052078187
-0.011919386 0.048715875 0.0023232454 0.019718522 0.050962456 -0.037277136 0.050872933 -0.07389958
-0.05206306 -0.017090468 0.02851941 -0.052353084 -0.039697323 0.023146506 -0.04068882 0.039293464
0.048520364 -0.020964159 -0.033712838 0.014874509 0.013672052 -0.05653201 0.0035249558 0.048903137
-0.06129536 0.040484134 0.03550263 -0.046555877 0.061533824 0.01608396 0.033866838 -0.028322877

mean_layer.weight f4 [4, 256]
00000000: 0d50 433d 07de efbc 850c ce3c 74dd 803c
00000010: 8bf5 903d 1eeb 943d 3aec aa3d 1a09 2bbd
00000020: 8761 47bc 18b0 23bd a63d 46bd 818e 82bd
00000030: f6ae fe3c 504d 6c3c 83c9 123c eff4 d83d
00000040: dfe8 b0bd 972c 3abd 4e0b 253d 872e 203c
00000050: a664 1a3c 2213 74bc f195 19bd 25d8 2a3d
00000060: 4f88 f63c 6d31 3f3c 0687 42bd 8405 5cbd
00000070: d2de e6bb 3da4 ef3c 459d 3f3d 7bc5 c1bb
00000080: a97c 343d 8f77 28bd 4423 edbc cd98 abbc
00000090: 860d 6dbd 15e7 903d 96dd 4f3d 0b3c a73c
000000a0: dd3b dd3c f76a 573d f4b6 2f3d 99b4 65bd
000000b0: 4c18 4b3c 5441 46bd 9692 45bc f0dc 0bbc
000000c0: 96fb 77bc 7818 15bc 387b 6a3d 5ee5 d8bc
000000d0: 9102 d43c bd51 86bd ac3c 86bd 4381 5d3c
000000e0: 0271 76bd 4b29 27bd 285e 8a39 43c4 913c
000000f0: df52 a8bc d6bd bbbd 7369 c6ba b4ec 9ebc
00000100: 3846 043d e4b6 64bd 4de9 51bb aa44 3cbd
00000110: 8fde 303d 491a a73d 9c0e 13ba 003c acbd
00000120: c21a 0fbc 0f8a 803c 3b02 4f3b d3dc 8d3d
00000130: f57b 813d 9ae1 433d 8259 c9bb f912 a43d
00000140: 46a9 ac3b 1d8f 19bc 7cf2 c43d f7e7 5d3d
00000150: 0591 08bd 28c3 723c 986b fc3c f4be 373d
00000160: cef6 923d 4974 e6bb d5eb 003d 5e67 e6bc
00000170: e1d6 4b3d e44b 20bc 5d36 93bc ff78 843d
00000180: 402c 9e3d 052e 813d 3ab3 083c 0aa4 d23c
00000190: 2d63 033d 4db0 14bd bd18 9ebc 3eb4 88bb
000001a0: cb70 4a3c cc6e 25bd 279e 4cbd 3e13 d93c
000001b0: 48c6 9cbb 90ca 1a3d 3246 c93c 2eae 923c
000001c0: cee0 d3bc 72b5 9abb 9e6f 013d 7e0c 7fba
000001d0: 7b68 61bd 64ae 92b9 131b 44bd 6de2 453d
000001e0: f081 1e3c 3b37 593c 3571 a2bd 1029 883c
000001f0: ff6f aebc 07bf 543d 875c 90bb a259 f03b
00000200: 2230 6e3d 7024 b7bd dc66 ec3c e3e2 35bd
00000210: 7ca9 55bd 0dd0 1b3d f4d5 95bc 34bf 343d
00000220: bb6c 6c3d 25f5 94b8 52d0 84bb edc3 a13b
00000230: 3487 d8bc 0e1b 4e3d b03c 6a3d 26b3 d93c
00000240: 3f44 8d3d bab3 4b3c fd04 6c38 e935 03bd
00000250: 39d8 43bd fa55 89bb 95b0 3c3d a11c 65bd
00000260: df43 083d 8aa6 9fbd 42ba 38bd 6ee0 4cbd
00000270: ea9f 043d 4f2c d73c 8f26 883d 6ef5 7a3c
00000280: 2217 13bd 2820 98bd cab3 55bc 97ef 433d
00000290: 3c2f 8dbc 36c1 693d 51d0 023d 9e25 573c
000002a0: 1194 a53c cd15 6f3b 6ae6 4abd bc24 303d
000002b0: 9fc7 3bbd abbf 1abd 235e 953d eea9 07bd
000002c0: 5764 7d3d 229f 58bc 36d4 4c3d f65d a3bb
000002d0: 1766 17bd a280 723d aaa9 1e3d 494c 763d
000002e0: 56e1 ab3d b691 9bbc bf0c ebbc f4d4 5bbd
000002f0: 8f82 993d cb39 b2bc 9550 a63c b86e e3bc
00000300: 966d 10bc 5de1 85bc 87d5 babc 8f9e d13c
00000310: 8fbf 8c3d 25d2 30bd 2c2e 613d 2a55 c6bb
00000320: 1295 13bb aee6 86bd 2fe6 1f3d a0df 1bbd
00000330: ecdb 5abd a0d8 35bd f64c 31bd a315 d93b
00000340: e193 6e3d 6813 39bc 4880 f7bc 7aea 793d
00000350: 02d2 30bc 0f0a 11bd f465 4dbc 8588 08bd
00000360: 11e6 0abd 8a85 9a3b 2dd4 12bd c706 463d
00000370: 6c7d 15bb d05d b63b 404c 7d3d c01c 55b9
00000380: b50f 4a3d be97 1d3d 9b7a ffbc 688a 50bd
00000390: c258 61bb df78 06bc 2ddd 8cbd df24 6cbd
000003a0: a07b 083d c971 1ebd e078 2dbc c67c 29bd
000003b0: 8e4b 713d 4fee 263d fbf4 7fbc 9d52 31ba
000003c0: b124 0bbb 60a6 853b 25c7 473d 9e44 b5bb
000003d0: a28a fdbc 91c5 cebc d015 7fbd dbdc 1cbd
000003e0: 3427 a13c 2616 1a3d 992d 003d d4e2 c53b
000003f0: 0ba0 263d 4ecd 563d b534 843d 0b62 a83c
0.047683764 -0.029280676 0.025152454 0.015730597 0.070780836 0.072714075 0.08345838 -0.041756727
-0.012169248 -0.039962858 -0.048398636 -0.06374837 0.031089287 0.01442273 0.008959177 0.105935924
-0.08638167 -0.04545268 0.040293984 0.009776718 0.0094234105 -0.01489714 -0.03749651 0.041710038
0.030094294 0.011669499 -0.04749205 -0.053716198 -0.007045605 0.02925312 0.046780843 -0.005913434
0.044064198 -0.041129645 -0.02894748 -0.020946885 -0.057874225 0.070753254 0.05074843 0.020414373
0.027006084 0.052592244 0.042899087 -0.056080434 0.01239593 -0.048402146 -0.012058875 -0.008536562
-0.015135666 -0.009100072 0.057246417 -0.026476558 0.02588013 -0.06558559 -0.06554541 0.013519588
-0.060166366 -0.040810864 0.00026391563 0.01779378 -0.020547329 -0.09167068 -0.0015137627 -0.019399978
0.03229353 -0.05583848 -0.0032029927 -0.04596392 0.043181 0.0815931 -0.0005609782 -0.084098816
-0.008734407 0.015690831 0.0031587023 0.069268845 0.06322471 0.047822572 -0.0061447034 0.08011431
0.0052692024 -0.0093725 0.09616563 0.054176297 -0.033341426 0.014817037 0.030813023 0.04485984
0.071759805 -0.0070329052 0.031474907 -0.028125461 0.04976547 -0.009783719 -0.017970258 0.06468391
0.07723284 0.06307606 0.008343512 0.025712986 0.032077003 -0.036300946 -0.019298906 -0.004171877
0.0123559935 -0.040388867 -0.049955513 0.026498433 -0.004784379 0.037790835 0.024569605 0.017905321
-0.025864031 -0.004721337 0.031600587 -0.00097293395 -0.05503128 -0.0002797722 -0.047877382 0.04831164
0.009674534 0.013257797 -0.07931749 0.016621143 -0.021293638 0.05193999 -0.0044055614 0.007334904
0.05815137 -0.08942497 0.02885764 -0.04440583 -0.052163586 0.03804021 -0.018290497 0.044127658
0.05772088 -7.102852e-05 -0.004053154 0.0049366863 -0.026431657 0.05031877 0.057186782 0.026574682
0.068977825 0.012432987 5.627143e-05 -0.032033835 -0.047813628 -0.0041911574 0.04606684 -0.055935506
0.033267852 -0.07795437 -0.045099504 -0.05001872 0.03237907 0.026266245 0.066479795 0.015317304
-0.035910733 -0.07428008 -0.013043353 0.047835913 -0.017234437 0.057069026 0.031936947 0.013131527
0.020212205 0.00364815 -0.049536146 0.043003783 -0.04584467 -0.037780445 0.07293346 -0.033121042
0.06186327 -0.013221534 0.050007068 -0.0049855663 -0.036962595 0.059204705 0.038736023 0.060131345
0.08392589 -0.018990379 -0.028692601 -0.053669885 0.07495605 -0.021756073 0.020302096 -0.027762756
-0.00881519 -0.016342813 -0.022806896 0.025588302 0.068724744 -0.04316916 0.054975674 -0.006052633
-0.0022519273 -0.065869674 0.03903788 -0.038055062 -0.05343239 -0.044396043 -0.043286286 0.0066248938
0.058246497 -0.011296131 -0.030212536 0.06101463 -0.010792257 -0.035409983 -0.012536515 -0.03333332
-0.033910815 0.004715626 -0.035846878 0.048346307 -0.0022810353 0.0055653825 0.061840296 -0.00020323973
0.049331386 0.03847479 -0.031186393 -0.050913244 -0.003438518 -0.008207529 -0.068781234 -0.05765235
0.033321023 -0.038682733 -0.010587901 -0.04137876 0.058909945 0.040754613 -0.015622373 -0.00067643245
-0.0021231587 0.0040786713 0.048773903 -0.0055318614 -0.030949894 -0.025240691 -0.06227666 -0.03829656
0.019672014 0.03761878 0.031293485 0.006039003 0.040679973 0.052441888 0.064553656 0.020554563

mean_layer.bias f4 [4]
00000000: 0d7d 9c3c 145d 193d 263a b53c 099f 353d
0.019102598 0.03744228 0.022122454 0.04434112

log_std_layer.weight f4 [4, 256]
00000000: 9fbf e53c a563 293d 38a1 93bd cab2 c2bd
00000010: 789f 523b 4e43 fcbc c2e5 7e3c 8d83 3d3d
00000020: ea3a ceba e29d 4c3c f602 7db9 91ba bebd
00000030: 9a30 51bc 1068 bd3d dc9d 203d ed13 c63c
00000040: e80b 033d 5d9d d23d a36d ca3d 4169 873c
00000050: 6d2c 71bd 00a1 6d3d 61a6 2c3d 0aea 9fbc
00000060: 298d 693d 8bb2 3e3d 98b1 bebd edd2 743d
00000070: 311c 65bd d348 2f3d 9abb 2fbd 10f0 7e3d
00000080: e963 3ebd ee67 013d 86f2 2cbd b893 a13d
00000090: ec9b 33bd f7df 2c3d 59cd 94bc 34da 9ebd
000000a0: 5dae 763d 586e f6bc 62a3 44bd e0f9 ebbd
000000b0: 4b0d 293d 125e 593c 3a7d 6d3c ddf7 35bd
000000c0: 1d16 103d a917 6d3d e5b4 333d 3284 b6bd
000000d0: 85fc 51bd f3ea 583d a069 32bd 73cc 95bd
000000e0: 7f17 bd3d 3f0c 0d3c d237 04ba 6a94 2abd
000000f0: 0199 af3d 80ce 9c3c c0dc ef3b b897 35bd
00000100: 04c5 1c3d 38ff 15bd 4e19 203d 41d9 45bd
00000110: 34f0 b5bc c6b5 6f3d c917 acbd e525 853d
00000120: 2c48 49bc 0d51 203d d2e3 2c3d c2e1 c43b
00000130: a128 45bc d957 55bd 4199 e7bc cfc7 8f3b
00000140: 1592 8a3d 42f2 5d3d 9408 b3bd 0d19 83bd
00000150: 6c00 f83b 3af4 053d c79e cf3c beb2 273c
00000160: 4cd1 83bd 3104 34bd 50f2 a13d a945 663d
00000170: a897 afbc ee4a 95bd a805 e4bb 6b83 573d
00000180: 9134 843b fb74 973b 9421 85bc debc 84bc
00000190: 225d ae3c a194 14bc 5ad4 eabc f6dc 12bc
000001a0: 6d3d aa3d bac6 a0bc b140 e73c f5e2 2dbd
000001b0: 88d5 86bc 0e76 0d3d 6de1 9a3c ddec aebc
000001c0: e1af 5ebd 9ef8 833d 73c0 e2bd c126 ec3c
000001d0: 2b7f 84bd 878b db3c 9904 533d a43f 62bd
000001e0: a164 32bc 981a 593c d773 b33c 97f1 81bd
000001f0: 2078 23bd 0a20 c43d baae febc f6ba cf3c
00000200: b707 b6bc 5f10 81bd b2a3 593d 8656 633d
00000210: 93c6 b93a f98c 49bd d441 093d 0d7b 333d
00000220: 37ca 6e3c 63fc 4e3b e91b 33bc bea1 803d
00000230: 0015 8dbb 4a91 403c eeac 3b3d 1660 c5bc
00000240: 589e 803d 4bc4 dbbc 70cb 16bd a6d6 a0bb
00000250: 35a6 89bd 994d 35bb b894 e4bc e544 0abd
00000260: c395 b0bc 9fcd 743d cd7c 063d 590f 68bc
00000270: 40da 0d3d f2da e2bb f5ba 17bd d9e4 073d
00000280: c3ee 1f3d b681 c53d a5f0 c63c 4167 163d
00000290: f1e3 743d 11b4 96bc 45f7 b33d 22c7 18bd
000002a0: 48dc 2abd 7dad 9d3d 65cc 0abd 9c7f 3c3c
000002b0: a670 8e3d b2f0 c83c 84da 87bc def3 8d3b
000002c0: 4fb3 5bbd 3987 943a e4cf e2bc f6c0 943c
000002d0: 2014 273d 70e8 f93c a989 01be dfef 64bd
000002e0: 39c9 0fbd 7382 1dbd e909 9fbc 2031 f5bc
000002f0: f844 28bd 3235 64bb 0c59 cdbc 5e75 9abd
00000300: bf3e b03d b594 67bc fdd5 86bd 3c13 7fbd
00000310: 90ba 9abd 51e6 afbd 5e93 9b3d 62e9 a23d
00000320: 0678 a43d 2e40 043d e31a 533a b9e6 21bc
00000330: 2e02 5cbd 7cac 963d e6ed 8dbc 3400 b03d
00000340: 54cf fd3c 7e36 46bd 66bd c4bc ff4d 9cbd
00000350: 323a 2b3d 9845 bdbd 1404 883d 0303 0ebc
00000360: 8938 70bd ff8d 523c a6c6 07bd 56ac f03c
00000370: acd2 29bd 34c1 59bd 2f50 83bd 9bad febc
00000380: 7aa8 b0bc 0bda 9ebc 63ea 493c 56a5 06bd
00000390: 8679 9abc dedf 013c 4dc8 64bd 9005 b1bd
000003a0: 0e87 26bc 23ec fa3c 4e76 45bd 0cde febc
000003b0: 9bc3 3e3d edc7 86bc b92f 703c 7343 15bc
000003c0: 0403 b4bd 6a86 5c3d 4962 02bd 7da3 80bd
000003d0: f346 04bd e2aa adbb e2d1 88bc fb55 f03c
000003e0: 558d 4e3d 9417 5b3c a660 37bd f871 ce3c
000003f0: 6174 5b3d c4d9 60bd 40d9 583b 8d02 71bd
0.028045474 0.041354794 -0.072084844 -0.095067576 0.0032138508 -0.030793812 0.015557708 0.046268035
-0.001573411 0.012488814 -0.00024129063 -0.093129285 -0.012767935 0.09248364 0.039213046 0.024179423
0.031993777 0.10283921 0.09884193 0.016529681 -0.05888026 0.05801487 0.04215086 -0.019520778
0.057019386 0.04655699 -0.09311217 0.059771467 -0.05593509 0.04279406 -0.04290352 0.06224066
-0.046482 0.031593256 -0.042223476 0.07889503 -0.04384987 0.042205777 -0.018164324 -0.07756463
0.06022488 -0.030081913 -0.048007376 -0.11522269 0.041272443 0.013267057 0.014495188 -0.044425834
0.03517734 0.057883892 0.043873686 -0.08911933 -0.051266212 0.05295844 -0.043557763 -0.07314386
0.09232997 0.008608877 -0.0005043718 -0.041645445 0.08574105 0.019141436 0.0073200166 -0.044334143
0.038273826 -0.03662035 0.039086632 -0.048302893 -0.022209264 0.058522962 -0.08402974 0.065013684
-0.0122852735 0.039139796 0.042209454 0.0060083577 -0.0120336125 -0.05208573 -0.02827132 0.0043878327
0.06766144 0.054186113 -0.087418705 -0.064012624 0.0075684097 0.032703616 0.025344266 0.010235487
-0.064364046 -0.04394931 0.079075456 0.056218777 -0.02143462 -0.07289682 -0.006958682 0.052615564
0.0040345867 0.0046220995 -0.016251363 -0.01620334 0.021284644 -0.009068639 -0.02866571 -0.008963814
0.08312497 -0.01962601 0.02822909 -0.04245277 -0.016459242 0.034536414 0.01890632 -0.02135318
-0.05436695 0.06443904 -0.11071863 0.028827073 -0.06469568 0.02679993 0.051518057 -0.055236474
-0.01088825 0.013250969 0.021905823 -0.06344908 -0.039909482 0.095764235 -0.031089175 0.025357705
-0.022220476 -0.06301951 0.053134628 0.055502437 0.001417356 -0.049206708 0.033510044 0.043818522
0.014574579 0.003158354 -0.010931947 0.0628085 -0.004305482 0.01175339 0.045819215 -0.024093669
0.06280202 -0.026826998 -0.036815107 -0.0049084006 -0.067211546 -0.002766466 -0.027902946 -0.03375711
-0.021555787 0.059766408 0.032833863 -0.014163815 0.034631968 -0.006923073 -0.03704353 0.03317723
0.03904606 0.09643881 0.02428467 0.036719564 0.059787694 -0.01839641 0.08787397 -0.037299283
-0.041713983 0.07699106 -0.033886332 0.011505034 0.0695508 0.024528835 -0.016583689 0.0043320497
-0.0536378 0.0011331803 -0.02768702 0.018158417 0.040790677 0.030506343 -0.1265017 -0.05589282
-0.03510401 -0.038454484 -0.019413905 -0.029930651 -0.0410814 -0.0034821746 -0.025066875 -0.07541917
0.08605718 -0.014134576 -0.06583784 -0.062274203 -0.07555115 -0.08588851 0.075964674 0.079546705
0.08030705 0.03228777 0.00080530177 -0.009881669 -0.053713016 0.073571175 -0.017325353 0.08593789
0.03098265 -0.04839181 -0.024016093 -0.07632064 0.041803546 -0.092417896 0.06641403 -0.00866771
-0.058647666 0.012851237 -0.03314843 0.029379051 -0.041460678 -0.05316277 -0.06411778 -0.03108864
-0.02156471 -0.01939108 0.012323949 -0.03287252 -0.018856775 0.007926909 -0.055855084 -0.08643639
-0.0101640355 0.030630177 -0.048208527 -0.03111174 0.046573263 -0.016452754 0.0146598155 -0.009110319
-0.08789638 0.053839125 -0.031832013 -0.06281183 -0.032294225 -0.005299912 -0.016701642 0.029337874
0.050427753 0.013372321 -0.044769906 0.025200829 0.053577784 -0.054895177 0.0033088475 -0.058840323

log_std_layer.bias f4 [4]
00000000: 003d 8e3c 2357 7ebd 6f22 0c3c 6ce4 6cbc
0.017363071 -0.06209482 0.0085531315 -0.014458757

net.0.weight f4 [256, 24]
00000000: d28e 0b3e e207 fabc 7e04 aa3e 8758 2ebe
00000010: dd80 0f3e 2ef6 b33d 6647 7dbd cad5 573c
00000020: 5ce0 f53d 4abf 57bd c30d 243e cfd0 0dbd
00000030: f3fe 0a3e 76c9 313e 244c 823d 572c 303e
00000040: 49a7 ff3d fc66 f43c a0d3 523e 3196 08be
00000050: eb8a b53d fd9a e5bc c8c3 f0bd 6ac1 f3bd
00000060: ba9d 69be 6bbb a2bd 612a 69be eb85 96bd
00000070: 280c 1ebe 258c 293d 063c 9cbd d2fe bdbd
00000080: 906c a0bd 6a3f 00be 1adb 09be 2d1b 14be
00000090: 14f4 09be c68d 463e d27e 8a3d baad e33d
000000a0: 1ded 34be d128 a53d c32f d6bc c77f c2bd
000000b0: 80b4 1ebc a037 e83d 2e4e 283d a2f0 883e
000000c0: 0273 9dbe 74d3 5fbe a381 f0bd 4632 88bd
000000d0: db29 6c3d 4b85 3abe b28f d1bd 577c cb3c
000000e0: 7dcb f33d b4dc 83be e8d5 593d 4318 5abd
000000f0: f0f6 e03d a7dc 843c 5a0f ff3d 987c dd3d
00000100: 59a8 983d ab46 563c 4842 0d3e 0de8 5bbe
00000110: 8fe5 59be e5dd 3cbd 6b99 05be 8609 6d3e
00000120: 0755 12be 2a83 19bd 48eb 63be 7f3a 253d
00000130: 937d e13d 12e9 0bbe 9a80 283e 1850 293e
00000140: 5fd6 5ebb 4d58 6fbe 67cf 863d 0b39 8c3c
00000150: eeeb 16be 361f 063e 3dc3 94bd 04f4 3e3d
00000160: ca90 3abe 0356 1d3e 5880 2e3e e80c 9d3d
00000170: 9aa4 b3bd 6084 02be 33f4 56bd 6fd7 053e
00000180: 58cf 02be cfeb 5ebd 6adf bc3c 4400 533d
00000190: 9514 0cbe 1959 ca3d 727f 8dbd d8ca 383d
000001a0: 26f1 073e 3931 aebd 1b3e 933c 1f58 013e
000001b0: eecc 8aba d164 263e dc16 17be 94d4 3ebe
000001c0: ad47 9ebd c683 b2bd 6e06 5b3e 5ae6 773d
000001d0: 8075 d43a f6d9 9d3d bf9c 013e b9b6 4e3e
000001e0: c502 32bc 08f0 5bbe fcca 3a3d 4cbb 013e
000001f0: 643c 28be d424 2b3e 4498 1e3e 3684 1fbd
00000200: 8b9d babd a8e1 2dbd 1975 47be 03d6 243c
00000210: 9d4a 263e 9c1d 103d 9715 ba3d 6e9c 603d
00000220: 420e 103b b3ea 5cbd 0d0b 2ebe 5a0e b93d
00000230: 75f7 303e 32d6 213a da58 1a3e 4194 a4bb
00000240: ddbf b0bd fbc5 633e f50b 46be b125 52be
00000250: 1a7e 653e de9f 153e ffad 35be 9768 f6bd
00000260: f88c 293e e30d 1cbc ee55 0c3e 2f6c 2dbe
00000270: 314a cabd d30d 1bbe da6e 1d3e 7217 3a3e
00000280: 888b c13d 2e4d 0c3e ba27 c33d 0e88 2b3e
00000290: c522 debd 08a6 2d3e 9607 8a3d 13c9 18be
000002a0: 35c1 8c3d 0631 e8bd 9200 31be 5096 9bbc
000002b0: d272 c1bd 5ca5 34be e1c9 b73d e202 8f3c
000002c0: c547 f43b 99fb 06be 5718 033e 0784 50be
000002d0: ef65 283e 0088 29be 7c2f 3abe 03de c53b
000002e0: 8b30 1fbd d393 a23c ecd5 1e3e 1f8e 873c
000002f0: d71a fcbc b8cc 4bbe de0e bebd e778 e1bd
00000300: a4e7 f23c 5778 c6bd d82d 5f3e 5661 013e
00000310: 18ef 4abe 3c3f 3d3e 3a05 0b3d f545 43be
00000320: e9d6 62bd cd07 29be 0659 e33c 9078 043e
00000330: dcea 3b3e a4c6 f6bb 2c51 3ebe 1f8c 13be
00000340: 2d14 d5bd e0da 333e 2ae0 d73d 9ab1 97bc
00000350: 0f9c b43d 741f 40be 7b79 c4bd e81e fcbd
00000360: c583 94be 489c be3c b95a f1bd f275 c73d
00000370: 397a 2cbe 4bf4 433e 61cc d3bc 770b 1f3e
00000380: c7f4 773d 45c1 9ebd a7ce f73c a31a 09bd
00000390: 83e1 07bd b8ae 4dbe 0ea9 01bd a37e 823c
000003a0: 947f 64bc 1eac 7dbd ba47 27be a806 4abe
000003b0: eb54 e13d c59d 40bc 31da 143e c720 0bbe
000003c0: fb0b 283d 15f5 e03d 9ea1 8f3d 50c0 dd3d
000003d0: 0ac4 d53d 6544 50be 5a1b 4b3e 7212 153e
000003e0: 93cf 97bd 13eb 4ebe cdda 08be 5230 ad3d
000003f0: fdc9 cbbd 1a83 153e 06aa d2bc 03d5 993d
0.136287 -0.030521337 0.33206552 -0.17025958 0.14014001 0.087871894 -0.06183567 0.01317353
0.12005684 -0.05267266 0.16020875 -0.034622964 0.13573818 0.17362007 0.06362179 0.17204414
0.12483079 0.029834263 0.20588541 -0.13338543 0.08864387 -0.028028006 -0.11756092 -0.11902125
-0.22814074 -0.079459034 -0.22770073 -0.073497616 -0.15434325 0.041393418 -0.07628636 -0.09277119
-0.07833207 -0.1252419 -0.13462487 -0.14463492 -0.13472015 0.1939002 0.0676247 0.1111712
-0.17668577 0.08064426 -0.026145821 -0.09497028 -0.009686589 0.113387346 0.041090183 0.26746088
-0.30751806 -0.21858007 -0.11743476 -0.06650214 0.057657104 -0.1821491 -0.10232486 0.024839563
0.11904047 -0.2575432 0.053182513 -0.053245794 0.109845996 0.016218496 0.124541 0.1081478
0.07453985 0.013078372 0.13794816 -0.21475239 -0.21278976 -0.046110053 -0.13046806 0.23148164
-0.14290248 -0.037478603 -0.22257721 0.04033899 0.110102795 -0.13663128 0.16455308 0.1653446
-0.0034002287 -0.23373528 0.065825276 0.017117044 -0.14738438 0.13097844 -0.07263801 0.04661943
-0.18219295 0.15364842 0.17041147 0.07668477 -0.0877163 -0.1274581 -0.05247898 0.13070463
-0.12774408 -0.054424103 0.02305575 0.051513925 -0.13679726 0.09880275 -0.06909074 0.045115322
0.13275585 -0.08505482 0.01797395 0.12631272 -0.0010589638 0.16249396 -0.14754814 -0.1863578
-0.07728515 -0.0871654 0.21389171 0.060522415 0.0016209334 0.077075884 0.1265745 0.2018689
-0.010864918 -0.21478283 0.045603737 0.12669104 -0.16429287 0.16713268 0.15487772 -0.038944446
-0.0911208 -0.04245153 -0.19478263 0.01006079 0.162394 0.035184488 0.09086149 0.054836683
0.0021981155 -0.053934764 -0.16996403 0.090359405 0.17281897 0.000617358 0.15072957 -0.005022556
-0.08630345 0.22243492 -0.19340499 -0.2052219 0.22411385 0.14611766 -0.17742155 -0.12031668
0.16557682 -0.009524795 0.13704655 -0.169358 -0.09877432 -0.15141992 0.15374318 0.18173006
0.094504416 0.13701317 0.095290616 0.1675112 -0.108464755 0.16957867 0.06739728 -0.14920454
0.06872789 -0.113374755 -0.17285374 -0.018992573 -0.09445728 -0.17641205 0.08974052 0.01745743
0.0074548447 -0.13181914 0.12802254 -0.20362864 0.16445135 -0.16555786 -0.18182176 0.0060384287
-0.038864654 0.019845879 0.15511292 0.01654726 -0.030774517 -0.19902313 -0.092801794 -0.110093884
0.02965147 -0.09690922 0.21794832 0.12634787 -0.1981777 0.18481153 0.03394053 -0.19069655
-0.055380736 -0.16506882 0.02775241 0.12936616 0.1835131 -0.007531004 -0.18585652 -0.1440892
-0.10404239 0.17563963 0.10540803 -0.018517304 0.08818828 -0.18761998 -0.09593483 -0.123105824
-0.29006782 0.02326788 -0.11784882 0.09739293 -0.16843499 0.19136159 -0.025854291 0.15531717
0.060536172 -0.07751707 0.030249907 -0.03347267 -0.03317405 -0.20086181 -0.031655364 0.015929526
-0.013946433 -0.061931722 -0.16335955 -0.19729102 0.11002525 -0.011756365 0.14536358 -0.13586722
0.04102705 0.10984246 0.07013248 0.10827696 0.10437782 -0.2033859 0.19834653 0.14557818
-0.074126385 -0.20206861 -0.13364716 0.08456482 -0.099506356 0.14600793 -0.02571584 0.07511332
