best_model_episode_1550.pth (torch, 561701 bytes, 10 tensors)

actor_log_std f4 [4]
-2.8109014 -2.5470233 -2.5984633 -2.7778304
00000000: cfe5 33c0 6e02 23c0 394d 26c0 f9c7 31c0

shared.0.weight f4 [256, 24]
-0.18575515 0.52440166 -0.63160145 0.5124611 -0.11968111 0.05297995 -0.036929082 -0.11464193
-0.16381209 -0.22895853 -0.043604787 0.046618618 0.22811589 0.24497761 0.019362675 -0.14471668
0.010653996 -0.13215479 -0.26148486 -0.112897456 -0.24996804 -0.21796185 -0.21661906 0.029350488
-1.0558631 -0.036279317 -0.45852745 -0.24623586 0.2545846 -0.49429572 0.30469355 -0.2251557
-0.22438438 -0.15733682 -0.24713872 0.12979934 -0.20103705 -0.07211734 -0.072509564 -0.14996995
-0.016241428 -0.1089143 0.048092104 0.17245041 0.12505801 -0.16189848 0.05006263 0.023221565
0.21642664 -0.39262205 0.26794258 0.09366001 -0.1799402 0.021738559 0.20948796 0.15574023
0.043275084 0.037467744 -0.021265678 -0.12272151 -0.025731536 -0.25595495 -0.08380771 -0.20914137
-0.07510861 -0.19270286 -0.004206718 -0.32559958 -0.3607294 -0.16923045 0.16162117 0.14437068
0.12526658 -0.32167846 -0.28906965 -0.83395076 -0.07516469 0.05711992 0.26371458 -0.058498204
-0.03495016 -0.4624517 -0.1405032 -0.04861503 -0.051014554 0.018846678 0.15107067 -0.13602737
-0.08581176 0.085220106 0.07968981 0.012761836 0.23748781 0.49724343 -0.093219854 -0.18535523
0.4338595 -0.04016201 -0.1289086 -0.234967 -0.17627847 0.006907046 -0.16674605 -0.08877496
-0.17788094 -0.49136814 -0.36306426 -0.41449174 -0.22268069 0.083136 0.22927395 0.06242252
0.08346259 -0.17959964 -0.13483249 -0.07910872 0.011317467 -0.23137663 -0.123335145 -0.12498029
-0.0034931127 -0.10178156 0.24679258 -0.6570506 -0.1836952 -0.20856014 -0.2436177 -0.04298298
0.14221506 -0.1578364 0.09337664 0.047024928 0.07837181 0.27035892 -0.28820053 -0.29650852
-0.3732726 -0.40306842 -0.14036575 -0.25470126 -0.18200262 -0.40196154 0.16190104 -0.069732405
-0.09325877 -0.56913805 0.039274424 0.30059925 0.33553135 -0.07373798 -0.13375668 -0.12936515
0.032640375 -0.3092423 0.107055575 -0.3523485 0.06314615 0.07030737 0.01669034 -0.1683258
0.12071567 -0.024228543 -0.049020924 -0.26976424 -0.01740124 -0.15104944 -0.14480428 0.19489588
0.18169346 0.015199998 -0.22047733 -0.20048672 0.13429134 -0.1395735 -0.13955584 -0.116703935
-0.26762933 -0.09712552 0.12894793 -0.11473289 0.012379795 -0.0048204754 -0.047773875 -0.15826623
0.021624854 0.023541437 -0.0072144237 -0.11904746 -0.13400275 -0.051397707 -0.09262798 -0.03226237
0.19752151 1.437646 -0.632979 0.7530937 0.10605993 0.03072041 0.007972683 0.042744815
-0.016200518 -0.14009935 0.08484719 -0.18620422 -0.02984694 -0.33604696 -0.15493312 -0.23674147
-0.13916303 -0.011129463 0.055705052 0.03406236 -0.2016111 -0.19646707 -0.069430105 0.19035691
0.1236349 -0.4176721 -0.23333015 -0.24945487 0.10666333 0.070013925 -0.070090055 0.08703
-0.23907806 -0.2011236 0.114773914 -0.027895605 -0.09556505 -0.31802654 -0.20520656 0.11044765
0.054872584 0.12853418 0.06546777 0.011654488 -0.051547803 -0.24280466 -0.33138126 -0.25343943
0.3591942 0.52093637 -0.43608412 -0.6109745 0.18308415 0.044891763 -0.27339593 0.20781727
0.08261175 0.026726112 0.10440974 -0.22648574 0.007449838 -0.08909679 -0.20607881 -0.3458553
00000000: 9936 3ebe 303f 063f a2b0 21bf a730 033f
00000010: 5f1b f5bd 8101 593d f342 17bd 63c9 eabd
00000020: 5bbe 27be 1b74 6abe ef9a 32bd 2af3 3e3d
00000030: 3697 693e 69db 7a3e 799e 9e3c 9c30 14be
00000040: 198e 2e3c 9653 07be 58e1 85be c836 e7bd
00000050: 9ff7 7fbe 6431 5fbe 63d1 5dbe 6f70 f03c
00000060: 8626 87bf 9f99 14bd 1cc4 eabe 4125 7cbe
00000070: ea58 823e 5414 fdbe cb00 9c3e 378f 66be
00000080: 05c5 65be e71c 21be ef11 7dbe 1eea 043e
00000090: a8dc 4dbe 42b2 93bd e57f 94bd b991 19be
000000a0: be0c 85bc 760e dfbd 3afc 443d d796 303e
000000b0: 350f 003e b7c8 25be 790e 4d3d 273b be3c
000000c0: f29e 5d3e c205 c9be c52f 893e d2d0 bf3d
000000d0: 3e42 38be 1015 b23c 0384 563e 5e7a 1f3e
000000e0: 3741 313d c777 193d 5c35 aebc 6a55 fbbd
000000f0: f1ca d2bc 870c 83be 60a3 abbd 2829 56be
00000100: 8bd2 99bd e653 45be 82d8 89bb fdb4 a6be
00000110: 86b1 b8be bf4a 2dbe 0580 253e e8d5 133e
00000120: e245 003e 0ab3 a4be f000 94be cc7d 55bf
00000130: f2ef 99bd 94f6 693d 9905 873e d09b 6fbd
00000140: e627 0fbd 78c6 ecbe 12e0 0fbe 8e20 47bd
00000150: a3f4 50bd 5964 9a3c 45b2 1a3e c24a 0bbe
00000160: 13be afbd e187 ae3d 6934 a33d 0517 513c
00000170: 0130 733e b196 fe3e 0dea bebd c3cd 3dbe
00000180: d522 de3e eb80 24bd 9e00 04be 309b 70be
00000190: 5882 34be 8054 e23b 7abf 2abe a5cf b5bd
000001a0: 6c26 36be 9b94 fbbe 8fe3 b9be 4338 d4be
000001b0: 6806 64be 3543 aa3d cac6 6a3e c2ae 7f3d
000001c0: 6fee aa3d f8e8 37be 8711 0abe c103 a2bd
000001d0: e66c 393c ffed 6cbe 2397 fcbd abf5 ffbd
000001e0: b5ec 64bb da72 d0bd 32b7 7c3e 7834 28bf
000001f0: 981a 3cbe ca90 55be eb76 79be ec0e 30bd
00000200: d3a0 113e de9f 21be 403c bf3d 369d 403d
00000210: 6681 a03d 7c6c 8a3e 058f 93be f7cf 97be
00000220: 961d bfbe fc5e cebe 0abc 0fbe 3468 82be
00000230: e55e 3abe e7cd cdbe 63c9 253e ddcf 8ebd
00000240: 74fe bebd 08b3 11bf 38de 203d 25e8 993e
00000250: c4ca ab3e f003 97bd 83f7 08be 4c78 04be
00000260: eab1 053d 0255 9ebe f43f db3d 0667 b4be
00000270: c552 813d 4ffd 8f3d 2eba 883c 995d 2cbe
00000280: c739 f73d f07a c6bc 2aca 48bd 8a1e 8abe
00000290: 0c8d 8ebc b4ac 1abe 9347 14be c992 473e
000002a0: da0d 3a3e 6a09 793c cfc4 61be 644c 4dbe
000002b0: ab83 093e 5bec 0ebe bae7 0ebe 7902 efbd
000002c0: b606 89be bfe9 c6bd ed0a 043e 14f9 eabd
000002d0: a0d4 4a3c 14f5 9dbb 8aae 43bd 8b10 22be
000002e0: 9b26 b13c f9d9 c03c f966 ecbb 28cf f3bd
000002f0: 0438 09be 6786 52bd bdb3 bdbd 8c25 04bd
00000300: 1443 4a3e c904 b83f e90a 22bf c0ca 403f
00000310: f335 d93d 5fa9 fb3c db9f 023c 3015 2f3d
00000320: f3b6 84bc 3476 0fbe 5dc4 ad3d 52ac 3ebe
00000330: 9281 f4bc 590e acbe caa6 1ebe 5b6c 72be
00000340: c180 0ebe 5a58 36bc fb2a 643d f984 0b3d
00000350: 2473 4ebe aa2e 49be 5f31 8ebd ecec 423e
00000360: 4b34 fd3d 1ed9 d5be 19ee 6ebe 1971 7fbe
00000370: 4e72 da3d 7663 8f3d 608b 8fbd c93c b23d
00000380: e1d0 74be 58f3 4dbe 960e eb3d 5385 e4bc
00000390: 9cb7 c3bd 60d4 a2be ab21 52be 6132 e23d
000003a0: 13c2 603d 779e 033e f713 863d 77f2 3e3c
000003b0: ca23 53bd c9a1 78be ceaa a9be d0c2 81be
000003c0: 4de8 b73e 165c 053f 6b46 dfbe d368 1cbf
000003d0: 697a 3b3e 6de0 373d 8dfa 8bbe 0dce 543e
000003e0: 5930 a93d b8f0 da3c c6d4 d53d e1eb 67be
000003f0: c51d f43b 6178 b6bd 5306 53be f213 b1be

shared.0.bias f4 [256]
-0.2409733 0.06567496 -0.027076557 0.08603296 -0.20281611 0.062410727 0.11760736 0.06262094
-0.04786392 0.18785581 -0.22827779 0.51782435 0.22311991 0.08756655 0.18010335 0.14151153
0.08313882 0.10811587 -0.26375318 0.21701191 0.34092468 -0.009943541 0.049729392 -0.0205561
0.16996513 0.22043146 0.0071861437 0.26900157 0.17944777 0.093557745 0.26305318 -0.0022350375
-0.061568808 0.19149116 0.12406616 0.16240335 -0.14826407 0.08351739 -0.12213283 0.16588627
-0.28356564 0.13992092 0.37874055 -0.12507543 -0.039172404 -0.020379813 0.2453077 0.43645653
-0.0640125 -0.10969434 -0.04961447 0.0014137834 -0.1439817 -0.11099718 0.3285445 0.23991922
0.13769233 0.16521093 -0.021961432 0.043901753 -0.18661952 0.3536653 -0.024201276 -0.02003597
-0.14533731 -0.043620095 -0.17826197 -0.27087882 -0.20767513 -0.26360366 -0.045204025 -0.107318275
0.099292986 0.0806402 -0.14103965 -0.20634331 -0.24175403 0.086478055 0.35104206 0.027465906
0.20096035 0.08908901 -0.24199234 -0.056103032 -0.079585895 0.14686093 -0.09519972 0.13774833
-0.05492877 -0.08475415 0.10192457 0.1572719 -0.14411421 -0.21454649 0.18256971 -0.13554515
-0.08168751 0.088748924 0.08182274 -0.042224716 -0.20723154 0.3867465 0.017653326 0.17900418
0.005317644 -0.15957303 -0.099590085 0.17755803 -0.31474945 -0.03148081 0.29509854 -0.17613076
0.06838103 -0.12899908 0.078313865 0.057496242 -0.17390104 -0.04139592 0.23169298 -0.10887537
0.28244302 0.16005217 -0.10715465 -0.036953386 0.028230468 0.1399846 0.15531722 0.11402922
0.018532611 0.16508281 0.33262235 0.42347655 -0.041670665 0.060450885 -0.061363883 -0.024835512
-0.2872746 -0.018382827 0.07871546 0.17410697 0.25397 0.18627803 0.029942079 -0.113250956
0.25077793 0.17595474 0.021617904 -0.057520103 -0.16599382 -0.26288813 0.12899664 0.15122034
0.020900449 -0.008992687 -0.108337946 -0.12705863 -0.12889469 0.14970283 0.22391845 0.0049331523
0.18253186 0.07572641 -0.042911496 0.24978222 0.0074668224 0.1825293 0.11099691 0.33071697
0.29574224 0.19879685 -0.020188697 -0.046343356 -0.019369038 -0.14723237 0.15289539 0.28413722
0.051481053 -0.05399961 0.0754301 0.05737378 -0.15670764 -0.15002668 0.039179366 -0.23843639
0.0059781326 -0.08163712 0.14081219 -0.0413789 0.04642499 0.22376429 0.28598896 0.2058001
0.0610314 0.061439026 0.28402287 0.25969505 0.13069409 0.14812662 0.07818505 0.24423113
0.17369775 0.2071473 -0.08842446 -0.018499108 -0.26872373 -0.0027662762 -0.042958677 0.15506323
-0.17278412 -0.11265289 0.37201515 0.0047149872 -0.06774122 0.19687542 -0.1255459 -0.14889516
-0.08278549 0.008095527 -0.22239053 -0.12044769 -0.052853916 -0.029810311 0.2721181 0.11601616
0.26077655 0.21927632 -0.0071392 -0.017113179 -0.00886459 -0.08287858 0.040563483 0.13419478
-0.33280018 0.115684494 -0.26310447 0.25792342 0.10279021 0.10512403 0.32486284 -0.01801065
0.31838307 0.03718378 -0.009087729 0.13195945 -0.011628022 -0.0077990736 0.08789244 0.030701278
0.23291767 0.021305991 -0.15653937 0.10959413 0.018421426 -0.09732199 0.0963082 0.21899095
00000000: b4c1 76be 9880 863d a8cf ddbc 0c32 b03d
00000010: 07af 4fbe 64a2 7f3d 21dc f03d 683f 803d
00000020: f50c 44bd 465d 403e a7c1 69be 2390 043f
00000030: 8c79 643e 1756 b33d 036d 383e 66e8 103e
00000040: b044 aa3d da6b dd3d a80a 87be 5f38 5e3e
00000050: ae8d ae3e 3cea 22bc 0cb1 4b3d 4465 a8bc
00000060: 570b 2e3e c9b8 613e be79 eb3b 93ba 893e
00000070: 28c1 373e 349b bf3d e8ae 863e b579 12bb
00000080: 932f 7cbd 4216 443e 6616 fe3d 104d 263e
00000090: 89d2 17be 2a0b ab3d c720 fabd 17de 293e
000000a0: 842f 91be 6e47 0f3e 48ea c13e c613 00be
000000b0: 3e73 20bd 91f3 a6bc f131 7b3e 3b77 df3e
000000c0: fc18 83bd 6da7 e0bd 8b38 4bbd b34e b93a
000000d0: f06f 13be 7d52 e3bd fc36 a83e 62ad 753e
000000e0: 38ff 0c3e 0e2d 293e 76e8 b3bc 53d2 333d
000000f0: 3019 3fbe 9e13 b53e c141 c6bc 7922 a4bc
00000100: 4ed3 14be fcaa 32bd 4e8a 36be a1b0 8abe
00000110: caa8 54be 0ff7 86be db27 39bd afc9 dbbd
00000120: 1f5a cb3d b026 a53d b36c 10be a94b 53be
00000130: 5e8e 77be 681b b13d c9bb b33e 2e00 e13c
00000140: 8dc8 4d3e 4d74 b63d d7cc 77be 4bcc 65bd
00000150: eefd a2bd b662 163e 12f8 c2bd e60d 0d3e
00000160: fdfc 60bd 9593 adbd d4bd d03d e30b 213e
00000170: ad92 13be 13b2 5bbe 8ef3 3a3e 59cc 0abe
00000180: c84b a7bd ffc1 b53d ae92 a73d d3f3 2cbd
00000190: 8134 54be a303 c63e b59d 903c df4c 373e
000001a0: a23f ae3b 1d67 23be e3f5 cbbd c6d1 353e
000001b0: d726 a1be 06f2 00bd 2817 973e 9f5b 34be
000001c0: 5a0b 8c3d 5618 04be 0563 a03d 2e81 6b3d
000001d0: 1d13 32be c58e 29bd ed40 6d3e 0dfa debd
000001e0: 5f9c 903e b7e4 233e e673 dbbd 6f5c 17bd
000001f0: 9543 e73c 1f58 0f3e 7a0b 1f3e 2788 e93d
00000200: b4d1 973c 780b 293e 7a4d aa3e ebd1 d83e
00000210: dcae 2abd 599b 773d b258 7bbd d873 cbbc
00000220: a815 93be 9597 96bc 9235 a13d 1949 323e
00000230: 5b08 823e abbf 3e3e 1749 f53c 1ef0 e7bd
00000240: f765 803e 7b2d 343e 0818 b13c 339a 6bbd
00000250: 49fa 29be 4699 86be b217 043e 81d9 1a3e
00000260: 6b37 ab3c 1056 13bc 49e0 ddbd a81b 02be
00000270: f8fc 03be b34b 193e e14a 653e 48a6 a13b
00000280: a2e9 3a3e 7316 9b3d f7c3 2fbd e9c6 7f3e
00000290: 3fac f43b f6e8 3a3e 5952 e33d bc53 a93e
000002a0: 876b 973e 6791 4b3e c462 a5bc 88d2 3dbd
000002b0: d1ab 9ebc 15c4 16be 9c90 1c3e 6f7a 913e
000002c0: ccdd 523d b22e 5dbd 197b 9a3d c500 6b3d
000002d0: f877 20be 98a0 19be 8b7a 203d ab28 74be
000002e0: 36e4 c33b 5d31 a7bd 1231 103e ec7c 29bd
000002f0: 2128 3e3d 7722 653e 256d 923e 43bd 523e
00000300: 10fc 793d 7da7 7b3d 726b 913e c0f6 843e
00000310: acd4 053e 81ae 173e 7c1f a03d ba17 7a3e
00000320: d3dd 313e 6c1e 543e e217 b5bd 718b 97bc
00000330: 2896 89be 6a4a 35bb 70f5 2fbd e5c8 1e3e
00000340: 52ee 30be 8fb6 e6bd c578 be3e 2e80 9a3b
00000350: e9bb 8abd b699 493e 1b8f 00be f977 18be
00000360: 708b a9bd 1aa3 043c 58ba 63be 47ad f6bd
00000370: 597d 58bd c134 f4bc 1053 8b3e e199 ed3d
00000380: 8184 853e f989 603e f3ef e9bb f030 8cbc
00000390: c93c 11bc 3fbc a9bd e525 263d 5b6a 093e
000003a0: c964 aabe feeb ec3d a1b5 86be 8a0e 843e
000003b0: ac83 d23d 444b d73d 6c54 a63e 128b 93bc
000003c0: 1b03 a33e 054e 183d b3e4 14bc 6120 073e
000003d0: 7683 3ebc 5f8f ffbb f400 b43d 3f81 fb3c
000003e0: f881 6e3e e789 ae3c db4b 20be e372 e03d
000003f0: 88e8 963c c050 c7bd 3c3d c53d 2a3f 603e

actor_mean.0.weight f4 [256, 256]
-0.005662687 -0.061181292 0.03694234 -0.044254806 0.018312978 -0.006949048 0.042899974 -0.014821168
-0.05855508 -0.07280799 -0.015289068 -0.049872283 0.033555515 -0.031072268 -0.041285552 -0.09497025
-0.076781616 -0.044479106 -0.10546998 -0.0196728 -0.06104896 -0.018658193 -0.040445372 -0.07702582
0.056177028 0.030812189 -0.0021005576 -0.0058482187 0.02109644 -0.056508724 -0.09637281 0.042006902
-0.12523489 0.023148978 0.004545021 0.037655875 0.06607197 -0.085300155 0.02028969 -0.103026494
0.0023602708 0.047851607 -0.04120422 0.022716904 -0.035233438 -0.029080136 0.0034553031 -0.07795938
-0.021895159 -0.001528813 -0.041332673 0.065212026 0.060355138 -0.073334366 0.0057093077 0.003677921
0.040887408 -0.044090215 0.058417074 -0.06906912 0.06855361 -0.069505565 -0.018074844 0.010071309
-0.010790453 -0.04451583 0.028434003 -0.062359843 -0.047494005 0.009379978 0.060537905 0.03562033
-0.05593137 0.012201697 0.023838712 -0.019001223 0.03895852 -0.02030359 -0.061611585 -0.02208694
-0.038668837 0.029710356 0.042992886 -0.038736682 -0.00921208 0.058640372 -0.031056268 -0.049830228
0.014892932 0.05364672 0.014143606 -0.078655586 -0.055068336 0.03981512 -0.011092367 0.007170965
-0.012364584 -0.06510745 -0.017189922 0.05086781 -0.03823772 0.02141543 -0.017305063 -0.074322484
-0.053547904 0.009764435 -0.09263383 0.026241755 -0.02012208 0.0074068056 0.0047005853 0.07615832
-0.05289744 -0.07424398 0.028770598 -0.033228032 -0.021650858 0.028564356 -0.025270307 -0.01238168
-0.08950447 0.016648123 0.03553603 -0.033663813 -0.073354825 0.028222676 0.014255312 -0.005051184
0.0069555463 -0.061059736 0.036891673 -0.013626214 -0.011727162 -0.024201673 -0.04598073 0.0047052037
0.03846431 0.037404947 -0.036453772 0.053495232 0.014734184 0.015846705 0.032107078 -0.032087598
-0.044392366 -0.003014746 -0.092892975 0.016791241 -0.10007287 -0.062650494 -0.004721072 0.0005278088
0.031624164 -0.049639583 -0.053905904 -0.008926831 -0.059504587 -0.060659334 0.0065599284 -0.052154396
-0.029784702 0.0148795275 0.053170633 -0.060937066 0.02777321 -0.014049729 0.09266425 0.06304365
-0.03797667 -0.017075185 -0.0593543 0.019198531 -0.07511431 0.1105861 -0.021215942 0.049484923
0.03143942 0.047282103 -0.0793107 -0.07646463 -0.08064985 -0.0299563 0.038020417 0.021580346
0.037119392 -0.00073430495 0.004500383 -0.05868298 0.04282731 -0.08296942 -0.070659846 0.016601214
0.035491716 -0.045912918 0.027564982 -0.028683338 -0.06998099 -0.035945978 -0.024265539 -0.056870047
0.04267446 -0.040871978 -0.04828198 -0.026973695 -0.01159556 0.034043733 -0.045112018 -0.033577748
-0.0069975066 0.045722608 0.011382835 -0.023451157 -0.032273445 0.007475252 0.014205108 0.014025307
0.04060331 0.029173398 0.0020459571 0.0068006874 -0.051980663 -0.043865647 -0.07957486 -0.00080853107
-0.05026046 0.12017078 -0.068516545 -0.061582662 0.022515839 0.015078406 -0.05113566 -0.024846213
0.0058162105 -0.010955415 -0.027187435 -0.000755467 -0.016283298 -0.018703736 0.02475916 -0.033892877
-0.03863415 -0.004495709 -0.06549059 0.019892387 -0.05909347 -0.0651898 -0.0061591063 -0.057225805
-0.040791553 0.025513632 -0.012142645 -0.034259826 0.009502441 -0.07812575 0.0030187308 -0.09539332
00000000: 108e b9bb 3c99 7abd da50 173d 8744 35bd
00000010: 1905 963c d7b4 e3bb e2b7 2f3d 7cd4 72bc
00000020: 74d7 6fbd 5b1c 95bd 007f 7abc e146 4cbd
00000030: 8271 093d 458b febc 0a1b 29bd c37f c2bd
00000040: ae3f 9dbd b92f 36bd a500 d8bd da28 a1bc
00000050: 790e 7abd 11d9 98bc 0caa 25bd b7bf 9dbd
00000060: e219 663d d869 fc3c 82a9 09bb 6aa2 bfbb
00000070: 71d2 ac3c b175 67bd 1c5f c5bd 6e0f 2c3d
00000080: 933d 00be eda2 bd3c 66ee 943b 0c3d 1a3d
00000090: be50 873d d9b1 aebd 9036 a63c 8eff d2bd
000000a0: c6ae 1a3b 0c00 443d c2c5 28bd cd18 ba3c
000000b0: f050 10bd 7739 eebc 5e72 623b 2ba9 9fbd
000000c0: 7a5d b3bc 7462 c8ba 734c 29bd e28d 853d
000000d0: f336 773d 5430 96bd 2515 bb3b 4609 713b
000000e0: 8e79 273d f197 34bd be46 6f3d 1c74 8dbd
000000f0: d665 8c3d ef58 8ebd b211 94bc 2202 253c
00000100: 71ca 30bc 3b56 36bd 6dee e83c 096d 7fbd
00000110: 1389 42bd 7bae 193c 98f6 773d a0e6 113d
00000120: 4b18 65bd a0e9 473c 6749 c33c 74a8 9bbc
00000130: f892 1f3d b753 a6bc 6e5c 7cbd acef b4bc
00000140: 3763 1ebd 2263 f33c 4f19 303d 5baa 1ebd
00000150: 44ee 16bc e330 703d b769 febc c81a 4cbd
00000160: 7c01 743c aabc 5b3d 95ba 673c 2e16 a1bd
00000170: 568f 61bd 2e15 233d c2bc 35bc 6afa ea3b
00000180: d394 4abc 0e57 85bd e1d1 8cbc c45a 503d
00000190: 289f 1cbd 696f af3c 59c3 8dbc 6336 98bd
000001a0: 0c55 5bbd 02fb 1f3c ceb6 bdbd f3f8 d63c
000001b0: 0fd7 a4bc cab4 f23b 5e07 9a3b e5f8 9b3d
000001c0: fcaa 58bd 3a0d 98bd 51b0 eb3c 1e1a 08bd
000001d0: 245d b1bc ccff e93c ad03 cfbc 88dc 4abc
000001e0: 1f4e b7bd a561 883c 3a8e 113d 11e3 09bd
000001f0: 0e3b 96bd 3e33 e73c 1d8f 693c 6784 a5bb
00000200: 5aeb e33b c619 7abd b91b 173d 7c40 5fbc
00000210: 4823 40bc 9642 c6bc 4a56 3cbd 1c2e 9a3b
00000220: c18c 1d3d ee35 193d 8d50 15bd d11d 5b3d
00000230: a667 713c f3d0 813c b682 033d 496e 03bd
00000240: c5d4 35bd 0b93 45bb ac3e bebd c98d 893c
00000250: 01f3 ccbd e74e 80bd 39b3 9abb a65c 0a3a
00000260: 5788 013d e052 4bbd 70cc 5cbd d841 12bc
00000270: 15bb 73bd ec75 78bd abf4 d63b d99f 55bd
00000280: 0cff f3bc 43c9 733c 73c9 593d 2599 79bd
00000290: a584 e33c d630 66bc c1c6 bd3d 071d 813d
000002a0: 6d8d 1bbd 42e1 8bbc 7f1d 73bd 3d46 9d3c
000002b0: 88d5 99bd f77a e23d 0ecd adbc b4b0 4a3d
000002c0: 9fc6 003d e1aa 413d a66d a2bd 7d99 9cbd
000002d0: c02b a5bd ea66 f5bc 4cbb 1b3d 44c9 b03c
000002e0: 810a 183d 5f7e 40ba f377 933b 905d 70bd
000002f0: b06b 2f3d dfeb a9bd 1cb6 90bd 45ff 873c
00000300: c35f 113d 2f0f 3cbd f5cf e13c 52f9 eabc
00000310: 3152 8fbd 173c 13bd 86c8 c6bc 91f0 68bd
00000320: 6acb 2e3d 6069 27bd 53c3 45bd f0f7 dcbc
00000330: 4efb 3dbc 7171 0b3d 61c7 38bd d288 09bd
00000340: 574b e5bb a147 3b3d 127f 3a3c a41c c0bc
00000350: 2931 04bd f5f2 f43b 8bbc 683c 67ca 653c
00000360: a84f 263d 0dfd ee3c 7715 063b 4dd8 de3b
00000370: ade9 54bd 77ac 33bd 25f8 a2bd 9af3 53ba
00000380: e9dd 4dbd 191c f63d 6752 8cbd 1a3e 7cbd
00000390: 2373 b83c 6b0b 773c a073 51bd 498a cbbc
000003a0: e995 be3b 577e 33bc 2fb8 debc 880a 46ba
000003b0: 8d64 85bc 9438 99bc b9d3 ca3c 42d3 0abd
000003c0: d83e 1ebd be50 93bb ee1f 86bd 5cf5 a23c
000003d0: ff0b 72bd 3b82 85bd 54d2 c9bb 9b65 6abd
000003e0: 0b15 27bd f701 d13c f2f1 46bc 0854 0cbd
000003f0: 20b0 1b3c 6500 a0bd e6d5 453b 935d c3bd

actor_mean.0.bias f4 [256]
-0.016613986 -0.08478453 -0.02915761 0.005822232 0.028700108 -0.010803921 -0.04298135 -0.104186505
0.0070838085 -0.20115611 -0.05052517 -0.0380882 -0.029489905 -0.08223458 -0.11957172 0.11334712
-0.028345667 -0.04231704 -0.044194587 -0.10281274 -0.16446435 -0.07735255 -0.11884962 0.015527166
-0.06193811 -0.0126681905 -0.05862851 -0.2746264 -0.076229535 -0.059878834 -0.07367619 -0.15285712
-0.15545894 -0.096098624 -0.07382115 0.011685309 -0.041822314 0.02442616 0.065319836 -0.13737255
0.046072204 -0.07101514 -0.11280007 -0.15578222 -0.045979977 -0.08601298 -0.17272338 -0.0001272871
-0.060421657 -0.10506179 -0.072322115 0.06737558 -0.072022304 -0.05508662 -0.07611565 -0.07498215
-0.0002582985 -0.15058124 -0.10828545 -0.0036276227 0.003569535 -0.101710014 -0.09571972 -0.0019672206
-0.014504654 -0.110864066 -0.045929424 -0.013895738 -0.059208404 -0.077462606 -0.12107672 -0.15203388
-0.122803554 0.025588488 -0.025990475 -0.0727049 -0.092080764 -0.15457892 -0.12925185 -0.013493786
-0.06054248 -0.13395026 0.02100665 -0.1779437 -0.08206926 0.10526398 -0.07281164 -0.09084524
0.023663552 -0.08200668 -0.04896273 -0.014281132 -0.11439326 0.023439867 -0.04641168 -0.035477284
-0.10828758 -0.11810118 -0.10655437 -0.0485141 0.011292846 -0.22653626 -0.059331413 -0.082202464
-0.05196662 -0.19617675 -0.124768406 -0.041176986 -0.04788252 -0.02312139 -0.09185358 -0.033413008
-0.00045076007 -0.008870485 -0.099032365 -0.039528888 0.013493814 -0.004488282 -0.10281417 -0.037801825
-0.044608366 -0.12270018 -0.046547607 -0.028340945 -0.04703998 0.0057425117 -0.0022977123 -0.06502682
-0.03746588 -0.050085425 -0.08989748 -0.05010828 -0.117854275 -0.05530268 -0.20808712 -0.06768887
-0.070223495 -0.10272785 -0.07060082 -0.14171377 -0.04440272 -0.02455234 0.05038317 -0.11491544
-0.15879144 0.023559682 -0.037310623 -0.008255702 -0.0808072 -0.010661274 -0.19379687 -0.1338372
-0.18589908 -0.057553105 0.010822304 -0.18265076 0.0068982164 -0.0074968706 -0.00097138295 -0.095827386
-0.092094906 0.027475074 -0.20520446 -0.080493346 -0.059213776 0.026738016 0.025545776 -0.08084941
-0.11520882 -0.081469834 -0.15482356 -0.110821135 -0.17282774 -0.0813573 0.013109208 0.06976402
-0.059590027 0.07954094 0.00542014 0.029838419 -0.098497786 0.07730871 -0.028201245 -0.048670564
-0.0023886117 -0.09297089 -0.13502227 -0.11211836 -0.046667006 -0.09670371 -0.098408654 -0.11782264
-0.011099185 0.021048846 -0.008519789 -0.06587486 -0.08427823 -0.24608551 -0.020275284 -0.07795625
-0.035265468 0.095158674 -0.10485888 -0.063488975 -0.10556575 -0.07004249 -0.05063016 -0.11232898
-0.08815304 -0.074881434 -0.10420054 -0.04101017 -0.071465075 -0.014885515 0.06471261 -0.11899292
-0.064166315 -0.07644996 -0.05757662 -0.09869051 -0.07054957 -0.033551257 -0.056123804 -0.011282428
0.008372457 -0.001292464 -0.022207886 0.0038062385 0.017479114 -0.037057903 -0.034307502 -0.16179897
-0.17671148 -0.1263511 -0.07476679 -0.06902437 0.039288037 -0.0120582655 -0.08797936 0.020618
0.0024986437 0.000757748 -0.048646204 -0.088122815 -0.03592253 -0.1631417 -0.07534204 0.024644742
-0.091746986 -0.037582688 -0.071731016 -0.0846113 0.024970986 -0.03978509 -0.08335692 -0.050547358
00000000: 0e1a 88bc 83a3 adbd f1db eebc 6cc8 be3b
00000010: 7d1c eb3c ee02 31bc 360d 30bd bc5f d5bd
00000020: 4b1f e83b defb 4dbe 7bf3 4ebd 5f02 1cbd
00000030: d094 f1bc 9a6a a8bd 05e2 f4bd 8922 e83d
00000040: 2c35 e8bc a254 2dbd 6205 35bd 7c8f d2bd
00000050: 5869 28be 046b 9ebd 6e67 f3bd a865 7e3c
00000060: d1b2 7dbd 3e8e 4fbc 7324 70bd d59b 8cbe
00000070: 3b1e 9cbd 8243 75bd 8be3 96bd 9486 1cbe
00000080: a130 1fbe 5bcf c4bd 8b2f 97bd bd73 3f3c
00000090: e04d 2bbd 5f19 c83c 68c6 853d 64ab 0cbe
000000a0: 35b6 3c3d 6370 91bd b903 e7bd 6085 1fbe
000000b0: 8055 3cbd 9327 b0bd 66de 30be 5f78 05b9
000000c0: b37c 77bd a32a d7bd 9e1d 94bd 35fc 893d
000000d0: 6e80 93bd 82a2 61bd 86e2 9bbd 3e90 99bd
000000e0: 3d6c 87b9 f831 1abe c3c4 ddbd 69bd 6dbb
000000f0: dcee 693b 574d d0bd b308 c4bd 7cec 00bb
00000100: eea4 6dbc b30c e3bd 7e20 3cbd f3aa 63bc
00000110: 8384 72bd b7a4 9ebd 12f7 f7bd c5ae 1bbe
00000120: 6e80 fbbd f39e d13c fae9 d4bc 4ee6 94bd
00000130: d794 bcbd f049 1ebe 995a 04be 0a15 5dbc
00000140: 64fb 77bd 422a 09be 2316 ac3c e036 36be
00000150: ee13 a8bd a494 d73d 451e 95bd 120d babd
00000160: 11da c13c 1ef3 a7bd 258d 48bd 69fb 69bc
00000170: 0347 eabd f704 c03c 2c1a 3ebd a150 11bd
00000180: e1c5 ddbd 08df f1bd 2d39 dabd b9b6 46bd
00000190: a105 393c 1ff9 67be 7f05 73bd c459 a8bd
000001a0: f3da 54bd 8fe2 48be 9486 ffbd 33a9 28bd
000001b0: 7620 44bd 1269 bdbc bb1d bcbd 14dc 08bd
000001c0: fe53 ecb9 8355 11bc 7bd1 cabd 0be9 21bd
000001d0: 2815 5d3c 7012 93bb 3c90 d2bd 16d6 1abd
000001e0: 43b7 36bd 3b4a fbbd b4a8 3ebd 452b e8bc
000001f0: feac 40bd ae2b bc3b 3795 16bb c82c 85bd
00000200: d375 19bd 6026 4dbd 2c1c b8bd 573e 4dbd
00000210: 955d f1bd 1085 62bd ca14 55be 76a0 8abd
00000220: 56d1 8fbd fb62 d2bd 2a97 90bd 6a1d 11be
00000230: a0df 35bd fd21 c9bc 955e 4e3d c958 ebbd
00000240: 399a 22be 3c00 c13c 06d3 18bd ed42 07bc
00000250: 3f7e a5bd a0ac 2ebc b072 46be 9e0c 09be
00000260: 545c 3ebe cebc 6bbd 0850 313c cd08 3bbe
00000270: 6f0a e23b 4fa8 f5bb 68a4 7eba 2641 c4bd
00000280: 419c bcbd 6813 e13c 1e21 52be b2d9 a4bd
00000290: 258a 72bd af09 db3c 6045 d13c 6094 a5bd
000002a0: 9af2 ebbd a8d9 a6bd 118a 1ebe 31f6 e2bd
000002b0: c1f9 30be a89e a6bd 01c8 563c 70e0 8e3d
000002c0: ac14 74bd 5ce6 a23d 6e9b b13b b36f f43c
000002d0: 35b9 c9bd 0754 9e3d 4c06 e7bc c95a 47bd
000002e0: 418a 1cbb 8667 bebd 4743 0abe 509e e5bd
000002f0: e725 3fbd 980c c6bd 7a8a c9bd ff4c f1bd
00000300: 5bd9 35bc a16e ac3c 9696 0bbc 66e9 86bd
00000310: 119a acbd d7fd 7bbe 5a18 a6bc 87a7 9fbd
00000320: 8672 10bd 8de2 c23d 41c0 d6bd 8206 82bd
00000330: db32 d8bd 7072 8fbd 9261 4fbd bc0c e6bd
00000340: 9589 b4bd 705b 99bd 1867 d5bd 48fa 27bd
00000350: 485c 92bd 60e2 73bc 0b88 843d 8fb2 f3bd
00000360: a169 83bd cc91 9cbd 76d5 6bbd 401e cabd
00000370: 4b7c 90bd 0b6d 09bd 13e2 65bd efd9 38bc
00000380: a12c 093c e567 a9ba 50ed b5bc 1672 793b
00000390: 5c30 8f3c 07ca 17bd 0686 0cbd a1ae 25be
000003a0: dbf3 34be 2f62 01be 551f 99bd a65c 8dbd
000003b0: 7eec 203d 0890 45bc 862e b4bd 14e7 a83c
000003c0: 49c0 233b 9ca3 463a 3e41 47bd bc79 b4bd
000003d0: 8123 13bd 9e0e 27be ed4c 9abd c5e3 c93c
000003e0: d8e5 bbbd 4ef0 19bd b6e7 92bd b048 adbd
000003f0: f48f cc3c b1f5 22bd 08b7 aabd bf0a 4fbd

actor_mean.2.weight f4 [4, 256]
0.05036564 -0.032173734 0.014871746 -0.048920378 0.047733907 0.07934726 0.08157881 0.12830241
-0.023324518 -0.09548431 -0.23155911 -0.057838313 0.46147692 0.020529242 0.043904543 0.27017567
-0.0147037385 -0.046107087 0.016345967 -0.0018769547 -0.0818985 -0.15072179 0.07501202 0.16586888
0.08705447 -0.0028899733 -0.08720986 -0.5550613 -0.1592694 0.028418275 -0.03328698 0.17600256
0.46829703 0.21140583 -0.005836037 -0.02372907 -0.047024906 0.6195053 -0.047268 -0.064627916
0.15939644 0.0408141 0.10024561 -0.22109538 -0.18999133 -0.06663782 -0.1525466 0.09821456
-0.01455354 0.13813269 0.037943732 0.092480704 0.0023158046 -0.22068454 -0.02880023 0.0009436183
-0.04316349 -0.25247923 -0.041077603 -0.10805611 -0.012324189 -0.15374646 -0.14279163 0.0053511285
0.0043100896 -0.100582324 -0.0044795363 -0.029657284 0.053251944 0.033661246 -0.22670504 -0.095964454
-0.10366358 0.72322744 -0.13735403 0.0095048575 0.1921794 0.24153817 0.0077299112 -0.07870849
0.0055622417 -0.41338116 0.07009736 0.29506734 -0.25763106 0.46708626 0.036812775 0.06825604
0.02505448 -0.27758208 0.05648677 -0.11433472 0.1588431 -0.11601367 0.057513304 0.06780631
0.39085636 0.08405198 -0.06571338 -0.18543437 0.024272962 0.3475992 -0.07084936 0.36876982
-0.026722858 -0.08761255 0.3850744 0.03599853 0.18425038 0.028494716 0.27671915 0.02950815
-0.5317556 -0.17740415 -0.08361197 0.00739991 -0.068550766 0.019028364 -0.1177319 0.32713455
-0.01228973 0.19310044 -0.17769648 -0.05916392 -0.014935299 0.14151797 0.028001443 -0.06305905
0.07564164 -0.071292564 0.06687403 -0.4436387 0.12992579 -0.018222414 -0.13603555 0.056661077
0.1415231 -0.008894596 -0.18251725 0.06877837 -0.019405335 -0.33088312 0.09836711 0.038088653
0.07006896 0.013522108 -0.012674123 -0.30948114 -0.02533901 -0.17737879 0.12606965 -0.064487
-0.32637307 0.10393507 -0.041899387 -0.3354445 0.02361596 0.14640121 -0.03399576 0.23874359
-0.2061504 -0.39823 -0.46445346 0.020435859 -0.011757756 -0.043989997 0.0030073149 -0.2756464
0.06916412 -0.1448629 -0.15903689 0.058944304 0.020896029 -0.12664963 0.060460597 0.17967848
0.043152742 0.11360137 0.03667334 -0.069485314 0.09855237 0.01992021 0.17170858 0.035710268
0.089333616 -0.27691022 -0.11097837 -0.13841698 0.058799826 -0.30095252 0.057829306 -0.11707689
-0.0015861194 0.0005934759 0.0048624543 -0.11687916 0.28792262 -0.56040174 -0.05532534 0.21474351
0.104445204 -0.11175626 -0.053815067 -0.052351102 -0.18935074 -0.049320158 -0.5416133 -0.052235067
0.09686268 -0.045619108 -0.111609705 0.028171623 -0.0730954 0.14780615 -0.1800781 0.16956197
-0.0441264 0.045873422 -0.08696581 0.47592893 -0.021353282 0.0104864 0.0041944906 0.028732503
0.06830283 0.13389121 -0.044392783 -0.03959194 0.15364169 -0.10329004 -0.14738083 0.49243385
0.24375837 -0.19172765 0.041973356 -0.038054872 0.3730975 0.42653435 -0.05476221 0.24651901
-0.093992755 -0.10743672 0.041208845 0.204377 0.0059943027 -0.7522046 -0.29178035 -0.14783682
0.012330168 0.12641212 -0.08045986 0.16743463 0.016917512 0.12892541 -0.035302244 0.030350178
00000000: 344c 4e3d 9bc8 03bd a0a8 733c bc60 48bd
00000010: a184 433d d180 a23d cb12 a73d b561 033e
00000020: 0f13 bfbc 478d c3bd d51d 6dbe dee7 6cbd
00000030: b446 ec3e f12c a83c 40d5 333d 7754 8a3e
00000040: f3e7 70bc c9da 3cbd fae7 853c 2604 f6ba
00000050: 67ba a7bd d056 1abe e79f 993d 88d9 293e
00000060: 9d49 b23d b565 3dbb 159b b2bd 7f18 0ebf
00000070: 8517 23be 71cd e83c ee57 08bd 043a 343e
00000080: a1c4 ef3e c57a 583e 3a3c bfbb 7763 c2bc
00000090: 309d 40bd e697 1e3f 179c 41bd a45b 84bd
000000a0: d238 233e b02c 273d 924d cd3d d466 62be
000000b0: 168d 42be 6979 88bd 2d35 1cbe b724 c93d
000000c0: f971 6ebc a872 0d3e e36a 1b3d 8666 bd3d
000000d0: c1c4 173b 21fb 61be 76ee ebbc 275d 773a
000000e0: 33cc 30bd f544 81be fd40 28bd 864c ddbd
000000f0: 65eb 49bc b66f 1dbe f837 12be 8558 af3b
00000100: a73b 8d3b 1bfe cdbd 13c9 92bb d5f3 f2bc
00000110: b61e 5a3d 60e0 093d 5e25 68be 0389 c4bd
00000120: 924d d4bd 6f25 393f 89a6 0cbe 43ba 1b3c
00000130: adca 443e c855 773e 324b fd3b eb31 a1bd
00000140: 7743 b63b b2a6 d3be 348f 8f3d 1113 973e
00000150: 38e8 83be ee25 ef3e fec8 163d d3c9 8b3d
00000160: 0e3f cd3c 3d1f 8ebe ac5e 673d 5228 eabd
00000170: c4a7 223e 9398 edbd 1293 6b3d 09de 8a3d
00000180: 531e c83e 7223 ac3d bd94 86bd 82e2 3dbe
00000190: 17d8 c63c 86f8 b13e 7819 91bd 66cf bc3e
000001a0: e5e9 dabc 356e b3bd 7928 c53e 3273 133d
000001b0: 22ac 3c3e c06d e93c 22ae 8d3e 13bb f13c
000001c0: 2321 08bf 6fa9 35be c13c abbd f27a f23b
000001d0: 5864 8cbd 5fe1 9b3c 6c1d f1bd 2e7e a73e
000001e0: dd5a 49bc 1fbc 453e 11f6 35be de55 72bd
000001f0: 2fb3 74bc 16ea 103e 4863 e53c 1a25 81bd
00000200: 01ea 9a3d d601 92bd 40f5 883d 9d24 e3be
00000210: 440b 053e 2c47 95bc e74c 0bbe 7215 683d
00000220: 6eeb 103e a4ba 11bc cde5 3abe addb 8c3d
00000230: f0f7 9ebc 8369 a9be b274 c93d d902 1c3d
00000240: 5180 8f3d d58b 5d3c 20a7 4fbc 5074 9ebe
00000250: c193 cfbc c9a2 35be 6718 013e c311 84bd
00000260: 5f1a a7be e9db d43d b19e 2bbd 62bf abbe
00000270: 4276 c13c 33ea 153e 233f 0bbd 3379 743e
00000280: 1719 53be cde4 cbbe d8cc edbe 1a69 a73c
00000290: 9aa3 40bc db2e 34bd 5f16 453b 8621 8dbe
000002a0: eba5 8d3d f156 14be 91da 22be 956f 713d
000002b0: 262e ab3c 71b0 01be 88a5 773d a3fd 373e
000002c0: eec0 303d d6a7 e83d c936 163d 514e 8ebd
000002d0: d3d5 c93d b52f a33c 60d4 2f3e ee44 123d
000002e0: 8bf4 b63d 2dc7 8dbe a148 e3bd 2ebd 0dbe
000002f0: 16d8 703d 7316 9abe 6cde 6c3d 02c6 efbd
00000300: 56e5 cfba 7e93 1b3a 3955 9f3b 575e efbd
00000310: 986a 933e 7d76 0fbf d39c 62bd b9e5 5b3e
00000320: 5ee7 d53d 77e0 e4bd 306d 5cbd 1c6e 56bd
00000330: 29e5 41be ef03 4abd 2ba7 0abf 70f4 55bd
00000340: f15f c63d 1adb 3abd a193 e4bd 2dc8 e63c
00000350: 0bb3 95bd 7f5a 173e 6566 38be a7a1 2d3e
00000360: e2bd 34bd c5e5 3b3d 211b b2bd f5ac f33e
00000370: 14ed aebc 26cf 2b3c f071 893b 6d60 eb3c
00000380: 5be2 8b3d c71a 093e 35d5 35bd 282b 22bd
00000390: 3f54 1d3e ba89 d3bd 00eb 16be 4a20 fc3e
000003a0: cb9b 793e 4154 44be 41ec 2b3d 6ddf 1bbd
000003b0: a306 bf3e b662 da3e 574e 60bd 7b6f 7c3e
000003c0: 467f c0bd c807 dcbd 9bca 283d 3448 513e
000003d0: db6b c43b 7b90 40bf 3c64 95be 8962 17be
000003e0: 7904 4a3c 2e72 013e 24c8 a4bd fc73 2b3e
000003f0: 9896 8a3c 0605 043e 1699 10bd f0a0 f83c

actor_mean.2.bias f4 [4]
0.058350503 -0.058312856 -0.08247348 0.06713129
00000000: f000 6f3d 76d9 6ebd dbe7 a8bd 217c 893d

critic.0.weight f4 [256, 256]
0.17329282 0.17264996 -0.08782613 0.6651792 -0.21728922 -0.017580092 -0.0056828503 -0.07348705
-0.16628112 -0.11194598 -0.4556179 0.23236512 0.1795968 0.07766255 -0.32974932 0.10342793
0.18099943 0.17328267 0.13273387 0.1307176 0.096899614 0.15510763 0.37645292 -0.05105544
0.017576862 0.27616033 -0.027908966 -0.009651417 -0.50214833 -0.07890155 0.111953706 0.19970332
0.1675509 -0.11956972 0.15370741 0.20361206 -0.1413497 -0.12308462 -0.12671883 0.30196244
-0.006244838 0.052008517 0.23705155 -0.047011964 0.1415021 0.47087288 -0.027217705 0.13626252
-0.106873944 0.30940157 -0.086598806 0.11757085 -0.18113622 -0.055768855 0.20641498 0.00064230117
0.12865975 0.35080633 -0.085310444 0.12629676 0.14213224 0.1442352 0.03750529 0.3043125
-0.30985853 -0.15396044 -0.030063724 0.066660106 0.17027676 0.1201923 -0.24909034 0.005447007
-0.28446227 -0.15950155 0.016769353 0.1755357 -0.11061279 -0.100980066 -0.19096468 -0.15067987
0.22332533 0.16827175 0.13847534 0.014179613 0.26140797 0.09620179 -0.61357456 -0.22456214
-0.114196435 -0.2380319 0.1286237 0.1037763 -0.4961472 -0.03118521 0.16580188 0.08452184
-0.05230769 0.024390874 0.1362213 -0.05463521 -0.025031738 0.29313055 -0.15028575 0.17038697
0.08579945 0.30697048 0.42105493 -0.13501135 -0.66879267 0.016563639 0.3011868 -0.15841293
0.28921393 -0.06458927 -0.18671656 0.07233546 0.24233189 0.42091307 0.16478468 0.01938124
0.12812918 0.114914745 -0.2090755 0.031839494 -0.30694053 0.3434822 0.03782559 -0.026614215
-0.19413301 -0.07302205 -0.03123381 0.1700029 0.3517707 -0.12725016 -0.078049585 -0.0023833422
0.29895994 -0.018456964 0.033918057 0.66839224 0.2021258 -0.2774108 0.20237754 -0.044523995
0.039496988 0.2089031 0.0057411236 0.08997061 -0.0013639198 0.042870384 -0.01663107 -0.09556163
0.10065892 -0.40256175 0.24836423 -0.027342264 0.10854331 -0.029989615 0.31122768 -0.3371386
-0.019867595 -0.041757494 0.028219445 0.17723593 0.038065456 0.18907867 0.1338432 -0.1882486
0.07212531 0.39059275 -0.09093305 0.02246125 0.10535957 0.2494771 0.07418078 0.15549412
0.27574185 0.02090854 -0.042049505 -0.19178829 0.13229144 -0.2663753 0.11344356 -0.23653682
-0.021793053 -0.014355434 0.17710975 0.2525045 0.14990784 -0.16557656 -0.060834724 -0.07425392
0.055314716 0.17444229 -0.07422683 0.06528243 -0.12941995 -0.08890689 0.24761862 0.07442379
-0.0038349847 0.08345491 0.010580716 0.3982969 0.045071457 0.044373225 -0.023694584 0.121136434
0.23127522 -0.15917578 0.06518727 -0.051533405 0.17382796 -0.10670295 -0.14670669 -0.24728309
-0.15467544 0.035882734 -0.14228712 0.022199338 0.05013915 -0.09129138 -0.0715094 -0.22534017
-0.24490379 -0.17857121 0.11316956 0.011027252 -0.26175588 0.08189488 0.1304221 0.039228085
-0.10994974 0.11339377 -0.02541626 -0.3275922 0.109039485 -0.071431115 0.31648394 0.020125424
0.19132927 0.4601774 -0.010091186 0.05163398 -0.1948149 0.03822504 -0.123207055 0.21307154
-0.024044102 0.119990796 -0.15564452 -0.030151919 0.051110066 0.06341653 0.058946677 0.16989534
00000000: ac73 313e 27cb 303e 30de b3bd 2f49 2a3f
00000010: 1181 5ebe 2004 90bc 3437 babb 6180 96bd
00000020: 9945 2abe ef43 e5bd c046 e9be 1ff1 6d3e
00000030: 39e8 373e 8b0d 9f3d e7d4 a8be 06d2 d33d
00000040: ea57 393e 0371 313e 63eb 073e d6da 053e
00000050: 4e73 c63d 89d4 1e3e 70be c03e 821f 51bd
00000060: 5afd 8f3c e364 8d3e 58a1 e4bc fa20 1ebc
00000070: cb8c 00bf 2397 a1bd fc47 e53d 077f 4c3e
00000080: 7792 2b3e f8e0 f4bd 7a65 1d3e ae7f 503e
00000090: fabd 10be ca13 fcbd 95c2 01be d29a 9a3e
000000a0: 7fa1 ccbb e206 553d a4bd 723e 9e8f 40bd
000000b0: ede5 103e 4016 f13e aaf7 debc 6788 0b3e
000000c0: bae0 dabd e269 9e3e b75a b1bd fcc8 f03d
000000d0: c67b 39be e26d 64bd 735e 533e 1a60 283a
000000e0: 62bf 033e e39c b33e 3eb7 aebd f053 013e
000000f0: 1d8b 113e 64b2 133e 269f 193d d9ce 9b3e
00000100: c7a5 9ebe cea7 1dbe 3348 f6bc 1885 883d
00000110: 085d 2e3e 6127 f63d 8a11 7fbe ce7c b23b
00000120: 0aa5 91be 6054 23be e25f 893c a1bf 333e
00000130: f588 e2bd a3ce cebd 3f8c 43be d34b 1abe
00000140: 65af 643e 6e4f 2c3e 7bcc 0d3e 9c51 683c
00000150: 44d7 853e 7205 c53d 3913 1dbf 9ef3 65be
00000160: d2df e9bd a2be 73be eeb5 033e ab88 d43d
00000170: 0107 febe 2078 ffbc f8c7 293e c919 ad3d
00000180: 9740 56bd 5fcf c73c 997d 0b3e 2cc9 5fbd
00000190: 5c0f cdbc 3515 963e 82e4 19be ec79 2e3e
000001a0: 9fb7 af3d 3c2b 9d3e 8394 d73e 6a40 0abe
000001b0: ff35 2bbf 78b0 873c 2835 9a3e 0037 22be
000001c0: d913 943e 6147 84bd a032 3fbe 9d24 943d
000001d0: da25 783e eb81 d73e 51bd 283e 68c5 9e3c
000001e0: 4c34 033e 6c58 eb3d e317 56be 216a 023d
000001f0: 4f27 9dbe e6dc af3e 02ef 1a3d 0e06 dabc
00000200: ceca 46be 968c 95bd 0cde ffbc 3d15 2e3e
00000210: 4a1b b43e de4d 02be 76d8 9fbd d931 1cbb
00000220: 4711 993e 0f33 97bc a9ed 0a3d c11b 2b3f
00000230: 11fa 4e3e ca08 8ebe 0f3c 4f3e cb5e 36bd
00000240: 98c7 213d b2ea 553e 0920 bc3b 8342 b83d
00000250: 8ec5 b2ba db98 2f3d e23d 88bc d1b5 c3bd
00000260: 4426 ce3d 931c cebe 3153 7e3e e2fc dfbc
00000270: f44b de3d c8ac f5bc 3c59 9f3e 6e9d acbe
00000280: 5ec1 a2bc e809 2bbd 772c e73c 567d 353e
00000290: 86ea 1b3d d79d 413e 310e 093e 3ec4 40be
000002a0: 6fb6 933d c6fb c73e 1b3b babd a800 b83c
000002b0: c2c6 d73d ed76 7f3e 18ec 973d da39 1f3e
000002c0: 092e 8d3e 6348 ab3c 1a3c 2cbd 2664 44be
000002d0: 6877 073e 5862 88be 1955 e83d b536 72be
000002e0: 5887 b2bc 0e33 6bbc 425c 353e 4548 813e
000002f0: 7181 193e e78c 29be d52d 79bd 7012 98bd
00000300: af91 623d 00a1 323e 3c04 98bd cbb2 853d
00000310: aa86 04be d114 b6bd bc8f 7d3e 806b 983d
00000320: 5e54 7bbb 68ea aa3d bd5a 2d3c 92ed cb3e
00000330: d99c 383d b3c0 353d 251b c2bc 6116 f83d
00000340: 69d3 6c3e fafe 22be e780 853d b114 53bd
00000350: f5ff 313e 1487 dabd 473a 16be c737 7dbe
00000360: 3d63 1ebe c6f9 123d b7b3 11be 63db b53c
00000370: b65e 4d3d faf6 babd 8573 92bd 93bf 66be
00000380: 0fc8 7abe 5fdb 36be 71c5 e73d a6ab 343c
00000390: de04 86be 81b8 a73d 5f8d 053e a1ad 203d
000003a0: 542d e1bd fe3a e83d c335 d0bc 2aba a7be
000003b0: 1850 df3d 7a4a 92bd 2f0a a23e 13de a43c
000003c0: d2eb 433e 5f9c eb3e 8055 25bc 277e 533d
000003d0: 8f7d 47be dc91 1c3d fb53 fcbd 6d2f 5a3e
000003e0: 23f8 c4bc bcbd f53d 4761 1fbe 2801 f7bc
000003f0: ca58 513d 87e0 813d 1272 713d 0bf9 2d3e

critic.0.bias f4 [256]
0.23428562 0.065046206 0.14751422 0.17999682 0.008330799 0.18316364 0.08347454 0.26620772
0.27257144 0.040709578 0.27077544 0.102453046 0.08841367 0.33406883 0.0155710075 0.12652037
-0.07241832 0.02682655 0.042735822 -0.029051114 0.32407475 0.1348714 -0.002512539 0.28171113
0.03584471 0.2613976 0.13433494 0.0076390686 0.30108652 -0.05510632 0.08211713 0.1117372
0.013911642 0.13650458 0.06112316 0.29600245 0.2969837 0.09492352 0.24757962 -0.048895266
0.0014073931 0.24802434 0.26171735 -0.23636825 0.22550365 0.13726793 0.28604898 -0.03960856
-0.041313857 -0.059392013 -0.06788267 0.2767586 -0.04423552 0.20926756 0.08259502 0.120213024
0.12305551 0.02412034 0.2580483 0.13856661 -0.047985654 0.29248562 0.015691467 0.19049066
0.22132422 0.15405448 0.1243762 0.127235 0.08305969 -0.02000111 0.055944037 0.35252512
-0.004507817 0.048885174 0.20619512 0.2616991 0.048952047 0.14830631 -0.10670672 0.15739162
0.11936676 0.041044712 0.16789697 0.07773087 -0.055216968 0.01963053 0.032332722 -0.049382042
0.24825649 -0.0668461 0.28854674 -0.038869668 -0.10377972 -0.07576254 0.28636792 0.18496826
0.038815346 0.010324653 0.20872508 -0.13032018 0.15141368 0.00012910887 0.0093758395 0.08537538
0.11496308 0.12220873 -0.026399449 -0.0039610392 0.01848704 0.060902644 -0.033111345 0.12622261
-0.045694042 0.25582328 0.24048868 0.059013236 0.18000613 0.15882672 -0.020112732 -0.031896967
0.016175589 0.145057 0.06750237 -0.027963528 -0.033210855 -0.07297798 0.025199717 -0.062264923
-0.021512946 0.038281627 0.12661083 0.21457283 -0.054332364 0.212031 0.004907951 0.22104551
0.11597416 0.24146302 0.21594656 0.0018209667 0.04728533 0.09310835 0.07356869 0.17292225
-0.065267846 -0.060002 0.22374797 0.28783444 -0.025835464 0.0082561355 -0.03439103 0.1468712
0.042014223 0.13428473 -0.051565975 0.21985771 0.32205954 -0.041494742 0.1039509 0.13323823
0.1007045 0.057578113 0.0605994 0.16107282 0.18630908 0.15009025 0.2160826 0.005619834
0.21413498 0.1726781 0.27785152 -0.005018508 0.3232571 -0.025294753 -0.040705282 0.16192894
0.031398624 0.24424352 0.1968973 0.23863341 0.09936707 0.09934505 0.10071384 0.34260672
0.085479684 0.033381775 0.010996568 0.022607863 0.13718812 0.0026621986 0.13393271 0.017496757
0.03653692 0.021456525 -0.061218675 0.15682587 -0.039293032 -0.011088257 0.02987671 -0.08378019
0.18652502 0.26228106 -0.0340207 0.017583271 0.13293804 0.0026714385 0.27668574 0.04353331
0.009132854 0.030493565 0.03496125 0.043456703 0.01662372 -0.0047435593 0.08700924 -0.056894664
0.08207219 0.20497543 -0.055846907 -0.044851854 -0.010415362 0.12694588 0.31408256 0.2589101
0.26569983 0.013638502 0.13616863 0.20917037 -0.07744505 0.014367249 0.13037145 0.17958456
0.018990971 -0.044510495 0.2778151 0.08242297 -0.01534377 0.005980722 0.07189746 0.16010435
0.16003741 0.046598267 0.34273434 0.014117536 0.187655 0.17531891 0.08288957 0.025345644
0.065264344 -0.07052862 -0.09001205 0.25114453 0.05165676 -0.06078076 0.10167918 0.27091953
00000000: 92e8 6f3e f236 853d f80d 173e 1651 383e
00000010: e77d 083c 408f 3b3e b3f4 aa3d 614c 883e
00000020: 7c8e 8b3e 16bf 263d 14a3 8a3e e7d2 d13d
00000030: 3a12 b53d 120b ab3e 8a1d 7f3c 8e8e 013e
00000040: 0e50 94bd 5ac3 db3c c20b 2f3d 9afc edbc
00000050: 20ed a53e ba1b 0a3e 69a9 24bb 713c 903e
00000060: e7d1 123d e8d5 853e 198f 093e 2751 fa3b
00000070: 0328 9a3e 2ab7 61bd 072d a83d 79d6 e43d
00000080: a8ed 633c dbc7 0b3e 475c 7a3d a28d 973e
00000090: 3f0e 983e 4367 c23d 8385 7d3e 6746 48bd
000000a0: 4778 b83a 18fa 7d3e d1ff 853e 850a 72be
000000b0: 6eea 663e f78f 0c3e 0375 923e 963c 22bd
000000c0: b838 29bd 0a45 73bd 1206 8bbd 4eb3 8d3e
000000d0: 4e30 35bd 3c4a 563e 9427 a93d 3f32 f63d
000000e0: 8704 fc3d 0598 c53c e81e 843e 68e4 0d3e
000000f0: 9b8c 44bd adc0 953e 648b 803c fc0f 433e
00000100: d1a2 623e 75c0 1d3e f3b8 fe3d e449 023e
00000110: 331b aa3d 5ed9 a3bc 9325 653d 2c7e b43e
00000120: 4fb6 93bb d23b 483d d024 533e 6dfd 853e
00000130: f181 483d 9cdd 173e 0e89 dabd 452b 213e
00000140: 8f76 f43d 801e 283d 2fed 2b3e 5d31 9f3d
00000150: 302b 62bd 35d0 a03c 516f 043d d344 4abd
00000160: f336 7e3e 9ce6 88bd 66bc 933e cd35 1fbd
00000170: 768a d4bd 6429 9bbd d19e 923e 5268 3d3e
00000180: d7fc 1e3d bc28 293c 07bc 553e a772 05be
00000190: 300c 1b3e 6661 0739 1f9d 193c 4ad9 ae3d
000001a0: c371 eb3d 9248 fa3d a843 d8bc 9bcb 81bb
000001b0: 2272 973c 0d75 793d c39f 07bd 8040 013e
000001c0: ad29 3bbd 45fb 823e aa42 763e ddb7 713d
000001d0: 8753 383e 79a3 223e 75c3 a4bc 65a6 02bd
000001e0: ab82 843c d289 143e af3e 8a3d c513 e5bc
000001f0: 1b08 08bd 7b75 95bd a36f ce3c 8109 7fbd
00000200: eb3b b0bc 32cd 1c3d 45a6 013e fbb8 5b3e
00000210: 9d8b 5ebd a81e 593e e1d2 a03b c159 623e
00000220: dc83 ed3d 1542 773e 1821 5d3e 81ad ee3a
00000230: 43ae 413d 97af be3d 2eab 963d 8812 313e
00000240: 26ab 85bd a8c4 75bd 301e 653e 095f 933e
00000250: e5a4 d3bc be44 073c 9cdd 0cbd 6765 163e
00000260: 1b17 2c3d f081 093e d836 53bd 6122 613e
00000270: fde4 a43e 64f6 29bd 36e4 d43d 9a6f 083e
00000280: 293e ce3d 07d7 6b3d 1437 783d 46f0 243e
00000290: cfc7 3e3e 42b1 193e c244 5d3e 9626 b83b
000002a0: 3346 5b3e 87d2 303e 8e42 8e3e 4c72 a4bb
000002b0: f481 a53e f136 cfbc 95ba 26bd b3d0 253e
000002c0: d89b 003d f91a 7a3e 729f 493e 515c 743e
000002d0: f680 cb3d 6b75 cb3d 0f43 ce3d 266a af3e
000002e0: f90f af3d 54bb 083d f32a 343c 2034 b93c
000002f0: 0b7b 0c3e 4878 2e3b a825 093e 5c55 8f3c
00000300: bda7 153d 98c5 af3c 6fc0 7abd f696 203e
00000310: bbf1 20bd 85ab 35bc 01c0 f43c f394 abbd
00000320: 6a00 3f3e b449 863e 4a59 0bbd cb0a 903c
00000330: e920 083e 4d13 2f3b c1a9 8d3e fc4f 323d
00000340: f7a1 153c a4cd f93c 8733 0f3d a8ff 313d
00000350: 782e 883c dc6f 9bbb e731 b23d 610a 69bd
00000360: 7715 a83d 14e5 513e babf 64bd 94b6 37bd
00000370: 32a5 2abc 1afe 013e 6ecf a03e dd8f 843e
00000380: cf09 883e 0674 5f3c ca6f 0b3e c230 563e
00000390: 839b 9ebd 9c64 6b3c 1880 053e 04e5 373e
000003a0: f492 9b3c a350 36bd c83d 8e3e 60cd a83d
000003b0: 7064 7bbc eff9 c33b fa3e 933d 65f2 233e
000003c0: d9e0 233e d3dd 3e3d e07a af3e 3d4d 673c
000003d0: a228 403e cd86 333e 02c2 a93d aba1 cf3c
000003e0: 50a9 853d 4f71 90bd 3d58 b8bd 0496 803e
000003f0: 0a96 533d 3ff5 78bd 2d3d d03d f7b5 8a3e

critic.2.weight f4 [1, 256]
0.25065288 -0.72931457 -0.24750617 -0.44639477 -0.4193317 0.68436664 0.9010172 0.1496619
0.131197 -0.8884066 0.16279191 0.21861295 0.652913 0.2149285 0.002501295 -1.375387
0.034419633 0.098071165 -0.52160585 -0.2029509 0.059107456 0.9555247 -0.16906585 0.2088939
-0.3627186 -0.586817 0.3702106 0.095278956 0.14167821 -0.0009850741 -1.7770798 -0.49182764
0.0012651272 -1.280238 -0.1183786 0.19243251 0.10611452 -0.5005518 0.029000193 -0.7519661
-0.25900525 0.32107955 0.40434635 -0.4567505 -0.41939658 -0.510665 0.14258653 -0.003447253
0.017499847 0.0046909703 -0.0009023864 0.090482384 0.03173662 0.12319921 0.60184085 -0.23148748
-0.41933778 0.040428963 0.07875616 -1.0253284 0.021016229 0.09220369 0.008370862 -0.9600438
0.1212177 -0.30665937 -1.1690454 -0.3570235 -0.73059076 0.025548333 -0.48414436 0.15217257
0.053390227 -0.30982363 0.14956132 -1.1660852 -0.335107 0.67725676 -0.61932594 -0.68109345
-0.9278976 -0.5677563 -0.958179 -0.71011364 -0.23896149 -0.9509868 -0.92837214 -0.24381849
0.37072915 0.020153271 0.37870085 -0.5016988 -0.6174437 0.025104707 0.1188014 0.42643636
0.018491942 -0.17063156 0.38374633 -1.9125912 -0.19577341 0.038457196 -0.38373822 -0.08555099
-0.39586657 -0.4129268 -0.0025179512 0.042185448 -0.53216743 -0.18695143 0.08804125 -0.59744
0.0066812714 0.13231175 0.4047097 -0.6304216 0.012165492 -0.61593336 -0.39774692 -0.0028135858
-0.34189388 -0.8717989 -0.524772 0.026797362 0.00082183175 0.0048692008 0.61808795 -0.3442996
-0.5312314 -0.38585427 -0.27930936 -1.042712 0.13156463 -1.2843775 -0.0015948071 -1.4135176
-0.45149288 0.38723055 0.6887319 -0.28332248 -0.19895534 -0.1800789 -0.3119173 0.6663634
0.0028277715 0.036675796 0.17643641 0.12912923 0.036331613 0.020608293 -0.62499684 -1.8632903
0.4880141 0.3672275 0.04051707 -1.2756867 0.115518965 0.020224962 -0.8901308 -0.41976744
-0.6367161 -1.0605972 0.24239881 -0.28055543 0.15845272 -0.52933025 -0.7814031 0.030545946
-0.686168 -0.902495 0.17185187 0.006363886 0.13319229 0.01893009 0.07770306 0.39015016
-0.15291707 0.18551464 0.08310347 -0.78626907 -0.2645917 0.33247015 -0.81745064 -1.3601048
-0.9090794 -0.13415365 -0.9435356 0.04052775 0.24840203 -0.29168198 -0.111362144 -0.6481859
0.013893051 -0.92717063 -0.1656247 -2.335615 -0.17182854 0.030664667 -0.5927392 0.027844027
0.03109127 0.07345695 0.011907536 0.013868893 -0.7372741 0.036678698 0.16369328 -0.15816729
0.0117801605 -0.37478694 0.23667637 -0.64628005 -0.8577335 -0.264638 -0.8785607 0.016435243
-0.8987216 0.06484087 -0.11216637 -0.52156186 -0.11506881 -0.87255675 0.20053737 0.13751923
-1.2937319 0.017652016 -0.38739717 0.5798273 -0.48367074 -0.25738794 -0.69077253 -0.5235053
0.39914787 -0.46272588 -1.9767345 -0.3134411 -0.35737506 0.0480615 -0.6409342 -0.5402903
-0.57028127 -0.29099107 0.16900112 0.044391487 -0.5127854 0.24270137 -0.322203 -0.23108253
-0.761616 -0.39994898 0.03741451 0.3727894 0.09456364 -0.18172482 -0.7751951 -1.7287197
00000000: 9355 803e 5cb4 3abf 4272 7dbe db8d e4be
00000010: a5b2 d6be a732 2f3f 10a9 663f f840 193e
00000020: 8258 063e 9d6e 63bf ecb2 263e 13dc 5f3e
00000030: 4e25 273f 3716 5c3e c4ec 233b ae0c b0bf
00000040: 9afb 0c3d 89d9 c83d f687 05bf 5cd2 4fbe
00000050: a91a 723d 449d 743f 991f 2dbe 48e8 553e
00000060: 41b6 b9be a439 16bf 3e8c bd3e 9d21 c33d
00000070: 1814 113e 9a1d 81ba 5a77 e3bf d5d0 fbbe
00000080: a0d2 a53a d7de a3bf 7b70 f2bd 070d 453e
00000090: 9252 d93d 2a24 00bf d091 ed3c da80 40bf
000000a0: 569c 84be 8a64 a43e 7c06 cf3e 34db e9be
000000b0: 26bb d6be f1ba 02bf 3402 123e 4feb 61bb
000000c0: d75b 8f3c b6b6 993b 208e 6cba d44e b93d
000000d0: 42fe 013d de4f fc3d 3e12 1a3f 0e0b 6dbe
000000e0: 71b3 d6be d798 253d e94a a13d f63d 83bf
000000f0: 3a2a ac3c 4ad5 bc3d f125 093c 6ec5 75bf
00000100: fc40 f83d 7502 9dbe 48a3 95bf c9cb b6be
00000110: ff07 3bbf bd4a d13c c5e1 f7be 20d3 1b3e
00000120: b6af 5a3d 34a1 9ebe 9a26 193e 4842 95bf
00000130: 2593 abbe b360 2d3f 258c 1ebf 245c 2ebf
00000140: b28a 6dbf 7a58 11bf 384b 75bf 02ca 35bf
00000150: 52b2 74be df73 73bf cca9 6dbf 8eab 79be
00000160: 36d0 bd3e 7918 a53c 14e5 c13e 556f 00bf
00000170: ca10 1ebf 63a8 cd3c 264e f33d de55 da3e
00000180: 6a7c 973c 0aba 2ebe 667a c43e cacf f4bf
00000190: d378 48be 4b85 1d3d 5679 c4be 5c35 afbd
000001a0: 06af cabe 246b d3be 3604 25bb a6ca 2c3d
000001b0: 203c 08bf 3270 3fbe f94e b43d d4f1 18bf
000001c0: 91ee da3b bb7c 073e 1c36 cf3e 4f63 21bf
000001d0: c651 473c cfad 1dbf 7ca5 cbbe 2364 38bb
000001e0: b70c afbe 362e 5fbf 7557 06bf 2486 db3c
000001f0: 3270 573a d18d 9f3b 033b 1e3f 0a48 b0be
00000200: c8fe 07bf b18e c5be a301 8fbe 9677 85bf
00000210: e1b8 063e 7b66 a4bf d908 d1ba 25ee b4bf
00000220: 132a e7be 1543 c63e bc50 303f a50f 91be
00000230: f3ba 4bbe 9a66 38be a0b3 9fbe cb96 2a3f
00000240: 2252 393b 5c39 163d bfab 343e 743a 043e
00000250: 75d0 143d b9d2 a83c cbff 1fbf 4c80 eebf
00000260: fcdc f93e 3e05 bc3e 3af5 253d b449 a3bf
00000270: 3595 ec3d d2ae a53c 9ddf 63bf c2eb d6be
00000280: d4ff 22bf a6c1 87bf 6537 783e f6a4 8fbe
00000290: 6e41 223e 3082 07bf 090a 48bf 7e3b fa3c
000002a0: b5a8 2fbf ea09 67bf f0f9 2f3e 2588 d03b
000002b0: 8f63 083e 4713 9b3c c822 9f3d c3c1 c73e
000002c0: 4b96 1cbe 8df7 3d3e 2732 aa3d ee48 49bf
000002d0: 9078 87be 8739 aa3e 7244 51bf ea17 aebf
000002e0: 6db9 68bf 935f 09be 8d8b 71bf 6d00 263d
000002f0: 1a5d 7e3e 5757 95be d611 e4bd 83ef 25bf
00000300: ae9f 633c 0e5b 6dbf 8599 29be b77a 15c0
00000310: d2f3 2fbe 7834 fb3c c2bd 17bf 2819 e43c
00000320: 1eb3 fe3c 9970 963d d317 433c 5a3a 633c
00000330: ffbd 3cbf 673c 163d 369f 273e 9bf6 21be
00000340: 9301 413c 13e4 bfbe 4a5b 723e 9c72 25bf
00000350: 6c94 5bbf a27e 87be 5be9 60bf 34a3 863c
00000360: 9e12 66bf 4acb 843d 7bb7 e5bd 1485 05bf
00000370: 32a9 ebbd e15f 5fbf ab59 4d3e d7d1 0c3e
00000380: 0299 a5bf f69a 903c ec58 c6be 906f 143f
00000390: b1a3 f7be 5ac8 83be 78d6 30bf 7104 06bf
000003a0: 1c5d cc3e 68ea ecbe a305 fdbf 5a7b a0be
000003b0: ddf9 b6be 23dc 443d 4414 24bf 7750 0abf
000003c0: f4fd 11bf c8fc 94be a10e 2d3e d9d3 353d
000003d0: e745 03bf b586 783e cbf7 a4be e6a0 6cbe
000003e0: 44f9 42bf 1dc6 ccbe f53f 193d 41de be3e
000003f0: 95aa c13d 1216 3abe 3073 46bf b046 ddbf
