best_model_episode_1300.pth (torch, 564351 bytes, 12 tensors)

actor_log_std f4 [4]
000000 ba 10 9a bd 43 7a 0e be e8 da 42 be e7 16 64 be
       -0.075227216 -0.13913827 -0.19028819 -0.22274362

shared.0.weight f4 [256, 24]
000000 35 d9 01 3e 64 0c 22 3e b6 c0 47 3d 74 98 95 3e
       0.12680514 0.15825039 0.048767768 0.29217875
000010 2d 86 c8 bc 4f a8 84 3c 97 2d cf bd c3 77 d5 3d
       -0.024478042 0.016193537 -0.101161174 0.10423233
000020 e5 8b 41 3e b6 4b 55 be d8 23 32 3e 5e c5 13 3d
       0.18901022 -0.20829663 0.17396486 0.036076896
000030 b8 07 0f 3e 82 c9 00 3d ee a5 db 3d 64 63 9d bc
       0.13967788 0.031442173 0.10725008 -0.019212432
000040 09 04 2c 3e 8a 73 2c 3d a8 6c a7 bd 5d f1 89 3d
       0.16798414 0.042102374 -0.081750214 0.067354895
000050 30 52 9d bd 1e 4b b0 bb 7d 9b 75 bd 86 e3 08 3e
       -0.07681692 -0.0053800484 -0.05996274 0.13368043
000060 69 e7 13 be c7 97 d7 bd 54 c8 1e be b2 f9 36 bd
       -0.14443745 -0.10526996 -0.15506107 -0.04467172
000070 59 61 a4 3b 24 b4 1f be c5 cf 5e 3e 27 5c 16 be
       0.0050164876 -0.15596062 0.21758945 -0.14683591
000080 9e af 18 3e 20 71 37 3d e6 ef 40 bc 60 2b 4f 3e
       0.14910743 0.04478562 -0.011775946 0.2023139
000090 83 6c a7 3c d3 ad 0d 3e d3 cb 3f bc fc 59 c8 bd
       0.020437485 0.1383584 -0.01170631 -0.09782788
0000a0 b1 42 b5 3c 77 93 b2 bd 4e 5a 61 3d 07 15 1c 3e
       0.022126528 -0.08719533 0.055017762 0.15242396
0000b0 5d fb b6 3d 7a 35 ef bd 81 b0 ba 3d 0a aa fb 3a
       0.089346625 -0.11680122 0.09115697 0.0019200456
0000c0 fc c5 80 3e d6 9d 12 3e 1d b7 5b be 58 2a c8 bd
       0.2515105 0.14318022 -0.21456571 -0.097737014
0000d0 65 b7 e7 bd 11 d3 b2 3d ae 59 87 3d cb af 2f 3d
       -0.113142766 0.08731664 0.06608902 0.04289226
0000e0 0a 28 51 3d 88 0c 58 3d a9 7e e9 3d ef 1c 1d bd
       0.051063575 0.052746326 0.11401112 -0.03835767
0000f0 88 c3 98 3b a3 0f c6 bd 32 85 86 3d 1f 97 8b bd
       0.004661981 -0.09670951 0.06568374 -0.068159334
000100 b7 31 83 3d 1e b4 2a bd d8 8a 2d 3e 8b 08 f8 bd
       0.06405967 -0.04167568 0.16947496 -0.121110044
000110 bb b7 f8 bd 80 18 f8 bd a6 d4 3d 3e 7d 86 8e 3d
       -0.12144419 -0.12114048 0.1853815 0.06959245
000120 7f 71 a8 3e e1 8a d6 3d 05 1f 4f be bd 45 18 be
       0.3289909 0.10475708 -0.20226677 -0.14870353
000130 0e 9a bc bd c3 3e b0 3d 56 69 82 3d 8e 18 ed 3d
       -0.09209071 0.08605721 0.063677475 0.11576949
000140 cb 2c c2 bd 99 75 81 bd 7d 87 a5 3d ee 55 e3 bc
       -0.094812 -0.06321258 0.08082483 -0.027750935
000150 7f eb 70 3d 82 da b1 bc 2a de 02 3e 42 af 16 be
       0.058818337 -0.021710638 0.12780061 -0.14715293
000160 19 ad ba bd a8 65 98 3d 77 20 64 3d 43 e3 1f bd
       -0.09115047 0.074412644 0.055695023 -0.039035093
000170 2a 73 0a 3e 35 6b 1b 3e e5 cd 11 be 93 9b ee bd
       0.13520494 0.15177615 -0.14238699 -0.11650767
000180 b3 dd 0f 3e a9 4f ed bd af ca 53 3d 8a 45 23 be
       0.14049415 -0.115874596 0.051706966 -0.15944496
000190 b6 ca 62 bd ed 5f 2e 3d ca 05 82 bc d8 3c b3 bd
       -0.0553691 0.04257195 -0.015871901 -0.087518394
0001a0 1c b8 47 3d c1 99 1e be 26 9d 30 be ea 94 00 be
       0.048759565 -0.1548834 -0.17247447 -0.12556806
0001b0 4d 48 06 be f1 28 b1 bd b3 b6 88 3e 11 3a d1 3d
       -0.13113518 -0.08650387 0.26701888 0.102161534
0001c0 1d 6c 02 3e bc 91 ff bd 8d 37 89 bd d0 af 64 3a
       0.12736554 -0.124789685 -0.067000486 0.0008723708
0001d0 64 10 d2 3d 5d c3 db bd 0f 24 8d bc af 09 8f bd
       0.102570325 -0.10730622 -0.017229108 -0.06984269
0001e0 d8 3e 19 3b 56 a2 11 bd fe 33 c4 3b d2 48 3c be
       0.0023383405 -0.035555206 0.0059876433 -0.18387154
0001f0 aa ab ec bd 86 e4 16 be 19 5c 34 bd 71 3a dd bd
       -0.1155618 -0.14735612 -0.044033144 -0.108021624
000200 e5 19 1b 3e 8f f2 a0 bc 12 4c 1c 3e 68 71 91 3d
       0.15146597 -0.019646911 0.15263394 0.07101709
000210 b3 36 d3 bd 84 d1 05 3e 81 a6 06 bd aa a1 5d bd
       -0.103131674 0.13068205 -0.032873634 -0.054109253
000220 f7 ac 13 be 75 79 34 be 36 dd b1 3d 13 50 6f bc
       -0.1442145 -0.17624457 0.08684771 -0.0146064935
000230 b2 65 e2 3d a4 ee 0a be e1 af 39 3e f7 33 04 be
       0.11054553 -0.13567597 0.18133499 -0.12910448
000240 65 6a 74 3c b9 88 92 3d af 47 01 3e 20 34 89 3e
       0.014917945 0.07154984 0.12625001 0.2679758
000250 66 b1 3e 3e 0c 09 17 be 1b 29 8a 3d 0f 07 ab bd
       0.1862236 -0.14749545 0.067461215 -0.08350956
000260 87 c1 09 bd 6a 3a 2e be 33 dc 2a 3e 1a fc 74 be
       -0.033631828 -0.1701447 0.16685562 -0.23924294
000270 a2 39 c9 3d ea d4 b0 3d 83 6e 98 3c 7a 76 21 be
       0.09825446 0.0863436 0.018607384 -0.15767851
000280 91 27 0e 3e 5f b8 85 ba 50 38 97 bc 3b 93 64 be
       0.13882281 -0.0010202042 -0.01845947 -0.22321789
000290 9f 00 34 3d 61 74 91 bd 05 c3 01 be fe 7c f4 3d
       0.043945905 -0.07102276 -0.1267205 0.11937903
0002a0 5c 79 31 3d 72 1b db bc 8b e0 71 bd 1f d9 62 3b
       0.043328628 -0.026746485 -0.05905203 0.0034614278
0002b0 b5 9b e6 3d a6 6f c4 bd 5c d7 0f be a6 59 7d bd
       0.112601675 -0.09591608 -0.14046997 -0.061853074
0002c0 bd b2 08 be 84 49 af 3d 2c 7c 24 3e 60 b5 81 be
       -0.13349433 0.08558944 0.16062993 -0.2533369
0002d0 b4 1a 7f 3d 6b a2 e7 3d 19 90 0e 3d f8 32 98 bd
       0.062281325 0.11310276 0.03480539 -0.074315965
0002e0 72 8a d8 3d aa 22 dc 3d 70 3d 9f 3d ac 3f 08 bd
       0.10573281 0.10748799 0.0777539 -0.033263847
0002f0 de 04 4e bd d5 9f d5 3c f2 d4 f1 bc c2 f0 9e bd
       -0.05029761 0.02607719 -0.029520486 -0.07760765
000300 41 1a 96 3e 9e a0 f1 3e 2d d9 3b be d4 aa 9b bd
       0.29316905 0.47192854 -0.18344565 -0.07600942
000310 cb c8 f6 3c 6b 9a a8 3c 42 23 83 3d 42 1e 0c 3c
       0.030125042 0.020581445 0.06403209 0.008552136
000320 0c 3c eb bd 1d 23 1d 3d 26 ea 94 3d 38 52 27 3e
       -0.114860624 0.038363565 0.07271223 0.16339958
000330 41 53 fa 3b dd 25 a8 bd 46 a4 f6 bd 14 67 36 be
       0.007639319 -0.08210347 -0.120430514 -0.17812759
000340 50 5e 7c bd 63 bc 97 3d 34 b2 0a 3e cc e2 cb 3d
       -0.06161338 0.07408979 0.13544542 0.099553674
000350 fd 5c 33 be 80 59 f1 bd 0c 85 17 bd 02 1e 42 3e
       -0.17515941 -0.11784649 -0.036992118 0.1895676
000360 6a fb e8 3d 85 78 1a bd 80 68 2e 3d 90 4a 1e be
       0.113760784 -0.037712593 0.042580128 -0.15458131
000370 5c 4b cd bd 85 c3 91 3d 48 c6 eb bc 0f 7c ca bc
       -0.10024139 0.071173705 -0.028781071 -0.024717359
000380 0f 65 3c be 79 da 1d 3e 4c 6f 16 3e 2e c9 d9 3d
       -0.18397926 0.15415372 0.14690894 0.10634075
000390 ef 40 b6 bd 2e cc 3b be 9e cc 15 be dd 97 2f 3e
       -0.08899104 -0.18339607 -0.14628837 0.17147775
0003a0 01 6b ef 3d 2d d0 42 3e ca a7 ff 3d bc 33 8d 3d
       0.11690331 0.19024725 0.12483175 0.06894633
0003b0 ef 3b 6b 3c fb 42 0f be 73 68 26 be 9a e0 22 be
       0.014357551 -0.13990395 -0.16250782 -0.15905991
0003c0 04 61 ae 3d fb aa 16 bd 2e 97 79 3c 90 93 14 be
       0.08514598 -0.036784153 0.015233798 -0.14509416
0003d0 55 cd 44 3c 50 8a ba bd cc 94 28 be 99 34 ed 3b
       0.012011846 -0.09108412 -0.16463012 0.007238936
0003e0 c7 76 6d bc de 71 04 3e 1a 36 47 bd b3 01 2e be
       -0.014493651 0.12934062 -0.04863558 -0.16992836
0003f0 6d 4a 5a bb c4 d7 20 bd 67 f7 dc bc c8 52 21 be
       -0.0033308521 -0.03926827 -0.02697344 -0.15754235

shared.0.bias f4 [256]
000000 7e e2 29 be b9 53 09 3b 5a 9e 20 bd fa 3b 15 3e
       -0.16590306 0.0020954444 -0.039213516 0.1457366
000010 2b 56 1c be 5e da d4 3c ef 56 fb 3c b2 fe ed 3b
       -0.15267245 0.025983032 0.030681102 0.007263028
000020 5a 43 81 bd d6 fd 65 3e 4c b2 0b be 73 c8 57 3e
       -0.063116744 0.22460112 -0.13642234 0.21072559
000030 b5 be a0 3c 0a b4 0b 3e 4d 41 0d 3e c0 ef 9f 3c
       0.019622186 0.13642898 0.13794442 0.019523501
000040 10 a8 43 3d b6 d0 3a bd 61 35 06 be c6 a5 61 3d
       0.0477677 -0.0456092 -0.131063 0.055089734
000050 d0 b8 1b 3e ef 4f de 3c 45 6e 93 bd b3 8d 05 be
       0.15207219 0.027137725 -0.071987666 -0.13042335
000060 b6 c1 b3 3b 3e ee c7 3d 8c 20 ca bd c4 06 dd 3d
       0.0054857386 0.09762238 -0.09869489 0.10792306
000070 ab ca 18 bd f2 00 13 3d 56 09 d9 3d d7 42 dd 3d
       -0.037302654 0.035889573 0.10597484 0.10803764
000080 21 f2 97 bd 5e 4f b1 3d 3f 2f 01 3e cb 58 83 3d
       -0.07419229 0.08657716 0.12615679 0.0641342
000090 d1 a4 00 be 53 f0 46 3d 42 d5 c0 bd 26 da 80 3c
       -0.12562872 0.048569035 -0.09415676 0.015729021
0000a0 bd ba 0a be 25 38 2b 3e 73 5a 75 3e 1f 1f 3d be
       -0.13547798 0.16720636 0.23960285 -0.18468903
0000b0 39 22 30 bd b2 ed d8 bd 37 cf f1 bd 98 c1 60 3e
       -0.043001387 -0.10592212 -0.11807101 0.2194885
0000c0 7a c8 30 be 92 30 aa bd 2e fd 12 be 1e 44 a4 bb
       -0.17263976 -0.08310045 -0.14354393 -0.005013003
0000d0 33 bc 09 be cf bc 35 be c7 cc 54 3e 8f 0a f3 3d
       -0.13450699 -0.17747806 0.20781241 0.11867248
0000e0 11 aa 12 3e b4 29 0d 3e 75 66 fc 3c 25 22 63 bc
       0.14322688 0.1378544 0.030810574 -0.013863121
0000f0 19 7a 00 be f6 cb 76 3d 9e 56 f5 bd ba 70 b4 bb
       -0.12546577 0.060253106 -0.119794115 -0.005506602
000100 bf 9c 59 bd 03 87 cf bd 99 0b f4 bd 18 ea d3 bd
       -0.053128 -0.10133173 -0.119162746 -0.10347384
000110 01 e6 81 bd 31 41 f6 bd cb 15 5b bd 77 23 27 be
       -0.06342698 -0.12024153 -0.05348758 -0.16322123
000120 bb 61 67 3d 9d 26 31 3c 40 d2 1f be a6 63 3d be
       0.056489687 0.010812429 -0.15607548 -0.18495044
000130 52 ec eb bd c4 3c 06 bd 9b d5 4c 3e eb 19 30 bd
       -0.11519684 -0.032772794 0.20003359 -0.042993467
000140 22 a0 db 3d 00 1c bb bd 59 5c 5e bc 6d 44 17 3d
       0.10723902 -0.091362 -0.013571822 0.03693049
000150 96 b9 4a be c1 ad d3 3c 82 d1 48 3d ed 34 b1 3d
       -0.19797358 0.025839688 0.049027927 0.08652673
000160 96 3b 29 be 15 80 8b bd 47 59 ff 3b 08 e1 1c 3d
       -0.16526636 -0.06811539 0.007792625 0.038300544
000170 13 21 2e 3d 15 81 0f be 51 28 1e 3e ba 8e cf bd
       0.04251201 -0.14014085 0.15445067 -0.10134645
000180 6e 2e 94 bd ae b9 17 3e d9 b1 97 bd 83 9a 16 bb
       -0.07235418 0.14816925 -0.074069686 -0.002298028
000190 be 72 05 be a8 a9 d8 3d 4e 9f 1a 3c 41 b9 df 3d
       -0.13032052 0.10579234 0.009437395 0.10924006
0001a0 d6 44 6c 3b 7d c5 3c be c1 5b 98 bd dc d8 06 3e
       0.0036051772 -0.18434711 -0.07439376 0.13168663
0001b0 60 cd ca bd 78 ae c9 bd fa c4 42 3e 5d 9d 96 bd
       -0.099024534 -0.098477304 0.19020453 -0.073542334
0001c0 01 f8 33 3d 1c c1 9e bd f3 40 b5 3b 0a d8 97 3d
       0.043937687 -0.077516764 0.005531424 0.07414253
0001d0 91 a3 01 be 7b a7 09 be b3 39 45 3d 83 b0 af bd
       -0.12660052 -0.13442795 0.04815073 -0.08578589
0001e0 51 66 f2 3d 5b d9 32 bc 0e c4 ae bd 95 c2 26 3d
       0.118359216 -0.010916079 -0.08533488 0.04071291
0001f0 c1 7f ad bd d3 3d 5c 3d ff 63 eb 3d 52 57 27 bd
       -0.08471633 0.053769898 0.11493682 -0.04085476
000200 59 c9 0c be a4 13 40 3e 1a da 4f 3e a1 ac 1e 3e
       -0.13748683 0.18757492 0.20298043 0.1549554
000210 a2 fd 36 bd 61 a0 c5 bc 31 7a 94 bb df a7 76 bd
       -0.044675477 -0.024124326 -0.004531168 -0.060218688
000220 4a cb 3e be ca 97 a8 bc 3e 72 d3 3d cb 36 a7 3d
       -0.18632236 -0.020580191 0.10324524 0.08164748
000230 dc 0d dc 3c 82 85 df 3d 37 bd 02 3e 1e 2c 53 bd
       0.026862077 0.109141365 0.12767492 -0.051555745
000240 bb 48 1a 3e 54 74 84 bc ed 3b f3 bc fc b4 b9 bd
       0.15066807 -0.01616875 -0.02969166 -0.09067723
000250 47 0c ac bd f9 2d f4 bd 6f 85 1e 3c 62 0f 17 3e
       -0.08400779 -0.11922831 0.009675368 0.14751962
000260 55 25 14 3d bd f3 35 bc ac 86 a6 bd 93 0b 42 bd
       0.036168415 -0.011105475 -0.08131155 -0.04737432
000270 06 e1 70 bd 8a c0 8f 3d 63 08 cb 3c d5 07 a2 bd
       -0.05880835 0.07019146 0.024784273 -0.0791165
000280 d4 20 0d 3c 61 9c 13 3c 19 60 1d bd 42 4c e0 3d
       0.008613784 0.009009452 -0.038421724 0.10952045
000290 15 b0 ab bd 3c 17 13 3e e9 9f a3 bd cc fa 38 3e
       -0.08383194 0.14364332 -0.07989485 0.18064421
0002a0 e1 42 46 3d b3 b8 41 3d 32 35 b1 bd d5 6b 1d bd
       0.048403624 0.047295284 -0.08652724 -0.038432915
0002b0 97 bb 03 be 17 49 07 be 3e 2f 08 3e 88 63 41 3e
       -0.12864529 -0.13211475 0.13299271 0.18885624
0002c0 2d 5b 93 3d c4 aa d3 bd 48 98 8c 3b 69 4d 21 3c
       0.07195125 -0.10335305 0.0042906143 0.009845116
0002d0 c8 c4 27 be 15 1b cf bd c9 97 ee 3d 65 8f 7c bd
       -0.1638366 -0.10112587 0.116500445 -0.06166019
0002e0 04 9d 1c bd 5e fd 9e bd b1 76 d6 3d 56 78 12 bd
       -0.03823568 -0.0776317 0.10471857 -0.035759293
0002f0 ea c5 a7 bd a0 0c f3 3d 68 bc 32 3e fa c3 35 3e
       -0.08192046 0.118676424 0.17454684 0.1775054
000300 6e 83 90 3d 91 3b e8 bb 13 f8 8a 3d c1 e4 07 3e
       0.07056318 -0.007087179 0.06785598 0.13270856
000310 60 25 71 3d 78 44 8b 3d a6 db 25 3d ea 43 f8 3c
       0.058873534 0.06800169 0.040492676 0.030305821
000320 98 45 95 3d 12 3b 92 3d 2b 80 47 be eb b7 0d be
       0.072886646 0.07140173 -0.19482486 -0.1383969
000330 62 7a 28 be 63 30 c1 bd 3d 74 2f bb f8 e1 32 bd
       -0.16452935 -0.09433057 -0.0026772164 -0.04367253
000340 5d 4d 4e be 25 0b c0 bd 7d c4 ab 3d f1 1a 18 3c
       -0.20146699 -0.09377126 0.083870865 0.009283767
000350 eb ec da bd db 04 b4 bb af 0d 87 bd 86 1d 0a be
       -0.1068972 -0.005493743 -0.06594407 -0.13487825
000360 23 be 83 bd 3e 66 ab bd ee 60 80 be b1 5b 3d be
       -0.0643275 -0.083691105 -0.2507395 -0.18492009
000370 4c f0 59 bd 5e a8 99 3d 51 b0 0a 3e ce cf ac 3b
       -0.05320768 0.075028166 0.13543822 0.0052737957
000380 78 77 0a 3e ba 4b c9 3d 44 9b 94 bd db e9 bc bd
       0.13522136 0.09828897 -0.07256177 -0.09224292
000390 20 7f 14 bd c1 af 46 be 2d d4 0c 3b 24 ae 4e 3b
       -0.03625405 -0.19402982 0.0021488771 0.0031536901
0003a0 21 85 15 be 45 e1 38 bd 51 a6 1d be f0 51 79 3e
       -0.14601566 -0.04513671 -0.15395476 0.24347663
0003b0 0d 65 0f 3e 03 57 9e bd 2b 13 31 3e 5c 9a e8 bd
       0.14003392 -0.0773144 0.17292468 -0.11357567
0003c0 ce 16 2d 3e ba 2d 87 bd 38 de 7a 3d ee 53 04 3e
       0.1690323 -0.066005185 0.06124708 0.12922642
0003d0 e7 f4 74 3d 9f 2c 29 3d 1e cf 0a bd b3 23 88 3d
       0.05980387 0.04130232 -0.03388893 0.06647434
0003e0 5d e2 2f 3e 8c 0d 33 3c 26 52 13 bc 6d 67 96 3d
       0.17176194 0.010928523 -0.008991754 0.07343946
0003f0 e8 a1 d2 bd ca 21 5f bd 73 97 0f bd ed c1 57 3e
       -0.102847874 -0.054475583 -0.035056543 0.2107007

shared.1.weight f4 [256]
000000 c8 d8 84 3f c1 9a 87 3f 2f f2 89 3f 70 48 8a 3f
       1.0378656 1.0594102 1.0777034 1.0803356
000010 62 24 85 3f e8 12 88 3f 2d 5c 87 3f db a1 88 3f
       1.0401728 1.063077 1.0575005 1.0674394
000020 a7 e4 8f 3f 75 33 87 3f 50 55 8a 3f e5 83 88 3f
       1.1241654 1.0562578 1.0807285 1.0665251
000030 7d be 8f 3f cc 88 89 3f 23 15 84 3f d0 66 83 3f
       1.1230007 1.0744872 1.031895 1.0265751
000040 dd 82 86 3f 6d 1e 89 3f 7c a5 82 3f b0 4d 84 3f
       1.0508686 1.071241 1.0206752 1.0336208
000050 a0 ea 8f 3f 0b a0 86 3f fe 99 87 3f 9e d1 85 3f
       1.1243477 1.0517591 1.059387 1.0454595
000060 a6 7e 85 3f 5f 68 85 3f 24 b9 88 3f 64 22 8c 3f
       1.0429275 1.0422477 1.06815 1.0947995
000070 9b 05 88 3f aa 60 84 3f c9 4d 85 3f 2a ca 87 3f
       1.0626711 1.0342 1.0414363 1.060857
000080 ca 51 91 3f 61 03 86 3f e5 bf 85 3f f6 da 87 3f
       1.1353085 1.0469781 1.0449187 1.0613697
000090 9c 38 86 3f dd ad 8c 3f b2 98 88 3f 93 70 8b 3f
       1.0486026 1.0990559 1.0671599 1.089373
0000a0 df af 84 3f d8 f7 93 3f ab 00 87 3f 04 4f 87 3f
       1.0366172 1.1560011 1.0547079 1.0570989
0000b0 13 78 85 3f f2 57 82 3f 90 6d 86 3f 03 d5 89 3f
       1.0427269 1.0183089 1.0502186 1.0768131
0000c0 38 3f 85 3f 22 6b 86 3f aa b6 86 3f c4 86 83 3f
       1.0409918 1.0501444 1.0524495 1.0275502
0000d0 55 99 88 3f 54 9e 84 3f da 07 97 3f 13 f8 82 3f
       1.0671793 1.0360818 1.1799271 1.0231956
0000e0 96 35 83 3f 54 f4 88 3f 1d b0 86 3f ed 42 89 3f
       1.0250728 1.0699563 1.0522496 1.0723549
0000f0 dc c4 86 3f 85 db 84 3f 6e 80 85 3f 00 72 88 3f
       1.0528827 1.0379492 1.0429819 1.065979
000100 02 59 84 3f f5 98 8d 3f d1 fb 86 3f d2 3b 83 3f
       1.0339663 1.1062304 1.0545598 1.0252631
000110 ae e6 87 3f f0 94 84 3f bb 4e 85 3f a0 16 84 3f
       1.0617273 1.0357952 1.0414652 1.0319405
000120 92 a3 85 3f 97 f5 83 3f 6b 0b 85 3f 84 2a 8d 3f
       1.0440543 1.0309323 1.039411 1.10286
000130 43 56 85 3f f9 f9 82 3f 1f a9 8e 3f 18 eb 86 3f
       1.041695 1.0232536 1.1145362 1.0540495
000140 73 dd 81 3f c4 05 89 3f 0e e9 8f 3f f3 29 83 3f
       1.0145706 1.0704885 1.1242998 1.0247177
000150 f2 e5 83 3f 37 3c 8c 3f de ed 96 3f 7a ef 84 3f
       1.0304549 1.0955876 1.1791341 1.0385582
000160 44 88 87 3f 56 81 86 3f e3 62 87 3f f4 01 8a 3f
       1.058846 1.050822 1.0577053 1.0781846
000170 cd a0 88 3f df 6a 87 3f 14 2a 88 3f b5 ba 84 3f
       1.0674073 1.057949 1.0637841 1.0369478
000180 7a 5e 86 3f 9a 2f 8e 3f f2 ed 82 3f 9e b3 83 3f
       1.0497582 1.1108277 1.0228865 1.028919
000190 a5 b7 82 3f 29 32 90 3f 3a 04 87 3f 68 c2 81 3f
       1.0212294 1.1265308 1.0548165 1.0137453
0001a0 13 4b 86 3f b2 3f 83 3f 7f 0d 87 3f d4 8c 85 3f
       1.0491661 1.0253813 1.0550994 1.0433602
0001b0 84 7e 83 3f d1 3e 8c 3f 90 0c 8f 3f 19 a4 84 3f
       1.0272985 1.095667 1.1175709 1.0362579
0001c0 cd 3d 85 3f 29 a1 85 3f 6b fb 84 3f 28 c8 88 3f
       1.0409485 1.0439807 1.0389227 1.0686083
0001d0 bc 6d 85 3f 5c 13 8c 3f 98 68 85 3f f6 56 8a 3f
       1.0424113 1.0943408 1.0422544 1.0807788
0001e0 25 87 84 3f 62 ad 81 3f dd e0 86 3f 82 67 92 3f
       1.0353743 1.0131037 1.0537373 1.1437838
0001f0 fb c2 84 3f 72 16 88 3f 9f 3b 85 3f d2 ca 84 3f
       1.0372003 1.063185 1.040882 1.0374396
000200 23 76 87 3f 76 90 8e 3f 83 ff 8f 3f 81 00 8e 3f
       1.0582927 1.1137836 1.1249851 1.1093904
000210 54 7a 84 3f a9 4d 83 3f 54 9b 82 3f 47 4f 89 3f
       1.0349832 1.0258075 1.0203652 1.0727319
000220 3b 16 8d 3f 8e d9 8e 3f 74 6a 8f 3f c5 d8 83 3f
       1.1022409 1.1160142 1.1204362 1.0300528
000230 c1 af 86 3f 53 d0 98 3f a9 68 85 3f cd c0 85 3f
       1.0522386 1.1938576 1.0422565 1.0449463
000240 7e 16 84 3f 50 47 88 3f ba ee 87 3f fb 02 87 3f
       1.0319364 1.0646763 1.0619729 1.0547785
000250 d3 f6 8a 3f 36 40 83 3f ff c6 83 3f 21 3d 88 3f
       1.0856575 1.0253971 1.0295104 1.0643655
000260 06 a0 87 3f f0 85 8b 3f f2 d9 8b 3f ed 5d 83 3f
       1.059571 1.090025 1.0925887 1.0263039
000270 24 35 84 3f 5e 8e 87 3f 7d 0b 86 3f de 54 8f 3f
       1.0328717 1.0590322 1.0472256 1.1197774
000280 a9 bc 89 3f 90 73 85 3f d0 b3 85 3f c7 63 86 3f
       1.07607 1.0425892 1.04455 1.04992
000290 d7 c6 88 3f 03 83 85 3f 98 b7 90 3f 39 52 85 3f
       1.0685681 1.0430607 1.1306028 1.0415717
0002a0 24 6a 8d 3f bb c7 88 3f 92 89 88 3f 94 46 86 3f
       1.1048017 1.0685953 1.0666983 1.0490289
0002b0 ea 87 8b 3f f6 fe 83 3f ad 0f 85 3f 40 e3 88 3f
       1.0900853 1.0312183 1.0395409 1.0694351
0002c0 9f ff 84 3f 82 97 89 3f 09 8a 86 3f 0d 77 90 3f
       1.0390509 1.0749362 1.0510875 1.1286331
0002d0 4b 7e 87 3f 7d d9 85 3f 49 81 91 3f 44 b4 83 3f
       1.0585417 1.0456997 1.136758 1.0289388
0002e0 df 14 86 3f ae 56 84 3f a2 4f 8b 3f 3b e7 89 3f
       1.0475119 1.0338953 1.0883677 1.0773691
0002f0 6d 33 88 3f 56 8b 88 3f 1d fe 82 3f 9d ed 8a 3f
       1.0640694 1.0667522 1.0233799 1.0853764
000300 8d b8 83 3f fd 79 85 3f 65 22 87 3f 98 f4 85 3f
       1.0290695 1.0427853 1.0557371 1.0465269
000310 74 02 83 3f 5b 98 85 3f 77 73 89 3f 93 72 8a 3f
       1.0235124 1.043712 1.0738362 1.0816215
000320 d2 4f 83 3f 0b 54 82 3f 5e 59 87 3f 02 8f 85 3f
       1.0258734 1.0181898 1.0574148 1.0434268
000330 aa 10 85 3f 12 f0 86 3f d8 da 8f 3f b3 4e 86 3f
       1.039571 1.0542014 1.1238661 1.0492767
000340 50 4f 85 3f c7 59 97 3f 3a 2d 86 3f 9e 93 8a 3f
       1.0414829 1.1824273 1.0482552 1.0826299
000350 1e 7d 86 3f d7 ea 83 3f 47 40 85 3f 8a 55 85 3f
       1.0506933 1.0306042 1.0410241 1.041673
000360 46 f1 83 3f e0 0d 84 3f b9 0d 85 3f 0e 92 8a 3f
       1.0308006 1.0316734 1.0394813 1.0825822
000370 7b 60 85 3f 90 83 84 3f ea cf 85 3f 6f 00 8d 3f
       1.0420069 1.035265 1.0454075 1.1015757
000380 3d 84 83 3f 4c 49 83 3f 1c d8 84 3f 1f 61 82 3f
       1.0274731 1.0256743 1.0378451 1.0185889
000390 77 cc 85 3f 03 7e 85 3f dc c8 85 3f fd c1 84 3f
       1.0453023 1.0429081 1.0451922 1.03717
0003a0 5d 7d 86 3f c5 bd 8c 3f 93 1c 8d 3f f1 d4 83 3f
       1.0507008 1.0995413 1.1024345 1.029936
0003b0 5f f5 89 3f e2 4a 89 3f f9 32 87 3f 30 ed 89 3f
       1.0778006 1.0725977 1.0562431 1.0775509
0003c0 6a ba 87 3f 43 d8 84 3f 30 a7 88 3f f8 46 91 3f
       1.0603764 1.0378498 1.0676022 1.1349783
0003d0 fd 63 8c 3f 31 74 85 3f 07 d7 84 3f 26 66 88 3f
       1.0968014 1.0426084 1.0378121 1.0656173
0003e0 21 d6 84 3f 1d cb 83 3f 80 77 89 3f 06 4d 83 3f
       1.0377847 1.029636 1.0739594 1.0257881
0003f0 4e 78 89 3f e7 06 85 3f 69 d7 8b 3f d3 5a 8a 3f
       1.0739839 1.0392731 1.0925113 1.0808967

shared.1.bias f4 [256]
000000 6c d4 38 3c a8 3f 83 3d 95 13 5f 3d fd ea 54 3d
       0.011281114 0.06408626 0.054462034 0.051981915
000010 84 f6 3a 3c de 5e 37 3d d2 d4 7c bc b3 9c 7d 3a
       0.011411313 0.044768207 -0.0154316 0.0009674534
000020 9d 9a 3b 3d 4a 93 70 3d cd d9 bd 3c e3 f6 92 3d
       0.045801748 0.058734216 0.023175145 0.07175996
000030 6c de 75 3d 26 71 08 3d fc 0c 55 3d e9 5c 5a 3d
       0.06002657 0.03331103 0.052014336 0.053311262
000040 1c a6 bb 3c 23 21 9f 3c ea 03 ef 3c 5d eb 3d 3d
       0.022906356 0.01942498 0.029176671 0.046367038
000050 59 df 82 3d c4 8c 78 3d a4 db 42 3d b1 e1 61 3d
       0.063902564 0.06068112 0.047572747 0.055146877
000060 b0 36 21 3d cc fb 08 3d f4 1b e3 3c 4e 10 88 3d
       0.039358795 0.033443257 0.02772329 0.06643735
000070 11 12 22 3d 3c 2e 0b 3c 97 6b 0b 3d e8 37 2e 3d
       0.03956801 0.00849491 0.034038153 0.042533785
000080 57 09 87 3d 5c 49 19 3d 05 53 30 3c 05 c6 4e 3d
       0.06593578 0.037423477 0.010761981 0.050481815
000090 d3 e8 c9 3c 53 11 14 3d a4 0f 39 3d 71 13 5e 3d
       0.024647152 0.036149334 0.04518093 0.05421776
0000a0 e7 95 1c 3d c3 6c 22 3d 07 bf 5d 3d 3a ba 2c 3d
       0.038228896 0.039654505 0.054137256 0.042169787
0000b0 f5 03 8d 3d f6 30 7d 3d 3b c3 ee 3c d7 33 8c 3d
       0.0688552 0.06181427 0.029145828 0.06845825
0000c0 7d 46 7d 3d d6 b9 d8 3c b2 03 18 3d 57 f7 79 3c
       0.0618348 0.026455801 0.0371129 0.015256724
0000d0 b3 75 61 3d d9 e0 40 3c a5 6d b9 3c 74 3e aa 3c
       0.055043887 0.011772358 0.02263529 0.020781733
0000e0 19 6d b8 3a d2 51 99 3d 16 b0 9d 3c 0a 11 ac 3c
       0.00140706 0.07486309 0.019249003 0.021004219
0000f0 88 f9 2e 3d 59 04 4d 3d 7b 94 6b 3d ce 2f 14 3d
       0.04271844 0.050052974 0.05751465 0.036178403
000100 54 df 18 3d b7 1f 79 3d 39 e5 cc 3c 4e 60 3a 3c
       0.037322357 0.06082126 0.025011646 0.0113755
000110 54 67 9d 3c cc 79 1b 3c 2a df f6 3c dc 40 8f 3c
       0.01921431 0.009489488 0.03013571 0.017486982
000120 10 f3 77 3d 18 e2 02 3d 6d 65 09 3c 81 08 bc 3c
       0.060534537 0.0319539 0.008385998 0.022953274
000130 20 db f5 3b f7 0d 3e 3d 8a 5d 90 3d 55 6d 8c 3c
       0.0075029284 0.046400037 0.07049091 0.017141977
000140 2d d3 f9 3c ff d1 77 3d 88 d9 59 3d 49 00 81 3c
       0.030496204 0.060503002 0.05318597 0.015747206
000150 4f ea 01 bb f8 52 ab 3d 7c 07 25 3d c6 39 25 ba
       -0.0019823497 0.083654344 0.04029034 -0.00063028594
000160 3c a4 b4 3c dc 82 98 3c 78 22 2b 3b 32 0a 21 3d
       0.02205097 0.018617086 0.0026113074 0.039316364
000170 dc 47 fa 3c a6 a4 e4 3c bc 3e ee 3c bf 48 18 3d
       0.030551843 0.027910542 0.029082648 0.03717875
000180 69 d2 82 3d c8 ba 5b 3d 3f 6c 77 3c b7 0d f3 3c
       0.06387789 0.053644925 0.0151014915 0.029669626
000190 b2 51 a7 3b 12 c2 2d 3d 12 f0 04 3d 23 e4 2c 3d
       0.0051061744 0.042421408 0.03245551 0.042209756
0001a0 5a 0e 93 3c 58 85 ce bc 7f ce 3f 3d ce dd 76 3d
       0.01795118 -0.025210068 0.04682779 0.060270123
0001b0 3d 64 01 3d 9c 95 ab 3d 13 51 98 3d 0b 83 26 ba
       0.031589735 0.08378145 0.07437339 -0.00063519244
0001c0 f3 ca 1a 3d 7d cc 43 3c 2d 21 9d 3c fa 1d ff 3c
       0.037791204 0.011950609 0.019180859 0.031142224
0001d0 23 90 b0 3c 49 98 67 3d 2d 42 86 3c 0e 75 3e 3d
       0.021553105 0.056541715 0.016388977 0.04649835
0001e0 be b8 3b 3d e3 de 77 3c 01 6a 89 3b 86 0d 8b 3d
       0.04583048 0.015128824 0.004193545 0.06789689
0001f0 57 3a 3a 3c f4 23 75 3d d2 0d b7 3c 61 42 a5 3c
       0.011366448 0.05984874 0.022345457 0.020173253
000200 4c 0c 92 3c 6a c0 4e 3d b0 e5 ac 3d e2 91 95 3d
       0.01782813 0.05047647 0.08442247 0.073032156
000210 fa 07 d3 ba 1f 77 5a 3d 3b 48 17 bc 9e ba d2 3c
       -0.00161004 0.05333626 -0.00923353 0.025723752
000220 41 86 f4 3c 43 e6 1a 3d 20 54 85 3d 16 ab f3 3c
       0.029849174 0.03781725 0.06510186 0.029744666
000230 9f 4d 8d 3d 63 26 1e 3d 7f 39 12 bc 00 0c a0 3a
       0.06899571 0.038610827 -0.008924841 0.0012210608
000240 ed 58 ae 3c 54 5a 8c 3c 0e 31 0c 3d d2 29 08 bc
       0.021282637 0.017132916 0.03422647 -0.008310752
000250 50 63 cb 3c c5 1c 1f 3b 73 6b f5 3b e2 c1 11 3d
       0.02482763 0.0024278623 0.0074896156 0.03558529
000260 c0 a7 8c 3c f4 37 2b 3d b5 2b ba 3c bd 75 6b 39
       0.017169833 0.041801408 0.02272592 0.00022455207
000270 80 1c 94 3c 07 4c 34 3d 5c 08 73 3d fc ea 84 3d
       0.018079996 0.044017818 0.059334144 0.06490132
000280 67 d1 56 3b d1 b9 97 3d f4 26 2f 3d ba 82 73 3d
       0.0032778622 0.074084885 0.042761758 0.059450842
000290 d5 00 91 3c bc 44 46 3d 84 d0 59 3d f6 a5 8d 3d
       0.017700592 0.048405394 0.05317737 0.0691642
0002a0 e9 18 3d 3d 44 53 5c 3d 96 37 62 3d 3f 78 f2 3c
       0.046166334 0.053790346 0.055228792 0.029598353
0002b0 74 02 f5 3c 2d 40 47 3c 60 27 78 3c af 0f da 3c
       0.029908396 0.012161297 0.0151461065 0.026618807
0002c0 ad e9 13 3d 68 21 50 3d ee b1 ae 3c d7 ab 91 3d
       0.036111522 0.05081311 0.021325078 0.07112854
0002d0 d7 35 44 3c 6d d2 c8 3c cb 33 55 3d 8c 1d 81 3c
       0.011975727 0.024514401 0.052051347 0.01576116
0002e0 af 9f 70 3d 8c 28 fe 3a 99 86 51 3d 7f 42 4f 3d
       0.058746036 0.0019390746 0.051153753 0.050600525
0002f0 74 16 a4 3d da 57 36 3d 30 59 33 3c c8 46 22 3d
       0.08012095 0.044517376 0.010946557 0.039618284
000300 a6 26 94 3d ac 78 09 3d e1 92 3f 3d 08 15 72 3d
       0.07233934 0.033562347 0.046770934 0.05910209
000310 50 c9 3a bb 82 24 84 3d 32 48 7c 3d 8a fa 49 3d
       -0.002850134 0.06452276 0.06159229 0.0493112
000320 b6 94 43 3d 9e 24 58 3d f3 39 56 3c 74 8b bc bb
       0.047749244 0.052769296 0.01307534 -0.005753929
000330 22 06 15 bc c6 db e4 3c 78 88 3c 3d c5 db 8a 3c
       -0.0090957 0.027936827 0.046028584 0.016950497
000340 7b 93 30 3c e3 75 6e 3d 4c 4f 2f 3d 9b 77 8e 3d
       0.01077735 0.058217894 0.042800233 0.06956407
000350 3e 98 91 3d 20 c3 2b 3c 72 81 99 3c 6c 30 d5 3c
       0.07109116 0.010483533 0.018738482 0.026024066
000360 c6 92 cd 3c fa 73 1d 3c 8c 17 d3 3c c1 5c 82 3d
       0.025094401 0.0096101705 0.025768064 0.06365348
000370 9e 9c af 3c 74 f2 a1 3b 4a 6b 8b 3d 82 40 d5 3c
       0.021436986 0.0049422327 0.06807573 0.026031736
000380 4e 97 49 3d d7 3c f6 3c 2f 7a 68 3c 61 a8 a2 3b
       0.04921656 0.030058308 0.014189287 0.00496392
000390 ad 92 f0 3c 4a 55 49 3c d1 b2 35 3d eb bf 2a 3d
       0.029366815 0.012288401 0.044359986 0.041686933
0003a0 7f a0 c2 3c b0 53 98 3d 18 99 2a 3d 03 aa 01 3d
       0.023758171 0.07437837 0.041649908 0.031656276
0003b0 00 3d 02 3d 7b a2 9f 3d c8 60 82 3d 79 b4 f2 3c
       0.031796455 0.077946626 0.06366116 0.029627072
0003c0 4c b9 18 3d 84 56 cf 3b 94 75 19 3d bd 13 60 3d
       0.037286088 0.006327452 0.037465647 0.054706324
0003d0 24 b8 c1 3b 0e 93 b5 3c f0 a5 06 3d c6 20 0b 3d
       0.005911844 0.022164848 0.032873094 0.033966802
0003e0 69 43 14 3c a7 ad 56 3c ca 88 e8 3c 73 3e ad 3c
       0.009049275 0.013102925 0.028385539 0.021147942
0003f0 93 c7 97 3d de db 57 3c 07 f8 4f 3d ef 46 b1 3d
       0.07411113 0.013174979 0.050773647 0.08656108

actor_mean.0.weight f4 [256, 256]
000000 79 28 de 3c ac 97 f4 bc af 3c 25 3d 96 2f 68 bc
       0.027118908 -0.029857479 0.040341076 -0.014171502
000010 9e f9 97 3a b9 43 a5 3c 01 a3 4b 3d ac c3 32 3c
       0.0011594777 0.020173894 0.049716 0.01091091
000020 1d df dc bb ae f4 0a 3b 3a c1 13 bc d5 a1 91 bc
       -0.0067404644 0.002120297 -0.009018237 -0.017777363
000030 a4 2f 73 3d 9a 53 00 bd bd e1 02 3c 79 3d 3c bd
       0.059371606 -0.03132973 0.0079883905 -0.045957062
000040 ef 73 45 bc d0 1a b7 bc 15 d7 35 bc 86 1a 09 3d
       -0.0120515665 -0.022351652 -0.011098643 0.03347256
000050 89 59 29 bd c8 0e 8e 3b d3 eb 23 3c 7e bc 41 bd
       -0.041345153 0.004335258 0.010004955 -0.0472989
000060 c6 a2 29 3d 3e ca 63 3d 8c e9 23 3c b3 33 4f bc
       0.041415 0.055612795 0.010004412 -0.012646603
000070 36 40 3e 3d f1 71 ee bc b1 2a 4a bd 1f 3b 3d 3d
       0.046447955 -0.029107066 -0.04935712 0.04619896
000080 92 14 18 bd 68 c0 0a 3d 83 40 03 3b 26 cb 89 3d
       -0.037128992 0.0338749 0.0020027466 0.067282006
000090 da f6 9a 3d 12 5f 55 bd ed 58 c9 3b 8c 59 83 bd
       0.075666144 -0.05209262 0.006144634 -0.06413564
0000a0 e8 cb 34 3d 48 07 03 3d 4a 85 a9 bc 08 a5 25 3c
       0.044139773 0.031989366 -0.02069344 0.010110147
0000b0 08 2c 88 3b fc 20 c1 bc 98 03 80 3d f9 4a 53 bd
       0.0041556396 -0.023575298 0.062506855 -0.05158517
0000c0 f7 f4 03 bb 9d 3e 81 3c 95 55 be bc b1 b0 0c 3d
       -0.0020135024 0.015776927 -0.023234168 0.034348194
0000d0 2c 9f 90 3d 9e c6 4a bd 7c 16 0a 3d 46 88 9e 3b
       0.070616096 -0.049505822 0.03371285 0.0048380224
0000e0 24 d9 ba 3d 3f b2 78 bd b0 67 2e 3d b3 26 25 bd
       0.091234475 -0.060716864 0.042579353 -0.04032011
0000f0 f9 8e 70 3d ee 07 15 bd e9 92 1b 3d cd 73 99 3c
       0.0587301 -0.036384515 0.0379819 0.018731976
000100 d8 20 11 3d e1 54 19 3d c8 51 62 3c ab 2f ca bb
       0.035431713 0.037434462 0.0138134435 -0.0061702332
000110 31 5e 2b bd e6 41 42 3c 4e 58 93 3d 96 0e 6b 3d
       -0.041837875 0.011856532 0.07194577 0.057386957
000120 5f b6 00 bd fd 9f ea 3c 0c f5 74 bb 7c e3 4f bc
       -0.031423923 0.028640741 -0.0037377505 -0.012688514
000130 93 fa f7 3c 61 a5 6d bb 07 f6 48 3d 6c dc 39 bd
       0.03027085 -0.0036261904 0.049062755 -0.045376226
000140 cf 66 81 bc 15 5d 3a 3d ef d0 36 3d c0 0c 76 bd
       -0.015796093 0.045498926 0.04463285 -0.060070753
000150 a4 bd 53 bc ce 28 4f 3d ed 0c 47 3c 56 77 17 bc
       -0.012923632 0.050576024 0.012149078 -0.0092447605
000160 a4 8b 22 3d 1a 65 7a 3d 6e bd 99 3c 81 e1 45 bd
       0.039683953 0.061131574 0.018767085 -0.04831076
000170 43 6b 5c bd 5e e6 11 3d 49 2b 5a bb 09 61 13 3d
       -0.05381323 0.035620086 -0.003328996 0.03598121
000180 60 93 3c 3d ab 5e 9e bc 48 38 cf 3c d7 b1 e5 3b
       0.046038985 -0.01933225 0.025295392 0.0070097256
000190 7d 6b ae bc 63 23 a5 3d bb 9b 22 3c d6 62 27 bd
       -0.021291489 0.0806339 0.009924824 -0.04086574
0001a0 e0 c0 76 bd 91 da 3a 3d 47 b2 60 bd de 75 2d 3d
       -0.060242534 0.045618597 -0.05485752 0.042348735
0001b0 94 1d a2 bc 3f ac 93 3c 16 0a 99 bb 25 7d 91 3d
       -0.019789495 0.01802647 -0.004670392 0.071039476
0001c0 d0 9b 64 bd 4e 1c 0e bd 0c 3b 41 3d b5 9c ed bc
       -0.055812657 -0.034694962 0.047175452 -0.029005388
0001d0 7f c8 57 3a 2e 6a 72 3d 2a 24 2e bd e9 3e 90 3d
       0.00082314754 0.059183292 -0.042514957 0.07043249
0001e0 67 1c 93 bc 76 56 21 3d dc 27 91 3d a5 6e 23 3d
       -0.01795788 0.039389096 0.07087681 0.03990044
0001f0 fa f9 a9 bc f8 6c 11 3d da b2 b3 3c c3 19 98 3a
       -0.02074908 0.03550431 0.021935869 0.0011604357
000200 8f 4c 0c 3d 44 2b e5 bc 9c 25 d6 3c c7 81 a9 3c
       0.0342527 -0.027974732 0.02614098 0.020691765
000210 32 28 db bc 7b fd c3 3b 71 6d 1e 3c b8 06 46 3c
       -0.026752565 0.005981145 0.009669648 0.012086563
000220 38 98 b8 3c 0e d9 4e 3d 67 8b 29 bd d2 b0 71 3d
       0.022533521 0.05049997 -0.04139271 0.05900652
000230 a0 a4 0a 3d 18 f0 73 3c 04 f0 c1 3c b4 5d 34 bd
       0.033848405 0.014888786 0.023674019 -0.044034675
000240 0f 7b 43 bd 1d cd bb bc b0 16 a9 bd cf 34 22 3c
       -0.04772478 -0.022924954 -0.082562804 0.009900286
000250 b6 63 82 bd 9b 75 3e bd 8d 1e 04 bd e5 18 5e 3d
       -0.063666746 -0.046498876 -0.032255698 0.05422296
000260 09 ef 29 3d ea 51 26 bd 73 90 83 bd b3 47 52 3c
       0.041487727 -0.040605463 -0.06424036 0.012834477
000270 5b 00 59 bc a6 c9 34 bd 59 10 33 b8 72 5c 8d ba
       -0.013244714 -0.04413762 -4.269215e-05 -0.0010784997
000280 13 f8 3a 3c 93 08 40 3d 21 1e 52 3d 91 bf 3e bd
       0.011411685 0.046883177 0.051298264 -0.04656941
000290 27 cf 6a 3d 40 4f db 3c bb 4c 04 3d fe 04 92 3d
       0.057326462 0.026771188 0.03229974 0.071298584
0002a0 3c 7f 27 b9 97 4d 87 bc 92 4f f1 bb a7 f0 60 3d
       -0.0001597376 -0.01651649 -0.007364222 0.054917004
0002b0 ef 8d b4 bc b6 16 66 3d 1c a5 0a 3d 23 aa 52 3d
       -0.022040335 0.056174003 0.033848867 0.051431786
0002c0 76 cd 07 3d 90 74 8c 3d 80 36 61 bd 8a f8 e8 39
       0.033154927 0.0685817 -0.054983616 0.00044435664
0002d0 74 a8 b5 bc 18 64 3c 3d fe f4 3d ba 9a c3 b2 3c
       -0.022175051 0.045993894 -0.00072462845 0.021821786
0002e0 3c 51 d2 3c 92 c6 23 bc e3 9d de bb 05 a0 48 bd
       0.025673501 -0.009996073 -0.006793724 -0.04898073
0002f0 3d 66 42 3d 64 d3 4a bd 88 43 a7 bd 6f 63 93 3c
       0.047460783 -0.049518004 -0.081671774 0.01799175
000300 d5 d2 66 3d 7a e8 ab bc 63 59 6c 3d 1a fd 12 bc
       0.05635341 -0.020984877 0.057702433 -0.008971477
000310 e5 ce 1e bd eb 3b 99 bc bd 03 0f 3d 97 68 d7 bc
       -0.03877153 -0.018705329 0.034915674 -0.02629499
000320 c1 e6 8a 3d 5f 5b 6b bc 53 2e f0 bc 2b 9d 43 bd
       0.06782294 -0.014365046 -0.029318964 -0.04775731
000330 ff 15 55 bd 53 fa 50 3d 63 1a 48 bc d2 5e cf bc
       -0.05202293 0.051019978 -0.012213322 -0.025313769
000340 57 51 da bb 0a 94 a1 3d 36 d2 02 3c 97 a9 28 3d
       -0.0066625285 0.07889564 0.0079846885 0.04117736
000350 ab be 97 bc 29 36 c0 3c 6d 6a b1 3c 95 be 35 3d
       -0.018523535 0.023463326 0.021657193 0.044371206
000360 99 99 20 3d bf 01 17 3d 45 ff d6 3c 33 41 87 bb
       0.039208982 0.0368669 0.026244769 -0.0041276454
000370 8b b9 2b bd d7 02 63 bb 77 d2 3b bd 04 92 84 3c
       -0.041924994 -0.0034639144 -0.04585501 0.016182907
000380 95 c4 51 bb 1f 61 30 3d a8 c7 7f bd 46 a7 6f bd
       -0.003200804 0.043061372 -0.062446266 -0.058509134
000390 c8 a0 05 3d 9c d8 58 3d 4d a1 bb bb 80 f7 02 3c
       0.032624036 0.05294095 -0.0057260157 0.007993579
0003a0 04 c5 4f 3d f3 f4 b7 3c 20 8c 90 bc 18 24 06 3d
       0.050724998 0.022455668 -0.017644942 0.032749265
0003b0 95 cc 38 3d dd ba 8f 3c dd 17 30 3d e8 2d 41 3c
       0.04511698 0.017545158 0.042991508 0.01179073
0003c0 ca 60 a8 3c 81 0d 89 bb ff 34 e7 bc e4 dc 67 3d
       0.020553965 -0.004182518 -0.028223513 0.056607142
0003d0 ce f9 1f bc 2d cc 4b bd df ae 97 ba 8b bb ba bc
       -0.009764148 -0.049755264 -0.0011572501 -0.022794506
0003e0 71 ba e8 bc 55 c8 6c bc 2f 6c b2 ba 5c 0b 84 3c
       -0.028409215 -0.01445206 -0.0013612563 0.016118698
0003f0 33 d1 0e 3d f8 7c 85 bb e1 e4 a4 3c 7f 53 46 bd
       0.034867477 -0.0040737353 0.02012867 -0.04841947

actor_mean.0.bias f4 [256]
000000 db 7c ff 3b 25 fd 4d bd 60 9a 1d 3d a1 ba 3b 3d
       0.0077968664 -0.050290246 0.0384773 0.04583228
000010 47 d3 7b 3d ca 4e 9c 3c f2 ed 3f bc 84 ea bd bc
       0.061480787 0.019080538 -0.011714445 -0.023183115
000020 88 f2 18 3d 1b cc 7a 3d 71 61 24 3c fa 0b db bc
       0.03734067 0.061229806 0.0100329975 -0.02673911
000030 aa 3e 36 3d 74 45 56 bd 94 cb 45 bc dd 52 ca ba
       0.044493355 -0.05231233 -0.012072463 -0.0015436072
000040 59 6d 80 bc ec d1 63 bc e0 70 e4 bc 54 9e e3 bb
       -0.015677141 -0.01390503 -0.027885854 -0.0069463644
000050 6b 81 0d 3c d7 c4 96 bc 95 ea 95 3b 49 39 49 3d
       0.008636813 -0.018404407 0.0045750835 0.049126897
000060 89 a3 b3 3c 9d 6d 92 3c d8 c1 ed 3b fa df 6b bd
       0.021928566 0.017874533 0.007255774 -0.057586648
000070 97 5f e5 3c e3 62 fe 3c 83 c6 c0 3b 27 56 83 bc
       0.027999682 0.031053012 0.0058830394 -0.016032292
000080 d2 2b 2b bd da aa c0 bc b1 fe 0e bd 02 2f 34 3d
       -0.041789837 -0.023518968 -0.03491086 0.043990143
000090 6e 0c 98 bc 51 12 a6 ba 2e 52 80 3d 59 42 09 bd
       -0.018560614 -0.0012670254 0.062656745 -0.03351054
0000a0 2c d9 00 3d b0 f0 1e bd 43 b6 3c bd 1e 70 1b 3d
       0.03145711 -0.038803756 -0.046072256 0.03794872
0000b0 ae 7c 58 3d fc 52 a5 3c 49 24 41 bd 99 b1 8d bb
       0.05285328 0.020181172 -0.047153745 -0.00432415
0000c0 62 97 74 bd e2 1d d2 bc 46 82 51 bd fa 52 3e 3d
       -0.059714682 -0.025649015 -0.05114963 0.04646585
0000d0 8d 66 35 bd 0b 3d 22 3d 01 a0 fa 3b 0c 1d 5a bd
       -0.044287253 0.039608996 0.0076484685 -0.053250358
0000e0 af a7 11 3d f1 13 2d bd 43 26 45 bd 04 51 d9 bb
       0.035560306 -0.042255346 -0.048132192 -0.0066319723
0000f0 52 b0 19 3d 80 0d 13 3d 93 e4 bd bc 09 01 d7 3c
       0.037521668 0.035901546 -0.023180282 0.02624561
000100 3b 0c 72 3c c8 6a 3a bd c9 01 c8 bc 79 32 55 3d
       0.014773424 -0.04551199 -0.024414914 0.052050088
000110 2b 46 37 bd 45 0c 09 3d 5a 2d 25 bd fb ac 4c bd
       -0.04474465 0.033458967 -0.040326454 -0.049969655
000120 6e 53 c8 bb 86 7b 6d 3c 19 b1 b8 bc 68 84 d7 3c
       -0.006113461 0.014494782 -0.022545384 0.026308253
000130 b9 dd e3 3c 36 e5 41 bc cb 9e 0e 3b e2 70 e0 3c
       0.027815687 -0.011834433 0.0021762128 0.027397577
000140 ee 17 72 bc e7 c7 77 bd eb 03 6e 3d 82 90 23 bd
       -0.014776213 -0.060493376 0.058109205 -0.039932735
000150 d9 58 68 3c 22 7e 80 3c 27 86 14 bd e6 71 3c bd
       0.014181339 0.015685145 -0.03626075 -0.04600706
000160 ce c8 83 3d 46 6c a9 3c 78 95 75 bb 6b 5a 75 3d
       0.06434785 0.020681512 -0.0037473124 0.059900682
000170 56 89 c7 bb ff 87 95 3c 64 0d db bc 67 f6 1b 3c
       -0.0060893698 0.018253325 -0.026739784 0.009519196
000180 32 eb 47 bd 31 ea ab 3c 39 b3 04 ba d6 e0 a3 3c
       -0.048808284 0.020985695 -0.00050621066 0.020004671
000190 db 0d 50 3d 34 7b 2d bd ed 77 9b 3c cd 29 15 bd
       0.050794464 -0.042353824 0.018978084 -0.036416817
0001a0 c6 09 e3 bb 6f 1a 60 bd af cb 0a bd a6 a8 c9 bb
       -0.0069286553 -0.05471271 -0.033885654 -0.0061541377
0001b0 7f 3d cd 3a 77 df 02 bb 89 04 90 3d b7 60 5c bc
       0.0015658586 -0.0019969621 0.07032115 -0.013450793
0001c0 e2 fd b5 bc 9c e9 21 3d c7 ca 08 bd 22 d8 d0 bb
       -0.022215787 0.039529428 -0.03339651 -0.0063734213
0001d0 a7 d8 9a 3c 40 9a de 3c ad f9 37 bc a3 98 7c 3d
       0.018902136 0.027173162 -0.011228961 0.061669003
0001e0 9d de e9 ba a5 82 cb bc fc af 04 3d 9c f0 0d 3d
       -0.0017842833 -0.02484257 0.032394394 0.03465329
0001f0 3d 45 77 bc 40 4d ef 3b 29 d1 ea 3c d0 00 10 3d
       -0.015092191 0.00730291 0.028664188 0.035157025
000200 b4 bf 62 3b 9e 6b 8d 3c 90 36 3b 3d 7f 7b 17 3d
       0.0034599127 0.01726323 0.04570633 0.03698301
000210 7a 45 2f bd e3 6a cb 3c 98 d2 a8 bc 00 1c df bc
       -0.042790867 0.024831241 -0.020608231 -0.027235031
000220 d6 69 53 3d de 1f 5c 3d 77 a5 3f bb 49 dd 11 bd
       0.051614605 0.05374133 -0.0029242912 -0.035611425
000230 92 44 61 bc bc dd 69 3d bf 4f f6 3c b5 13 d6 bb
       -0.013749259 0.057096228 0.030067323 -0.006533111
000240 4f 9f 92 bb 0e f6 29 3d 06 f9 41 bc 79 82 0a 3d
       -0.0044745575 0.04149442 -0.011839157 0.033815835
000250 67 58 f2 bc c0 6a 58 3d 06 f1 e2 bc cd be 53 bb
       -0.02958317 0.05283618 -0.02770282 -0.003230977
000260 31 d3 44 bd 62 eb e7 3c 33 0a 29 3d 36 9f ac 3c
       -0.04805297 0.028310481 0.041269492 0.021072011
000270 9f f9 45 3d 0e 08 2f bc 20 e1 02 3d 54 d0 17 3d
       0.04833376 -0.010683073 0.031952977 0.03706391
000280 d9 9c a2 3b c1 25 84 3d 7a 9f 41 bd 3b 82 3a bd
       0.0049625454 0.064525135 -0.04727123 -0.045534354
000290 90 3c 96 bc 4b 14 8a ba 7c ed 5e 3d 6c fb c8 3c
       -0.018339425 -0.0010534612 0.0544257 0.02453395
0002a0 dc 35 1a bd 00 a5 3b 3d bb 03 09 bd 98 cb 32 bb
       -0.03764902 0.045811653 -0.033450823 -0.0027281996
0002b0 a9 88 56 bd 1d 85 3b bd 87 21 19 3d 3f 88 5e 3d
       -0.052376423 -0.045781244 0.03738549 0.054329153
0002c0 5a 84 91 bc 45 b1 49 3d 45 ee b1 3c 61 24 8d 3d
       -0.017763305 0.049241323 0.021720061 0.06891704
0002d0 c5 e1 ee bc 78 02 08 bd 0f c2 f4 3b cd 1f 2c 3d
       -0.02916039 -0.03320548 0.0074694226 0.042022515
0002e0 9d 77 39 3d 1a a0 48 bd 8e 7a d9 bb 7b d3 03 3c
       0.045280088 -0.04898081 -0.006636924 0.008046026
0002f0 e5 83 5b 3d 4f b7 17 3c 66 7d 2f 3c be 28 27 bb
       0.05359258 0.009260013 0.01071105 -0.0025506462
000300 cd db 4e 3d 46 ee 2d 3d 59 c4 e4 3c 01 e6 e0 bc
       0.050502587 0.042463563 0.027925657 -0.027453424
000310 3c 42 b0 3c f1 38 fa bc ef b8 34 3b 34 be 75 3d
       0.021515958 -0.03054473 0.002757605 0.059995845
000320 36 28 63 3d fd 64 61 3d 82 cf 50 3c 08 8a 15 bd
       0.05545827 0.05502795 0.012744786 -0.03650859
000330 70 a4 8b bc 12 b2 31 bd 52 fd 2b 3d ca 87 48 3c
       -0.017046183 -0.04338271 0.041989632 0.012239406
000340 7a 13 a0 3a c4 ae 58 bd 12 9d e5 bc 6f a1 10 bc
       0.0012212836 -0.052901044 -0.028028999 -0.008827551
000350 25 af 31 bd b1 41 3d 3d 63 ec 78 3d bd 2b d0 bb
       -0.04337992 0.046205226 0.06077231 -0.0063528703
000360 53 0a 36 3d 90 00 15 bd e2 73 12 3d b9 cd bf bc
       0.04444344 -0.03637749 0.035755046 -0.023413526
000370 62 ee 1d 3c e9 c2 09 bc 5c 1e bc bb 79 3c 6a 3d
       0.009639354 -0.008408287 -0.005740924 0.057186577
000380 d3 ee 01 bc 04 3b 51 3d 48 d6 74 3c 6f 54 ab 3c
       -0.007930475 0.051081672 0.014943667 0.020914285
000390 3b 99 65 3d 5b 0b 23 bd 3d 8a 7c 3d 25 86 83 bd
       0.056054335 -0.03980575 0.06165527 -0.064220704
0003a0 e9 26 5e bd b2 28 33 bc a2 75 02 3d 64 ea 50 bd
       -0.054236326 -0.0109349955 0.031850465 -0.051004782
0003b0 54 62 21 bd ed a9 9f 3c d9 5f db bc 92 e5 1a 3d
       -0.039400414 0.019490207 -0.026779102 0.03781659
0003c0 57 28 6c 3d 4e 19 6b bc e1 e5 d7 bc bc 21 d2 3c
       0.05765566 -0.014349295 -0.026354732 0.025650851
0003d0 2c 56 6e 3c d0 8d 43 bd b1 72 af 3c e4 58 8b 3d
       0.014546912 -0.047742665 0.021416994 0.06804064
0003e0 72 8a 55 bd fe 6d 30 3d 74 7f 12 3d b0 6d e9 bc
       -0.052133985 0.043073647 0.03576608 -0.028494686
0003f0 83 62 80 3d d6 ac af 3c e8 b0 f1 3c 1f c3 7e bc
       0.062687896 0.02144472 0.0295033 -0.01554945

actor_mean.2.weight f4 [4, 256]
000000 53 43 4b 3d 77 82 33 bd 61 b3 f4 3c 61 f1 61 3d
       0.049624752 -0.043825593 0.02987069 0.055161837
000010 02 56 b9 3d 8f 92 96 3d cf aa b0 3d 0b 0a 14 bd
       0.09049608 0.073521726 0.08626329 -0.03614239
000020 34 bf a5 bc 95 93 40 bd 66 d7 86 bd 34 ea 62 bd
       -0.020232774 -0.047015745 -0.06584053 -0.055399135
000030 7a d0 8b 3d 53 3a 27 3d 43 41 80 3d 90 30 81 3d
       0.06826873 0.040827107 0.06262448 0.06308091
000040 7d 61 d1 bc 3f 2d 78 bd d0 52 e0 3c 6e 36 30 3b
       -0.025559181 -0.060590025 0.027383238 0.0026887911
000050 e8 70 3d 3c d1 9b 00 bd a5 58 84 bc e7 81 64 3d
       0.0115625635 -0.031398598 -0.01615555 0.055787947
000060 7a e4 f2 3c 57 c6 15 3d e2 f4 5d bd 60 2d 98 bd
       0.029649962 0.036566105 -0.054188617 -0.074305296
000070 97 54 61 bc 97 7a 95 3c 38 d0 ac 3d fc 1e fb 3b
       -0.013753078 0.018246932 0.08438152 0.0076636057
000080 db 90 84 3d ab 7b 50 bd bd 8c 05 3c 2f d8 df bc
       0.064729415 -0.05089919 0.00815123 -0.027324764
000090 71 f7 98 bd fd 1d 88 3d ba eb 7c 3d 43 d9 79 bb
       -0.07469071 0.06646345 0.061748244 -0.0038123883
0000a0 2c d6 17 3b 2e ea 56 3d 49 b3 69 3d a8 f7 5e bd
       0.0023168428 0.052469425 0.057055745 -0.054435402
0000b0 ba 91 80 3c 85 99 a4 bc b8 b2 29 bd 50 39 d5 bc
       0.015694488 -0.020092735 -0.041430205 -0.026028305
0000c0 d2 9a cf bc 8b 7e 31 3d 32 c4 94 3d e6 2f f6 3b
       -0.025342379 0.04333357 0.07263984 0.007513034
0000d0 a5 12 5f 3d b7 05 43 bd ed a6 76 bd 58 53 5c 3d
       0.05446114 -0.047612872 -0.060217787 0.05379042
0000e0 e0 20 28 bd 19 17 05 bd f1 8d 98 3c 6d 1d 44 3d
       -0.041046977 -0.03249273 0.01862237 0.047879625
0000f0 dc 22 96 bc ce a1 a9 bd 8d e5 11 bc 46 74 06 bc
       -0.01832717 -0.08282815 -0.008904827 -0.008206433
000100 27 27 3f 3d 7d 70 b2 bd 7b 7b 5c 3c 64 18 95 bd
       0.046668198 -0.08712862 0.013457174 -0.07280043
000110 89 d6 40 3d 48 44 ae 3d 57 77 5e bd 4d d4 5a bd
       0.047079597 0.08509117 -0.05431303 -0.053425122
000120 11 82 c2 bb 65 87 4a 3d 38 e8 9b 3c 3c dc 53 3d
       -0.0059359153 0.04944553 0.019031629 0.051723704
000130 03 59 7b 3d 11 3f aa 3d e6 b1 e1 3b 0d 6f 42 3d
       0.061364185 0.0831281 0.006887662 0.047469188
000140 3f 5a 08 bc 2f a8 49 3c bd b1 9f 3d 5d 7a 80 3c
       -0.008322298 0.0123081645 0.07797573 0.015683347
000150 0f cf 45 bd 73 99 57 3d 0d ab 10 3d 48 84 98 3d
       -0.04829317 0.052636575 0.035319377 0.07447106
000160 55 7c 8b 3d d6 4f c3 bc 4f db cf 3c 0b 0d a2 bd
       0.06810824 -0.02384178 0.02537313 -0.07912644
000170 8e 58 bb 3c 75 f6 f1 bc b3 e5 11 3c bc 41 bd 3d
       0.022869375 -0.029536465 0.008904862 0.092410535
000180 1e d3 74 3d 4b ea 96 3d 2c 7d de bb 87 c1 2f 3d
       0.05977165 0.073689066 -0.006789824 0.04290917
000190 c2 fa 45 3d ca 6f 5f bc 91 e2 4f bd 3b 0f 41 bd
       0.048334844 -0.013637492 -0.05075318 -0.047133666
0001a0 48 37 e1 3b 4d 88 80 bd e8 c0 57 bd ea 11 32 3d
       0.006873045 -0.06275997 -0.052674204 0.043474115
0001b0 17 49 08 bb 72 26 6a 3d 6c a6 8c 3c 6e 6d 7a 3d
       -0.0020795518 0.05716557 0.0171692 0.061139517
0001c0 95 c9 40 bd ea 3e f5 3c 8d 9e 2a bc 20 ad 2c ba
       -0.047067244 0.029937226 -0.010413778 -0.0006587077
0001d0 18 fd 3f bd b3 95 26 3d a3 ab 26 bd 97 2b 2f 3d
       -0.04687223 0.040670108 -0.04069103 0.04276618
0001e0 c0 14 14 3d e1 41 2e 3d 16 2b 37 bd 7e 02 10 3d
       0.0361526 0.042543296 -0.044718824 0.035158627
0001f0 98 5c 26 bb 28 05 33 3d c4 de d6 bc de 19 b4 3c
       -0.002538478 0.04370609 -0.02622927 0.02198499
000200 98 23 a4 3d c4 63 99 bd b0 69 54 3c 1c 3e 84 bd
       0.080146015 -0.07489732 0.012964651 -0.06457159
000210 e3 c5 09 bd 40 d0 98 3d ca f7 6a bc 1d 4b 23 3d
       -0.033635985 0.074615955 -0.014341304 0.039866555
000220 f5 c5 80 3d 8c 26 f3 bc ac be fc bc 76 ed 2e bc
       0.06287757 -0.029681467 -0.030852638 -0.010676732
000230 d0 71 a5 bc 8e 1b 67 3d 6d f1 6f 3d 3a d1 e2 3c
       -0.020195872 0.056422763 0.05857985 0.027687658
000240 95 92 a9 3d 20 d2 3e 3c 6e b3 85 bc 97 aa 57 bd
       0.082799114 0.011646777 -0.01632091 -0.05265292
000250 c5 73 12 bd c5 29 51 bc c3 47 94 3d c6 87 89 bd
       -0.035754938 -0.012766306 0.0724025 -0.0671535
000260 fa 9b a2 3d 04 7b a7 bd 96 16 7d bd 8f 72 53 bd
       0.079399064 -0.0817776 -0.061789118 -0.051622923
000270 db ba 4e 3c 2c 5e 66 3d 19 79 71 3d 21 ae 9f 3c
       0.012617792 0.056242153 0.05895338 0.01949221
000280 3b 50 45 bd 45 d3 ac bd c5 ae 39 bd bb 34 1b 3d
       -0.048172217 -0.08438734 -0.04533269 0.037892085
000290 45 e3 4d bc ad f9 31 3d 62 ce 8b bb 3d ac 1b bd
       -0.012566392 0.043451 -0.004266546 -0.038006056
0002a0 93 9f 70 3d a7 37 f6 bc b5 2e 9c bd 73 ed 8f 3d
       0.05874593 -0.030055834 -0.07626096 0.07027712
0002b0 09 76 00 bd 00 90 a5 bc 69 23 96 3d 05 d1 31 bd
       -0.031362567 -0.020210266 0.07330973 -0.043412227
0002c0 e2 e3 c5 3d 7b 40 d6 bc 64 97 56 3d 91 89 8f 3c
       0.09662606 -0.026153794 0.05239047 0.017521651
0002d0 d7 79 46 bd a6 4c 60 3d 51 eb 47 3d ad 98 a8 3d
       -0.04845604 0.054760598 0.0488084 0.082322456
0002e0 e0 7c bd 3d 46 39 18 bd 03 2e ad bc ac 69 59 bd
       0.09252334 -0.037163995 -0.021140104 -0.053079292
0002f0 da ec b5 3d da c3 24 3a 8d 5a bc 3c 12 e2 3a bd
       0.088830665 0.00062852877 0.022992397 -0.045625754
000300 f8 d3 c7 bc 1a b9 97 3c 07 69 e1 bc 41 a8 e7 3c
       -0.024393067 0.01852088 -0.027515901 0.028278472
000310 d1 57 96 3d 44 23 6e bd 28 46 ad 3d 62 02 ad bc
       0.073409684 -0.0581391 0.08460647 -0.0211193
000320 34 50 39 3d 65 85 62 bd 36 02 b7 3c 9a 35 2a bd
       0.045242503 -0.055302996 0.022339921 -0.041555025
000330 73 76 32 bd 88 b8 4b bd 67 96 1f bd c9 05 9d 3c
       -0.043569993 -0.04973653 -0.038961794 0.019167798
000340 84 4a 38 3d e2 d0 be bb eb 5d 7a bd 97 c2 36 3d
       0.04499294 -0.0058232406 -0.061124723 0.04461917
000350 5d 3a ef bc 20 e6 88 bd a9 e2 17 bc a9 0c de bb
       -0.029202634 -0.06684518 -0.009270349 -0.0067764116
000360 56 f8 71 bc 97 57 79 bb 5e 8d 0b bd 1b 24 8d 3d
       -0.014768681 -0.0038046592 -0.034070365 0.06891652
000370 98 00 47 bb 61 ae b8 3c a9 ee 9e 3d c7 30 d4 bc
       -0.0030365344 0.022544088 0.077603646 -0.025902165
000380 c2 28 ea 3c 3b c0 6d 3d ad e8 6a bd 19 83 e6 bc
       0.028583888 0.058044653 -0.057350803 -0.028138684
000390 cd c0 be bc a7 19 a1 3a 7d 54 83 bd 06 64 73 bd
       -0.023285294 0.001229097 -0.06412599 -0.05942156
0003a0 60 56 8d 3d 0b b6 1b bd 3c 22 97 bc 0c e5 7b bd
       0.0690124 -0.038015407 -0.018448941 -0.061497733
0003b0 6c 2c 36 3d 34 c9 46 3d f2 ad d7 b8 0c 0d 53 bc
       0.044475958 0.048531726 -0.00010284399 -0.012881529
0003c0 95 9f 5a bc c2 db af 3c 50 51 85 3d 17 4a 89 3b
       -0.013343711 0.021467093 0.0650965 0.0041897404
0003d0 a4 d8 13 bd 92 40 be bc e8 33 86 bd df de a3 bd
       -0.036095276 -0.023224149 -0.06552869 -0.08001494
0003e0 09 64 6d 3d d3 dc 2d 3d ab d2 77 3d 8e 95 1d 3d
       0.05795673 0.042446923 0.060503643 0.038472705
0003f0 d8 da 30 3d 81 28 28 3d 06 d9 8b 3d 49 67 78 3d
       0.043177456 0.041054253 0.06828503 0.060645375

actor_mean.2.bias f4 [4]
000000 c0 e4 48 3c cf ca 06 3d 94 d6 b5 3c 81 e7 1e 3d
       0.0122615695 0.032908257 0.022197045 0.038794998
