best_model_episode_2000.pth (torch, 85388 bytes, 8 tensors)

actor_log_std f4 [4]
000000 ca 16 00 c0 ce 90 ea bf 65 e8 cd bf c4 95 a5 bf
       -2.001391 -1.8325441 -1.6086546 -1.293633

shared.0.weight f4 [128, 24]
000000 b5 81 e3 3e 10 f4 b1 3e 11 7f 01 3e 61 ca 48 3e
       0.44434896 0.34756517 0.12646128 0.19608451
000010 16 e6 ad 3d ca af 6a 3d 28 5f 96 be 59 e0 f9 bb
       0.08491151 0.05729655 -0.29369473 -0.0076256213
000020 f3 c1 5a 3d c8 b2 88 bd b0 ac 40 3e 53 2f 03 3e
       0.05340762 -0.06674725 0.18815875 0.12811022
000030 fd 25 22 3c 56 a5 58 bd 49 a0 2a bd 54 ca d6 bd
       0.009896752 -0.05289205 -0.041656766 -0.1048781
000040 f0 a7 e6 3d 89 c5 76 bc e2 0f 1c be c2 63 2f bd
       0.112625 -0.0150617445 -0.15240434 -0.042819746
000050 9f 3e 5d be 81 54 93 bd 62 4d 5b bc 59 ab 77 3e
       -0.2160592 -0.07193852 -0.013385149 0.24186458
000060 b4 28 a9 be ec 8e 05 3e 62 58 d5 bd 79 9c 12 be
       -0.33038867 0.13042802 -0.10417248 -0.14317502
000070 9b e3 96 bb 93 8e a4 be f9 b7 50 3d 70 19 88 be
       -0.0046047694 -0.32140025 0.0509567 -0.26581907
000080 b3 8a 0d 3e 98 92 8e 3d ac 87 1c be 5d 01 0f be
       0.13822441 0.06961554 -0.1528613 -0.13965364
000090 61 81 23 be 78 53 cf 3c 42 b8 99 bd 2c 1d 47 be
       -0.15967323 0.025308356 -0.075058475 -0.19444722
0000a0 6f 9a ac bd 72 18 42 be 1b 03 37 bd fd f9 c5 3d
       -0.08427893 -0.18954638 -0.044680696 0.09666822
0000b0 cc 3a 09 3d ee 03 a3 be 9a 2a 6a 3c f5 9d 52 3c
       0.03350334 -0.31838936 0.014292384 0.012855043
0000c0 03 60 d9 3e 70 e7 5a 3c 24 86 8e bd ff 37 11 3f
       0.42456064 0.013360843 -0.06959179 0.5672607
0000d0 8c aa 87 3d 91 97 93 3e a3 d4 07 bd 37 98 ce 3e
       0.06624326 0.28826573 -0.03316177 0.40350506
0000e0 48 6b 29 3e 66 70 2f 3e 40 e8 4e bb bd d1 4b be
       0.16544831 0.1713272 -0.0031571537 -0.19904228
0000f0 07 37 a1 bd b3 c9 9b bd f2 2e 04 3e e9 25 19 3c
       -0.07871824 -0.076068304 0.12908533 0.009347417
000100 60 37 18 3e 73 e1 f4 3c 73 ff 50 3e 9f cf 1d be
       0.14864874 0.029892659 0.20409946 -0.15411232
000110 eb 97 84 be 90 bd b6 be 51 8f 9d 3e 35 ec af 3e
       -0.25897154 -0.356915 0.30773404 0.343599
000120 ff 27 ce 3e 46 18 be be 6b a4 e7 be 54 3b 8e 3e
       0.4026489 -0.37127894 -0.45242628 0.2777964
000130 45 6f 46 3e 82 3b 7f 3d b8 f8 97 3d 31 14 11 3e
       0.19378383 0.06231261 0.07420486 0.14167859
000140 81 da 5f 3d 02 f4 1b bd 70 d3 16 be 55 9a 63 be
       0.05465174 -0.0380745 -0.14729095 -0.22226842
000150 1b 96 f6 bd d5 c2 51 bd 3d 5f df 3c ad 61 60 be
       -0.12040349 -0.051211197 0.027267093 -0.2191226
000160 27 c6 27 be 7e 72 b0 bb a4 46 04 bd b5 a4 1b be
       -0.16384183 -0.0053847423 -0.03229393 -0.1519955
000170 1c a7 17 3d f1 fc 6e 3e 8d 1d a2 bc 5e c1 65 be
       0.037024602 0.23338677 -0.019789482 -0.22437045
000180 07 39 c7 bd bc 14 0a be 1c b8 9a 3d 09 e3 40 be
       -0.09727674 -0.13484472 0.07554647 -0.18836607
000190 07 9e cd 3e 20 25 54 3d 0a 11 ee bd 4e cf 2c be
       0.40159628 0.051793218 -0.11624344 -0.16875955
0001a0 92 44 38 3e bb 32 98 bd 3b f5 80 be 3f 3e cc be
       0.17994907 -0.07431551 -0.25187096 -0.3989124
0001b0 23 66 6d be 5e c1 2a be 6a b7 a3 3e 05 4e 34 3e
       -0.23183493 -0.16675326 0.3197587 0.17607887
0001c0 13 ca 5c 3e 4c e5 dc bc 52 d2 93 3b 27 fb 31 bd
       0.2156146 -0.026964806 0.004511156 -0.04345241
0001d0 97 a6 db bd 57 61 c8 be ce 38 c6 bd 7e 20 19 3d
       -0.10725134 -0.39136764 -0.096788034 0.037384503
0001e0 90 6d 7c 3e ab 47 c0 3d a6 18 5d be a0 7d 81 bd
       0.2465117 0.093886696 -0.21591434 -0.06322789
0001f0 50 91 c5 be 14 f0 86 bd c2 d2 35 be 1b e2 84 be
       -0.38587427 -0.0658876 -0.17756179 -0.25953755
000200 91 51 a7 3e 32 75 a9 3d a6 8a f3 bd ed d0 a4 bc
       0.32679418 0.08274306 -0.118916795 -0.020119155
000210 77 9c 61 bd d7 45 c0 3d 96 ff dd bd 65 fa 12 be
       -0.055080857 0.09388321 -0.10839765 -0.1435333
000220 4e fc 71 be e1 a9 89 be 35 f1 e8 3a 4e 1e bf bd
       -0.23631403 -0.2688742 0.0017772081 -0.09331952
000230 9c 2d 07 3d 77 ae 6b be ad 7b ce 3e 0b 81 f9 bc
       0.03300248 -0.23015772 0.40328732 -0.03045704
000240 e1 8a 06 be 18 c0 61 3d 12 0c 4d 3e 7f 36 03 be
       -0.13138916 0.055114836 0.20024136 -0.12813757
000250 82 5f 1a 3e 87 42 83 bd d4 57 d1 bc 0a b5 19 be
       0.15075496 -0.064091735 -0.025554575 -0.15010467
000260 d2 59 13 be c9 4a a2 be 0f ad 8e 3d 21 75 81 3c
       -0.14389732 -0.31697682 0.06966602 0.015802922
000270 a2 d3 df 3d 56 d3 de 3b 28 c0 75 be 30 91 a4 be
       0.10929038 0.0068000956 -0.23999083 -0.3214202
000280 52 d8 9f 3d b7 68 05 3d ca 83 ee 3d dc 6f 8c 3c
       0.07804932 0.032570567 0.116462305 0.017143182
000290 79 b7 ba 3e 21 d3 a8 3e 82 fa 02 bf 77 69 b1 3e
       0.36468104 0.3297358 -0.51163495 0.34650776
0002a0 1c 06 48 be c2 67 d6 be c4 90 93 be e6 c6 9e 3e
       -0.1953358 -0.41876036 -0.28821385 0.31011122
0002b0 51 fc fc 3d 54 7c b1 bd ef ac 93 bd f4 ee 8f be
       0.12352813 -0.08666292 -0.07210719 -0.28111994
0002c0 82 6d 96 3d 24 de 29 be eb ba 8e 3d 54 56 80 be
       0.07345106 -0.16588646 0.069692455 -0.25065863
0002d0 d5 ec 1c be 1d 6c 00 bd c2 43 1b 3d a1 8f 10 bd
       -0.15324719 -0.031353105 0.037906416 -0.035293225
0002e0 eb 64 24 3e 70 cc 23 3e 68 6d 0b 3e 07 a8 75 3c
       0.16054122 0.15995955 0.13615954 0.014993674
0002f0 65 83 b3 bd 64 8a bf bd b5 0e 93 be ce 9b 1d be
       -0.08765296 -0.09352568 -0.28722158 -0.15391466
000300 d6 d0 6a bd 45 97 3e bc 3a e5 35 3e fe 41 07 3e
       -0.057328068 -0.011632745 0.17763224 0.13208768
000310 39 08 21 3e b1 32 53 be 26 f4 96 b8 da cf d1 bd
       0.15725793 -0.20624806 -7.1980336e-05 -0.10244723
000320 c8 ca c1 bc ac e9 d6 bc b6 7b a1 3d cb 54 57 3c
       -0.023656264 -0.02623447 0.07884924 0.013142775
000330 93 da e3 3c b9 bf 76 be 54 34 f0 bd 21 48 d4 bd
       0.027814185 -0.24096574 -0.11728731 -0.1036532
000340 b2 87 5c 3d d1 4f 3d 3e 89 7d 42 3e 5e 65 5f 3d
       0.053840347 0.18487479 0.189932 0.05454003
000350 5a 60 a9 be c3 47 4f be 2e bc 38 3e 07 10 0a 3f
       -0.33081323 -0.20242219 0.18040535 0.53930706
000360 c5 2c c0 3d 48 91 ab be 00 cd 18 3f 7e bc d1 3d
       0.09383539 -0.33509278 0.59687805 0.1024103
000370 12 32 1d be 4a 04 95 3d 8a 69 35 bc 3e 11 bc bd
       -0.15351132 0.07276209 -0.011072526 -0.09182976
000380 f1 2d a6 be 62 ad 6c 3e b4 47 d1 bd 6d 9b a5 3d
       -0.32456926 0.23113015 -0.102187544 0.08086286
000390 35 3d dc bd 46 fc 17 3e b3 a6 f6 be 7d 38 e0 bd
       -0.10753862 0.14842328 -0.48174056 -0.10948274
0003a0 28 8f e5 bd 61 35 54 3c 2f 54 aa 3c 33 9a c7 3d
       -0.112089455 0.01295218 0.020792095 0.09746208
0003b0 9d 57 8d 3e bb de a8 3e e5 76 63 be 6f e2 39 3b
       0.27605906 0.3298243 -0.22213323 0.0028363725
0003c0 b1 93 33 3e 8d 6a 97 be 9a 1a 03 bd 9b 80 96 3d
       0.17536809 -0.2957348 -0.03200779 0.07348748
0003d0 0f ca 12 3e dd cf 6a be 5f 60 30 be 33 a4 e1 3d
       0.14334892 -0.22930856 -0.17224263 0.11017647
0003e0 ef 0d 47 3d 95 af f6 3d eb d3 02 be b2 3e 62 be
       0.048597272 0.12045208 -0.12776153 -0.22094229
0003f0 b8 56 85 bd 21 b8 1b be 44 2f c8 bd a7 53 48 be
       -0.06510681 -0.15206958 -0.0977464 -0.19563161

shared.0.bias f4 [128]
000000 c1 bd 9c 3d 44 66 be 3d 15 8b ce 3c 68 bd dc be
       0.0765338 0.09296849 0.025212804 -0.43113256
000010 d4 e9 82 be 2c f5 7a 3e 14 67 e7 3c 48 66 c4 be
       -0.25569022 0.24507588 0.028247394 -0.38359284
000020 07 2d 80 3e 62 42 73 3d 22 a7 05 be 9f 9f d7 bd
       0.25034353 0.05938948 -0.13052037 -0.10528492
000030 85 7d 16 3e a3 e4 2b be e2 27 6b bd 8c c7 f8 3e
       0.1469632 -0.16786437 -0.057411082 0.48589742
000040 0b 35 12 be 44 4d 16 3e 11 43 bc 3e 19 38 aa 3d
       -0.14278047 0.14677912 0.36769918 0.08311481
000050 18 96 f0 bc 65 cc 3e 3e d2 0b 1f 3f fe 0f 84 3e
       -0.029368445 0.18632658 0.6212741 0.2579345
000060 69 63 f3 bd 5a f6 84 3e 1e 37 fd bd b5 8d af 3e
       -0.11884195 0.259692 -0.123640284 0.342878
000070 15 44 08 3f d1 da 97 3c d7 ae 0b bf 60 8a 02 be
       0.53228885 0.018536957 -0.5456366 -0.12748098
000080 7a a6 b3 3e 62 87 42 3e 89 54 89 bd 2f ff 67 3e
       0.3508795 0.18996957 -0.06705577 0.22655939
000090 68 e9 a0 3e 9a 79 5e be 4c a9 da 3e a5 cb 6a 3d
       0.31428075 -0.21726075 0.42707288 0.057323117
0000a0 4d 83 d6 be 79 76 95 3d c2 c4 bd bd 9a 3e 82 bb
       -0.4189705 0.072979875 -0.09266044 -0.003974748
0000b0 3b 37 a1 be cc d7 ad 3e dc 1e d5 3e 25 00 96 be
       -0.3148745 0.33953702 0.41625106 -0.29296985
0000c0 3b 5b 7f 3e 58 46 9d 3d 55 4f d3 3c 31 91 06 3d
       0.24937145 0.07679433 0.025794664 0.03285331
0000d0 44 b9 01 3e 7a 94 ea bd 5b b0 c1 3d fe cc 41 3e
       0.1266833 -0.11454101 0.09457465 0.18925855
0000e0 a6 a1 7c 3d cf 52 30 3e 72 9c aa 3e f7 fe ad 3e
       0.061677597 0.17219089 0.33322483 0.33983585
0000f0 44 28 a3 3e fd 5c b8 bd 95 4a 00 3c 11 96 2f bd
       0.31866658 -0.09002111 0.007830282 -0.042867724
000100 e6 5e 8a 3e 7d ed 7a be 53 b1 46 bd 83 1e 3c 3e
       0.27025527 -0.24504657 -0.048508953 0.18371014
000110 a6 8f 7f 3d aa 30 10 be 0d 0e 2f be 3b 5a e2 bd
       0.062392853 -0.14081064 -0.17095204 -0.11052366
000120 92 54 30 be 12 1a 73 bc c6 5b 66 3e 72 9f 1f bf
       -0.17219761 -0.014837759 0.22495946 -0.6235267
000130 02 c8 45 3e 53 ee 09 bf 16 4f 16 be 10 a0 a2 3d
       0.19314578 -0.5387928 -0.14678606 0.07940686
000140 ab 54 60 be 35 0f 22 3e 05 19 ac bd 2f 48 e1 3e
       -0.21907298 0.15826114 -0.084032096 0.44000384
000150 ea 0f 72 3e 89 99 77 3e 0f a6 dd 3d 4d 7e fc bd
       0.23638883 0.24179663 0.10822689 -0.123287775
000160 9b f1 54 3e 40 ad 9c 3e 5a 02 e4 be c1 34 eb 3e
       0.2079529 0.3060093 -0.44533044 0.45938686
000170 09 a0 23 be 3e ec 8f 3e fe 88 32 be 73 fa 0b 3d
       -0.15979017 0.28109926 -0.17435071 0.034174394
000180 cc 64 90 3e 52 53 00 3e 7c 94 2b 3e df 42 69 3e
       0.28201902 0.12531784 0.16755861 0.22779416
000190 f5 1f d7 3e 25 d5 b5 3d bf 62 d6 bd c3 3c 94 bd
       0.4201657 0.08878545 -0.10468053 -0.07238152
0001a0 a1 8d 77 be e3 30 51 be a3 e5 78 3e fc 39 be 3c
       -0.24175121 -0.20428805 0.2430635 0.023221008
0001b0 bb 1e bf 3d 58 13 2d 3e 70 07 84 3e da 4b a0 bd
       0.09332033 0.1690191 0.25786924 -0.078269675
0001c0 10 62 b7 3e 8b 63 b1 3e 62 20 20 3d ed 9c 87 be
       0.35817003 0.34646258 0.039093383 -0.26486912
0001d0 a2 d3 c0 3d e4 e0 5c bd 86 13 ba be a6 0a 90 3d
       0.09415366 -0.05392541 -0.3634302 0.07033281
0001e0 aa ff 16 be 37 7a 9e 3e 75 a3 59 be 24 53 77 3e
       -0.14745966 0.30952618 -0.2125376 0.2415281
0001f0 18 26 8e 3e d1 8f 45 bd 92 0f 1f 3f 1d ab 1a 3e
       0.27763438 -0.048232857 0.62133133 0.15104337

shared.2.weight f4 [128, 128]
000000 93 b8 77 3d 35 b2 ac 3d da 03 9e 3e 81 e2 46 3e
       0.060478758 0.08432428 0.30862314 0.19422342
000010 ff 34 77 3c 38 69 30 3e 05 b9 a7 3c 83 0c 20 3e
       0.015088319 0.17227638 0.020473966 0.15629773
000020 76 fe a9 3d 8d b8 68 be 65 ae 2d 3e 02 be 87 3e
       0.08300488 -0.2272665 0.16961057 0.26512152
000030 c0 03 9b bd 49 5e 0e 3d f1 9e 90 3d db 91 cd 3d
       -0.07569075 0.034757886 0.07061566 0.10037585
000040 a7 12 0f 3e 50 d7 3e bc b8 5f 17 3c 60 04 09 3d
       0.13971959 -0.011648014 0.00923913 0.033451438
000050 40 0c a6 3d 3e 7a 06 3e 24 89 fb 3a d8 0e 97 bc
       0.08107805 0.13132569 0.0019190651 -0.018439695
000060 54 18 89 3d 48 fb bd 3c b5 b4 18 be 43 16 56 3d
       0.06694093 0.02319111 -0.14912684 0.052267324
000070 2d 3a 1b 3d cf 52 af 3d 0b 4e c6 3d eb 4d a0 3c
       0.037897278 0.08560716 0.09682854 0.019568404
000080 41 0a da bc cf d0 bc 3d f7 f9 9c 3d 4c f1 0c 3e
       -0.026616218 0.092195146 0.076648645 0.13763922
000090 41 d9 03 3d 70 aa e5 3e 1e 8e 8e bd e0 d3 f3 ba
       0.03218961 0.44856596 -0.069607005 -0.0018602572
0000a0 80 8d 8f be 5e e9 70 3d 66 a9 05 bd 44 9b b5 bc
       -0.28037643 0.058816306 -0.032632254 -0.022168763
0000b0 6d 2a ee 3d 33 4c 86 3d b1 e4 14 be 4b 26 39 bd
       0.11629186 0.065575026 -0.14540364 -0.045202535
0000c0 51 cb 45 3e 73 24 8e bd 65 c8 8d 3c 47 dd 0f be
       0.1931584 -0.06940546 0.01730747 -0.14049254
0000d0 75 54 9b bc 5d cd 19 3d b0 67 4c be b5 19 41 3d
       -0.01896117 0.037549365 -0.19961429 0.047143657
0000e0 56 ad 13 3d f7 40 07 3e 88 1b 43 bd 5e 02 08 be
       0.036053978 0.13208376 -0.047633678 -0.13282153
0000f0 8d 80 9f 3d c2 40 00 be 84 ec d6 3d 58 11 05 3d
       0.07788191 -0.12524703 0.104943305 0.032487243
000100 a5 ad 92 3c ef d4 47 3d a6 c6 01 3e 44 2f d6 bc
       0.017905066 0.048787054 0.12673435 -0.026145585
000110 52 53 4b bd dd 12 d0 3c 7f 59 8d bd bb e5 fa bb
       -0.049640007 0.02539962 -0.06901836 -0.0076567805
000120 b6 24 af bc d2 a1 bf bc 1f cc 69 bd 47 73 a9 3e
       -0.02137981 -0.023392592 -0.05707943 0.33095762
000130 e2 89 17 3b 4e 14 9b 3e fc 1a 7c 3d e9 4e a6 3d
       0.0023122956 0.3028893 0.06154917 0.0812052
000140 82 d0 10 be 2b ac 47 3c 7c 25 e1 3d 4a e4 20 3e
       -0.1414204 0.012187044 0.10993478 0.15712085
000150 79 e0 0c 3c 60 65 80 3e 7e 19 e3 3c e0 34 25 3e
       0.00859844 0.25077343 0.027722117 0.16133451
000160 6a 06 48 3d 8e dd 51 3d 53 44 f8 bd 85 80 a4 bc
       0.048834242 0.05123668 -0.12122407 -0.020080814
000170 9c a7 43 3e ef d9 07 3d 7e 32 81 bd 7f c7 22 3e
       0.19106907 0.033166822 -0.06308459 0.15896414
000180 e3 53 22 bd 7d 1f 21 3e 66 9d cf 3d 21 c4 32 be
       -0.03963078 0.15734668 0.10137443 -0.1745763
000190 3b f4 53 bd 9f 36 1a be 8a 5e 26 3d 72 a5 89 3d
       -0.05174659 -0.15059899 0.040617503 0.06721009
0001a0 95 74 0d bd ff 97 8e bc 34 8b b7 3d 74 10 ea 3c
       -0.03453501 -0.017406462 0.08962098 0.028572299
0001b0 0a 0e b2 3d f9 32 90 3d 8d bf d7 3d 8a 0e ea 3c
       0.08694084 0.07040972 0.10534582 0.028571386
0001c0 d0 6a e2 3d d6 0b 5b 3d 4c a1 42 3d 90 a0 99 bc
       0.11055529 0.053478085 0.047517106 -0.01875332
0001d0 2c 58 0e ba 3b ab eb 3d 29 d6 aa bd 41 7c bb bd
       -0.0005430009 0.11507269 -0.08341629 -0.09154559
0001e0 48 42 07 be 62 41 f9 3d 5f 5f b4 bd 70 b6 b0 3d
       -0.13208878 0.12170674 -0.08807253 0.08628547
0001f0 bd 4f 91 bd c3 d8 2f 3e 24 00 26 3d 0b 1b 17 be
       -0.07095287 0.17172532 0.040527478 -0.1475641
000200 71 ef 17 3e 6d 86 32 bd de b7 06 3d 15 d5 27 bd
       0.14837433 -0.04358523 0.032890193 -0.040974695
000210 bf 41 35 be 5f 56 59 be 17 b9 4b be 90 b8 9e 3d
       -0.17700861 -0.21224354 -0.19894825 0.07750046
000220 29 b0 18 bc a8 07 cc bd 3e 15 bc bb 5b c4 2c be
       -0.009319344 -0.09962398 -0.005739837 -0.16871779
000230 37 42 cd bd 4b 92 72 be f4 87 1e 3e 91 9c 6a be
       -0.10022395 -0.23688619 0.1548155 -0.22911288
000240 ca b0 0e be 31 32 a1 3d 76 50 ea be 0c 2a bf 3c
       -0.13934627 0.078709014 -0.45764512 0.02333548
000250 e4 94 7d be 90 7f 06 bd c4 ec 59 bd 59 ca cc 3d
       -0.24763829 -0.032836497 -0.053204313 0.09999532
000260 32 12 3e 3e 39 36 16 3c 87 f9 b8 bd b3 ac 67 bd
       0.18561628 0.009168201 -0.090319686 -0.056561183
000270 df 76 bf be d4 d0 36 bd c6 87 0c 3e 64 40 4b be
       -0.3739538 -0.044632748 0.13723668 -0.19848782
000280 9d d7 70 be d4 fa 2e be d7 9f cf bd b2 28 45 3d
       -0.2351975 -0.17087871 -0.10137909 0.048134513
000290 11 1d 93 bd b0 a4 a3 bd c3 4b e5 3c f6 20 4b 3d
       -0.07183278 -0.07990396 0.027990228 0.04959198
0002a0 0f 80 95 bb fd c6 a1 be b8 bd c6 3d 23 2f 07 be
       -0.004562385 -0.3159713 0.09704155 -0.13201575
0002b0 d3 90 05 be 95 d9 c9 bd eb b8 60 be ad 93 28 bc
       -0.13043527 -0.098559536 -0.2194554 -0.010289115
0002c0 d5 60 23 be 0e 9c 3e bd 2a 5d 13 3e 2e f0 1c be
       -0.15954907 -0.046535544 0.14391008 -0.15325996
0002d0 a9 24 25 3e 22 12 cc bc d0 14 c3 3d 24 06 e0 bc
       0.16127266 -0.02491099 0.09525454 -0.027346678
0002e0 87 10 66 be a5 fe 67 be 78 ed ed 3c 5c 4e 98 3c
       -0.22467242 -0.22655733 0.029043898 0.018592052
0002f0 2f 54 83 bc 6b 2d b0 bd b7 6b 90 be b1 2d f9 bd
       -0.016031353 -0.08602413 -0.2820718 -0.12166918
000300 0b fa 75 be 37 c3 09 be 51 06 fe 3d 73 1c 03 bd
       -0.24021165 -0.13453375 0.124035485 -0.032009553
000310 21 08 fe bd a7 b4 3a bd fb 40 9e 3c cb 6a 22 3c
       -0.12403894 -0.04558244 0.019318094 0.009913157
000320 bb aa 61 be 0e 59 1c 3d b1 f2 48 bd 94 67 ce 3c
       -0.22037785 0.038170867 -0.049059574 0.025195874
000330 82 86 6a 3d 1d 66 8d bc bb 38 da bd e6 3c 0b bc
       0.057257183 -0.017260605 -0.10655352 -0.008498406
000340 13 b9 fa 3d 11 cf 35 be 79 27 a8 bd ce 5a 11 bd
       0.12242331 -0.17754771 -0.08210654 -0.03548699
000350 a9 be 7b bd f1 28 cc bd 69 09 24 be bc cc 48 bc
       -0.061461125 -0.099687465 -0.16019215 -0.012255844
000360 51 f3 e0 bd 9a ac 4d 3d ee 04 17 be b8 80 68 bd
       -0.10983909 0.050213434 -0.14747974 -0.05676338
000370 f8 c8 cf 3d 35 b7 bd 3c 63 5c 60 3e 3e d8 c7 3c
       0.101457536 0.023158649 0.21910243 0.024395104
000380 8c 6f 86 3c eb b8 40 be b5 4e e3 3d b3 77 28 be
       0.016410612 -0.1882054 0.110989965 -0.16451912
000390 f1 7b 49 3c 62 ec a7 be 61 10 81 3c db 48 99 bd
       0.012297616 -0.32797533 0.01575488 -0.07484599
0003a0 a0 ee fd 3d ee 9a 21 3d 3b f0 ef 3d c2 6b 1f be
       0.1239903 0.039454393 0.11715742 -0.1556845
0003b0 39 c0 57 3d 01 b1 8e bd 50 a9 e3 be 27 13 af bd
       0.052673552 -0.069673546 -0.44465113 -0.08548575
0003c0 2a 0b f5 bc 4a c2 44 be 3c b0 d0 bd 8e 8c 8b bd
       -0.02991255 -0.1921474 -0.10189864 -0.06813918
0003d0 67 e2 ef bd ab 0a b0 3d ab 1a ac 3d 1f 38 9b 3c
       -0.11713105 0.08595785 0.08403524 0.018947659
0003e0 f0 26 25 be fc d6 18 be 16 3b a8 3d 64 50 6f be
       -0.16128135 -0.1492576 0.08214395 -0.2337051
0003f0 b3 d6 83 be f5 eb 75 bd d4 20 aa bd d4 33 bc 3d
       -0.2574974 -0.06003948 -0.08307043 0.09189573

shared.2.bias f4 [128]
000000 1e 84 0d 3e c6 3d c9 bd af 7c 94 3e 44 33 69 3e
       0.1381993 -0.098262355 0.29001376 0.22773463
000010 f6 88 34 3d 7e 85 7f 3a 8c a6 f5 bc ea 84 4f 3c
       0.04407593 0.000974737 -0.029986642 0.0126659665
000020 06 05 7d 3e b6 9e b2 bd 1d 7d 79 bd bb df 31 3e
       0.24708948 -0.08721678 -0.060910333 0.17370503
000030 f0 5f d7 bb 54 3c b2 3d 19 1e cf bd a2 5c 47 3d
       -0.006572716 0.08702913 -0.101131625 0.048672326
000040 3b 44 1d 3e 08 76 82 3e b3 6d 5a be 6e 58 89 bd
       0.15358059 0.25480676 -0.2133091 -0.0670632
000050 46 15 eb 3d 4d 13 6c bc ff f5 ed 3d 6c 65 16 bd
       0.11478667 -0.014408899 0.11619186 -0.036717817
000060 6d 0d ba bd 4c dc aa bb 61 e8 d3 bd bd 09 2e 3d
       -0.09084592 -0.0052142497 -0.10347057 0.042489756
000070 fa c8 d5 bd 3a cb 0f 3d 30 a9 2c bd 7d 6f c3 3d
       -0.10438724 0.03510592 -0.042153537 0.09542749
000080 07 e8 10 bd c0 82 85 ba 9d 05 e0 3d 8c da e4 bc
       -0.03537753 -0.0010186061 0.10938571 -0.027936243
000090 9d 22 a8 3c 95 74 c9 3d 31 f3 de 3c ce 3f 45 bd
       0.020524317 0.098366894 0.027215572 -0.048156552
0000a0 61 52 81 bc c3 2b 76 bd fa 7c 8f 3e 2a 8b f6 bd
       -0.015786352 -0.06010033 0.28025037 -0.12038262
0000b0 15 12 dc 3d cb b8 66 bd d6 cd 63 be 8b eb 4d 3e
       0.107456364 -0.056328576 -0.22246489 0.20109384
0000c0 9a 10 dd 3d 97 f6 b0 3c b3 b8 02 3e bc fe dc bd
       0.10794182 0.021601958 0.1276577 -0.10790774
0000d0 5e 9c 22 3e b0 48 25 bd 6e 10 ba 3d 34 44 c2 3c
       0.15879962 -0.040352523 0.09085165 0.023714162
0000e0 bb a0 53 3d 44 ea 65 3e 6d 64 a0 3b 29 b9 2c 3e
       0.051666956 0.22452646 0.004894784 0.16867508
0000f0 b0 cc b0 3d 28 17 5a bd 16 b9 be 3d d9 cc 9c bd
       0.08632791 -0.05324474 0.09312646 -0.07656259
000100 23 90 f8 bc d2 a8 bb 3d a1 e5 a7 bb a8 6c f9 bc
       -0.030342167 0.09163059 -0.0051238094 -0.03044732
000110 8c 9d 83 3e f5 a0 91 3d 28 5c 31 3e 33 fa 59 3d
       0.25706136 0.07110778 0.17320311 0.053217124
000120 72 86 06 be 15 8c af bc 84 5e dd bd 50 c4 0e be
       -0.13137224 -0.021429101 -0.10809043 -0.13942075
000130 b7 ea 81 3e 4c a5 9a bd b9 7c 13 3d 05 c7 a0 bd
       0.25374386 -0.07551059 0.036007617 -0.0785046
000140 8b fa 8b bd 5d c2 27 3e 4c d7 2d 3e 2c 9e 84 3e
       -0.06834897 0.16382737 0.1697666 0.25901926
000150 f7 b2 09 3b 49 05 92 3b 74 3e 7f bd 8f 76 82 3d
       0.0021011212 0.0044561964 -0.06231542 0.063702695
000160 71 7f fa 3d d1 33 05 be 42 c4 ba 3d 79 ce c4 3d
       0.12231339 -0.13008048 0.091194645 0.09609694
000170 6a d4 11 3e 08 39 51 3d 4a c7 aa 3d b0 55 8e 3d
       0.14241186 0.05107978 0.083387926 0.06949937
000180 84 d5 da 3d d9 85 35 3e 45 7c 5a 3d 75 b4 89 3e
       0.10685256 0.1772684 0.05334117 0.2689549
000190 07 0e cd bd e6 95 3d bd c7 a3 dd 3c 6a bd 64 3e
       -0.10012441 -0.046285532 0.027055634 0.2233788
0001a0 d1 c5 07 bd cc 46 7b bd 62 9f 58 3c 34 a8 a9 3d
       -0.033147637 -0.061346814 0.013221594 0.08284035
0001b0 5f 0d 36 be fe 17 65 bc 51 dc 8b be 90 07 0c bc
       -0.17778538 -0.013982771 -0.27316526 -0.008546725
0001c0 2e 0e ec 3c 65 4a 91 bc 5f 0d 42 3d 92 b3 54 3d
       0.028815355 -0.01773567 0.047376033 0.051929064
0001d0 28 97 fb 3d a3 f6 80 bd 24 7e 5a bd b2 97 7f 3d
       0.1228469 -0.06297042 -0.053342953 0.062400527
0001e0 4b 2c e5 bd 53 1a c7 3d 42 99 6a 3e b1 c1 23 bb
       -0.11190089 0.09721818 0.22910026 -0.0024987275
0001f0 4f a5 81 3b 9f 93 f5 3d a2 7d 4c 3d e9 20 e6 3d
       0.003956474 0.11991047 0.0499245 0.11236746

actor_mean.0.weight f4 [4, 128]
000000 d8 c6 21 bd 49 d3 f5 3c 2f 51 bc 3b 70 49 d3 be
       -0.039496273 0.030007975 0.0057469825 -0.41266966
000010 07 a6 89 be f9 9c 8b bd 7f c3 40 3e 6e f2 b4 3d
       -0.2688448 -0.068170495 0.18824576 0.08835302
000020 89 be 16 3d fa 79 69 3d 03 b4 41 bc 21 ac c2 ba
       0.036802802 0.05700109 -0.011822703 -0.0014852324
000030 ef a1 00 3e 9c ef 8f 3c fa 25 a5 bd 5f 53 32 bb
       0.12561773 0.01757031 -0.08063884 -0.0027210338
000040 09 09 72 3c f4 99 f6 bc 64 84 0d be 80 bc ca 3d
       0.014772662 -0.030102707 -0.13820034 0.09899235
000050 43 2c 97 3d ed de 59 3d f5 97 1c 3e 00 5c 8d bd
       0.07381489 0.053191114 0.15292342 -0.06902313
000060 24 7c ef bd ef 08 91 3c f0 73 c4 3c 00 db 9c 3d
       -0.116936 0.017704455 0.023981065 0.076589584
000070 cc 28 04 be 48 00 be 3d 46 6e 0f be 25 1e 15 bd
       -0.12906188 0.092773974 -0.1400691 -0.0364057
000080 e2 30 0e 3e 04 a3 e6 3d ac 10 ce 3d 8b cf 9d 3d
       0.13885835 0.112615615 0.10061774 0.07705601
000090 97 5d 87 bd 1c d3 19 3e 1d bf 0b 3d 6b 0d a3 be
       -0.06609648 0.15021938 0.034117807 -0.31846175
0000a0 7b 59 36 bd 77 c6 47 be 41 ac e2 bb 06 91 0a bc
       -0.04451893 -0.19509302 -0.006917507 -0.008457428
0000b0 4f e3 83 3c 2a 2b 95 be f1 3f 59 be 2d 1b ef bd
       0.0160996 -0.29134494 -0.21215798 -0.11675105
0000c0 cd fa 2a be 95 2d 16 be 23 cf 9e be 7a 5f 5b be
       -0.16697235 -0.14665826 -0.31017408 -0.2142314
0000d0 9e dd 19 bd ac 40 fa 3d f8 a5 db 3d 21 63 f1 bd
       -0.037564866 0.122193664 0.107250154 -0.117864855
0000e0 cd e5 25 bd f9 07 90 3d 45 75 99 bd 73 6d ab bd
       -0.04050236 0.07032771 -0.074930705 -0.08370485
0000f0 8a c7 06 be e0 62 7e 3d 22 7b a0 3d 4c b0 61 be
       -0.13162056 0.062106013 0.07835986 -0.22039908
000100 c2 57 c6 be 3b 3b db bd ec 7f e4 3c 2d 36 a5 be
       -0.3873883 -0.10704657 0.02789303 -0.32267895
000110 94 e0 ae 3d ce cc 0f be 74 58 98 bd d2 34 3f 3e
       0.08538929 -0.1404297 -0.07438746 0.18672493
000120 8a 65 2e 3e dd 47 29 be e5 02 92 bd f5 f2 4b 3e
       0.17030922 -0.1653132 -0.07129458 0.199169
000130 01 f6 4d 3e 39 be 0e be 3f 40 bf bb 6e 5c c4 be
       0.20113374 -0.13939752 -0.005836516 -0.38351768
000140 6b 50 e0 3d 2e bd 98 3d fd 7e ae bc 2a 89 21 bd
       0.109528385 0.07457958 -0.021300787 -0.03943745
000150 1b 0c ee 3d d4 41 df 3d fe 84 d8 3d 15 2d 5e bd
       0.11623403 0.109012276 0.10572241 -0.054242212
000160 0e 46 39 3e 46 ee a3 be f1 df 0b be 94 05 96 be
       0.1809313 -0.32017726 -0.13659646 -0.2930113
000170 aa 79 e7 bd b3 81 01 bd dc 46 6f 3d 23 05 22 bc
       -0.113025025 -0.03161783 0.058417186 -0.00988892
000180 6b db 96 3d c7 1c 24 3e 99 f0 c3 bc 15 15 53 3d
       0.073660694 0.16026603 -0.023918437 0.051533777
000190 8b 95 45 3c 8e ef 50 be 96 5f cf bd 72 6e ca 3c
       0.01205958 -0.20403883 -0.101256534 0.024710868
0001a0 0c ae 98 bd ac e7 65 be b0 d2 02 3e c3 04 2f 3e
       -0.07455072 -0.22451657 0.12775683 0.1709166
0001b0 5f 32 88 be 41 87 bd 3d a4 24 d3 bc 66 d6 6d 3e
       -0.2660093 0.09254313 -0.025774308 0.23226318
0001c0 fd 96 aa 3e bc ed 0b be 4f 08 80 be 79 5a a0 3d
       0.3331832 -0.13664907 -0.2500634 0.07829756
0001d0 54 3f 99 bd e2 bc 0c be 9e 50 f6 bd db a2 cf 3d
       -0.07482782 -0.13743928 -0.12027095 0.10138484
0001e0 41 49 f2 bc e9 be 10 bd 7e 2d 2a bd 5d ff 8f 3e
       -0.029575946 -0.035338316 -0.04154729 0.28124514
0001f0 9a 87 2a 3d 99 ce 19 bd 65 05 a1 be 52 ea fa 3d
       0.041633226 -0.037550543 -0.31449428 0.12251724
000200 d2 e6 25 be c7 5f 98 3d 9f 35 ee 3a 66 30 dd 3d
       -0.16201332 0.07440143 0.0018173939 0.10800247
000210 8c 19 8f 3d da 25 7a 3e 7a 20 0a be 4e 1f 39 be
       0.069872946 0.24428502 -0.13488951 -0.18078348
000220 cb 12 33 3e 52 b1 af 3d 23 24 b4 3d 55 ee ec bd
       0.17487638 0.08578743 0.08795955 -0.11568896
000230 4f 46 cd 3d 99 d6 dd 3e 85 8e 0a 3e 98 91 b6 3d
       0.10023176 0.43327788 0.1353093 0.089144886
000240 33 28 ca 3d 9b c7 64 3c cd 4b 56 3e 3f d1 09 3e
       0.09870949 0.013963605 0.20927353 0.13458727
000250 52 28 aa 3c b3 2b 81 3d 35 c7 79 3d 84 55 c8 3d
       0.02077118 0.06307163 0.060980994 0.09781936
000260 ef 8a 28 bd 2a 65 8d 3e 55 78 09 3f aa 2c ce 3c
       -0.041148122 0.27616245 0.5369924 0.025167782
000270 bc 2d 83 3e 8d 55 89 3d d6 23 86 3e 63 3f 1c 3e
       0.2562083 0.06705771 0.26199216 0.15258555
000280 38 9d ff bd f5 ea 6c bb 38 48 fd bd a3 68 86 bd
       -0.12481159 -0.0036150787 -0.1236729 -0.065629266
000290 b9 ca c6 3e 39 3a bd 3d 41 7b f8 3d a0 0b 2c be
       0.3882654 0.09239621 0.12132884 -0.1680131
0002a0 68 b8 34 be 3c 9b 84 3e 7e c7 a6 3d e4 a8 8e 3d
       -0.1764847 0.25899684 0.08143519 0.06965807
0002b0 1b 61 1e be 31 e5 24 3e 0d 49 84 bd f6 38 0d 3d
       -0.1546673 0.16103055 -0.06459246 0.03447815
0002c0 64 b4 87 be 70 ae 23 be f1 03 29 3e b1 fb 60 3e
       -0.26504815 -0.15984511 0.1650541 0.21971013
0002d0 03 15 6f 3d e9 06 ef bc 31 c1 f6 bb cd 3c 56 bd
       0.058369648 -0.0291781 -0.0075303544 -0.052304078
0002e0 68 9e 20 3e ff 57 9a bd be 33 cc 3d f5 14 a7 3d
       0.15685427 -0.07536315 0.099708065 0.08158294
0002f0 a2 4f 10 3d 32 47 18 3d 54 79 16 3d 4c b0 34 3e
       0.035232194 0.037177272 0.0367368 0.17645377
000300 4c 30 62 be c2 5f cb ba 4a 10 b1 bc 72 b4 6b bd
       -0.22088736 -0.0015516209 -0.021614213 -0.057545133
000310 bb 4b b4 bd 5c 26 7f 3c fc 32 6c bc db 65 11 3e
       -0.08803507 0.01557311 -0.0144164525 0.14199011
000320 20 4d e6 3e d4 08 5f 3d fc 24 db 3e fd b6 8b be
       0.44980717 0.05445178 0.42801654 -0.27288046
000330 d0 ae 07 bc df c8 a0 3e e5 da 20 3d 98 0f 85 be
       -0.008281425 0.31403252 0.039271254 -0.2598846
000340 a4 1a 23 3e 2c 37 fb 3a 21 65 3e bd 7a 0f 28 bd
       0.15928131 0.0019166223 -0.046483163 -0.041030385
000350 6f b9 4d 3f 12 83 90 3d 59 2e 06 3e a1 ee 55 be
       0.80361074 0.0705625 0.13103618 -0.20891811
000360 57 2b 92 3e 33 a2 8c 3e aa 8d f3 3d e6 13 1e bd
       0.2854869 0.27467498 0.11892255 -0.038593195
000370 13 c8 c2 bd a2 fc 97 bd dc 03 6d be 90 10 89 3c
       -0.095108174 -0.07421233 -0.23146003 0.01673153
000380 b7 aa e7 3d 95 89 9f bc b7 d6 19 3e 3f db 33 be
       0.11311858 -0.019474784 0.15023313 -0.17564104
000390 0b e5 fc bb 5b 7d 12 3d 2a dd a6 3d f4 c8 5e 3c
       -0.0077177337 0.03576408 0.081476524 0.013597716
0003a0 15 60 c2 3d 2d c1 31 3d 0f 08 66 3d af e8 00 be
       0.094909824 0.043397117 0.05616003 -0.12588762
0003b0 74 19 52 bd 05 31 1d 3f 29 31 b6 bc 51 1f 92 bd
       -0.051293805 0.6140292 -0.022240238 -0.071348794
0003c0 24 5f 89 bd 10 90 54 3e de 0e d5 3d a2 bb a2 3b
       -0.067076 0.2075808 0.10403226 0.004966215
0003d0 c0 b5 e6 bd 1b b9 41 3f 68 dc 8c 3d fb 9e 81 3d
       -0.11265135 0.75673074 0.06877977 0.06329151
0003e0 c9 cc 7a bc b3 85 00 be 56 e2 8a 3d 51 1d 4e bd
       -0.015307614 -0.12551002 0.067814514 -0.050320927
0003f0 07 ed 9c 3d 6e a5 62 bd 6a 8e a2 3e e8 c0 20 be
       0.07662397 -0.055333547 0.31749278 -0.15698588

actor_mean.0.bias f4 [4]
000000 cf 17 1c bc 5c 67 e1 bd d4 63 b5 3d 0b 7e 82 bd
       -0.009527161 -0.11006042 0.08856931 -0.06371697

critic.0.weight f4 [1, 128]
000000 aa 00 90 bd ed fe 16 3f db f7 89 3e c7 fd 72 be
       -0.07031377 0.58982736 0.2694691 -0.23729621
000010 be bc 06 be f4 f9 90 be dd 3d e3 bd 9f 7d e6 bd
       -0.13157937 -0.283157 -0.11095784 -0.11254429
000020 e4 90 c5 be 51 f9 a4 bc 91 98 6b bf 00 34 45 3e
       -0.38587105 -0.020138415 -0.9202967 0.19258118
000030 65 0a 9c be 54 d1 a8 bd 94 2a 82 3e f4 71 09 3f
       -0.3047668 -0.08243051 0.2542311 0.53689504
000040 d6 99 95 be 45 76 97 3e f4 80 a4 3e 78 29 dd 3e
       -0.2921893 0.2958242 0.32129633 0.431957
000050 16 37 4d 3e 7e dd 85 3d 93 cd cc be 29 21 e9 be
       0.20040545 0.06536387 -0.4000059 -0.45533112
000060 de 6f f0 be 8f e0 cf bd 1a 46 54 3e d0 e9 ba 3e
       -0.46960348 -0.10150253 0.20729867 0.3650651
000070 28 08 8e 3e 3f 19 f3 be 67 e0 ee bc b4 fe f2 be
       0.27740598 -0.474802 -0.029159738 -0.47459948
000080 58 55 55 bd 9b 39 e7 be ee 53 2a be 81 fc 19 3c
       -0.052083343 -0.45161137 -0.16633579 0.0093985805
000090 38 cb 51 3e 5b 57 9e 3e 25 71 02 3f 20 39 e5 3d
       0.20487678 0.30926022 0.50953895 0.11192536
0000a0 a7 aa f2 bc 2a 05 99 bb 5a b8 e8 3e 3b 09 2d bf
       -0.029622389 -0.004669805 0.4545315 -0.6759221
0000b0 ad 79 ba 3e 05 ef 9e 3d bb 98 87 bd 8e 4f c1 3e
       0.36420956 0.07760433 -0.06620928 0.37756008
0000c0 2e 55 cc be 86 27 4f 3e 6d 15 03 bf 17 a8 e3 37
       -0.39908737 0.2022992 -0.5120457 2.7138782e-05
0000d0 e0 36 3a bf ac 69 ce 3e 9f e8 21 be 98 7d 68 bf
       -0.7273998 0.40314996 -0.15811394 -0.9081664
0000e0 76 ba 25 bf c4 f7 8e be 61 88 98 3d 4b 66 d7 3e
       -0.6473764 -0.27923405 0.07447887 0.4207023
0000f0 06 ff 8f 3e 63 93 be be 46 81 03 bf 9f 1f 25 3e
       0.28124255 -0.37221822 -0.5136913 0.16125344
000100 aa 46 5f 3e 4c 9f 02 bf e0 3a 4a 3d c7 8f ce 3d
       0.218043 -0.5102432 0.049372554 0.10086017
000110 a2 d8 94 3e bb a1 c8 be e2 2b 21 bf fe 9e 84 3d
       0.29071528 -0.3918589 -0.62957585 0.06475638
000120 fe 92 82 be bd 01 34 be c3 6c cf ba 4f 3f 36 3d
       -0.2550277 -0.17578788 -0.001582526 0.04449397
000130 94 96 a8 3e 69 7e 12 3d 86 ed bd bd 0e d4 e6 bd
       0.32927382 0.035765085 -0.092738196 -0.11270915
000140 7d b9 c7 bb be e8 a0 bd 41 8c c8 3e 83 b8 56 3e
       -0.00609511 -0.07856892 0.39169505 0.20968823
000150 e3 9b 39 3e 8f 55 94 3d 26 63 8a be 4e 92 90 bd
       0.18125872 0.072428815 -0.2702877 -0.070591554
000160 20 38 74 3e c1 c4 85 be 1b 76 67 bf 69 0b 0f bf
       0.23849535 -0.26126674 -0.9041459 -0.55876786
000170 60 34 b9 3d a2 3c 52 bf 3a ed 61 3e 39 95 20 3f
       0.09043193 -0.8212377 0.22063151 0.62727696
000180 a1 18 ac bd 3a 91 cc be 26 f0 2d bf 97 ba 6b 3e
       -0.08403135 -0.3995455 -0.6794456 0.23020397
000190 b4 48 bb be 5a 0f 38 3e ee b6 aa be 68 42 aa 3e
       -0.36578906 0.17974606 -0.3334269 0.3325379
0001a0 83 c5 4c be 67 4b 8a 3d 17 78 c1 bd 36 7e fe be
       -0.1999722 0.06752663 -0.094467334 -0.49705666
0001b0 31 ba a7 be 4d cb f6 3c a9 ff 15 bf 25 67 a4 be
       -0.3275924 0.030126238 -0.5859323 -0.32109943
0001c0 ed 09 7d 3e 8e b3 2a be 33 d2 68 3d 68 31 e8 be
       0.24710818 -0.16670057 0.056841087 -0.45350194
0001d0 b2 53 1f bf e8 d4 00 3e 13 db 00 be 81 92 5e 3e
       -0.62237084 0.12581217 -0.1258357 0.21735574
0001e0 56 d8 84 bf 45 6d 7c be 4c 74 13 3f 3c 2d cf 3d
       -1.037852 -0.24651058 0.5759933 0.1011605
0001f0 c8 ab 02 bf 76 77 5d 3e 2c 82 8c be 19 28 ee bd
       -0.5104337 0.21627602 -0.27443063 -0.11628742
