best_model_episode_2400.pth (torch, 561701 bytes, 10 tensors)

actor_log_std f4 [4]
000000 3a 26 1d c0 d1 95 13 c0 e2 37 0f c0 5b c4 37 c0
       -2.4554582 -2.306019 -2.2377858 -2.8713596

shared.0.weight f4 [256, 24]
000000 99 36 3e be 30 3f 06 3f a2 b0 21 bf a7 30 03 3f
       -0.18575515 0.52440166 -0.63160145 0.5124611
000010 5f 1b f5 bd 81 01 59 3d f3 42 17 bd 63 c9 ea bd
       -0.11968111 0.05297995 -0.036929082 -0.11464193
000020 5b be 27 be 1b 74 6a be ef 9a 32 bd 2a f3 3e 3d
       -0.16381209 -0.22895853 -0.043604787 0.046618618
000030 36 97 69 3e 69 db 7a 3e 79 9e 9e 3c 9c 30 14 be
       0.22811589 0.24497761 0.019362675 -0.14471668
000040 19 8e 2e 3c 96 53 07 be 58 e1 85 be c8 36 e7 bd
       0.010653996 -0.13215479 -0.26148486 -0.112897456
000050 9f f7 7f be 64 31 5f be 63 d1 5d be 6f 70 f0 3c
       -0.24996804 -0.21796185 -0.21661906 0.029350488
000060 7f 1c 83 bf 55 09 49 be 50 8c 24 bf 33 22 98 be
       -1.0243071 -0.19632466 -0.642766 -0.29713592
000070 aa 5f e9 3e c5 96 80 be 38 94 83 3e 1d 88 24 bd
       0.45580798 -0.25115028 0.2569902 -0.04016887
000080 f0 df 14 be 28 7d 8f be 02 f9 93 be ab 71 15 3d
       -0.1453855 -0.28025174 -0.28900915 0.036485355
000090 4d 4e c5 bc ae 83 18 be f3 1b 56 be 21 fd 91 be
       -0.024085188 -0.14893982 -0.209091 -0.28513435
0000a0 5c cc 19 be 42 da 78 be b3 d2 b0 bd a7 fd 1e 3d
       -0.15019363 -0.24302009 -0.08633938 0.03881612
0000b0 98 11 31 bc df 0f 9d be 76 37 b7 bd 86 5f da bd
       -0.010807417 -0.3067617 -0.08946125 -0.10662751
0000c0 f1 bc 67 3e df bf 52 bf 83 17 07 3f b3 97 8e 3e
       0.22630669 -0.8232402 0.5277025 0.27850112
0000d0 05 7e 9f be e5 e6 98 3d 67 5f 01 3f 04 95 97 3e
       -0.31150833 0.07465915 0.505362 0.29605877
0000e0 aa de 32 bd 69 58 5e 3e e6 04 da 3c c1 3b fd bc
       -0.04366938 0.21713413 0.026613664 -0.030912282
0000f0 34 6b 2f 3d 4a 73 ac bd 0b 3e 80 bd 3c fb 5e be
       0.042826846 -0.08420427 -0.06261834 -0.21775526
000100 66 8a e4 bd ad 1d 7f be 13 c0 9f bd e3 de d3 be
       -0.1115921 -0.24913664 -0.07800307 -0.41380987
000110 7c f3 e8 be 7a 21 56 be 86 72 8a 3e d6 93 74 3e
       -0.45498264 -0.20911208 0.270405 0.2388452
000120 d4 95 a2 bb 08 30 c3 be 53 8a 9d be 2a 26 39 bf
       -0.0049617086 -0.38122582 -0.30769596 -0.7232386
000130 91 f2 8c bc b9 20 e2 3c 1b 22 90 3e 2a 87 1f 3d
       -0.017205508 0.027603494 0.2815102 0.038947262
000140 08 c5 0b be 3b 4c 35 bf ee d8 2d bd 4d f7 02 be
       -0.1364938 -0.70819443 -0.04244321 -0.1278965
000150 69 58 9e bb e0 8f ed 3d 57 74 57 3d d6 ba 76 be
       -0.0048323167 0.115997076 0.052601185 -0.2409471
000160 ca 51 3a be 85 e1 8d 3a d4 ec 25 3c a5 6b 7f bd
       -0.18195263 0.0010824656 0.010127265 -0.062358517
000170 aa 82 27 3e ff 65 fb 3e c6 79 53 be 87 87 a8 be
       0.16358438 0.49101254 -0.20651922 -0.329159
000180 60 3f 0c 3f 2c 5e 7f 3d 6e 66 89 3d 98 89 db be
       0.547842 0.06234567 0.0670899 -0.42878413
000190 00 54 9a be 64 60 88 bd f5 eb 78 be c1 ba 62 be
       -0.30142212 -0.0665901 -0.2430876 -0.22141553
0001a0 4c 84 e1 bd f9 7c 38 bf d2 7e a1 be 79 55 ba be
       -0.11011562 -0.72065693 -0.3154207 -0.36393335
0001b0 1e cd 46 be cb 33 7c 3d db af b4 3e 11 07 46 3e
       -0.19414183 0.06157283 0.35290417 0.19338633
0001c0 31 cb 5f 3e cb 51 35 bd 10 3d 17 3a 89 a2 5b 3d
       0.21854855 -0.044267457 0.0005769292 0.053621802
0001d0 db 14 08 3e 87 a9 0f be 6f 77 9c bd 76 67 47 bd
       0.13289206 -0.14029513 -0.07639968 -0.048682652
0001e0 85 1b 98 3d 52 a7 14 3e 4a 17 e2 3d 55 91 69 bf
       0.07427124 0.14516953 0.11039598 -0.91237384
0001f0 d6 c8 aa be 31 ed e9 bd d5 a9 be be 61 cf 31 be
       -0.3335635 -0.11422194 -0.37238947 -0.17364265
000200 4f bc 00 3d ee f9 13 bd 61 cb 74 3d 2f 1b 12 3e
       0.031429585 -0.036127023 0.05976427 0.14268182
000210 80 a4 4c be 20 44 72 3e a8 fe b8 be 90 a7 bd be
       -0.19984627 0.236588 -0.36131787 -0.37041903
000220 35 f5 df be bb 40 e7 be c6 3d 2f be 9b 9e 8c be
       -0.43741766 -0.45166573 -0.17113408 -0.27464756
000230 16 5a 32 be a1 57 bd be 59 27 ca 3e 2d 6c 8b 3d
       -0.17417178 -0.36980918 0.39483145 0.06807742
000240 ab 93 76 bd 1a ce 04 bf 36 25 e8 bb 85 e1 af 3e
       -0.06019942 -0.51876986 -0.007084514 0.34351745
000250 df 9b 97 3e 2c bb 9d bd ed fc 1a be 4e 5a 1d be
       0.29611108 -0.07701716 -0.15135546 -0.1536648
000260 0e e7 7b 3c 47 ef 88 be 65 05 e5 3d 20 58 bd be
       0.015374912 -0.26745054 0.111826696 -0.36981297
000270 c5 51 cc 3d 90 9c 87 3d 68 e7 6a bc b4 e4 4b be
       0.09976534 0.06621659 -0.014337398 -0.19911462
000280 6a 87 b8 3d 32 e4 60 bd 9e 69 a3 bd d4 c2 99 be
       0.09010203 -0.054905124 -0.07979129 -0.30031455
000290 e4 79 45 bd 8f 38 3a be fb 14 33 be 53 96 22 3e
       -0.048211947 -0.18185638 -0.17488472 0.15877657
0002a0 b5 21 3e 3e 7f 52 9f 3c af 14 90 be f9 d9 7d be
       0.18567546 0.019448517 -0.2814078 -0.24790181
0002b0 39 71 17 3e b8 3e 14 be 0d d6 e7 bd 91 56 04 be
       0.14789285 -0.1447705 -0.11320124 -0.12923647
0002c0 4e 1e 19 be df 37 4d be 7c 67 fc 3d 16 36 0f be
       -0.14952967 -0.20040844 0.123244256 -0.13985476
0002d0 0a de 07 bc b6 7f 00 be 74 bc c6 bd a1 c6 53 be
       -0.008292684 -0.12548718 -0.09703913 -0.2068124
0002e0 03 13 d9 bc 81 b5 cb bc cc 27 65 bd 3e 78 2f be
       -0.026498323 -0.024866821 -0.055946156 -0.17135713
0002f0 69 22 43 be a0 09 db bd 9d ba 15 be c2 9c 98 bd
       -0.19056095 -0.10695195 -0.14621969 -0.07451774
000300 8b 53 1a 3e 6d ba e6 3f 19 16 90 bf 62 ff b7 3e
       0.15070932 1.8025643 -1.1256744 0.3593703
000310 17 a3 1a 3e 7a 4c d4 3d df 6a a2 3d 31 33 fe 3c
       0.15101276 0.10366149 0.0793054 0.03103027
000320 9a ed 4b 3d 97 3b 43 be 8a db 10 3b b6 c5 02 be
       0.04978714 -0.190657 0.0022103512 -0.12770733
000330 45 d2 70 3d a0 20 27 bd c9 f8 fc bd 3f e9 62 be
       0.05879428 -0.040802598 -0.123521395 -0.22159289
000340 d3 66 0a be 81 44 13 bc 85 ad 7d 3d 59 30 51 3d
       -0.13515787 -0.008988501 0.06193306 0.0510715
000350 90 a7 2c be 3e 9f 0b be ac 7b bf 3b c9 fa 7c 3e
       -0.16860795 -0.13634965 0.0058436003 0.24705042
000360 69 74 8c 3d 87 b8 e9 be 27 9f 72 be d3 19 77 be
       0.06858141 -0.45648596 -0.23693524 -0.24130945
000370 82 1e 37 3e 0e 31 83 3d 06 a8 eb bc c6 9f d8 3d
       0.17882732 0.06405841 -0.028766643 0.10577349
000380 37 d4 67 be 2f 6f 5a be 40 0d 20 3e 5c 22 27 bd
       -0.22639547 -0.21331476 0.15630054 -0.040804252
000390 ee b9 16 be 60 d4 a2 be c8 1a 64 be ac 11 be 3d
       -0.14719364 -0.31802654 -0.22275841 0.092807144
0003a0 0d 52 18 3d 85 d9 e2 3d 44 a9 43 3d 78 2d c7 bb
       0.037187625 0.11076645 0.047768846 -0.0060784183
0003b0 5a b4 8e bd 22 68 85 be 1f 67 b1 be bd 00 86 be
       -0.06967993 -0.2605601 -0.34648988 -0.26172438
0003c0 41 3e cb 3e 76 2a 5d 3f 36 63 16 bf 47 62 ef be
       0.39695933 0.86392915 -0.58745134 -0.46754667
0003d0 58 59 a0 3d 27 ad 28 3d 1c 31 ad be b7 84 f8 3d
       0.07829541 0.041180756 -0.3382653 0.12134688
0003e0 a5 6f 03 3e 45 f1 88 bd b2 ac 6d bd e5 ec 14 be
       0.12835558 -0.066866435 -0.058026023 -0.14543493
0003f0 a1 50 85 3d b3 7c f4 bd 18 f4 31 be ab e6 a4 be
       0.06509519 -0.11937847 -0.1737827 -0.32207236

shared.0.bias f4 [256]
000000 b4 c1 76 be d5 f5 8f bd af 92 8d 3d 43 bb 87 bd
       -0.2409733 -0.070293106 0.06912743 -0.06627514
000010 33 fb 04 be ff 37 2f 3e 77 69 95 3d 12 5d b6 3c
       -0.1298645 0.17111205 0.072955064 0.022261176
000020 4d fc 70 3c f2 e0 36 3e 59 46 35 be 06 f4 17 3f
       0.014708591 0.17859247 -0.17702617 0.59356725
000030 51 7b 2e 3e 7a e6 02 3d 09 b6 98 3e 32 e2 80 3d
       0.17039229 0.03195808 0.29826382 0.06293143
000040 b1 6e dc 3d 2f d7 e5 3d 78 b8 7d be ec 5e 4f 3e
       0.107633 0.11222684 -0.247774 0.20251054
000050 29 cd c0 3e 8d c2 79 3d e9 56 86 3d f1 ce 3f 3d
       0.37656525 0.060976554 0.065595455 0.046828214
000060 19 62 61 3e d6 65 8b 3e 9e 5d de 3c bc c5 6d 3e
       0.22010078 0.27226132 0.02714425 0.23219961
000070 21 56 52 3e 04 1a 0f 3d 5c 24 5a 3e 88 54 a2 bc
       0.20540668 0.03493692 0.21302933 -0.019815698
000080 01 cd d9 bc 04 33 82 3e 2b fc b7 3d a4 46 88 3d
       -0.026587011 0.25429547 0.08983644 0.06654099
000090 f5 e1 23 be 3f 05 ce 3d 34 0b f1 bd f2 de 3e 3e
       -0.16004165 0.10059594 -0.11769715 0.18639734
0000a0 6f 46 b2 be cb b4 2d 3e 14 dc d2 3e c1 95 33 be
       -0.34819362 0.16963498 0.4118353 -0.17537595
0000b0 43 55 13 bd 86 f7 13 3d 90 f0 61 3e 4e d7 e5 3e
       -0.035969984 0.03612473 0.22064424 0.44890827
0000c0 d2 0d 3a bd e1 60 16 be 8d 22 45 bd cc 99 b4 bc
       -0.045423336 -0.14685394 -0.048128653 -0.022045992
0000d0 f0 6f 13 be 08 da 05 be 36 ec b2 3e 24 12 b2 3e
       -0.1439817 -0.13071454 0.3494584 0.34779465
0000e0 a5 f5 0a 3e 6a 4a 80 3e ad f1 22 bd f8 f7 df 3d
       0.13570268 0.25056773 -0.03978126 0.10935968
0000f0 5e e7 4a be 9e 41 9b 3e 29 2d 49 bd f1 50 b4 bc
       -0.19814822 0.303235 -0.049115334 -0.022011252
000100 a1 b5 18 be e9 6f 6a 3c e6 67 0a be e8 39 75 be
       -0.14913036 0.014308908 -0.13516197 -0.2394787
000110 57 3e 96 be 51 56 6c be 20 85 bf bd 6d 63 e9 bd
       -0.29344437 -0.23079802 -0.093515635 -0.11395917
000120 0d 24 52 3d 25 87 83 3d 1b c4 19 be 9b ee 39 be
       0.051303912 0.06422261 -0.15016215 -0.18157427
000130 93 32 96 be 4d 6a 7c 3d 39 66 b4 3e 7d 8d 7a 3d
       -0.2933546 0.061624814 0.3523424 0.06117009
000140 89 c2 82 3e 98 ae 18 3e 33 c0 ae be e5 58 23 bd
       0.25539044 0.14910352 -0.3413101 -0.0398797
000150 25 32 98 bd 0e 5a 07 3e f3 05 bb bd 71 37 01 3e
       -0.07431439 0.13217947 -0.09131994 0.12618805
000160 af f1 7d bd 26 17 c1 bd e0 46 90 3d 47 be 4a 3e
       -0.061998066 -0.09428243 0.07044768 0.19799148
000170 3d b8 28 be 13 b2 5b be 34 11 6a 3e 7c 1f 32 be
       -0.16476531 -0.21454649 0.22858125 -0.17394823
000180 ee be f3 bd 41 3b 18 bb 13 a5 aa 3d d2 cd 51 bd
       -0.11901651 -0.0023228677 0.08332267 -0.051221676
000190 76 7f 7e be 90 62 f0 3e b9 10 fe bc 7c 42 4e 3e
       -0.2485331 0.46950197 -0.031013833 0.2014255
0001a0 1e fc 65 3d 53 f4 8c be e3 f5 cb bd 23 d0 20 3e
       0.05614864 -0.27530155 -0.099590085 0.15704398
0001b0 33 fd 9f be 46 53 a1 bc d2 64 90 3e 6d 1d 3e be
       -0.31247863 -0.019693028 0.2820192 -0.18565913
0001c0 08 cc 31 bc 25 f7 e3 bc 52 53 dd 3d 00 cc dd 3d
       -0.0108518675 -0.027827809 0.10806908 0.108299255
0001d0 30 c7 10 be a9 27 68 bd d1 15 82 3e 4d d6 19 be
       -0.14138484 -0.056678448 0.2540727 -0.15023156
0001e0 35 65 9f 3e c6 03 31 3e da fa ab bd ec ac 94 bd
       0.31131902 0.17286596 -0.083974555 -0.07259545
0001f0 08 9a a7 3c ed 3a 9f 3d e7 26 cf 3d 0b 8d d7 3d
       0.02045919 0.07774911 0.10114842 0.10524949
000200 38 c2 0e bc 63 a7 17 3e 7a 21 b5 3e 26 dd c7 3e
       -0.008713298 0.14809947 0.35377103 0.3903591
000210 3c e3 58 3d 74 5a f8 3d ea a6 20 bd 8f 50 98 3c
       0.052951083 0.121266276 -0.03922168 0.0185931
000220 fe d8 99 be 4c 05 d5 bc f3 fa 02 3e 41 49 19 3e
       -0.30048364 -0.026003502 0.12791042 0.1496935
000230 a7 dd d0 3e 43 b1 11 3e 76 cc 4c 3d 1e f0 e7 bd
       0.40794107 0.14227776 0.049999677 -0.113250956
000240 89 de 9d 3e 48 8d 2f 3e 72 9a 0d bb 97 b3 df bd
       0.30833843 0.17143738 -0.002160695 -0.10922926
000250 dc 3a 44 be 46 99 86 be ef c8 a6 3d 79 17 11 3e
       -0.19163078 -0.26288813 0.08143794 0.1416911
000260 48 55 c3 3a d4 69 a6 bd 6f 26 80 bd a8 1b 02 be
       0.0014902735 -0.08125654 -0.062573306 -0.12705863
000270 ac 43 f6 bd 8b c2 59 3d ea 63 f7 3d 49 5a b1 bd
       -0.12024626 0.053164046 0.12079604 -0.08659799
000280 7e 69 0b 3e cc a3 0d 3e f7 c3 2f bd bc 71 86 3e
       0.13614461 0.13832015 -0.042911496 0.26258647
000290 68 10 36 3d 81 d6 05 3e 93 cd 17 3e ae a5 b0 3e
       0.04444924 0.13070108 0.14824514 0.34501404
0002a0 ef 0b ad 3e 87 09 77 3e 52 24 41 bd 32 e7 85 bd
       0.33798167 0.24124728 -0.04715378 -0.06538238
0002b0 fd 6e 14 bd 71 60 a1 bd 83 c2 0b 3e c4 7b b5 3e
       -0.03623866 -0.07879723 0.13648419 0.35445988
0002c0 34 98 01 3d de b1 bc bc d0 89 07 3d 13 46 a0 3c
       0.031639293 -0.023034032 0.033090413 0.019564664
0002d0 02 b6 7c be 69 5c 05 be fe eb ca 3d a2 f3 a4 be
       -0.24678805 -0.13023533 0.09908293 -0.32217127
0002e0 c1 86 c1 bd f9 4c b0 bd ce b5 03 3e 57 56 97 3c
       -0.094495304 -0.08608431 0.12862322 0.018473787
0002f0 ba c7 a2 3a 71 b8 85 3e 5e a8 b7 3e a0 e6 53 3e
       0.0012419142 0.2611728 0.3587064 0.20693445
000300 c3 b6 26 3e d1 48 b4 bd ea de 5f 3e e3 38 45 3e
       0.16280656 -0.08802951 0.21862379 0.19259982
000310 24 f3 0d 3e 74 e3 6b 3e 75 bf 92 3d b0 e8 48 3e
       0.13862282 0.23035985 0.07165424 0.19620013
000320 02 eb 7c 3e ca 9e 81 3e 35 91 88 bd 41 e1 20 bd
       0.24699023 0.2531646 -0.06668321 -0.03927732
000330 b1 2f 58 be f1 1d 78 bc a1 f6 87 bd c3 75 1d 3e
       -0.21111943 -0.015143857 -0.066388376 0.15376954
000340 a0 b7 63 be e1 da d3 bd f8 88 9d 3e bf 77 d1 bd
       -0.22238016 -0.10344482 0.3076856 -0.10227918
000350 0c 4d ca bd d7 4d 6e 3e dc 01 32 be 6b a7 2d be
       -0.09877977 0.23271881 -0.17383522 -0.16958396
000360 70 8b a9 bd d6 37 f0 bc 2a 3e 98 be df 3f c3 bb
       -0.08278549 -0.0293235 -0.29734927 -0.0059585418
000370 09 59 32 bb 6c 0c c3 bd d5 e5 47 3e 5d 1e d0 3d
       -0.0027213714 -0.09523854 0.19521268 0.10162041
000380 f5 bd 82 3e 95 e1 69 3e ab d9 d4 bc 3b e9 b0 bd
       0.2553555 0.22839959 -0.025982698 -0.08638235
000390 b3 a8 a2 3c 99 ac 04 be 77 a0 35 3c 14 85 dc 3d
       0.019855833 -0.12956466 0.011085621 0.1076757
0003a0 13 0b 77 be 76 ce 12 3e 31 37 58 be 58 61 99 3e
       -0.24125318 0.14336571 -0.21114804 0.2995708
0003b0 ac 83 d2 3d bf 38 e4 3d a3 d5 bf 3e 9f e0 3b bd
       0.10279021 0.11143636 0.3746768 -0.045868512
0003c0 16 aa d1 3e 53 04 aa bc f9 23 80 3c ea 12 bb 3d
       0.40950078 -0.020754015 0.015642153 0.09134467
0003d0 aa 00 80 bd 7f 37 75 bd d6 a5 c3 3d b6 6b ca 3c
       -0.06250127 -0.05986738 0.09553115 0.024709564
0003e0 2d 63 11 3e 6d 7e 8e 3d 81 2a 36 be fc f1 04 3e
       0.14197989 0.069577076 -0.17789651 0.12982935
0003f0 31 c1 cc 3c 19 06 08 be 7c de 45 3d 43 2e 49 3e
       0.024994465 -0.13283576 0.04830788 0.19646554

actor_mean.0.weight f4 [256, 256]
000000 10 8e b9 bb 3c 99 7a bd 08 63 a0 3b 69 9b 0f bd
       -0.005662687 -0.061181292 0.004894618 -0.03506032
000010 19 05 96 3c 6c f2 3f bd e2 b7 2f 3d 7c d4 72 bc
       0.018312978 -0.04686205 0.042899974 -0.014821168
000020 74 d7 6f bd 5b 1c 95 bd 00 7f 7a bc 3f ac 6c bd
       -0.05855508 -0.07280799 -0.015289068 -0.057781454
000030 59 dd 65 3c 45 8b fe bc 0a 1b 29 bd 5b ba c6 bd
       0.014029824 -0.031072268 -0.041285552 -0.09703513
000040 d9 4d ae bd 94 25 52 bd d2 1c db bd f5 ea 26 bd
       -0.08510942 -0.05130537 -0.106988564 -0.040751416
000050 87 ef 8f bd 11 d9 98 bc 18 65 1c bd a1 53 09 be
       -0.07028108 -0.018658193 -0.038182348 -0.13410808
000060 28 5b 86 3d 6e a3 19 3d 05 32 62 bc 6a a2 bf bb
       0.065603554 0.037509374 -0.013805871 -0.0058482187
000070 7a 84 4b 3c 21 25 ac bd 00 46 15 be 6e 0f 2c 3d
       0.012421722 -0.08405519 -0.14577484 0.042006902
000080 93 3d 00 be 33 ac 6d 3c 66 ee 94 3b 2a a3 c2 3c
       -0.12523489 0.0145063875 0.004545021 0.023759443
000090 83 a8 a5 3c d9 b1 ae bd 90 36 a6 3c 50 61 bf bd
       0.020221954 -0.085300155 0.02028969 -0.09344733
0000a0 c6 ae 1a 3b 0c 00 44 3d 80 f1 5c bd 05 a7 8c bc
       0.0023602708 0.047851607 -0.05394125 -0.017169485
0000b0 65 6e 51 bd 80 00 42 bd 4f f5 0a bb b7 da b1 bd
       -0.05113067 -0.047363758 -0.0021203344 -0.08684295
0000c0 3b 0c 23 bd 6b 2c 19 bc a8 f6 6a bd 01 b8 50 3d
       -0.039806586 -0.009348969 -0.057364136 0.05095673
0000d0 f3 36 77 3d ae 72 8a bd 6e 90 ab 3b b9 b2 5a bd
       0.060355138 -0.06760155 0.005235723 -0.0533931
0000e0 30 a4 84 3c f1 97 34 bd be 46 6f 3d 1c 74 8d bd
       0.016191572 -0.044090215 0.058417074 -0.06906912
0000f0 b1 79 4c 3d 38 16 99 bd fd 5f 1c bd d0 36 1c 3b
       0.04992074 -0.07474941 -0.03817748 0.0023836382
000100 12 38 a5 bc 3b 56 36 bd 6d ee e8 3c 27 7b c0 bd
       -0.020168338 -0.04451583 0.028434003 -0.093984894
000110 13 89 42 bd 7b ae 19 3c 51 76 06 3d 91 ef 87 3c
       -0.047494005 0.009379978 0.03282768 0.016593726
000120 4b 18 65 bd a0 e9 47 3c 67 49 c3 3c 74 a8 9b bc
       -0.05593137 0.012201697 0.023838712 -0.019001223
000130 a5 30 a7 bc e7 fb d7 3c a0 be 8a bd 99 3c f0 bc
       -0.020408938 0.026365234 -0.0677464 -0.02932577
000140 3c f7 7c bc 8c d5 ee 3c 4f 19 30 3d 5b aa 1e bd
       -0.015439805 0.029154561 0.042992886 -0.038736682
000150 54 f6 3e bd 2c 4c 92 3d b7 69 fe bc c8 1a 4c bd
       -0.046621636 0.07143435 -0.031056268 -0.049830228
000160 13 2f 01 3c aa bc 5b 3d 55 45 01 3d 4d 76 d7 bd
       0.0078847585 0.05364672 0.03156026 -0.10520611
000170 56 8f 61 bd 2e 15 23 3d e6 a5 e7 bc 29 e8 cd bc
       -0.055068336 0.03981512 -0.028277349 -0.025135117
000180 97 68 bb ba 0e 57 85 bd f0 36 41 bc 78 3b 2b 3d
       -0.0014298138 -0.06510745 -0.011792883 0.04180476
000190 28 9f 1c bd 01 67 6d bc 7b 1f 0e bd 63 36 98 bd
       -0.03823772 -0.01448989 -0.03469799 -0.074322484
0001a0 0c 55 5b bd 16 54 9f bc ce b6 bd bd e2 a1 05 3c
       -0.053547904 -0.019449275 -0.09263383 0.008156272
0001b0 a5 74 ae bd 6b 95 fb 3b ef bd 51 bc e5 f8 9b 3d
       -0.08518342 0.007677724 -0.012801631 0.07615832
0001c0 fc aa 58 bd 3a 0d 98 bd a5 5a 33 3d 1e 1a 08 bd
       -0.05289744 -0.07424398 0.043787617 -0.033228032
0001d0 24 5d b1 bc 95 7a d4 3c 1c e2 58 bc dc 34 95 bd
       -0.021650858 0.025937358 -0.013237502 -0.07285473
0001e0 a6 4e bf bd ef 8f cd 3c 3a 8e 11 3d 11 e3 09 bd
       -0.09341173 0.025093047 0.03553603 -0.033663813
0001f0 4c 66 2b bd 3e 33 e7 3c 1d 8f 69 3c 0e 57 d9 3a
       -0.041845605 0.028222676 0.014255312 0.001658173
000200 83 b4 82 bc c6 19 7a bd 10 43 36 3d ef 73 e4 bb
       -0.015955215 -0.061059736 0.04449755 -0.006971828
000210 48 23 40 bc 88 19 d3 bc 4a 56 3c bd 69 03 b1 bb
       -0.011727162 -0.02576901 -0.04598073 -0.005402018
000220 c1 8c 1d 3d 85 68 ce 3c 8d 50 15 bd d1 1d 5b 3d
       0.03846431 0.025196323 -0.036453772 0.053495232
000230 40 8c 33 3b f6 ce c3 3c b6 82 03 3d 49 6e 03 bd
       0.0027396828 0.023902398 0.032107078 -0.032087598
000240 c5 d4 35 bd e9 09 c7 bb 46 cc 02 be 63 70 d2 ba
       -0.044392366 -0.0060741794 -0.12773237 -0.0016055222
000250 01 f3 cc bd e7 4e 80 bd 10 e0 b1 bc a6 5c 0a 3a
       -0.10007287 -0.062650494 -0.021713287 0.0005278088
000260 17 ed 87 3c e0 52 4b bd 70 cc 5c bd d8 41 12 bc
       0.016592545 -0.049639583 -0.053905904 -0.008926831
000270 07 ea 3f bd 28 7b a7 bd ab f4 d6 3b 65 cb 6c bd
       -0.046854045 -0.08177787 0.0065599284 -0.05781116
000280 92 d4 29 bc 90 90 92 3c 73 c9 59 3d e0 8c 63 bd
       -0.010365622 0.017891198 0.053170633 -0.05555427
000290 34 fe 84 bb d6 30 66 bc c9 59 a1 3d 7d fc 4e 3d
       -0.0040586237 -0.014049729 0.07878453 0.05053376
0002a0 1e ad 30 bd c3 26 99 bc 1b ea 9f bd 3d 46 9d 3c
       -0.043133847 -0.01869524 -0.07808324 0.019198531
0002b0 88 8f 87 bd e7 48 de 3d a4 c1 78 bd 8e ef 66 3d
       -0.06619173 0.10853749 -0.060731545 0.0563808
0002c0 9f c6 00 3d ad 71 38 3d f7 cc b0 bd d0 b4 82 bd
       0.03143942 0.045030285 -0.08632844 -0.063821435
0002d0 d9 49 e4 bd 23 b0 01 bd 4c bb 1b 3d a4 0e 01 bc
       -0.11146898 -0.031662118 0.038020417 -0.007877026
0002e0 3e 23 85 3c 3a 9b 6b bc f3 77 93 3b 90 5d 70 bd
       0.016252156 -0.014380271 0.004500383 -0.05868298
0002f0 ea 9e 9d 3d df eb a9 bd 20 01 86 bd 70 7a 5e bb
       0.07696326 -0.08296942 -0.06543183 -0.003394749
000300 c3 5f 11 3d 2f 0f 3c bd d0 ba be 3c 76 6e 86 bc
       0.035491716 -0.045912918 0.023282439 -0.016410094
000310 9f 2e 1a be 10 eb a9 bd 0c ef 13 bd e1 1d 81 bd
       -0.15056847 -0.08296788 -0.036116645 -0.06304527
000320 29 d4 20 3d 6e 95 40 bd ef bf b6 bd 8d 69 50 bd
       0.03926483 -0.047017507 -0.08923327 -0.05088191
000330 0c c3 af bc b9 1c f9 3c 61 c7 38 bd 3e 58 8a bd
       -0.02145531 0.030409204 -0.045112018 -0.06755112
000340 83 3f 2a bd a1 47 3b 3d 46 82 90 3c df 14 6b bc
       -0.041564476 0.045722608 0.017640244 -0.014348238
000350 29 31 04 bd 9f 3a d5 bc 58 4a 2b bd 67 ca 65 3c
       -0.032273445 -0.02602893 -0.041818947 0.014025307
000360 a8 4f 26 3d be e6 b1 3c dc 61 b4 3b 4d d8 de 3b
       0.04060331 0.021716472 0.00550483 0.0068006874
000370 ad e9 54 bd b4 ad a7 bd ff 45 b3 bd 83 08 28 bd
       -0.051980663 -0.08187428 -0.08753585 -0.041023742
000380 d0 cf b9 bc 37 7d e3 3d ac 44 03 be ec 44 bb bd
       -0.0226821 0.11107867 -0.12819165 -0.09144005
000390 23 73 b8 3c c9 b3 a7 3c fa ce 40 bd 9a 42 6f bd
       0.022515839 0.02047147 -0.04707239 -0.058413126
0003a0 19 b8 41 bc d4 1a 96 bc 2f b8 de bc 88 0a 46 ba
       -0.011823677 -0.01832334 -0.027187435 -0.000755467
0003b0 8d 64 85 bc d9 52 f9 bc 31 c2 c6 3c 75 56 ad bc
       -0.016283298 -0.030435013 0.02426252 -0.02115939
0003c0 09 92 93 bd 4f a0 a0 bc 06 e3 04 be 52 93 e9 3b
       -0.07205588 -0.019607691 -0.12977228 0.0071281577
0003d0 ff 0b 72 bd 94 53 e8 bd 39 ea ca bc 78 80 42 bd
       -0.05909347 -0.11344066 -0.02476989 -0.0474858
0003e0 ac 7f fb bc f7 01 d1 3c 5e e2 80 bd 08 54 0c bd
       -0.030700527 0.025513632 -0.06293176 -0.034259826
0003f0 78 18 d8 b9 e5 58 f9 bd d7 a6 ea 3b 93 5d c3 bd
       -0.0004121696 -0.121751584 0.007161002 -0.09539332

actor_mean.0.bias f4 [256]
000000 ba e2 02 bd 83 a3 ad bd 8f bf 1b bd 6c c8 be 3b
       -0.031954505 -0.08478453 -0.03802448 0.005822232
000010 6b 92 71 3d ee 02 31 bc 36 0d 30 bd ef 78 e8 bd
       0.058977526 -0.010803921 -0.04298135 -0.11351191
000020 4b 1f e8 3b 0a 3a 16 be b0 a0 9d bc 67 0d 40 bd
       0.0070838085 -0.14670578 -0.01924166 -0.04688778
000030 25 61 97 bd 9a 6a a8 bd 05 e2 f4 bd 7e c1 0e 3e
       -0.07391576 -0.08223458 -0.11957172 0.13940999
000040 2c 22 8b bd a2 54 2d bd 62 05 35 bd 7c 8f d2 bd
       -0.06793627 -0.04231704 -0.044194587 -0.10281274
000050 bf 23 8e be 04 6b 9e bd 82 29 0d be df 52 96 3c
       -0.27761647 -0.07735255 -0.13785365 0.018350063
000060 d8 78 d8 bd 3e 8e 4f bc 29 7a af bd ac 2e 9e be
       -0.10569924 -0.0126681905 -0.08568222 -0.30894983
000070 3b 1e 9c bd 82 43 75 bd 86 16 13 be 37 69 6c be
       -0.076229535 -0.059878834 -0.14364061 -0.23087011
000080 b9 ca 61 be 5b cf c4 bd 8b 2f 97 bd bd 73 3f 3c
       -0.22049989 -0.096098624 -0.07382115 0.011685309
000090 e0 4d 2b bd 84 32 8d bd 38 f6 6e bd 2f ce 49 be
       -0.041822314 -0.06894401 -0.05834028 -0.19707559
0000a0 33 53 1d bc 63 70 91 bd b9 03 e7 bd 19 dd 62 be
       -0.009602356 -0.07101514 -0.11280007 -0.22154655
0000b0 79 e4 8e bd 9b 1e 7d bd ae fe 16 be 8f 17 4e 3c
       -0.069771715 -0.061796766 -0.1474559 0.012578859
0000c0 89 c4 8e bd 6b 67 04 be 89 90 a7 bd 06 2a 98 3d
       -0.0697108 -0.12930076 -0.08181865 0.0742989
0000d0 6e 80 93 bd 99 18 d4 bd 68 cd ba bd 7b dc a9 bd
       -0.072022304 -0.10356254 -0.091212094 -0.082940064
0000e0 3d 6c 87 b9 f8 31 1a be 18 9c 3c be 56 32 b5 3c
       -0.0002582985 -0.15058124 -0.1841892 0.022118729
0000f0 dc ee 69 3b 1d d0 e3 bd b3 08 c4 bd 37 42 88 ba
       0.003569535 -0.11123679 -0.09571972 -0.001039571
000100 ea d1 ea bc b3 0c e3 bd 7e 20 3c bd f3 aa 63 bc
       -0.028664548 -0.110864066 -0.045929424 -0.013895738
000110 83 84 72 bd 33 c1 9d bd e5 01 61 be c5 ae 1b be
       -0.059208404 -0.077028655 -0.21973379 -0.15203388
000120 ab 1c 47 bd e6 a2 5a bd 85 76 b7 bd fe 79 1e be
       -0.048611324 -0.05337801 -0.08958153 -0.15476224
000130 ca 17 d0 bd f1 e4 4e be 35 cc 17 be 0a 15 5d bc
       -0.101607874 -0.20204522 -0.14823993 -0.013493786
000140 64 fb 77 bd c8 18 59 be f2 1f a0 3c 72 da 4b be
       -0.06054248 -0.2120086 0.019546483 -0.19907549
000150 ee 13 a8 bd e6 5e 94 3d 45 1e 95 bd 12 0d ba bd
       -0.08206926 0.07244663 -0.07281164 -0.09084524
000160 7e e8 67 3c 9a e5 1c be 28 0c a5 bd 69 fb 69 bc
       0.014154552 -0.15321961 -0.08058959 -0.014281132
000170 41 7a 07 be be d5 df bc ba af 6f 3c a1 50 11 bd
       -0.1323023 -0.0273236 0.014629299 -0.035477284
000180 23 4d c9 bd 18 e8 8e bd 2d 39 da bd 51 38 8a bd
       -0.09829166 -0.06977862 -0.10655437 -0.06749023
000190 a1 05 39 3c e0 e0 84 be 90 5b c3 bd c8 fc 1a be
       0.011292846 -0.25952816 -0.095389485 -0.15135491
0001a0 f3 da 54 bd ad 9e 52 be cb 3f fa bd 58 0f 3e bd
       -0.05196662 -0.20568343 -0.12219199 -0.04640135
0001b0 46 15 b7 bd eb 47 05 bd bb 1d bc bd 14 dc 08 bd
       -0.089396045 -0.03253929 -0.09185358 -0.033413008
0001c0 e8 3c 3f 3b 57 d8 58 bc 4b 53 de bd 0b e9 21 bd
       0.002918059 -0.013235173 -0.108557306 -0.039528888
0001d0 46 d8 80 3d 70 12 93 bb 5b e4 07 be ec a0 41 bd
       0.06291251 -0.004488282 -0.13270704 -0.047272608
0001e0 43 b7 36 bd f1 77 03 be b4 a8 3e bd 45 2b e8 bc
       -0.044608366 -0.12838723 -0.046547607 -0.028340945
0001f0 d2 99 67 bd 27 1d 41 3d 28 bf 41 bc c8 2c 85 bd
       -0.05654318 0.047146942 -0.01182536 -0.06502682
000200 d3 75 19 bd 60 26 4d bd 13 8d ae bd a6 dc ca bc
       -0.03746588 -0.050085425 -0.085230015 -0.024763416
000210 67 dd 26 be 10 85 62 bd 95 c2 1a be 71 e1 9d bd
       -0.16295396 -0.05530268 -0.1511329 -0.07709015
000220 56 d1 8f bd 86 ce 11 be 2a 97 90 bd 67 4e e8 bd
       -0.070223495 -0.14238939 -0.07060082 -0.11343079
000230 a0 df 35 bd ca 51 d5 bb 04 05 16 3d c9 58 eb bd
       -0.04440272 -0.006509994 0.036625877 -0.11491544
000240 a4 1c 36 be 3c 00 c1 3c 06 d3 18 bd 6f 10 9c 3c
       -0.17784363 0.023559682 -0.037310623 0.019050805
000250 3f 7e a5 bd 3d 2b f6 bd b0 72 46 be a9 45 c1 bd
       -0.0808072 -0.12019966 -0.19379687 -0.09437115
000260 7d 33 15 be dd d6 d3 bd 08 50 31 3c 67 be 43 be
       -0.14570422 -0.10343716 0.010822304 -0.19115601
000270 33 0c ad bb 37 50 a9 bd 91 6c 8c bd bc 32 8f bd
       -0.0052809953 -0.08267253 -0.06856645 -0.06992099
000280 92 c1 c0 bd 43 c3 4c bc ce ff 9d be a2 84 b3 bd
       -0.094119206 -0.012497726 -0.30859226 -0.08765532
000290 25 8a 72 bd e6 a4 be 3b 60 45 d1 3c 60 94 a5 bd
       -0.059213776 0.0058179973 0.025545776 -0.08084941
0002a0 c4 95 18 be cf 09 80 bd 11 8a 1e be 31 f6 e2 bd
       -0.14900881 -0.06251871 -0.15482356 -0.110821135
0002b0 c1 f9 30 be a8 b6 84 bd 01 c8 56 3c 97 59 7d 3d
       -0.17282774 -0.064801514 0.013109208 0.061853018
0002c0 ac 14 74 bd b6 c6 55 3d 6e 9b b1 3b b3 6f f4 3c
       -0.059590027 0.05219146 0.00542014 0.029838419
0002d0 8a c4 dc bd 26 3d 1e 3d 4c 06 e7 bc ea b8 9c bd
       -0.10779674 0.038632534 -0.028201245 -0.07652457
0002e0 11 32 43 bc 93 ae 87 bd 47 43 0a be 50 9e e5 bd
       -0.011913792 -0.06625094 -0.13502227 -0.11211836
0002f0 e7 25 3f bd 98 0c c6 bd 7a 8a c9 bd 11 c6 06 be
       -0.046667006 -0.09670371 -0.098408654 -0.13161494
000300 5b d9 35 bc 55 47 3d 3c 96 96 0b bc 56 4e 06 be
       -0.011099185 0.011552651 -0.008519789 -0.1311582
000310 11 9a ac bd d7 fd 7b be 76 7a 55 bd 87 a7 9f bd
       -0.08427823 -0.24608551 -0.05211874 -0.07795625
000320 86 72 10 bd 0b 8d 13 bb 7b 42 ea bd 82 06 82 bd
       -0.035265468 -0.0022514488 -0.114384614 -0.063488975
000330 db 32 d8 bd 70 72 8f bd 34 f1 26 be bb 67 02 be
       -0.10556575 -0.07004249 -0.16302949 -0.12734883
000340 95 89 b4 bd 70 5b 99 bd f0 bb df bd 48 fa 27 bd
       -0.08815304 -0.074881434 -0.10924518 -0.04101017
000350 66 e9 e3 bd 0c 97 63 bd 7a c0 55 3c 9e 59 0d be
       -0.111285016 -0.05556397 0.013046378 -0.13803717
000360 a1 69 83 bd cc 91 9c bd d8 d4 b6 bd 36 9f 38 be
       -0.064166315 -0.07644996 -0.089273155 -0.18029484
000370 b3 3c a0 bd 0b 6d 09 bd 13 e2 65 bd 32 c7 d1 3c
       -0.078240775 -0.033551257 -0.056123804 0.025607679
000380 c2 9f 66 bd a8 1d e8 bc 50 ed b5 bc 1a 6b 32 ba
       -0.0563047 -0.028334454 -0.022207886 -0.00068061205
000390 08 55 5d 3c 28 d9 3b bd de 30 dd bc df f4 30 be
       0.013509043 -0.045861393 -0.02700084 -0.17280911
0003a0 a7 7f 42 be 2f 62 01 be e7 1a 00 be a6 5c 8d bd
       -0.18994008 -0.1263511 -0.12510262 -0.06902437
0003b0 f1 e9 15 bd 01 74 5f bc 72 a3 d2 bd 85 86 e6 bc
       -0.036600057 -0.013638497 -0.10285081 -0.028140316
0003c0 89 7a ab bd 84 90 ad bc 3e 41 47 bd 84 89 db bd
       -0.08372981 -0.021187074 -0.048646204 -0.107195884
0003d0 81 23 13 bd 69 a3 80 be 2d 71 4b be 13 d8 e4 3b
       -0.03592253 -0.25124672 -0.19867392 0.006983766
0003e0 d8 e5 bb bd 17 a6 30 bd e4 34 ec bd b0 48 ad bd
       -0.091746986 -0.043127146 -0.115335256 -0.0846113
0003f0 c6 f0 71 bd b1 f5 22 bd 9c ae c2 bd a2 4f 98 bd
       -0.05906751 -0.03978509 -0.0950596 -0.07437064

actor_mean.2.weight f4 [4, 256]
000000 17 18 49 3d 9b c8 03 bd c3 e8 6d bd bc 60 48 bd
       0.04909524 -0.032173734 -0.058083307 -0.048920378
000010 81 c1 5c 3c d1 80 a2 3d cb 12 a7 3d db 20 fa 3d
       0.013473869 0.07934726 0.08157881 0.12213298
000020 0f 13 bf bc 6b 48 46 be 10 23 46 be e3 58 87 bd
       -0.023324518 -0.19363563 -0.19349313 -0.06608751
000030 e0 2d c1 3e f1 2c a8 3c 40 d5 33 3d b7 48 9a 3e
       0.37730312 0.020529242 0.043904543 0.30133602
000040 a9 61 2d bd c9 da 3c bd fa e7 85 3c 26 04 f6 ba
       -0.042329464 -0.046107087 0.016345967 -0.0018769547
000050 0f e8 9f bd d0 56 1a be b0 44 66 3d ce 64 d2 3d
       -0.078079335 -0.15072179 0.05621785 0.10273133
000060 ba 23 3d 3d b5 65 3d bb ea f1 bf bd 79 cf 03 bf
       0.04617665 -0.0028899733 -0.09372313 -0.51488453
000070 85 17 23 be 71 cd e8 3c e5 18 c0 3d 6e a2 23 3e
       -0.1592694 0.028418275 0.09379748 0.15979931
000080 36 62 be 3e c5 7a 58 3e 3a 3c bf bb 77 63 c2 bc
       0.37184304 0.21140583 -0.005836037 -0.02372907
000090 30 9d 40 bd 06 4c 5b 3f 18 11 5f bd 48 26 a4 bd
       -0.047024906 0.8566288 -0.05445966 -0.08015114
0000a0 f5 ce fa 3d b0 2c 27 3d 92 4d cd 3d 32 5e 63 bd
       0.12246505 0.0408141 0.10024561 -0.055509754
0000b0 05 dd 1e be 5b e1 b4 3d 1d ce 0c be 06 82 92 3d
       -0.15514 0.08832046 -0.13750501 0.07153706
0000c0 94 87 72 bc 68 f8 ee 3e 79 19 1b 3d 45 c2 55 3d
       -0.014802832 0.46673894 0.03786609 0.052187223
0000d0 c1 c4 17 3b 19 60 7a be d0 6f 1b bd d0 18 91 bb
       0.0023158046 -0.24450721 -0.03794843 -0.0044280067
0000e0 33 cc 30 bd f5 44 81 be 48 9a bc 3c 42 d7 12 3d
       -0.04316349 -0.25247923 0.023022786 0.035849817
0000f0 65 eb 49 bc e6 f4 13 be f8 37 12 be bc df 09 bc
       -0.012324189 -0.1444889 -0.14279163 -0.008415159
000100 c8 ed e3 bc 1b fe cd bd 13 c9 92 bb d5 f3 f2 bc
       -0.027823344 -0.100582324 -0.0044795363 -0.029657284
000110 b6 1e 5a 3d cc 22 6b bc a4 75 54 be 03 89 c4 bd
       0.053251944 -0.014351558 -0.20748001 -0.095964454
000120 9f 62 02 be 8e 72 22 3f e2 52 db bc 69 8a 1d be
       -0.12732933 0.63456047 -0.02677292 -0.1538483
000130 7a 0c 3b 3e 67 02 a1 3e 40 c1 c1 3c eb 31 a1 bd
       0.18266478 0.31447145 0.02365172 -0.07870849
000140 77 43 b6 3b 17 d1 df be 14 63 6f 3d 46 3a 9a 3e
       0.0055622417 -0.4371421 0.058444098 0.30122584
000150 38 e8 83 be 83 0e ff 3e fe c8 16 3d d3 c9 8b 3d
       -0.25763106 0.4981576 0.036812775 0.06825604
000160 fd de 81 3c 89 af fd bb 8e 86 95 bc 52 28 ea bd
       0.0158534 -0.0077418727 -0.018252637 -0.11433472
000170 d2 4c b4 3d 25 42 bd bd 0a 4e d9 3d 09 de 8a 3d
       0.08803715 -0.09241132 0.10610588 0.06780631
000180 30 fb b8 3e 02 a9 0c be bd 94 86 bd 8d 23 02 3d
       0.3612914 -0.13736346 -0.06571338 0.031772185
000190 17 d8 c6 3c 9d a2 ac 3e ed 69 84 be b7 70 30 3f
       0.024272962 0.33717814 -0.25862065 0.6892199
0001a0 e5 e9 da bc c1 0f a0 bd bd 68 8d 3e 55 49 ad 3c
       -0.026722858 -0.07815505 0.2761897 0.021153131
0001b0 0b ad 55 3e 0e e7 a3 3c 22 ae 8d 3e 13 bb f1 3c
       0.20866792 0.020007636 0.27671915 0.02950815
0001c0 37 52 fe be 84 f2 3a be 0f d8 99 bd f2 7a f2 3b
       -0.496721 -0.18256575 -0.07511913 0.00739991
0001d0 fb 7d b4 bd 5f e1 9b 3c c4 e4 62 bd 92 9f a4 3e
       -0.08813091 0.019028364 -0.05539395 0.32152992
0001e0 dd 5a 49 bc eb 97 c9 3e 11 f6 35 be de 55 72 bd
       -0.01228973 0.39373717 -0.17769648 -0.05916392
0001f0 c8 9a b2 bb 80 c4 58 3e 90 d8 97 3c 1a 25 81 bd
       -0.0054505803 0.21168709 0.018535882 -0.06305905
000200 01 ea 9a 3d d6 01 92 bd b8 09 75 3d fc d7 13 bf
       0.07564164 -0.071292564 0.05982372 -0.5775144
000210 78 58 8d 3e 2c 47 95 bc 11 3c 62 be d5 2b 43 3d
       0.2760656 -0.018222414 -0.22093226 0.047649223
000220 6e eb 10 3e 50 17 cd 3d cd e5 3a be 89 be 98 3d
       0.1415231 0.10014212 -0.18251725 0.07458217
000230 f0 f7 9e bc 82 82 a7 be db e6 83 3d d9 02 1c 3d
       -0.019405335 -0.32716757 0.064405166 0.038088653
000240 fa ca 51 3d d5 8b 5d 3c 20 a7 4f bc 66 08 16 be
       0.051218964 0.013522108 -0.012674123 -0.14651641
000250 c1 93 cf bc 5b 6c 03 be 67 18 01 3e 3b 48 a7 bd
       -0.02533901 -0.12834303 0.12606965 -0.08168074
000260 a6 36 0b bf 7b 9b 17 be b1 9e 2b bd cc b4 90 be
       -0.5438026 -0.14805405 -0.041899387 -0.28262937
000270 67 db 71 3d a1 d4 73 3e 6e ab 85 bd 71 27 ce 3e
       0.05904713 0.2381158 -0.06526838 0.40264466
000280 30 7e 49 be 8c 53 cb be 33 48 d5 be 29 f7 60 3c
       -0.19677043 -0.3971218 -0.41656646 0.013730803
000290 9a a3 40 bc 69 67 96 bd 5f 16 45 3b 86 21 8d be
       -0.011757756 -0.07343943 0.0030073149 -0.2756464
0002a0 ae 07 e1 3d 34 a5 0a be 91 da 22 be 95 6f 71 3d
       0.10987793 -0.13539582 -0.15903689 0.058944304
0002b0 26 2e ab 3c d8 ed 12 be 88 a5 77 3d 06 7e cd 3d
       0.020896029 -0.14348543 0.060460597 0.10033803
0002c0 ee c0 30 3d 72 69 95 ba c9 36 16 3d 51 4e 8e bd
       0.043152742 -0.0011399223 0.03667334 -0.069485314
0002d0 95 db dc 3d 8e 9c a3 bc 60 d4 2f 3e 62 c3 d6 3c
       0.107840694 -0.019972112 0.17170858 0.026216213
0002e0 95 30 a4 3d 68 18 27 be a1 48 e3 bd 2e bd 0d be
       0.08017079 -0.16317904 -0.11097837 -0.13841698
0002f0 16 d8 70 3d 73 16 9a be 6c de 6c 3d 42 62 14 be
       0.058799826 -0.30095252 0.057829306 -0.14490607
000300 56 e5 cf ba b4 f9 a2 bb 39 55 9f 3b ec 1f 93 bd
       -0.0015861194 -0.0049736146 0.0048624543 -0.07183823
000310 98 6a 93 3e 7d 76 0f bf 75 f8 bc bb b9 e5 5b 3e
       0.28792262 -0.56040174 -0.005766923 0.21474351
000320 5e e7 d5 3d 4c bb 36 3c 58 b2 81 bd 1c 6e 56 bd
       0.104445204 0.0111530535 -0.063328445 -0.052351102
000330 29 e5 41 be ef 03 4a bd cf 33 d6 be 35 85 4a bd
       -0.18935074 -0.049320158 -0.41836402 -0.049443442
000340 f1 5f c6 3d 1a db 3a bd d7 ca f6 bd 2d c8 e6 3c
       0.09686268 -0.045619108 -0.120504074 0.028171623
000350 e7 35 c0 3c ce 6f 60 3d 22 9a 8c be ad 9d 1c 3e
       0.023463203 0.054794125 -0.27461344 0.15294524
000360 e2 bd 34 bd c5 e5 3b 3d b5 1f ea 3c b6 2c 04 3f
       -0.0441264 0.045873422 0.028579572 0.51630723
000370 b2 22 60 bc 26 cf 2b 3c f0 71 89 3b 74 d5 97 bd
       -0.013680147 0.0104864 0.0041944906 -0.0741376
000380 9e 36 ed 3c 3e c1 3e bd 35 d5 35 bd 92 8a 62 bd
       0.028956708 -0.04657101 -0.044392783 -0.055307932
000390 91 5e 20 bd 79 98 89 bd 93 b1 53 be 35 63 fa 3e
       -0.039152686 -0.06718535 -0.20673208 0.48903814
0003a0 e7 06 94 3e 41 54 44 be d0 c9 c3 3c 6d df 1b bd
       0.28911516 -0.19172765 0.023899943 -0.038054872
0003b0 7b 20 18 3f f7 3c 1b 3f 24 dc cc bd 34 32 0b 3e
       0.5942456 0.606399 -0.10002926 0.1359337
0003c0 b3 0d 88 bd 1f a3 67 bd 9b ca 28 3d d1 a3 4c 3e
       -0.06643238 -0.05655205 0.041208845 0.19984366
0003d0 db 6b c4 3b 45 89 3b bf 92 d7 92 be 68 4e 58 be
       0.0059943027 -0.7325633 -0.28680092 -0.2112366
0003e0 79 04 4a 3c fc de 0b 3e d3 57 97 be fc 73 2b 3e
       0.012330168 0.1365928 -0.29559192 0.16743463
0003f0 75 78 4f 3c 06 05 04 3e 70 3b a5 3d e3 78 56 3d
       0.012662997 0.12892541 0.080679774 0.05236138

actor_mean.2.bias f4 [4]
000000 dd 7b f3 3d e3 86 43 3d 3a 87 b8 3c cd d1 ec bb
       0.118888594 0.04773606 0.022525419 -0.0072271586

critic.0.weight f4 [256, 256]
000000 ac 73 31 3e fb 58 3e 3e d1 40 ab bd 3f 24 4e 3f
       0.17329282 0.18588631 -0.08361972 0.8052406
000010 15 23 13 be 84 e7 ef bd f6 36 26 3c 89 01 b8 bd
       -0.14368851 -0.1171408 0.01014494 -0.08984668
000020 9a 2b e4 be df 92 10 be 8a 82 88 be 99 f4 93 3e
       -0.44564515 -0.14118527 -0.26662093 0.2889755
000030 f7 f5 71 3e 9e b9 1d 3e a7 ea ed bd c7 b4 eb bd
       0.23628984 0.15402839 -0.11617022 -0.1150909
000040 42 c6 32 3c 4b 1c 52 3e b0 0f 87 3d 23 7f 4d 3d
       0.010911526 0.20518605 0.06594789 0.050170075
000050 4f fb 24 bd 4b 16 88 3e 1b e6 73 3e 26 05 c8 bd
       -0.04027873 0.26579508 0.23818247 -0.09766607
000060 23 e0 15 bb 3b cf 88 3e df ba d4 bd 36 44 97 3c
       -0.0022869192 0.26720604 -0.10387205 0.018465143
000070 ad 9d 01 bf 14 58 48 bd 67 2a 3a 3e b4 7f 56 3e
       -0.5063122 -0.048912123 0.18180238 0.20947152
000080 95 77 f8 3c 00 53 02 be 68 86 5c 3e 8f d8 75 3e
       0.030330459 -0.12726974 0.21535647 0.24008392
000090 b4 99 1f be 27 f0 01 be e7 ac 5d be 14 22 39 3e
       -0.15585977 -0.12689267 -0.21647988 0.18079406
0000a0 dd 9c 87 3d ca 8a b7 bd 9b 35 91 ba 96 e6 ee bd
       0.06621716 -0.08962019 -0.0011078598 -0.116650745
0000b0 16 ad 2b 3e 20 93 fb 3e 76 ee f7 bc 0d ba 0f 3e
       0.16765246 0.49135685 -0.030265074 0.14035816
0000c0 01 0c 43 be b4 92 c7 3e c3 28 f5 bd d5 3c 57 3e
       -0.19047548 0.38979113 -0.11970665 0.210193
0000d0 c6 7b 39 be 2b bd 1e be 0d b5 a3 3e 24 89 9c 3d
       -0.18113622 -0.1550185 0.31974068 0.07643345
0000e0 97 59 c8 3d 89 00 8b 3d b1 a9 9e bd ec 7e 9c 3d
       0.09782713 0.067872114 -0.0774721 0.07641396
0000f0 23 5a e3 3d 07 7d bd 3c 0b 04 98 3d cd 99 7d 3e
       0.111011766 0.023130907 0.07422646 0.24765702
000100 4b 6e a7 be 91 93 47 be 3b f7 c6 bd 8e cc a6 3d
       -0.32701334 -0.19489886 -0.09715124 0.081444845
000110 b7 d0 4c 3e f5 bc a0 3e 60 93 8c be b5 56 05 be
       0.20001493 0.31394163 -0.27456188 -0.13021357
000120 ca c6 8c be d6 88 01 be ba 09 f6 3c 52 30 ce 3d
       -0.27495414 -0.12649855 0.030033935 0.1006781
000130 c4 0c bf bd bc 80 f2 bd 19 d5 80 be d3 f0 da bd
       -0.09328607 -0.118409604 -0.2516258 -0.10690465
000140 bd 0e 61 3e a9 76 82 3e 79 96 2a 3e c8 23 5f 3e
       0.21978278 0.25481156 0.16658963 0.21790993
000150 d7 d9 d7 bd 4d d5 c6 3c e2 31 76 be e0 b9 7f be
       -0.105395965 0.024271632 -0.24042466 -0.2497325
000160 34 be 4a bd 9d 01 6b be a0 46 1e 3d 97 00 80 3d
       -0.049497798 -0.22949834 0.038641572 0.062501125
000170 38 5f f8 be 20 78 ff bc 81 43 a1 3d 5b ab a1 3d
       -0.48510146 -0.03118521 0.078742035 0.078940116
000180 10 4f 22 3d 93 a0 e0 3d f5 d6 22 3d a8 55 2e 3d
       0.03962618 0.10968127 0.03975578 0.042562157
000190 6b 4f b3 3b 9a d5 a9 3e 92 0b 60 bd 5d 9f 21 3e
       0.005472114 0.33170778 -0.054698534 0.15783449
0001a0 d4 8f bd 3d 05 62 a8 3e 83 94 d7 3e af 7c 5f bd
       0.09255949 0.32887283 0.42105493 -0.054562267
0001b0 c8 c9 71 bf bf 23 42 bc 2b 8e 92 3e da b4 2b be
       -0.9444852 -0.011849343 0.2862409 -0.16768208
0001c0 bc 74 8b 3e 63 82 e3 bd b8 14 c9 bd 50 f9 05 bf
       0.272375 -0.11108854 -0.09818405 -0.52333546
0001d0 ed 4d 9b 3e 5e 3d fd 3e 96 77 f5 3d 0f a8 81 bd
       0.3033289 0.49460882 0.119857 -0.06330883
0001e0 ac 90 06 3e 21 f2 18 3e 6a 6d 88 be e7 10 2b 3d
       0.13141125 0.14936115 -0.26645976 0.041764166
0001f0 45 53 8d be 17 da b9 3e 4b 5d 35 3e c9 b2 1c bc
       -0.27602592 0.36299202 0.1771137 -0.00956411
000200 85 17 6d be c1 b0 21 be c5 3c a0 3c 9b 79 50 3e
       -0.23153503 -0.15790083 0.019560227 0.20358889
000210 36 9f 9b 3e 63 0d 65 be 5e 5a 31 be ee 2b e7 3b
       0.30394906 -0.22368388 -0.17319629 0.0070547974
000220 83 19 f6 3e 4e 96 a9 bd 29 de 0b be 24 7b 1c 3f
       0.4806634 -0.082806215 -0.13658966 0.611254
000230 49 7c af 3e 14 ac 51 be d4 1b 4e 3d cb 5e 36 bd
       0.3427451 -0.20475799 0.050319508 -0.044523995
000240 d5 bb 97 3d 32 11 81 3e 13 9e 47 bd 56 04 bf 3b
       0.07408873 0.2520843 -0.048734736 0.0058293743
000250 4b aa 80 3b db 98 2f 3d ec 4a 45 3d 19 c9 b0 bd
       0.0039265505 0.042870384 0.048167154 -0.08632106
000260 a8 51 24 3e 6d 67 a8 be 7b d7 d1 3e e2 fc df bc
       0.16046774 -0.32891408 0.4098471 -0.027342264
000270 4e b8 0e 3e f0 9d cf bd 56 b7 b1 3e d6 e6 be be
       0.13937494 -0.10137546 0.34710187 -0.3728549
000280 74 9a 83 be 3d 59 a0 bd 77 2c e7 3c 8b b4 35 3e
       -0.25703776 -0.07829521 0.028219445 0.17744653
000290 d1 b0 89 3d 29 d9 7e 3c 0b 0e 8a 3d fb d3 81 be
       0.06723178 0.015554705 0.0674096 -0.2535704
0002a0 e4 45 07 3e d4 41 9f 3e 20 1d 2f 3e 27 a6 1a 3d
       0.13210255 0.3110491 0.17100954 0.03775611
0002b0 f0 f9 8e 3d c1 15 36 3e 16 8a 50 3d 40 9d 7b 3d
       0.069812655 0.17781736 0.05091294 0.061429262
0002c0 46 a1 ce 3e 14 e3 a4 3c 15 ec 72 3c 0a b2 5f be
       0.40357417 0.02012781 0.014826794 -0.2184526
0002d0 ee 3b dd 3d ee 7d 9c be 23 71 f7 3d fe 6f aa be
       0.10802446 -0.30564827 0.12082126 -0.33288568
0002e0 fc 18 12 bd 35 3c 64 3d 0b 69 2e 3e bb f5 f7 3d
       -0.03566836 0.05572148 0.17032258 0.12107416
0002f0 b2 3c ee 3d 70 dd 05 be 0f 24 0a be 63 e9 3b bd
       0.116326705 -0.13072753 -0.13490318 -0.04587687
000300 52 ba e1 39 ed 91 5a 3e d5 28 94 bd ae 9a e6 3c
       0.00043054164 0.21344729 -0.072343506 0.028149929
000310 bb 91 0b be e2 10 0e be 73 d2 71 3e 71 97 35 3e
       -0.1362981 -0.13873628 0.23615436 0.17733552
000320 82 57 89 bc 68 b5 8f bd 65 33 08 3c 57 23 9e 3e
       -0.01676536 -0.07017022 0.008313035 0.30886337
000330 f6 af 9a 3c d2 2b d2 3c 8c a3 d3 bd ae 80 3e 3e
       0.018882733 0.02565566 -0.103339285 0.18603775
000340 3e 57 d9 3d 8a ad 44 be 27 e0 3c 3e 08 00 0e be
       0.10612343 -0.19206825 0.18444882 -0.138672
000350 90 4b 42 3e b6 66 86 bd fa 35 35 be 7d dd 66 be
       0.18974137 -0.06562559 -0.17696372 -0.22545429
000360 3d 63 1e be a3 99 72 3d 15 05 8b be 22 ef 40 3d
       -0.15467544 0.05922855 -0.27152315 0.047103055
000370 25 e8 a1 be 2e 8a ef bc f4 3c 96 3c 76 8a 53 be
       -0.31622425 -0.029240694 0.018339612 -0.20658287
000380 0e 6f 8d be 55 bc 58 be 2c a7 0b 3e 13 d1 aa 3d
       -0.2762379 -0.21165593 0.1363799 0.08340659
000390 60 ea e4 be 6f d1 57 3d 49 aa b2 3d a2 af b4 3c
       -0.44710064 0.052689966 0.087238856 0.022056405
0003a0 84 30 f2 bd b9 72 d7 3c 20 5a 10 be 00 63 be be
       -0.1182566 0.026299821 -0.1409688 -0.37184906
0003b0 18 50 df 3d 7e be 50 bd 40 cd c9 3e da 25 64 bd
       0.109039485 -0.050962918 0.39414406 -0.05570016
0003c0 0a c2 ab 3e e2 2d f7 3e 08 f1 99 3c cc 74 92 3d
       0.33546478 0.48277193 0.01879169 0.071511835
0003d0 73 db 16 be 16 42 90 3d 37 75 9e bd 48 42 10 3e
       -0.1473215 0.07043855 -0.07737201 0.14087784
0003e0 d6 34 42 be 5e b6 01 3e ab 6b a2 be ee 9e 9b bd
       -0.18965468 0.12667224 -0.3172277 -0.07598673
0003f0 a3 4b a0 3d d6 3d 35 3d 30 f3 87 3d 04 f2 43 3e
       0.078269266 0.044248424 0.06638181 0.1913529

critic.0.bias f4 [256]
000000 d6 ac a8 3e 29 34 74 3e 1b 50 0d 3e c6 94 93 3e
       0.32944363 0.23848023 0.13800089 0.28824443
000010 e7 7d 08 3c 3b f7 a3 3e 23 9e 63 3e c7 9c bb 3e
       0.008330799 0.3202456 0.22228293 0.3664305
000020 11 8d bb 3e 37 4a 8f 3d bb 58 ba 3e 77 8f 54 3e
       0.36631063 0.06996577 0.3639582 0.20757852
000030 43 01 44 3e 23 07 b9 3e 8a 1d 7f 3c 97 4d c3 3d
       0.19141106 0.36138257 0.0155710075 0.095362835
000040 0e 50 94 bd cc 3e a9 3d ba 0c 78 bd 47 4a 47 bd
       -0.07241832 0.08263931 -0.060559012 -0.04865482
000050 13 4c a2 3e ba 98 75 3e 69 a9 24 bb 1b 0e b8 3e
       0.31698665 0.23984042 -0.002512539 0.35948262
000060 76 1c 03 3c f9 8f 90 3e 3b 38 5c 3e 27 51 fa 3b
       0.008002391 0.28234842 0.21505825 0.0076390686
000070 13 23 ca 3e 2a b7 61 bd bc 04 20 3e 79 d6 e4 3d
       0.39479885 -0.05510632 0.15626806 0.1117372
000080 ca b8 f0 3b 10 94 db 3d 47 5c 7a 3d 83 74 ca 3e
       0.0073462473 0.107216 0.06112316 0.39542016
000090 11 83 82 3e 5a d2 12 3e 63 c1 5e 3e 73 74 b3 bd
       0.2549062 0.14338055 0.21753459 -0.08762445
0000a0 ca da 04 bc 19 22 b5 3e 93 49 bd 3e d2 0e 77 be
       -0.008108804 0.35377577 0.36970195 -0.24126747
0000b0 f3 8d 28 3e d3 3c 0b 3e 25 25 bd 3e 96 3c 22 bd
       0.164604 0.13597421 0.36942402 -0.03960856
0000c0 b8 38 29 bd 0a 45 73 bd 12 06 8b bd 88 38 96 3e
       -0.041313857 -0.059392013 -0.06788267 0.29340005
0000d0 4e 30 35 bd ca 69 89 3e 8e 1e 33 3e a8 4b cf 3d
       -0.04423552 0.26838523 0.17492124 0.10121852
0000e0 d0 3a c4 3d 05 98 c5 3c 51 83 96 3e e9 3b 4b 3e
       0.0958153 0.02412034 0.2939706 0.19847073
0000f0 9b 8c 44 bd cc 2e 8f 3e 64 8b 80 3c 4a 67 af 3d
       -0.047985654 0.2796539 0.015691467 0.08564623
000100 23 1c c5 3e 29 18 8a 3e f5 7e ef 3d 03 14 0e 3e
       0.3849803 0.26971558 0.11694137 0.13874821
000110 68 b9 fb 3c 07 84 f0 bc dc e3 51 3c 59 a5 cf 3e
       0.030728057 -0.02935983 0.012810674 0.40555838
000120 4f b6 93 bb d2 3b 48 3d 1b 60 8d 3e 09 c6 59 3e
       -0.004507817 0.048885174 0.27612385 0.2126695
000130 c1 15 df 3c 1a 76 89 3e c1 1a 9c 3c da 14 1a 3e
       0.027232053 0.26847917 0.019055726 0.15047017
000140 e1 d9 e6 3d 4a b4 08 3d 56 58 ac 3e f5 b3 dc 3d
       0.11272026 0.033375062 0.33661145 0.107765116
000150 11 44 97 bd 89 c0 89 bd 22 b9 cc bb d3 44 4a bd
       -0.073860295 -0.06726176 -0.0062476555 -0.049382042
000160 8d 8c c5 3e 9c e6 88 bd 3c 6f c8 3e 3f d8 36 bd
       0.38583794 -0.0668461 0.39147365 -0.044639822
000170 66 04 62 bd 64 29 9b bd 51 44 bb 3e a7 d2 4b 3e
       -0.055179976 -0.07576254 0.3657556 0.19904576
000180 29 62 8f 3d 7a a7 00 3d 97 4a 83 3e 69 0c 26 be
       0.070011444 0.031409718 0.25642845 -0.16215672
000190 22 ac 04 3e 66 61 07 39 11 55 10 bb a3 8e 9b 3d
       0.12956288 0.00012910887 -0.002202336 0.07595565
0001a0 ed 80 94 3d 7e a6 8a 3d a8 43 d8 bc 9b cb 81 bb
       0.07251153 0.06770037 -0.026399449 -0.0039610392
0001b0 4b 58 b3 3d 0d 75 79 3d c3 9f 07 bd b4 19 ea 3d
       0.08757075 0.060902644 -0.033111345 0.11430684
0001c0 58 11 5f bd 3e 0f ad 3e ec 10 ad 3e 04 c5 5a 3d
       -0.0544599 0.3380069 0.33801973 0.053410545
0001d0 97 44 ca 3d 78 b5 96 bd 75 c3 a4 bc 65 a6 02 bd
       0.09876364 -0.07358831 -0.020112732 -0.031896967
0001e0 2b 3d da 3b 8d 8d 0b 3e 39 37 12 3e c5 13 e5 bc
       0.006660124 0.13628216 0.14278878 -0.027963528
0001f0 f1 6f 1b bd 7b 75 95 bd a3 6f ce 3c 38 cf cc bb
       -0.037948553 -0.07297798 0.025199717 -0.0062502883
000200 6f 32 2d 3e d6 2b cc 3c 6f 84 d9 3d 8d 3a 22 3e
       0.1691377 0.024923246 0.10620963 0.15842648
000210 4d b8 93 bd 87 21 46 3e e1 d2 a0 3b db f8 f2 3d
       -0.07212887 0.19348727 0.004907951 0.11863872
000220 d7 78 7a 3e 25 1e 8d 3e ec fc 62 3e a4 10 22 bc
       0.24460159 0.2756206 0.22166795 -0.009891663
000230 43 ae 41 3d 97 af be 3d 2e ab 96 3d cc 57 34 3e
       0.04728533 0.09310835 0.07356869 0.17611617
000240 0f 9f 64 be 19 0d 8e bd f2 fd ac 3e 50 3e c8 3e
       -0.22326301 -0.06936092 0.33787495 0.3911004
000250 e5 a4 d3 bc 6e 54 80 3b 9c dd 0c bd 9c 0b ef 3d
       -0.025835464 0.003916315 -0.03439103 0.11672136
000260 00 6c 06 3e d9 ed 9b 3e d8 36 53 bd a3 9f 5e 3e
       0.13127136 0.304549 -0.051565975 0.21740584
000270 2b 86 c1 3e 64 f6 29 bd ef 0e 1f 3e d2 89 e1 3d
       0.37797675 -0.041494742 0.1553304 0.11012615
000280 ee c2 d2 3d 3e c3 05 3c 93 69 39 3e 26 17 72 3e
       0.10291086 0.008164225 0.1810668 0.23641643
000290 7c 16 81 3e 71 cb 0c 3e 50 4c aa 3e 96 26 b8 3b
       0.25212467 0.13749482 0.33261347 0.005619834
0002a0 a6 35 b7 3e 82 4f 1d 3e d5 a4 c1 3e 4c 72 a4 bb
       0.35783118 0.15362361 0.3782107 -0.005018508
0002b0 d3 6f d7 3e f1 36 cf bc 95 ba 26 bd a8 c0 43 3e
       0.42077503 -0.025294753 -0.040705282 0.19116461
0002c0 17 65 f6 bc 2e 7b a4 3e 5c aa 12 3e 64 c5 30 3e
       -0.0300775 0.3212523 0.143228 0.17262799
0002d0 f6 80 cb 3d e1 c9 b4 3d 27 b0 fb 3d 26 6a af 3e
       0.09936707 0.08827568 0.12289458 0.34260672
0002e0 82 b1 81 bb 54 bb 08 3d d7 0d 51 3c 20 34 b9 3c
       -0.003957928 0.033381775 0.012759647 0.022607863
0002f0 ba 28 37 3e 53 de 5f 3d a8 25 09 3e 2e 1c ac 3d
       0.1788663 0.054655384 0.13393271 0.08403812
000300 bd a7 15 3d 98 c5 af 3c 6f c0 7a bd fe 5f 1e 3e
       0.03653692 0.021456525 -0.061218675 0.15466306
000310 59 78 82 bb 85 ab 35 bc 21 3f ef 3d f3 94 ab bd
       -0.0039816317 -0.011088257 0.11681963 -0.08378019
000320 37 ab 88 3d 2e 6b 79 3e 4a 59 0b bd cb 0a 90 3c
       0.06673282 0.24357292 -0.0340207 0.017583271
000330 82 c7 fa 3d 4d 13 2f 3b e3 f4 bf 3e 86 72 0b 3d
       0.12245084 0.0026714385 0.3749152 0.034044765
000340 2f a6 46 b9 8d b4 af 3d 0b ce 29 3e 02 d9 85 3c
       -0.0001894466 0.08579359 0.16582505 0.016338829
000350 2b 6d 18 be dc 6f 9b bb 9e 80 04 3e 61 0a 69 bd
       -0.14885394 -0.0047435593 0.12939689 -0.056894664
000360 2c 04 0d bd 6e 04 71 3e ba bf 64 bd 10 90 5d 3d
       -0.034427807 0.23536846 -0.055846907 0.054092467
000370 32 a5 2a bc cd 88 0c 3e cf 0f dd 3e 88 5b a7 3e
       -0.010415362 0.1372406 0.43176123 0.3268702
000380 df d2 29 3e 06 74 5f 3c aa 45 c6 3d 87 49 64 3e
       0.16584347 0.013638502 0.09681256 0.22293673
000390 ee 3a b6 bd 83 60 65 3d 63 8f cc 3d e9 52 c7 3d
       -0.08897959 0.056000244 0.09988286 0.09732611
0003a0 4a 29 bc 3d 45 89 69 bd 5d de f9 3d c1 cc ed 3c
       0.09187563 -0.057015676 0.122006156 0.029028298
0003b0 70 64 7b bc ef f9 c3 3b fa 40 ba 3d 85 a1 3c 3e
       -0.01534377 0.005980722 0.090944245 0.1842099
0003c0 a5 f4 39 3e d3 dd 3e 3d ee 75 e5 3e e7 b7 a1 3b
       0.1815973 0.046598267 0.44816536 0.004935253
0003d0 11 be 22 3e 81 6d 5f 3e 79 c3 48 3d ab a1 cf 3c
       0.15892817 0.21819116 0.049014542 0.025345644
0003e0 cf 06 f2 3c 4f 71 90 bd 3d 58 b8 bd 05 9b bb 3e
       0.029544262 -0.07052862 -0.09001205 0.36641708
0003f0 5a 9f 39 3e 3f f5 78 bd bc 0a 82 3d cf 27 62 3e
       0.18127194 -0.06078076 0.06349704 0.22085498
