best_model_episode_400.pth (torch, 218734 bytes, 12 tensors)

actor_log_std f4 [4]
0	0xbebed65a	-0.37272912
1	0xbe58ec8f	-0.2118399
2	0xbe514dd4	-0.20439845
3	0xbe5eb4fe	-0.2174873

shared.0.weight f4 [128, 24]
0	0x3e1ed8c7	0.15512381
1	0xbe29611e	-0.16540954
2	0x3e8b7dfe	0.27244562
3	0x3e9bd768	0.3043778
4	0xbe175e03	-0.14781956
5	0xbca0c48a	-0.019624967
6	0xbdf318df	-0.11869978
7	0x3df74f8e	0.12075721
8	0x3e3c54f8	0.18391788
9	0xbe3ad9cd	-0.18247147
10	0x3e36ab30	0.1783874
11	0xbc860c17	-0.016363187
12	0x3dfa6469	0.12226183
13	0xbb14289e	-0.0022607218
14	0x3d84f8cf	0.06492769
15	0xbd838d83	-0.064234756
16	0x3df67f04	0.12035945
17	0xbbe3928b	-0.0069449595
18	0xbe05ead4	-0.13077861
19	0x3cb36165	0.021897027
20	0xbde4146c	-0.11136708
21	0xbcc0e413	-0.023546254
22	0xbd809a22	-0.062793985
23	0x3e4dc1c4	0.20093447
24	0xbc99b961	-0.018765153
25	0xbd1d51ce	-0.038408093
26	0xbe9364f9	-0.28787974
27	0xbe5565d3	-0.20839624
28	0x3cd7e4ca	0.026354212
29	0xbe256c51	-0.161546
30	0x3e707398	0.23481596
31	0xbe26d7de	-0.16293284
32	0x3e18dc7b	0.14927857
33	0xbb8bfef8	-0.004272338
34	0xbcf026b7	-0.029315336
35	0x3e1597f3	0.14608745
36	0x3ca2f742	0.019893292
37	0x3e1a439a	0.1506485
38	0x3d6fef1f	0.058577653
39	0xbcf79108	-0.030220523
40	0x3db15f8c	0.08660802
41	0xbcd66a32	-0.026173685
42	0x3de7f1f7	0.11325448
43	0x3e5346cf	0.2063248
44	0x3e01d663	0.12679438
45	0xbdcd6032	-0.100281134
46	0x3e0ae764	0.13564831
47	0x3d9710a5	0.073762216
48	0x3ca17c54	0.019712605
49	0xbed4bc8d	-0.41550103
50	0x3db7e84c	0.08979854
51	0xbd3492e9	-0.044085417
52	0xbe917872	-0.28412205
53	0x3daabc05	0.08336643
54	0x3c604348	0.013687916
55	0x3d4f1cfc	0.05056475
56	0x3e13fcee	0.14451954
57	0xbd3bd734	-0.04585953
58	0x3d4097bd	0.04701971
59	0xbdec9d0b	-0.11553391
60	0x3d9d0662	0.07667233
61	0xbe8627ad	-0.26202145
62	0x3d8a7d09	0.0676213
63	0xbd8959ce	-0.06706582
64	0x3d848fc9	0.06472737
65	0xbd2a5bcf	-0.04159146
66	0x3e2c70f4	0.16839963
67	0xbdfbb2ad	-0.12289939
68	0xbe004e3f	-0.12529849
69	0xbe01ac13	-0.12663297
70	0x3e483bbf	0.19554041
71	0x3dc94c44	0.09829
72	0x3e8021a7	0.25025675
73	0x3d77b15e	0.060471885
74	0xbeaa84d0	-0.33304453
75	0xbeed897a	-0.4639395
76	0xbe368586	-0.17824373
77	0x3c830dba	0.015997756
78	0x3e0d04d0	0.13771367
79	0x3e098a67	0.13431703
80	0xbe3bbb0b	-0.1833307
81	0xbe45dfb5	-0.19323619
82	0x3db38f18	0.08767527
83	0xbc12a088	-0.008949406
84	0x3d2535f9	0.040334675
85	0x3cd47fbb	0.025939813
86	0x3dd0a1a8	0.101870835
87	0xbe317b6d	-0.1733224
88	0xbdf0a393	-0.11749949
89	0x3d43ace0	0.04777229
90	0x3ceb7e44	0.028746732
91	0xbd87b0bc	-0.06625506
92	0x3ddd1abe	0.10796116
93	0x3e00c8a6	0.12576541
94	0xbdfb6821	-0.122757204
95	0xbd78f2d8	-0.06077847
96	0x3e942597	0.2893493
97	0x3d7416af	0.059591945
98	0xbe7ecbf2	-0.24882486
99	0xbef34215	-0.47511354
100	0xbe050007	-0.12988292
101	0xbb9522eb	-0.0045512817
102	0x3d919030	0.0710758
103	0xbdc3bccf	-0.09557497
104	0xbcea12df	-0.028573452
105	0xbe3ee41f	-0.18641709
106	0xbd2d7950	-0.04235202
107	0x3d9229ca	0.07136877
108	0xbd291589	-0.041280303
109	0xbe06230f	-0.13099311
110	0x3e4fc61d	0.20290418
111	0x3d1afa62	0.03783644
112	0x3d808b7c	0.062766045
113	0xbe42d2d3	-0.19025736
114	0xbe09a48f	-0.1344168
115	0xbd8d5ba0	-0.06902242
116	0x3cf63df2	0.030058835
117	0xbe39c88d	-0.1814291
118	0xbd53d1ea	-0.05171386
119	0xbd830a01	-0.063983925
120	0xbe1a08e4	-0.15042454
121	0xbf0a14e8	-0.5393815
122	0x3eea7c19	0.45797804
123	0xbd248060	-0.04016149
124	0xbe53bc05	-0.20677193
125	0xbe042fd2	-0.12908867
126	0xbe068fd8	-0.1314081
127	0xbe0d22fd	-0.13782878
128	0x3e5e4e79	0.21709622
129	0xbdebc99a	-0.11513062
130	0x3de7d591	0.113200314
131	0x3d886255	0.0665938
132	0xbd9bd847	-0.07609611
133	0x3dd8d400	0.10587311
134	0x3d5940da	0.053040363
135	0x3cf26865	0.029590795
136	0xbd812427	-0.06305724
137	0xbdc9dbaf	-0.098563544
138	0x3e242114	0.16028243
139	0x3d613243	0.054979574
140	0x3e2e07b8	0.16995132
141	0xbda9bece	-0.08288346
142	0x3e8ae071	0.2712436
143	0xbd658d54	-0.056042984
144	0x3e5b3ba1	0.21409465
145	0x3dc06c96	0.09395711
146	0xbe02b879	-0.12765683
147	0x3d17a84a	0.037025727
148	0x3dfe65bf	0.1242175
149	0xbe266b29	-0.16251816
150	0x3ce2b40e	0.027673747
151	0xbcfe5b18	-0.031049296
152	0xbd12b8e7	-0.035820868
153	0xbe2c5185	-0.16827972
154	0x3e2cfc7f	0.16893195
155	0xbe921d14	-0.2853781
156	0x3d9fbf82	0.07800199
157	0x3d28bd31	0.041196052
158	0x3d43e2d4	0.047823742
159	0xbe06576c	-0.13119286
160	0x3e261112	0.1621745
161	0x3c9ef06f	0.019401757
162	0xbac32e88	-0.0014891187
163	0xbe57c7d6	-0.21072325
164	0x3d3e8497	0.046513166
165	0xbdb120d8	-0.086488426
166	0xbe164c11	-0.14677455
167	0x3e5cf3de	0.21577403
168	0x3ee0f730	0.4393859
169	0xbcc3858a	-0.023867387
170	0xbc873547	-0.016504897
171	0xbcd1fee5	-0.025634238
172	0x3db49e50	0.08819258
173	0xbd6f23bf	-0.0583837
174	0xbe09aa54	-0.13443881
175	0xbcb3f383	-0.021966701
176	0xbb9d6c8a	-0.0048041986
177	0xbcd310ea	-0.025764901
178	0x3d396d62	0.04527033
179	0xbedebb35	-0.43502203
180	0x3d1a66dc	0.03769575
181	0x3d815033	0.06314125
182	0x3d0aa0f0	0.03384489
183	0xbd9ba3c1	-0.07599593
184	0x3dd37136	0.10324328
185	0x3dd524cd	0.1040741
186	0x3d9478a6	0.07249574
187	0xbd17f453	-0.03709824
188	0xbd2db2a5	-0.042406697
189	0x3d5ba89d	0.0536276
190	0xbc062739	-0.008188062
191	0xbc6cccca	-0.014453122
192	0x3e00a9e3	0.12564807
193	0x3e414dd1	0.18877341
194	0xbe304384	-0.17213255
195	0xbe91eb91	-0.28500035
196	0x3d0ce160	0.03439462
197	0xbd34061e	-0.043951146
198	0x3dae708d	0.08517561
199	0xbc402fd3	-0.011730152
200	0xbe7ea997	-0.24869381
201	0xbdd201b9	-0.10254235
202	0xbbc3801f	-0.005966201
203	0x3da473b1	0.08029879
204	0x3d396a63	0.045267474
205	0xbdc3eff7	-0.09567254
206	0xbdc8c225	-0.09802655
207	0xbe21298b	-0.15738504
208	0xbd2b4c74	-0.04182096
209	0x3dbd6573	0.092478655
210	0x3e1b01e6	0.15137443
211	0x3de3a5bf	0.11115598
212	0xbe304ed7	-0.17217575
213	0xbdff258c	-0.124583334
214	0xbb8f24a0	-0.0043683797
215	0x3e88b59d	0.2670106
216	0x3dabd530	0.08390272
217	0x3d2e3b43	0.042536985
218	0x3e63eaa7	0.22257482
219	0xbe5fd8f1	-0.218601
220	0xbe92e028	-0.28686643
221	0x3d389bb8	0.04507038
222	0xbe8f2554	-0.27958167
223	0xbb97aecc	-0.0046289917
224	0xbdc60343	-0.09668591
225	0x3e0e8b69	0.13920368
226	0x3db24c94	0.08706012
227	0x3d922b5a	0.07137175
228	0xbe14c93b	-0.14529888
229	0xbe04424f	-0.1291592
230	0xbdc78560	-0.09742236
231	0x3e621f81	0.2208233
232	0x3e2ac63a	0.1667718
233	0x3e76f9e6	0.24118766
234	0x3e354c95	0.17704995
235	0x3dfb369f	0.122662775
236	0x3d936fb8	0.07199043
237	0xbda29f58	-0.07940549
238	0xbdeb3da5	-0.11486367
239	0xbe16868a	-0.1469976
240	0x3e34f6cc	0.1767227
241	0xbe1bf6e2	-0.15230897
242	0xbdc18ba8	-0.094504654
243	0xbdeedca3	-0.11663177
244	0xbdc165d7	-0.094432525
245	0xbe0f543e	-0.1399698
246	0xbe9c7654	-0.30559027
247	0xbd00788e	-0.03136497
248	0x3a9e6b24	0.0012086374
249	0x3d7cb704	0.061697975
250	0x3cf3b055	0.029747168
251	0xbddc9b2f	-0.107717864
252	0xb9ec1293	-0.00045027267
253	0xbd7f8d00	-0.062390327
254	0xbd066266	-0.032808684
255	0xbe2808fd	-0.16409679

shared.0.bias f4 [128]
0	0x3c12aea6	0.008952772
1	0x3d791086	0.060806774
2	0xbcb2805e	-0.021789726
3	0xbe1c30b0	-0.15252948
4	0x3d1175e2	0.035512812
5	0x3e42a5ac	0.19008511
6	0x3cd52601	0.026019098
7	0xbd7ca7fd	-0.061683644
8	0x3da51ce1	0.08062149
9	0x3da82f44	0.0821214
10	0xbcf103ae	-0.0294207
11	0xbdd4807e	-0.103760704
12	0xbd09abd2	-0.033611126
13	0xbd2d3a5a	-0.042291977
14	0x3e0adf36	0.1356171
15	0x3e7c9715	0.24667008
16	0x3deae978	0.11470312
17	0x3df16b49	0.11788041
18	0x3e521cbc	0.20518774
19	0xbd08974c	-0.033347413
20	0x3b7f96ee	0.0038999873
21	0x3e59e8c9	0.21280207
22	0x3e4bf21d	0.19916578
23	0x3dd3d4eb	0.10343345
24	0xbdc4b341	-0.096045025
25	0x3e456c5e	0.1927962
26	0xbdc110da	-0.09427042
27	0x3e2f4766	0.1711708
28	0x3dae623a	0.08514829
29	0x3db8e70f	0.09028446
30	0xbe0a4733	-0.13503723
31	0x3d486aaa	0.048929848
32	0x3e0a504a	0.1350719
33	0x3e594126	0.21216258
34	0xbcd2e3b4	-0.025743343
35	0x3e6f3c72	0.23362902
36	0xbccaf193	-0.024773395
37	0xbd42c828	-0.047554165
38	0xbcab01e4	-0.020874925
39	0x3d8160cb	0.0631729
40	0xba10ec46	-0.00055283715
41	0x3e3b9b92	0.18321064
42	0xbd52fa0e	-0.051508002
43	0x3cb710ab	0.022346815
44	0xbd123529	-0.03569523
45	0x3e59196e	0.21201107
46	0x3cf62daf	0.03005108
47	0xbdbb4652	-0.09144272
48	0xbc317541	-0.010831178
49	0x3b500b4a	0.003174501
50	0x3deedf16	0.11663644
51	0x3d2ac30b	0.041689914
52	0x3e4ff5cf	0.20308612
53	0xbd09bfd8	-0.033630222
54	0x3c070c84	0.00824273
55	0x3d60d4e0	0.054890513
56	0x3da3f597	0.08005827
57	0x3e7faf44	0.24969202
58	0x3d695b83	0.056972038
59	0x3e4aa9ab	0.19791286
60	0x3e4ac8d7	0.19803177
61	0xbcdb2e88	-0.026755586
62	0x3d52d3c8	0.0514715
63	0xbd07ffe6	-0.03320303
64	0x3e49a33a	0.19691172
65	0xbd37bbcb	-0.044856828
66	0x3deb83f0	0.114997745
67	0x3dd353ce	0.10318719
68	0xbe1ba9a7	-0.15201436
69	0xbd9f0302	-0.077642456
70	0xbe28acf1	-0.16472222
71	0xbcd955e1	-0.026530208
72	0x3d65fed2	0.05615122
73	0x3d6feb27	0.058573868
74	0x3e626b33	0.22111206
75	0xbe139de7	-0.14415704
76	0xbd824c4a	-0.06362207
77	0xbdfdbd25	-0.12389592
78	0x3d7cfd99	0.061765287
79	0x3db4cde1	0.08828331
80	0xbe03d450	-0.1287396
81	0x3e69ba50	0.22824979
82	0xbda1eca8	-0.07906467
83	0x3e6ef3fd	0.23335262
84	0x3d3f62e9	0.046725187
85	0x3e3fd9d1	0.18735434
86	0x3e4c8615	0.19973023
87	0xbc9eb8aa	-0.019375164
88	0x3cc07bdf	0.023496566
89	0x3e09ea15	0.13468201
90	0xbe36aeb3	-0.1784008
91	0x3e3e7c3d	0.1860208
92	0xbdf70eaa	-0.12063344
93	0x3e7b1957	0.24521385
94	0xbdf07da4	-0.11742714
95	0xbc441a72	-0.011969196
96	0x3e61c002	0.22045901
97	0x3d33d2ab	0.04390208
98	0x3e5e51dc	0.21710914
99	0x3e2fb2ea	0.17158094
100	0x3e8f74d8	0.28018832
101	0xbe1813f4	-0.14851362
102	0x3d83a75b	0.06428405
103	0x3c1e4c07	0.009661681
104	0x3dc96ae0	0.09834838
105	0xbdf3d343	-0.11905529
106	0x3e2354b8	0.15950286
107	0x3d72bf37	0.059264388
108	0xbd7bf172	-0.061509557
109	0xbdf1cb87	-0.11806398
110	0x3e4d67f3	0.20059185
111	0xbd121f33	-0.035674285
112	0x3e5ee1b5	0.21765788
113	0x3da9ac58	0.08284825
114	0x3dd14581	0.10218335
115	0x3c3b733f	0.011441051
116	0x3cbb8c2a	0.022893984
117	0x3c3d03a8	0.011536516
118	0xbe0591b5	-0.13043864
119	0x3e55e9c8	0.20889962
120	0xbd2005ab	-0.039067905
121	0x3e2caeac	0.16863507
122	0xbcdbc0c7	-0.026825322
123	0x3e4a3d63	0.1974998
124	0x3e7378c8	0.23776543
125	0xbdf4b2ae	-0.11948143
126	0x3e72d49a	0.23713914
127	0x3d201713	0.039084505

shared.2.weight f4 [128, 128]
0	0xbd9931c7	-0.074801974
1	0x3d7ecedf	0.062209006
2	0x3b54cb1e	0.00324697
3	0x3e406ea3	0.18792205
4	0x3da2aaa1	0.07942701
5	0x3cc75979	0.024334656
6	0x3db41b28	0.08794242
7	0x3bd657e1	0.0065412377
8	0x3d7ee094	0.062225893
9	0xbe22f4f3	-0.15913753
10	0xbd1fc5c7	-0.039006975
11	0x3d50d36e	0.050982885
12	0xbdc68c7f	-0.09694766
13	0xbce943bf	-0.028474687
14	0x3d9f91eb	0.077915035
15	0x3dc2ccd7	0.09511726
16	0x3dfd0130	0.12353742
17	0x3dd55bbc	0.104178876
18	0xbd89bb8b	-0.06725224
19	0x3c97240b	0.018449804
20	0x3d2e9d4c	0.04263048
21	0x3db005be	0.08594845
22	0x3d69f9c5	0.057122964
23	0xbd68cb03	-0.056834232
24	0xbd79add1	-0.06095678
25	0xbdcdc1d2	-0.10046734
26	0xbdfeffbd	-0.12451122
27	0x3daf836d	0.08569989
28	0xbd99c6d5	-0.07508627
29	0x3d78a8ad	0.060707737
30	0xbcae606c	-0.021286212
31	0x3e6d4bc0	0.23173428
32	0xbd12fffc	-0.035888657
33	0x3d4fe3dd	0.050754417
34	0xbd18e1f3	-0.037324857
35	0x3dc4afca	0.096038416
36	0x3d40ef9f	0.04710352
37	0x3dd57193	0.10422053
38	0x3dc7eb5d	0.09761689
39	0x3dee2aa8	0.1162923
40	0xbd6fffcb	-0.058593553
41	0x3d76cde1	0.060254935
42	0x3dd72b84	0.10506347
43	0x3d32e3fd	0.043674458
44	0xbd2fe630	-0.042944133
45	0x3d8f8012	0.07006849
46	0xbd8912ee	-0.06693064
47	0xbd0535d2	-0.03252203
48	0x3d7dd1a3	0.061967503
49	0xbceb284b	-0.028705737
50	0x3ca0b6f8	0.019618496
51	0xbcd818b4	-0.026378967
52	0x3c115562	0.0088704545
53	0x3d1c72a7	0.03819528
54	0x3e19b3aa	0.15009943
55	0xb9a021c1	-0.00030542727
56	0x3e018a3a	0.12650385
57	0xbd2ee697	-0.042700376
58	0xbdabed23	-0.083948396
59	0x3992d650	0.00028006965
60	0x3d1c31ac	0.03813331
61	0xbcf3ce99	-0.0297616
62	0x3c0e773f	0.008695423
63	0xbda817a1	-0.08207632
64	0xbd8cd102	-0.068758026
65	0x3d82b489	0.063820906
66	0x3c6c489a	0.014421606
67	0x3c03dc47	0.008048124
68	0x3c43166f	0.011907204
69	0x3db82198	0.089907825
70	0xbdf0023b	-0.117191754
71	0xbd08dbca	-0.033412732
72	0xbc8ee307	-0.01744224
73	0x3c10d35c	0.0088394545
74	0xbe1adadd	-0.15122552
75	0x3c5e5323	0.013569626
76	0x3d17095a	0.036874153
77	0x3d74d8ce	0.059777074
78	0xbdae0639	-0.08497281
79	0x3d74db65	0.059779543
80	0xbc8ff0d4	-0.01757089
81	0xbb9031c6	-0.0044004647
82	0x3d193722	0.037406094
83	0x3e211c91	0.15733553
84	0x3d1844cd	0.03717499
85	0x3daeabe8	0.08528882
86	0xbdd39a5c	-0.10332176
87	0x3d39d478	0.04536864
88	0x3d2ad90d	0.041710902
89	0x3d0e4cb6	0.034741126
90	0xbe29c1f7	-0.16577898
91	0xbd28240d	-0.041050006
92	0x3cfc38c3	0.030788785
93	0x3d72282c	0.059120342
94	0x3c48f008	0.012264259
95	0xbe0c95b8	-0.13728988
96	0xbc42babe	-0.011885343
97	0x3c5339e3	0.012892219
98	0x3ccc8837	0.024967296
99	0xbe11e4c9	-0.14247431
100	0xbc2648ab	-0.010149161
101	0x3e1c67e8	0.15274012
102	0x3c89e5fc	0.016833298
103	0xbd0bf425	-0.03416838
104	0xbcaca751	-0.021075876
105	0xbcc91089	-0.024544017
106	0xbcf4f03d	-0.02989971
107	0xbe1ae48c	-0.15126246
108	0x3cf3a8c3	0.029743558
109	0xbd1f6878	-0.03891799
110	0x3e51e99e	0.20499274
111	0xbda321aa	-0.07965405
112	0x3de0637b	0.109564744
113	0xbd0e9050	-0.034805596
114	0xbd35f391	-0.044421736
115	0xbcc66435	-0.024217704
116	0x3da03b49	0.07823808
117	0x3cb6fa2f	0.022336094
118	0xbd2415f3	-0.040059995
119	0x39ac9124	0.00032914535
120	0xbe01f6b4	-0.12691766
121	0x3d14f628	0.036367565
122	0xbdd79b9a	-0.105277255
123	0x3db53491	0.08847917
124	0xbd9572ae	-0.07297264
125	0xbd3814e1	-0.044941787
126	0xbda6c207	-0.081424765
127	0xbd5848db	-0.052803855
128	0x3d26314c	0.040574357
129	0xbd00a8d8	-0.031411022
130	0x3e1ea0aa	0.15490976
131	0xbc4f8413	-0.012665766
132	0x3bf0f1b8	0.007353034
133	0x3d17096a	0.036874212
134	0xbdaba515	-0.08381096
135	0xbda69173	-0.08133211
136	0x3d97ce82	0.07412435
137	0xbe160b2f	-0.14652704
138	0xbe1cbe94	-0.15307075
139	0x3c92bd34	0.017912485
140	0xbd18fbea	-0.03734962
141	0x3d1425d8	0.036168903
142	0x3db2c284	0.08728507
143	0xbbebc96f	-0.0071956436
144	0xbdd000de	-0.101564154
145	0x3c5b2de4	0.01337764
146	0xbd84cfe2	-0.06484963
147	0xbda39d3b	-0.07988974
148	0xbd88c9e0	-0.066791296
149	0xbcd82773	-0.026385998
150	0x3deb43a7	0.11487513
151	0x3cbd7dc7	0.023131264
152	0x3dae4f29	0.08511192
153	0x3d8a9d12	0.0676824
154	0xbdc53e8b	-0.0963107
155	0x3da05225	0.07828168
156	0xbdba9947	-0.091112666
157	0xbda9c78d	-0.082900144
158	0x3dcc8852	0.099869385
159	0x3e8b0a35	0.27156225
160	0x3e014b38	0.1262635
161	0xba822707	-0.0009929844
162	0xbb70a980	-0.0036722124
163	0x3dbe9cfd	0.09307287
164	0xbbea1644	-0.0071437676
165	0x3d1c6b7b	0.03818844
166	0xbd53cac1	-0.051707033
167	0x3e3e575d	0.18588014
168	0x3de88370	0.11353195
169	0x3dc2eae7	0.0951746
170	0x3e24ee8b	0.16106622
171	0x3ce19cdd	0.027540619
172	0xbe07410d	-0.13208409
173	0xbd586b2b	-0.05283658
174	0x3d864f5c	0.06558105
175	0xbd946036	-0.07244913
176	0xbdc5a13b	-0.09649893
177	0xbc037b8d	-0.008025062
178	0x3dc4f864	0.09617689
179	0xbd370244	-0.044679895
180	0x3df42d0c	0.119226545
181	0xbc20c6f7	-0.009813062
182	0x3ea6c318	0.3257072
183	0x3de36505	0.11103252
184	0xbd964682	-0.07337667
185	0xbda0fd8d	-0.07860861
186	0xbd764dd3	-0.060132813
187	0x3d3f6ac4	0.04673268
188	0xbd617b3e	-0.055049174
189	0xbcc8f2df	-0.024529872
190	0xbc8a5749	-0.016887324
191	0xbdc815ff	-0.097698204
192	0xbd82f7f3	-0.06394949
193	0x3e29f3c5	0.16596897
194	0x3d38c23e	0.04510712
195	0x3d1c66a4	0.038183823
196	0x3d88cf61	0.066801794
197	0x3d09bbad	0.033626247
198	0xbd1e264f	-0.038610753
199	0x3ccc820e	0.024964359
200	0xbbdd8efc	-0.00676143
201	0xbd0fb2c2	-0.035082586
202	0x3da9eba7	0.082969
203	0x3cfd3336	0.030908208
204	0x3e0385a2	0.12843946
205	0x3d50d52e	0.050984554
206	0x3d16b74d	0.036795903
207	0x3cbb5007	0.022865308
208	0x3d1412ad	0.036150623
209	0xbd46205b	-0.0483707
210	0xbb2b37df	-0.002612583
211	0x3e571d4f	0.21007274
212	0xbdbe911f	-0.093050234
213	0xbde22554	-0.11042276
214	0xbdef670f	-0.11689579
215	0x3a576cc2	0.00082178053
216	0xbcb9dfb4	-0.022689678
217	0xbd6eb1ee	-0.058275156
218	0x3b9b845a	0.004746002
219	0x3da31cb5	0.0796446
220	0x3d4af9ad	0.049554516
221	0x3da613a6	0.081092164
222	0x3d09f5b2	0.03368158
223	0xbdfb4317	-0.12268656
224	0x3df13388	0.11777407
225	0xbda1a47d	-0.07892702
226	0xbc1238e4	-0.008924697
227	0xbd96bdce	-0.07360421
228	0x3e161e00	0.14659882
229	0xbe273601	-0.16329195
230	0x3d73ae53	0.05949242
231	0xbd86a2a8	-0.06573993
232	0x3dbe6601	0.092967995
233	0xbcec1297	-0.028817458
234	0x3dcf9448	0.10135704
235	0xbe75e1a5	-0.24011858
236	0xbc3f58c2	-0.011678876
237	0xbd02c145	-0.031922597
238	0x3e5b2ae0	0.21403074
239	0x3d7cac3f	0.061687704
240	0x3d08fc05	0.03344347
241	0xbdab04d9	-0.08350534
242	0xbd29a28a	-0.041414775
243	0x3d83a5d7	0.06428116
244	0x3d2ce00b	0.04220585
245	0x3e39f827	0.18161069
246	0x3dfd5140	0.12369013
247	0x3d61795e	0.055047385
248	0xbde0d172	-0.109774485
249	0xbd84020f	-0.06445705
250	0x3d9313ee	0.07181536
251	0x3d61831c	0.055056676
252	0x3d155ed2	0.03646738
253	0xbda4a941	-0.08040095
254	0x3a6adc3b	0.00089592085
255	0x3c77a063	0.015113923

shared.2.bias f4 [128]
0	0x3d9f3679	0.07774062
1	0x3ddd77b2	0.10813846
2	0x3d88b923	0.06675937
3	0x3e038fef	0.12847875
4	0x3d84c8f3	0.064836405
5	0xbd2c3014	-0.04203804
6	0x3db9f0c9	0.09079129
7	0x3c6bbc21	0.014388115
8	0x3dff3546	0.12461333
9	0xbd926d26	-0.07149725
10	0xbd6cd6ed	-0.057822157
11	0x3db20515	0.086923756
12	0xbcddb52e	-0.027063932
13	0x3da0cdcf	0.07851755
14	0xbd19cf06	-0.03755095
15	0x3daa4709	0.0831433
16	0x3dd35305	0.10318569
17	0x3da71c1d	0.08159659
18	0xbd2633e3	-0.040576827
19	0x3db1af7e	0.086760506
20	0x3d433d2d	0.047665764
21	0x3cb410f1	0.021980735
22	0xbd8317a4	-0.064009935
23	0xbcc3d1c6	-0.023903739
24	0xbd039a72	-0.032129712
25	0x3dc636c3	0.09678414
26	0xbd9c5840	-0.0763402
27	0xbcf4ec1d	-0.029897744
28	0xbd9e0fd0	-0.0771786
29	0x3da1b317	0.07895487
30	0xbd27cdcb	-0.040967744
31	0xbd096b29	-0.03354946
32	0x3d0e98b5	0.0348136
33	0xbd4842a9	-0.048891697
34	0x3d9961d7	0.074893646
35	0x3d1fbb68	0.038997084
36	0x3dc472c6	0.09592204
37	0xbcce5d10	-0.02519086
38	0xbd796f7a	-0.060897328
39	0xbbe137a2	-0.006873087
40	0xba05450d	-0.0005083837
41	0x3b50863e	0.0031818296
42	0x3e0360fe	0.12829968
43	0xbd157643	-0.036489736
44	0xbd11b1d8	-0.035569996
45	0x3da158bb	0.07878252
46	0x3c103ba7	0.008803285
47	0x3d8df757	0.06931942
48	0x3d32b31d	0.043627847
49	0x3d673caa	0.056454338
50	0x3dda9b88	0.106741965
51	0x3d31d8e7	0.043419745
52	0xbbb7a9fb	-0.00560498
53	0xbd006895	-0.031349737
54	0xbb12fa9e	-0.0022427212
55	0xbd2f4fa5	-0.042800564
56	0x3e00c35f	0.12574528
57	0x3d9a3cf1	0.07531155
58	0xbd36fb78	-0.044673413
59	0x3da97082	0.08273412
60	0x3da681e9	0.08130247
61	0x3d47fcb3	0.048824977
62	0x3d969f6d	0.07354627
63	0x3d3e37c0	0.046439886
64	0x3d32222b	0.043489616
65	0x3dcb17d6	0.09916656
66	0x3da3ec58	0.08004063
67	0x3dd1bd7b	0.10241219
68	0x3d7cffe0	0.06176746
69	0xbc759551	-0.014989213
70	0x3c8f1e1b	0.01747041
71	0x3dbaada4	0.091151506
72	0xbc14bf4a	-0.00907881
73	0xbc507185	-0.012722378
74	0xbcd47268	-0.02593346
75	0xbc800e01	-0.015631678
76	0x3db8ce79	0.090237565
77	0x3d78a84b	0.06070737
78	0xbd124bc8	-0.035716802
79	0xbd55f721	-0.052237634
80	0x3dacbb83	0.084342025
81	0x3d84f19a	0.06491394
82	0x3dd0b397	0.10190504
83	0x3d0a1fa7	0.033721592
84	0x3c4e726a	0.012600521
85	0x3d9ee98d	0.0775939
86	0x3d884bc5	0.06655077
87	0x3dbef90d	0.093248464
88	0x3ce43d76	0.027861338
89	0xbd9f6108	-0.07782179
90	0x3dabfb40	0.083975315
91	0x3dbf4602	0.09339525
92	0x3dbfad5a	0.09359236
93	0x3d2301ce	0.039796643
94	0x3d8a4bbe	0.06752728
95	0xbc46ea35	-0.0121408
96	0x3dbf7035	0.09347574
97	0x3cb67b7b	0.022275677
98	0x3dcaf96b	0.09910854
99	0x3d750106	0.05981543
100	0x3b903cc8	0.004401777
101	0x3db2dfeb	0.08734115
102	0x3d296c4d	0.04136305
103	0xbb328e46	-0.0027245446
104	0x3d2c7043	0.04209925
105	0xbbf49282	-0.007463754
106	0xbcdf8bce	-0.027288344
107	0x3db47890	0.08812058
108	0xbcffd155	-0.031227747
109	0x3dae90d2	0.08523716
110	0xbd339fd5	-0.0438536
111	0x3d0fada8	0.03507772
112	0xbc298602	-0.010346891
113	0x3d9dbcbc	0.07702014
114	0x3df3ce9a	0.119046405
115	0xbd384725	-0.044989724
116	0x3ced131d	0.028939778
117	0x3c2daf7b	0.01060092
118	0xbc6c6fd9	-0.014430963
119	0xbda0a1a8	-0.078433335
120	0x3c8568c2	0.016285304
121	0xbd06897d	-0.032845963
122	0x3df6e9a8	0.12056285
123	0x3d7fa779	0.062415574
124	0x3db2f1d7	0.087375335
125	0xbd1349c7	-0.03595903
126	0xbc0fa304	-0.008766893
127	0x3d5fbd3f	0.05462384

actor_mean.0.weight f4 [128, 128]
0	0xbd475687	-0.048666503
1	0x3db7a9cd	0.08967934
2	0x3dd9162f	0.10599934
3	0xbd7058a1	-0.058678273
4	0xbdc9cda9	-0.0985368
5	0x3a3c9266	0.0007193446
6	0x3d04b48b	0.03239874
7	0xbd44f197	-0.04808196
8	0x3ac2e407	0.0014868983
9	0x3d695ff2	0.056976266
10	0x3baabbb0	0.0052103624
11	0xbd3f5e9e	-0.046721093
12	0x3abec4cd	0.0014554501
13	0xbb57b4c9	-0.0032914153
14	0x3c1db17f	0.009624838
15	0x3d3ed7b9	0.046592448
16	0x3cc5c37a	0.024141062
17	0xbc411a74	-0.011786092
18	0xbd93c32b	-0.0721496
19	0x3cff0e71	0.031134816
20	0xbcadb81e	-0.021205958
21	0x3d2d0cc2	0.042248495
22	0x3bfe869e	0.0077675125
23	0x3d88454d	0.06653843
24	0xbd55b1f3	-0.05217166
25	0x3d6e9ef7	0.05825707
26	0x3d66be49	0.056333814
27	0x3d9d4082	0.076783195
28	0xbd577cde	-0.052609317
29	0x3d021e3e	0.031767122
30	0xbcefccf5	-0.029272536
31	0x3b2dbb26	0.0026509254
32	0x3c70eaf0	0.014704451
33	0x3c377f9f	0.011199861
34	0xbc100474	-0.008790124
35	0x3e148128	0.14502394
36	0xbd493972	-0.04912705
37	0x3df59805	0.11991886
38	0x3d9471c1	0.07248259
39	0xbde750bb	-0.11294695
40	0x3d5c2ea2	0.05375541
41	0xbdc1bf45	-0.0946031
42	0xbd5529fe	-0.052042
43	0xbd1952fb	-0.037432652
44	0xbcf84a70	-0.030308932
45	0xbdd5cf4a	-0.10439928
46	0xbde675b2	-0.11252917
47	0xbda4b891	-0.08043016
48	0xbccbc8d5	-0.024876038
49	0xbd3505b7	-0.044194903
50	0x3db886c5	0.0901008
51	0xbd922cad	-0.071374275
52	0x3d902844	0.0703893
53	0x3dc36280	0.09540272
54	0x3d3bc920	0.045846105
55	0xbc3616b8	-0.011113815
56	0xbde68357	-0.1125552
57	0x3d6e9f21	0.058257226
58	0xbca44964	-0.020054527
59	0x3ce86063	0.028366273
60	0xbd45c682	-0.048285015
61	0xbbf36c82	-0.0074287066
62	0x3d7ee690	0.0622316
63	0xbda5da4c	-0.080982774
64	0xbcc38ae5	-0.023869941
65	0x3bad0ff1	0.0052814414
66	0xb9f33c9e	-0.00046393735
67	0xbc46bbf3	-0.0121297715
68	0xbc88ab2a	-0.01668318
69	0xbce55f04	-0.027999409
70	0x3d2ce845	0.042213697
71	0x3c037524	0.008023534
72	0x3d8bf745	0.06834272
73	0xbd49ffc5	-0.049316186
74	0xbdd25908	-0.102708876
75	0x3d1cf6ce	0.03832131
76	0x3d7902fb	0.060793858
77	0xbce88248	-0.028382435
78	0x3d8047b7	0.062636785
79	0xbdc02991	-0.09382928
80	0x3c0c47e2	0.00856206
81	0x3d857cb3	0.06517925
82	0xbd503f75	-0.050841767
83	0xbc3f794c	-0.011686634
84	0x3b98a296	0.0046580536
85	0x3c5a5a2c	0.013327163
86	0x3b031734	0.0020002844
87	0x3c54aa39	0.012980037
88	0x3de4a634	0.11164513
89	0xbd8dd0da	-0.06924601
90	0x3c9e4714	0.019321002
91	0xbd274437	-0.04083654
92	0xbdac35bc	-0.084086865
93	0xbd87812a	-0.06616433
94	0x3d554c38	0.05207464
95	0xbb692c2c	-0.0035579307
96	0x3d8081ff	0.06274795
97	0x3d9b3f1e	0.07580398
98	0xbcdd0234	-0.02697859
99	0x3cfe2b7e	0.031026598
100	0xbd71fc98	-0.059078783
101	0xbdaed713	-0.08537116
102	0xbcd4ea46	-0.025990617
103	0xbc47ba76	-0.012190452
104	0xbdbe0e68	-0.092800915
105	0xbceb04fb	-0.028688898
106	0x3d628633	0.055303764
107	0x3c285aa0	0.010275513
108	0xbda67f5c	-0.081297606
109	0x3cdec034	0.027191259
110	0xbbce853a	-0.006302503
111	0x3d0fe416	0.03512963
112	0x3dbf5aa9	0.09343464
113	0xbddb8657	-0.10718983
114	0xbd7deb1b	-0.061991792
115	0x3d775532	0.060383983
116	0x3d70cc60	0.058788657
117	0xbdbe5fd7	-0.09295624
118	0xbd4a32e9	-0.049364958
119	0x3c564440	0.0130777955
120	0x3c6716c1	0.014104546
121	0x3cd1f265	0.025628278
122	0xbd8c430c	-0.06848726
123	0x3d95cf73	0.073149584
124	0x3c9c8b26	0.01910932
125	0xbcf7374c	-0.030177735
126	0xbd88c8d9	-0.06678934
127	0x3d38bd3a	0.045102336
128	0xbda8bb72	-0.08238877
129	0xbd2a9089	-0.041641746
130	0x3dcffd63	0.101557516
131	0xbdc29b53	-0.09502282
132	0x3d542862	0.051796325
133	0xbd08ab32	-0.03336639
134	0xbd4132cf	-0.047167595
135	0xbdf292dd	-0.11844418
136	0xbcc2c7fc	-0.023777
137	0x3dae8a93	0.08522525
138	0x3b2578c8	0.0025248993
139	0xbba3b7a4	-0.004996257
140	0x3dba5b02	0.090993896
141	0x3d2f00ab	0.042725246
142	0x3ce54b86	0.027990114
143	0x3df6f44d	0.120583154
144	0x3c0561c5	0.008140986
145	0xbcf765e6	-0.030199956
146	0xbd718aa1	-0.058970097
147	0x3cac1ccf	0.02100983
148	0x3d90e65a	0.07075186
149	0xbcb929b1	-0.022602888
150	0xbd825454	-0.063637406
151	0xbdab14e7	-0.08353596
152	0xbdb03d7e	-0.08605479
153	0x3dc629f9	0.096759744
154	0x3d30390e	0.04302316
155	0x3d59ce29	0.053175125
156	0x3cd3c61c	0.025851302
157	0x3d7dabe1	0.061931495
158	0x3d82edf6	0.06393044
159	0xbd542ec5	-0.051802415
160	0xbcfdccc0	-0.030981421
161	0x3d3cb88b	0.04607443
162	0xbc552a40	-0.0130105615
163	0xbd110f3f	-0.03541493
164	0x3d411f52	0.04714901
165	0x3d5ca7a0	0.053870797
166	0x3d115535	0.03548165
167	0xbdc69162	-0.09695698
168	0xbce04dfc	-0.027380936
169	0x3cc421c6	0.023941886
170	0x3d8dcae7	0.06923466
171	0x3cd3964b	0.025828501
172	0xbdc6e551	-0.097117074
173	0xbdaa8ecf	-0.0832802
174	0xbb8a8bb3	-0.004228079
175	0xbdbca8af	-0.09211861
176	0xbdaab689	-0.08335597
177	0xbd69c7ce	-0.057075314
178	0x3dd35ead	0.10320792
179	0xbcd630b8	-0.026146278
180	0x3dd36b96	0.10323255
181	0x3c5c0285	0.013428335
182	0xbd9dde45	-0.0770841
183	0x3d2cb681	0.042166237
184	0x3dbdc1fc	0.09265515
185	0xbdb4caa3	-0.088277124
186	0x3d02746f	0.03184932
187	0x3d73050a	0.059330977
188	0xbd6b66c5	-0.057471056
189	0x3d38287d	0.044960488
190	0xbdad4963	-0.08461263
191	0x3ce8d368	0.028421119
192	0xbb2209c0	-0.002472505
193	0xbc04db65	-0.008108948
194	0xbca755ab	-0.020426592
195	0xbdef5c9e	-0.11687587
196	0x3c36fefc	0.011169191
197	0xbda3af8f	-0.079924695
198	0xbc764526	-0.015031135
199	0x3c9da9dd	0.019246036
200	0x3de3928b	0.11111935
201	0xbdc9c982	-0.09852888
202	0x3cc5b32b	0.024133286
203	0xbc8942d6	-0.016755503
204	0x3cf1eaf4	0.02953098
205	0x3b03c971	0.0020109082
206	0x3d1807a5	0.037116665
207	0xbd763975	-0.06011339
208	0xbd08593b	-0.03328822
209	0xbd48e0a2	-0.04904235
210	0x3cefde0e	0.029280689
211	0xbdb4a0af	-0.088197105
212	0x3de37b91	0.11107553
213	0x3cca411b	0.024689248
214	0x3d5b2563	0.05350245
215	0xbddb7e17	-0.10717409
216	0x3d2eaedc	0.042647228
217	0x3ca3d0f2	0.019997094
218	0x3d6032d1	0.054735962
219	0x3ce8084a	0.028324265
220	0xbd902871	-0.070389636
221	0xbc1e1491	-0.009648458
222	0xbde91f8e	-0.11382972
223	0x3b83ba12	0.004019984
224	0x3d49f3a0	0.049304605
225	0x3b686c8e	0.0035465094
226	0x3df13cfa	0.117792085
227	0xbdb838f5	-0.08995239
228	0xbdec800f	-0.11547863
229	0xbd2b459d	-0.041814435
230	0x3d83c324	0.064337045
231	0x3d9bf29c	0.076146334
232	0x3e1f8cd9	0.15581073
233	0x3d94803b	0.072510205
234	0xbd3644f8	-0.044499367
235	0xbe056d6d	-0.13030024
236	0xbc731c19	-0.014838242
237	0x3d1f1a25	0.038843293
238	0x3ce084e6	0.02740712
239	0xbd1be73d	-0.038062323
240	0xbbea68a5	-0.007153588
241	0x3d65f8bb	0.05614541
242	0xbcbd473e	-0.02310526
243	0xbb0c94ee	-0.0021451074
244	0xbc1f08f4	-0.009706724
245	0xbcaf761a	-0.02141862
246	0x3cef5828	0.02921684
247	0x3d5c8d42	0.05384565
248	0xbc0bf3fe	-0.008542059
249	0xbccf7d9f	-0.025328455
250	0xbc8d74d4	-0.017267622
251	0xbd1e662d	-0.03867166
252	0x3e16390a	0.14670196
253	0xbcae22be	-0.0212568
254	0x3daa1052	0.08303894
255	0xbdeef9d2	-0.11668743

actor_mean.0.bias f4 [128]
0	0x3d866e0a	0.06563957
1	0x3d90b866	0.07066421
2	0xbceb0ede	-0.028693613
3	0xbd31492c	-0.043282673
4	0x3d4f8066	0.05065956
5	0x3ca0096a	0.019535739
6	0xbc8cafd9	-0.017173694
7	0x3daf85fe	0.08570479
8	0x3d4f9a87	0.050684478
9	0xbd47d0be	-0.048783056
10	0x3c512daa	0.012767235
11	0x3dc28b32	0.09499206
12	0x3c0ffd30	0.008788392
13	0x3da44f96	0.08022992
14	0x3d6c7528	0.057728916
15	0xbd57220b	-0.0525227
16	0x3d2f8e2b	0.04286019
17	0x3d2ae5eb	0.041723173
18	0x3d84987a	0.06474395
19	0x3c10d56a	0.008839944
20	0x3d8e21b8	0.06940025
21	0xbd92d0d3	-0.07168736
22	0xbcf02d9b	-0.029318621
23	0xbd3cc09f	-0.046082135
24	0xbdb2fff9	-0.08740229
25	0x3ce1ba9e	0.027554806
26	0xbb812cac	-0.003942093
27	0xbc31eab7	-0.010859183
28	0xbae1c942	-0.0017226117
29	0xbd077576	-0.033071004
30	0x3bb7edf2	0.005613082
31	0x3d6e9b2c	0.058253452
32	0x3d79a343	0.060946714
33	0xbcfcf5b8	-0.030878887
34	0xbbaf1443	-0.0053429916
35	0x3cc2c6ca	0.02377643
36	0x3d13407d	0.035950173
37	0xbd0e9e55	-0.034818966
38	0x3d89f973	0.06737032
39	0xbc5f9fdb	-0.013648952
40	0xbb179c43	-0.002313391
41	0xbcb84118	-0.022491977
42	0x3cfad2b0	0.030618042
43	0xbc2e6e7c	-0.010646459
44	0x3ca298eb	0.019848308
45	0x3d529677	0.051413026
46	0xbd2aea38	-0.041727275
47	0x3cde6314	0.027146854
48	0xbc98825d	-0.01861685
49	0xbc374911	-0.011186854
50	0xbc5381f1	-0.012909398
51	0x3c1b7c3e	0.009490071
52	0xbb3ed8ea	-0.002912099
53	0x3dd92171	0.106020816
54	0x3d2cbb12	0.04217059
55	0x3d807753	0.06272759
56	0xbc86d0e3	-0.016457027
57	0xbd480078	-0.048828572
58	0xbd0c1005	-0.034194965
59	0xbc3d638a	-0.0115593765
60	0xbc112c10	-0.008860603
61	0x3d93db09	0.07219512
62	0x3c767726	0.015043056
63	0x3d9ace1c	0.075588435
64	0xbd8cbd5e	-0.068720564
65	0xbc9c31bc	-0.019066684
66	0x3d200cb3	0.03907461
67	0x3d44103c	0.047867045
68	0x3bbd6527	0.0057798806
69	0xbd3f6973	-0.046731424
70	0xbc8fb3f6	-0.017541867
71	0xbd012556	-0.031529747
72	0xbc27c9d5	-0.010240992
73	0xbc0c5264	-0.008564565
74	0xbce4b67f	-0.027919052
75	0xbc91d16c	-0.017800055
76	0xbd210e0d	-0.03932004
77	0xbc88060a	-0.016604442
78	0xbd1d7cec	-0.038449213
79	0x3cd89250	0.026436955
80	0xbc8915d3	-0.01673404
81	0x3d598309	0.05310348
82	0x3c779403	0.015110972
83	0xbdba54bd	-0.09098194
84	0x3c33a553	0.010964709
85	0xbcf7cc47	-0.030248774
86	0x3da18ade	0.07887815
87	0xbd2dcd20	-0.04243195
88	0x3c50fddd	0.012755838
89	0x3c22e8df	0.009943216
90	0xbcac347c	-0.02102112
91	0xbdb2e549	-0.08735139
92	0xbd84b729	-0.064802475
93	0x3d9844b5	0.0743498
94	0xbcb3cb9e	-0.021947678
95	0xbd63b075	-0.055588204
96	0xbd86f425	-0.065895356
97	0xbb0a9658	-0.002114674
98	0xbc9720e4	-0.0184483
99	0x3cb9a9a7	0.022663904
100	0x38b6ad3c	8.710704e-05
101	0xbb1ec563	-0.0024226538
102	0xbd8a950a	-0.06766708
103	0xbdae3f43	-0.0850816
104	0x3c1dfcde	0.009642808
105	0xbc4d3272	-0.012524234
106	0x3c29038f	0.01031579
107	0xbd6d02fd	-0.057864178
108	0xbd5af80b	-0.05345921
109	0xbcf65b45	-0.030072818
110	0x3d412ad7	0.047159996
111	0x3dae0653	0.084973
112	0xbd5009ef	-0.050790723
113	0xbcbf3db4	-0.023344852
114	0xbc79ce77	-0.015246979
115	0x3d0740a3	0.033020627
116	0x3d293452	0.041309662
117	0x3b852474	0.0040631834
118	0xbd5096dc	-0.05092512
119	0xbd8b8713	-0.06812873
120	0x3db15e57	0.08660572
121	0x3c04de2a	0.008109609
122	0x3d7442b3	0.05963392
123	0xbd81262c	-0.06306109
124	0x3ca469cc	0.02006998
125	0xbd71b8b7	-0.05901405
126	0x3dab54ef	0.08365809
127	0xbd4b4073	-0.04962201

actor_mean.2.weight f4 [4, 128]
0	0x3dca391a	0.098741725
1	0x3d809a2e	0.062794074
2	0xbd9665de	-0.073436484
3	0x3d8bc835	0.06825296
4	0xbc9a32fd	-0.018823141
5	0x3df72a9d	0.12068675
6	0xbd71974c	-0.05898218
7	0xbc99d30e	-0.018777397
8	0x3d45264c	0.048132226
9	0x3e0d4b30	0.13798213
10	0xbd92e039	-0.07171673
11	0x3b350ce2	0.0027626087
12	0xbcfd1f5c	-0.030898742
13	0xbdade685	-0.08491234
14	0x3d515c45	0.051113386
15	0xbe02d73e	-0.12777421
16	0xbdf9bbf4	-0.12194052
17	0xbde53119	-0.11191005
18	0x3e12fe2d	0.14354773
19	0x3d85437a	0.06507011
20	0x3ca45b4e	0.020063069
21	0xbd34c6f6	-0.044135056
22	0x3d290504	0.04126455
23	0x3df7dda6	0.12102823
24	0x3c92d907	0.017925752
25	0xbdbe4fc1	-0.092925556
26	0x3cf24963	0.02957601
27	0xbc88590c	-0.016644023
28	0x3d89b103	0.067232154
29	0x3dd639e3	0.1046026
30	0x3d998c35	0.074974455
31	0xbc00a848	-0.007852621
32	0x3decbf9f	0.11559986
33	0xbd0e8688	-0.034796268
34	0xbd80d22e	-0.062900886
35	0x3e057e17	0.1303638
36	0x3cf71aea	0.0301642
37	0x3d874053	0.06604066
38	0x3d0bd5e1	0.034139518
39	0xbd4d45dc	-0.05011545
40	0xbdb1fdf5	-0.086910166
41	0x3d0f77e8	0.03502646
42	0xbda98d37	-0.08278888
43	0x3c44db5c	0.01201519
44	0x3da00519	0.07813472
45	0xbd88702e	-0.066620216
46	0x3d74ddbf	0.059781786
47	0x3e40d9e1	0.18833114
48	0x3d4dc103	0.0502329
49	0xbdcf0353	-0.10108056
50	0xbdd84306	-0.10559659
51	0xbd01a1bb	-0.03164838
52	0xbd94225e	-0.072331175
53	0xbdf3e03d	-0.119080044
54	0xbc59bf91	-0.013290302
55	0xbc84e79b	-0.01622372
56	0xbc00d68a	-0.00786365
57	0x3d6509ca	0.05591754
58	0xbdcca250	-0.09991896
59	0xbd9a7cbc	-0.075433224
60	0xbd9e931a	-0.07742901
61	0x3dad81b6	0.08472006
62	0xbda53eef	-0.08068644
63	0xbddfb78d	-0.109236814
64	0x3d0aa969	0.03385297
65	0xbda572bf	-0.08078527
66	0x3da90bd2	0.08254208
67	0xbcdbff9a	-0.026855279
68	0x3ceb31b4	0.028710224
69	0x3d8a7891	0.067612775
70	0x3d1aca1a	0.037790395
71	0x3d1c07fa	0.038093545
72	0xbda7abce	-0.08187066
73	0xbce4a733	-0.027911758
74	0x3db8cd05	0.09023479
75	0xbcaa17bf	-0.020763276
76	0x3d899c82	0.067193046
77	0xbd8f5f80	-0.07000637
78	0x3d14f536	0.036366664
79	0xbd33e009	-0.04391483
80	0x3ce38f4a	0.027778286
81	0xbdf8daea	-0.121511295
82	0xbcb643b1	-0.022249075
83	0xbd91ad25	-0.07113103
84	0x3beeafdf	0.007284149
85	0xbe141d04	-0.14464194
86	0x3d332f4d	0.04374628
87	0x3daf6508	0.08564192
88	0x3d279b06	0.040919326
89	0xbd9d2ecd	-0.07674942
90	0xbba871c5	-0.0051405155
91	0xbd83bf4e	-0.06432973
92	0x3da7a734	0.08186188
93	0x3d55b764	0.052176848
94	0x3ca1ef7d	0.019767517
95	0xbde5007b	-0.11181732
96	0xbd09d6b6	-0.03365203
97	0xbcb003e7	-0.021486236
98	0xbd840f29	-0.06448204
99	0x3d6c4658	0.057684273
100	0x3d6a91c5	0.057267923
101	0xbe0350cb	-0.12823789
102	0x3ba2a5e2	0.0049636224
103	0xbd578614	-0.0526181
104	0x3ca848c0	0.020542502
105	0xbdf36a95	-0.11885563
106	0x3cb38031	0.021911712
107	0xbba8066d	-0.005127719
108	0x3d50c398	0.050967783
109	0x3db01166	0.085970685
110	0xbca69737	-0.020335777
111	0x3ce5a6a6	0.028033566
112	0x3d29061d	0.041265596
113	0x3dc9db5b	0.09856292
114	0x3e542c7f	0.20720099
115	0xbd9ae364	-0.075629026
116	0x3c1c6272	0.009544956
117	0xbdc9fee4	-0.0986307
118	0x3d28f2b6	0.041247092
119	0x3b89f8ef	0.0042105834
120	0x3d558655	0.052130062
121	0x3da48ae3	0.08034303
122	0xbd9a7e95	-0.07543675
123	0xbcbb2b51	-0.022847803
124	0x3de7eb1d	0.11324141
125	0x3e1b5573	0.15169315
126	0xbd955211	-0.072910435
127	0x3b32181e	0.002717502
128	0x3da3bf18	0.079954326
129	0xbcc7ed56	-0.024405163
130	0x3db89f2f	0.09014737
131	0xbca81cb0	-0.020521492
132	0xbdc30b7a	-0.09523673
133	0x3db6ed9e	0.08932041
134	0xbd28ca10	-0.041208327
135	0x3d9f2467	0.07770615
136	0x3d967b04	0.07347682
137	0xbd79a995	-0.06095274
138	0xbd1af93e	-0.037835352
139	0xbdbcccf4	-0.09218779
140	0x3d3e0baa	0.046397842
141	0x3dc0fb6d	0.09422956
142	0xbcf9430a	-0.030427475
143	0xbe1871cd	-0.14887162
144	0xbdbea902	-0.093095794
145	0x3c4eb8bf	0.012617289
146	0x3d994d8d	0.07485495
147	0xbb345dce	-0.0027521732
148	0x3da426e3	0.080152296
149	0x3a228f76	0.0006201187
150	0xbc884e62	-0.016638938
151	0x3c6d8e2f	0.014499231
152	0xbda0af58	-0.07845944
153	0xbd9eeaff	-0.07759666
154	0x3ddb5ebb	0.10711428
155	0x3c979f21	0.018508496
156	0xbbd2b7c6	-0.006430599
157	0x3dbf45b3	0.09339466
158	0x3cff4aa7	0.031163527
159	0xbe16abdf	-0.14714001
160	0x3d864205	0.06555561
161	0xbdc5779e	-0.09641956
162	0xbc5ba227	-0.013405359
163	0xbd97f4d9	-0.07419748
164	0xbdf2140f	-0.11820232
165	0xbdf2ae87	-0.11849695
166	0x3cd4e2a6	0.02598698
167	0x3da2da4a	0.079517916
168	0x3d7b8d56	0.061414085
169	0xbe175ed8	-0.14782274
170	0xbda0c910	-0.0785085
171	0xbbfab5f2	-0.007651084
172	0x3d35dedb	0.044401985
173	0x3b8bbb4b	0.0042642704
174	0x3da562f0	0.080755115
175	0xbb6767b9	-0.0035309626
176	0xbdcab127	-0.098970704
177	0x3dc88d6f	0.09792601
178	0xbda9e988	-0.08296496
179	0x3c0af03d	0.008480129
180	0x3d15799c	0.03649293
181	0xbc2e9d70	-0.010657653
182	0x3dc3dcd2	0.095636025
183	0x3e114f30	0.14190364
184	0xbc98d4e7	-0.018656207
185	0xbd9545ab	-0.07288679
186	0xbd4457b0	-0.047935188
187	0x3d21a941	0.039468054
188	0xbc7546c5	-0.014970486
189	0x3e00aff9	0.12567128
190	0x3d39bbb3	0.04534502
191	0x3ca1954f	0.019724516
192	0x3dfc391d	0.12315581
193	0xbbddb1d0	-0.0067655817
194	0xbdeb6652	-0.114941254
195	0x3e1e34a7	0.15449773
196	0xbd2e7a47	-0.04259708
197	0x3da32ce1	0.07967544
198	0xbd92eca7	-0.07174044
199	0xbd8de3b9	-0.069282
200	0x3db9099d	0.09035037
201	0x3dc63e86	0.09679894
202	0x3d396499	0.045261953
203	0xbd6b9f02	-0.05752469
204	0xbd947217	-0.072483234
205	0x3d6f6e6a	0.05845491
206	0x3d306060	0.04306066
207	0xbdfbe0ab	-0.122987114
208	0xbdbf6fe9	-0.09347517
209	0x3cd6295f	0.026142774
210	0xbdd945c6	-0.10609011
211	0xbd982194	-0.074282795
212	0xbd9e23da	-0.07721682
213	0x3c0135f6	0.0078864
214	0x3d71ad22	0.059003003
215	0xbd10904f	-0.035293873
216	0xbd37876b	-0.04480688
217	0xbda0714f	-0.07834112
218	0x3dec4c8c	0.11538038
219	0xbd311db9	-0.043241236
220	0x3d9e0147	0.077150874
221	0x3e015f94	0.12634116
222	0xbd0911ca	-0.03346423
223	0xbd857d42	-0.06518032
224	0xbe415ed3	-0.18883829
225	0xbd3a7988	-0.045526057
226	0x3b94b8ca	0.00453863
227	0xbd690acc	-0.056895062
228	0x3d939965	0.07206992
229	0xbd74512a	-0.059647717
230	0xbd755751	-0.059897725
231	0x3d131b25	0.03591456
232	0x3d7bd493	0.061482023
233	0xbda9fea6	-0.083005235
234	0xbd31f561	-0.043446902
235	0xbdabf575	-0.083964266
236	0xbc1c8d2c	-0.009555142
237	0x3e0fd5c7	0.14046393
238	0xbdab2ccd	-0.083581544
239	0x3d1453ef	0.036212858
240	0x3d02994e	0.031884484
241	0x3d5c3e77	0.05377051
242	0x3e0bb1cb	0.13642041
243	0x3dc52c21	0.096275575
244	0x3d963324	0.07333973
245	0x3dd4ae29	0.10384781
246	0xbb15bb00	-0.0022847056
247	0xbe175399	-0.14777984
248	0x3d886859	0.06660528
249	0x3da8c4e3	0.08240678
250	0x3c5e54c4	0.013570014
251	0x3dc8fb19	0.09813518
252	0x3dcf9614	0.10136047
253	0x3cc31bfa	0.023817051
254	0xbc651f47	-0.013984508
255	0x3c2c38f8	0.010511629

actor_mean.2.bias f4 [4]
0	0xbc8552a9	-0.016274767
1	0xbcf05f33	-0.02934227
2	0xbd890090	-0.066895604
3	0xbd97c283	-0.07410147

critic.0.weight f4 [128, 128]
0	0x3e142ea1	0.14470913
1	0x3d6371d2	0.05552847
2	0x3a3c11a1	0.0007174258
3	0x3eca8d96	0.39561146
4	0x3dbc7689	0.09202296
5	0xbd308ba4	-0.04310192
6	0xbcd73f4e	-0.026275303
7	0x3cbc5a35	0.022992233
8	0x3e02067f	0.1269779
9	0xbd152e45	-0.03642108
10	0xbd59a144	-0.05313231
11	0x3de2b44e	0.11069547
12	0x3d963068	0.073334515
13	0x3c41f1ca	0.011837432
14	0x3e856460	0.26053143
15	0x3d827148	0.06369263
16	0x3e99f115	0.30066743
17	0x3d737aaf	0.059443172
18	0x3e14a699	0.14516677
19	0x3dfc3d74	0.12316409
20	0x3e3b1e82	0.18273357
21	0x3d37eb08	0.044901878
22	0x3e4b2ff5	0.19842513
23	0x3e4e9da1	0.20177318
24	0xbe29c502	-0.16579059
25	0x3da0a5a3	0.07844093
26	0xbe10ac8a	-0.14128318
27	0x3d95aeeb	0.073087536
28	0x3d8dcd53	0.06923928
29	0x3d7ad1c7	0.061235216
30	0x3d3c31e7	0.045946028
31	0x3e0dc047	0.13842879
32	0x3e529a63	0.20566706
33	0x3d9f473c	0.07777259
34	0x3de7b3ab	0.11313566
35	0x3e3ae237	0.18250357
36	0x3d268021	0.040649537
37	0xbd21da73	-0.03951497
38	0x3d9f4dec	0.07778534
39	0x3dfd1f25	0.12359456
40	0x3d7bae4b	0.061445516
41	0x3da8b9dd	0.082385756
42	0x3e47535e	0.19465396
43	0x3e14d9d7	0.14536224
44	0x3e90787b	0.2821692
45	0xbc8c1467	-0.017099572
46	0x3cf0a4d8	0.029375479
47	0x3cb4ff37	0.022094352
48	0x3e0201b9	0.1269597
49	0x3bf7acd5	0.007558445
50	0xbd2933b9	-0.041309092
51	0x3dd5ecef	0.10445582
52	0x3dd5a109	0.10431106
53	0xbdd36209	-0.10321433
54	0x3dd71072	0.105011836
55	0xbd298044	-0.04138209
56	0x3db7f7e3	0.089828275
57	0x3ea94de0	0.33067226
58	0xbad47b5e	-0.0016211083
59	0x3e38cbae	0.18046448
60	0x3dd34c02	0.10317232
61	0x3e1d5796	0.15365443
62	0xbdcc3117	-0.09970301
63	0x3e235ff8	0.15954578
64	0x3c47f05b	0.012203301
65	0x3e75320f	0.23944877
66	0x3e05d8f1	0.13071038
67	0x3e94b57c	0.29044712
68	0x3c24d993	0.010061639
69	0x3c4c3c77	0.012465588
70	0x3e004422	0.1252599
71	0x3da0f42a	0.078590706
72	0x3d6774fa	0.056508042
73	0x3e13f01a	0.1444706
74	0xbdab533d	-0.08365486
75	0xbc4442f9	-0.011978858
76	0x3e9135fa	0.28361493
77	0x3d8a315c	0.06747696
78	0x3e0834c0	0.13301373
79	0x3de911df	0.11380362
80	0x3cb0f6d4	0.021602072
81	0x3e82eb03	0.25569925
82	0x3dda1d20	0.106500864
83	0x3e184920	0.14871645
84	0x3d458548	0.04822281
85	0x3e70b84f	0.23507808
86	0x3e18b2a6	0.14911899
87	0x3e37984c	0.1792919
88	0x3e0b61dc	0.13611549
89	0xbcfa42ff	-0.030549524
90	0x3e15b167	0.14618455
91	0xbc9d8900	-0.019230366
92	0x3df953e2	0.121742025
93	0xbcbbd4f2	-0.022928689
94	0x3d95c685	0.07313255
95	0x3db43234	0.08798638
96	0x3d542da1	0.051801328
97	0x3e25b0e6	0.16180763
98	0xbd2f56c6	-0.042807363
99	0x3d4276d3	0.0474766
100	0xbc8dda8f	-0.01731613
101	0x3db45bd6	0.08806579
102	0xbcae2c31	-0.021261306
103	0x3d89c195	0.06726376
104	0x3e1c5cd7	0.1526979
105	0x3e85e83f	0.26153752
106	0x3e25192c	0.16122884
107	0xbc985638	-0.0185958
108	0x3bd0ff08	0.0063780583
109	0x3d0262fa	0.031832673
110	0x3e2abda9	0.16673912
111	0x3e285b86	0.16441163
112	0xbc98a770	-0.018634528
113	0x3d25d9fc	0.04049109
114	0x3d9471ef	0.072482936
115	0xbdea2a51	-0.114338525
116	0x3e7dcacc	0.24784392
117	0x3e20d0da	0.1570467
118	0x3dfac9fb	0.12245556
119	0xbd324fc3	-0.043533098
120	0x3da4636f	0.08026778
121	0x3c0e3d76	0.008681646
122	0x3e1602d7	0.14649521
123	0x3dd656a6	0.10465746
124	0xbcc56803	-0.024097448
125	0x3dc5b40e	0.09653483
126	0x3e6f1c8c	0.23350734
127	0xbd852b4a	-0.06502397
128	0x3da71e8b	0.081601225
129	0x3e2a1ed4	0.16613322
130	0xbd0204e2	-0.031742938
131	0x3e8d80f2	0.2763744
132	0x3d98356e	0.07432066
133	0xbd01e668	-0.031713873
134	0x3b909b61	0.004413054
135	0x3e204d56	0.15654501
136	0x3e010459	0.12599315
137	0x3d4e0838	0.050300807
138	0xbd6f7ce8	-0.05846873
139	0x3da476f1	0.08030499
140	0x3decab95	0.11556164
141	0x3e15f467	0.14644013
142	0x3e5c6a6c	0.21524972
143	0x3df5e660	0.12006831
144	0x3ec7715c	0.38953674
145	0x3d1a62ee	0.037692003
146	0x3ea79a6b	0.32735
147	0x3cfff674	0.031245448
148	0x3e18683a	0.1488351
149	0x3e19fd08	0.1503793
150	0x3e337f98	0.17529142
151	0x3e59e920	0.21280336
152	0xbe19b1bb	-0.15009205
153	0x3d0a866f	0.033819612
154	0xbe885463	-0.26626882
155	0xbd0e8272	-0.03479237
156	0xbd22be6d	-0.039732385
157	0x3d473600	0.048635483
158	0x3d877881	0.06614781
159	0x3dd5157d	0.10404489
160	0x3e5313cd	0.20613022
161	0xbb95fa4e	-0.004576958
162	0x3da00675	0.078137316
163	0x3e354b7b	0.17704575
164	0x3e048fa1	0.12945415
165	0xbbe5ae3e	-0.0070092967
166	0x3e37d0c7	0.17950736
167	0x3d3b9893	0.045799803
168	0x3cb5a77b	0.022174587
169	0xbbf2844f	-0.0074010263
170	0x3deff9e0	0.11717582
171	0x3e067f7b	0.13134567
172	0x3eb2bf8f	0.34911773
173	0x3dff4b38	0.12465519
174	0x3d72aab5	0.05924483
175	0x3e0ce986	0.13760957
176	0x3d899ee2	0.067197576
177	0x3b2d4560	0.0026439056
178	0x3d3c4eb6	0.045973502
179	0x3e3784aa	0.17921701
180	0x3e66ee71	0.22551896
181	0xbdda068d	-0.10645781
182	0x3db808df	0.08986067
183	0x3cc2b8ff	0.023769854
184	0x3e14c7a1	0.14529277
185	0x3e804406	0.25051898
186	0x3d100238	0.035158366
187	0x3e3bada4	0.18327957
188	0x3e4f303c	0.20233244
189	0x3e66d51f	0.22542237
190	0xbd831d05	-0.064020194
191	0x3dfc4ba4	0.12319115
192	0x3d1be035	0.038055617
193	0x3e81ca43	0.25349626
194	0x3e015881	0.12631418
195	0x3e458c4c	0.192918
196	0x3d837747	0.06419235
197	0x3df096cc	0.11747512
198	0xbc23baa4	-0.009993229
199	0x3defff14	0.11718574
200	0x3e0a314f	0.13495372
201	0x3e5bd843	0.21469216
202	0x3b66a516	0.0035193614
203	0x3dbe5846	0.092941806
204	0x3ea75f04	0.3268968
205	0x3e0fbb89	0.14036383
206	0x3e85b3eb	0.2611383
207	0x3dcf67b6	0.10127203
208	0x3dcee408	0.10102087
209	0x3e4edaba	0.20200625
210	0x3dd4f4aa	0.103982285
211	0x3e01f76f	0.12692045
212	0x3e5276d8	0.20553148
213	0x3e02b137	0.12762915
214	0x3c9309c5	0.017948994
215	0x3e679c53	0.22618227
216	0x3dc1fc8a	0.09471996
217	0xbc0fb6fd	-0.008771655
218	0x3d9e218d	0.07721243
219	0x3dd6d73a	0.1049027
220	0x3e099102	0.13434222
221	0x3d9ecc21	0.07753778
222	0x3d83c0b2	0.06433238
223	0x3d9a7a23	0.07542827
224	0x3df5d80b	0.120040976
225	0x3de82de9	0.11336882
226	0x3d620603	0.055181514
227	0x3c2a51db	0.010395492
228	0x3d512035	0.051056106
229	0xbd47dabc	-0.048792586
230	0xbde0a811	-0.10969556
231	0x3cf77a66	0.030209731
232	0x3d637c88	0.055538684
233	0x3e9efc8f	0.31052062
234	0x3da62e17	0.0811426
235	0x3cd97736	0.026546102
236	0xbcc5d37c	-0.024148695
237	0xbd3d56d8	-0.0462254
238	0x3d441e42	0.04788042
239	0x3d093e14	0.033506468
240	0x3dd9c55e	0.10633348
241	0x3dc84b6f	0.09780013
242	0x3dd4108c	0.103547186
243	0xbd85f24e	-0.065403566
244	0x3ddcc29c	0.10779306
245	0x3c6ac95c	0.014330234
246	0x3e662b2b	0.22477405
247	0xbda43f0f	-0.0801984
248	0xbb8a36bc	-0.0042179506
249	0x3d0875fc	0.033315644
250	0x3e7e5d0d	0.24840184
251	0x3d944d84	0.072413474
252	0xbc950e9f	-0.018195448
253	0x3df98870	0.121842265
254	0x3e356d66	0.17717513
255	0x3cf928b2	0.030414913

critic.0.bias f4 [128]
0	0x3db3f2fb	0.08786579
1	0xbc5a07a3	-0.013307485
2	0x3c8164f1	0.015795203
3	0xbd130289	-0.03589109
4	0x3dade76b	0.08491405
5	0xbd1e54f3	-0.038655233
6	0x3dd863fa	0.10565944
7	0xbd6bb1e4	-0.057542697
8	0xbc22949f	-0.009923129
9	0x3de9765f	0.113995306
10	0xbda46b4e	-0.08028279
11	0xbd6231fb	-0.055223446
12	0xbc368ace	-0.011141492
13	0xbd39154d	-0.04518633
14	0xbb9508fb	-0.0045481897
15	0xbd1de598	-0.038549036
16	0x3dd196e1	0.10233856
17	0xbd3a87b1	-0.04553956
18	0xba703ba1	-0.0009164159
19	0xbb148240	-0.0022660643
20	0xbdaf0312	-0.085455075
21	0x3d90a4dd	0.07062695
22	0x3dc2178b	0.09477147
23	0x3d1fa0ed	0.03897183
24	0xbaaf5ce2	-0.0013379122
25	0xbc67336f	-0.014111384
26	0x3dbdd243	0.0926862
27	0x3d820d1f	0.06350159
28	0xbdc88521	-0.09791017
29	0xbd03e64e	-0.032202058
30	0xbd4fdbf6	-0.05074688
31	0xbaab7c99	-0.0013083398
32	0x3d657b85	0.056026
33	0x3d0eb78e	0.03484302
34	0x3d292773	0.041297387
35	0x3c62f565	0.013852452
36	0xbbb5e3a8	-0.0055508204
37	0x3b629be2	0.0034577777
38	0x3da2f6ee	0.07957254
39	0x3b099e7f	0.0020999012
40	0x3ddc99db	0.10771533
41	0x3d5ab269	0.0533928
42	0x3cd65820	0.026165068
43	0x3d77deb7	0.06051513
44	0x3cea3cc3	0.028593427
45	0x3da8b620	0.082378626
46	0x3da35a0b	0.07976159
47	0xbd568974	-0.05237718
48	0x3d855244	0.065098315
49	0x3ca4d5d6	0.020121496
50	0x3dd89112	0.10574545
51	0x3b4253a5	0.0029651907
52	0x3dbe555a	0.09293623
53	0xbd82f244	-0.06393865
54	0xbdc43794	-0.09580913
55	0x3bb0093b	0.005372194
56	0x3c93d3a2	0.01804525
57	0xbd2db006	-0.042404197
58	0x3c16fbfb	0.00921535
59	0x3c64f747	0.013974971
60	0x3d757f20	0.05993569
61	0xbda1e264	-0.07904509
62	0x3db17606	0.08665089
63	0x3c37c053	0.011215287
64	0xbd243399	-0.04008827
65	0x3d32bab1	0.043635074
66	0x3cfc714e	0.030815747
67	0xbcf08660	-0.02936095
68	0x3dc58fdd	0.0964658
69	0x3d9d4184	0.07678512
70	0x3cbb84e6	0.02289052
71	0x3c58eee4	0.01324055
72	0x3c95c66b	0.01828309
73	0x3da4dadc	0.080495566
74	0xbd3d6176	-0.046235524
75	0x3b04dd07	0.0020273344
76	0x3da25248	0.0792585
77	0x3de8e784	0.11372283
78	0x3c6fcc06	0.014636045
79	0x3ca95223	0.020669049
80	0x3da19c4f	0.078911416
81	0x3d9ee6db	0.07758876
82	0x3d722f01	0.059126858
83	0x3d1f112e	0.038834743
84	0x3c977f0c	0.018493198
85	0xbd9123de	-0.07086919
86	0x3d259b5c	0.040431365
87	0xbae6cb79	-0.0017608247
88	0xbda9a44c	-0.0828329
89	0x3d63a995	0.055581648
90	0x3d2c53b4	0.042072013
91	0x3d83f957	0.06444042
92	0xbc32f33b	-0.0109222485
93	0x3b549e4a	0.003244298
94	0x3c7eead4	0.015558917
95	0xbcdc2523	-0.026873177
96	0x3d835a56	0.064137146
97	0xbbcb9560	-0.0062128752
98	0xbd815f3e	-0.06316994
99	0xbcf1f3fe	-0.02953529
100	0x3dc64c82	0.096825615
101	0x3d7e3875	0.06206556
102	0x3d84c098	0.06482047
103	0x3db87b21	0.0900786
104	0xbcbd207e	-0.023086783
105	0x3d92a9be	0.07161282
106	0xbccb64a5	-0.024828264
107	0xbca00973	-0.019535756
108	0x3d9f775a	0.077864364
109	0x3d4f24a1	0.05057204
110	0x3d566ce2	0.052349932
111	0xbc76f105	-0.015072112
112	0x3c8593c8	0.01630582
113	0x3b2fbcd4	0.0026815431
114	0x3d8c0365	0.06836585
115	0x3db39c9b	0.087701045
116	0xbc03a202	-0.008034231
117	0xbbbdcebb	-0.0057924665
118	0x3db5c6fd	0.08875845
119	0xbd8ba5c3	-0.06818726
120	0xbc558874	-0.013033021
121	0x3cb2ff44	0.021850236
122	0xbd66691e	-0.05625259
123	0xbd945428	-0.07242614
124	0xba742f2b	-0.000931489
125	0xbdb631c1	-0.088962086
126	0xbbdc538c	-0.0067238268
127	0xbc8c50df	-0.017128406
