best_model_episode_1900.pth (torch, 825471 bytes, 12 tensors)

actor_log_std f4 [4]
-0.17556135 -0.13291621 -0.061024386 -0.11556235
00000000: 5bc6 33be 301b 08be b5f4 79bd f4ab ecbd

shared.0.weight f4 [256, 24]
0.19299255 0.107799605 0.055754688 0.23044117 -0.079185575 0.033345077 -0.15478505 0.1075546
0.17500985 -0.14872715 0.1810563 0.04070458 0.16755001 0.010549904 0.10686689 -0.020977717
0.1644975 0.03675692 -0.08860549 0.060073216 -0.08264853 -0.006013874 -0.060074348 0.1561118
-0.24113804 -0.3036879 -0.049463276 -0.07506769 0.004699448 -0.20307389 0.19684383 -0.17699741
0.14374161 0.010541743 -0.07512646 0.13724117 0.024259187 0.16277982 0.036198284 -0.051704973
0.06605118 -0.045810908 0.093250565 0.18682751 0.11944715 -0.090792075 0.12215516 0.06015732
0.09659832 -0.1570605 -0.3393282 -0.09557164 -0.12663993 0.14852001 0.07766085 0.10270577
0.08101241 0.02461574 0.15494955 -0.15212555 -3.87865e-05 -0.13535365 0.09883974 -0.035020098
0.09703267 -0.009251534 0.20025317 -0.09416853 -0.10115764 -0.10884573 0.19699755 0.089076646
0.2357013 -0.1563905 -0.15210311 -0.104096875 -0.15389836 0.09385852 0.09010568 0.14009012
-0.10030087 -0.095417075 0.13955094 -0.12217148 0.13940492 -0.015082397 0.13373074 -0.14130165
-0.085367315 0.08039405 0.06256096 -0.030109711 0.14769748 0.17076416 -0.11258634 -0.08193188
0.20941925 -0.028585074 -0.078959435 -0.23708716 -0.13520359 0.047461588 -0.012394314 -0.16037692
0.003237566 -0.1647234 -0.18894427 -0.10036655 -0.17705098 -0.11162662 0.22493702 0.05946294
0.08381634 -0.16949554 -0.11319632 -0.047112793 0.0527085 -0.15897405 -0.06752629 -0.100879356
0.0058202012 -0.14584391 -0.08405396 -0.1508243 -0.18504724 -0.13719702 -0.07896556 -0.15785098
0.19046754 -0.03749031 0.16036636 0.08083477 -0.1754322 0.16278304 -0.02933219 -0.05259937
-0.1450714 -0.1799079 0.07973487 -0.025505003 0.09577645 -0.15398002 0.16402043 -0.12174014
-0.09690597 -0.20488073 0.1440777 0.21174422 0.19182435 -0.11340203 0.075927116 -0.086987674
-0.028437804 -0.19377941 0.131913 -0.19655143 0.08126725 0.057069823 0.07701837 -0.10107525
0.19312598 0.050545163 0.029590236 -0.17913894 0.08399967 -0.0337289 -0.08783617 0.19942163
-0.008935874 -0.048823092 0.016774857 -0.17432627 0.14334422 -0.07966449 -0.062479142 -0.05756279
-0.15309219 0.072910875 0.14075857 -0.24249682 0.062664084 0.116270974 0.026045624 -0.0823491
0.09827033 0.100569285 0.07186886 -0.037273794 -0.051931508 0.026431922 -0.030398218 -0.043073587
0.23891075 0.3191276 -0.1983914 -0.17083299 0.077650376 0.007625381 0.12121572 0.042974815
-0.13033535 -0.04728309 0.08452578 0.13616328 -5.9534774e-05 -0.112037525 -0.11800468 -0.1760618
-0.059898403 0.0752892 0.13592143 0.0988228 -0.17792398 -0.12354468 -0.027618863 0.2109062
-0.0019577027 0.01549652 0.12964243 -0.118229784 -0.13603252 0.14095913 -0.09273006 -0.057345938
-0.20622842 0.20118085 0.15003473 0.114586644 -0.1484619 -0.18331927 -0.14686097 0.17223084
0.11928663 0.19464591 0.13228928 0.080725476 0.03195422 -0.11619718 -0.13109942 -0.1402371
0.13896564 0.010815568 0.046697147 -0.13079444 -0.0724064 -0.15765822 -0.1647129 0.054663736
-0.03387602 0.1826715 -0.06619147 -0.13851471 -0.03882119 -0.05350771 -0.034028023 -0.16508675
00000000: d79f 453e 0ac6 dc3d 075f 643d c5f8 6b3e
00000010: 0c2c a2bd d994 083d f97f 1ebe 9645 dc3d
00000020: c835 333e ee4b 18be d366 393e d8b9 263d
00000030: 3b92 2b3e 81d9 2c3c 07dd da3d 76d9 abbc
00000040: 0872 283e 6d8e 163d cc76 b5bd 550f 763d
00000050: a243 a9bd 0810 c5bb 8510 76bd c6db 1f3e
00000060: e4ec 76be fb7c 9bbe 019a 4abd 17bd 99bd
00000070: d4fd 993b 9af2 4fbe 6e91 493e cf3e 35be
00000080: 0031 133e 46b7 2c3c e7db 99bd f388 0c3e
00000090: 34bb c63c c1af 263e a744 143d 98c8 53bd
000000a0: d745 873d 38a4 3bbd 27fa be3d b64f 3f3e
000000b0: b5a0 f43d 32f1 b9bd 7c2c fa3d 8667 763d
000000c0: 57d5 c53d 78d4 20be 6dbc adbe 10bb c3bd
000000d0: e6ad 01be a115 183e a70c 9f3d 6757 d23d
000000e0: d6e9 a53d f3a6 c93c 18ab 1e3e cdc6 1bbe
000000f0: b0ae 22b8 269a 0abe 7d6c ca3d 3c71 0fbd
00000100: 11b9 c63d bf93 17bc 2b0f 4d3e 6edb c0bd
00000110: bd2b cfbd 83ea debd bab9 493e d16d b63d
00000120: ae5b 713e d524 20be ebc0 1bbe be30 d5bd
00000130: 8897 1dbe e538 c03d 5489 b83d c973 0f3e
00000140: 8b6a cdbd 076a c3bd 71e6 0e3e 0a35 fabd
00000150: 2ac0 0e3e 281c 77bc b6f0 083e 61b1 10be
00000160: 0fd5 aebd a3a5 a43d f61f 803d a4a8 f6bc
00000170: 023e 173e cddc 2e3e ab93 e6bd e7cb a7bd
00000180: 0072 563e 3f2b eabc 7cb5 a1bd fac6 72be
00000190: cf72 0abe 1567 423d 8511 4bbc d939 24be
000001a0: 582d 543b 40ad 28be 9b7a 41be fa8c cdbd
000001b0: da4c 35be 7f9c e4bd e455 663e 698f 733d
000001c0: e7a7 ab3d 3d90 2dbe 79d3 e7bd 58f9 40bd
000001d0: dee4 573d 18ca 22be 394b 8abd d699 cebd
000001e0: 63b7 be3b 1b58 15be 7c24 acbd af71 1abe
000001f0: 067d 3dbe 607d 0cbe b2b8 a1bd b0a3 21be
00000200: ec09 433e 708f 19bd 1437 243e b38c a53d
00000210: 80a4 33be 99b0 263e 104a f0bc 7072 57bd
00000220: 998d 14be c739 38be 094c a33d deef d0bc
00000230: 7226 c43d f0ac 1dbe f9f4 273e e552 f9bd
00000240: a376 c6bd 41cc 51be 1b89 133e 7ad3 583e
00000250: 9a6d 443e 533f e8bd ad7f 9b3d 9826 b2bd
00000260: 66f6 e8bc 1c6e 46be 3414 073e c744 49be
00000270: 726f a63d 0cc2 693d cfbb 9d3d 8a00 cfbd
00000280: d1c2 453e 7208 4f3d 3967 f23c 3370 37be
00000290: 0508 ac3d 5127 0abd 73e3 b3bd 2f35 4c3e
000002a0: c667 12bc b9fa 47bd 6d6b 893c 9682 32be
000002b0: d4c8 123e 2327 a3bd 21ea 7fbd f6c6 6bbd
000002c0: 33c4 1cbe 4c52 953d 0423 103e 1651 78be
000002d0: 0756 803d 7a1f ee3d a25d d53c a5a6 a8bd
000002e0: f441 c93d 45f7 cd3d fb2f 933d 68ac 18bd
000002f0: 22b6 54bd c287 d83c af05 f9bc ee6d 30bd
00000300: 05a5 743e b164 a33e 1d27 4bbe d8ee 2ebe
00000310: 2907 9f3d 55de f93b f33f f83d 5c06 303d
00000320: a176 05be eaab 41bd da1b ad3d 636e 0b3e
00000330: fab4 79b8 ee73 e5bd 70ac f1bd 8b49 34be
00000340: 0758 75bd 3931 9a3d fd2e 0b3e 9c63 ca3d
00000350: b431 36be fe04 fdbd f440 e2bc cbf7 573e
00000360: cd4c 00bb 1ee5 7d3c fcc0 043e 7522 f2bd
00000370: 1c4c 0bbe 9757 103e 42e9 bdbd 93e3 6abd
00000380: 8b2d 53be 5a02 4e3e b4a2 193e 67ac ea3d
00000390: 6506 18be 0cb8 3bbe b962 16be 485d 303e
000003a0: 8c4c f43d 4251 473e d776 073e 6653 a53d
000003b0: 6ee2 023d c9f8 edbd ed3e 06be 509a 0fbe
000003c0: 024d 0e3e c833 313c 8245 3f3d faee 05be
000003d0: cf49 94bd 2871 21be 80aa 28be 15e7 5f3d
000003e0: 95c1 0abd 3d0e 3b3e 658f 87bd cdd6 0dbe
000003f0: f802 1fbd e72a 5bbd f860 0bbd 800c 29be

shared.0.bias f4 [256]
-0.14446844 0.067174345 -0.014407282 0.1783544 -0.18132567 0.03906415 0.11744379 0.045898907
-0.036903124 0.24188194 -0.11650519 0.21104316 0.09984618 0.10800488 0.17462696 0.061104387
0.063962765 -0.04226166 -0.15740256 0.11795465 0.17830998 0.1197717 0.01281645 -0.14569457
0.024343481 0.07931566 -0.117084354 0.21473166 0.012542591 0.07454751 0.2211922 0.102048844
-0.090696126 0.11036065 0.13484614 0.121825226 -0.051889837 0.061575327 -0.13645451 0.0060192207
-0.10938701 0.19242036 0.2504211 -0.16686788 -0.04406767 -0.028692879 -0.096713096 0.22055848
-0.11382614 -0.087320454 -0.13259374 0.04516834 -0.13785008 -0.10276985 0.20568722 0.12954915
0.10445271 0.16295052 0.058578957 0.07514943 -0.11871033 0.10234308 -0.10653165 0.053190205
-0.10999624 -0.091539234 -0.112488165 -0.08014008 -0.08074546 -0.08568234 -0.04319633 -0.17277041
0.18836366 0.1040883 -0.18226677 -0.18198578 -0.081744 0.105529815 0.23104168 0.0145546235
0.14182943 -0.082792364 0.012753494 -0.025088549 -0.18383782 0.018165149 0.092817634 0.14215599
-0.13266373 -0.017190544 0.029696796 0.044959642 0.048513826 -0.12865955 0.18234366 -0.15970118
-0.035600487 0.15414345 -0.026036294 -0.041947786 -0.1830545 0.17432636 -0.0048719654 0.12454954
0.063880876 -0.12718299 -0.05338946 0.18123399 -0.06513851 -0.05622933 0.14489481 -0.06794143
0.076672256 -0.09075257 0.09687604 0.036977306 -0.12662545 -0.10705341 0.11945572 -0.041904923
0.14717475 0.04034517 -0.053284194 -0.0076481295 -0.059503283 0.11973181 0.19595627 0.044647425
-0.0933601 0.19169788 0.21002516 0.17883898 0.019838087 0.09876824 0.03893143 -0.0639002
-0.17634355 -0.017285256 0.10877519 0.14741938 0.08737233 0.11059564 0.15004143 -0.004918345
0.12659562 0.058008906 -0.0406213 -0.028327767 -0.07876604 -0.13116698 0.076764934 0.21390244
0.07792173 0.05490183 -0.037484888 -0.074166745 -0.031642485 0.10498563 0.074603386 -0.03658519
0.0837953 -0.0007525879 0.009240835 0.18429255 -0.05321408 0.24106863 -0.07872851 0.20922633
0.10167307 0.101347 -0.016861754 0.0012301488 -0.11457151 -0.19674993 0.18891253 0.22082217
0.09698969 -0.037833095 0.086216554 0.008524356 -0.15603177 -0.1446821 0.11952122 -0.04674709
-0.016054112 -0.0877452 0.1117967 -0.044025287 -0.028276395 0.12258894 0.23487923 0.21232447
0.11892064 0.02902341 0.190908 0.20610228 0.11773595 0.08547202 0.10251422 0.075695015
0.16951957 0.091992125 -0.11636375 -0.09545259 -0.14744914 -0.04332276 0.040725116 -0.03428627
-0.17011134 -0.0972627 0.13483202 0.012032639 0.006157001 0.05986211 -0.00771158 -0.0680472
-0.04732347 -0.032343626 -0.15031756 -0.16593751 -0.023400966 0.09942801 0.24689464 0.033854317
0.17715812 0.119569115 -0.14470056 -0.06217557 -0.027454747 -0.12781885 0.04794728 0.07895619
-0.14083116 -0.01485426 -0.14762434 0.2469441 0.11952503 -0.030181784 0.20112139 -0.12693705
0.2033061 -0.050333947 0.0806807 0.15943529 0.13052194 0.102682486 0.012053932 0.080591485
0.20110643 0.0024947117 -0.026702765 0.067005984 -0.049649056 -0.05325991 0.045813814 0.17731412
00000000: 89ef 13be b492 893d 850c 6cbc 89a2 363e
00000010: 70ad 39be bb01 203d 5f86 f03d 7e00 3c3d
00000020: bb27 17bd e6af 773e 469a eebd b31b 583e
00000030: 277c cc3d aa31 dd3d 69d1 323e 9848 7a3d
00000040: e9fe 823d 901a 2dbd 232e 21be 3592 f13d
00000050: e496 363e dd4a f53d 16fc 513c f530 15be
00000060: fb6b c73c 4070 a23d ecc9 efbd 9ee2 5b3e
00000070: 717f 4d3c 5dac 983d 3580 623e fcfe d03d
00000080: e4be b9bd c404 e23d 1b15 0a3e 817f f93d
00000090: 708a 54bd 6936 7c3d bbba 0bbe e23c c53b
000000a0: 4c06 e0bd d809 453e 3237 803e 6adf 2abe
000000b0: 4d80 34bd 540d ebbc 8411 c6bd 15da 613e
000000c0: ae1d e9bd 11d5 b2bd a7c6 07be 7002 393d
000000d0: 9228 0dbe 0079 d2bd ac9f 523e 88a8 043e
000000e0: 4deb d53d 80dc 263e 7df0 6f3d f2e7 993d
000000f0: 671e f3bd 4099 d13d 442d dabd f9dd 593d
00000100: b545 e1bd ec78 bbbd 3260 e6bd 7b20 a4bd
00000110: e05d a5bd 397a afbd a3ee 30bd baea 30be
00000120: 67e2 403e 3f2c d53d 24a4 3abe 7b5a 3abe
00000130: 6669 a7bd 0420 d83d 3196 6c3e 8476 6e3c
00000140: bc3b 113e 0b8f a9bd 08f4 503c 8086 cdbc
00000150: fb3f 3cbe 14cf 943c 2c17 be3d 5791 113e
00000160: 00d9 07be 2fd3 8cbc b246 f33c 9a27 383d
00000170: 6fb6 463d 54bf 03be 4cb8 3a3e b588 23be
00000180: d1d1 11bd c8d7 1d3e 114a d5bc 71d1 2bbd
00000190: a472 3bbe 9c82 323e 02a5 9fbb d413 ff3d
000001a0: fad3 823d 423c 02be e8ae 5abd 6795 393e
000001b0: 5767 85bd ba50 66bd 4e5f 143e e024 8bbd
000001c0: 5806 9d3d 7cdc b9bd f266 c63d 8475 173d
000001d0: 1aaa 01be d13e dbbd 33a5 f43d 7fa4 2bbd
000001e0: fab4 163e fa40 253d 8740 5abd 299d fabb
000001f0: b7b9 73bd f435 f53d c3a8 483e 38e0 363d
00000200: 9533 bfbd 734c 443e d610 573e 9121 373e
00000210: 7c83 a23c 0147 ca3d 9076 1f3d 1cde 82bd
00000220: 6793 34be cf99 8dbc 87c5 de3d 1bf5 163e
00000230: 44f0 b23d f87f e23d 76a4 193e 112a a1bb
00000240: 48a2 013e bf9a 6d3d 8562 26bd a20f e8bc
00000250: 1750 a1bd a350 06be ef36 9d3d 3e09 5b3e
00000260: 6e95 9f3d bee0 603d c189 19bd bce4 97bd
00000270: 8d9b 01bd b502 d73d a9c9 983d 5ada 15bd
00000280: df9c ab3d 5249 45ba df66 173c 30b7 3c3e
00000290: 02f7 59bd b2da 763e 6a3c a1bd 6d3f 563e
000002a0: f839 d03d 048f cf3d a921 8abc f23c a13a
000002b0: 78a4 eabd d078 49be 4972 413e 351f 623e
000002c0: 88a2 c63d e0f6 1abd 4e92 b03d bea9 0b3c
000002d0: cbc6 1fbe 8b27 14be 8bc7 f43d e079 3fbd
000002e0: ea83 83bc c1b3 b3bd abf5 e43d dc53 34bd
000002f0: e6a3 e7bc e90f fb3d 2e84 703e 966b 593e
00000300: aa8c f33d 81c2 ed3c 637d 433e 7a0c 533e
00000310: 8c1f f13d f40b af3d faf2 d13d fd05 9b3d
00000320: 8a96 2d3e 5e66 bc3d 1e50 eebd a67c c3bd
00000330: e8fc 16be 3573 31bd 61cf 263d c36f 0cbd
00000340: ab31 2ebe ab31 c7bd 6811 0a3e 8c24 453c
00000350: abc0 c93b f931 753d 6cb1 fcbb 555c 8bbd
00000360: 41d6 41bd c07a 04bd d9ec 19be 86eb 29be
00000370: 62b3 bfbc eaa0 cb3d f3d1 7c3e d3aa 0a3d
00000380: f068 353e a7e0 f43d 622c 14be cfab 7ebd
00000390: c7e8 e0bc f2e2 02be 5e64 443d c8b3 a13d
000003a0: 0b36 10be 485f 73bc d62a 17be eade 7c3e
000003b0: 8ac9 f43d ca3f f7bc c4f2 4d3e c9fb 01be
000003c0: 792f 503e f82a 4ebd ec3b a53d 0143 233e
000003d0: 8ba7 053e 324b d23d db7d 453c 260d a53d
000003e0: d8ee 4d3e 517e 233b c2bf dabc 6f3a 893d
000003f0: cf5c 4bbd 1027 5abd 44a7 3b3d d591 353e

shared.2.weight f4 [256, 256]
0.016153939 -0.039941214 0.06056782 -0.010742761 0.042170502 -0.007793937 0.06993828 -0.012293217
0.03646254 -0.023861796 0.0010222836 -0.025524855 0.047361944 -0.048951194 0.010897464 -0.059674487
0.05061705 0.037939556 -0.02004147 0.04562504 -0.053624675 0.045778602 -0.020479752 0.0031276513
0.06271347 0.066961735 0.0090853935 -0.007577687 0.038325388 -0.004144253 -0.057775576 0.06445219
0.03517925 0.003303685 0.0055921096 0.063565314 0.060765527 -0.026993388 -0.006826853 -0.025696399
0.041684594 0.15120848 -0.03681624 -0.0042444486 -0.032287598 -0.023105828 0.027106278 -0.03574825
-0.01896898 -0.0119550135 -0.060380798 0.016770441 0.08012927 -0.04440269 0.04330558 -0.0072058206
0.05310588 -0.04799442 0.034790047 -0.008091819 0.04631551 -0.053206712 0.003685133 0.00027362054
0.034440264 0.01971402 0.020411579 -0.033885002 -0.07812941 -0.014947176 0.04682052 0.051789176
-0.036326207 0.067796566 0.08464219 0.040024642 -0.0075728595 -0.0022419502 0.0097279325 -0.04795422
0.0040227645 0.14190944 0.005417003 -0.044641607 0.005995719 0.0718378 -0.032725506 0.0005236738
0.0041826665 0.07915486 0.059064515 -0.020203339 -0.05802041 0.0588285 0.00785234 0.085256845
0.069556884 -0.031285603 0.03879505 0.08851855 0.00095173344 0.050014626 0.026336068 -0.007178337
-0.054918848 0.056512043 -0.04913524 0.03141332 0.049883485 -0.0073145754 0.00862094 0.080689244
-0.013765337 -0.044702575 0.029532608 -0.04219821 -0.0027913773 0.029773375 -0.005990528 0.06607503
-0.016513856 0.04892716 0.061951406 0.058232628 0.0360393 0.03074087 0.010973821 -0.023462318
0.06883744 0.0020271754 0.06113224 -0.034638654 0.0034124292 -0.0079519525 -0.009636584 0.03235601
0.0845578 0.14610143 0.033214446 0.06918714 0.041420233 0.031503078 0.019707011 -0.033348918
-0.048683908 0.1368038 -0.011527198 0.039276954 -0.068853356 -0.030050838 -0.023136638 0.034932867
0.1176844 -0.025739076 -0.024382664 0.00945033 -0.022857066 -0.024873458 0.049736097 -0.061342657
-0.027684905 0.009969197 0.15411709 -0.053789787 0.027166376 0.0026518663 0.080181986 0.051582158
-0.01567731 0.0024333473 -0.008035021 0.05648494 -0.0053639375 0.033071276 0.037912983 0.08276841
0.03684603 0.02982101 -0.062106986 0.060632523 -0.06507369 0.029455643 0.031335033 0.06924386
0.024632286 0.021666905 0.050386284 -0.0047738454 0.054241896 -0.04588321 -0.045487713 0.047788348
0.07312309 0.014509037 0.08147977 -0.011260589 -0.052395895 -0.0074462844 0.058869764 0.030770041
0.05759666 -0.028402809 -0.041366152 -0.020016532 -0.041853365 0.07007319 -0.043045335 -0.03713402
-0.0007169478 0.109457985 0.029129516 0.033234507 -0.01723378 0.03290577 -0.002284765 0.03134417
0.0029235284 0.06453635 0.05746122 0.024126012 -0.08188425 0.020558625 -0.044879626 0.013602673
-0.016669312 0.056329634 -0.018470826 0.045056425 0.015367335 0.02183051 -0.003230789 0.05890183
0.048255272 -0.0040555764 0.03803575 0.031501934 0.1096871 0.0033958417 0.035929758 0.03537642
-0.0192038 0.017506974 -0.08704076 0.0449496 -0.051715534 -0.08089088 0.0006606399 -0.096536435
-0.034342475 0.10904846 -0.024648754 0.057517216 -0.0008410473 -0.012205327 0.014100815 0.0060863583
00000000: 4455 843c 6699 23bd f615 783d 6802 30bc
00000010: faba 2c3d 4864 ffbb cd3b 8f3d 7d69 49bc
00000020: bf59 153d d079 c3bc 25fe 853a 8019 d1bc
00000030: 99fe 413d 0c81 48bd 478b 323c 3c6d 74bd
00000040: d353 4f3d 8266 1b3d 022e a4bc 52e1 3a3d
00000050: 8ca5 5bbd 5882 3b3d 27c5 a7bc 48f9 4c3b
00000060: eb6f 803d 3c23 893d e7da 143c 3f4e f8bb
00000070: 15fb 1c3d 84cc 87bb 15a6 6cbd 83ff 833d
00000080: 1e18 103d a382 583b 043e b73b 882e 823d
00000090: 46e5 783d 3d21 ddbc cbb3 dfbb 4181 d2bc
000000a0: 77bd 2a3d 65d6 1a3e a0cc 16bd 0415 8bbb
000000b0: 0040 04bd 6f48 bdbc fc0d de3c c26c 12bd
000000c0: d664 9bbc f6de 43bc db51 77bd 2a62 893c
000000d0: d11a a43d 98df 35bd 3161 313d ce1e ecbb
000000e0: 8d85 593d cc95 44bd 0280 0e3d 8c93 04bc
000000f0: 55b5 3d3d 48ef 59bd 4682 713b ba74 8f39
00000100: 3c11 0d3d 4c7f a13c 2f36 a73c 00cb 0abd
00000110: 5002 a0bd 00e5 74bc e0c6 3f3d e320 543d
00000120: caca 14bd edd8 8a3d e258 ad3d e1f0 233d
00000130: c025 f8bb afed 12bb e861 1f3c a56b 44bd
00000140: 65d1 833b b550 113e 1d81 b13b 1eda 36bd
00000150: bd77 c43b b21f 933d 2e0b 06bd 2747 093a
00000160: c00e 893b f11b a23d a2ed 713d 7981 a5bc
00000170: cfa6 6dbd 27f6 703d 1aa7 003c 249b ae3d
00000180: d773 8e3d 5525 00bd 8fe7 1e3d 3749 b53d
00000190: c07d 793a 23dc 4c3d bdbe d73c 4138 ebbb
000001a0: 96f2 60bd 2c79 673d 0942 49bd 41ab 003d
000001b0: a052 4c3d 1baf efbb d83e 0d3c 6740 a53d
000001c0: 0288 61bc 0c1a 37bd 5eee f13c 08d8 2cbd
000001d0: 8aef 36bb 4be7 f33c 314c c4bb 5852 873d
000001e0: 1148 87bc d967 483d c2c0 7d3d 5685 6e3d
000001f0: f29d 133d 47d4 fb3c 8bcb 333c 0c34 c0bc
00000200: a5fa 8c3d 5cda 043b cd65 7a3d 43e1 0dbd
00000210: 10a3 5f3b e848 02bc c3e2 1dbc bc87 043d
00000220: a42c ad3d 9d9b 153e df0b 083d fdb1 8d3d
00000230: 43a8 293d 5f09 013d 9970 a13c e098 08bd
00000240: c768 47bd 4c16 0c3e 93dc 3cbc dfe0 203d
00000250: fd02 8dbd 2d2d f6bc 0c89 bdbc c415 0f3d
00000260: 8504 f13d c1da d2bc 27be c7bc 8fd5 1a3c
00000270: be3e bbbc 6cc3 cbbc 14b8 4b3d 7042 7bbd
00000280: 74cb e2bc d855 233c dfd0 1d3e ae52 5cbd
00000290: 058c de3c efca 2d3b 7436 a43d d047 533d
000002a0: b46d 80bc cb78 1f3b 52a5 03bc c15c 673d
000002b0: f8c3 afbb bf75 073d a54a 1b3d 7c82 a93d
000002c0: ddeb 163d 314b f43c e563 7ebd cf59 783d
000002d0: 5b45 85bd f64c f13c 2a59 003d bacf 8d3d
000002e0: a6c9 c93c cb7e b13c d961 4e3d eb6d 9cbb
000002f0: c02c 5e3d 08f0 3bbd 5351 3abd b7bd 433d
00000300: 8fc1 953d 50b7 6d3c dede a63d 557e 38bc
00000310: 149d 56bd f6ff f3bb 6c21 713d 7411 fc3c
00000320: 7aea 6b3d 02ad e8bc 8e6f 29bd b6f9 a3bc
00000330: 6f6e 2bbd 8882 8f3d 4e50 30bd d819 18bd
00000340: 8df1 3bba 822b e03d 06a1 ee3c e820 083d
00000350: db2d 8dbc 33c8 063d ffbb 15bb bf62 003d
00000360: ab98 3f3b a22b 843d 755c 6b3d eaa3 c53c
00000370: eeb2 a7bd 906a a83c b3d3 37bd bfdd 5e3c
00000380: 158e 88bc e7b9 663d 2150 97bc 168d 383d
00000390: 46c7 7b3c e6d5 b23c a5bb 53bb 0c43 713d
000003a0: 52a7 453d a4e4 84bb 60cb 1b3d 2c08 013d
000003b0: a1a3 e03d c58c 5e3b 152b 133d dde6 103d
000003c0: 4a51 9dbc c96a 8f3c 6d42 b2bd 121d 383d
000003d0: abd3 53bd 1eaa a5bd cb2e 2d3a e5b4 c5bd
000003e0: b2aa 0cbd cd54 df3d 2fec c9bc 2c97 6b3d
000003f0: bb79 5cba daf8 47bc 1b07 673c 1370 c73b

shared.2.bias f4 [256]
0.010329132 -0.05436617 0.04611624 0.06252465 0.064735584 0.028818073 -0.000584798 -0.008140576
0.042940635 0.0685629 0.018201753 -0.0148898475 0.051959503 -0.04024391 -0.0051196693 0.019975044
-0.019936785 -0.009870846 -0.009496106 5.2862342e-05 0.014744929 -0.019891232 0.011703056 0.06607712
0.022273172 0.027348675 0.012415385 -0.048145406 0.035379864 0.03660828 0.010701719 -0.009326817
-0.03385896 -0.025733983 -0.016576728 0.063070506 -0.024143167 0.00034927513 0.08202269 -0.0065605077
0.046971094 -0.02451659 -0.030345526 0.05517195 0.060308844 0.03799181 -0.029103564 -0.014308289
-0.05727141 -0.010473591 -0.033882886 0.061442062 -0.029127473 0.060283307 0.023595195 -0.04077978
0.052161027 -0.032058813 -0.03335067 0.0038766854 0.0486604 0.034701448 -0.014611343 0.017393963
0.019125013 -0.059138246 -0.006379107 0.058193393 -0.029607156 0.03805453 -0.027323458 -0.016972624
-0.0023082003 0.023068292 -0.007975359 0.035776548 0.044072594 -0.009451952 0.0071356916 0.037974063
-0.008947784 -0.042685088 0.06673717 -0.0335656 0.03588084 0.026504932 -0.044008244 -0.0310828
0.075481676 0.02769062 -0.00043885622 0.06587925 0.009991648 0.039246526 -0.015644066 0.018192036
-0.0390881 0.038819157 0.0069909794 0.028602012 0.055383734 -0.04338334 0.028675552 -0.029540077
-0.0084921755 -0.036449604 -0.022621688 0.007421294 0.025901025 -0.013359996 0.08025599 -0.010741531
-0.01512104 0.04831286 -0.024323065 -0.0076833023 0.020944774 0.03846591 -0.013291239 0.06177103
0.008465514 -0.009397369 0.052215014 0.053546943 -0.0059686685 0.035946146 0.031031135 0.04990495
0.00020258164 0.032492638 0.07764557 0.060223334 -0.025204984 0.033605095 -0.0073204287 -0.018375684
0.055341225 0.06298903 0.004583775 -0.023820274 0.012062621 0.062217403 0.048698943 0.010054893
0.0072900546 0.038701013 -0.0072487607 0.04312956 -0.018447658 0.07310816 -0.025076058 0.052417792
-0.042372625 0.02917645 0.03341362 0.041162312 0.05233906 -0.004695629 0.04778561 0.045637157
0.01528687 0.05118399 -0.03931005 -0.029519059 -0.008582309 0.014025255 0.06513307 0.032771368
-0.02944379 0.055753157 -0.01717917 0.0054825614 -0.042456683 -0.028082319 0.05973314 0.06844189
-0.016846774 0.05728024 0.03538826 0.07587775 -0.019357082 -0.027389122 0.028116597 0.06721095
0.06202754 -0.037929714 0.011106589 0.022325778 0.05742709 0.022749942 0.01045755 0.0114735225
0.05889343 0.039762408 0.039964054 -0.021492032 0.022551978 -0.012398412 0.011666219 0.082362704
0.06733459 0.072618924 0.03594887 -0.03956621 -0.0014890665 -0.023931375 0.06255262 0.020638227
0.0052686958 -0.053828865 -0.012521888 -0.02075874 -0.03732555 0.068962246 0.068690166 0.0037606072
0.058554254 -0.036936875 0.0482441 -0.0136287715 0.02122075 0.0054847235 0.003941526 0.068260126
0.0069527715 0.06310812 0.015691245 0.04856312 0.071558505 -0.03484394 0.080937155 -0.03627242
-0.05728488 0.003130924 0.048264336 -0.051301293 -0.031049885 0.024568383 -0.017375618 0.044283755
0.060281474 -0.005807347 -0.0119735915 0.033017367 0.043364987 -0.046714496 0.035705883 0.07278555
-0.037179332 0.044866174 0.052570943 -0.02418799 0.07093237 0.032368492 0.03647429 -0.014776067
00000000: 853b 293c 10af 5ebd 62e4 3c3d ec0c 803d
00000010: 1794 843d e113 ec3c 214d 19ba 0d60 05bc
00000020: 85e2 2f3d b56a 8c3d d81b 953c 8cf4 73bc
00000030: 7dd3 543d ccd6 24bd e6c2 a7bb b4a2 a33c
00000040: 7852 a3bc 54b9 21bc 8e95 1bbc 82b8 5d38
00000050: b794 713c f0f2 a2bc 2dbe 3f3c 7153 873d
00000060: 3a76 b63c 540a e03c e669 4b3c 1e34 45bd
00000070: 7aea 103d 90f2 153d 4356 2f3c 81cf 18bc
00000080: b1af 0abd 13d0 d2bc ebcb 87bc 1c2b 813d
00000090: e4c7 c5bc ea1e b739 83fb a73d 87f9 d6bb
000000a0: c364 403d 04d7 c8bc 2e97 f8bc fcfb 613d
000000b0: 6806 773d 4d9d 1b3d 996a eebc 506d 6abc
000000c0: 6d95 6abd 6d99 2bbc c8c8 0abd acaa 7b3d
000000d0: bd9c eebc a1eb 763d b64a c13c b308 27bd
000000e0: cda6 553d 1a50 03bd b69a 08bd fd0f 7e3b
000000f0: 2150 473d 1b23 0e3d 6a64 6fbc c97d 8e3c
00000100: 0fac 9c3c f23a 72bd d407 d1bb 325c 6e3d
00000110: b58a f2bc 11df 1b3d 72d5 dfbc 2c0a 8bbc
00000120: 2d45 17bb b7f9 bc3c 15ab 02bc 6e8a 123d
00000130: 7785 343d 5cdc 1abc 85d2 e93b b18a 1b3d
00000140: ba99 12bc 8fd6 2ebd 7fad 883d 157c 09bd
00000150: caf7 123d df20 d93c fd41 34bd 5ba1 febc
00000160: 2396 9a3d 70d7 e23c 4916 e6b9 b3eb 863d
00000170: 02b4 233c f7c0 203d fc27 80bc 7707 953c
00000180: d81a 20bd d600 1f3d 9614 e53b c44e ea3c
00000190: 0eda 623d bbb2 31bd fee8 ea3c 08fe f1bc
000001a0: c422 0bbc 2e4c 15bd 1e51 b9bc 542e f33b
000001b0: 632e d43c e2e3 5abc 415d a43d 3ffd 2fbc
000001c0: 3dbe 77bc b5e3 453d 2a41 c7bc 36c4 fbbb
000001d0: 6094 ab3c 6e8e 1d3d 7fc3 59bc 9f03 7d3d
000001e0: f0b2 0a3c 6cf7 19bc 69df 553d 0a54 5b3d
000001f0: d294 c3bb 443c 133d 0235 fe3c 2269 4c3d
00000200: 186c 5439 0017 053d a404 9f3d beac 763d
00000210: af7a cebc 7fa5 093d 35e0 efbb 9a88 96bc
00000220: 7bad 623d 6400 813d 7e33 963b bc22 c3bc
00000230: 4da2 453c add7 7e3d 8b78 473d 47bd 243c
00000240: 69e1 ee3b f484 1e3d 0387 edbb 9fa8 303d
00000250: 8b1f 97bc bbb9 953d 4e6c cdbc 0ab4 563d
00000260: eb8e 2dbd 7303 ef3c b8dc 083d d099 283d
00000270: 7b61 563d cadd 99bb d8ba 433d 07ee 3a3d
00000280: c875 7a3c 4ea6 513d 9303 21bd f4d1 f1bc
00000290: d09c 0cbc 2fca 653c 7d64 853d 453b 063d
000002a0: 1a34 f1bc 6c5d 643d 55bb 8cbc 0fa7 b33b
000002b0: 0fe7 2dbd e40c e6bc bdaa 743d 432b 8c3d
000002c0: 3f02 8abc af9e 6a3d 48f3 103d cb65 9b3d
000002d0: be92 9ebc 275f e0bc c754 e63c e5a5 893d
000002e0: 9710 7e3d 305c 1bbd 69f8 353c 8de4 b63c
000002f0: ab38 6b3d 165e ba3c 2556 2b3c 71fb 3b3c
00000300: 3d3a 713d e8dd 223d 59b1 233d 0f10 b0bc
00000310: edbe b83c b622 4bbc ab23 3f3c c7ad a83d
00000320: b8e6 893d 3bb9 943d 1f3f 133d 2e10 22bd
00000330: c82c c3ba bb0b c4bc 971b 803d 8011 a93c
00000340: 06a5 ac3b a87b 5cbd 9b28 4dbc 3c0e aabc
00000350: ade2 18bd 143c 8d3d 6ead 8c3d 8574 763b
00000360: 96d6 6f3d 1f4b 17bd 9b9b 453d 364b 5fbc
00000370: 23d7 ad3c 32b9 b33b eb27 813b f7cb 8b3d
00000380: 13d4 e33b d43e 813d ed8a 803c 1fea 463d
00000390: 448d 923d 85b8 0ebd 61c2 a53d 6492 14bd
000003a0: 8da3 6abd 3030 4d3b d3b0 453d 4e21 52bd
000003b0: 545c febc a243 c93c 5057 8ebc e262 353d
000003c0: b5e9 763d 8f4b bebb e22c 44bc 383d 073d
000003d0: 7c9f 313d b357 3fbd 5540 123d 9710 953d
000003e0: 5b49 18bd 98c5 373d a154 573d e425 c6bc
000003f0: fe44 913d d394 043d 1166 153d 5117 72bc

actor_mean.0.weight f4 [256, 256]
0.06288924 -0.025325121 0.029414302 0.007694122 0.07880486 0.079746515 0.051132496 -0.012219321
-0.008068973 -0.03471839 -0.05761619 -0.049797837 0.04947273 0.013711394 0.04650338 0.051697496
-0.038826145 -0.053653292 0.011832091 0.0017503209 0.0037298915 -0.015888026 -0.039405394 0.07905341
0.04280587 0.026010796 -0.076016605 -0.0472616 0.015982982 0.021724883 0.047572225 0.00012048532
0.04516394 -0.043724257 0.002970316 -0.033387676 -0.057874225 0.08175223 0.040144417 -0.012024176
0.020093765 0.039615426 0.040270288 -0.05732671 -0.010911823 -0.044861913 0.0037634575 -0.008536562
-0.019869471 0.012708402 0.049744636 -0.01589403 0.025895445 -0.04553205 -0.063127436 0.040489327
-0.03743817 -0.050253175 0.007753954 0.03579153 -0.003046064 -0.040855683 0.00837878 -0.0072964383
0.040249407 -0.05583848 0.06881038 -0.026612265 0.049639273 0.09028551 -0.021992652 -0.07347851
-0.009611094 0.014551866 0.0060217106 0.06970555 0.06832964 0.07005633 -0.0035945394 0.050056543
-0.0073611075 0.014029541 0.080308065 0.041730393 -0.037320677 0.0018391255 0.08279724 0.035865385
0.056810033 -0.02758659 0.04082299 -0.064716175 0.0351116 -0.024756884 -0.0026837578 0.05604305
0.05067955 0.07632655 0.008222465 0.034031015 0.05744868 -0.006675369 -0.022888992 -0.031170096
0.013958108 -0.04718829 -0.035486177 0.022296328 -0.020839464 0.03837034 0.021834336 0.03298684
-0.008345444 0.0014614114 -0.012233154 0.0017708911 -0.030290745 0.03047036 -0.017899534 0.053260565
0.012767089 0.021983111 -0.050688762 0.00081434596 -0.022176396 0.027057752 -0.015856355 -0.006061865
0.065519296 -0.07604196 0.01658995 -0.0649854 -0.036664773 0.06224631 -0.0022539974 0.03724917
0.05428634 -0.0009741304 -0.010525337 0.0018408813 -0.017840927 0.06703157 0.031587284 0.030270534
0.09446854 0.0049768686 -0.008309343 -0.05650105 -0.026638 0.02629333 0.066146486 -0.044352658
0.064895615 -0.038530298 -0.041911047 -0.055584017 0.034121994 0.032619454 0.055473518 0.012301821
-0.05443744 -0.05520393 -0.037263956 0.026230771 0.008290561 0.05351684 0.023122067 -0.02037591
0.025063125 -0.0034467163 -0.06520571 0.09782247 -0.0583562 -0.028612858 0.061067443 -0.0398782
0.05123507 -0.010632386 0.041837867 0.004863816 -0.039297644 0.054121256 0.011647196 0.07181073
0.08439154 -0.025816118 -0.044446006 -0.049998946 0.07769501 -0.020065691 0.010208638 -0.023270695
0.01829441 0.0051165204 -0.017581599 0.049782623 0.06209252 -0.057576925 0.07259321 0.0048902687
0.028393265 -0.051335596 0.040112097 -0.037782583 -0.030970192 -0.033107962 -0.047135446 0.0061502396
0.048782635 0.012331798 -0.0098067345 0.0292346 0.013462834 -0.034531906 -0.013266373 -0.012872227
-0.023015909 0.010382207 -0.0059012254 0.034305964 -0.014685973 0.0029217228 0.038637422 -0.01956875
0.018365726 0.060455404 -0.037487008 -0.030006228 -0.019024596 -0.0070722527 -0.044670913 -0.05098621
0.060583096 -0.032788113 -0.01736278 -0.04121231 0.02993424 0.04981737 -0.0041147303 -0.020903237
0.0091870725 0.012595297 0.059927557 -0.00072019605 -0.022434901 -0.037808124 -0.061392996 -0.064384684
-0.0033286014 0.046064623 0.04244882 0.017816974 0.024350129 0.029539732 0.048686568 0.03869712
00000000: 13cc 803d a176 cfbc 43f6 f03c f91e fc3b
00000010: 7164 a13d 2452 a33d 4f70 513d 8c33 48bc
00000020: ba33 04bc df34 0ebd f4fe 6bbd d1f8 4bbd
00000030: eba3 4a3d c1a5 603c 547a 3e3d c1c0 533d
00000040: 2a08 1fbd 8ec3 5bbd 63db 413c 066b e53a
00000050: 3271 743b 9b27 82bc 8d67 21bd c1e6 a13d
00000060: 3555 2f3d 9814 d53c 98ae 9bbd 6195 41bd
00000070: beee 823c 62f8 b13c 18db 423d 10ad fc38
00000080: d3fd 383d 3518 33bd a2a9 423b 84c1 08bd
00000090: 860d 6dbd b76d a73d 796e 243d 0d01 45bc
000000a0: ae9b a43c c943 223d 75f2 243d 6acf 6abd
000000b0: 81c7 32bc 20c1 37bd 57a4 763b f0dc 0bbc
000000c0: 4dc5 a2bc e736 503c 08c1 4b3d 3234 82bc
000000d0: af22 d43c d17f 3abd f548 81bd 23d8 253d
000000e0: c458 19bd 46d6 4dbd e114 fe3b 249a 123d
000000f0: 79a0 47bb 4a58 27bd 2747 093c f616 efbb
00000100: 90dc 243d e4b6 64bd 75ec 8c3d f701 dabc
00000110: 8d52 4b3d 9ce7 b83d ef29 b4bc e77b 96bd
00000120: da77 1dbc f36a 6e3c c551 c53b c9c1 8e3d
00000130: 69f0 8b3d b179 8f3d 5d92 6bbb 1708 4d3d
00000140: 7235 f1bb 29dc 653c 8e78 a43d 7ded 2a3d
00000150: 91dd 18bd d00e f13a 9991 a93d 95e7 123d
00000160: a3b1 683d 46fd e1bc 0236 273d ea89 84bd
00000170: 2ed1 0f3d f3ce cabc fce1 2fbb 668d 653d
00000180: 5c95 4f3d 1851 9c3d 85b7 063c 1b64 0b3d
00000190: 4f4f 6b3d 0ebd dabb b281 bbbc 6e58 ffbc
000001a0: 8cb0 643c 8248 41bd f459 11bd caa6 b63c
000001b0: 86b7 aabc 382a 1d3d ecdd b23c 351d 073d
000001c0: 54bb 08bc d48c bf3a 916d 48bc 3f1d e83a
000001d0: 4c24 f8bc fa9c f93c 0ba2 92bc c027 5a3d
000001e0: 0d2d 513c ed15 b43c 059f 4fbd d579 553a
000001f0: 46ab b5bc 38a8 dd3c 30e5 81bc 9ca2 c6bb
00000200: fb2e 863d e3bb 9bbd a6e7 873c 1117 85bd
00000210: cd2d 16bd fdf5 7e3d cdb7 13bb 9692 183d
00000220: 5a5b 5e3d c95c 7fba 7772 2cbc ba49 f13a
00000230: 2327 92bc d947 893d ab61 013d e9f9 f73c
00000240: b978 c13d 0015 a33b e923 08bc a56d 67bd
00000250: ef37 dabc 1c65 d73c cf77 873d 22ab 35bd
00000260: fee7 843d f2d1 1dbd ebaa 2bbd 11ac 63bd
00000270: 81c3 0b3d fa9b 053d 3338 633d 948d 493c
00000280: cbf9 5ebd 841d 62bd 17a2 18bd eae1 d63c
00000290: 22d5 073c 7934 5b3d 7d6a bd3c 61eb a6bc
000002a0: 2f51 cd3c 4ee2 61bb 928a 85bd 2657 c83d
000002b0: e906 6fbd 8365 eabc db21 7a3d 5357 23bd
000002c0: dddb 513d 7633 2ebc 2f5e 2b3d a560 9f3b
000002d0: 91f6 20bd 40ae 5d3d e1d3 3e3c 8111 933d
000002e0: 79d5 ac3d 537c d3bc 040d 36bd b2cb 4cbd
000002f0: 901e 9f3d ce60 a4bc 2242 273c 2fa2 bebc
00000300: 29de 953c 7ca8 a73b 4907 90bc dde8 4b3d
00000310: ba54 7e3d c8d5 6bbd c0ab 943d 8c3e a03b
00000320: fe98 e83c 4645 52bd 954c 243d e9c1 1abd
00000330: 33b5 fdbc 379c 07bd 1911 41bd f387 c93b
00000340: 4dd0 473d 4f0b 4a3c 6dac 20bc 667d ef3c
00000350: 3893 5c3c 5471 0dbd 345b 59bc 08e6 52bc
00000360: dc8b bcbc 221a 2a3c 115f c1bb 6984 0c3d
00000370: 6f9d 70bc 607a 3f3b 4642 1e3d a54e a0bc
00000380: b873 963c 16a0 773d fa8b 19bd 9fcf f5bc
00000390: 78d9 9bbc 5bbe e7bb d9f8 36bd ebd6 50bd
000003a0: fb25 783d d44c 06bd 643c 8ebc 3dce 28bd
000003b0: a738 f53c 4c0d 4c3d dcd4 86bb 443d abbc
000003c0: 6085 163c 815c 4e3c 9976 753d 8acb 3cba
000003d0: 66c9 b7bc b1dc 1abd 3977 7bbd 1edc 83bd
000003e0: aa24 5abb 42ae 3c3d d0de 2d3d e7f4 913c
000003f0: ec79 c73c 4ffd f13c 916b 473d df80 1e3d

actor_mean.0.bias f4 [256]
-0.003200591 0.023607936 0.044257056 -0.0141172325 -0.04650835 0.060688786 0.022560332 0.03362371
0.05683894 -0.025911078 0.017685236 0.07047946 0.075063616 0.07192373 0.043665837 -0.049940065
-0.015998477 0.021612803 0.0107414415 -0.04569669 -0.021447858 0.024994167 0.047536206 0.035400316
0.056786712 -0.036885303 -0.023509592 -0.05534442 -0.052175213 -0.0031607375 -0.022244178 -0.013478374
-0.018183483 0.07131818 -0.033380255 0.03419407 -0.011569561 0.048334073 -0.04789819 -0.049614135
0.06087931 -0.041048538 -0.031212697 -0.020497369 0.028471662 -0.015193156 -0.06100958 0.038969167
0.030510873 0.0029747253 -0.050773095 -0.038094826 0.059988447 -0.008734792 -0.009992604 0.03060062
0.0064518666 -0.03618147 -0.006786008 0.0025809396 0.059080165 -0.014140125 -0.047273938 0.041576333
0.06653876 0.032114897 -0.021998536 -0.02394844 0.057062477 -0.034367006 -0.05338128 0.05211346
0.008546332 0.009320732 -0.023893256 -0.054809853 -0.019566895 0.042094853 0.016528815 0.039158814
-0.05203744 0.016935093 -0.040359356 -0.05271854 -0.003232448 0.032785058 -0.03439064 -0.02298128
0.027896533 -0.009899217 -0.02646333 0.004985943 -0.023742264 0.049983714 -0.039361432 -0.030637646
-0.056483183 -0.050417937 0.058118455 0.051587574 0.011689941 -0.058467876 0.05188608 0.04623037
-0.0074843606 -0.024845753 0.044698767 -0.035850342 0.02622551 0.051808704 -0.054412168 -0.008942843
0.04982063 -0.015844934 -0.0068306285 -0.006817749 0.05191991 -0.03737137 0.015886482 -0.022774408
0.05449272 0.06926042 0.0066836323 0.06231317 -0.01138096 -0.040510748 -0.03525386 -0.008558254
-0.032855198 0.009696166 -0.053935863 -0.054339908 0.0016448904 0.050440583 -0.03213904 0.047462057
0.070937276 0.033443008 -0.02029043 -0.002958689 -0.040918972 -0.057718225 -0.03811795 -0.05777385
-0.012230255 -0.03267071 -0.06169519 0.028168755 0.002561932 0.02179196 0.058189575 0.022461277
0.028407129 -0.02172128 0.06799667 -0.053689454 -6.88555e-05 0.02485244 0.014424604 0.055369716
-0.013356234 -0.02575818 0.013573102 0.04782907 -0.0621474 -0.0039748778 0.056643624 0.05257742
0.042590607 -0.029513583 0.057203893 -0.040919017 0.034880742 0.06305929 -0.005637288 -0.008044745
0.03493222 0.024184939 -0.052924927 0.016581208 -0.019050995 0.0054777907 -0.0019219052 -0.023656493
0.052754294 -0.023680452 -0.029218879 -0.059218977 -0.017738787 -0.0403758 -0.022810748 0.033162877
0.07147605 -0.018149085 0.012668987 0.04987065 -0.01598935 -0.01740598 -0.009004787 0.029030705
-0.0018036051 0.067477114 -0.044080254 0.030165842 -0.017892437 -0.018478187 -0.0072167832 0.024108332
-0.054793093 0.011211187 -0.04664643 0.05072365 -0.0006117457 0.0150734335 -0.014413079 -0.038012266
0.0017155734 -0.03289808 0.06496288 0.04494323 -0.03412531 0.057626817 0.054248866 -0.041047238
0.024455054 0.018390689 0.03606155 0.022308668 -0.05263316 -0.010944079 -0.045113195 -0.044029
-0.04595666 -0.011103615 0.021494726 -0.01577571 0.06671414 0.052398406 0.048200972 -0.04047052
0.05308505 0.06666172 -0.0046231546 0.077459544 0.06267257 -0.0050057913 0.05732101 0.07590261
-0.021912638 0.028051624 -0.038149707 0.053600848 0.03408401 -0.0074424995 -0.05417812 -0.02776319
00000000: 02c1 51bb 6e65 c13c e346 353d f74b 67bc
00000010: 8a7f 3ebd ce94 783d 72d0 b83c 04b9 093d
00000020: f3cf 683d 7843 d4bc a1e0 903c 8957 903d
00000030: f4ba 993d c04c 933d f3da 323d f48d 4cbd
00000040: 3d0f 83bc 550d b13c dffc 2f3c 742c 3bbd
00000050: 6bb3 afbc 91c0 cc3c 53b5 423d ecff 103d
00000060: 2f99 683d 0b15 17bd 3097 c0bc d5b0 62bd
00000070: adb5 55bd 6024 4fbb 6c39 b6bc 66d4 5cbc
00000080: 87f5 94bc 440f 923d bcb9 08bd 150f 0c3d
00000090: 428e 3dbc f3f9 453d e430 44bd 3138 4bbd
000000a0: 955c 793d 8322 28bd c5b1 ffbc 19ea a7bc
000000b0: 673d e93c b7ec 78bc 2ee5 79bd 229e 1f3d
000000c0: f0f1 f93c 9cf3 423b 73f7 4fbd 5209 1cbd
000000d0: 72b6 753d 5f1c 0fbc 05b8 23bc 27ae fa3c
000000e0: 2e6a d33b 0533 14bd 295d debb fb24 293b
000000f0: 0bfe 713d fcab 67bc 51a2 41bd f24b 2a3d
00000100: 7945 883d e98a 033d 4636 b4bc 852f c4bc
00000110: 58ba 693d 6bc4 0cbd 54a6 5abd ec74 553d
00000120: ea05 0c3c fcb5 183c cabb c3bc 4c80 60bd
00000130: c14a a0bc a76b 2c3d 7067 873c fe64 203d
00000140: 3625 55bd 77bb 8a3c da4f 25bd 65ef 57bd
00000150: 7ad7 53bb a049 063d 33dd 0cbd 3d43 bcbc
00000160: 4587 e43c 5330 22bc a0c9 d8bc 1f61 a33b
00000170: 237f c2bc b9bb 4c3d 7439 21bd cdfb fabc
00000180: e95a 67bd 0a83 4ebd 9e0d 6e3d 7e4d 533d
00000190: 2b87 3f3c 037c 6fbd 8086 543d 0e5c 3d3d
000001a0: 5e3f f5bb 5289 cbbc 0e16 373d cfd7 12bd
000001b0: e1d6 d63c 5d35 543d 4bdf 5ebd 0185 12bc
000001c0: b810 4c3d 3ccd 81bc 77d3 dfbb 6c67 dfbb
000001d0: f9a9 543d b912 19bd 5e24 823c 6591 babc
000001e0: c233 5f3d 68d8 8d3d 5f02 db3b 183c 7f3d
000001f0: 3577 3abc 99ee 25bd 5a66 10bd eb37 0cbc
00000200: 2c93 06bd abdc 1e3c daeb 5cbd 8693 5ebd
00000210: 5d99 d73a c99a 4e3d 3aa4 03bd 9367 423d
00000220: 9047 913d 89fb 083d 1e38 a6bc 90e6 41bb
00000230: a79a 27bd f269 6cbd 9121 1cbd 46a4 6cbd
00000240: 6861 48bc b9d1 05bd 18b4 7cbd 29c2 e63c
00000250: 16e6 273b 0d85 b23c 3158 6e3d b600 b83c
00000260: 11b6 e83c d3f0 b1bc d741 8b3d 79e9 5bbd
00000270: 8466 90b8 5897 cb3c 2d55 6c3c 5bcb 623d
00000280: 1bd4 5abc d202 d3bc b761 5e3c 6ae8 433d
00000290: 468e 7ebd b13f 82bb 2503 683d 6c5b 573d
000002a0: 7d73 2e3d 78c6 f1bc a14e 6a3d b39a 27bd
000002b0: 1cdf 0e3d 3b25 813d 00b9 b8bb 1bce 03bc
000002c0: 1615 0f3d 7e1f c63c cfc7 58bd 50d5 873c
000002d0: d510 9cbc 0a7f b33b 70e8 fbba 43cb c1bc
000002e0: e314 583d 82fd c1bc 6e5c efbc 998f 72bd
000002f0: ef50 91bc 1861 25bd 9bdd babc ccd5 073d
00000300: 0962 923d 64ad 94bc 9591 4f3c 2b45 4c3d
00000310: 19fc 82bc fc96 8ebc d088 13bc cdd1 ed3c
00000320: f266 ecba 7131 8a3d 7f8d 34bd 5b1e f73c
00000330: 2993 92bc 915f 97bc c47a ecbb d67e c53c
00000340: b96e 60bd 20af 373c 5410 3fbd 9ac3 4f3d
00000350: 8f5d 20ba 90f6 763c d624 6cbc c0b2 1bbd
00000360: 17dd e03a 23c0 06bd 420b 853d 6416 383d
00000370: fbc6 0bbd 190a 6c3d 0f34 5e3d 2621 28bd
00000380: f755 c83c 12a8 963c 47b5 133d abc0 b63c
00000390: de95 57bd cb4e 33bc 9dc8 38bd c157 34bd
000003a0: 0d3d 3cbd f0eb 35bc b515 b03c 103c 81bc
000003b0: 6ca1 883d b69f 563d 626e 453d 6ac4 25bd
000003c0: b66f 593d f185 883d d57d 97bb 1ca3 9e3d
000003d0: 7a5a 803d 9f07 a4bb 6fc9 6a3d d472 9b3d
000003e0: 2282 b3bc 85cc e53c de42 1cbd 908c 5b3d
000003f0: ad9b 0b3d 36e0 f3bb e0e9 5dbd a16f e3bc

actor_mean.2.weight f4 [4, 256]
0.034136966 -0.0021746054 -0.07790338 0.01706314 -0.033310894 0.055399563 -0.07767952 0.099058144
-0.03799069 0.043738216 0.05539663 0.08154494 0.04807533 -0.018534841 -0.048209243 -0.01320876
-0.021600567 -0.0016481502 0.009537019 -0.07182518 0.05421419 -0.033297054 0.076676905 -0.01956468
0.01705805 0.017228676 -0.09410824 -0.070012935 -0.02780689 -0.030667707 -0.012409832 -0.05003962
-0.038903132 0.0032330884 0.004730841 -0.0722248 -0.004970933 -0.10457746 0.07198219 0.020864466
0.09422101 0.051783036 0.050078623 0.070672534 -0.014069039 -0.04011293 -0.09696273 -0.018004024
-0.038901642 -0.059384875 -0.051240597 -0.054451987 -0.012424296 -0.027472967 -0.005288801 -0.078633904
-0.012351494 -0.06263903 0.04421974 0.091426045 0.057857424 0.07246392 -0.04063261 -0.048666302
-0.022431113 0.038515076 -0.05296649 0.03520957 0.048829164 -0.0703353 -0.007113345 0.08401485
0.046202626 0.107825704 -0.03779806 0.08279971 0.026361583 0.0700918 0.03653382 -0.04075038
-0.014925537 -0.0155254565 -0.053995147 0.020947753 0.031062081 -0.062383283 -0.049112584 -0.07417409
0.02164435 -0.03700809 -0.05487088 -0.06524989 0.0258848 0.058907803 -0.06685124 0.03574048
0.007298277 0.061395343 -0.06724392 0.012948286 0.0030612827 -0.04347178 -0.047259722 -0.007106336
-0.044010185 0.04642216 -0.039297715 -0.053494427 -0.031876117 -0.011078463 -0.02869054 0.050311334
-0.109885484 -0.05379066 -0.09636483 -0.078514025 0.062342677 0.023261154 0.03971612 0.072286375
0.052141365 0.07839574 0.078202486 0.0023753333 -0.040120833 -0.055489972 -0.03388081 -0.051189627
-0.04088705 0.08749754 0.0053517604 -0.047034353 -0.05079087 0.10515372 0.031865094 0.03647505
0.070760734 0.036048908 -0.03216584 0.08842156 -0.11302165 -0.009918352 0.079983115 -0.020102624
0.03194203 0.020185888 -0.027287379 0.03214888 0.02258051 -0.058625076 0.018460877 0.044890486
-0.045430683 -0.032349426 0.037966885 -0.09370447 -0.0645968 0.004691878 0.09360681 0.03918128
-0.086414635 -0.08257403 -0.020484496 -0.07726199 -0.0035733304 -0.025164338 0.066056855 0.06965949
0.016846288 0.05000357 -0.06590225 -0.028610779 0.068191215 0.0011439378 -0.040497027 0.046544712
0.10829873 0.005619289 -0.01675559 0.057467856 -0.09788472 0.02623345 0.025303977 0.016018542
0.07517145 -0.08715573 -0.020158509 -0.061637513 -0.043903228 0.048820063 -0.06270027 0.021408921
0.06008458 -0.072154716 -0.032935817 -0.012858704 -0.042355847 -0.06415658 0.03544652 0.04296313
-0.012564802 0.073666245 -0.002057584 0.055809382 -0.08888462 0.06468618 0.07707171 -0.09865432
-0.07078058 -0.027677577 -0.043623455 0.061243854 -0.012370509 -0.006722063 -0.030394234 -0.08893034
-0.034037918 0.032899432 0.07545149 0.02007889 -0.07118676 -0.047907665 -0.022058334 0.019431856
0.06011368 -0.056437857 0.034570985 -0.08678938 -0.09048398 0.06066058 -0.016408557 -0.015702369
0.05604633 -0.07820901 -0.043160535 0.0028620432 0.109987095 -0.05954998 -0.05873282 0.020551542
0.07868724 -0.024637027 -0.011359377 0.104096256 0.019916972 -0.01699697 0.06760447 0.06118053
0.03977682 0.01760457 0.01635344 0.059274368 0.084217295 -0.030848784 -0.019964403 -0.02258656
00000000: 34d3 0b3d d383 0ebb cf8b 9fbd 00c8 8b3c
00000010: 0171 08bd a7ea 623d 7116 9fbd ffde ca3d
00000020: 209c 1bbd d826 333d 94e7 623d 0901 a73d
00000030: a3ea 443d 61d6 97bc 0e77 45bd 8e69 58bc
00000040: acf3 b0bc be06 d8ba 2841 1c3c 1419 93bd
00000050: b30f 5e3d 7e62 08bd c808 9d3d 1c46 a0bc
00000060: 53bd 8b3c 2723 8d3c d2bb c0bd f162 8fbd
00000070: 46cb e3bc d83a fbbc 9c52 4bbc 58f6 4cbd
00000080: e458 1fbd 39e2 533b 2c05 9b3b 99ea 93bd
00000090: 35e3 a2bb b52c d6bd 666b 933d f5eb aa3c
000000a0: f2f6 c03d 731a 543d 3e1f 4d3d c3bc 903d
000000b0: d481 66bc 754d 24bd 6594 c6bd 2d7d 93bc
000000c0: 5457 1fbd 8e3d 73bd a9e1 51bd 0c09 5fbd
000000d0: 468f 4bbc fd0e e1bc ae4d adbb d00a a1bd
000000e0: ec5d 4abc e448 80bd c21f 353d 943d bb3d
000000f0: e8fb 6c3d f767 943d 616e 26bd 5156 47bd
00000100: 74c1 b7bc fcc1 1d3d 64f3 58bd e937 103d
00000110: 1701 483d f40b 90bd 1017 e9bb fa0f ac3d
00000120: f73e 3d3d b9d3 dc3d 23d2 1abd e592 a93d
00000130: 3ff4 d73c 4a8c 8f3d 7da4 153d dfe9 26bd
00000140: 3d8a 74bc 7c5e 7ebc 042a 5dbd 9f9a ab3c
00000150: e875 fe3c 9d85 7fbd 472a 49bd 96e8 97bd
00000160: 7e4f b13c cc95 17bd 4ac0 60bd bca1 85bd
00000170: 5c0c d43c 4f49 713d 4ee9 88bd 9c64 123d
00000180: 6326 ef3b af79 7b3d 2eb7 89bd 0c25 543c
00000190: cd9f 483b 770f 32bd 6993 41bd 44dc e8bb
000001a0: 0644 34bd 2a25 3e3d a4f6 20bd f91c 5bbd
000001b0: 8890 02bd 7182 35bc 6c08 ebbc 4213 4e3d
000001c0: a40b e1bd 9853 5cbd ed5a c5bd f6cb a0bd
000001d0: 095b 7f3d 2d8e be3c 5fad 223d e10a 943d
000001e0: 2f92 553d f28d a03d a028 a03d 7bab 1b3b
000001f0: be55 24bd 7449 63bd 9bc6 0abd 37ac 51bd
00000200: 2e79 27bd e931 b33d d25d af3b 18a7 40bd
00000210: 160a 50bd d55a d73d f984 023d dd66 153d
00000220: 01eb 903d 05a8 133d 54c0 03bd 5d16 b53d
00000230: e577 e7bd 9580 22bc 30ce a33d 42ae a4bc
00000240: a5d5 023d e05c a53c c889 dfbc 8bae 033d
00000250: c3fa b83c d920 70bd 443b 973c 16df 373d
00000260: 8615 3abd d580 04bd 2a83 1b3d 21e8 bfbd
00000270: 544b 84bd 53be 993b edb4 bf3d 8d7c 203d
00000280: 28fa b0bd 931c a9bd 1acf a7bc 893b 9ebd
00000290: 892e 6abb 7125 cebc d148 873d a2a9 8e3d
000002a0: 3a01 8a3c 8bd0 4c3d c2f7 86bd 2761 eabc
000002b0: d6a7 8b3d 2ff0 953a 36e0 25bd aba5 3e3d
000002c0: b9cb dd3d 0322 b83b 0543 89bc 6a63 6b3d
000002d0: c977 c8bd 88e7 d63c 494a cf3c 5139 833c
000002e0: 7df3 993d b47e b2bd 7523 a5bc 9e77 7cbd
000002f0: dfd3 33bd 8cf7 473d 0069 80bd c361 af3c
00000300: 401b 763d dac5 93bd b5e7 06bd 50ad 52bc
00000310: 537d 2dbd 8664 83bd 5f30 113d 1bfa 2f3d
00000320: 99dc 4dbc 54de 963d 88d8 06bb 6198 643d
00000330: 2409 b6bd 307a 843d c6d7 9d3d 470b cabd
00000340: 69f5 90bd 16bc e2bc 82ae 32bd d6da 7a3d
00000350: adad 4abc c044 dcbb 54fd f8bc 1c21 b6bd
00000360: 586b 0bbd 8ec1 063d 5086 9a3d 7c7c a43c
00000370: 5dca 91bd d43a 44bd aeb3 b4bc 8e2f 9f3c
00000380: c339 763d 622b 67bd 4e9a 0d3d a1be b1bd
00000390: aa4f b9bd 3a77 783d 3d6b 86bc 41a2 80bc
000003a0: d690 653d 0c2c a0bd 1ac9 30bd 1e91 3b3b
000003b0: ea40 e13d aeea 73bd d391 70bd b55b a83c
000003c0: c726 a13d 97d3 c9bc ae1c 3abc 6b30 d53d
000003d0: eb28 a33c 3b3d 8bbc 3674 8a3d 6f98 7a3d
000003e0: 05ed 223d 7637 903c a6f7 853c aec9 723d
000003f0: 1e7a ac3d 97b6 fcbc 638c a3bc 7307 b9bc

actor_mean.2.bias f4 [4]
-0.04883447 -0.043565255 0.0664837 0.0017665838
00000000: a706 48bd 7b71 32bd 9b28 883d b78c e73a
