best_model_episode_100.pth (torch, 564334 bytes, 12 tensors)

actor_log_std f4 [4]
000000 2e 33 30 3c b8 b9 16 3d ba bf ba 3b ec 1a 20 3d
       0.01075439 0.03679821 0.005699125 0.039088175

shared.0.weight f4 [256, 24]
000000 69 90 18 3e 27 8a 47 3e 40 48 14 3b f8 4d 84 3e
       0.14898838 0.19486295 0.0022626072 0.25840735
000010 bd 0b 94 bc 85 95 13 3d c1 07 99 bd 83 09 c1 3d
       -0.018072003 0.036031265 -0.07472182 0.09425642
000020 c6 18 36 3e 31 6d 14 be a0 a0 22 3e a1 e4 15 3d
       0.17782888 -0.14494778 0.15881586 0.03659499
000030 e5 fb 0b 3e 2f 10 05 3d 8a ff dc 3d 66 69 a3 bc
       0.13670309 0.032486137 0.10790928 -0.019947719
000040 f5 fc 29 3e 95 a8 1e 3d 3f c4 b1 bd f2 fb 76 3d
       0.16600402 0.03873499 -0.08680009 0.060298868
000050 1b 9e af bd cf aa 7b bc 78 87 a8 bd 37 ac ef 3d
       -0.08575078 -0.015360548 -0.082289636 0.11702769
000060 1a 41 02 be 44 3e 85 bd 63 be e6 bd f2 f3 19 3d
       -0.12720147 -0.06506017 -0.11266782 0.03758616
000070 b7 49 26 3d 3e fa 23 be 10 0e 44 3e a0 c5 0d be
       0.040597644 -0.16013429 0.1914599 -0.13844919
000080 fc 65 15 3e 1a 78 49 3c 1a ad 74 bd 2e 90 c9 3c
       0.14589685 0.012296701 -0.059735395 0.024604883
000090 f0 7b 48 3c 2d d1 2d 3e 5b a6 1d bc 49 3b c5 bd
       0.01223658 0.16974325 -0.009622182 -0.09630448
0000a0 0a 82 bb 3c db fc b2 bd 39 fa 5b 3d 79 52 19 3e
       0.022889156 -0.087396346 0.053705428 0.14972867
0000b0 f4 23 ae 3d d0 aa fa bd 39 36 aa 3d 71 9f 6b bc
       0.08502951 -0.12239611 0.083111234 -0.0143812755
0000c0 d2 e0 f1 3d a2 05 ba bd ee 13 30 be 88 1d 2e bd
       0.11810459 -0.090831056 -0.17195103 -0.042508632
0000d0 ca e8 30 be 6d 9c 0a 3e ca 88 72 3d 95 0e a9 3d
       -0.17276302 0.13536234 0.059212483 0.082547344
0000e0 70 0a ee 3c 07 87 d6 3b 45 ca f9 3d d8 60 de bd
       0.029057711 0.006546858 0.12196783 -0.10858315
0000f0 2f 26 00 3d 00 a1 1b be aa 6e ea 3c 2f 1b d7 bd
       0.031286415 -0.15198135 0.028617222 -0.10503232
000100 d2 90 e2 3c 5b 9f 9e bd 5a 95 09 3e b4 a5 1f be
       0.027656946 -0.077452384 0.1343588 -0.15590554
000110 5f 29 20 be b4 90 1f be cc 60 18 3e 0d 54 f1 3c
       -0.15640782 -0.15582544 0.14880675 0.029459024
000120 ff 71 08 3e 8a eb 6e be c3 14 f9 bd c4 f7 38 be
       0.13324736 -0.23332039 -0.12162163 -0.18063265
000130 e3 96 19 be d9 dc ad 3d 60 f9 a1 3d ff da ff 3d
       -0.14998965 0.08489389 0.07908893 0.12492942
000140 80 89 fb bd 9e a0 20 be dc 7b df 3d 32 3b 3d bd
       -0.122820854 -0.1568627 0.10912296 -0.04619903
000150 dd 85 b7 3d 79 8c 79 bd 3c e6 cc 3d 65 5e 33 be
       0.08961079 -0.06092498 0.10004851 -0.17516477
000160 f4 0b f4 bd ca 0a 3f 3d 43 ef e5 3c 72 89 88 bd
       -0.119163424 0.04664115 0.02806819 -0.066668406
000170 c8 94 db 3d 13 21 00 3e c6 0e 1e be fe 4a e8 bd
       0.10721737 0.12512617 -0.15435323 -0.113424286
000180 b3 6d 0a 3e d9 e5 b2 bd e3 23 87 bb 11 5c 55 be
       0.1351841 -0.08735246 -0.004124151 -0.20835902
000190 d3 97 1f bd 16 00 73 3d 22 64 0d bd a5 1e e4 bd
       -0.03896315 0.059326254 -0.034519322 -0.111386575
0001a0 15 07 69 3c 8e 91 03 be f3 1e 3d be f6 31 06 be
       0.01422288 -0.12848493 -0.18468837 -0.13104996
0001b0 ca a8 29 be 27 7e b6 bd aa 17 7f 3e 88 01 ab 3d
       -0.16568294 -0.089107804 0.24911371 0.083499014
0001c0 b3 1c dd 3d f5 a8 14 be 8f b8 b5 bd 50 89 b7 bc
       0.107964896 -0.14517577 -0.088730924 -0.022404343
0001d0 74 2e 9f 3d 12 b0 08 be 06 46 45 bd ef 1f bc bd
       0.07772532 -0.13348415 -0.048162483 -0.09185778
0001e0 9a e5 a7 bc 31 73 c4 bd 0c 06 3e bc 8c fb 11 be
       -0.020495225 -0.095922835 -0.011598121 -0.14256114
0001f0 c8 72 0e be 15 29 b6 bd a1 bc cd bd 6a 78 20 be
       -0.13910973 -0.088945545 -0.10045744 -0.15670934
000200 c3 cf 31 3e d4 dd 8c bc d5 c8 07 3e 5c 68 2b 3d
       0.17364411 -0.01719562 0.13260205 0.04184757
000210 61 30 10 be 48 be 05 3e 43 e9 8c bd ab f6 ba bd
       -0.14080955 0.13060868 -0.06880429 -0.091290794
000220 13 25 3b be 38 b3 5d be 8d 98 36 3d 55 ce 6e bd
       -0.18275861 -0.21650398 0.044579078 -0.058302242
000230 c4 3c 87 3d 6f 8a 38 be b4 3f 0d 3e 2a 5d 23 be
       0.06603387 -0.18021558 0.13793832 -0.15953508
000240 df 44 24 3d c5 37 e7 3d 0f 2b ae 3d b4 45 8e 3e
       0.040104743 0.11289934 0.085043065 0.27787554
000250 5e 5c 46 3e 6e 51 22 be b8 70 ae 3d be e7 b7 bd
       0.19371173 -0.15851375 0.08517593 -0.08979748
000260 31 36 bb bc 18 f5 1f be 9d 52 3e 3e ec 26 35 be
       -0.022852989 -0.1562084 0.18586202 -0.17690629
000270 ff c1 d6 3d 73 aa b7 3d 85 c1 4b 3d e7 80 02 be
       0.104862206 0.089680575 0.0497451 -0.12744485
000280 4a 5d 2c 3e 72 d2 e2 3c 5b ec 16 3c e2 81 49 be
       0.16832462 0.027688239 0.009211625 -0.19678453
000290 c2 41 8d 3d 22 52 40 bd 3e a3 ee bd 3d 66 05 3e
       0.06897308 -0.046953328 -0.1165223 0.13027282
0002a0 6b 58 80 3d 4c 67 75 bd a2 aa 45 be 7b 77 f1 bc
       0.062668644 -0.059912965 -0.19303373 -0.029475918
0002b0 fe 10 0a 3e 11 a0 88 bd d6 ff cd bd 0b 30 8b bd
       0.13483045 -0.06671155 -0.100585625 -0.06796273
0002c0 40 07 15 be 72 82 c1 3d 50 d8 04 3e a9 f9 26 be
       -0.14553547 0.094487086 0.12973142 -0.16306175
0002d0 36 6c 3a 3d 1b 9b 01 3e 4c d6 65 3d 04 c1 5b bd
       0.045513354 0.12656824 0.056112573 -0.05365087
0002e0 9c 9f 00 3e 15 72 01 3e 75 7d c3 3d c3 f8 85 bc
       0.12560886 0.12641175 0.095454134 -0.01635397
0002f0 c8 ff 09 bd 71 9e 31 3d 6a 65 82 bc dd 44 1d bd
       -0.033691198 0.043363992 -0.015917499 -0.03839575
000300 7a c3 46 3e 39 c5 53 3e 49 2a 66 bc da 16 f3 bc
       0.19410506 0.20680703 -0.0140481675 -0.029673982
000310 f8 cb 51 bd 62 26 39 3c 5f 35 73 3d bf 85 5a 3d
       -0.05121991 0.011300655 0.05937707 0.053350206
000320 dc 8d 3f be 06 06 c0 bd f9 a7 0c 3e a0 2d bc 3d
       -0.18706459 -0.09376149 0.13735951 0.0918839
000330 68 79 f5 3c c8 69 e3 bd 35 5b 1e be e1 2b 5a be
       0.029965118 -0.111041605 -0.1546448 -0.21305801
000340 f0 51 c6 bd 2d 9d 1e 3d 28 f1 cc 3d ad 91 83 3d
       -0.09683597 0.038724113 0.100069344 0.0642427
000350 90 30 57 be 3b 7f 1b be 0e 05 80 bd c2 77 27 3e
       -0.21014619 -0.15185253 -0.06250964 0.16354278
000360 7a 13 f7 b8 e3 55 9e bd ac a2 70 3d 2d 20 c2 3c
       -0.000117815056 -0.07731225 0.058748886 0.023696983
000370 de 47 3a be f3 cf 12 3e 2b f7 e9 bd da 94 bb bc
       -0.18191478 0.14337139 -0.11424097 -0.022898126
000380 df d8 71 be 05 fe 04 3e 80 4f 0e 3e ac 6a a5 3c
       -0.23617886 0.12987526 0.13897514 0.020192467
000390 f2 42 fd bd 69 20 71 be d9 88 56 be c7 fa de 3d
       -0.123662844 -0.2354752 -0.2095064 0.10887676
0003a0 79 86 60 3d ee b0 03 3e 5a b0 82 3d 95 33 0b 3c
       0.054815743 0.12860462 0.06381293 0.008496185
0003b0 72 32 3a bd b8 0d 4c be 86 38 60 be 0f 59 74 be
       -0.045458265 -0.19927108 -0.21896562 -0.23862098
0003c0 94 b9 8e 3c c4 32 34 be e7 9f 00 3d d0 5e 0a be
       0.017422475 -0.1759749 0.031402495 -0.1351273
0003d0 ac 8d bc bd fe 52 dc bd 0f 6c 03 be b6 ed 13 3d
       -0.09206709 -0.10758017 -0.1283419 0.03611537
0003e0 a8 76 af bd a9 e0 ae 3d 23 98 41 bd b3 62 be bd
       -0.08567554 0.08538944 -0.04726423 -0.09296169
0003f0 e3 6c 3a bd 71 6f ec bd 5a 5f 90 bd 10 b1 4e be
       -0.045514 -0.11544693 -0.07049437 -0.20184731

shared.0.bias f4 [256]
000000 6e 4e 3c be 64 a4 89 bc 9d 96 a6 bd a8 41 1a 3e
       -0.18389294 -0.01680202 -0.08134196 0.15064108
000010 c2 e8 32 be 1f 09 58 bb 66 4f 25 3d d8 37 4e 3d
       -0.17471603 -0.003296442 0.040358923 0.050346226
000020 70 9d b8 bd db 2c 12 3e ca f2 33 be 21 1f 45 3e
       -0.09014404 0.14274924 -0.17573085 0.19250156
000030 3f e4 37 3d 35 ed 03 3e b8 be 27 3e 0c 3d 3d 3d
       0.044895407 0.12883456 0.16381347 0.046200797
000040 97 c2 53 3d ef db 93 bd 6b ff 5b be 50 c6 86 3d
       0.051699247 -0.072196834 -0.21484153 0.06580794
000050 e2 91 0b 3e 53 c0 22 3d c4 c1 91 bc ab 89 1c be
       0.13629869 0.039734196 -0.01779259 -0.15286891
000060 92 c1 50 bc 68 cf 27 3d 31 cf 2b be e6 9e f9 3d
       -0.012741463 0.040969282 -0.16778256 0.121885106
000070 75 e7 d2 bc f1 a1 bb 3c 6d a9 f1 3d 7a a1 03 3e
       -0.025745133 0.022904368 0.117998935 0.12854567
000080 b6 3f 34 be 48 e3 c6 3d 3f 57 13 3e c5 66 b7 3d
       -0.17602429 0.09711319 0.1438875 0.089551486
000090 08 65 eb bd c5 a4 2e 3d b9 53 d2 bd ec 69 47 3c
       -0.114938796 0.042637605 -0.10269875 0.01217125
0000a0 f0 4d 03 be 69 d8 2c 3e f9 1e 6c 3e ea 59 5e be
       -0.128227 0.16879429 0.2305869 -0.21713987
0000b0 a1 82 89 bd a6 cd 05 be de ae 1c be 7b f5 40 3e
       -0.067143686 -0.1306673 -0.15301082 0.18843643
0000c0 bf 5c f9 bd c1 e3 e0 bd 44 df 11 be 8b e4 af bb
       -0.12175893 -0.109809406 -0.14245325 -0.0053678206
0000d0 2d dd 25 be 97 37 06 be 20 e8 6b 3e 54 63 c3 3d
       -0.16197653 -0.13107143 0.23037767 0.0954043
0000e0 59 eb b6 3d 56 50 03 3e 7a 6b 48 3b c5 68 a8 bc
       0.08931608 0.12823614 0.003058164 -0.02055777
0000f0 8e 0f 14 be 24 29 ba 3d 96 e2 14 be e2 00 eb 3c
       -0.14459059 0.09089878 -0.1453956 0.028686944
000100 14 08 ad bd 43 cb 1f be 36 ac 1d be 4b 9c f5 bd
       -0.084488064 -0.15604882 -0.15397725 -0.11992701
000110 38 ae 1c be bd 73 1c be 13 ad 4e bd 2d c0 33 be
       -0.15300834 -0.15278526 -0.050458025 -0.17553778
000120 f6 c0 1a 3e 1b 09 8f 3c 16 2d 71 be 5b 59 56 be
       0.15112671 0.017460397 -0.23552355 -0.20932524
000130 80 e3 0c be c2 f6 e4 3c 00 b8 4d 3e ee 09 3b bd
       -0.1375866 0.027949695 0.20089722 -0.045663767
000140 05 3b 04 3e 22 f8 e4 bd 4f 15 86 bd 93 5f 16 bd
       0.12913139 -0.1118014 -0.06547033 -0.03671224
000150 35 5a 47 be bf 33 4f 3c 28 ae 4b 3d 80 f4 d9 3d
       -0.19468005 0.012646615 0.049726635 0.10642338
000160 e4 4e f2 bd d9 c5 57 bd 35 d7 14 3b ff a6 74 3d
       -0.118314534 -0.052678917 0.0022711281 0.059729572
000170 7e db 80 3c 42 6d 2b be 99 57 ff 3d 35 59 27 be
       0.015729662 -0.16740897 0.1246788 -0.16342624
000180 21 33 e3 bd 18 8f 04 3e 50 fc 58 bd ca 93 de bd
       -0.110937364 0.12945211 -0.052975 -0.10868032
000190 82 ef 42 be 41 23 d5 3d 11 19 05 3d ad 67 05 3e
       -0.19036677 0.10407115 0.03249461 0.1302783
0001a0 68 da 2d 3d 55 6d 30 be 81 cb ef bd ce cc f4 3d
       0.042444617 -0.17229207 -0.11708737 0.11953126
0001b0 b6 1e e4 bd 21 c8 d7 bd d8 bb a4 3d a6 85 e2 bd
       -0.1113867 -0.105362184 0.08043641 -0.11060648
0001c0 f7 d6 01 3d 34 b6 6d bd c9 db 88 3d a1 89 08 3d
       0.031699147 -0.05803509 0.06682546 0.03333438
0001d0 76 60 05 be 17 87 32 be 38 40 3c 3d a4 c1 a4 bd
       -0.13025078 -0.17434345 0.04595968 -0.080447465
0001e0 31 e3 99 3d 44 5c a8 3c c9 6d 77 bd fd db 38 bd
       0.075140364 0.020551808 -0.060407434 -0.045131672
0001f0 c2 a0 cf bd d2 4a de 3d 36 cd f1 3d b2 21 41 bd
       -0.10138084 0.108541146 0.11806719 -0.047151275
000200 21 37 dd bd a5 e5 5b 3e 4b 2f 4e 3e e8 84 3b 3e
       -0.10801531 0.21474321 0.20135228 0.18312418
000210 06 59 bc bb 33 80 49 3d 0b 50 03 bd 86 6d 8a bd
       -0.005747917 0.049194526 -0.032058757 -0.06759171
000220 08 f3 81 be 5e f9 db 3b 3e 9a 82 3d ff c0 d5 3d
       -0.2538073 0.0067130765 0.063770756 0.10437202
000230 92 f4 5b 3d 85 de fa 3d 9f f7 0a 3e ea 0a 82 bd
       0.053700037 0.122494735 0.13571022 -0.06349738
000240 aa 54 d4 3d 58 be 09 bd ca 59 4a bd 46 98 dd bd
       0.10367711 -0.03362879 -0.049402036 -0.108200595
000250 4f 38 ad bd 62 b8 ff bd 4f 8d 0f 3c 86 5c 0e 3e
       -0.08458006 -0.1248634 0.008761718 0.13902482
000260 8c 24 24 3d 54 e7 c8 bc 78 a9 f0 bd e6 b6 4d bd
       0.040073916 -0.024524368 -0.117510736 -0.050223254
000270 b4 24 bb bd 99 67 89 3d 0f 08 77 3d b6 d0 a2 bd
       -0.0913786 0.06709213 0.06031042 -0.07949965
000280 4d 5c 0c bc 84 58 0e bc 13 3e c0 bc b8 fa 0e 3e
       -0.008566928 -0.008688096 -0.0234671 0.13962829
000290 13 99 c7 bd 12 44 28 3e 47 8d e6 bd d8 9d 1a 3e
       -0.097459935 0.16432217 -0.11257415 0.15099275
0002a0 2a 42 ba 3d 4b 58 25 3d 96 14 9d bc 6d 30 a5 bd
       0.09094651 0.040367406 -0.019174855 -0.08065877
0002b0 7f 04 15 be 77 ea 39 be 72 c2 3a 3e 2f 2d 5c 3e
       -0.14552496 -0.18155847 0.18238238 0.21501611
0002c0 74 aa 11 3d 8d f5 43 bd 2f 8b 8c 3b 60 19 a1 3c
       0.035562947 -0.047841597 0.004289053 0.01966542
0002d0 88 91 1d be 34 b6 22 be 7e c0 01 3e cc 99 a6 bd
       -0.15387547 -0.15889817 0.12671086 -0.08134803
0002e0 7d 92 b0 bd 39 ab f2 bd 7e 6c 5a 3d d7 e6 2f bd
       -0.086216904 -0.118490644 0.053326122 -0.042944755
0002f0 8f 5b e1 bd ed 47 08 3e 95 c9 29 3e cd 74 15 3e
       -0.110037915 0.13308688 0.16580804 0.14595337
000300 82 45 6e 3d 93 61 e3 bb 55 dc 21 3e ba bf 17 3e
       0.058171757 -0.006939122 0.15806706 0.14819232
000310 fa 6a 67 3d 7e 02 99 3d 50 f9 84 3d 88 73 16 bc
       0.056498505 0.074711785 0.06492865 -0.009182818
000320 0f 80 00 3e e7 37 9c 3d e1 d2 44 be 91 4c 12 be
       0.1254885 0.0762785 -0.19221069 -0.1428702
000330 32 86 01 be 8d 86 ac bd 48 c7 e2 bb a6 6a 65 bd
       -0.12648848 -0.08424101 -0.006920729 -0.05600991
000340 dc 56 60 be ef f3 b2 bd 09 e8 a1 3d c3 76 01 bd
       -0.21908134 -0.08737933 0.07905585 -0.0316074
000350 33 73 3a bd 6c 8a bd bb db 49 92 bd cb d7 0d be
       -0.04552002 -0.0057843234 -0.07142993 -0.1385185
000360 f8 39 eb bd 12 57 b5 bd ec 54 46 be f6 d3 21 be
       -0.11485666 -0.08854498 -0.19368333 -0.15803513
000370 bb 5e bf bd eb e2 54 3d be f6 3b 3e cc 86 ad bc
       -0.0934424 0.05197422 0.18355843 -0.02118244
000380 5d d6 1c 3e fb bc 12 3d c3 49 fe bd 6e d5 00 be
       0.15316148 0.035824757 -0.12416413 -0.12581417
000390 6f 1c 81 bd 72 61 51 be 48 f3 70 3d 43 d6 0a 3d
       -0.063042514 -0.20447329 0.05882576 0.033895742
0003a0 6a 6a 25 be bf 6f 83 bd 4b 9e 27 be df d7 5a 3e
       -0.16153875 -0.06417798 -0.16368978 0.21371411
0003b0 cd 26 1a 3e 0f fc c9 bd 2a 8e 4e 3e 1e 52 e1 bd
       0.15053864 -0.098625295 0.20171419 -0.11001991
0003c0 9f df 2f 3e 85 74 d2 bd 55 a9 1f 3d 96 ee 29 3e
       0.17175148 -0.102761306 0.038979847 0.1659492
0003d0 61 12 8c 3d 84 0f da 3c db 48 eb bc 4c 03 77 bc
       0.06839443 0.026618727 -0.028721264 -0.01507647
0003e0 c6 e7 30 3e 95 fe 93 bb dd 4e 25 bc 07 bd a0 bc
       0.17275915 -0.0045164325 -0.010089603 -0.019621385
0003f0 ca 65 a1 bd a2 f4 67 bd 1f 6f 2c 3d 81 21 b8 3d
       -0.07880743 -0.056629784 0.04209816 0.08990765

shared.1.weight f4 [256]
000000 16 d8 7f 3f 41 e4 85 3f 85 88 87 3f 6e 8d 88 3f
       0.99939096 1.0460283 1.0588537 1.0668161
000010 86 46 85 3f 4e 21 88 3f 63 50 80 3f 28 72 85 3f
       1.0412147 1.0635164 1.0024532 1.0425463
000020 5d b0 8a 3f 49 f5 82 3f 46 1b 82 3f 15 43 86 3f
       1.0835072 1.0231105 1.0164573 1.0489222
000030 65 46 8a 3f 2e 81 8e 3f 58 b5 87 3f a9 bb 88 3f
       1.0802733 1.1133173 1.0602217 1.0682269
000040 6b f3 84 3f 87 5b 85 3f b3 60 7d 3f a3 6f 83 3f
       1.0386785 1.0418557 0.98975676 1.0268444
000050 96 07 8c 3f 58 f3 84 3f 4c ce 85 3f bf 53 86 3f
       1.0939815 1.0386763 1.0453582 1.0494307
000060 15 23 87 3f 5f 05 89 3f ee 03 82 3f c9 f0 85 3f
       1.0557581 1.0704764 1.0157449 1.0464107
000070 53 e2 83 3f 4d 11 80 3f f1 90 83 3f a2 3b 93 3f
       1.0303444 1.000528 1.0278608 1.1502573
000080 b4 2f 81 3f 2b 96 8a 3f 17 01 85 3f e5 74 85 3f
       1.0092683 1.0827078 1.0390958 1.0426298
000090 47 5a 81 3f 54 95 8b 3f f1 2e 8f 3f 18 e7 8f 3f
       1.0105675 1.0904946 1.11862 1.1242399
0000a0 38 5e 87 3f f1 c2 90 3f 67 9b 94 3f 7b ad 84 3f
       1.0575628 1.1309491 1.1609925 1.0365442
0000b0 c9 71 88 3f 10 98 86 3f e5 cb 8c 3f e7 97 87 3f
       1.0659724 1.0515156 1.0999724 1.0593232
0000c0 64 e7 85 3f 4e 5c 84 3f 4e cb 80 3f 27 d5 80 3f
       1.046124 1.0340669 1.0062044 1.0065049
0000d0 c2 1d 86 3f 22 da 82 3f e9 f2 92 3f 8c da 88 3f
       1.0477831 1.0222819 1.148038 1.0691695
0000e0 b6 d8 86 3f 26 a0 84 3f 96 cd 80 3f 06 b3 84 3f
       1.0534885 1.0361373 1.006274 1.0367134
0000f0 f7 7b 88 3f db 0c 88 3f c3 4a 8d 3f 2b cc 82 3f
       1.0662831 1.0628923 1.103844 1.0218557
000100 1f 1e 87 3f 00 00 80 3f e8 9e 84 3f 7b 4d 80 3f
       1.0556067 1.0 1.0360994 1.0023645
000110 dc 01 83 3f c3 0d 80 3f e4 49 83 3f e0 0f 85 3f
       1.0234942 1.00042 1.0256925 1.039547
000120 01 bb 84 3f c8 21 83 3f 47 e7 81 3f 26 81 85 3f
       1.0369569 1.0244684 1.0148705 1.0430038
000130 40 c8 81 3f fe 4a 84 3f eb c5 91 3f f0 a1 81 3f
       1.0139236 1.0335386 1.1388525 1.0127544
000140 cb 0f 87 3f 75 b2 89 3f 57 e3 8c 3f 00 00 80 3f
       1.0551695 1.0757586 1.1006879 1.0
000150 5c 9c 82 3f 3d 0e 88 3f 83 d1 8e 3f 2a 12 83 3f
       1.0203967 1.0629345 1.1157688 1.0239918
000160 09 22 84 3f 4c e6 82 3f 93 9b 81 3f 6e f9 88 3f
       1.0322887 1.0226531 1.0125602 1.070112
000170 8b 87 89 3f 50 09 84 3f 4b 23 81 3f 24 94 82 3f
       1.074449 1.0315342 1.0088896 1.0201459
000180 94 91 81 3f 2e a3 8f 3f 16 21 81 3f 8e 82 80 3f
       1.0122552 1.1221673 1.0088222 1.0039842
000190 78 a5 8c 3f 83 08 8a 3f 3b 19 83 3f 6a 82 87 3f
       1.0987997 1.0783848 1.0242075 1.0586674
0001a0 9c 4b 83 3f d6 79 81 3f bf 36 83 3f 34 e1 83 3f
       1.0257449 1.0115306 1.0251082 1.0303102
0001b0 9f 6c 82 3f 00 62 86 3f 18 ab 85 3f ef 7f 80 3f
       1.0189399 1.0498657 1.0442839 1.0039042
0001c0 a8 b1 81 3f e2 de 82 3f d3 88 83 3f 2c 45 88 3f
       1.0132341 1.0224268 1.027613 1.064611
0001d0 42 62 85 3f cd d0 83 3f 2c 4f 8a 3f 46 e8 83 3f
       1.0420611 1.0298096 1.0805411 1.0305259
0001e0 2b ae 8e 3f c1 71 85 3f 5f 00 82 3f 99 56 84 3f
       1.1146902 1.042534 1.0156363 1.0338928
0001f0 bb c4 83 3f 48 21 83 3f ff b5 83 3f a6 0f 81 3f
       1.0294412 1.0244532 1.0289916 1.00829
000200 7c a4 85 3f 75 f5 8d 3f dc d9 8b 3f a3 f8 8a 3f
       1.0440822 1.1090533 1.092586 1.0857128
000210 2b 2e 81 3f 4c 7c 85 3f 9f 2b 81 3f b0 63 86 3f
       1.0092214 1.0428557 1.0091437 1.0499172
000220 50 e4 81 3f a0 9d 88 3f 29 4e 88 3f 3a b3 84 3f
       1.01478 1.0673103 1.0648853 1.0367196
000230 7c 71 86 3f de f1 96 3f 1b fe 85 3f 9e 8d 81 3f
       1.0503383 1.1792562 1.0468172 1.0121343
000240 30 c9 82 3f db ce 80 3f db ba 89 3f 8e b0 81 3f
       1.0217648 1.0063127 1.0760149 1.0132005
000250 6c 03 91 3f 9c d3 82 3f a2 12 80 3f 81 65 85 3f
       1.1329169 1.0220828 1.0005686 1.0421602
000260 de 85 82 3f 07 b2 88 3f b7 c2 8b 3f fd fc 83 3f
       1.0197103 1.067933 1.0918797 1.0311581
000270 ad ac 83 3f 53 10 84 3f bd 9c 83 3f f3 f2 85 3f
       1.0287071 1.0317482 1.0282208 1.0464767
000280 d9 b4 91 3f ca 6b 84 3f 13 4a 85 3f d6 1f 89 3f
       1.1383315 1.0345395 1.0413231 1.071284
000290 3e 58 89 3f de 3f 86 3f 4d fb 8e 3f 97 01 83 3f
       1.0730054 1.0488241 1.1170441 1.023486
0002a0 c5 50 84 3f e6 11 81 3f e2 25 84 3f fc 2e 8b 3f
       1.0337149 1.0083587 1.0324061 1.0873713
0002b0 4f cb 85 3f 5b 91 81 3f 27 6e 83 3f 0f 50 8b 3f
       1.045267 1.0122484 1.0267991 1.0883807
0002c0 b7 89 8c 3f 85 49 85 3f a8 85 81 3f 37 62 86 3f
       1.0979527 1.0413061 1.0118914 1.0498723
0002d0 34 32 82 3f 5b a2 80 3f 7f 8b 92 3f db 52 80 3f
       1.0171571 1.0049547 1.1448821 1.0025285
0002e0 29 d6 88 3f 05 9c 86 3f 1f 16 84 3f 60 d5 8e 3f
       1.0690356 1.0516363 1.0319251 1.1158867
0002f0 24 2b 86 3f bf 5b 83 3f 86 a2 84 3f 36 d4 81 3f
       1.0481915 1.0262374 1.0362098 1.0142887
000300 2d ab 85 3f 45 67 86 3f 57 fc 84 3f 98 db 85 3f
       1.0442864 1.0500265 1.0389508 1.045764
000310 d0 64 81 3f d5 06 85 3f 75 64 90 3f df 64 84 3f
       1.010889 1.039271 1.1280657 1.0343283
000320 af e1 86 3f 95 6f 88 3f 12 a3 8a 3f 05 67 81 3f
       1.0537623 1.0659052 1.0831015 1.0109564
000330 fa 9e 8b 3f 93 30 81 3f 5f ac 85 3f 53 c8 86 3f
       1.0907891 1.0092949 1.0443228 1.0529884
000340 a1 6e 80 3f 86 71 86 3f da 34 84 3f fb c8 85 3f
       1.0033761 1.0503395 1.0328629 1.0451959
000350 ee e2 83 3f 14 23 85 3f ca 41 81 3f 71 16 85 3f
       1.0303628 1.040133 1.0098202 1.0397474
000360 99 a4 80 3f 8b 5b 84 3f c5 db 83 3f 27 d0 83 3f
       1.0050231 1.0340437 1.0301443 1.0297898
000370 7b a9 87 3f 24 12 82 3f 03 87 84 3f c5 3b 83 3f
       1.0598596 1.0161786 1.0353702 1.0252615
000380 7b 9a 86 3f d5 fb 82 3f 4f 7e 83 3f 99 ff 80 3f
       1.0515894 1.0233103 1.0272921 1.0078002
000390 88 03 88 3f 35 cb 83 3f 37 1f 84 3f 6e 15 83 3f
       1.0626078 1.0296389 1.0322026 1.0240915
0003a0 40 36 80 3f 71 08 86 3f be bd 8a 3f 0e 04 8e 3f
       1.0016556 1.0471326 1.0839155 1.1094987
0003b0 59 85 89 3f 86 a1 86 3f c9 46 88 3f b5 60 87 3f
       1.074382 1.0518043 1.0646602 1.0576388
0003c0 ef 8b 87 3f b0 92 86 3f 7d 5c 89 3f 97 c1 87 3f
       1.0589579 1.0513515 1.073135 1.0605954
0003d0 41 80 8e 3f 43 5c 85 3f 3d e9 81 3f 49 3f 85 3f
       1.113289 1.0418781 1.0149304 1.0409938
0003e0 7f b4 83 3f a6 de 82 3f 1c c3 91 3f 41 1a 83 3f
       1.0289458 1.0224197 1.1387668 1.0242387
0003f0 59 62 85 3f b5 20 81 3f db 60 84 3f bc e4 81 3f
       1.0420638 1.0088106 1.0342058 1.0147929

shared.1.bias f4 [256]
000000 bc e5 19 bb c9 dd 54 3d 4c 9f 3f 3c cc 4f 0c 3d
       -0.002348288 0.051969323 0.011695694 0.034255788
000010 71 3c a2 3c 9b 94 2e 3d 52 a4 bf 3c e1 33 05 3d
       0.019804211 0.04262219 0.023393784 0.03252018
000020 b7 6c 43 3d 64 57 5b 3d c1 a6 97 3c e8 45 35 3d
       0.0477111 0.05355014 0.018512132 0.04425612
000030 9a c8 86 3d f0 d9 96 3d b2 9f 81 3d 94 65 6d 3d
       0.065812305 0.07365787 0.063292876 0.0579582
000040 dd 59 04 3d 42 93 00 3d c9 f8 83 bc ce 45 47 3d
       0.032312263 0.031390436 -0.016109841 0.048650555
000050 2c 06 4a 3d 88 e2 00 3d 5b e8 6a 3d 29 5f 5b 3d
       0.049322292 0.031466037 0.057350498 0.05355755
000060 81 24 2b 3d 4a 8c 47 3d 81 c9 8d 3b f3 91 5d 3d
       0.04178286 0.048717774 0.0043269997 0.054094266
000070 65 c5 aa 3c c9 57 cb 3b c6 e8 25 3d 6b c3 81 3d
       0.020846078 0.006205533 0.040505193 0.06336101
000080 a6 f4 ee 3c 7d 3a 86 3d 5f 87 d3 3c b7 d9 56 3d
       0.029169392 0.065541245 0.025821386 0.052453723
000090 dc c0 20 3d 99 41 5b 3d 22 e5 61 3d b1 0d b3 3d
       0.039246425 0.053529356 0.05515016 0.08742846
0000a0 61 65 5d 3d 3d fa 7e 3d 41 c7 cf 3d 38 7b 13 3d
       0.05405176 0.062250365 0.101454265 0.036006182
0000b0 a5 56 58 3d 04 c4 41 3d 57 95 6b 3d c7 1a 1c 3d
       0.052817006 0.047306076 0.05751547 0.038111474
0000c0 32 48 4d 3d 0f 24 6e 3c 51 65 03 3d 8f e2 51 3c
       0.05011768 0.014534964 0.032079045 0.012810363
0000d0 b3 3c da 3c 15 3d 64 3d 7e 5e 84 3d f3 49 88 3d
       0.026640272 0.055722315 0.064633355 0.0665473
0000e0 e9 01 53 3d 50 24 fc 3c f3 01 88 3c cb 72 19 3d
       0.051515494 0.030779034 0.016602492 0.03746299
0000f0 c3 da 21 3d 83 c2 61 3d 36 42 b2 3d 3e 66 23 3d
       0.039515268 0.05511714 0.08704035 0.039892428
000100 ab 33 84 3d 00 00 00 00 84 57 65 bb 4e e9 c0 3b
       0.064551674 0.0 -0.003499479 0.005887187
000110 57 b9 ac 3c b0 c1 23 bb 1a 7e 2c 3d cc 10 3d 3c
       0.02108447 -0.0024987273 0.042112447 0.011539649
000120 00 ae 6a 3d 3a b7 1d 3d 9f 7a e7 3c 50 87 fb 3c
       0.057294846 0.038504817 0.028256712 0.03070417
000130 0a b9 d8 bb 61 ba 6a 3d f4 5d b2 3d 71 e4 ae 3c
       -0.0066138553 0.05730665 0.087093264 0.021349164
000140 4d 69 4f 3d 98 4b 6b 3d 4d 72 ce 3d 00 00 00 00
       0.050637532 0.05744514 0.10080395 0.0
000150 a3 f8 3a 3c 23 7d 44 3d 1d 8c 00 3d 3d d3 09 3d
       0.011411819 0.047970902 0.031383622 0.03364872
000160 19 a7 6e 3d 50 f7 b4 3c ee cf e8 3c 85 8e 7f 3d
       0.058264825 0.022090584 0.028419461 0.062391777
000170 d1 2a 2b 3d 61 81 f9 3c 54 d8 12 3d 88 3a ee 3c
       0.04178888 0.0304572 0.035850838 0.029080644
000180 a6 c8 a7 3c 00 7e 82 3d 05 96 c2 3c c0 d2 f7 3b
       0.020481419 0.06371689 0.023753176 0.007562965
000190 e2 58 73 3d 28 e4 41 3d 1b b2 ee 3c ef b7 82 3d
       0.059410937 0.047336727 0.029137662 0.06382739
0001a0 b0 06 76 3d 39 9f 1f 3c c0 f7 5f 3c 24 9d 33 3d
       0.06006497 0.0097425515 0.013669908 0.043851033
0001b0 cd cc aa 3c c3 11 d3 3c 6d 07 00 3d fd 76 f3 3c
       0.02084961 0.025765305 0.03125708 0.029719824
0001c0 38 85 39 38 c2 25 f5 3c 71 85 6f 3d 99 f7 43 3d
       4.4231507e-05 0.02992523 0.05847687 0.04784355
0001d0 d0 84 3d 3d 6c 93 16 3d 66 a8 75 3d 58 27 e1 3c
       0.046269238 0.036761686 0.05997505 0.02748458
0001e0 22 29 89 3d 4b 27 69 3d af d9 fa 3c ef 81 79 3d
       0.066972986 0.05692224 0.030621378 0.06091493
0001f0 90 b8 d6 3c a6 a7 39 3d 61 49 b5 3c d9 c0 c8 3c
       0.026211053 0.045325898 0.022129716 0.02450602
000200 7d 27 57 3d 7a 55 ad 3d 73 9b 98 3d 94 ac 86 3d
       0.052527893 0.08463569 0.074515246 0.065758854
000210 72 19 1d 3d 9f dc 73 3d fd 72 f7 3b 80 a8 22 3d
       0.038354345 0.059536573 0.0075515495 0.039711475
000220 35 53 35 3c 50 21 e1 3c 3d 6f 0b 3d 9c 9e c5 3c
       0.011067201 0.027481705 0.034041632 0.024123482
000230 b6 4b 62 3d 6a 54 a7 3d fc 4a 02 3d 51 61 8f 3b
       0.055247985 0.081703976 0.031809792 0.0043756147
000240 79 65 db 3c f7 72 d4 b8 84 4f 46 3d 26 8e c0 3b
       0.026781784 -0.000101303616 0.048415676 0.0058763204
000250 16 85 d4 3d 30 c3 b3 3c ef 3d cb 3b 02 9a c7 3c
       0.10376947 0.021943659 0.0062024514 0.024365429
000260 e6 45 f0 3c f2 1d 20 39 74 02 1c 3d ff f8 b3 3c
       0.029330205 0.00015269945 0.038088277 0.021969317
000270 c4 e9 79 3c 64 dd ec 3c d5 84 42 3d 9b 9b cb 3c
       0.015253488 0.028914161 0.04748996 0.024854472
000280 f8 3f 3e 3d 52 b9 63 3d 63 5a 15 3d 75 51 7b 3d
       0.046447724 0.055596657 0.036463153 0.06135698
000290 08 52 2d 3d c2 a0 58 3d bf 61 67 3d a1 16 da 3c
       0.04231456 0.052887686 0.056489702 0.026622118
0002a0 45 a5 3d 3d 81 90 ca 3c 9e ac 55 3d 06 62 64 3d
       0.04630019 0.024727108 0.052166574 0.055757545
0002b0 9e ea 21 3d 55 b6 c6 3c c3 4b 50 3d 1e c3 82 3d
       0.03953039 0.024256865 0.050853502 0.06384872
0002c0 6c c9 b3 3c 93 4b 54 3d 19 85 af 3c e3 b2 09 3d
       0.021946631 0.051829886 0.02142577 0.033617865
0002d0 6c 4d bd 3c 7a 62 9a bb 84 83 6a 3d 2f ae e7 bb
       0.023108207 -0.0047114464 0.05725433 -0.007070325
0002e0 7c 8c 85 3d 99 19 21 3d 85 14 e6 3c a5 a4 88 3d
       0.06520936 0.039331052 0.028085956 0.066720285
0002f0 c8 3b 47 3d 9f 53 10 3d 39 1a 6c 3d 9c 97 cb 3b
       0.048640996 0.035235997 0.057642195 0.0062131416
000300 e6 43 5d 3d e9 ae 26 3d b8 df 83 3d a8 0b 58 3d
       0.05401983 0.04069415 0.06439155 0.05274549
000310 91 d7 d7 3c b0 63 33 3d 10 24 8c 3d 74 01 12 3d
       0.026347907 0.04379624 0.06842816 0.035645917
000320 03 cc 5e 3d 62 a2 7e 3d 3c 1e 30 3d 8e c8 ef 3c
       0.05439378 0.06216658 0.042997584 0.029270437
000330 f8 56 7d 3d d1 5e 0a 3d 86 aa dc 3c 75 e9 74 3d
       0.061850518 0.03378183 0.02693678 0.059792954
000340 fc ba 5b bc a6 e5 cd 3c f7 51 53 3d 90 71 28 3d
       -0.01341128 0.025133919 0.05159184 0.041123927
000350 ed 1e 4a 3d e7 e9 03 3d 5b f8 b9 3c c4 3f 5d 3d
       0.0493459 0.03220549 0.022701433 0.05401589
000360 b2 2a 0c 3c 98 25 27 3d 2a 8a 4d 3d b3 34 45 3d
       0.008555101 0.040807337 0.05018059 0.04814596
000370 7d 17 18 3d d6 84 d6 3b 51 50 36 3d cb 2c 23 3d
       0.037131775 0.006546597 0.04451019 0.03983764
000380 ee 0e 5f 3d a9 02 d8 3c 37 6d 0d 3d 2f 2c a3 3c
       0.054457597 0.026368456 0.034527984 0.01991853
000390 59 a3 54 3d 8b 9a b7 3c 9d ad 6a 3d f7 ca 1a 3d
       0.051913593 0.022412559 0.057294477 0.03779122
0003a0 68 a6 9a 3c 28 33 da 3c b3 43 e6 3c 29 82 4b 3d
       0.018878177 0.026635721 0.028108453 0.049684677
0003b0 9b e7 60 3d cd 1f 14 3d 01 2b 7e 3d 31 94 48 3d
       0.054908376 0.03616314 0.06205273 0.04896945
0003c0 e8 27 2d 3d 74 d6 fc 3c f8 72 2a 3c cc ba 6e 3d
       0.042274386 0.030863978 0.010403387 0.058283612
0003d0 39 5d 55 3d 8c 5e 83 3c 15 db 47 3c 42 f0 50 3d
       0.052090857 0.016036294 0.012198229 0.051010378
0003e0 aa 84 a7 3c f3 4b af 3c 47 1b 8a 3d 2d f0 7f 3c
       0.020449001 0.02139852 0.06743484 0.015621227
0003f0 6b 14 5f 3d 5c 3e 51 bc a6 32 7c 3d a3 b9 b6 3c
       0.05446283 -0.012771215 0.06157174 0.022305315

actor_mean.0.weight f4 [256, 256]
000000 44 0f 39 3c 77 72 23 bd df 04 1d 3d de 27 f7 bc
       0.0112951435 -0.039904084 0.038334724 -0.030170377
000010 1c 95 ca ba 83 ef 0c bb a4 90 13 3d 2d ad 8a bc
       -0.0015455815 -0.0021505065 0.036026612 -0.01692828
000020 9c 92 84 bc e9 5a 70 bc 5e 18 03 bc 61 ba 0c bd
       -0.01618319 -0.014670112 -0.008001415 -0.034357432
000030 e7 71 39 3d a1 45 22 bd f5 be 39 3b f0 d6 61 bd
       0.04527464 -0.039617185 0.002834258 -0.05513662
000040 e9 64 11 bc 00 c1 f2 bb f0 ad cc bc 1a 91 f7 3c
       -0.0088741565 -0.0074082613 -0.024985284 0.030220557
000050 ae 77 77 bd 50 33 92 3b 39 03 d5 b9 5b ff db bc
       -0.06041687 0.0044616833 -0.00040628927 -0.026855161
000060 1b 74 49 3d 76 e1 14 3d 2f 6d 96 3c 74 9c a7 ba
       0.049182992 0.03634783 0.01836261 -0.0012787716
000070 6a 71 15 3d dd 32 0a bd 5d 6c 68 bd 5d 38 3a 3d
       0.036485113 -0.033739913 -0.05674397 0.04546391
000080 15 73 91 bc fc b1 9f 3c a2 50 eb 39 32 b0 60 3d
       -0.01775507 0.01949405 0.0004488277 0.054855533
000090 79 b4 87 3d 1b 79 3f bd 3c 19 f6 3b 9c d9 3e bd
       0.06626219 -0.046746355 0.0075103324 -0.046594247
0000a0 2e 1f 18 3d 83 bc 47 3d 55 2d 00 bd 91 b8 74 3c
       0.03713911 0.048763763 -0.031293232 0.014936582
0000b0 7d 97 7a bb de 2e be bc d7 71 3a 3d 78 35 83 bd
       -0.0038237267 -0.023215707 0.045518722 -0.06406683
0000c0 c7 32 57 bc 1d e8 7c 3b fc ed 2e bd e6 24 d2 3c
       -0.013134665 0.0038590499 -0.04270743 0.02565236
0000d0 59 f6 f2 3c da 68 53 bd 95 32 90 3c ec 8e a4 bb
       0.029658483 -0.051613666 0.017602244 -0.0050219204
0000e0 50 92 70 3d 01 80 91 bd c2 ae 2c 3d 4c f1 dd bc
       0.058733284 -0.07104493 0.04215885 -0.027092598
0000f0 41 49 61 3d 1e 00 fa bc 37 b2 45 3c 6d d5 36 3c
       0.0550015 -0.030517634 0.0120664155 0.011159283
000100 87 63 0c 3d 98 fa ef 3c 4b 21 04 3d 74 f2 16 bc
       0.034274604 0.029294297 0.032258313 -0.009213079
000110 38 37 4a bd ca ea 39 3c 2f 75 98 3d 3f 37 35 3d
       -0.049369067 0.011347482 0.07444226 0.04424214
000120 24 cb 1a bd 4c c6 3e 3d c1 1f aa 3c 56 91 09 bc
       -0.037791386 0.04657583 0.020767095 -0.008396467
000130 6a 67 a6 3c 29 dd 16 bb 0e 4e 74 3c 35 e0 a4 bc
       0.020312984 -0.0023020005 0.014911188 -0.020126441
000140 ff 53 bb bb 01 57 89 3d 83 0d 3c 3d 40 e4 4e bd
       -0.0057168 0.06706048 0.045911323 -0.050510645
000150 1c d1 2e bc 16 f4 0e 3d 0c f8 00 bd 6d f0 5a bc
       -0.010669973 0.034900747 -0.031486556 -0.013362986
000160 07 d4 ea 3c 7b 1b 53 3d c6 d6 31 3d c4 ac 45 bd
       0.028665556 0.05153988 0.043417715 -0.048260465
000170 93 9d 44 bd bc 12 7a 3d 47 74 44 bc 74 af 33 3d
       -0.048001837 0.061053023 -0.011990613 0.043868497
000180 8d fd 30 3d 27 f4 0a bd 98 79 52 3c 60 f3 a4 3c
       0.043210555 -0.033924248 0.012846373 0.020135581
000190 a4 e0 9c bc f9 88 4c 3d 01 e5 02 3c 75 a9 e0 bc
       -0.019150086 0.049935315 0.007989169 -0.027424553
0001a0 41 d9 5f bd f7 a2 55 3d 10 54 8d bd ad 88 39 3d
       -0.05465055 0.05215737 -0.06900799 0.04529636
0001b0 61 29 f8 bc 39 24 01 bc 7d d4 60 3c ef 73 a3 3d
       -0.030293169 -0.007882171 0.013722536 0.07981097
0001c0 d4 74 2a bd 06 1e 46 bd 4e 70 25 3d 80 ef 7d bc
       -0.041615322 -0.048368476 0.040390305 -0.015498996
0001d0 13 95 cd bc 4b bc c9 3c 23 74 f4 bc 92 64 02 3d
       -0.025095498 0.024625918 -0.029840535 0.031834193
0001e0 6e 17 93 bc 5d da 3d 3d 32 0b 87 3d 94 97 16 bc
       -0.017955508 0.046350826 0.06593932 -0.0091914125
0001f0 b5 e8 c1 bc be 9b 16 3d da 5e 28 3c a7 d7 06 3b
       -0.023670534 0.03676962 0.010276521 0.0020575316
000200 74 b2 6b 3d a8 22 85 3c 37 68 8b 3c 6d 80 e9 bc
       0.057543233 0.016251877 0.017017467 -0.028503621
000210 b6 1b 8a bc 48 ec a3 bb ab 0b be bb 9a 5c d4 3c
       -0.016858917 -0.005002532 -0.005799731 0.025923062
000220 ea 34 60 3d 8f e0 49 3d 66 8d 10 bd 69 ed 77 3d
       0.054737963 0.04928642 -0.035291098 0.060529146
000230 6e 48 25 3d fa 2d 7e 3c 07 a1 33 3c 59 77 0b bd
       0.040352277 0.015513891 0.010963685 -0.034049366
000240 24 f6 16 bd 00 42 da ba e6 12 68 bd d1 d5 f8 3b
       -0.03685583 -0.001665175 -0.056658648 0.0075938483
000250 56 41 5f bd 83 d6 3f bd 84 0b f1 bc ef 05 c3 3c
       -0.05450567 -0.046835434 -0.029424436 0.02380654
000260 9d e4 3d 3d 8f 0c 65 bd 6e 7d 45 bd 40 e0 de 3b
       0.0463606 -0.05592018 -0.048215322 0.006801635
000270 62 c8 33 bc 0a 46 5d bd 0e 7b 59 3c a5 11 3e bd
       -0.010973068 -0.054021873 0.013273967 -0.046403546
000280 82 67 b4 3a 16 85 ee 3c f1 65 71 3d 14 d2 5a bd
       0.0013763758 0.029116195 0.05893511 -0.053423002
000290 53 cc 51 3d ac 5c ff 3b 1c 34 3e 3d 41 38 66 3d
       0.05122025 0.00779303 0.046436414 0.05620599
0002a0 8d e3 98 bc 00 82 af bc cf c2 5d bc 89 cf 2f 3d
       -0.018663192 -0.021424294 -0.0135352155 0.04292253
0002b0 df 2d 65 bc 6e 9f 55 3d 12 0d a8 3c 6c 41 79 3d
       -0.013987987 0.052153997 0.020514045 0.060853407
0002c0 56 96 3a 3d 66 9e 5f 3d 34 c6 65 bd da 9e c5 bc
       0.045553528 0.05459442 -0.056097224 -0.024123598
0002d0 43 fa 27 bd f0 77 0a 3d 5a 21 81 3c 10 e9 6f 3c
       -0.041010153 0.033805788 0.015762974 0.014642969
0002e0 f9 9a ba 3c bb 31 88 3c 94 c0 a5 3c 27 8f 1a bd
       0.022778975 0.016625276 0.02023343 -0.037734177
0002f0 ae 27 5d 3d c5 6a 81 bd d1 a1 86 bd 2f 32 80 3c
       0.05399292 -0.06319193 -0.06573833 0.01564893
000300 33 32 5f 3d 5a 59 ea bc cb 74 60 3d 4c ba a3 bc
       0.054491233 -0.02860706 0.054798882 -0.019986294
000310 11 42 32 bd ca 85 47 bc 68 19 66 3d 95 ac e9 bc
       -0.043520037 -0.012177894 0.056176573 -0.028524676
000320 30 6f 7b 3d 30 2a 1d bd 35 6d e2 bc 42 19 06 bd
       0.061385334 -0.03837031 -0.027639965 -0.03273893
000330 ab 89 5f bd d0 0d 5d 3d 10 d3 20 bd 93 a6 aa bc
       -0.05457465 0.05396825 -0.039263785 -0.020831382
000340 46 d7 d8 bc 71 f3 5f 3d 0b 3c d5 3c 4f 7c 16 3c
       -0.026469838 0.054675523 0.026029607 0.009184911
000350 2d 54 b6 bc aa 85 12 3d 37 db ae 3b 55 8d 57 3d
       -0.022256935 0.035772003 0.005336191 0.05262502
000360 72 f3 9b 3c 00 df 3b 3d 01 fa 34 3d 02 b4 2a 3c
       0.019036982 0.045866966 0.044183735 0.010418894
000370 82 15 94 bd 7b 13 00 bb ec 80 4d bd a3 b3 6e 3c
       -0.07230665 -0.0019542861 -0.050171778 0.014569196
000380 42 20 57 bc 69 d0 2a 3d a9 b4 26 bc 11 bd 4a bd
       -0.013130249 0.04170266 -0.010174909 -0.049496714
000390 f7 13 e1 3c 70 89 30 3d 90 48 78 bc d7 35 70 3c
       0.02747534 0.04309982 -0.015154019 0.014661274
0003a0 27 ba 35 3d 18 74 79 3a 0e 3f ad bc 4f 37 15 3d
       0.04436698 0.00095158955 -0.02114823 0.0364297
0003b0 e7 b0 5d 3d 98 37 77 bc 86 ab 34 3d 7e bd d4 3b
       0.054123785 -0.015088938 0.04410889 0.006492316
0003c0 09 65 81 bc 5c f1 51 3b 01 70 74 bd a3 b0 09 3d
       -0.015795248 0.003203473 -0.059677128 0.03361572
0003d0 87 a1 8f bc b3 9e 59 bd 33 06 52 bc 71 45 85 bc
       -0.017533077 -0.053129863 -0.012818861 -0.016268464
0003e0 c3 98 ac bc a5 c3 18 bd 5c c2 c7 bb d3 4b bf 3c
       -0.021068936 -0.037295956 -0.0060961675 0.023351585
0003f0 8b 78 05 3b 03 1b 02 bc ea e9 4a 3c f6 dc 1b bd
       0.0020366039 -0.00794101 0.012384871 -0.03805252

actor_mean.0.bias f4 [256]
000000 81 c7 0c 3b c6 13 77 bd fb 05 de 3c 9d 6d 2d 3d
       0.0021481218 -0.06032159 0.027102461 0.042340863
000010 cd 8f 70 3d fe 45 60 3b 3f e1 78 bc dc 2a f8 bc
       0.05873089 0.0034221406 -0.015190422 -0.030293874
000020 e1 b4 1a 3d e4 c2 39 3d 16 29 27 b9 2d 14 be bc
       0.037770156 0.045351878 -0.00015941667 -0.02320298
000030 27 f4 2e 3d e4 e3 55 bd 84 97 f5 bc d4 a5 21 bb
       0.04271331 -0.052219287 -0.029979475 -0.0024665492
000040 d8 15 fb bc da 7b a0 bc b4 5b d3 bc 6b 61 9d bc
       -0.030650064 -0.019590307 -0.025800563 -0.019211492
000050 2b ed 62 39 d4 b9 21 bd 32 d0 93 3b 68 0c 2a 3d
       0.00021641392 -0.03948386 0.004510903 0.041515738
000060 f6 77 97 3c 80 ec 42 3c cd 27 21 3b 4e d6 7a bd
       0.018489819 0.011897206 0.0024590374 -0.061239533
000070 05 a6 cb 3c 2c d7 a8 3c 2d c5 ba bb 6f 5c f9 bc
       0.024859438 0.020610414 -0.0056997747 -0.030439584
000080 a5 b1 7f bd b5 97 0b bd 66 e7 43 bd ef 74 2f 3d
       -0.062425274 -0.034080226 -0.0478281 0.042836126
000090 e4 c7 c5 bc dc 49 25 bc 95 12 78 3d 86 e5 c3 bc
       -0.024143167 -0.01008841 0.060564596 -0.023913156
0000a0 e8 a3 dc 3c 31 8a 39 bd 1f 78 50 bd d6 3f 30 3d
       0.026933625 -0.045297805 -0.050895806 0.04302963
0000b0 23 58 38 3d a1 3a be 3c 21 52 31 bd 50 6d 6a bc
       0.04500593 0.023221316 -0.043291215 -0.014308289
0000c0 51 f5 60 bd f4 c8 02 bd 37 b8 62 bd 77 42 24 3d
       -0.054921452 -0.031929925 -0.055351462 0.04010245
0000d0 6f a1 3e bd 1c 34 63 3d f4 15 30 3c d0 09 5c bd
       -0.046540674 0.055469617 0.0107474215 -0.053720295
0000e0 ba 9d 0f 3d e6 bc 2c bd 53 74 6b bd 41 e3 14 bc
       0.03506253 -0.042172335 -0.057483982 -0.009087385
0000f0 4e ea 1f 3d 96 31 fd 3c ee 42 d4 bc fe 20 d7 3c
       0.03904181 0.030907433 -0.02591082 0.02626085
000100 ff 7a 95 3c 3c 6f 69 bd 7f 38 06 bd ac a2 30 3d
       0.018247126 -0.056990847 -0.032768723 0.043123886
000110 eb e9 34 bd a5 99 25 3d 94 20 45 bd 4e 00 6a bd
       -0.044168394 0.04042973 -0.048126772 -0.057129197
000120 44 fe 28 bc 66 26 e8 3b b3 e8 9d bc d9 fb 84 3c
       -0.010314528 0.0070846556 -0.019275999 0.016233372
000130 a7 36 c9 3c 81 e2 96 bc f3 89 d7 3a 6b 2f a7 3c
       0.024562193 -0.018418552 0.001644431 0.020408353
000140 41 77 e8 bc 86 12 80 bd 5c ed 55 3d 37 9f 48 bd
       -0.028377177 -0.06253533 0.052228317 -0.048979964
000150 87 64 57 3c a7 3c 19 3c dc 5d 19 bd 2a 70 4c bd
       0.013146526 0.00935284 -0.037443027 -0.049911655
000160 9f 6c 83 3d bc 7a 70 3c 14 4e ed bb 05 30 51 3d
       0.06417202 0.0146777 -0.0072419737 0.051071186
000170 5f 9b d0 bb 30 69 2b 3c 9d 68 ef bc 2f ee 8d 3b
       -0.006366178 0.01046209 -0.029224688 0.004331372
000180 64 98 7d bd 18 12 b6 3c 03 66 7b bc 22 29 a5 3c
       -0.06191291 0.022225425 -0.015344146 0.020161215
000190 c8 06 30 3d 4e e5 4e bd 16 7d b7 3c bd 65 56 bd
       0.042975217 -0.05051165 0.022398513 -0.05234312
0001a0 2b 52 2f bc 17 74 7a bd 0b 33 37 bd a4 9c 9c bb
       -0.010700743 -0.06114587 -0.044726413 -0.004779415
0001b0 97 3b ab 3b 18 c7 5e bc 74 9e 78 3d 10 c3 64 bc
       0.0052256095 -0.013597272 0.060697988 -0.013962522
0001c0 fd 85 d3 bc 35 f5 23 3d 9b a0 29 bd d1 7e 82 bc
       -0.025820727 0.04002877 -0.04141293 -0.015929611
0001d0 f4 ac 94 ba e2 56 de 3c 38 0a 98 bc e2 d1 49 3d
       -0.0011343048 0.027141038 -0.01855956 0.049272425
0001e0 a0 f7 2a bc 49 0d df bc 1f 6c 0a 3d cb 0f 15 3d
       -0.010435015 -0.027228015 0.03379452 0.036392014
0001f0 e6 15 7b bc 7b 50 0c 3c f0 ad b0 3c 3a 40 c5 3c
       -0.015325045 0.00856411 0.021567315 0.024078477
000200 70 e9 91 bb bd 8d 29 3c 33 b0 3f 3d fc ad 26 3d
       -0.0044528767 0.010348734 0.046798896 0.04069327
000210 4a ab 34 bd fd 5b 94 3c ad c6 ed bc 2e ae 13 bd
       -0.044108666 0.01811027 -0.0290254 -0.036054783
000220 6f 4e 32 3d 85 73 0f 3d 85 c2 ee bc d9 d3 2e bd
       0.04353183 0.035022277 -0.029145489 -0.042682502
000230 c9 9a ae bc e8 52 70 3d c7 9a 0b 3d 32 fc fc bb
       -0.021314042 0.058672816 0.034083154 -0.0077204937
000240 f6 b7 f1 bb f4 84 1e 3d 01 6a ae bc e2 8e 08 3d
       -0.007376666 0.038701013 -0.021290781 0.03333939
000250 4b dc 05 bd a8 6d 66 3d 18 5c 22 bd 18 d1 b3 39
       -0.03268079 0.05625692 -0.03963861 0.00034297328
000260 ee 1c 64 bd 3c a0 5a 3c 8a 13 b9 3c 82 b3 d4 3c
       -0.055691652 0.013343867 0.022592325 0.025964502
000270 9f 7f 03 3d 61 33 d5 bc 41 a4 0b 3d 17 4f 01 3d
       0.03210413 -0.026025476 0.03409219 0.031569567
000280 4e 3f 68 3b 9c f4 7a 3d b1 7d 81 bd e9 4a 58 bd
       0.0035438123 0.061268434 -0.06322802 -0.052805815
000290 3c dd e2 bc 58 11 f9 bb a1 ca 2d 3d 5d dd a1 3c
       -0.027693383 -0.0076009445 0.04242957 0.019758875
0002a0 2d 30 3c bd 70 bf 39 3d ee 5d 14 bd 8a 76 76 bb
       -0.04594438 0.045348585 -0.03622239 -0.0037607276
0002b0 5e 1a 71 bd f6 bf 65 bd 5a 7d 05 3d 44 2a 58 3d
       -0.058863036 -0.05609127 0.032590248 0.052774683
0002c0 5d 56 d6 bc 95 35 21 3d 9e 2d b5 3c b0 55 62 3d
       -0.026164228 0.03935774 0.022116479 0.0552575
0002d0 41 ab 34 bd 1f ef 35 bd a5 cb 59 3b 4d a5 33 3d
       -0.044108633 -0.044417497 0.0033232954 0.043858815
0002e0 d3 42 0b 3d e1 ee 69 bd e8 30 43 bb 81 e2 00 3b
       0.033999275 -0.05711258 -0.002978379 0.0019666257
0002f0 c4 ef 2e 3d 53 5b 4b 3c b7 f8 b4 ba f9 4c 3f bc
       0.042709127 0.01241191 -0.0013807033 -0.011676067
000300 6e aa 4b 3d 51 e5 1a 3d 28 6b ac 3c 11 25 03 bd
       0.04972308 0.03781635 0.02104719 -0.03201777
000310 58 3a 3e 3c 9b 3c 0d bd 06 63 b2 bb 36 2e 59 3d
       0.01161059 -0.034481626 -0.0054439334 0.053022586
000320 94 83 36 3d 4c f0 60 3d eb 22 42 3c b4 53 44 bd
       0.044559076 0.054916665 0.011849145 -0.047931388
000330 ec c8 b0 bc fd 2f 3a bd d5 f8 37 3d c6 f5 0f 3b
       -0.021580182 -0.04545592 0.04491504 0.002196656
000340 ce 87 97 bb 0c ba 83 bd 2c c0 cc bc 56 ad 55 bc
       -0.0046243435 -0.0643197 -0.024993978 -0.013041815
000350 d1 88 31 bd 62 fd 37 3d 9f d4 70 3d 61 ce 7a bc
       -0.04334337 0.04491938 0.05879652 -0.015307994
000360 47 cf 1f 3d ad 6d 5a bd a6 f6 2d 3d 4c 37 fb bc
       0.039016034 -0.05332725 0.04247155 -0.030666016
000370 16 90 23 3c 26 28 91 bb 89 1c 64 bc a3 e6 39 3d
       0.009983083 -0.004429835 -0.013922819 0.045385968
000380 46 a4 e2 bb 8e 74 53 3d d8 7f c5 3b 6a 48 90 3c
       -0.0069165556 0.051624827 0.006027203 0.017612655
000390 73 9c 55 3d a6 d0 59 bd cc 31 55 3d bf e3 78 bd
       0.052151155 -0.0531775 0.052049443 -0.06076407
0003a0 16 73 71 bd 46 b5 5f bc f5 fd 04 3d 30 70 56 bd
       -0.058947645 -0.013654059 0.032468755 -0.052353084
0003b0 a9 f3 38 bd c9 2c 4a 3c 19 fa 18 bd 2d 3d 03 3d
       -0.045154247 0.012339779 -0.037347887 0.032040764
0003c0 d2 79 6e 3d 9c ba d2 bc 57 3e ec bc 13 ba b4 3c
       0.058221646 -0.025723748 -0.02883832 0.022061383
0003d0 bc 1d 4a 3c a6 32 58 bd a9 9a 49 3c 3b 5e 5a 3d
       0.012336191 -0.052782677 0.01230494 0.05331252
0003e0 d6 0c 63 bd 98 c5 37 3d 70 bc 04 3d 13 81 2e bd
       -0.055432163 0.044866174 0.03240627 -0.042603564
0003f0 6e 73 50 3d 73 29 7a 3c 48 4e 9e 3c ed 5f 1a bd
       0.050891332 0.015268671 0.019324437 -0.03768914

actor_mean.2.weight f4 [4, 256]
000000 30 b7 27 3d bc 9a 41 bd a8 24 84 3c d5 e2 95 bb
       0.040946186 -0.047266707 0.01613076 -0.0045741596
000010 6d 9b 8c 3d 3b 35 6a 3d 54 12 8b 3d 9a 8d 12 bd
       0.068655826 0.05717967 0.06790605 -0.035779573
000020 de 8e 94 bc 5c 97 c3 bc 66 39 5f bd 16 04 55 bd
       -0.01813453 -0.023875885 -0.0544981 -0.05200585
000030 4d c9 30 3d e8 c1 f1 3c 00 60 03 3d c2 de 97 3d
       0.043160725 0.029511407 0.032073975 0.074155346
000040 52 2d 58 bd ee 94 16 bd 1c 3c 6a 3c 9b 49 2c 3b
       -0.052777596 -0.036763124 0.014296558 0.002628899
000050 fd 0a 5d 3c e5 fd 9c bc b7 6e ce ba da 74 2f 3d
       0.013491389 -0.019164035 -0.0015749548 0.042836048
000060 db b9 35 3c 5f c0 95 3c a0 ce 9e bd 14 df 75 bd
       0.011091675 0.018280206 -0.07754254 -0.060027197
000070 62 ab f2 bb 77 92 85 3c 4d da 58 3d 45 3d a7 bb
       -0.0074056843 0.016305191 0.052942563 -0.0051037394
000080 2e 03 4e 3d 6f d8 21 bd 2d d1 1d 3b 61 9f 0a bd
       0.050296 -0.039513048 0.0024080977 -0.0338434
000090 86 0d 6d bd 4a 07 76 3d 34 ff 6f 3d 3b a7 bd 3b
       -0.057874225 0.060065545 0.05859299 0.0057877577
0000a0 c2 ef a7 3a a5 80 3c 3d 35 86 42 3d 68 63 6f bd
       0.0012812542 0.046021122 0.04749127 -0.05844441
0000b0 12 2b 63 3b f0 a6 1b bd ba b5 6b bd f0 dc 0b bc
       0.0034663123 -0.038001 -0.057546355 -0.008536562
0000c0 32 54 07 bd e6 be 94 3c 40 47 ab 3d bb 3f b6 3b
       -0.03303928 0.018157434 0.08363199 0.0055617965
0000d0 f4 10 ca 3c ca 62 5f bd 2c 09 85 bd 2b f4 ea 3c
       0.024666287 -0.054537572 -0.0649589 0.028680881
0000e0 53 28 5b bd 92 84 1e bd c1 95 6e 3c b0 cb 70 3c
       -0.053505253 -0.038700648 0.014562071 0.014697
0000f0 69 64 59 bc f6 34 8f bd 6c 88 8b bb ef ce 3f bc
       -0.013268569 -0.06992523 -0.004258206 -0.011707052
000100 30 ab d1 3c c9 3d 80 bd d5 42 9d 3b a6 4b 8e bd
       0.025594324 -0.062617846 0.0047992268 -0.069480225
000110 bb 1d 0b 3d 8e 1b 90 3d 9b 59 23 bd f7 a5 3d bd
       0.0339639 0.07036506 -0.039880376 -0.046300855
000120 3d 03 e9 bc 6e 0c a6 3c 36 06 aa 3b 2e 3a 57 3d
       -0.028443927 0.020269599 0.0051887287 0.05254572
000130 6f 2d 75 3d 4c d5 31 3d 72 0c 76 bc 42 72 42 3d
       0.059857782 0.043416306 -0.015017616 0.047472246
000140 2f 0a 52 bc 1a 15 87 bb 06 23 8e 3d f5 65 1b 3d
       -0.012819811 -0.0041223885 0.06940274 0.03793903
000150 68 eb 65 bd 5e 9e 98 3c e0 5f 55 3d 4d f8 1c 3d
       -0.056132704 0.018630203 0.052093387 0.038322736
000160 09 f7 4c 3d df f1 b7 bc a6 6d 1a 3d 31 9e 43 bd
       0.05004028 -0.0224542 0.037702225 -0.047758285
000170 ac f9 2c 3d 6d 1a bc bc d7 03 f3 bb 47 7c 76 3d
       0.042230293 -0.02296182 -0.007416229 0.060177114
000180 78 c0 55 3d 58 8f 80 3d b9 6c 0e 3c 3f 0d ac 3c
       0.052185506 0.06277341 0.008692914 0.02100241
000190 4e 8b 14 3d 09 81 a9 bc b3 c4 32 bd 55 ee 08 bd
       0.036265664 -0.020691412 -0.04364462 -0.033430416
0001a0 f0 7c 5b bc 26 02 42 bd e3 9d 29 bd b4 fe 39 3c
       -0.013396487 -0.04736533 -0.041410338 0.01135223
0001b0 5f 37 89 bc 90 ca 1a 3d bd a0 5a 3c d9 5e c2 3c
       -0.016750036 0.037790835 0.013343987 0.023726868
0001c0 60 f8 c4 bc 21 79 2c bb 1e 4b 52 3b 90 d3 1d bc
       -0.024044216 -0.0026317316 0.003208823 -0.00963296
0001d0 45 13 1b bd fc ac 1f 3c e5 db 1a bd e4 53 1e 3d
       -0.037860174 0.0097458325 -0.037807364 0.038654223
0001e0 76 ce 10 3c 1c 9f 10 3d 0d b3 83 bd 6c 3e e4 3c
       0.008838287 0.03530799 -0.064306356 0.027861796
0001f0 74 53 0f bd 2d 8c 21 3d c2 f6 4b bc 8f 85 af 3b
       -0.034991696 0.039440323 -0.012448968 0.0053564976
000200 50 3e 81 3d 6d 4f 91 bd 02 e0 6d 3c b0 89 61 bd
       0.06310713 -0.070952274 0.01451874 -0.05506295
000210 8e fb 19 bd f2 5e 40 3d f4 25 14 3c 1f d4 0b 3d
       -0.037593417 0.046965547 0.009042252 0.03413784
000220 f7 52 55 3d 41 97 b7 bc 46 58 30 bd b3 6e 11 38
       0.052081075 -0.02241099 -0.043052934 3.467379e-05
000230 5c cd ba bc 4f 99 27 3d 97 cd 4e 3d af f2 91 3c
       -0.022803001 0.04091769 0.050489035 0.017815916
000240 55 cd 68 3d 00 15 a3 3b a8 af f5 bb d1 62 23 bd
       0.056836445 0.0049768686 -0.0074977465 -0.03988916
000250 75 cd e1 bc fa 66 1a 3b 2e cd 5e 3d 78 77 80 bd
       -0.02756379 0.0023559914 0.054394893 -0.06272787
000260 f6 02 1b 3d 8e 35 61 bd 2c 97 3a bd 71 88 1e bd
       0.03784462 -0.054982714 -0.045554325 -0.03870434
000270 93 88 9a 3c 32 77 57 3d ec cd 6f 3d f0 a4 b3 3a
       0.018863952 0.052603908 0.05854599 0.0013705771
000280 24 3c 5e bd d4 5d 85 bd ce a0 8e bc 7f b2 e6 3c
       -0.054256573 -0.06512037 -0.017410662 0.028161285
000290 33 9a 0f bc 64 b6 0f 3d 8c 06 7c 3c 08 aa 17 bd
       -0.008764791 0.03508605 0.01538242 -0.03702739
0002a0 10 1a c3 3c b8 06 95 bc b6 1c a6 bd 4e ed 6f 3d
       0.023816139 -0.01819168 -0.08110945 0.05857592
0002b0 23 42 25 bd 3f 22 16 bd 76 93 96 3d 3f 77 50 bd
       -0.040346276 -0.036653753 0.07352345 -0.050894972
0002c0 ab 51 78 3d 02 86 2e bc d9 6a 34 3d 52 49 22 bc
       0.06062476 -0.010652067 0.04404721 -0.009905176
0002d0 44 27 0c bd 34 db 3c 3d f1 6d 58 3d 7e 0d 67 3d
       -0.034217134 0.046107486 0.052839223 0.05640935
0002e0 52 9c 87 3d 1a 54 db bc 38 09 ee bc be 2c 1d bd
       0.066216126 -0.026773501 -0.02905713 -0.038372748
0002f0 5e d4 7e 3d d7 58 3e bc 02 77 ba bb 15 b5 e4 bc
       0.062214248 -0.011617861 -0.0056904564 -0.027918378
000300 f4 07 e2 ba 56 c0 27 3b ed e7 86 bc 49 a7 5e 3c
       -0.0017244802 0.002559682 -0.016468013 0.013589689
000310 00 dd 3c 3d ae b3 3f bd 71 ca 59 3d 2c ba 9c ba
       0.0461092 -0.046802215 0.05317158 -0.0011957339
000320 b7 68 01 3c ae 17 41 bd df fe e5 3c 04 33 35 bd
       0.007898501 -0.047141723 0.028075634 -0.044238105
000330 73 d8 3d bd a9 d3 81 bd 73 c4 57 bd 99 db d0 3c
       -0.046349 -0.06339199 -0.052677583 0.025495337
000340 04 67 73 3d 6e aa 91 bc 1c 23 82 bd 9e 64 2a 3d
       0.059424415 -0.017781463 -0.06354353 0.041599862
000350 20 73 60 bc 7e c6 58 bd 39 17 9d bc 57 3c aa bc
       -0.013699323 -0.052923672 -0.019176112 -0.020780725
000360 02 d5 a1 bc 01 60 ea 3b ae 62 08 bd 85 be fd 3c
       -0.01975489 0.007152558 -0.033297233 0.030974636
000370 73 e5 3e bb f9 58 dd 3a 4a 24 63 3d c6 62 25 3a
       -0.0029128462 0.0016887478 0.05545453 0.0006308969
000380 f3 85 48 3b 2f 82 20 3d e6 f0 23 bd 9b cb 08 bd
       0.0030597418 0.039186653 -0.04002466 -0.0333973
000390 d3 9a 91 bc 40 98 a1 bb f3 4f 67 bd a6 ac 6e bd
       -0.017774021 -0.0049314797 -0.05647273 -0.05827012
0003a0 8c 0c 72 3d 3c 13 0d bd 35 0f 66 bc c6 7c 29 bd
       0.059093997 -0.03444217 -0.014041712 -0.04137876
0003b0 8e 99 34 3d 63 70 fa 3c d2 5e ab bc bd 93 21 bc
       0.044091754 0.030571168 -0.020919237 -0.009861884
0003c0 62 21 e5 bc f4 fd 0b 3b 32 76 42 3d 75 19 da b9
       -0.02797002 0.0021361085 0.047476 -0.00041599167
0003d0 ee 99 db bc 06 53 c8 bc a1 a8 71 bd a6 cd 7b bd
       -0.026806798 -0.024453651 -0.058998708 -0.06147542
0003e0 93 ab bd 3c 42 ae 3c 3d e6 63 02 3d 3c 4a c8 3b
       0.023153102 0.046064623 0.03183355 0.006112365
0003f0 fe 44 df 3c e5 f0 26 3d c1 a4 5a 3d 8a 06 d7 3c
       0.027254578 0.04075708 0.053379778 0.026248235

actor_mean.2.bias f4 [4]
000000 77 6c 03 3c 44 2e 22 3d 9c c3 89 3c f7 6b 20 3d
       0.0080214655 0.039594904 0.016816907 0.039165463
