best_model_episode_1700.pth (torch, 564351 bytes, 12 tensors)

actor_log_std f4 [4]
0	0xbdb32b53	-0.08748498
1	0xbe2cfdaf	-0.16893648
2	0xbe70ee09	-0.23528303
3	0xbea0073a	-0.31255513

shared.0.weight f4 [256, 24]
0	0x3e03a391	0.12855364
1	0x3e177b34	0.14793092
2	0x3d52b1da	0.051439144
3	0x3ea2583c	0.31707942
4	0xbca8f892	-0.02062634
5	0x3c47e5d7	0.012200794
6	0xbdc4535a	-0.095862105
7	0x3ddfa3df	0.10919928
8	0x3e44556e	0.19173214
9	0xbe54a4cd	-0.20765992
10	0x3e2e9ef2	0.1705282
11	0x3d02cf40	0.03193593
12	0x3e05b18e	0.13056013
13	0x3d146a39	0.036234114
14	0x3ddd904d	0.10818539
15	0xbc943cce	-0.0180954
16	0x3e2d3323	0.16914038
17	0x3d30e1a3	0.043183934
18	0xbda58889	-0.08082683
19	0x3d8b9500	0.06815529
20	0xbd9c17f1	-0.07621754
21	0xbb99ebf8	-0.004697319
22	0xbd802fce	-0.06259118
23	0x3e077c2b	0.1323096
24	0xbe0f1060	-0.1397109
25	0xbda42c54	-0.080162674
26	0xbe2218ca	-0.15829769
27	0xbdaca60a	-0.08430107
28	0x3b9bf59f	0.004759505
29	0xbe1ba27a	-0.15198699
30	0x3e57df59	0.21081294
31	0xbe1effa2	-0.15527204
32	0x3e14b1f0	0.14521003
33	0x3d2c01b1	0.0419938
34	0xbc8a9f04	-0.016921528
35	0x3e5424a8	0.20717108
36	0x3c9e6a7c	0.019337885
37	0x3e0cb025	0.13739069
38	0xbc3627c4	-0.011117879
39	0xbdc651bd	-0.09683559
40	0x3cc03a05	0.023465166
41	0xbdaf4de8	-0.08559781
42	0x3d68f02e	0.05686968
43	0x3e1e4cd2	0.15458992
44	0x3dbbfa3f	0.0917859
45	0xbde9e093	-0.11419787
46	0x3dbe2f6f	0.09286391
47	0x3c2297b9	0.009923869
48	0x3e802896	0.25030965
49	0x3e58ece2	0.21184114
50	0xbe4fb41a	-0.20283547
51	0xbdc65b9c	-0.09685442
52	0xbdd6abd9	-0.10481996
53	0x3d8c1fed	0.06842027
54	0x3d7727b6	0.060340606
55	0x3d00db4e	0.031459145
56	0x3d6eeda7	0.05833211
57	0x3d6e175a	0.05812774
58	0x3de729a3	0.112872384
59	0xbd1a3afb	-0.037653904
60	0x3bb1aaa6	0.005421954
61	0xbdd1defa	-0.102476075
62	0x3d7964ff	0.060887333
63	0xbd954b92	-0.072898045
64	0x3d7371ac	0.059434578
65	0xbd3cc6fb	-0.0460882
66	0x3e2956c6	0.16537008
67	0xbdff6087	-0.12469583
68	0xbdfec707	-0.12440305
69	0xbdfd0196	-0.12353818
70	0x3e3b4006	0.18286142
71	0x3d84f0d7	0.06491249
72	0x3ea6f349	0.32607487
73	0x3e173879	0.14767636
74	0xbe48b325	-0.19599588
75	0xbe08b282	-0.13349345
76	0xbda8649b	-0.08222314
77	0x3da5e4f2	0.081003085
78	0x3d5b0e72	0.053480573
79	0x3de2f3ef	0.11081683
80	0xbdbd2876	-0.09236233
81	0xbd8ad0db	-0.06778117
82	0x3d9f8931	0.07789839
83	0xbcd37bde	-0.0258159
84	0x3d7000fd	0.058594692
85	0xbc9b4498	-0.018953606
86	0x3e036a02	0.12833408
87	0xbe15b33a	-0.14619151
88	0xbdb7bc14	-0.0897142
89	0x3d9c4aa7	0.07631426
90	0x3d6d7f74	0.057982877
91	0xbd15a3ce	-0.03653317
92	0x3e0cc302	0.13746265
93	0x3e1c90cd	0.15289612
94	0xbe0fec6a	-0.14055029
95	0xbdec7090	-0.11544907
96	0x3e0fc2ac	0.14039105
97	0xbe1e102d	-0.15435858
98	0x3d4f43f8	0.05060193
99	0xbded2ac4	-0.115804225
100	0xbd6f90ec	-0.058487818
101	0x3ce0c95d	0.027439767
102	0xbae4ef6d	-0.0017466374
103	0xbd8f42e4	-0.0699518
104	0x3d3d52f7	0.0462217
105	0xbe13b5e5	-0.14424856
106	0xbe2204c6	-0.15822133
107	0xbe0991a6	-0.13434467
108	0xbdef10ba	-0.11673112
109	0xbdc871f1	-0.097873576
110	0x3e8abca9	0.2709706
111	0x3dd98a58	0.1062209
112	0x3e069fd6	0.1314691
113	0xbdf72d6c	-0.120692104
114	0xbd80ba85	-0.06285576
115	0x3ba8e01e	0.00515367
116	0x3ddb39ee	0.107044086
117	0xbdd1b73c	-0.10240027
118	0xbc88cea7	-0.016700102
119	0xbd913d3a	-0.07091756
120	0xbc83ffde	-0.016113218
121	0xbd3d794f	-0.046258267
122	0x3ba3eb1f	0.005002394
123	0xbe27413d	-0.1633348
124	0xbdf57d30	-0.11986768
125	0xbe11580f	-0.14193748
126	0xbd05e901	-0.032692913
127	0xbdd54bac	-0.10414824
128	0x3e17bb64	0.14817578
129	0x3a1e0d21	0.0006029178
130	0x3e1e7e92	0.1547797
131	0x3d9dde81	0.07708455
132	0xbdba252b	-0.090891205
133	0x3df0bbce	0.11754571
134	0xbd00924b	-0.031389516
135	0xbd573550	-0.052541077
136	0xbe1215a2	-0.14266065
137	0xbe32ffef	-0.17480443
138	0x3db47712	0.08811773
139	0xbc5fb13a	-0.013653094
140	0x3de32aac	0.110921234
141	0xbe0af048	-0.13568223
142	0x3e3573cb	0.17719953
143	0xbe03d321	-0.12873508
144	0x3c41130f	0.011784329
145	0x3d8fee02	0.07027818
146	0x3e0c8a82	0.13724712
147	0x3e830452	0.25589234
148	0x3e44c0af	0.19214128
149	0xbe1b3bd4	-0.15159541
150	0x3d97e5ea	0.074168995
151	0xbdaefe36	-0.08544581
152	0xbcc426fd	-0.023944372
153	0xbe352a97	-0.17692028
154	0x3e289777	0.16464029
155	0xbe806c01	-0.250824
156	0x3dc20703	0.09473994
157	0x3da16558	0.07880658
158	0x3c80223b	0.015641322
159	0xbe2423c7	-0.16029273
160	0x3e0bc18c	0.13648051
161	0xbb52ee89	-0.0032185635
162	0xbca82679	-0.020526158
163	0xbe667bf7	-0.22508226
164	0x3d2d6cbc	0.042340025
165	0xbd94175d	-0.07231019
166	0xbe047a9d	-0.12937398
167	0x3df719dd	0.1206548
168	0x3d169c5f	0.03677022
169	0xbccda6cb	-0.025103947
170	0xbd7e4f99	-0.06208763
171	0xbc39bcca	-0.011336515
172	0x3de2571d	0.11051772
173	0xbdc5dcc9	-0.09661252
174	0xbe01b504	-0.12666708
175	0xbd6ecd64	-0.058301345
176	0xbe07136b	-0.13191001
177	0x3db7d29d	0.08975718
178	0x3e2569be	0.16153619
179	0xbe83ed6c	-0.25767076
180	0x3d747352	0.05968029
181	0x3dd6f7b2	0.10496463
182	0x3d086f3d	0.03330921
183	0xbd9a7e39	-0.07543606
184	0x3dd6d26f	0.10489356
185	0x3ddaa81a	0.10676594
186	0x3d9ddc0a	0.07707985
187	0xbd0ae6f6	-0.033911668
188	0xbd50ccb0	-0.050976455
189	0x3ccf909f	0.025337515
190	0xbd062d9c	-0.03275834
191	0xbd9f3d7c	-0.07775399
192	0x3e968412	0.29397637
193	0x3f080623	0.53134364
194	0xbe4d8ba9	-0.20072807
195	0xbd8bd675	-0.06828014
196	0x3cd16f26	0.025565695
197	0x3d09ab9f	0.033610936
198	0x3d8672c5	0.06564859
199	0x3a9be381	0.0011893363
200	0xbd82373f	-0.063581936
201	0x3d6efd59	0.05834708
202	0x3d803fdb	0.062621795
203	0x3e326db9	0.17424668
204	0x3b7ffdeb	0.003906126
205	0xbd8a86cb	-0.06763991
206	0xbdf54b1e	-0.11977218
207	0xbe359825	-0.1773382
208	0xbd784a3d	-0.060617674
209	0x3d9a49df	0.07533621
210	0x3e0c32a9	0.136912
211	0x3dcf4591	0.101206906
212	0xbe319106	-0.17340478
213	0xbdedbe36	-0.116085455
214	0xbd1f69d8	-0.0389193
215	0x3e3e3056	0.18573126
216	0x3df72afa	0.12068744
217	0xbda87443	-0.082253
218	0x3d67c22a	0.056581654
219	0xbe12c2a6	-0.14332065
220	0xbdbf127d	-0.09329698
221	0x3d6b21ad	0.057405163
222	0xbd33d1b8	-0.043901175
223	0xbc9419cd	-0.018078709
224	0xbe33ca46	-0.1755763
225	0x3e154188	0.1457578
226	0x3e1316d2	0.14364174
227	0x3dc8c578	0.09803289
228	0xbd93d605	-0.07218555
229	0xbe38b308	-0.18037045
230	0xbe102398	-0.14076078
231	0x3e352bcd	0.1769249
232	0x3dfa4d13	0.12221732
233	0x3e480e84	0.19536787
234	0x3e04d0b4	0.12970239
235	0x3d96ca67	0.07362824
236	0x3c99888f	0.018741874
237	0xbe0add8b	-0.13561074
238	0xbe23113c	-0.15924543
239	0xbe2164ec	-0.15761155
240	0x3dae3be9	0.08507521
241	0xbd566449	-0.052341733
242	0x3b456ede	0.0030125896
243	0xbe17df19	-0.14831199
244	0x3c26da34	0.01018386
245	0xbd995b5f	-0.07488131
246	0xbe1d6e83	-0.15374188
247	0x3bd81f2d	0.0065955133
248	0xbc87f4c4	-0.016596206
249	0x3e080b52	0.13285568
250	0xbd251f7f	-0.04031324
251	0xbe3564aa	-0.17714182
252	0xbb963ac6	-0.004584643
253	0xbd15d1e0	-0.036577106
254	0xbcd451ff	-0.025918005
255	0xbe1fd0cc	-0.15606993

shared.0.bias f4 [256]
0	0xbe2b750d	-0.1674387
1	0x3c308537	0.010773948
2	0xbd3581eb	-0.044313353
3	0x3e1635d5	0.14668973
4	0xbe1d5661	-0.15364982
5	0x3cd8e492	0.026476178
6	0x3d0489ed	0.0323581
7	0x3bf60564	0.007507967
8	0xbd8a330e	-0.06748019
9	0x3e66b0f0	0.22528434
10	0xbe0b993a	-0.1363267
11	0x3e5825f8	0.21108234
12	0x3cbe0cb5	0.023199419
13	0x3e13cf84	0.1443463
14	0x3e0c043c	0.1367349
15	0x3c9d0241	0.019166114
16	0x3d5efd70	0.054440916
17	0xbd153644	-0.036428705
18	0xbdf13994	-0.1177856
19	0x3d77192e	0.060326748
20	0x3e1c72f3	0.15278225
21	0x3d10742e	0.035267048
22	0xbd9b386c	-0.07579121
23	0xbe03b425	-0.12861688
24	0x3c8dd9a1	0.017315688
25	0x3dd274b1	0.10276163
26	0xbdd0173f	-0.10160684
27	0x3de03de8	0.10949308
28	0xbd3c4fee	-0.045974664
29	0x3d1873fb	0.037219983
30	0x3dde0211	0.10840238
31	0x3dd47b63	0.10375097
32	0xbda175b0	-0.07883775
33	0x3db8960f	0.090129964
34	0x3e051b6a	0.12998739
35	0x3d6f9360	0.058490157
36	0xbe00a49d	-0.12562795
37	0x3d50515a	0.050858833
38	0xbdbe6675	-0.09296886
39	0x3c5eec29	0.01360611
40	0xbdfeee5b	-0.124478064
41	0x3e3365bd	0.17519279
42	0x3e7df5b0	0.24800754
43	0xbe352482	-0.17689708
44	0xbd29fbee	-0.041500024
45	0xbdb2c452	-0.087288514
46	0xbde60fec	-0.112335056
47	0x3e627709	0.22115721
48	0xbe32c267	-0.17456971
49	0xbdaac2ac	-0.08337912
50	0xbe11b06c	-0.14227456
51	0xbc2c6345	-0.010521715
52	0xbe04bb6f	-0.12962125
53	0xbe38ac6e	-0.18034527
54	0x3e516473	0.20448475
55	0x3e093190	0.13397813
56	0x3e1a39cc	0.1506111
57	0x3e0eb9e5	0.139381
58	0x3d08f5bb	0.03343747
59	0xbcbc8628	-0.02301319
60	0xbde95158	-0.11392468
61	0x3d838a80	0.06422901
62	0xbde66c05	-0.11251072
63	0xbba5a474	-0.0050550047
64	0xbd2ef905	-0.042717952
65	0xbdccff37	-0.10009616
66	0xbdee77f6	-0.116439745
67	0xbdcc29a4	-0.0996888
68	0xbd418f94	-0.047256067
69	0xbdf3d581	-0.11905957
70	0xbd7000ef	-0.05859464
71	0xbe271a78	-0.16318691
72	0x3d4475d4	0.047963932
73	0x3cb56f4c	0.022147797
74	0xbe164abe	-0.1467695
75	0xbe3b8695	-0.18313058
76	0xbde9c75c	-0.11414978
77	0xbd04d89d	-0.03243314
78	0x3e475037	0.19464193
79	0xbd1f7ac7	-0.03893545
80	0x3de51712	0.11186041
81	0xbdb8516a	-0.089999035
82	0xbc87575b	-0.016521147
83	0x3d1eff24	0.03881754
84	0xbe465a60	-0.19370413
85	0x3cc1f4c8	0.023676291
86	0x3d25d0e6	0.040482424
87	0x3dab26c6	0.08357005
88	0xbe26899b	-0.1626343
89	0xbd8d6ed6	-0.06905906
90	0x3c02bbba	0.007979328
91	0x3d2c4a4b	0.04206304
92	0x3d288932	0.041146465
93	0xbe0a1502	-0.13484576
94	0x3e1f2b9b	0.15543978
95	0xbdb4e12b	-0.0883201
96	0xbd9ac752	-0.075575486
97	0x3e15700b	0.14593522
98	0xbd8f5e3c	-0.07000396
99	0x3bc16d70	0.0059029385
100	0xbde50241	-0.111820705
101	0x3dc79762	0.09745671
102	0x3c0b88fa	0.0085165445
103	0x3e00962b	0.12557285
104	0x3b8e88d7	0.0043498087
105	0xbe4207ba	-0.1894826
106	0xbd9142c0	-0.0709281
107	0x3e078fa3	0.13238387
108	0xbdc8843e	-0.09790848
109	0xbde1ed53	-0.11031594
110	0x3e456851	0.19278075
111	0xbd7a75e5	-0.06114759
112	0x3d3dd98a	0.04635004
113	0xbd991eaf	-0.074765556
114	0xbb788b43	-0.0037924803
115	0x3d91d67d	0.071209885
116	0xbe0081d9	-0.12549533
117	0xbe168b16	-0.14701495
118	0x3d459c81	0.048244957
119	0xbdbb3e85	-0.09142784
120	0x3dff89f0	0.12477481
121	0xba9ce0f9	-0.0011968903
122	0xbdb0f47d	-0.086403824
123	0x3d17275a	0.036902763
124	0xbd9feaea	-0.07808478
125	0x3d717306	0.058947586
126	0x3df8a3f4	0.121406466
127	0xbd2b8774	-0.041877225
128	0xbe09bf9a	-0.13451996
129	0x3e3e27e5	0.18569906
130	0x3e5172e1	0.20453979
131	0x3e18ee3d	0.1493463
132	0xbd2d7252	-0.042345352
133	0xbcb1c7a1	-0.021701636
134	0x3a3d094a	0.0007211162
135	0xbd6e76e8	-0.058218867
136	0xbe409ef5	-0.18810637
137	0xbcc5ba93	-0.024136817
138	0x3dbf0e94	0.093289524
139	0x3da6fc97	0.081536464
140	0x3ca4b448	0.020105496
141	0x3dd83f2b	0.10558923
142	0x3e04695d	0.12930818
143	0xbd31139e	-0.0432316
144	0x3e172d93	0.14763479
145	0xbb5cee79	-0.0033711477
146	0xbcd4650c	-0.02592709
147	0xbdaada5a	-0.083424285
148	0xbdb6ec29	-0.08931763
149	0xbde2f379	-0.11081595
150	0x3c31bbd3	0.010848003
151	0x3e15211d	0.14563413
152	0x3d2fe76d	0.042945314
153	0xbb05bbf3	-0.0020406216
154	0xbdb17d13	-0.08666434
155	0xbd43c10e	-0.047791533
156	0xbd5c0dc1	-0.053724054
157	0x3d8cf5be	0.06882809
158	0x3d034d01	0.03205586
159	0xbda865d9	-0.08222551
160	0x3c55ecab	0.013056914
161	0x3bd6c119	0.0065537808
162	0xbd05e96d	-0.032693315
163	0x3dd58797	0.10426252
164	0xbd9d1dff	-0.07671737
165	0x3e133fa1	0.14379741
166	0xbda0e5ff	-0.07856368
167	0x3e35a3aa	0.17738214
168	0x3d3b53a5	0.045734067
169	0x3d4c8d57	0.04993948
170	0xbdbeca4f	-0.09315931
171	0xbcc94e5a	-0.024573494
172	0xbe02ae6e	-0.12761852
173	0xbe047f25	-0.12939127
174	0x3e0ba984	0.13638884
175	0x3e402618	0.18764532
176	0x3daf8a8f	0.0857135
177	0xbddf70af	-0.109101646
178	0x3c116242	0.008873524
179	0x3bafb846	0.0053625433
180	0xbe2715c9	-0.16316904
181	0xbdd12516	-0.10212152
182	0x3debe3d4	0.11518064
183	0xbd7fd50e	-0.062459044
184	0xbd0ad1dd	-0.033891547
185	0xbd90a598	-0.070628345
186	0x3df11428	0.117714226
187	0xbcfa0aac	-0.030522667
188	0xbda22cb8	-0.07918686
189	0x3df34bc3	0.11879685
190	0x3e3e059c	0.18556827
191	0x3e347f73	0.17626743
192	0x3d99e6d7	0.07514732
193	0xbc4ad6f5	-0.012380351
194	0x3d8061d6	0.06268661
195	0x3e0515e7	0.12996636
196	0x3d725c06	0.05916979
197	0x3d854b2c	0.065084785
198	0x3d1a1b8f	0.03762394
199	0x3cf3f116	0.029778045
200	0x3d9f6fe6	0.07785015
201	0x3da5346f	0.080666415
202	0xbe4d4c58	-0.20048654
203	0xbe090aa2	-0.13382962
204	0xbe28c4cc	-0.16481322
205	0xbdc45c82	-0.09587957
206	0xbbefa0d0	-0.0073128715
207	0xbd1b798c	-0.037957713
208	0xbe541e8f	-0.20714782
209	0xbdcb1fc9	-0.09918172
210	0x3dbafcad	0.09130225
211	0x3c3a6878	0.011377446
212	0xbde62759	-0.11237974
213	0xbb95f5f6	-0.00457644
214	0xbd8a5a42	-0.067554966
215	0xbe090093	-0.13379125
216	0xbd70b3cb	-0.058765214
217	0xbd99b0e1	-0.0750444
218	0xbe80aab7	-0.25130245
219	0xbe38a643	-0.18032174
220	0xbd4ad331	-0.049517814
221	0x3da4d41e	0.08048271
222	0x3e0b9f8f	0.13635086
223	0x3bb72c0d	0.005589968
224	0x3e0f100a	0.13970962
225	0x3dcc6a71	0.099812396
226	0xbd8e6c54	-0.06954256
227	0xbdaa8015	-0.08325211
228	0xbd04e037	-0.03244039
229	0xbe479dd7	-0.19493805
230	0xbc2cada1	-0.010539443
231	0x3b5b9c70	0.0033509992
232	0xbe149ad5	-0.14512189
233	0xbd3154e3	-0.043293845
234	0xbe20635a	-0.156629
235	0x3e7e7a5d	0.24851365
236	0x3e14be97	0.1452583
237	0xbda96ade	-0.082723364
238	0x3e2d72d1	0.1693833
239	0xbde805df	-0.11329245
240	0x3e281e7e	0.16417882
241	0xbd7498ac	-0.05971591
242	0x3d890ea2	0.06692244
243	0x3ded5e7c	0.11590287
244	0x3d666ee1	0.056258086
245	0x3d1af4db	0.03783117
246	0xbd108abe	-0.035288565
247	0x3d8172bd	0.06320713
248	0x3e2ef10b	0.17084138
249	0x3cd768fe	0.026295181
250	0xbc41bfab	-0.011825482
251	0x3da35064	0.07974318
252	0xbdd43a4d	-0.103626825
253	0xbd6096f2	-0.054831453
254	0xbd1c8a23	-0.038217675
255	0x3e5887cb	0.21145551

shared.1.weight f4 [256]
0	0x3f850db5	1.0394808
1	0x3f877964	1.058392
2	0x3f896d4e	1.0736482
3	0x3f89922d	1.0747734
4	0x3f847b7f	1.0350188
5	0x3f872674	1.055861
6	0x3f8928dd	1.0715595
7	0x3f88349e	1.0641057
8	0x3f9463b9	1.1592933
9	0x3f85b61f	1.0446204
10	0x3f8913ea	1.0709202
11	0x3f868128	1.0508165
12	0x3f90f38b	1.1324323
13	0x3f8ad233	1.0845398
14	0x3f830414	1.023562
15	0x3f826ae9	1.0188876
16	0x3f8735a4	1.0563245
17	0x3f8974e0	1.0738792
18	0x3f85491a	1.0412934
19	0x3f842b7a	1.0325768
20	0x3f8fa8f9	1.1223441
21	0x3f87be99	1.0605041
22	0x3f879be9	1.0594455
23	0x3f866433	1.0499328
24	0x3f82d4c2	1.0221179
25	0x3f841943	1.0320209
26	0x3f891eab	1.0712484
27	0x3f8c5cc2	1.0965807
28	0x3f882406	1.0635993
29	0x3f84a06a	1.0361454
30	0x3f8653e5	1.0494353
31	0x3f87ea83	1.0618442
32	0x3f9014f0	1.125639
33	0x3f864b9f	1.0491828
34	0x3f860e3e	1.0473096
35	0x3f8657da	1.049556
36	0x3f8698bd	1.0515362
37	0x3f8b1390	1.0865345
38	0x3f894123	1.0723003
39	0x3f8b3294	1.087481
40	0x3f88ac8c	1.0677657
41	0x3f93fbd9	1.1561233
42	0x3f8722b7	1.0557469
43	0x3f86d6db	1.0534319
44	0x3f84669e	1.0343816
45	0x3f820d1c	1.0160251
46	0x3f868a6c	1.0510993
47	0x3f88564b	1.0651335
48	0x3f859d90	1.0438709
49	0x3f86e150	1.053751
50	0x3f86092c	1.0471549
51	0x3f84808b	1.0351728
52	0x3f884d10	1.0648518
53	0x3f854976	1.0413043
54	0x3f9b5c7b	1.2137598
55	0x3f824fc3	1.0180591
56	0x3f83db2f	1.0301265
57	0x3f88230a	1.0635693
58	0x3f8756bd	1.0573345
59	0x3f89099e	1.070606
60	0x3f866024	1.049809
61	0x3f84882e	1.0354059
62	0x3f83453e	1.0255506
63	0x3f8a1c00	1.0789795
64	0x3f847b79	1.0350181
65	0x3f8eca9b	1.115558
66	0x3f87759c	1.0582767
67	0x3f82fbb5	1.0233065
68	0x3f89d30a	1.0767529
69	0x3f84394c	1.0329986
70	0x3f8629b2	1.0481474
71	0x3f8447ce	1.0334413
72	0x3f85bcfc	1.0448298
73	0x3f84110a	1.03177
74	0x3f841f0e	1.0321977
75	0x3f8d0b65	1.1019102
76	0x3f85c06d	1.0449349
77	0x3f82ad1f	1.0209082
78	0x3f92c355	1.1465861
79	0x3f862d74	1.0482621
80	0x3f814893	1.0100273
81	0x3f894d5e	1.0726736
82	0x3f94cd6c	1.162519
83	0x3f838fa0	1.0278206
84	0x3f841cc7	1.0321282
85	0x3f8ea8a4	1.1145215
86	0x3f9b83fe	1.2149656
87	0x3f855336	1.0416019
88	0x3f881c61	1.063366
89	0x3f87cb7e	1.0608976
90	0x3f89913a	1.0747445
91	0x3f8a5e55	1.0810038
92	0x3f88d6dd	1.0690571
93	0x3f878980	1.0588837
94	0x3f8845d9	1.0646316
95	0x3f8644b4	1.0489717
96	0x3f847720	1.0348854
97	0x3f8f6e2f	1.12055
98	0x3f839a7f	1.0281523
99	0x3f8427f8	1.0324697
100	0x3f82f989	1.0232402
101	0x3f948404	1.1602788
102	0x3f86ac06	1.0521247
103	0x3f8017e9	1.0007297
104	0x3f86caac	1.05306
105	0x3f843071	1.0327283
106	0x3f86a5b0	1.0519314
107	0x3f85fa4b	1.0467008
108	0x3f844b1b	1.033542
109	0x3f8c9210	1.0982075
110	0x3f8ed06a	1.1157353
111	0x3f8692fd	1.0513607
112	0x3f85ac94	1.0443292
113	0x3f85ba87	1.0447549
114	0x3f85aec1	1.0443956
115	0x3f8743f8	1.0567617
116	0x3f8704aa	1.0548298
117	0x3f902b6e	1.1263254
118	0x3f85ac6f	1.0443248
119	0x3f8a4baf	1.0804347
120	0x3f81ef07	1.015107
121	0x3f8288fb	1.0198053
122	0x3f876a9e	1.0579412
123	0x3f95dfd4	1.1708932
124	0x3f84cb61	1.0374566
125	0x3f898b0f	1.0745562
126	0x3f85147a	1.0396874
127	0x3f8558e2	1.041775
128	0x3f8981be	1.0742719
129	0x3f91e242	1.1397173
130	0x3f8b6064	1.0888791
131	0x3f901aa9	1.1258136
132	0x3f86000d	1.0468765
133	0x3f83220c	1.0244765
134	0x3f8341c0	1.025444
135	0x3f899341	1.0748063
136	0x3f8d9db4	1.1063752
137	0x3f90edaa	1.1322529
138	0x3f91abc8	1.1380548
139	0x3f84051f	1.0314063
140	0x3f860ca6	1.047261
141	0x3f9e8b90	1.2386341
142	0x3f86bb45	1.05259
143	0x3f8642eb	1.0489172
144	0x3f83a8e6	1.0285919
145	0x3f8a6e0c	1.0814834
146	0x3f8887ef	1.0666484
147	0x3f8825ab	1.0636495
148	0x3f889933	1.0671753
149	0x3f8258b7	1.0183324
150	0x3f84a445	1.0362631
151	0x3f88637f	1.0655364
152	0x3f88c98f	1.0686511
153	0x3f8b9091	1.0903493
154	0x3f8c4bda	1.0960648
155	0x3f83315d	1.024944
156	0x3f84288d	1.0324875
157	0x3f873f18	1.056613
158	0x3f86a880	1.0520172
159	0x3f92fbd5	1.1483103
160	0x3f8c43a5	1.0958143
161	0x3f863ff8	1.0488272
162	0x3f860ec5	1.0473257
163	0x3f854b68	1.0413637
164	0x3f889900	1.0671692
165	0x3f83d73d	1.030006
166	0x3f9147c8	1.1350031
167	0x3f848430	1.035284
168	0x3f8f9954	1.1218667
169	0x3f8a0ed6	1.0785778
170	0x3f87f403	1.0621341
171	0x3f8359ca	1.0261776
172	0x3f8bee50	1.0932102
173	0x3f82b86e	1.0212533
174	0x3f854457	1.0411481
175	0x3f883686	1.0641639
176	0x3f84b940	1.0369034
177	0x3f8a7a45	1.0818564
178	0x3f88017b	1.0625452
179	0x3f9315ee	1.1491067
180	0x3f87483d	1.056892
181	0x3f85e227	1.0459641
182	0x3f9118c4	1.1335683
183	0x3f847bcd	1.0350281
184	0x3f85fd3e	1.0467908
185	0x3f83de5e	1.0302236
186	0x3f8d12c3	1.1021351
187	0x3f8a7859	1.0817977
188	0x3f89ecb7	1.0775365
189	0x3f889279	1.06697
190	0x3f843027	1.0327195
191	0x3f8b147f	1.086563
192	0x3f80f6f1	1.007536
193	0x3f84f7d2	1.0388129
194	0x3f870d04	1.0550847
195	0x3f849473	1.0357803
196	0x3f840789	1.03148
197	0x3f85cbbd	1.0452801
198	0x3f889dad	1.0673119
199	0x3f8a8529	1.0821887
200	0x3f83f390	1.0308704
201	0x3f81d489	1.0142986
202	0x3f888ea5	1.0668532
203	0x3f858cc8	1.0433588
204	0x3f848af6	1.0354908
205	0x3f878005	1.0585943
206	0x3f9356f3	1.151091
207	0x3f881cfe	1.0633848
208	0x3f86886d	1.0510384
209	0x3f9c298a	1.2200177
210	0x3f85ac7c	1.0443263
211	0x3f8a1d9a	1.0790284
212	0x3f860852	1.0471289
213	0x3f840955	1.0315348
214	0x3f85d80c	1.0456557
215	0x3f85758f	1.0426501
216	0x3f846af3	1.0345138
217	0x3f828528	1.0196886
218	0x3f855f2a	1.0419667
219	0x3f89d77a	1.0768883
220	0x3f84cd22	1.0375102
221	0x3f85d819	1.0456573
222	0x3f862bd4	1.0482125
223	0x3f8d562a	1.104192
224	0x3f845982	1.0339816
225	0x3f833c66	1.0252807
226	0x3f85e290	1.0459766
227	0x3f82cfea	1.02197
228	0x3f85de17	1.0458401
229	0x3f857dcb	1.0429014
230	0x3f85565d	1.0416981
231	0x3f84780d	1.0349137
232	0x3f87030e	1.0547807
233	0x3f8ba5c1	1.0909959
234	0x3f8d1d76	1.1024616
235	0x3f836fa8	1.026845
236	0x3f88bdea	1.0682957
237	0x3f89e73b	1.0773691
238	0x3f86e1cb	1.0537657
239	0x3f89ba47	1.0759972
240	0x3f89ac61	1.0755731
241	0x3f849688	1.0358438
242	0x3f88cb1b	1.0686983
243	0x3f9463af	1.1592921
244	0x3f8daad0	1.1067753
245	0x3f8686e5	1.0509917
246	0x3f84dbe9	1.0379611
247	0x3f8bb119	1.0913421
248	0x3f84b9ca	1.0369198
249	0x3f860501	1.0470277
250	0x3f8a4815	1.0803248
251	0x3f87c437	1.0606755
252	0x3f8a3c8f	1.0799731
253	0x3f84df7f	1.0380706
254	0x3f8cb96a	1.0994084
255	0x3f8a07ae	1.0783594

shared.1.bias f4 [256]
0	0x3c8857f9	0.016643511
1	0x3d8f586f	0.06999289
2	0x3d503fba	0.050842024
3	0x3d5224a1	0.051304463
4	0x3bc0c7e9	0.005883206
5	0x3d1ba3c2	0.03799797
6	0xbc7b4556	-0.015336355
7	0xbac25a0d	-0.0014827863
8	0x3d362bd7	0.044475403
9	0x3d4353f5	0.04768749
10	0x3cbba4cd	0.022905732
11	0x3d89e092	0.067322865
12	0x3d801873	0.06254663
13	0x3d19dcec	0.037564203
14	0x3d306133	0.043061446
15	0x3d0fb455	0.035084087
16	0x3cd45b30	0.025922388
17	0x3cd322e8	0.02577348
18	0x3d1879cc	0.03722553
19	0x3d1d53b1	0.038409892
20	0x3d8bf9e2	0.06834771
21	0x3d8778fe	0.06614874
22	0x3d3b49b1	0.045724574
23	0x3d615189	0.0550094
24	0x3cd0ccd5	0.025488297
25	0x3d0a6454	0.033787087
26	0x3c9bc87d	0.019016499
27	0x3d85d3c4	0.06534532
28	0x3d150b4f	0.036387738
29	0x3c6e81f4	0.01455735
30	0x3d1033b5	0.03520556
31	0x3d13f7ab	0.036124866
32	0x3d751853	0.05983765
33	0x3d231764	0.03981723
34	0x3c739966	0.014868116
35	0x3d5630dc	0.05229269
36	0x3d010fc0	0.03150916
37	0x3d22918a	0.039689578
38	0x3d482c50	0.048870385
39	0x3d52c2e5	0.051455397
40	0x3d4dd35b	0.050250392
41	0x3d345af8	0.044032067
42	0x3d68f613	0.0568753
43	0x3d5c6288	0.053804904
44	0x3d7e2a4b	0.062052052
45	0x3d91d162	0.07120015
46	0x3d040987	0.03223565
47	0x3d92269a	0.07136269
48	0x3d89d3e8	0.06729871
49	0x3cec2841	0.028827788
50	0x3d2c3342	0.04204107
51	0x3c78e0dc	0.015190329
52	0x3d795801	0.060874943
53	0x3c317104	0.010830168
54	0x3cb39936	0.021923643
55	0x3cc4fc1b	0.024045995
56	0x3b24d50b	0.0025151398
57	0x3d9b4e65	0.07583312
58	0x3cc792d7	0.02436201
59	0x3c5de780	0.013543963
60	0x3d5245f2	0.051336236
61	0x3d45874d	0.048224736
62	0x3d1bc525	0.03802981
63	0x3d20eebd	0.03929018
64	0x3d4a9911	0.04946238
65	0x3d6fe43a	0.058567263
66	0x3cfbec8a	0.030752439
67	0x3c8e3789	0.017360466
68	0x3cf54dab	0.029944262
69	0x3c281255	0.010258277
70	0x3cf62c11	0.03005031
71	0x3cb066ef	0.021533458
72	0x3d69b796	0.057059847
73	0x3d149fa4	0.036285058
74	0x3b0aa93d	0.0021158003
75	0x3caeddf3	0.021346068
76	0x3c401aba	0.011725122
77	0x3d3f5e9d	0.04672109
78	0x3d8e9a6b	0.06963047
79	0x3cc5c08f	0.02413967
80	0x3cf2d899	0.029644297
81	0x3d6c264c	0.05765371
82	0x3d559613	0.052145075
83	0x3c438113	0.011932629
84	0x3b53133f	0.0032207516
85	0x3db4f745	0.088362254
86	0x3d16e8d3	0.036843132
87	0x3ac8ec11	0.0015329142
88	0x3cda26cf	0.026629834
89	0x3ccd37f4	0.025051095
90	0x3bd39aff	0.006457686
91	0x3d2e6118	0.042573065
92	0x3d083d5f	0.033261653
93	0x3ce4ba91	0.027920993
94	0x3cebf9f8	0.028805718
95	0x3d1ea989	0.0387359
96	0x3d89c21d	0.06726477
97	0x3d516a01	0.051126484
98	0x3c92b3dd	0.017908031
99	0x3d16e267	0.036837008
100	0x3c0a5757	0.008443675
101	0x3d1eec6f	0.0387997
102	0x3d10a845	0.035316724
103	0x3cf92fbe	0.030418273
104	0x3cac835f	0.021058736
105	0xbca710bb	-0.02039372
106	0x3d51f1e5	0.05125608
107	0x3d61b7b2	0.055106826
108	0x3d137fde	0.036010616
109	0x3d9bbcad	0.076043464
110	0x3d9aa844	0.07551625
111	0x3c33c634	0.010972548
112	0x3d1b5c68	0.037929922
113	0x3cb0adeb	0.021567306
114	0x3cb4f9ed	0.02209183
115	0x3cf6093c	0.0300337
116	0x3cc51472	0.0240576
117	0x3d51569a	0.05110798
118	0x3c65ec9e	0.014033465
119	0x3d588fb7	0.052871432
120	0x3cd5de12	0.026106868
121	0x3cbfdb8e	0.023420122
122	0x3c122cb5	0.008921792
123	0x3d8f6a65	0.07002715
124	0x3c91f3ee	0.01781651
125	0x3d811611	0.06303037
126	0x3d03a021	0.032135133
127	0x3cb8f824	0.02257926
128	0x3cb018e7	0.02149625
129	0x3d4e517c	0.05037068
130	0x3d815693	0.06315341
131	0x3d9c4e1e	0.07632087
132	0x3b11eb09	0.0022265336
133	0x3d56117e	0.052262776
134	0xbc01ab31	-0.00791435
135	0x3ce3a1b3	0.027787065
136	0x3ceb4e05	0.028723726
137	0x3d158c05	0.036510486
138	0x3d7290dc	0.05922018
139	0x3d0f71a0	0.03502047
140	0x3d8f1b9a	0.069876865
141	0x3d189006	0.037246726
142	0xbbc15da3	-0.005901055
143	0x3c2a917f	0.010410666
144	0x3ba89349	0.005144511
145	0x3cedbeaa	0.02902158
146	0x3d0f873a	0.03504107
147	0xbbb720bb	-0.0055886186
148	0x3bde0c4a	0.0067763673
149	0xbbd712bb	-0.006563512
150	0x3c32f676	0.010923019
151	0x3d0e1a50	0.034693062
152	0x3cd1362c	0.025538526
153	0x3d440681	0.047857765
154	0x3c8b6ebb	0.017020574
155	0x3b13b89c	0.0022540456
156	0x3caaca9e	0.020848569
157	0x3d37f8ee	0.044915132
158	0x3d70989d	0.058739293
159	0x3d898e28	0.06716567
160	0x3bd5af31	0.0065211286
161	0x3d94fcb7	0.07274764
162	0x3d357771	0.04430336
163	0x3d4368af	0.047707256
164	0x3cd1cdc9	0.025610821
165	0x3d597cb9	0.05309746
166	0x3d5c3e2e	0.053770237
167	0x3d8cf744	0.068831
168	0x3d42bc7e	0.04754304
169	0x3d74b679	0.059744332
170	0x3d4df61a	0.05028353
171	0xba7f3b90	-0.00097363535
172	0x3ce038e2	0.027370874
173	0x3bfa26c1	0.0076340144
174	0x3cd33b17	0.025785012
175	0x3cd0c64a	0.025485177
176	0x3d3b3111	0.04570109
177	0x3d4ddf1a	0.050261594
178	0x3cc721e6	0.024308156
179	0x3d99f431	0.07517279
180	0x3c87c064	0.016571231
181	0x3cbd7f62	0.02313203
182	0x3d455fb2	0.048186965
183	0x3ca5fbf6	0.020261746
184	0x3d8468b0	0.0646528
185	0xbbc6e927	-0.0060702744
186	0x3d6a7e6c	0.05724947
187	0x3d5e4eac	0.054274246
188	0x3d9a0268	0.0751999
189	0x3d341e69	0.043974314
190	0x3c0a8f44	0.008457009
191	0x3d1b20c9	0.037873063
192	0x3d790c03	0.06080247
193	0x3cd8ea18	0.026478812
194	0x3d20f86d	0.039299417
195	0x3d613e2f	0.054990944
196	0x3b710c42	0.0036780988
197	0x3d86e6a9	0.06586964
198	0x3d6be061	0.05758703
199	0x3d383813	0.04497535
200	0x3d33b862	0.043877013
201	0x3d46cff0	0.04853815
202	0x3c28b25f	0.010296433
203	0xbb4c94a7	-0.0031216533
204	0xbc01947d	-0.0079089375
205	0x3cea79ac	0.02862247
206	0x3d35d32f	0.044390853
207	0x3c712506	0.0147183
208	0x3c411448	0.011784621
209	0x3d6b9d67	0.057523157
210	0x3d34c96e	0.04413741
211	0x3d90134e	0.07034932
212	0x3d85cadc	0.06532833
213	0x3c721f31	0.014777944
214	0x3cb24b15	0.021764318
215	0x3d046dec	0.032331392
216	0x3cfcd38d	0.030862594
217	0x3b812f8d	0.003942436
218	0x3cf71743	0.03016246
219	0x3d897ea5	0.06713609
220	0x3cbc8776	0.023013812
221	0x3c467119	0.0121119255
222	0x3d838cfb	0.06423374
223	0x3cd60000	0.026123047
224	0x3d589be3	0.05288304
225	0x3d082606	0.033239387
226	0x3c7b1f58	0.015327297
227	0x3bb560f0	0.0055352375
228	0x3d11b8cf	0.035576638
229	0x3c444e02	0.011981489
230	0x3d0cc6c6	0.034369253
231	0x3d269ebe	0.040678732
232	0x3cd8c7e8	0.02646251
233	0x3da4ba11	0.08043302
234	0x3d24b7cc	0.040214345
235	0x3cf59a14	0.029980697
236	0x3d044d30	0.032300174
237	0x3d977cbc	0.07396838
238	0x3d75dfd0	0.060027897
239	0x3ceea0ae	0.029129352
240	0x3d1836b6	0.03716155
241	0xbb6a5f09	-0.0035762212
242	0x3d3d43e1	0.046207312
243	0x3d445760	0.04793489
244	0x3b946429	0.0045285416
245	0x3cb15b60	0.021650016
246	0x3d0c4ccf	0.034252938
247	0x3cd5ca80	0.026097536
248	0x3c3628bc	0.01111811
249	0x3cfdc87a	0.030979384
250	0x3ccf112c	0.025276743
251	0x3caeb28a	0.021325368
252	0x3da0296b	0.078204
253	0x3c5047c3	0.012712422
254	0x3d4fc166	0.05072155
255	0x3db1c296	0.086796924

actor_mean.0.weight f4 [256, 256]
0	0x3cfcd788	0.030864492
1	0xbd02eebd	-0.03196596
2	0x3d4e681b	0.05039225
3	0xbbb25802	-0.0054426203
4	0x3c079f6c	0.008277755
5	0x3bfc5123	0.007700102
6	0x3d3bfce0	0.045895457
7	0x3c3f2976	0.0116676
8	0xbadc7f51	-0.0016822611
9	0x3c58ccf0	0.013232455
10	0x391d29b6	0.00014988225
11	0xbccb21e0	-0.024796426
12	0x3d9b9ab4	0.07597867
13	0xbcf78820	-0.030216277
14	0x3c1c1e1d	0.009528664
15	0xbd29eda5	-0.0414864
16	0xbc995180	-0.01871562
17	0xbcbc72ca	-0.023003954
18	0xbc2e0330	-0.010620877
19	0x3cfdf81a	0.031002093
20	0xbd0d10f5	-0.03444
21	0x3c4d277a	0.012521619
22	0x3c91bb23	0.017789429
23	0xbd6055dc	-0.054769382
24	0x3d175d28	0.036954075
25	0x3d458092	0.048218317
26	0x3c5125d2	0.012765365
27	0xbc2183e9	-0.00985811
28	0x3d5f1ae1	0.054468993
29	0xbce37528	-0.027765825
30	0xbd533412	-0.05156333
31	0x3d3dc7a3	0.046332967
32	0xbd4423fb	-0.047885876
33	0x3d48cb7c	0.049022183
34	0x3b9e1f67	0.004825521
35	0x3da09e70	0.078427196
36	0x3d9cb36e	0.07651411
37	0xbd7b5209	-0.06135753
38	0x3c0a94dc	0.008458342
39	0xbd90efd9	-0.07076997
40	0x3d3a7ce4	0.04552926
41	0x3c847483	0.016168838
42	0xbd0502c6	-0.032473348
43	0x3c2f1732	0.010686683
44	0x3ba2bbdf	0.0049662436
45	0xbccec9f6	-0.025242787
46	0x3d7cf38c	0.061755702
47	0xbd35e1cb	-0.044404786
48	0xb979c827	-0.00023821053
49	0x3c66db1e	0.014090328
50	0xbcbdc571	-0.023165436
51	0x3d00e6a7	0.031469967
52	0x3d8ca40a	0.068672255
53	0xbd4d3800	-0.050102234
54	0x3ce7a536	0.02827702
55	0x3b680994	0.00354061
56	0x3da76b6b	0.08174785
57	0xbd69e3e0	-0.057102084
58	0x3d40ba27	0.04705253
59	0xbd1d83e7	-0.03845587
60	0x3d593fa1	0.053039197
61	0xbd1dec54	-0.03855546
62	0x3d311a82	0.04323817
63	0x3caf5fff	0.02140808
64	0x3d21a305	0.03946211
65	0x3d5f8232	0.054567523
66	0x3c70bfe2	0.014694186
67	0xbc25603a	-0.010093743
68	0xbd10183d	-0.035179365
69	0x3c2d5965	0.010580395
70	0x3d86c927	0.065813355
71	0x3d6f04a7	0.058354046
72	0xbcf10dfa	-0.02942561
73	0x3ccf8800	0.025333405
74	0xbc6b8b92	-0.014376538
75	0xbcb5974b	-0.022166869
76	0x3cd985ba	0.026553024
77	0xbb755f6c	-0.003744091
78	0x3d75fc44	0.060055032
79	0xbd3a9429	-0.045551453
80	0xbc58bbaa	-0.013228336
81	0x3d5c66d2	0.053808995
82	0x3d3e9be5	0.04653539
83	0xbd65496f	-0.055978235
84	0xbc548927	-0.012972153
85	0x3d64b8b3	0.055840205
86	0x3cfc3e6c	0.030791484
87	0xbbf077d8	-0.0073385052
88	0x3d29d55c	0.04146324
89	0x3d822db7	0.06356376
90	0x3c6e24d3	0.014535147
91	0xbd669628	-0.056295544
92	0xbd6aae71	-0.057295267
93	0x3d0130e1	0.031540755
94	0xbbb4124a	-0.0054953443
95	0x3cf74a6e	0.030186858
96	0x3d6b1e84	0.05740215
97	0xbcb58ee5	-0.022162864
98	0x3cc2f2e8	0.023797467
99	0x3bc3664f	0.005963124
100	0xbcc5c91a	-0.024143744
101	0x3dc4f66e	0.09617315
102	0x3c6ca0e7	0.014442659
103	0xbd33fab2	-0.043940254
104	0xbd741f0e	-0.05959993
105	0x3d61eadc	0.05515562
106	0xbd4bd850	-0.04976684
107	0x3d1c8b26	0.03821864
108	0xbcb5adda	-0.022177625
109	0x3d2b9c04	0.041896835
110	0xbbb5dd79	-0.0055500832
111	0x3d93f5ca	0.07224615
112	0xbd5dde96	-0.054167353
113	0xbcfacc6f	-0.03061506
114	0x3d4d298e	0.050088458
115	0xbc5b447d	-0.013383028
116	0xbbc4749f	-0.0059953476
117	0x3d846a2b	0.064655624
118	0xbd3323d6	-0.043735348
119	0x3d9be26f	0.07611548
120	0xbc37656e	-0.011193616
121	0x3d0c4e08	0.034254104
122	0x3d9b4430	0.07581365
123	0x3d4a292e	0.04935568
124	0xbc8cd436	-0.017191034
125	0x3d0f60ff	0.035004612
126	0x3c8b1893	0.016979491
127	0xbb36de1d	-0.0027903386
128	0x3cdd4ad9	0.02701323
129	0xbce6bb2e	-0.028165426
130	0x3ca7bfad	0.02047714
131	0x3d10f9b6	0.035394393
132	0xbce3e981	-0.027821304
133	0x3bf3ba6d	0.007437995
134	0x3c1d9b13	0.009619492
135	0x3bf02287	0.0073283347
136	0x3c81a702	0.015826706
137	0x3d98d7fa	0.07463069
138	0xbd10953a	-0.035298564
139	0x3d8ffc20	0.07030511
140	0x3d26b231	0.04069728
141	0x3c594834	0.0132618435
142	0x3d0117b4	0.031516746
143	0xbd3b373b	-0.04570697
144	0xbd5440e5	-0.0518197
145	0xbcca676a	-0.024707515
146	0xbdb466ae	-0.08808647
147	0x3bb84d38	0.0056244396
148	0xbd74995e	-0.059716575
149	0xbd45c309	-0.048281703
150	0xbd124123	-0.03570665
151	0x3d7d8dfe	0.061902992
152	0x3d1c1379	0.038104508
153	0xbd03927a	-0.032122113
154	0xbd890786	-0.06690888
155	0x3c773bcf	0.015089943
156	0xbc2924ee	-0.010323746
157	0xbd01847b	-0.031620484
158	0x3b71477b	0.0036816287
159	0x3caeb2c1	0.02132547
160	0x3bff2bb8	0.007787194
161	0x3d4b504d	0.049637128
162	0x3d63bcac	0.055599853
163	0xbd2e55a3	-0.04256214
164	0x3d6c91ce	0.057756238
165	0x3d120bb4	0.035655692
166	0x3ce2afcc	0.027671717
167	0x3d943900	0.072374344
168	0x3b64ed83	0.0034931607
169	0xbca11f55	-0.01966826
170	0xbadcf32a	-0.0016857137
171	0x3d721221	0.05909932
172	0xbcf27d03	-0.029600626
173	0x3d69c103	0.057068836
174	0x3d13d8d9	0.036095474
175	0x3d388677	0.04505011
176	0x3ca5a048	0.02021803
177	0x3dac4f2c	0.08413538
178	0xbd6dcac5	-0.058054704
179	0x3c83a17a	0.016068209
180	0xbcaf535f	-0.02140206
181	0x3d47021f	0.048586007
182	0x39d15fec	0.00039935054
183	0x3cb9358e	0.022608545
184	0x3ce1ba3a	0.02755462
185	0xbc95afd8	-0.018272325
186	0xbc457679	-0.012052172
187	0xbd7ceaf6	-0.061747514
188	0x3d503659	0.05083308
189	0xbd1561bd	-0.036470164
190	0xbdbeddf0	-0.09319675
191	0x3c956b57	0.01823966
192	0x3d600255	0.054689724
193	0xbcae4dd3	-0.021277344
194	0x3d88b0ac	0.066743225
195	0xbc28382a	-0.010267297
196	0xbd2197f3	-0.03945155
197	0xbc7e50d7	-0.015522203
198	0x3ce4a3aa	0.027910072
199	0xbc7d3a34	-0.015455771
200	0x3d8fd6c5	0.07023386
201	0xbc96be4d	-0.01840129
202	0xbd105872	-0.035240598
203	0xbd3f6a29	-0.0467321
204	0xbd64fe88	-0.055906802
205	0x3d3be59a	0.045873262
206	0xbb1364e5	-0.0022490558
207	0xbcdce919	-0.026966618
208	0xba38ed4e	-0.0007054404
209	0x3dce2ade	0.1006677
210	0x3c230bdc	0.009951558
211	0x3d1c13bd	0.03810476
212	0xbc72d1e4	-0.01482055
213	0x3cbc6a2e	0.02299985
214	0x3caea982	0.021321062
215	0x3d3ff939	0.046868537
216	0x3d15f961	0.03661478
217	0x3d1195f9	0.035543416
218	0x3d0f3160	0.034959197
219	0xbb87f49a	-0.004149032
220	0xbd1c082d	-0.038093735
221	0xbaae65dc	-0.0013305503
222	0xbd30c26f	-0.043154176
223	0x3c2e749b	0.010647918
224	0xbbd8b35d	-0.0066131786
225	0x3d349066	0.04408302
226	0xbd908056	-0.07055728
227	0xbd6f5fb3	-0.058440875
228	0x3cfe5379	0.031045662
229	0x3d555e01	0.052091602
230	0xbc0c347a	-0.008557433
231	0x3c211a1b	0.009832884
232	0x3d4a2445	0.049350996
233	0x3cf65f3d	0.03007471
234	0xbcdbaee9	-0.026816802
235	0x3ce9f215	0.028557817
236	0x3d12d63f	0.035848852
237	0x3c9a66e3	0.018847888
238	0x3d49b0c2	0.049240835
239	0x3c4efbb7	0.012633256
240	0x3cb8f7fd	0.022579188
241	0xbc2fea73	-0.010737049
242	0xbcfb7e4b	-0.03069987
243	0x3d92b2ad	0.07162986
244	0xbc627fa1	-0.013824374
245	0xbd44e93f	-0.048074003
246	0xba122705	-0.00055752724
247	0xbccaff97	-0.024780078
248	0xbcae3bcb	-0.021268746
249	0xbc821cbc	-0.015882842
250	0xbb4bfa17	-0.0031124407
251	0x3c5b9496	0.013402125
252	0x3d2aba0c	0.041681334
253	0xbc5320db	-0.012886251
254	0x3cdf6eef	0.027274577
255	0xbd557de1	-0.052122

actor_mean.0.bias f4 [256]
0	0x3c04bcb2	0.008101629
1	0xbd49868b	-0.049200576
2	0x3d23ff55	0.040038425
3	0x3d34a69d	0.044104207
4	0x3d80e219	0.06293125
5	0x3c9d72bf	0.019219754
6	0xbc4bc183	-0.0124362735
7	0xbcbe72c6	-0.023248088
8	0x3d1d4610	0.038396895
9	0x3d671a58	0.056421608
10	0x3c2bdb6b	0.010489325
11	0xbcd09051	-0.02545944
12	0x3d333f43	0.043761503
13	0xbd599628	-0.053121716
14	0xbc4c6363	-0.0124748675
15	0xbb62c0de	-0.003459982
16	0xbc874d1e	-0.016516265
17	0xbc36303b	-0.0111198975
18	0xbce0a290	-0.027421266
19	0xbbd8fcc7	-0.0066219303
20	0x3c02a43e	0.007973729
21	0xbc968c54	-0.01837746
22	0x3b64cb86	0.0034911348
23	0x3d3c8766	0.046027564
24	0x3cb5ab34	0.022176363
25	0x3c9153ad	0.017740095
26	0x3bf90cc2	0.007600398
27	0xbd663767	-0.05620518
28	0x3cf6e4e5	0.030138442
29	0x3cf94224	0.030427046
30	0x3ba3f82e	0.0050039506
31	0xbc68bafb	-0.014204736
32	0xbd2b20fa	-0.041779496
33	0xbcba7404	-0.022760399
34	0xbd158582	-0.036504276
35	0x3d36bb32	0.044612117
36	0xbc8bcd8e	-0.01706579
37	0xbac35d4c	-0.0014905124
38	0x3d7efd8d	0.062253524
39	0xbd094259	-0.03351054
40	0x3d05b1d9	0.032640312
41	0xbd1f5081	-0.038895134
42	0xbd3fdaee	-0.046839647
43	0x3d3e3505	0.046437282
44	0x3d5c7aaf	0.053827938
45	0x3c9c30c2	0.019066218
46	0xbd38e3dc	-0.04513918
47	0xbb55350e	-0.0032532844
48	0xbd749762	-0.059714682
49	0xbcdc415d	-0.026886636
50	0xbd4a7f59	-0.049437854
51	0x3d3eacaa	0.046551384
52	0xbd37b651	-0.044851605
53	0x3d442baf	0.047893222
54	0x3bc2d0cc	0.0059453007
55	0xbd598a7d	-0.05311059
56	0x3d130132	0.03588981
57	0xbd2bdde8	-0.041959673
58	0xbd472291	-0.04861695
59	0xbc09d3bc	-0.008412298
60	0x3d17e67f	0.037085053
61	0x3d1f2b63	0.038859736
62	0xbca2e983	-0.019886738
63	0x3ce02230	0.027360052
64	0x3c5e0a77	0.0135523
65	0xbd30c535	-0.04315682
66	0xbcddb6f8	-0.027064785
67	0x3d591738	0.05300066
68	0xbd3877be	-0.04503607
69	0x3d05c8e2	0.03266228
70	0xbd203f6d	-0.039122988
71	0xbd3d2f90	-0.046187937
72	0xbbb11a06	-0.0054047136
73	0x3c7c6d1b	0.015406872
74	0xbcca7d2b	-0.024717888
75	0x3cd5069c	0.026004128
76	0x3ca7bfab	0.020477137
77	0xbc875252	-0.016518746
78	0x3b26892e	0.0025411355
79	0x3cdc69e5	0.026905963
80	0xbc81b288	-0.0158322
81	0xbd77daf3	-0.06051154
82	0x3d7e7cd7	0.062130775
83	0xbd164ac9	-0.036692414
84	0x3c92c29f	0.017915068
85	0x3c7be7b0	0.015375063
86	0xbd168f84	-0.03675796
87	0xbd38a430	-0.045078456
88	0x3d84a9d3	0.06477704
89	0x3c9f5aee	0.019452538
90	0xbb74c1b1	-0.0037346894
91	0x3d758fb0	0.059951484
92	0xba91439b	-0.001108277
93	0x3ca4da8a	0.020123739
94	0xbcd391e1	-0.025826396
95	0x3c6ff339	0.014645391
96	0xbd432090	-0.047638476
97	0x3c917e9f	0.017760573
98	0x393a3055	0.00017756347
99	0x3c9cea5f	0.019154726
100	0x3d4eb9dc	0.050470218
101	0xbd32692b	-0.043557327
102	0x3ca1cde0	0.01975149
103	0xbd2518d7	-0.040306892
104	0xbbef3a54	-0.0073006544
105	0xbd53ff6b	-0.051757257
106	0xbd03b06a	-0.032150663
107	0xbc0cf092	-0.008602278
108	0x3b4507af	0.0030064394
109	0xb9848b48	-0.00025280775
110	0x3d903704	0.070417434
111	0xbc80bcba	-0.015714992
112	0xbca739d7	-0.020413322
113	0x3d1db4e4	0.03850259
114	0xbd04abfb	-0.032390576
115	0xbbb33fd8	-0.0054702573
116	0x3ca4c189	0.020111816
117	0x3cf21da3	0.029555148
118	0xbc173352	-0.009228544
119	0x3d777d14	0.06042202
120	0xbb2d8f87	-0.0026483254
121	0xbcd0d609	-0.025492685
122	0x3d016d30	0.03159827
123	0x3d06f80e	0.032951407
124	0xbc686df3	-0.01418637
125	0x3b52f5e2	0.0032190015
126	0x3cf8dfc6	0.030380141
127	0x3d132795	0.03592642
128	0x3b44d78d	0.0030035705
129	0x3c9c24ab	0.019060453
130	0x3d38dcab	0.04513232
131	0x3d21539d	0.03938638
132	0xbd2b484a	-0.041816987
133	0x3cd583b9	0.026063787
134	0xbcae4e99	-0.021277713
135	0xbcd8efb6	-0.02648149
136	0x3d55c8c5	0.052193422
137	0x3d5e55c6	0.05428102
138	0xbb8cce9d	-0.004297091
139	0xbd0a73d6	-0.033801876
140	0xbb8a9290	-0.0042288974
141	0x3d64a3ad	0.055820156
142	0x3cf71e40	0.030165792
143	0xbb75d373	-0.0037510067
144	0x3a7a239a	0.0009542048
145	0x3d25576a	0.040366568
146	0xbc4282de	-0.0118720215
147	0x3d153a1b	0.036432367
148	0xbcf024b8	-0.029314384
149	0x3d586ac0	0.05283618
150	0xbcea263a	-0.028582681
151	0xbb305e25	-0.0026911583
152	0xbd46fc7a	-0.048580624
153	0x3ce70794	0.028201856
154	0x3d253f26	0.040343426
155	0x3ccc144b	0.02491202
156	0x3d450ca5	0.048107762
157	0xbc414378	-0.011795871
158	0x3cfd5dbf	0.03092849
159	0x3d1d7fb9	0.038451884
160	0x3c061324	0.008183274
161	0x3d846ae8	0.06465703
162	0xbd3d2627	-0.046178963
163	0xbd3d0ae4	-0.046152964
164	0xbc8e51bb	-0.017372956
165	0x3b684408	0.003544094
166	0x3d60c506	0.054875396
167	0x3cb614a9	0.022226648
168	0xbd20d0fd	-0.039261807
169	0x3d34fc45	0.044185895
170	0xbd055b2a	-0.032557644
171	0xbb1602cc	-0.002288985
172	0xbd54d816	-0.051963888
173	0xbd35756a	-0.044301428
174	0x3d1da2b1	0.038485233
175	0x3d6a1edb	0.057158332
176	0xbc83cf35	-0.016090015
177	0x3d4d084f	0.05005675
178	0x3ca9b4a9	0.020716028
179	0x3d8d678e	0.06904517
180	0xbcfa9dc8	-0.030592814
181	0xbd034378	-0.032046765
182	0x3bf76467	0.0075498107
183	0x3d2ef6a3	0.04271568
184	0x3d353201	0.04423714
185	0xbd4d86f5	-0.050177533
186	0xbabb278a	-0.0014278751
187	0x3c30d0e4	0.010791991
188	0x3d549cf9	0.051907513
189	0x3bfa1845	0.0076322877
190	0x3c3dc4bd	0.011582551
191	0xba837a2c	-0.0010030917
192	0x3d4a5ffa	0.049407937
193	0x3d2781e9	0.040895376
194	0x3ccf3805	0.025295267
195	0xbce43143	-0.027855521
196	0x3cb0bbad	0.021573866
197	0xbcf02df8	-0.029318795
198	0x3b0051d4	0.0019580023
199	0x3d807963	0.06273153
200	0x3d6df5db	0.058095794
201	0x3d620fef	0.055190977
202	0x3c6b07f1	0.014345155
203	0xbd0edc90	-0.034878314
204	0xbc72c020	-0.014816314
205	0xbd287f31	-0.041136924
206	0x3d2b0be6	0.041759394
207	0x3c4d4677	0.012529007
208	0x3a86a49b	0.0010272445
209	0xbd480282	-0.048830517
210	0xbcb5b7cb	-0.022182366
211	0xbc14e1d2	-0.009087043
212	0xbd271e89	-0.040800605
213	0x3d3901fa	0.0451679
214	0x3d849b14	0.06474891
215	0xbbc5a85f	-0.0060320343
216	0x3d3861c1	0.0450151
217	0xbd0eb813	-0.034843516
218	0x3d1aec14	0.037822798
219	0xbccef264	-0.025262065
220	0x3c287945	0.010282819
221	0xbc319b7b	-0.010840292
222	0xbb91a968	-0.0044452436
223	0x3d6d51c5	0.05793931
224	0xbbf497a5	-0.0074643665
225	0x3d484a1b	0.048898797
226	0x3c8936ff	0.016749857
227	0x3caff32a	0.021478254
228	0x3d7cbfdf	0.06170642
229	0xbd1eb7e5	-0.038749594
230	0x3d80f3a4	0.06296471
231	0xbd8167bd	-0.06318615
232	0xbd4f8a02	-0.050668724
233	0xbc1f1535	-0.009709646
234	0x3d0314bc	0.032002196
235	0xbd403225	-0.04692282
236	0xbd283eb7	-0.041075435
237	0x3c9fa031	0.019485565
238	0xbcdd7db6	-0.027037483
239	0x3d15ae60	0.03654325
240	0x3d67eca9	0.05662218
241	0xbc62f317	-0.013851902
242	0xbcee32a1	-0.029076876
243	0x3cd27dd9	0.025694774
244	0x3c805174	0.01566384
245	0xbd3e4923	-0.046456467
246	0x3ca989b4	0.020695545
247	0x3d8c8881	0.068619736
248	0xbd54f173	-0.051988076
249	0x3d306dfe	0.043073647
250	0x3d0fe498	0.035130113
251	0xbccfe485	-0.025377521
252	0x3d81b808	0.06333929
253	0x3ca6aa1f	0.020344792
254	0x3cef9aad	0.02924856
255	0xbc81edfe	-0.015860554

actor_mean.2.weight f4 [4, 256]
0	0x3d64da70	0.05587238
1	0xbd4549d8	-0.048166126
2	0x3d13f4e5	0.03612222
3	0x3d76bd49	0.06023911
4	0x3dcae4f7	0.09906953
5	0x3d9a2e78	0.075283945
6	0x3db901d4	0.09033552
7	0xbd17a09d	-0.037018407
8	0xbc7bc181	-0.015365959
9	0xbd690fec	-0.05689995
10	0xbd9a5a35	-0.07536737
11	0xbd5f8442	-0.05456949
12	0x3d981e96	0.07427709
13	0x3d1ccd14	0.038281515
14	0x3d87d080	0.06631565
15	0x3d6fe9f1	0.058572713
16	0xbcbee6ec	-0.023303472
17	0xbd87885b	-0.066178046
18	0x3ce5b5f6	0.028040867
19	0xb911cc69	-0.00013904426
20	0x3b9aedbc	0.004728047
21	0xbd1ff7b0	-0.039054573
22	0xbc67a084	-0.014137391
23	0x3d6721f9	0.056428883
24	0x3d1b63f2	0.037937112
25	0x3d2bdbda	0.041957714
26	0xbd8092b5	-0.06277982
27	0xbdb5e678	-0.08881849
28	0xbcb55b43	-0.022138244
29	0x3c4d24ca	0.012520978
30	0x3db992d1	0.09061206
31	0x3b88aa41	0.0041706865
32	0x3d8946da	0.06702967
33	0xbd638beb	-0.055553358
34	0x3c1564e9	0.009118297
35	0xbce419c3	-0.027844315
36	0xbdb08159	-0.08618421
37	0x3d8a1a45	0.06743292
38	0x3d7c2f1c	0.061568365
39	0xbb79d943	-0.0038123883
40	0xbbab6ec9	-0.0052317125
41	0x3d710e8b	0.05885176
42	0x3d77c1f3	0.0604877
43	0xbd5ce7e3	-0.053932082
44	0x3ca5005c	0.020141773
45	0xbcb95440	-0.022623181
46	0xbd4efaae	-0.050532036
47	0xbd02fe8f	-0.031981047
48	0xbccf9ad2	-0.025342379
49	0x3d3ba230	0.04580897
50	0x3da1cfe2	0.079009786
51	0x3ba94367	0.0051655057
52	0x3d70812e	0.058716945
53	0xbd2ed821	-0.042686585
54	0xbd86077d	-0.06544397
55	0x3d79c03c	0.060974345
56	0xbd422dfa	-0.047407128
57	0xbd232993	-0.03983457
58	0x3c783ead	0.015151662
59	0x3d511558	0.051045746
60	0xbcc1af95	-0.023643294
61	0xbdbb09d9	-0.09132738
62	0xbb0e0cb5	-0.0021675054
63	0xbc76c174	-0.015060771
64	0x3d4df244	0.05027987
65	0xbdbf2611	-0.093334325
66	0x3c83abd9	0.016073154
67	0xbda392f1	-0.07987011
68	0x3d4e5401	0.05037308
69	0x3dca5ff3	0.09881582
70	0xbd73365c	-0.059378013
71	0xbd7203d7	-0.059085693
72	0xbc0b5fa6	-0.008506691
73	0x3d66df58	0.05636534
74	0x3c99a7c4	0.018756755
75	0x3d72ed19	0.059308145
76	0x3d8604cf	0.06543886
77	0x3dc2791b	0.09495755
78	0x3c25feaa	0.010131517
79	0x3d3cecfc	0.046124443
80	0xbc7290f1	-0.014805065
81	0x3c847be2	0.016172353
82	0x3dbfd05c	0.09365913
83	0x3c8ad5af	0.016947595
84	0xbd29bfc5	-0.04144265
85	0x3d815721	0.06315447
86	0x3d1878db	0.03722463
87	0x3dae711b	0.08517667
88	0x3d89f16d	0.067355014
89	0xbcf9d0b4	-0.030495025
90	0x3cbb8006	0.022888195
91	0xbdc1fdfb	-0.09472271
92	0x3cba1451	0.022714766
93	0xbd0badd1	-0.03410131
94	0x3cc30a9a	0.023808766
95	0x3ddf9d72	0.10918702
96	0x3d677d59	0.056516025
97	0x3d948298	0.07251471
98	0xbc53f2b1	-0.01293628
99	0x3d1e0112	0.03857524
100	0x3d44ea67	0.048075106
101	0xbca3366c	-0.019923411
102	0xbd73dc0a	-0.059536017
103	0xbd699e41	-0.05703569
104	0x3c30b130	0.010784432
105	0xbd9500c8	-0.0727554
106	0xbd6f06cb	-0.058356088
107	0x3d346a0f	0.044046458
108	0x3a85ed37	0.001021779
109	0x3d910c7e	0.07082461
110	0x3c67d7ee	0.014150603
111	0x3d9a1810	0.07524121
112	0xbd5fc5cd	-0.054631997
113	0x3d148038	0.03625509
114	0xbc94c32c	-0.018159471
115	0xbbac6647	-0.005261216
116	0xbd41696b	-0.047219675
117	0x3d884b37	0.06654971
118	0xbd425368	-0.047442824
119	0x3d0d39bd	0.03447889
120	0x3d1deba5	0.038554806
121	0x3d3a58dc	0.0454949
122	0xbd422d5f	-0.04740655
123	0x3d06eb65	0.032939333
124	0x3c02dc2a	0.0079870615
125	0x3d43efd4	0.04783614
126	0xbd0ea0f7	-0.034821477
127	0x3cc6ec6a	0.024282653
128	0x3da9aa71	0.08284462
129	0xbda56dad	-0.080775596
130	0x3bf7e76c	0.0075654294
131	0xbd93252e	-0.07184826
132	0xbd21ccd6	-0.039501987
133	0x3da9d263	0.08292081
134	0xbcb34163	-0.021881765
135	0x3d20edef	0.03928941
136	0x3d8032b2	0.06259669
137	0xbd0ce5de	-0.034398906
138	0xbd206832	-0.03916187
139	0xbc829baa	-0.015943367
140	0xbc8fab65	-0.017537782
141	0x3d8c732c	0.06857905
142	0x3d6566c3	0.056006204
143	0x3d016a85	0.031595726
144	0x3dc407f5	0.0957183
145	0x3c604814	0.01368906
146	0xbca8a21f	-0.020585118
147	0xbd74cd9d	-0.0597664
148	0xbd28c005	-0.04119875
149	0xbc5129c5	-0.012766306
150	0x3da0c330	0.07849729
151	0xbd806185	-0.062686004
152	0x3dc8fba7	0.09813624
153	0xbdb4f2c6	-0.08835368
154	0xbd8c6341	-0.06854869
155	0xbd62b683	-0.055349838
156	0x3c447b90	0.01199235
157	0x3d6584bf	0.0560348
158	0x3d6af19a	0.057359315
159	0x3cc7adc5	0.024374852
160	0xbd6a9cc6	-0.057278417
161	0xbdc5057d	-0.096201874
162	0xbd5a9926	-0.05336871
163	0x3d097c7d	0.033565987
164	0xbc9539f8	-0.018216118
165	0x3d4db692	0.05022294
166	0xbc1e61a7	-0.009666837
167	0xbd41fd6f	-0.047360834
168	0x3d8828b7	0.06648391
169	0xbd161bee	-0.03664773
170	0xbda7ac5d	-0.081871726
171	0x3d9bbfad	0.07604919
172	0xbd205d9f	-0.039151784
173	0xbd015598	-0.03157577
174	0x3d89ceb6	0.0672888
175	0xbd3cca26	-0.04609122
176	0x3dd8602d	0.10565219
177	0xbd0561d2	-0.03256399
178	0x3d4631c4	0.048387304
179	0x3cb2bf65	0.02181978
180	0xbd6f84a9	-0.058476124
181	0x3d610dbb	0.054944735
182	0x3d4e6380	0.05038786
183	0x3dc42365	0.095770635
184	0x3dc856ac	0.09782156
185	0xbd2e5173	-0.042558145
186	0xbca0e5f3	-0.019640898
187	0xbd5aa44b	-0.05337934
188	0x3dc22f80	0.09481716
189	0xb97e741a	-0.00024266579
190	0x3cf77803	0.030208593
191	0xbd57458b	-0.052556556
192	0xbcd25431	-0.025674911
193	0x3c7e6748	0.015527554
194	0xbd164551	-0.0366872
195	0x3ccc1d32	0.024916265
196	0x3d9d9e1e	0.07696174
197	0xbd82c7e6	-0.06385784
198	0x3dc0a180	0.09405804
199	0xbcc7446e	-0.024324622
200	0x3d79f9c3	0.061029207
201	0xbd5f26f7	-0.05448052
202	0x3c9aa257	0.018876238
203	0xbd4db731	-0.050223533
204	0xbd1b364d	-0.037893582
205	0xbd3c4ff0	-0.04597467
206	0xbd2c56d6	-0.042075
207	0x3c578022	0.013153108
208	0x3d227f69	0.03967229
209	0xbc361940	-0.0111144185
210	0xbd92e34d	-0.071722604
211	0x3d1c3d0e	0.038144164
212	0xbd07badd	-0.03313719
213	0xbd8c3f30	-0.068479896
214	0xbbb5f24d	-0.005552566
215	0xbc11c9c8	-0.008898206
216	0x384b3ef3	4.8457598e-05
217	0x3a2d01bd	0.00065996853
218	0xbd47f6b6	-0.048819266
219	0x3da84f16	0.082182094
220	0xbbc292f0	-0.0059379265
221	0x3cae0c63	0.02124614
222	0x3daade37	0.08343165
223	0xbcffc4a3	-0.031221693
224	0x3cdd55d3	0.027018463
225	0x3d67eaff	0.056620594
226	0xbd847729	-0.064680405
227	0xbd0b7171	-0.034043733
228	0xbcd6ca0a	-0.026219387
229	0xbaf7e01c	-0.0018911394
230	0xbd907dbd	-0.07055233
231	0xbd819979	-0.06328101
232	0x3dad4fb9	0.084624715
233	0xbd34f6ef	-0.044180807
234	0xbcc2dcc0	-0.023786902
235	0xbda1f1d3	-0.079074524
236	0x3d1cf2a3	0.038317334
237	0x3d5e1cab	0.05422656
238	0x3b4e1831	0.0031447525
239	0xbca69f95	-0.020339767
240	0xbb82d7c4	-0.0039930064
241	0x3ca7fdad	0.020506704
242	0x3d8a3e87	0.067502074
243	0xbbba336c	-0.0056823995
244	0xbd25d847	-0.04048946
245	0xbcf9bc27	-0.030485226
246	0xbd9179ff	-0.07103347
247	0xbdc6b025	-0.09701566
248	0x3d89e576	0.06733219
249	0x3d2ddcd3	0.042446923
250	0x3d879b32	0.06621398
251	0x3d3d4fbf	0.04621863
252	0x3d5428c9	0.05179671
253	0x3d135405	0.0359688
254	0x3d96fdf9	0.0737266
255	0x3d697700	0.056998253

actor_mean.2.bias f4 [4]
0	0x3c25c1d5	0.010117014
1	0x3d03a721	0.03214181
2	0x3cb820ad	0.022476519
3	0x3d1a5a2f	0.037683662
