best_model_episode_750.pth (torch, 561686 bytes, 10 tensors)

actor_log_std f4 [4]
00000000: 4473 08c0 eda0 1cc0 56a6 efbf f635 e3bf
-2.1320353 -2.4473221 -1.8722637 -1.7750843

shared.0.weight f4 [256, 24]
00000000: f200 3ebc 856d 123f 7e39 e3be 240b ed3e
00000010: 3552 2bbe 6f9b 2b3e 3a2e b9bc 120e e2bb
00000020: 2356 6ebd 9965 28be dbc5 143c 1940 073e
00000030: 9b3a 9e3e a3a9 173e 7181 5c3d 074f d1bd
00000040: 3e1a 773d 5268 a3bd 52f5 54be 268c 69bd
00000050: 6868 48be afde 34be 7c39 2dbe 46e2 d03d
00000060: 8704 31bf 64d9 1a3d 934d 06bf f1fe 85be
00000070: 1d22 823e 0a26 fdbe 8b88 5e3e 38b3 87be
00000080: 9f9f 32bd 7afa 64be 38c2 39be 8882 bfbd
00000090: 9da9 87bd cd2b aabc 70c7 c4bd b2e2 32be
000000a0: d523 31bd e7ec 11be fa39 ab3b 92cd eb3d
000000b0: 82e6 713d b0c1 4dbe 961b 973b 271c dfbc
000000c0: c1fa ab3e 5cdd 8bbe 6a26 7c3e 26c7 1b3d
000000d0: 0069 75be b50d c03c 564a 513d 91b1 d13d
000000e0: 95c5 853d 37fc 1d3d 53f5 863d 9a95 88bd
000000f0: ee2c f83c e5e2 d7bd d6cb 0bbd 04f3 1abe
00000100: 79eb 47bc f4a2 fbbd c5ed 9b3d c5d4 6fbe
00000110: e75b 7fbe 7bfe e1bd 9dd4 683e f957 1f3e
00000120: b87d b13d eddc 9cbe 8bc4 ccbd 9ad9 0bbf
00000130: 8644 0cbe 28e3 8e3d 0704 953e c1cf a4bb
00000140: be5f 24be 1c3e c6be 2e7e 863d 49bb e23b
00000150: b23c 2b3c 399b e73d 56d9 2e3e eec4 cfbd
00000160: 69ce 3fbd eb2d f23d 7cbb d03d d4f3 593c
00000170: 9141 4b3e bd83 a23e d5f2 19be 9f70 33be
00000180: a732 d83e 0ee8 a4bc 355e b6bd ebc0 84be
00000190: 677e 2ebe 905e cabb 68db 3ebe 5173 2abe
000001a0: d1a6 d3bc bf50 44be 731b d5be 312e abbe
000001b0: 2f23 94be e62b de3d 4720 823e 1e0a b23d
000001c0: 54d6 df3d 4d86 16be 3510 bbbd ff95 b4bc
000001d0: 6d3c 9a3d 7d7c 1ebe cc0b 55bd f196 92bd
000001e0: a46e 70bc 6f7e 1e3d ce2a 463e de3e 0cbe
000001f0: 3a5f 4cbe 39a9 4abe 13ab c3bd 6f67 c63d
00000200: 8cd1 ba3d 04a4 cabd e2db 163e 925b 023d
00000210: 5962 4cbe 21c3 533e 8dd6 01be 4987 13be
00000220: 9841 70be 424a 8bbe 850c 56bc ab48 01be
00000230: 46dc c4bc 9dbd 67be 3554 383e 9ec9 aabd
00000240: 74fe bebd 08b3 11bf 38de 203d 25e8 993e
00000250: c4ca ab3e f003 97bd 83f7 08be 4c78 04be
00000260: eab1 053d 0255 9ebe f43f db3d 0667 b4be
00000270: c552 813d 4ffd 8f3d 2eba 883c 995d 2cbe
00000280: c739 f73d f07a c6bc 2aca 48bd 8a1e 8abe
00000290: 0c8d 8ebc b4ac 1abe 9347 14be c992 473e
000002a0: 20d0 343e 783e c03c f249 65be b0b3 42be
000002b0: 0e70 0d3e f617 36be fcc5 06be fab1 c4bd
000002c0: b606 89be 26e2 d9bd 8c57 f03d f48c f4bd
000002d0: c435 9a3c 14f5 9dbb 359f 56bd 01ff 26be
000002e0: 54d3 873c f94a 963c 4ae8 4dbc 0c8a ffbd
000002f0: 387a 0fbe a5bf 6bbd 6963 c9bd eedf 17bd
00000300: 1443 4a3e c904 b83f e90a 22bf c0ca 403f
00000310: f335 d93d 5fa9 fb3c db9f 023c 3015 2f3d
00000320: f3b6 84bc 3476 0fbe 5dc4 ad3d 52ac 3ebe
00000330: 9281 f4bc 590e acbe caa6 1ebe 5b6c 72be
00000340: c180 0ebe 5a58 36bc fb2a 643d f984 0b3d
00000350: 2473 4ebe aa2e 49be 5f31 8ebd ecec 423e
00000360: 4b34 fd3d 1ed9 d5be 19ee 6ebe 1971 7fbe
00000370: 4e72 da3d 7663 8f3d 608b 8fbd c93c b23d
00000380: e1d0 74be 58f3 4dbe 960e eb3d 5385 e4bc
00000390: 9cb7 c3bd 60d4 a2be ab21 52be 6132 e23d
000003a0: 13c2 603d 779e 033e f713 863d 77f2 3e3c
000003b0: ca23 53bd c9a1 78be ceaa a9be d0c2 81be
000003c0: 70b0 b33e a84e 133f ed2d b9be 7a43 dbbe
000003d0: dbbc f83d b2bc 6cbd b4f4 c0bd be3b 423b
000003e0: a6df bb3d e0ec 013e fb15 61ba f1a1 46be
000003f0: 9b25 bb3c 2da3 813c 0fcf dcbd 92d1 79be
-0.011596905 0.57198364 -0.443798 0.46297562 -0.16730578 0.16758512 -0.02260505 -0.00689865
-0.058187615 -0.16445006 0.009080376 0.13208045 0.30904087 0.14810805 0.053834382 -0.102201514
0.06032776 -0.07978882 -0.20796707 -0.05701842 -0.19571078 -0.17663072 -0.1691646 0.10199408
-0.69147533 0.037804976 -0.5246212 -0.26171067 0.2541665 -0.49443084 0.21731775 -0.2650392
-0.043609258 -0.22361174 -0.18140495 -0.09351069 -0.06624148 -0.020772839 -0.09608352 -0.1746929
-0.043247063 -0.14250527 0.005225417 0.11513819 0.05905772 -0.20093417 0.004611443 -0.027235104
0.33589748 -0.2731732 0.24624029 0.03803172 -0.23965836 0.023444036 0.051096283 0.10238946
0.065318264 0.03857061 0.06589761 -0.06669159 0.030294862 -0.105413236 -0.03412994 -0.15131766
-0.012202137 -0.1228694 0.0761371 -0.23421009 -0.24937402 -0.110348664 0.22737356 0.15560903
0.08666557 -0.30637303 -0.09998425 -0.5462891 -0.13698015 0.0697692 0.29104635 -0.005029649
-0.16052148 -0.3871926 0.065670356 0.006919299 0.010451483 0.11308903 0.17075095 -0.10144983
-0.046827707 0.118251644 0.1019201 0.013302762 0.1984923 0.31741133 -0.1503404 -0.1752343
0.42226145 -0.020130184 -0.08904687 -0.25928435 -0.17040406 -0.0061758235 -0.18638384 -0.16645552
-0.02583638 -0.19171427 -0.41622505 -0.3343368 -0.28933093 0.10848217 0.2541525 0.08693336
0.10929552 -0.14699669 -0.091339506 -0.02204418 0.075310566 -0.15477176 -0.052013204 -0.07157696
-0.014674816 0.038694795 0.19352266 -0.13695857 -0.19958201 -0.19791116 -0.09554114 0.09687697
0.09121999 -0.09894565 0.14732316 0.03182561 -0.19959392 0.20679905 -0.12679501 -0.14407076
-0.23462522 -0.27205092 -0.013064508 -0.12625377 -0.024030816 -0.22630925 0.18000872 -0.08339237
-0.09325877 -0.56913805 0.039274424 0.30059925 0.33553135 -0.07373798 -0.13375668 -0.12936515
0.032640375 -0.3092423 0.107055575 -0.3523485 0.06314615 0.07030737 0.01669034 -0.1683258
0.12071567 -0.024228543 -0.049020924 -0.26976424 -0.01740124 -0.15104944 -0.14480428 0.19489588
0.17657518 0.023467287 -0.22391489 -0.19013858 0.13812277 -0.17782578 -0.13161463 -0.09604259
-0.26762933 -0.106388375 0.11735448 -0.11940947 0.018824466 -0.0048204754 -0.052397925 -0.16308214
0.016580261 0.018346297 -0.012567589 -0.12477502 -0.14011467 -0.057555813 -0.09833414 -0.03707879
0.19752151 1.437646 -0.632979 0.7530937 0.10605993 0.03072041 0.007972683 0.042744815
-0.016200518 -0.14009935 0.08484719 -0.18620422 -0.02984694 -0.33604696 -0.15493312 -0.23674147
-0.13916303 -0.011129463 0.055705052 0.03406236 -0.2016111 -0.19646707 -0.069430105 0.19035691
0.1236349 -0.4176721 -0.23333015 -0.24945487 0.10666333 0.070013925 -0.070090055 0.08703
-0.23907806 -0.2011236 0.114773914 -0.027895605 -0.09556505 -0.31802654 -0.20520656 0.11044765
0.054872584 0.12853418 0.06546777 0.011654488 -0.051547803 -0.24280466 -0.33138126 -0.25343943
0.3509555 0.57541895 -0.3616785 -0.42824918 0.12145396 -0.05779714 -0.094216734 0.002963766
0.09173517 0.12688017 -0.0008586344 -0.19397713 0.02284508 0.015824879 -0.10781681 -0.24396351

shared.0.bias f4 [256]
00000000: 2b9a 34be bd94 583c 3318 063c 3fdf dc3d
00000010: 3dbb 18be 3ee3 893d 21dc f03d 5bc4 6c3d
00000020: f50c 44bd 465d 403e 8d80 2abe 0d0e d93e
00000030: 28dd 403e 729b 0a3e 2839 713e 4265 243e
00000040: c88b 383e 6f77 b93d b512 93be df4a 193e
00000050: 0d61 8b3e d21b 5f3d ae92 6c3c 42ce a33b
00000060: 4f5e 2e3e c034 603e 2b2b 233b b6fe 963e
00000070: e519 d43d 3669 943d 2268 803e 9004 c73b
00000080: 4095 93bd 6e27 1d3e 5e4f 0f3e fbc2 0a3e
00000090: f865 8abd 811c 113e c720 fabd 7bed 1e3e
000000a0: f71f 23be f267 103e aa88 963e 9471 bbbd
000000b0: 0307 8cbd b5da fcbc 2472 0b3e e9dd b53e
000000c0: 9378 39bd 240e fabd 66ca b5bd 73bd 123c
000000d0: 6a06 e0bd 50e4 c5bd 6f22 893e 4e94 863e
000000e0: 59f4 043e 26e8 4c3e 76e8 b3bc d406 813d
000000f0: 0e5d 45be 5c40 873e 1e44 59bd 9681 15bb
00000100: 76b1 c3bd e58f 7fbd de38 31be 741d 47be
00000110: bdb2 40be 217b 85be 2c10 b93c 5950 1abe
00000120: 05bc 093e 81ad fa3d b36c 10be bd7e 63be
00000130: f5e9 27be cad6 b23d cd54 a43e 206f d23c
00000140: d2a6 3b3e 4c1e 8f3d d708 46be 4bcc 65bd
00000150: 1314 0dbe f1e9 db3d 33f2 0dbc dfe9 643e
00000160: 9dba 2cbd fcf2 9abd e8da 2a3e e49d 193e
00000170: 2edc 8ebb f8fd 51be 4e58 633e bc07 17be
00000180: 4925 3dbd 7bcc 293e 8227 0a3d 54e8 3fbd
00000190: 8731 d2bd 659f a63e d437 6d3d 0182 503e
000001a0: ac55 d33d 5964 2fbe 4291 a6bd 9944 453e
000001b0: da13 37be 6b1f b7bd 3ab4 a03e 9f5b 34be
000001c0: 2ef3 083c 71e4 50bc db51 a93d 3522 ba3d
000001d0: 5cfc 1cbe 9445 83bd 49bf 613e db11 dcbd
000001e0: 6e6f 553e 850d 0e3e ddb1 4cbd 5b8d be3c
000001f0: a9a6 a6bb 1b2e 4d3e 4396 7f3e 5487 c73d
00000200: 605b 57bd 56ba 4e3e b62f 9b3e 5319 be3e
00000210: be89 d03c 8650 e43c b258 7bbd 68f3 1c3d
00000220: 71cf 30be 9597 96bc e1ed af3d e121 033e
00000230: 02bb 5b3e 0e0f 093e dc79 433e 1ef0 e7bd
00000240: d951 853e 8686 ba3d 89a7 593d 09c6 56bc
00000250: aa3a 03be b658 7bbe f22b cf3d 7a12 863e
00000260: 3602 653d 88a8 0e3d 1d46 0dbe 10bb f0bd
00000270: 9dff 9bbd 689e 233e dfa2 293e 3655 45bd
00000280: e5a3 603e c402 1e3d f7c3 2fbd d213 833e
00000290: 8219 6fbc e81f 3c3e a2bc c03d d872 6e3e
000002a0: 6613 573e 5051 753e 2b15 913d 88d2 3dbd
000002b0: 416e 93bc bf68 debd dff5 573e d3e9 933e
000002c0: a23c f33c bfc9 7bbd ca45 8d3d 1888 8f3d
000002d0: dc9a 13be e32c 24be 7ba9 823d 5534 30be
000002e0: f714 573d 4f37 06bd 4662 fa3d bfb3 8fbc
000002f0: a3ba 1e3c 2f2c 6d3e 1817 c93e 1978 553e
00000300: 4627 c03d 8e72 633d 8021 863e de7f 8a3e
00000310: 0712 173e de69 333e 38a7 963d 52ec 443e
00000320: 3d0d 1a3e 6f5e 563e b000 9dbd b697 7fbb
00000330: e732 45be 6a1f 70bd efa0 e2bc c227 993d
00000340: 7017 20be 8fb6 e6bd 3c30 9d3e 4991 0f3d
00000350: 8aa4 2e3d 7e98 033e 6cfb ebbd 3fc9 13bd
00000360: 708b a9bd 2609 2e3d 9b4a 44be 362d e3bd
00000370: f227 073c f244 963c 34a5 813e d5bc db3d
00000380: 0979 873e d444 7c3e 2bd0 8ebd 3535 c2bd
00000390: 44b7 28bd 9213 20be 58d4 5b3d 6722 f23d
000003a0: c14d 88be 3ca4 c63c 17d8 88be d978 903e
000003b0: ac83 d23d a82e 403d aa56 823e de02 eebc
000003c0: bd3b 443e 746f 363d 4461 20bc c837 043e
000003d0: d1d8 4a3d cffc 063d 3b59 9c3d 3850 4f3b
000003e0: f0b3 693e d398 fa3c 46e8 84bd fb45 223e
000003f0: a744 b53c f0d5 f2bd 26d7 ea3d 5619 843e
-0.17636935 0.013219056 0.0081844805 0.10784768 -0.14915176 0.06732796 0.11760736 0.057804447
-0.04786392 0.18785581 -0.166506 0.42393532 0.18834364 0.1353586 0.2355696 0.16054252
0.18022072 0.09055983 -0.2872521 0.14969967 0.2722248 0.05446989 0.014439268 0.004998953
0.17028163 0.21895123 0.0024897556 0.29491204 0.103565015 0.0724663 0.25079447 0.006073542
-0.072062016 0.15347072 0.1399512 0.13550942 -0.0675773 0.1417103 -0.12213283 0.15520279
-0.15930162 0.14102152 0.2940114 -0.09152523 -0.06837275 -0.030866006 0.1361776 0.35520867
-0.045281004 -0.12209728 -0.08876495 0.008956301 -0.109387234 -0.09662688 0.26784083 0.26285022
0.12983836 0.20010433 -0.021961432 0.063001305 -0.19273779 0.2641629 -0.053043477 -0.0022812835
-0.09555332 -0.062393088 -0.1730685 -0.19444829 -0.18818183 -0.26070502 0.02259072 -0.15069713
0.1345063 0.122401245 -0.14103965 -0.22216316 -0.16397841 0.08732374 0.32095948 0.025687754
0.18325356 0.069882005 -0.1933931 -0.056103032 -0.13777189 0.1073798 -0.008663702 0.2235484
-0.042170156 -0.07565877 0.16685069 0.15001637 -0.0043597436 -0.20507038 0.22201654 -0.14749044
-0.046178136 0.1658191 0.033729084 -0.046852425 -0.10263353 0.32543483 0.05791457 0.20362093
0.10319075 -0.17128123 -0.081331745 0.19264449 -0.17878667 -0.089415394 0.31387502 -0.17613076
0.00835876 -0.012749777 0.08267566 0.09088556 -0.15330642 -0.06409755 0.22045626 -0.10745593
0.20843288 0.13872345 -0.04997431 0.023260763 -0.0050857854 0.20037119 0.24959664 0.09742609
-0.052577376 0.20188269 0.30309838 0.37128696 0.025456306 0.027870428 -0.061363883 0.038318068
-0.17266633 -0.018382827 0.08590294 0.12805893 0.21458057 0.13384649 0.19089454 -0.113250956
0.26039007 0.091076896 0.05313829 -0.013108739 -0.12815347 -0.2454556 0.10115804 0.26185971
0.05591031 0.034828693 -0.13796277 -0.11754429 -0.07617114 0.15978396 0.16566037 -0.048176967
0.21937521 0.038576856 -0.042911496 0.2560106 -0.014593484 0.18371546 0.09410979 0.23285997
0.21003494 0.239568 0.070841156 -0.046343356 -0.01799691 -0.108598225 0.21089886 0.2888933
0.029691998 -0.061471697 0.06898077 0.0700838 -0.14414543 -0.16032748 0.06379982 -0.17207463
0.052510228 -0.03276759 0.122257754 -0.017541764 0.009688052 0.23161386 0.39275432 0.20846595
0.09382491 0.05552917 0.26197433 0.2705068 0.1475297 0.17520854 0.07356113 0.19230774
0.15044113 0.20934461 -0.07666147 -0.003900034 -0.19257699 -0.05862371 -0.02766463 0.07478286
-0.1563394 -0.11265289 0.30700862 0.035050664 0.042637385 0.1285114 -0.11522564 -0.036080595
-0.08278549 0.042489193 -0.19169085 -0.11092608 0.00824927 0.018343423 0.25321352 0.10729376
0.2645953 0.24635631 -0.06973299 -0.09482805 -0.0411904 -0.15632465 0.053669304 0.11822968
-0.26621822 0.024248235 -0.26727363 0.282172 0.10279021 0.046919495 0.25456744 -0.029054102
0.19163413 0.044539884 -0.009788815 0.12911904 0.04952318 0.03295594 0.07634207 0.0031633507
0.22822547 0.03059045 -0.06489615 0.15847008 0.022127463 -0.118572116 0.114668176 0.2580058

actor_mean.0.weight f4 [256, 256]
00000000: 108e b9bb 3c99 7abd da50 173d 8744 35bd
00000010: 1905 963c d7b4 e3bb e2b7 2f3d 7cd4 72bc
00000020: 74d7 6fbd 5b1c 95bd 007f 7abc e146 4cbd
00000030: 8271 093d 458b febc 0a1b 29bd c37f c2bd
00000040: ae3f 9dbd b92f 36bd a500 d8bd da28 a1bc
00000050: 790e 7abd 11d9 98bc 0caa 25bd b7bf 9dbd
00000060: e219 663d d869 fc3c 82a9 09bb 6aa2 bfbb
00000070: 71d2 ac3c b175 67bd 1c5f c5bd 6e0f 2c3d
00000080: 933d 00be eda2 bd3c 66ee 943b 0c3d 1a3d
00000090: be50 873d d9b1 aebd 9036 a63c 8eff d2bd
000000a0: c6ae 1a3b 0c00 443d c2c5 28bd cd18 ba3c
000000b0: f050 10bd 7739 eebc 5e72 623b 2ba9 9fbd
000000c0: 7a5d b3bc 7462 c8ba 734c 29bd e28d 853d
000000d0: f336 773d 5430 96bd 2515 bb3b 4609 713b
000000e0: 8e79 273d f197 34bd be46 6f3d 1c74 8dbd
000000f0: d665 8c3d ef58 8ebd b211 94bc 2202 253c
00000100: 71ca 30bc 3b56 36bd 6dee e83c 096d 7fbd
00000110: 1389 42bd 7bae 193c 98f6 773d a0e6 113d
00000120: 4b18 65bd a0e9 473c 6749 c33c 74a8 9bbc
00000130: f892 1f3d b753 a6bc 6e5c 7cbd acef b4bc
00000140: 3763 1ebd 2263 f33c 4f19 303d 5baa 1ebd
00000150: 44ee 16bc e330 703d b769 febc c81a 4cbd
00000160: 7c01 743c aabc 5b3d 95ba 673c 2e16 a1bd
00000170: 568f 61bd 2e15 233d c2bc 35bc 6afa ea3b
00000180: d394 4abc 0e57 85bd e1d1 8cbc c45a 503d
00000190: 289f 1cbd 696f af3c 59c3 8dbc 6336 98bd
000001a0: 0c55 5bbd 02fb 1f3c ceb6 bdbd f3f8 d63c
000001b0: 0fd7 a4bc cab4 f23b 5e07 9a3b e5f8 9b3d
000001c0: fcaa 58bd 3a0d 98bd 51b0 eb3c 1e1a 08bd
000001d0: 245d b1bc ccff e93c ad03 cfbc 88dc 4abc
000001e0: 1f4e b7bd a561 883c 3a8e 113d 11e3 09bd
000001f0: 0e3b 96bd 3e33 e73c 1d8f 693c 6784 a5bb
00000200: 5aeb e33b c619 7abd b91b 173d 7c40 5fbc
00000210: 4823 40bc 9642 c6bc 4a56 3cbd 1c2e 9a3b
00000220: c18c 1d3d ee35 193d 8d50 15bd d11d 5b3d
00000230: a667 713c f3d0 813c b682 033d 496e 03bd
00000240: c5d4 35bd 0b93 45bb ac3e bebd c98d 893c
00000250: 01f3 ccbd e74e 80bd 39b3 9abb a65c 0a3a
00000260: 5788 013d e052 4bbd 70cc 5cbd d841 12bc
00000270: 15bb 73bd ec75 78bd abf4 d63b d99f 55bd
00000280: 0cff f3bc 43c9 733c 73c9 593d 2599 79bd
00000290: a584 e33c d630 66bc c1c6 bd3d 071d 813d
000002a0: 6d8d 1bbd 42e1 8bbc 7f1d 73bd 3d46 9d3c
000002b0: 88d5 99bd f77a e23d 0ecd adbc b4b0 4a3d
000002c0: 9fc6 003d e1aa 413d a66d a2bd 7d99 9cbd
000002d0: c02b a5bd ea66 f5bc 4cbb 1b3d 44c9 b03c
000002e0: 810a 183d 5f7e 40ba f377 933b 905d 70bd
000002f0: b06b 2f3d dfeb a9bd 1cb6 90bd 45ff 873c
00000300: c35f 113d 2f0f 3cbd f5cf e13c 52f9 eabc
00000310: 3152 8fbd 173c 13bd 86c8 c6bc 91f0 68bd
00000320: 6acb 2e3d 6069 27bd 53c3 45bd f0f7 dcbc
00000330: 4efb 3dbc 7171 0b3d 61c7 38bd d288 09bd
00000340: 574b e5bb a147 3b3d 127f 3a3c a41c c0bc
00000350: 2931 04bd f5f2 f43b 8bbc 683c 67ca 653c
00000360: a84f 263d 0dfd ee3c 7715 063b 4dd8 de3b
00000370: ade9 54bd 77ac 33bd 25f8 a2bd 9af3 53ba
00000380: e9dd 4dbd 191c f63d 6752 8cbd 1a3e 7cbd
00000390: 2373 b83c 6b0b 773c a073 51bd 498a cbbc
000003a0: e995 be3b 577e 33bc 2fb8 debc 880a 46ba
000003b0: 8d64 85bc 9438 99bc b9d3 ca3c 42d3 0abd
000003c0: d83e 1ebd be50 93bb ee1f 86bd 5cf5 a23c
000003d0: ff0b 72bd 3b82 85bd 54d2 c9bb 9b65 6abd
000003e0: 0b15 27bd f701 d13c f2f1 46bc 0854 0cbd
000003f0: 20b0 1b3c 6500 a0bd e6d5 453b 935d c3bd
-0.005662687 -0.061181292 0.03694234 -0.044254806 0.018312978 -0.006949048 0.042899974 -0.014821168
-0.05855508 -0.07280799 -0.015289068 -0.049872283 0.033555515 -0.031072268 -0.041285552 -0.09497025
-0.076781616 -0.044479106 -0.10546998 -0.0196728 -0.06104896 -0.018658193 -0.040445372 -0.07702582
0.056177028 0.030812189 -0.0021005576 -0.0058482187 0.02109644 -0.056508724 -0.09637281 0.042006902
-0.12523489 0.023148978 0.004545021 0.037655875 0.06607197 -0.085300155 0.02028969 -0.103026494
0.0023602708 0.047851607 -0.04120422 0.022716904 -0.035233438 -0.029080136 0.0034553031 -0.07795938
-0.021895159 -0.001528813 -0.041332673 0.065212026 0.060355138 -0.073334366 0.0057093077 0.003677921
0.040887408 -0.044090215 0.058417074 -0.06906912 0.06855361 -0.069505565 -0.018074844 0.010071309
-0.010790453 -0.04451583 0.028434003 -0.062359843 -0.047494005 0.009379978 0.060537905 0.03562033
-0.05593137 0.012201697 0.023838712 -0.019001223 0.03895852 -0.02030359 -0.061611585 -0.02208694
-0.038668837 0.029710356 0.042992886 -0.038736682 -0.00921208 0.058640372 -0.031056268 -0.049830228
0.014892932 0.05364672 0.014143606 -0.078655586 -0.055068336 0.03981512 -0.011092367 0.007170965
-0.012364584 -0.06510745 -0.017189922 0.05086781 -0.03823772 0.02141543 -0.017305063 -0.074322484
-0.053547904 0.009764435 -0.09263383 0.026241755 -0.02012208 0.0074068056 0.0047005853 0.07615832
-0.05289744 -0.07424398 0.028770598 -0.033228032 -0.021650858 0.028564356 -0.025270307 -0.01238168
-0.08950447 0.016648123 0.03553603 -0.033663813 -0.073354825 0.028222676 0.014255312 -0.005051184
0.0069555463 -0.061059736 0.036891673 -0.013626214 -0.011727162 -0.024201673 -0.04598073 0.0047052037
0.03846431 0.037404947 -0.036453772 0.053495232 0.014734184 0.015846705 0.032107078 -0.032087598
-0.044392366 -0.003014746 -0.092892975 0.016791241 -0.10007287 -0.062650494 -0.004721072 0.0005278088
0.031624164 -0.049639583 -0.053905904 -0.008926831 -0.059504587 -0.060659334 0.0065599284 -0.052154396
-0.029784702 0.0148795275 0.053170633 -0.060937066 0.02777321 -0.014049729 0.09266425 0.06304365
-0.03797667 -0.017075185 -0.0593543 0.019198531 -0.07511431 0.1105861 -0.021215942 0.049484923
0.03143942 0.047282103 -0.0793107 -0.07646463 -0.08064985 -0.0299563 0.038020417 0.021580346
0.037119392 -0.00073430495 0.004500383 -0.05868298 0.04282731 -0.08296942 -0.070659846 0.016601214
0.035491716 -0.045912918 0.027564982 -0.028683338 -0.06998099 -0.035945978 -0.024265539 -0.056870047
0.04267446 -0.040871978 -0.04828198 -0.026973695 -0.01159556 0.034043733 -0.045112018 -0.033577748
-0.0069975066 0.045722608 0.011382835 -0.023451157 -0.032273445 0.007475252 0.014205108 0.014025307
0.04060331 0.029173398 0.0020459571 0.0068006874 -0.051980663 -0.043865647 -0.07957486 -0.00080853107
-0.05026046 0.12017078 -0.068516545 -0.061582662 0.022515839 0.015078406 -0.05113566 -0.024846213
0.0058162105 -0.010955415 -0.027187435 -0.000755467 -0.016283298 -0.018703736 0.02475916 -0.033892877
-0.03863415 -0.004495709 -0.06549059 0.019892387 -0.05909347 -0.0651898 -0.0061591063 -0.057225805
-0.040791553 0.025513632 -0.012142645 -0.034259826 0.009502441 -0.07812575 0.0030187308 -0.09539332

actor_mean.0.bias f4 [256]
00000000: 0e1a 88bc 83a3 adbd f1db eebc d502 793c
00000010: 7d1c eb3c ee02 31bc 04f4 17bd bc5f d5bd
00000020: 4b1f e83b f598 18bd 29b3 56bd 5f02 1cbd
00000030: 6f6d 943c 23e7 94bd 05e2 f4bd 570b 4d3c
00000040: e787 4bbc a254 2dbd 6205 35bd 7c8f d2bd
00000050: a161 a4bd 046b 9ebd 4c20 04bb 95c1 b7ba
00000060: 1568 35bd 3e8e 4fbc e27b 88bd 2b05 19be
00000070: 3b1e 9cbd 8243 75bd 0049 cbbd c9fd 2ebd
00000080: 10db d5bd 4550 a7bc 8b2f 97bd bd73 3f3c
00000090: e04d 2bbd bfc9 ad3c da68 ce3d 89fa a5bd
000000a0: 00be 7bbb 6370 91bd 6099 65bd 86d0 5bbd
000000b0: 3442 ea3c 9a58 b5bc dfb7 1bbe ba69 e13b
000000c0: b37c 77bd 4ac2 ed3b 9e1d 94bd 2e22 603d
000000d0: 1316 81bd 5820 f5bc 78e1 9bbd 3e90 99bd
000000e0: 3d6c 87b9 718b 67bd 5a22 ebbc 9e08 4bbd
000000f0: 716f 543c 818f d3bc b308 c4bd 7cec 00bb
00000100: eea4 6dbc 87ef cfbd 7e20 3cbd afa6 cc3b
00000110: 8384 72bd 8c6a 34bd 9246 fcbd 0ada cebd
00000120: 32e8 a8bd 4d86 883d d75b 98bd 333c 82bc
00000130: ec0a 4fbd 9172 e4bd cdad b4bd 0a15 5dbc
00000140: 1098 58bd 67dc bdbd 2316 ac3c fb0b 0fbe
00000150: ceb1 61bd 55a9 703d bfb5 81bd 120d babd
00000160: 11da c13c 2ec3 64bd fd03 ccbc 883d d13b
00000170: 0347 eabd 82f7 363d 69ae 293c b255 dabc
00000180: 01fa cfbd 8584 00bd 4bd0 c9bd e68e 863b
00000190: a105 393c 3d63 09be 0262 87bd 55ac 6cbd
000001a0: f3da 54bd d4bb d7bd d1bb cdbd 33a9 28bd
000001b0: b01d 62bc 1269 bdbc f0d7 e2bb 14dc 08bd
000001c0: 86d9 1abc 9cc5 a13d 7bd1 cabd 0be9 21bd
000001d0: ce6f 17bc 7012 93bb f6a9 99bd a493 47bc
000001e0: 43b7 36bd 5d25 9ebd 0607 a23b 452b e8bc
000001f0: feac 40bd f21b 163c 3795 16bb e957 63bd
00000200: 5988 efbc ed33 f0bc 497b 97bc 3213 a6bc
00000210: d1a7 19bd e37f 3bbd 9e59 02be 76a0 8abd
00000220: c897 51bd 23a0 3cbd 2a97 90bd ce43 a7bd
00000230: cdff 0ebd d438 a4b9 14da ec39 d667 73bc
00000240: 090e 8dbd 3c00 c13c 06d3 18bd 8d4a 19bd
00000250: b518 9bbd ee67 b93c 9d50 fbbd b61b f3bd
00000260: 9860 d5bd c551 a33a 0850 313c a813 bbbd
00000270: 6f0a e23b 24b8 4e3b 148e ec3a b537 883c
00000280: 4819 a9bd d4cc c33d 87e6 2bbe 532f 98bd
00000290: 258a 72bd 039d 693c 6045 d13c 6094 a5bd
000002a0: 4fb8 f6bc b3b2 083d f6c9 87bd 18f3 c1bc
000002b0: 15b8 fdbd 7bc0 7bbd 01c8 563c 53e2 513c
000002c0: b178 4dbd d729 b33c 6e9b b13b 659d 163d
000002d0: 35b9 c9bd 98fe 02bb 2f52 07bb f8aa 2a3d
000002e0: 418a 1cbb 3ef2 81bd 8e6e 43bd aa43 b0bd
000002f0: 3a98 e2bc 874b dabc af8a 85bd d720 57bd
00000300: 5bd9 35bc a16e ac3c 9a85 6e3a f622 48bd
00000310: 8ce2 bebb a560 0fbe 122a debb 3924 8cbd
00000320: 8672 10bd 269b 193d 4ab5 b9bd 8206 82bd
00000330: 77f3 d7bc 7072 8fbd 845e 27bd 0d3a 8ebd
00000340: 9589 b4bd 4970 87bd 03f7 e2bd 1b2d 01bd
00000350: 037b 6dbd e769 f53c a3ca 3d3d c583 843c
00000360: 3001 203d cc91 9cbd a0ba c5bb 4cc8 9bbd
00000370: 90cc 7ebd 0b6d 09bd 13e2 65bd 9375 0d3d
00000380: 7fee c1bc 48f9 c4bc ad80 5abc 1672 793b
00000390: 3ac1 433d 8c8b 63bd fde6 2b3d 8222 b2bd
000003a0: 59ee 8fbd 033b 57bd b13c c73c a65c 8dbd
000003b0: 225f 3ebc ec49 943c e4f0 b2bc ad10 803c
000003c0: 9abf 163d f514 4bbc a6b1 42bd fbb2 0cbc
000003d0: a08e 01bd 6dcd dabd 937d 07bd 6f1b 44bc
000003e0: 6a0e a9bd cfba a13c 5897 3e3d a104 44bd
000003f0: 88ec 8a3d b1f5 22bd 63f6 e3bc bf0a 4fbd
-0.016613986 -0.08478453 -0.02915761 0.015198429 0.028700108 -0.010803921 -0.037097946 -0.104186505
0.0070838085 -0.037255246 -0.052416954 -0.0380882 0.018118588 -0.07270648 -0.11957172 0.012514911
-0.012422538 -0.04231704 -0.044194587 -0.10281274 -0.08026434 -0.07735255 -0.0020160852 -0.0014019484
-0.044288713 -0.0126681905 -0.06664254 -0.14943378 -0.076229535 -0.059878834 -0.09926033 -0.042722497
-0.104421735 -0.020424018 -0.07382115 0.011685309 -0.041822314 0.021214364 0.100785926 -0.081044264
-0.003841281 -0.07101514 -0.056054473 -0.05366566 0.028596021 -0.022136975 -0.1520686 0.0068790587
-0.060421657 0.007255827 -0.072322115 0.054720096 -0.063030384 -0.02992265 -0.07611364 -0.07498215
-0.0002582985 -0.056529466 -0.028702904 -0.049568765 0.012966023 -0.025825264 -0.09571972 -0.0019672206
-0.014504654 -0.10153108 -0.045929424 0.006245456 -0.059208404 -0.044046924 -0.12318148 -0.101001814
-0.08247413 0.06666241 -0.07439392 -0.015897846 -0.050547525 -0.11154664 -0.08822212 -0.013493786
-0.052879393 -0.09270554 0.02100665 -0.13969414 -0.05510121 0.058755238 -0.063334934 -0.09084524
0.023663552 -0.0558502 -0.024904246 0.006385509 -0.11439326 0.044669636 0.010356524 -0.02665219
-0.10155106 -0.03137638 -0.09854182 0.0041063903 0.011292846 -0.13416763 -0.066104904 -0.057781536
-0.05196662 -0.10533872 -0.10045589 -0.041176986 -0.013801023 -0.02312139 -0.0069227144 -0.033413008
-0.009451276 0.07899019 -0.099032365 -0.039528888 -0.009242965 -0.004488282 -0.075031206 -0.012181196
-0.044608366 -0.0772197 0.004944685 -0.028340945 -0.04703998 0.009161936 -0.0022977123 -0.05550376
-0.02923982 -0.029321635 -0.018491404 -0.020272825 -0.037513558 -0.04577626 -0.12729499 -0.06768887
-0.05117014 -0.046051156 -0.07060082 -0.081672296 -0.03491192 -0.00031322858 0.0004517591 -0.014856299
-0.068874426 0.023559682 -0.037310623 -0.037424613 -0.07573072 0.022632565 -0.12271235 -0.1187052
-0.104188144 0.0012460282 0.010822304 -0.091346085 0.0068982164 0.0031542862 0.0018047714 0.016628126
-0.08256775 0.09560552 -0.16787158 -0.074309014 -0.059213776 0.014258626 0.025545776 -0.08084941
-0.030117182 0.033373546 -0.06630318 -0.023675486 -0.123886265 -0.06146286 0.013109208 0.012810308
-0.05016393 0.021870537 0.00542014 0.036771197 -0.098497786 -0.0019988175 -0.002064835 0.041666955
-0.0023886117 -0.06345032 -0.047712855 -0.08606656 -0.027660478 -0.026647342 -0.065205924 -0.052521553
-0.011099185 0.021048846 0.00090988877 -0.048861466 -0.0058253463 -0.1400171 -0.0067799175 -0.068428464
-0.035265468 0.037501477 -0.09067781 -0.063488975 -0.02636121 -0.07004249 -0.04086162 -0.06944666
-0.08815304 -0.066132136 -0.1108227 -0.031537157 -0.05797864 0.029957725 0.046335828 0.016176114
0.039063632 -0.07644996 -0.0060342103 -0.07606563 -0.062206805 -0.033551257 -0.056123804 0.034535956
-0.023673294 -0.024044648 -0.013336343 0.0038062385 0.047791697 -0.055553004 0.041968334 -0.08697988
-0.07027883 -0.052546512 0.024320932 -0.06902437 -0.011619361 0.018101655 -0.021843381 0.015632952
0.03680382 -0.012395133 -0.0475327 -0.008587594 -0.03163016 -0.10683713 -0.03307874 -0.011969431
-0.082547024 0.019742398 0.04653105 -0.047855977 0.06783396 -0.03978509 -0.027827447 -0.050547358

actor_mean.2.weight f4 [4, 256]
00000000: 344c 4e3d 9bc8 03bd a0a8 733c 7187 3fbd
00000010: a184 433d d180 a23d e647 ba3d b561 033e
00000020: 0f13 bfbc 4b0a 5bbe 9ba7 19be dee7 6cbd
00000030: 1d95 b43e a313 f63c 40d5 333d 2086 1e3e
00000040: a98d b0bd c9da 3cbd fae7 853c 2604 f6ba
00000050: 2e99 383d d056 1abe aafc 1dbd b2d6 853e
00000060: b068 013e b565 3dbb 5471 f3bd e693 02bf
00000070: 8517 23be 71cd e83c f5d2 0d3e 0484 40be
00000080: cf86 2e3e a77b 2e3e 3a3c bfbb 7763 c2bc
00000090: 309d 40bd ef8b d23e 7966 873d 72ee ddbd
000000a0: 6982 553e b02c 273d ddc5 723e 7cb7 9dbd
000000b0: 6373 2bbe b165 10be 8f2e 53be 533a c63d
000000c0: f971 6ebc fc94 d83d e36a 1b3d 4c1d 413d
000000d0: 9f8e 3b3c ddba babc 57d8 eebc 275d 773a
000000e0: 33cc 30bd 3bd7 aabe 1fbe 8d3d 3d88 c1bd
000000f0: 0483 87bc 1864 1bbe f837 12be 8558 af3b
00000100: a73b 8d3b 5c00 bbbd 13c9 92bb 2d3b 60bd
00000110: b61e 5a3d cab2 3a3e 6dde 8bbe a844 e93c
00000120: 0602 2f3d e988 d43e 8698 3abe 4261 7a3e
00000130: d57c f63d fde5 733e c5ab 8bbd eb31 a1bd
00000140: f8cb ef3b 01b0 48be 348f 8f3d 0c5c 943e
00000150: ccba 26be 79d3 a03e d035 3d3d d3c9 8b3d
00000160: 0e3f cd3c 36b7 5fbe ed82 db3d f8c3 b6bd
00000170: c4a7 223e 163e bcbc d9b9 64bd 598e fd3d
00000180: 6c29 193f 29f6 073e 7ae3 a4bd d849 a23d
00000190: 17d8 c63c fb10 473e 74d3 b8bd 3ed8 133e
000001a0: e5e9 dabc 372b 23be d291 0b3d 3273 133d
000001b0: 4ff5 29bc c06d e93c 07b3 643e 13bb f13c
000001c0: 3d37 b8be ff66 4dbe c13c abbd f27a f23b
000001d0: a4d9 85bd 5fe1 9b3c 4cb9 09be a9d8 653e
000001e0: dd5a 49bc 425d e3bd 3d15 04be de55 72bd
000001f0: 2fb3 74bc 4dec 8f3d 4863 e53c b6c9 77bd
00000200: 4558 393d 2b79 debd f0d2 7a3d 6085 c9be
00000210: 6dd5 303d f0f4 0ebc 407d bcbe 7215 683d
00000220: 0958 243e bab1 edbd cde5 3abe 554f 1c3e
00000230: 8444 26bc e673 233d 5ddf 2f3e 09b4 5c3d
00000240: 1834 2a3e d58b 5d3c 20a7 4fbc 42a9 b9be
00000250: f156 943c f882 25be 8b72 153e 5b84 2cbd
00000260: cb0f 77bc 251d 31be b19e 2bbd 167d 80be
00000270: 4276 c13c 59ea ec3d 809e 113c cf92 353e
00000280: b1d5 5cbe 351f c9be c308 bebe b724 6d3c
00000290: 9aa3 40bc f5d6 c1bc 5f16 453b 8621 8dbe
000002a0: dca9 4b3d 2d0b dfbd 3aae ffbd e8f6 f8bc
000002b0: 3560 18bd bd92 52be 88a5 773d 735e 3f3d
000002c0: 4308 8a3d 97dc 043e c936 163d 0850 97bc
000002d0: d3d5 c93d b8be 9d3d 8084 1f3e 49a3 2ebc
000002e0: 8bf4 b63d 7dcc 88be b502 4fbe 0c04 cdbd
000002f0: da6d 713d 6726 62be f488 08bc ee08 6cbd
00000300: 56e5 cfba 7e93 1b3a 572c 8bbb eb3e f1bd
00000310: 45fd 843e 6d9a 05bf 9b61 b9bc daa3 653e
00000320: 5ee7 d53d 86fe df3b e9a8 a0bd 1c6e 56bd
00000330: 40db 2abe ef03 4abd 452b c9be 6927 573d
00000340: f15f c63d a5e1 34bd d933 02be 00e4 9d3c
00000350: 12d7 0ebd c0f4 f73c baff 80be c52e 9abc
00000360: 5bb8 34bd c5e5 3b3d baa5 723d f931 843e
00000370: ff94 2dbc 26cf 2b3c f071 893b 386b 46bc
00000380: b40b 2dbb 4279 463d efb9 27bd 282b 22bd
00000390: e1b3 a23c 99f7 32bd c340 c2bd ee69 e43d
000003a0: 68e9 893d f559 40be 6869 87bd 6ddf 1bbd
000003b0: 6c48 593e cd0b e73d 2de0 953c 522b b93d
000003c0: 517d e0bc b634 4ebe c705 3a3d 1020 75bb
000003d0: 0249 503c 39d3 e3be 6c42 3ebe 43ac 47be
000003e0: 7530 b23c 9953 303d 6182 09bd e206 603e
000003f0: ea86 24bd 0605 043e 6441 dd3c f0a0 f83c
0.05036564 -0.032173734 0.014871746 -0.046760026 0.047733907 0.07934726 0.09095745 0.12830241
-0.023324518 -0.21390645 -0.15005343 -0.057838313 0.35270014 0.03003866 0.043904543 0.15480852
-0.086207695 -0.046107087 0.016345967 -0.0018769547 0.04506796 -0.15072179 -0.038571037 0.26140362
0.12637591 -0.0028899733 -0.1188685 -0.51006925 -0.1592694 0.028418275 0.13850005 -0.1880036
0.17043613 0.17039357 -0.005836037 -0.02372907 -0.047024906 0.41122386 0.06611342 -0.108364955
0.20850529 0.0408141 0.23708291 -0.077010125 -0.16743235 -0.14101292 -0.2062323 0.09679093
-0.01455354 0.105752915 0.037943732 0.04714708 0.011447578 -0.022794181 -0.029155893 0.0009436183
-0.04316349 -0.33367333 0.06921028 -0.094498135 -0.016541965 -0.15174901 -0.14279163 0.0053511285
0.0043100896 -0.09130928 -0.0044795363 -0.054743934 0.053251944 0.18232265 -0.27318135 0.02847512
0.04272654 0.41510704 -0.18222246 0.24451163 0.120355286 0.23818202 -0.06819872 -0.07870849
0.007318016 -0.1959839 0.07009736 0.28976476 -0.16282195 0.3141134 0.046193898 0.06825604
0.02505448 -0.21847233 0.107183315 -0.08924097 0.1588431 -0.022978824 -0.0558413 0.12380666
0.5982883 0.13277496 -0.080512 0.07924241 0.024272962 0.19440071 -0.090247065 0.14437959
-0.026722858 -0.15934454 0.034074612 0.03599853 -0.0103734275 0.028494716 0.22333919 0.02950815
-0.35979643 -0.20058821 -0.08361197 0.00739991 -0.06535652 0.019028364 -0.13449591 0.2244593
-0.01228973 -0.11101772 -0.12898727 -0.05916392 -0.014935299 0.07027493 0.028001443 -0.0604951
0.045250196 -0.10862955 0.061236322 -0.3935957 0.04317229 -0.00872539 -0.36814308 0.056661077
0.16049208 -0.11606164 -0.18251725 0.15264638 -0.010148171 0.03990545 0.1717505 0.053882632
0.16621435 0.013522108 -0.012674123 -0.36261946 0.018107863 -0.16163242 0.14594476 -0.04211841
-0.015079449 -0.17296274 -0.041899387 -0.25095433 0.02361596 0.11568136 0.008887887 0.17731784
-0.21565892 -0.39281622 -0.3711606 0.0144740855 -0.011757756 -0.02366207 0.0030073149 -0.2756464
0.049722537 -0.108908035 -0.12484403 -0.030391172 -0.037201125 -0.20563789 0.060460597 0.046720933
0.06739857 0.12974773 0.03667334 -0.018470779 0.09855237 0.07702392 0.15577888 -0.010659047
0.089333616 -0.26718512 -0.20215876 -0.100105375 0.058942653 -0.22084962 -0.008333433 -0.057625704
-0.0015861194 0.0005934759 -0.004247229 -0.11779579 0.2597448 -0.5218876 -0.02262955 0.22425786
0.104445204 0.0068357615 -0.07844717 -0.052351102 -0.166852 -0.049320158 -0.39290825 0.05252782
0.09686268 -0.044160504 -0.12715091 0.019273758 -0.034873076 0.030268073 -0.25195104 -0.01882113
-0.044121128 0.045873422 0.05924008 0.25819376 -0.0105946055 0.0104864 0.0041944906 -0.012110524
-0.002640468 0.048455484 -0.040948804 -0.03959194 0.019861164 -0.04369316 -0.094850086 0.11153017
0.06733972 -0.18784316 -0.066119015 -0.038054872 0.21219033 0.11281548 0.018295372 0.09041466
-0.027403506 -0.20137295 0.045415666 -0.0037403144 0.012712719 -0.44497088 -0.18580025 -0.19499306
0.021751622 0.043048475 -0.033571605 0.21877626 -0.040167727 0.12892541 0.02700872 0.030350178

actor_mean.2.bias f4 [4]
00000000: 8e9e bd3c 3a19 6a3d 7e56 903c 03af a73c
0.023146894 0.057152964 0.017619368 0.020469194

critic.0.weight f4 [256, 256]
00000000: c43c 8a3e 88a0 493e a382 c2bd 99fd c43e
00000010: 4fe7 08be ef0a 8fbd 3437 babb 9b19 85bd
00000020: 9945 2abe ef43 e5bd 2803 273e d323 543d
00000030: c7f8 063d 62f5 c33d d484 36be 66aa ad3c
00000040: 8a9d dd3c b611 463e 2549 eb3d adfa 303d
00000050: 4f4d 55bd 6d3f bb3d 7796 813e 3e25 dfbd
00000060: b80c 3abd 3257 5a3e d2cc fabc 5a39 efbd
00000070: 3db1 d0be 0819 0cbd e9ab b33d 3b90 433e
00000080: c397 7b3d 1b39 dabd 1814 033e 61c6 393e
00000090: 5c03 71bc f413 e6bd 95c2 01be 4aa7 093e
000000a0: 3a48 a83d d378 003e 6968 b33d 4753 e8bc
000000b0: d23f 703d 0f95 a63e 81fa e0bd 14a9 3e3b
000000c0: 7b82 11be 7171 6f3e f102 bcbc 5051 743c
000000d0: bcdb 4ebe beaa 05be 4c6d 3dbe 61a1 9dbc
000000e0: df53 123e 41d7 903e 3eb7 aebd 6765 8a3d
000000f0: 933a 223e c11d 6d3c ffdb 26be 65f6 c33e
00000100: 3822 15be 5c49 60bd 3348 f6bc 26e8 c73d
00000110: 17b9 393e 1666 a03d ef0b 4ebe 65cc 543d
00000120: b632 5fbe 6dc3 87be e25f 893c 753d ec3d
00000130: 3d48 dcbc 190c ccbd 92ec bdbe a1fd c5bd
00000140: 7506 5c3e 02b0 1a3e fa4d 583d 9c51 683c
00000150: bd14 1c3e 0f9e 9a3b 2046 d6be 7941 b1bd
00000160: 8223 26be 6860 06bd 9c45 f33d b5e6 483d
00000170: 9211 dfbe 0625 24bd 4a31 903d dd41 8f3d
00000180: b822 f3bd affa 43bd 8fe7 4c3d b39d a53d
00000190: 9e70 e03c 25cb bb3d 1809 3fbd 5395 3d3e
000001a0: e505 be3d aa7b cd3d 82ea d73e 45a2 04be
000001b0: 915e 31be 6bf9 863d 45c3 e8bd 0037 22be
000001c0: 6220 713d 7c25 0c3d c946 06be 44dd 873a
000001d0: 4679 483e 7c64 2e3e 6b75 9d3d 6d3f 81bd
000001e0: 2d2c f83d ac6a 3d3d 075a 87bd 157f b0bb
000001f0: 1e11 28be 57ce 183e 0d40 b23c cdc2 143b
00000200: 5207 ecbd cd13 bcbd 06b4 7d3e c038 123d
00000210: ac6c 9c3e cb87 debd 76d8 9fbd 1fe1 493d
00000220: bbbb 4f3e 0f33 97bc 5d49 c93d 1ad8 e53e
00000230: 8f11 003e fa3f 61be 2928 fa3d cb5e 36bd
00000240: db0a 143e 9f6b 253e 765f b4bb 55a0 8e3c
00000250: 7580 c0bc c203 253d 5b2e 39be a754 a6bd
00000260: 8462 af3d 1539 afbe 9eb5 1a3e e2fc dfbc
00000270: d307 1c3e c06e 22be 43d3 883e 4353 65be
00000280: 7eb0 cabd 3870 62be 772c e73c f18b ed3c
00000290: 19b1 fd3a ce6d a63d 3683 18be e0ff 69be
000002a0: 94e8 0dbd 0d60 b03e 187c 153d a800 b83c
000002b0: 9fb4 223d efea 3d3e 9f85 b73c 12ef f8bd
000002c0: 59fd 693e b865 ef3d 5d6e adbd 40ab 53be
000002d0: ad2b 2f3d b69a 94be 10ae df3d 4223 96bd
000002e0: f106 efbd caaf 483d cf05 1ebb 16d4 623e
000002f0: fd44 0b3d 840d 1bbe 152e 29bd 33bc a3bd
00000300: 1c9d 3c3c 5a34 223e 7f2c 51be 754f 68bd
00000310: d7ab a6bd bb86 b6bd 1ec7 573e 0793 b63c
00000320: ebad d13d 4556 4bbe ba96 323b a94b a23e
00000330: b729 16bd 34ae 993d 3b45 bebb 1c1c 913c
00000340: c06b 7c3e fafe 22be c66a 7fbd a9b3 b5bd
00000350: 2757 8a3d 10f4 b7bd 7f7c 56bd 632a 5ebe
00000360: 3d63 1ebe 489f 6b3d 9db6 14be e4e3 8b3c
00000370: 4e41 09be 7bb3 b5bd 83be 15be 137c 2cbe
00000380: 5acc 44be 221a 83be ca3f 853d 918a d5bd
00000390: ef67 bcbd c84b 4b3b 7d3d 63bb baa6 3a3d
000003a0: 15ec 96bd 3e42 0c3d b068 8e3b e490 8ebe
000003b0: 1850 df3d 1e78 80be 8849 a13d f59b 21bd
000003c0: 3307 fabd 6d23 923e e704 45bc a4a2 453d
000003d0: baa9 ddbd 6360 5b3d 066d 1cbe d823 c53c
000003e0: 105b eebd d948 bb3d 0a7d 97bd fa17 05bd
000003f0: 6497 02bd a203 9a3d d44b 0cba a74d 9f3d
0.26999485 0.19690144 -0.09497573 0.3847473 -0.13369487 -0.06984507 -0.0056828503 -0.064990245
-0.16628112 -0.11194598 0.16309798 0.051791977 0.032952096 0.095682874 -0.17824107 0.021199416
0.02705266 0.19342694 0.114885606 0.043207813 -0.05207568 0.09142957 0.25310108 -0.10895775
-0.045422286 0.21322325 -0.030615244 -0.11680861 -0.40760222 -0.03420356 0.08773024 0.19097988
0.061424028 -0.10655423 0.12800634 0.18142082 -0.014710274 -0.112342745 -0.12671883 0.13442722
0.08216901 0.12546091 0.08760149 -0.028360022 0.058654614 0.32535598 -0.1098528 0.0029092478
-0.1420993 0.23383118 -0.022950621 0.014911965 -0.2020101 -0.13053414 -0.18498725 -0.01924199
0.14289807 0.28289226 -0.085310444 0.06757622 0.15842657 0.014472426 -0.1629486 0.38273922
-0.14563835 -0.05475746 -0.030063724 0.09761076 0.18137012 0.07831971 -0.2012174 0.05195274
-0.21796688 -0.26516286 0.016769353 0.115351595 -0.026889915 -0.09963245 -0.3709455 -0.096675165
0.21486838 0.15106204 0.05280874 0.014179613 0.15242286 0.004718549 -0.41850376 -0.08655066
-0.16224483 -0.032806784 0.11878511 0.049048144 -0.43568093 -0.04007437 0.07040651 0.06994984
-0.118718565 -0.047846492 0.05002552 0.08086719 0.02739745 0.09169606 -0.04663953 0.18513994
0.09278468 0.10033353 0.42171103 -0.12952526 -0.1732123 0.065905415 -0.1136537 -0.15841293
0.058868773 0.034215435 -0.1311294 0.0010365625 0.19577512 0.17030519 0.07688411 -0.06310926
0.12117801 0.04624431 -0.06608968 -0.005386243 -0.1641278 0.14922462 0.021759057 0.0022699118
-0.11524834 -0.09183464 0.24775705 0.035698652 0.3055166 -0.10865744 -0.078049585 0.049286958
0.20286457 -0.018456964 0.09828446 0.44891435 0.12506698 -0.21997061 0.12214691 -0.044523995
0.14457266 0.16154335 -0.005504544 0.017410437 -0.023498753 0.040286787 -0.1808409 -0.08121615
0.08563712 -0.34223238 0.15108344 -0.027342264 0.1523736 -0.1586256 0.2672368 -0.22395043
-0.098969445 -0.2211312 0.028219445 0.028997393 0.0019355147 0.08126412 -0.14893803 -0.22851515
-0.034645632 0.3444828 0.0364953 0.02246125 0.039723035 0.18546651 0.022402583 -0.12154974
0.2285055 0.11689323 -0.08468316 -0.20670795 0.04276626 -0.29024285 0.10921872 -0.07330944
-0.11671246 0.04899577 -0.002411235 0.22151217 0.03400134 -0.15141875 -0.041303713 -0.079948805
0.011512067 0.15840283 -0.2042713 -0.0567164 -0.081382446 -0.089124165 0.21072051 0.022286905
0.1023825 -0.19857128 0.0027250485 0.3169835 -0.036660876 0.0750393 -0.0058065928 0.017713599
0.24650478 -0.15917578 -0.062357686 -0.08872158 0.06754904 -0.08982098 -0.052364822 -0.21695857
-0.15467544 0.05752495 -0.14522786 0.01707644 -0.13403818 -0.08872124 -0.14623456 -0.16844206
-0.19218579 -0.25605875 0.065063074 -0.1042682 -0.09199511 0.003102051 -0.00346741 0.04556916
-0.07369248 0.03424286 0.004345976 -0.27844918 0.109039485 -0.25091642 0.07875353 -0.039455373
-0.122084044 0.28542653 -0.012025095 0.04825081 -0.108233884 0.05355872 -0.15275964 0.024064943
-0.116384625 0.09144754 -0.07396896 -0.03249357 -0.03188266 0.07520224 -0.00053518754 0.07778483

critic.0.bias f4 [256]
00000000: e075 043d a9ad 813d 9330 2d3e c1a5 cc3d
00000010: e77d 083c 19b4 f73c 55fe 8a3d 9dee e53d
00000020: e62e fd3d 3472 eb3d cfb4 e73d 6434 65bc
00000030: b12f 6b3d cf30 eb3d 8a1d 7f3c 54d3 dc3d
00000040: 0e50 94bd 3926 403c b83b ae3d 9afc edbc
00000050: 6d2e 553e 965f 253a 69a9 24bb 6bde 0e3e
00000060: 7efc c83d 80f2 0a3e 882d de3b 2751 fa3b
00000070: 2df4 193e beae 3ebd 90cb b43d 6258 1e3e
00000080: 41a7 ed3c 67f6 cc3d 475c 7a3d 1c6b 083e
00000090: 0b44 1f3e f77b 333d 7dd9 243e 4df2 453d
000000a0: 5f8f 4e3d 388e 563d 1300 a43d 056c 71bd
000000b0: 3037 bd3d 87e5 003e bc53 083e 963c 22bd
000000c0: b838 29bd 0a45 73bd 1206 8bbd f602 103e
000000d0: 4e30 35bd c22e 943d 748d 5c3c b255 f63d
000000e0: 5667 003e 7b57 093d ca54 013e a6d9 1f3d
000000f0: 9b8c 44bd 2eb5 1f3e 6e93 c83c c672 1d3e
00000100: 3ba0 303e fe31 0a3e c0c2 923d 7081 e63d
00000110: 1161 a4bb d83a 9dbc b3e6 b93c 9933 4b3e
00000120: 4fb6 93bb d23b 483d ab9e 523d 0be6 f43d
00000130: a535 f43c 7b7a 243d 3126 2abd a4e9 183e
00000140: bff8 1c3e f54a 443d bf2a b33d 99f9 793d
00000150: 302b 62bd dbda ff3c 2142 643d d344 4abd
00000160: 7a54 103e 00ee 74bd d47a f43d 1889 c13d
00000170: 96ee 983d 6429 9bbd 2f7a 123e 5631 bb3d
00000180: 134b 88bd bc28 293c 30a1 d53d 221c debd
00000190: 4bd5 2d3e 6661 0739 c34f 733d 628c c93d
000001a0: 41ac 243e 057a 353d a843 d8bc 9e00 a23b
000001b0: 661d 4c3d 0d75 793d c39f 07bd 2977 053d
000001c0: ad29 3bbd 9936 db3d c8d0 183e efb5 413d
000001d0: a77e f33d 3800 153e 6667 f73d 65a6 02bd
000001e0: 2cbf e93d 9b36 133e 6f8d a83d f58d 99bc
000001f0: 1b08 08bd b814 74bd 6643 be3d 8358 57bc
00000200: eb3b b0bc dd51 993d fabb c33d 16fa 5a3e
00000210: 9d8b 5ebd c429 363c d608 633c 0b6d 033e
00000220: 0a1c 553d 34e2 a93d dc9e cc3d fcb8 723c
00000230: 43ae 413d 049b e93d 2eab 963d 46f8 703d
00000240: 26ab 85bd a8c4 75bd 13be 923d 7930 273e
00000250: 6570 89bc be44 073c a67a ba3c 1dd2 493e
00000260: 8e15 7abc 8e59 d93d d836 53bd 3aa7 063e
00000270: e3be 363e 466f 03bd 21f3 2c3e ef3a 033e
00000280: 35d1 ca3d 6483 b43d 5aef dd3b 4361 dc3d
00000290: 0c55 d23c e7a2 4e3e b60f 013e 9626 b83b
000002a0: e75b 813d 28be 1c3e 7395 dc3d f1e8 ea3b
000002b0: 0c75 323e f136 cfbc 95ba 26bd c32d 023d
000002c0: 187e 9d3d b8ab d03d 5bd3 823d 1ae3 8f3d
000002d0: 028c 163e 1501 a53c cdd9 cf3d b042 6e3e
000002e0: c6a7 243e 54bb 083d edbb c23d 2034 b93c
000002f0: 9797 ecbc 62f4 993c 66b3 163e 5c55 8f3c
00000300: bda7 153d ffbc 023e 6fc0 7abd c9d5 123e
00000310: afe4 f3bc 85ab 35bc 88ee cc3d cdc6 9abd
00000320: 1592 b93d 4f0a 0c3e 4a59 0bbd cb0a 903c
00000330: bdec 9abb 4d13 2f3b b328 f63d fc4f 323d
00000340: f7a1 153c d5c2 233d 6417 11bd f3ee c63d
00000350: d9e0 713c dc6f 9bbb 626c d13d b497 42bd
00000360: fcf4 993d aef6 b03d babf 64bd 0d1a 8cbc
00000370: 32a5 2abc 4dc5 183d 20b7 403e cd46 dd3d
00000380: 1735 da3d 0674 5f3c f089 3d3e cb36 ea3d
00000390: 2d6c 6ebd 012e d83c 44c5 f93d a0c0 a43b
000003a0: e9a7 96bd 7b12 3fbd 9f91 d83d 6ef8 c33d
000003b0: f62e c1bb eff9 c33b 6ebb a63d 6afe be3d
000003c0: eb37 fa3d d3dd 3e3d cebe 3d3e 3d4d 673c
000003d0: 657e 353d 000c af3d 0b73 0a3d aba1 cf3c
000003e0: c4d3 413d 1a1f 3ebd dc10 a5bd c4f1 be3d
000003f0: 72d3 97bd 3ff5 78bd 7eb6 3c3e e6ca b63d
0.032338977 0.06331951 0.16913061 0.099925525 0.008330799 0.030237244 0.06786791 0.112271525
0.12362461 0.11496392 0.113137834 -0.013989542 0.05741853 0.11483919 0.0155710075 0.10782495
-0.07241832 0.011727863 0.08507484 -0.029051114 0.20818491 0.0006308494 -0.002512539 0.13952033
0.09813784 0.13569069 0.00678033 0.0076390686 0.15034552 -0.046553366 0.08827889 0.15463403
0.029010417 0.10007935 0.06112316 0.13322109 0.155533 0.043819394 0.1609859 0.04832678
0.050429698 0.052381724 0.08007827 -0.058940906 0.09239042 0.12587558 0.13313192 -0.03960856
-0.041313857 -0.059392013 -0.06788267 0.1406363 -0.04423552 0.07235481 0.013461459 0.12028064
0.1253942 0.033530694 0.1263 0.039025925 -0.047985654 0.15596458 0.024484362 0.15375814
0.17248623 0.13495633 0.07166052 0.11255157 -0.005016454 -0.019193098 0.022693014 0.19843902
-0.004507817 0.048885174 0.05142085 0.1195794 0.029810736 0.04015587 -0.04154033 0.14932877
0.15329264 0.047923047 0.087483875 0.06102905 -0.055216968 0.031232288 0.055727128 -0.049382042
0.14094725 -0.059797287 0.1193749 0.09449977 0.07467382 -0.07576254 0.14304422 0.091402695
-0.06654944 0.010324653 0.10431135 -0.1084521 0.16975896 0.00012910887 0.05940224 0.09841229
0.16081335 0.04430582 -0.026399449 0.004943921 0.049832724 0.060902644 -0.033111345 0.032584343
-0.045694042 0.10703773 0.14923394 0.047292646 0.118893914 0.14550865 0.120802686 -0.031896967
0.11413416 0.14376299 0.08230101 -0.018744448 -0.033210855 -0.05959007 0.09290199 -0.013143661
-0.021512946 0.07486317 0.09557338 0.21384463 -0.054332364 0.011118356 0.013857087 0.12834565
0.052028693 0.08295098 0.099912375 0.0148146115 0.04728533 0.1140652 0.07356869 0.058830522
-0.065267846 -0.060002 0.0716516 0.16327085 -0.016777227 0.0082561355 0.022763561 0.19709058
-0.015263928 0.10612784 -0.051565975 0.1314973 0.17846255 -0.03208854 0.16889621 0.1281545
0.09903184 0.08814123 0.0067729177 0.10760739 0.02567532 0.2017933 0.1260365 0.005619834
0.06316357 0.15306914 0.10770693 0.007168882 0.17427462 -0.025294753 -0.040705282 0.031781923
0.07690066 0.10189003 0.06387969 0.07025738 0.14701846 0.020142118 0.10148964 0.23267627
0.16079625 0.033381775 0.095085 0.022607863 -0.028880877 0.018793289 0.14716873 0.017496757
0.03653692 0.12767409 -0.061218675 0.14339365 -0.02977213 -0.011088257 0.10006434 -0.075574495
0.09061066 0.13675807 -0.0340207 0.017583271 -0.0047279284 0.0026714385 0.120194815 0.04353331
0.009132854 0.03998073 -0.035422698 0.09713545 0.0147630805 -0.0047435593 0.102257505 -0.047507957
0.0751743 0.086408004 -0.055846907 -0.017102266 -0.010415362 0.037297536 0.18819857 0.1080452
0.10654657 0.013638502 0.1850965 0.11436232 -0.058208633 0.026389124 0.121958286 0.0050278455
-0.07356245 -0.046648484 0.1057465 0.095688686 -0.0058954908 0.005980722 0.08141218 0.093258694
0.12217697 0.046598267 0.18529817 0.014117536 0.044309992 0.08547211 0.03380112 0.025345644
0.047321096 -0.04641638 -0.08059856 0.09323457 -0.07413377 -0.06078076 0.1842899 0.089254186
