best_model_episode_1650.pth (torch, 561701 bytes, 10 tensors)

actor_log_std f4 [4]
000000 65 83 32 c0 98 06 28 c0 5f 3a 26 c0 9d cc 35 c0
       -2.7892697 -2.6254025 -2.5973127 -2.8406136

shared.0.weight f4 [256, 24]
000000 99 36 3e be 30 3f 06 3f a2 b0 21 bf a7 30 03 3f
       -0.18575515 0.52440166 -0.63160145 0.5124611
000010 5f 1b f5 bd 81 01 59 3d f3 42 17 bd 63 c9 ea bd
       -0.11968111 0.05297995 -0.036929082 -0.11464193
000020 5b be 27 be 1b 74 6a be ef 9a 32 bd 2a f3 3e 3d
       -0.16381209 -0.22895853 -0.043604787 0.046618618
000030 36 97 69 3e 69 db 7a 3e 79 9e 9e 3c 9c 30 14 be
       0.22811589 0.24497761 0.019362675 -0.14471668
000040 19 8e 2e 3c 96 53 07 be 58 e1 85 be c8 36 e7 bd
       0.010653996 -0.13215479 -0.26148486 -0.112897456
000050 9f f7 7f be 64 31 5f be 63 d1 5d be 6f 70 f0 3c
       -0.24996804 -0.21796185 -0.21661906 0.029350488
000060 19 0c 86 bf 46 fe c2 bd 8f a9 f6 be 42 73 94 be
       -1.0472442 -0.09521155 -0.48176238 -0.28994185
000070 7d 20 8d 3e 06 10 de be 93 b8 ab 3e 71 ed 46 be
       0.2756385 -0.433716 0.33539256 -0.19426514
000080 e7 c1 9f bd 81 63 34 be 01 3f 47 be 16 e9 e5 3d
       -0.07800656 -0.17616083 -0.19457628 0.11226098
000090 a8 d2 46 be c1 58 c1 bd 9e 7b aa bd 5a 42 24 be
       -0.19416296 -0.094407566 -0.08324359 -0.16040936
0000a0 d4 1d d7 bc 4d cd f4 bd 22 ec 18 3d 04 3a 26 3e
       -0.02625934 -0.119532205 0.03733457 0.16233069
0000b0 f0 f2 ea 3d 36 f9 33 be ae 45 1b 3d 0e 1c 51 3c
       0.11472118 -0.17575535 0.03790825 0.012763036
0000c0 b0 8e 8a 3e 53 80 d8 be 99 9f 84 3e 6b e0 12 3e
       0.27061987 -0.42285404 0.25903013 0.14343421
0000d0 3c 38 52 be cd bb 4b 3d 14 b1 62 3e 73 4a 39 3e
       -0.20529264 0.049739648 0.22137862 0.18094806
0000e0 1c 35 92 bd b2 de 24 3d ad d8 43 bd de af d0 bd
       -0.07139036 0.04025144 -0.04781406 -0.10189794
0000f0 80 e5 40 bd 01 ba b5 be 4e 62 b0 bd 18 1b 5c be
       -0.04709387 -0.35493472 -0.086125 -0.2149471
000100 28 65 ab bd 3e fe 4f be 15 b6 95 bc dc ba ae be
       -0.083689034 -0.2031183 -0.0182753 -0.34126937
000110 0d b6 be be 3c cf 29 be c3 e1 42 3e 66 06 27 3e
       -0.3724827 -0.1658296 0.19031434 0.16311035
000120 14 a8 3e 3e c0 1f b2 be 3b 43 98 be b9 f4 6f bf
       0.18618804 -0.34789848 -0.29738793 -0.9373279
000130 95 30 43 bd aa 22 82 3d 31 42 27 3e 62 73 ba bd
       -0.047653753 0.06354268 0.16333844 -0.09104039
000140 77 fd 81 bb 9a 40 ed be 4b e4 df bd 32 c4 c1 bb
       -0.003966983 -0.4633835 -0.10932215 -0.005913281
000150 fb 96 5b bd 7c 8a 89 3b a3 93 31 3e 65 82 f6 bd
       -0.053610783 0.004197417 0.17341475 -0.120365895
000160 1e d7 94 bd 2c c5 c6 3d 5d ec b6 3d 93 3b 9b 3c
       -0.07267593 0.09705576 0.089318015 0.018949306
000170 b0 c7 78 3e 3e 8a 05 3f 7d bc b4 bd e0 ce 28 be
       0.24294925 0.52164066 -0.08825014 -0.16485167
000180 6f 58 f7 3e ce 35 1c bd c4 b2 14 be 0e 02 91 be
       0.48309657 -0.03813725 -0.14521319 -0.2832188
000190 67 1c 72 be 1b 31 fc bc 17 f1 1e be 73 d2 e9 bd
       -0.23643647 -0.030785134 -0.15521656 -0.11417093
0001a0 da 05 78 be 13 d5 23 bf cb 11 8c be 59 2e c9 be
       -0.24220982 -0.63997 -0.27357325 -0.39293173
0001b0 08 43 b1 be 06 be 99 3d 2c f7 80 3e c1 4f af 3d
       -0.34621453 0.07506947 0.25188577 0.08560134
0001c0 ff e5 da 3d 33 24 21 be 06 20 e8 bd 38 50 77 bd
       0.106883995 -0.15736465 -0.11334233 -0.060379237
0001d0 a6 58 c3 3c 57 46 6a be 77 b0 03 be a6 ae cd bd
       0.023845982 -0.22878395 -0.12860285 -0.10043077
0001e0 62 e4 35 3d 05 e3 d9 bd 30 37 8f 3e 37 fb 3b bf
       0.044407256 -0.10639004 0.27971792 -0.734302
0001f0 fb 5b 66 be 45 22 61 be 08 24 90 be a8 ab af bd
       -0.22496025 -0.21985729 -0.2815249 -0.08577663
000200 4b ca eb 3d 04 2f 27 be db 87 2d 3e 81 6b 8b 3d
       0.11513194 -0.16326529 0.16946356 0.06807614
000210 0a 3e 3e 3e 6f 86 8c 3d 92 e8 95 be 8f b5 9a be
       0.18578354 0.06861579 -0.29279 -0.30216643
000220 c0 4b c2 be 90 64 d1 be a7 c8 15 be bd 8f 86 be
       -0.37948418 -0.40897036 -0.14627324 -0.2628154
000230 75 15 43 be e1 11 d0 be af 6b 3c 3e ef f2 40 bd
       -0.19051154 -0.4063864 0.18400453 -0.04710668
000240 7c 9f c8 bd 04 05 14 bf 71 90 0e 3d 8c a7 9e 3e
       -0.09796044 -0.57820153 0.03480572 0.30987203
000250 28 ed a6 3e 07 8e 83 bd 8f 96 12 be 5a 71 f5 bd
       0.3260281 -0.06423574 -0.14315246 -0.11984511
000260 d5 66 bd 3c 8f 33 a3 be b6 c0 c7 3d b9 92 af be
       0.023120323 -0.31875274 0.097535536 -0.34291628
000270 03 d2 94 3d 4f fd 8f 3d fd 58 eb 3b 28 1a 36 be
       0.07266619 0.07030737 0.007182239 -0.17783415
000280 4f c0 e3 3d ae 31 0a bd 14 c0 6f bd 89 fd 8e be
       0.11120664 -0.033738784 -0.05853279 -0.27927807
000290 23 82 dc bc 08 6c 24 be 2d 07 1e be 2f d3 3d 3e
       -0.026917523 -0.16056836 -0.15432425 0.18537591
0002a0 f9 61 66 3e 13 13 bf 3d c9 33 9c be c8 a5 96 be
       0.22498311 0.0932981 -0.3050826 -0.29423356
0002b0 f6 8c d7 3d 86 b2 47 be a4 6e ce bd db 1b 07 be
       0.10524933 -0.19501695 -0.10079697 -0.1319422
0002c0 c0 9c 22 be 4c 08 40 be 46 5a b4 3d 9b c2 bb bd
       -0.15880108 -0.18753165 0.08806281 -0.091679774
0002d0 4b e2 a5 bc b6 7f 00 be 1d 2a 12 bd ea 90 14 be
       -0.020249506 -0.12548718 -0.035684694 -0.14508405
0002e0 b4 c8 12 3d d4 82 1d 3d a2 04 02 3c a6 10 d8 bd
       0.035835937 0.038454846 0.007935675 -0.105500504
0002f0 3f b7 f9 bd 6d ea 16 bd ca b6 9e bd d4 f4 62 bc
       -0.121931545 -0.03684466 -0.07749708 -0.013852317
000300 04 70 65 3e d8 49 be 3f e8 bf 2a bf 51 2f 34 3f
       0.22406012 1.4866285 -0.66699076 0.703847
000310 60 ca a6 3d 34 1d 03 bc 38 9b 74 3d 2e aa 52 3d
       0.08144069 -0.008002568 0.05971834 0.051431827
000320 35 f1 88 3b 3f f0 30 be c4 7c 8c 3d a2 10 26 be
       0.0041791447 -0.17279147 0.06859735 -0.16217282
000330 75 56 87 bc 59 0e ac be 1d 2c 09 be ae f1 5c be
       -0.016520718 -0.33604696 -0.13395734 -0.21576568
000340 1f 0c f2 bd b6 52 21 3c e6 0a 9d 3d da 6f 61 3d
       -0.11818718 0.00984638 0.07668094 0.05503831
000350 6b f8 38 be ec b3 33 be b2 77 46 bd e1 42 5b 3e
       -0.18063514 -0.17549103 -0.048453994 0.21412231
000360 4b 34 fd 3d 1e d9 d5 be 19 ee 6e be 19 71 7f be
       0.1236349 -0.4176721 -0.23333015 -0.24945487
000370 4e 72 da 3d 76 63 8f 3d 60 8b 8f bd c9 3c b2 3d
       0.10666333 0.070013925 -0.070090055 0.08703
000380 e1 d0 74 be 58 f3 4d be 96 0e eb 3d 53 85 e4 bc
       -0.23907806 -0.2011236 0.114773914 -0.027895605
000390 9c b7 c3 bd 60 d4 a2 be ab 21 52 be 61 32 e2 3d
       -0.09556505 -0.31802654 -0.20520656 0.11044765
0003a0 13 c2 60 3d 77 9e 03 3e f7 13 86 3d 77 f2 3e 3c
       0.054872584 0.12853418 0.06546777 0.011654488
0003b0 ca 23 53 bd c9 a1 78 be ce aa a9 be d0 c2 81 be
       -0.051547803 -0.24280466 -0.33138126 -0.25343943
0003c0 1c d2 c2 3e e0 24 0f 3f 5b 99 f1 be 48 e0 25 bf
       0.38050926 0.5591564 -0.47187313 -0.6479535
0003d0 97 3e 27 3e 8a 79 d5 3c a5 88 6a be 18 31 4f 3e
       0.1633247 0.02605893 -0.22903688 0.20233572
0003e0 47 f6 c3 3d 0c f8 fa bc df d1 b4 3d f4 7b 52 be
       0.09568458 -0.030635856 0.08829092 -0.20555097
0003f0 a7 2f 0e b9 61 78 b6 bd 17 d6 49 be d2 7b ac be
       -0.00013559927 -0.08909679 -0.19710575 -0.33688217

shared.0.bias f4 [256]
000000 b4 c1 76 be e9 0c 62 3d 7a bc 14 bc 77 83 d7 3d
       -0.2409733 0.055188093 -0.009078139 0.10523122
000010 8d 7d 36 be 17 77 a6 3d e3 5c dd 3d 4c 25 a7 3d
       -0.17821331 0.08128183 0.10808732 0.08161411
000020 33 8f c3 bc 46 5d 40 3e ef e9 5b be 8e 29 07 3f
       -0.023871994 0.18785581 -0.21475957 0.5279778
000030 65 9a 5d 3e e1 b0 72 3d 9e 3d 37 3e d9 6d 26 3e
       0.21640928 0.059250716 0.17894599 0.16252841
000040 d9 ee b9 3d 99 22 ce 3d 6b b2 67 be 99 16 4b 3e
       0.0907876 0.10065193 -0.22626655 0.19832839
000050 3d 12 9c 3e 95 37 cc 3b 66 0d b7 3d ed 75 72 bc
       0.30482665 0.006232212 0.089381024 -0.0147986235
000060 3e 4d 3a 3e ab 3d 84 3e 17 2c c4 3c f6 e7 8f 3e
       0.18193528 0.258283 0.023946805 0.2810666
000070 ef d1 32 3e a8 3c 8e 3d e4 78 7d 3e b5 79 12 bb
       0.17462896 0.06945163 0.24753147 -0.0022350375
000080 4d 5e b1 bd 00 0d 3e 3e 00 6f 10 3e cf 53 1c 3e
       -0.086605646 0.18559647 0.14104843 0.15266345
000090 05 77 0b be 4d 6f 65 3d ed e6 c8 bd 77 d4 27 3e
       -0.13619621 0.056014348 -0.098096706 0.16389643
0000a0 46 c7 91 be f6 17 02 3e e9 0c c1 3e 41 43 2c be
       -0.28472346 0.12704453 0.37705162 -0.1682253
0000b0 fa d6 c9 bc 3f 7d a6 bd 56 cd 6f 3e b1 fe ea 3e
       -0.024638642 -0.081293575 0.23418173 0.4589744
0000c0 28 a3 c7 bd 10 44 94 bd ce 32 1e bd fc 88 4a ba
       -0.097479165 -0.072395444 -0.03862267 -0.0007726101
0000d0 f0 6f 13 be 6a d1 01 be 44 f0 b9 3e 08 de 82 3e
       -0.1439817 -0.12677541 0.3631612 0.2556002
0000e0 4c 4f 24 3e db 1f 3a 3e 76 e8 b3 bc 12 71 45 3c
       0.16045874 0.18176214 -0.021961432 0.012050884
0000f0 4e 86 31 be 0c 59 b2 3e 2f 47 93 bc e3 bd 5c bc
       -0.1733639 0.34833562 -0.017978279 -0.013473007
000100 e8 1f 01 be 5d 8f 96 bd 4e 8a 36 be af da 86 be
       -0.12609828 -0.07351563 -0.17826197 -0.26338717
000110 13 e2 5b be 93 dd 8e be 18 57 a0 bd 9b 2c e6 bd
       -0.21472959 -0.27903423 -0.07829112 -0.112389766
000120 b0 31 85 3d 16 c8 bb 3d b3 6c 10 be 0d b4 67 be
       0.06503618 0.09169023 -0.14103965 -0.22627278
000130 61 46 70 be da f2 c0 3d 89 af a8 3e 23 e9 70 3d
       -0.23464347 0.0942132 0.32946423 0.058816087
000140 6d b9 76 3e 4a 81 d4 3d a7 52 8f be 18 d0 0c bd
       0.24094172 0.103762224 -0.27992746 -0.03437814
000150 15 fa 38 bd 9b 64 16 3e b2 76 9c bd e6 0d 0d 3e
       -0.04516037 0.14686815 -0.07639827 0.13774833
000160 e9 d8 5c bd 26 17 c1 bd db 28 fb 3d 83 7c 2f 3e
       -0.0539178 -0.09428243 0.12263652 0.17137341
000170 ad 92 13 be 13 b2 5b be b9 3f 5c 3e 3d 41 19 be
       -0.14411421 -0.21454649 0.21508683 -0.14966293
000180 d7 74 de bd 2b b1 90 3d 44 bf cc 3d 5d 27 1c bd
       -0.10862129 0.07065042 0.099974185 -0.038123477
000190 60 83 60 be f1 97 ce 3e ec e7 78 3b 15 5b 3b 3e
       -0.21925116 0.40350297 0.0037980033 0.18296464
0001a0 23 01 b7 bb eb 97 39 be e3 f5 cb bd 81 c8 1b 3e
       -0.0055848523 -0.18124358 -0.099590085 0.15213205
0001b0 9e d0 81 be 79 8b 36 bc f4 be 8e 3e 6d 1d 3e be
       -0.25354475 -0.011141651 0.2788006 -0.18565913
0001c0 69 aa 6f 3d 12 61 a0 bd 11 86 f2 3d 1a 84 44 3d
       0.058512125 -0.07831015 0.118419774 0.047977544
0001d0 1d 36 40 be 64 65 1b bd a5 93 50 3e 79 51 eb bd
       -0.18770643 -0.03793849 0.20368822 -0.11490149
0001e0 7c e1 94 3e bc a5 12 3e 47 b2 06 be 67 d3 dc bb
       0.2907828 0.14321035 -0.13153945 -0.0067390683
0001f0 eb 1a df 3c 4c 2e 0e 3e 66 a6 22 3e 7f 87 f3 3d
       0.027234515 0.13884848 0.15883788 0.11891078
000200 f1 47 09 bd 78 0b 29 3e 94 70 a3 3e 9c d8 d5 3e
       -0.033515874 0.16508281 0.31921828 0.41766822
000210 ae b5 51 bd 69 7b b2 3d cd d2 2e bd 3f 31 6c 3c
       -0.051198654 0.08714945 -0.042681504 0.014416038
000220 40 13 84 be 9b da 80 3b a2 ab c4 3d 62 66 16 3e
       -0.25795937 0.00393231 0.09603049 0.14687493
000230 30 b1 8c 3e 0c 6c 5a 3e 12 27 0c 3d 1e f0 e7 bd
       0.27478933 0.21330279 0.034216948 -0.113250956
000240 6b 42 6e 3e 83 a9 50 3e 9d ae 82 3c b0 33 91 bd
       0.23267524 0.20377164 0.015952403 -0.07089937
000250 49 fa 29 be 46 99 86 be bd ed 02 3e 81 d9 1a 3e
       -0.16599382 -0.26288813 0.12786002 0.15122034
000260 12 b9 c2 3c 7e 44 f6 bc b0 8d cb bd a8 1b 02 be
       0.023769889 -0.030061956 -0.09939134 -0.12705863
000270 f4 d8 04 be e6 26 07 3e 9c 1c 5c 3e a6 83 e7 bc
       -0.12973386 0.13198432 0.21495289 -0.028261017
000280 1f 06 2b 3e f2 f4 c2 3d f7 c3 2f bd 89 65 71 3e
       0.16701554 0.09519376 -0.042911496 0.23573889
000290 b4 29 99 3c e7 50 39 3e 6a 0a c1 3d 3d 59 a7 3e
       0.018696643 0.18097268 0.094258144 0.3268527
0002a0 20 44 9e 3e d4 f9 7b 3e 16 f6 ca ba 88 d2 3d bd
       0.3091135 0.2460702 -0.0015484716 -0.046343356
0002b0 2c 5d 3c 3c bd 6a 28 be fc dd 2a 3e ff 45 a0 3e
       0.011496823 -0.16446967 0.16686243 0.31303403
0002c0 cf 3e 93 3d 3e 92 e9 bc 3c d3 bb 3d 2f ff 56 3d
       0.07189714 -0.028512117 0.09171149 0.052489456
0002d0 a2 65 28 be 12 11 c5 bd 57 9e 3f 3d 30 4a 85 be
       -0.1644502 -0.096223965 0.046781864 -0.26033163
0002e0 0d 0b 7e 3c 60 4a e6 bd 17 5c 14 3e 0b 95 41 bd
       0.015505564 -0.11244655 0.14488254 -0.04726128
0002f0 eb fd 0f 3d cf 1b 4a 3e 95 32 89 3e 96 d4 6c 3e
       0.035154264 0.1973717 0.26796404 0.2312797
000300 7e 89 9a 3d 25 24 ac 3c 29 3d 8c 3e 52 01 85 3e
       0.07545756 0.021013329 0.27390411 0.2597757
000310 c1 44 e1 3d e4 76 27 3e 41 84 d0 3d e6 d1 77 3e
       0.10999442 0.16353947 0.101814754 0.24201164
000320 9f 38 35 3e 4c 42 68 3e 5f 32 63 bd f3 a0 01 3b
       0.1769738 0.2268154 -0.05546796 0.001977977
000330 d1 41 87 be ba f2 7d bb 70 82 fd bc 67 80 14 3e
       -0.264174 -0.0038749413 -0.030945987 0.14502107
000340 b1 bc 28 be d8 80 d2 bd de e6 b8 3e a4 5a 74 3c
       -0.1647823 -0.10278481 0.36113638 0.0149141885
000350 d7 61 9a bd f4 b3 2d 3e 70 0c 13 be ea 46 1f be
       -0.07538193 0.16963178 -0.14360213 -0.15554395
000360 70 8b a9 bd 11 2d 72 bc 31 5b 79 be 6c 30 a7 bd
       -0.08278549 -0.0147812525 -0.24351193 -0.081635326
000370 47 c6 56 bd 84 a8 0e bd bf ca 73 3e e8 fc ec 3d
       -0.052435186 -0.034828678 0.2380781 0.115716755
000380 53 ac 74 3e 11 5f 4a 3e a8 43 34 bc 71 da ed bc
       0.23893861 0.19762827 -0.011002459 -0.029034825
000390 a2 27 af 3a 99 e5 a9 bd f0 fd 94 3d ba 92 d8 3d
       0.0013363252 -0.082957454 0.07274997 0.10574861
0003a0 1c 0d bd be b9 3a e9 3d fa a0 8a be 65 3d 86 3e
       -0.36924064 0.113881536 -0.2707594 0.26218715
0003b0 ac 83 d2 3d a0 a2 d1 3d cd c2 a1 3e 1a 54 2f bd
       0.10279021 0.102360964 0.31593934 -0.042804815
0003c0 4f e2 ad 3e 78 35 92 3c 74 03 28 bb a1 a7 10 3e
       0.33961722 0.017847762 -0.0025636824 0.14126445
0003d0 cc 72 08 bd dc 21 41 bc d4 23 bc 3d cc 4b 0f bc
       -0.033312604 -0.011787858 0.09186521 -0.008746099
0003e0 04 cc 81 3e c1 a2 2c 3d 39 3c 2a be 0c 3b 16 3e
       0.25350964 0.0421474 -0.16624536 0.14670962
0003f0 4a 9e 2f 3d fd b6 81 bd b3 cc fb 3d 65 16 56 3e
       0.042875566 -0.0633373 0.12294903 0.2090698

actor_mean.0.weight f4 [256, 256]
000000 10 8e b9 bb 3c 99 7a bd da 50 17 3d 87 44 35 bd
       -0.005662687 -0.061181292 0.03694234 -0.044254806
000010 19 05 96 3c d7 b4 e3 bb e2 b7 2f 3d 7c d4 72 bc
       0.018312978 -0.006949048 0.042899974 -0.014821168
000020 74 d7 6f bd 5b 1c 95 bd 00 7f 7a bc e1 46 4c bd
       -0.05855508 -0.07280799 -0.015289068 -0.049872283
000030 82 71 09 3d 45 8b fe bc 0a 1b 29 bd c3 7f c2 bd
       0.033555515 -0.031072268 -0.041285552 -0.09497025
000040 ae 3f 9d bd b9 2f 36 bd a5 00 d8 bd da 28 a1 bc
       -0.076781616 -0.044479106 -0.10546998 -0.0196728
000050 79 0e 7a bd 11 d9 98 bc 0c aa 25 bd b7 bf 9d bd
       -0.06104896 -0.018658193 -0.040445372 -0.07702582
000060 e2 19 66 3d d8 69 fc 3c 82 a9 09 bb 6a a2 bf bb
       0.056177028 0.030812189 -0.0021005576 -0.0058482187
000070 71 d2 ac 3c b1 75 67 bd 1c 5f c5 bd 6e 0f 2c 3d
       0.02109644 -0.056508724 -0.09637281 0.042006902
000080 93 3d 00 be ed a2 bd 3c 66 ee 94 3b 0c 3d 1a 3d
       -0.12523489 0.023148978 0.004545021 0.037655875
000090 be 50 87 3d d9 b1 ae bd 90 36 a6 3c 8e ff d2 bd
       0.06607197 -0.085300155 0.02028969 -0.103026494
0000a0 c6 ae 1a 3b 0c 00 44 3d c2 c5 28 bd cd 18 ba 3c
       0.0023602708 0.047851607 -0.04120422 0.022716904
0000b0 f0 50 10 bd 77 39 ee bc 5e 72 62 3b 2b a9 9f bd
       -0.035233438 -0.029080136 0.0034553031 -0.07795938
0000c0 7a 5d b3 bc 74 62 c8 ba 73 4c 29 bd e2 8d 85 3d
       -0.021895159 -0.001528813 -0.041332673 0.065212026
0000d0 f3 36 77 3d 54 30 96 bd 25 15 bb 3b 46 09 71 3b
       0.060355138 -0.073334366 0.0057093077 0.003677921
0000e0 8e 79 27 3d f1 97 34 bd be 46 6f 3d 1c 74 8d bd
       0.040887408 -0.044090215 0.058417074 -0.06906912
0000f0 d6 65 8c 3d ef 58 8e bd b2 11 94 bc 22 02 25 3c
       0.06855361 -0.069505565 -0.018074844 0.010071309
000100 71 ca 30 bc 3b 56 36 bd 6d ee e8 3c 09 6d 7f bd
       -0.010790453 -0.04451583 0.028434003 -0.062359843
000110 13 89 42 bd 7b ae 19 3c 98 f6 77 3d a0 e6 11 3d
       -0.047494005 0.009379978 0.060537905 0.03562033
000120 4b 18 65 bd a0 e9 47 3c 67 49 c3 3c 74 a8 9b bc
       -0.05593137 0.012201697 0.023838712 -0.019001223
000130 f8 92 1f 3d b7 53 a6 bc 6e 5c 7c bd ac ef b4 bc
       0.03895852 -0.02030359 -0.061611585 -0.02208694
000140 37 63 1e bd 22 63 f3 3c 4f 19 30 3d 5b aa 1e bd
       -0.038668837 0.029710356 0.042992886 -0.038736682
000150 44 ee 16 bc e3 30 70 3d b7 69 fe bc c8 1a 4c bd
       -0.00921208 0.058640372 -0.031056268 -0.049830228
000160 7c 01 74 3c aa bc 5b 3d 95 ba 67 3c 2e 16 a1 bd
       0.014892932 0.05364672 0.014143606 -0.078655586
000170 56 8f 61 bd 2e 15 23 3d c2 bc 35 bc 6a fa ea 3b
       -0.055068336 0.03981512 -0.011092367 0.007170965
000180 d3 94 4a bc 0e 57 85 bd e1 d1 8c bc c4 5a 50 3d
       -0.012364584 -0.06510745 -0.017189922 0.05086781
000190 28 9f 1c bd 69 6f af 3c 59 c3 8d bc 63 36 98 bd
       -0.03823772 0.02141543 -0.017305063 -0.074322484
0001a0 0c 55 5b bd 02 fb 1f 3c ce b6 bd bd f3 f8 d6 3c
       -0.053547904 0.009764435 -0.09263383 0.026241755
0001b0 0f d7 a4 bc ca b4 f2 3b 5e 07 9a 3b e5 f8 9b 3d
       -0.02012208 0.0074068056 0.0047005853 0.07615832
0001c0 fc aa 58 bd 3a 0d 98 bd 51 b0 eb 3c 1e 1a 08 bd
       -0.05289744 -0.07424398 0.028770598 -0.033228032
0001d0 24 5d b1 bc cc ff e9 3c ad 03 cf bc 88 dc 4a bc
       -0.021650858 0.028564356 -0.025270307 -0.01238168
0001e0 1f 4e b7 bd a5 61 88 3c 3a 8e 11 3d 11 e3 09 bd
       -0.08950447 0.016648123 0.03553603 -0.033663813
0001f0 0e 3b 96 bd 3e 33 e7 3c 1d 8f 69 3c 67 84 a5 bb
       -0.073354825 0.028222676 0.014255312 -0.005051184
000200 5a eb e3 3b c6 19 7a bd b9 1b 17 3d 7c 40 5f bc
       0.0069555463 -0.061059736 0.036891673 -0.013626214
000210 48 23 40 bc 96 42 c6 bc 4a 56 3c bd 1c 2e 9a 3b
       -0.011727162 -0.024201673 -0.04598073 0.0047052037
000220 c1 8c 1d 3d ee 35 19 3d 8d 50 15 bd d1 1d 5b 3d
       0.03846431 0.037404947 -0.036453772 0.053495232
000230 a6 67 71 3c f3 d0 81 3c b6 82 03 3d 49 6e 03 bd
       0.014734184 0.015846705 0.032107078 -0.032087598
000240 c5 d4 35 bd 0b 93 45 bb ac 3e be bd c9 8d 89 3c
       -0.044392366 -0.003014746 -0.092892975 0.016791241
000250 01 f3 cc bd e7 4e 80 bd 39 b3 9a bb a6 5c 0a 3a
       -0.10007287 -0.062650494 -0.004721072 0.0005278088
000260 57 88 01 3d e0 52 4b bd 70 cc 5c bd d8 41 12 bc
       0.031624164 -0.049639583 -0.053905904 -0.008926831
000270 15 bb 73 bd ec 75 78 bd ab f4 d6 3b d9 9f 55 bd
       -0.059504587 -0.060659334 0.0065599284 -0.052154396
000280 0c ff f3 bc 43 c9 73 3c 73 c9 59 3d 25 99 79 bd
       -0.029784702 0.0148795275 0.053170633 -0.060937066
000290 a5 84 e3 3c d6 30 66 bc c1 c6 bd 3d 07 1d 81 3d
       0.02777321 -0.014049729 0.09266425 0.06304365
0002a0 6d 8d 1b bd 42 e1 8b bc 7f 1d 73 bd 3d 46 9d 3c
       -0.03797667 -0.017075185 -0.0593543 0.019198531
0002b0 88 d5 99 bd f7 7a e2 3d 0e cd ad bc b4 b0 4a 3d
       -0.07511431 0.1105861 -0.021215942 0.049484923
0002c0 9f c6 00 3d e1 aa 41 3d a6 6d a2 bd 7d 99 9c bd
       0.03143942 0.047282103 -0.0793107 -0.07646463
0002d0 c0 2b a5 bd ea 66 f5 bc 4c bb 1b 3d 44 c9 b0 3c
       -0.08064985 -0.0299563 0.038020417 0.021580346
0002e0 81 0a 18 3d 5f 7e 40 ba f3 77 93 3b 90 5d 70 bd
       0.037119392 -0.00073430495 0.004500383 -0.05868298
0002f0 b0 6b 2f 3d df eb a9 bd 1c b6 90 bd 45 ff 87 3c
       0.04282731 -0.08296942 -0.070659846 0.016601214
000300 c3 5f 11 3d 2f 0f 3c bd f5 cf e1 3c 52 f9 ea bc
       0.035491716 -0.045912918 0.027564982 -0.028683338
000310 31 52 8f bd 17 3c 13 bd 86 c8 c6 bc 91 f0 68 bd
       -0.06998099 -0.035945978 -0.024265539 -0.056870047
000320 6a cb 2e 3d 60 69 27 bd 53 c3 45 bd f0 f7 dc bc
       0.04267446 -0.040871978 -0.04828198 -0.026973695
000330 4e fb 3d bc 71 71 0b 3d 61 c7 38 bd d2 88 09 bd
       -0.01159556 0.034043733 -0.045112018 -0.033577748
000340 57 4b e5 bb a1 47 3b 3d 12 7f 3a 3c a4 1c c0 bc
       -0.0069975066 0.045722608 0.011382835 -0.023451157
000350 29 31 04 bd f5 f2 f4 3b 8b bc 68 3c 67 ca 65 3c
       -0.032273445 0.007475252 0.014205108 0.014025307
000360 a8 4f 26 3d 0d fd ee 3c 77 15 06 3b 4d d8 de 3b
       0.04060331 0.029173398 0.0020459571 0.0068006874
000370 ad e9 54 bd 77 ac 33 bd 25 f8 a2 bd 9a f3 53 ba
       -0.051980663 -0.043865647 -0.07957486 -0.00080853107
000380 e9 dd 4d bd 19 1c f6 3d 67 52 8c bd 1a 3e 7c bd
       -0.05026046 0.12017078 -0.068516545 -0.061582662
000390 23 73 b8 3c 6b 0b 77 3c a0 73 51 bd 49 8a cb bc
       0.022515839 0.015078406 -0.05113566 -0.024846213
0003a0 e9 95 be 3b 57 7e 33 bc 2f b8 de bc 88 0a 46 ba
       0.0058162105 -0.010955415 -0.027187435 -0.000755467
0003b0 8d 64 85 bc 94 38 99 bc b9 d3 ca 3c 42 d3 0a bd
       -0.016283298 -0.018703736 0.02475916 -0.033892877
0003c0 d8 3e 1e bd be 50 93 bb ee 1f 86 bd 5c f5 a2 3c
       -0.03863415 -0.004495709 -0.06549059 0.019892387
0003d0 ff 0b 72 bd 3b 82 85 bd 54 d2 c9 bb 9b 65 6a bd
       -0.05909347 -0.0651898 -0.0061591063 -0.057225805
0003e0 0b 15 27 bd f7 01 d1 3c f2 f1 46 bc 08 54 0c bd
       -0.040791553 0.025513632 -0.012142645 -0.034259826
0003f0 20 b0 1b 3c 65 00 a0 bd e6 d5 45 3b 93 5d c3 bd
       0.009502441 -0.07812575 0.0030187308 -0.09539332

actor_mean.0.bias f4 [256]
000000 0e 1a 88 bc 83 a3 ad bd f1 db ee bc 6c c8 be 3b
       -0.016613986 -0.08478453 -0.02915761 0.005822232
000010 7d 1c eb 3c ee 02 31 bc 36 0d 30 bd bc 5f d5 bd
       0.028700108 -0.010803921 -0.04298135 -0.104186505
000020 4b 1f e8 3b e0 4f 4a be b7 a7 0f bd 5f 02 1c bd
       0.0070838085 -0.19757032 -0.035072055 -0.0380882
000030 1b 00 5d bd 9a 6a a8 bd 05 e2 f4 bd b3 83 fb 3d
       -0.05395518 -0.08223458 -0.11957172 0.12280979
000040 51 a4 d8 bc a2 54 2d bd 62 05 35 bd 7c 8f d2 bd
       -0.02644554 -0.04231704 -0.044194587 -0.10281274
000050 6b 71 2b be 04 6b 9e bd 7f 68 03 be 78 1a ab 3b
       -0.16742484 -0.07735255 -0.12832831 0.005221661
000060 a0 62 66 bd 3e 8e 4f bc 02 3b 81 bd 0c b1 92 be
       -0.0562464 -0.0126681905 -0.06310083 -0.286507
000070 3b 1e 9c bd 82 43 75 bd ae 35 b4 bd b9 6c 2a be
       -0.076229535 -0.059878834 -0.08799301 -0.16643037
000080 a9 ee 56 be 5b cf c4 bd 8b 2f 97 bd bd 73 3f 3c
       -0.20989479 -0.096098624 -0.07382115 0.011685309
000090 e0 4d 2b bd 46 14 c0 3a 8e 79 8f 3d 7d 39 20 be
       -0.041822314 0.001465448 0.070056066 -0.1564693
0000a0 99 be 26 3d 63 70 91 bd b9 03 e7 bd e6 a7 39 be
       0.04070911 -0.07101514 -0.11280007 -0.18130454
0000b0 80 55 3c bd 93 27 b0 bd 66 de 30 be e9 13 88 3c
       -0.045979977 -0.08601298 -0.17272338 0.016611056
0000c0 89 c4 8e bd 2f e2 95 bd 9e 1d 94 bd ed cb ac 3d
       -0.0697108 -0.07318532 -0.072322115 0.08437333
0000d0 6e 80 93 bd 6a cd 5d bd 86 e2 9b bd 3e 90 99 bd
       -0.072022304 -0.054150976 -0.07611565 -0.07498215
0000e0 3d 6c 87 b9 f8 31 1a be 6d 2d bd bd cb 2f f0 3a
       -0.0002582985 -0.15058124 -0.0923718 0.001832479
0000f0 dc ee 69 3b 57 4d d0 bd b3 08 c4 bd 7c ec 00 bb
       0.003569535 -0.101710014 -0.09571972 -0.0019672206
000100 ee a4 6d bc b3 0c e3 bd 7e 20 3c bd f3 aa 63 bc
       -0.014504654 -0.110864066 -0.045929424 -0.013895738
000110 83 84 72 bd ed 9a 9c bd df 56 05 be c5 ae 1b be
       -0.059208404 -0.07646737 -0.1302142 -0.15203388
000120 57 72 ff bd 24 5f 8c bc 9e 76 97 bc df 65 a5 bd
       -0.124729805 -0.01713521 -0.018489178 -0.08076071
000130 ca 17 d0 bd fd e2 44 be 99 5a 04 be 0a 15 5d bc
       -0.101607874 -0.19227214 -0.12925185 -0.013493786
000140 64 fb 77 bd 5a f0 12 be 23 16 ac 3c 1e 7d 44 be
       -0.06054248 -0.143495 0.02100665 -0.19188353
000150 ee 13 a8 bd 66 a2 bf 3d 45 1e 95 bd 12 0d ba bd
       -0.08206926 0.09357147 -0.07281164 -0.09084524
000160 7e e8 67 3c 83 ea b7 bd 4a 4f c0 bc 69 fb 69 bc
       0.014154552 -0.089802764 -0.023475308 -0.014281132
000170 03 47 ea bd 60 3b 93 3d 30 54 2b bd a1 50 11 bd
       -0.11439326 0.07189059 -0.041828334 -0.035477284
000180 b4 5d e6 bd 08 df f1 bd 2d 39 da bd 8e 19 2f bd
       -0.11248341 -0.11810118 -0.10655437 -0.04274898
000190 a1 05 39 3c 1f f9 67 be ea 70 66 bd 78 5a 9b bd
       0.011292846 -0.22653626 -0.056260027 -0.07585615
0001a0 f3 da 54 bd 8f e2 48 be 94 e5 eb bd 58 0f 3e bd
       -0.05196662 -0.19617675 -0.11518398 -0.04640135
0001b0 76 20 44 bd 12 69 bd bc bb 1d bc bd 14 dc 08 bd
       -0.04788252 -0.02312139 -0.09185358 -0.033413008
0001c0 90 b9 e1 bc 83 55 11 bc 7b d1 ca bd 0b e9 21 bd
       -0.027554303 -0.008870485 -0.099032365 -0.039528888
0001d0 f7 77 26 3d 70 12 93 bb d3 07 02 be 16 d6 1a bd
       0.04064175 -0.004488282 -0.12698297 -0.037801825
0001e0 43 b7 36 bd 21 53 cf bd b4 a8 3e bd 45 2b e8 bc
       -0.044608366 -0.101232775 -0.046547607 -0.028340945
0001f0 fe ac 40 bd f4 fc 49 3a 28 bf 41 bc c8 2c 85 bd
       -0.04703998 0.00077052345 -0.01182536 -0.06502682
000200 d3 75 19 bd 60 26 4d bd 2c 1c b8 bd da 1e 09 bd
       -0.03746588 -0.050085425 -0.08989748 -0.033476688
000210 4f 26 d3 bd 10 85 62 bd 65 44 63 be 76 a0 8a bd
       -0.10310041 -0.05530268 -0.22194059 -0.06768887
000220 56 d1 8f bd c4 e5 df bd 2a 97 90 bd 1b de 1a be
       -0.070223495 -0.10932496 -0.07060082 -0.15123789
000230 a0 df 35 bd 62 00 d3 bb 79 46 85 3d c9 58 eb bd
       -0.04440272 -0.0064392546 0.06507582 -0.11491544
000240 39 9a 22 be 3c 00 c1 3c 06 d3 18 bd 4f 2b 9d 3b
       -0.15879144 0.023559682 -0.037310623 0.0047964226
000250 3f 7e a5 bd 9b f4 23 bd b0 72 46 be e8 7a ab bd
       -0.0808072 -0.040028196 -0.19379687 -0.08373052
000260 a5 61 63 be 7d d3 88 bd 08 50 31 3c 3a 9c 4a be
       -0.22205217 -0.06680963 0.010822304 -0.19786158
000270 6f 0a e2 3b dd ef 94 bc 1e 46 01 bd 3a 55 d9 bd
       0.0068982164 -0.018180782 -0.03156101 -0.10611959
000280 97 4e a0 bd b9 35 9e 3b 3a 84 55 be b2 d9 a4 bd
       -0.0782749 0.0048281816 -0.20851222 -0.080493346
000290 25 8a 72 bd b1 6f 02 3d 60 45 d1 3c 60 94 a5 bd
       -0.059213776 0.0318448 0.025545776 -0.08084941
0002a0 dd e0 04 be a8 d9 a6 bd 11 8a 1e be 31 f6 e2 bd
       -0.12976404 -0.081469834 -0.15482356 -0.110821135
0002b0 c1 f9 30 be ff 93 62 bd 01 c8 56 3c bc 54 77 3d
       -0.17282774 -0.05531692 0.013109208 0.060383543
0002c0 ac 14 74 bd 70 8f 67 3d 6e 9b b1 3b b3 6f f4 3c
       -0.059590027 0.056533277 0.00542014 0.029838419
0002d0 8a c4 dc bd 25 e4 b9 3d 4c 06 e7 bc c9 5a 47 bd
       -0.10779674 0.09076718 -0.028201245 -0.048670564
0002e0 41 8a 1c bb 71 b2 d2 bd 47 43 0a be 50 9e e5 bd
       -0.0023886117 -0.10287941 -0.13502227 -0.11211836
0002f0 e7 25 3f bd 98 0c c6 bd 7a 8a c9 bd ff 4c f1 bd
       -0.046667006 -0.09670371 -0.098408654 -0.11782264
000300 5b d9 35 bc a1 6e ac 3c 96 96 0b bc 03 76 ad bd
       -0.011099185 0.021048846 -0.008519789 -0.084697746
000310 11 9a ac bd d7 fd 7b be 0c fe c4 bc 87 a7 9f bd
       -0.08427823 -0.24608551 -0.02404692 -0.07795625
000320 86 72 10 bd f2 82 90 3d 41 c0 d6 bd 82 06 82 bd
       -0.035265468 0.07056226 -0.10485888 -0.063488975
000330 db 32 d8 bd 70 72 8f bd 9a 26 e1 bd bc 0c e6 bd
       -0.10556575 -0.07004249 -0.10993691 -0.11232898
000340 95 89 b4 bd 70 5b 99 bd 9a c5 d3 bd 48 fa 27 bd
       -0.08815304 -0.074881434 -0.10340424 -0.04101017
000350 e2 b3 a8 bd c2 2b 43 3c 4d db 69 3d 8f b2 f3 bd
       -0.08237435 0.011912288 0.057093907 -0.11899292
000360 a1 69 83 bd cc 91 9c bd d5 70 b0 bd ad 0a 01 be
       -0.064166315 -0.07644996 -0.08615271 -0.12601729
000370 b3 3c a0 bd 0b 6d 09 bd 13 e2 65 bd 7a 6d 35 bb
       -0.078240775 -0.033551257 -0.056123804 -0.0027683661
000380 fb 6c de 39 c7 40 f3 bc 50 ed b5 bc 1a 6b 32 ba
       0.00042424336 -0.029693974 -0.022207886 -0.00068061205
000390 ea fe d9 bc f2 75 6e bd 06 86 0c bd 26 6c de bd
       -0.02661081 -0.05821795 -0.034307502 -0.108604714
0003a0 31 25 2d be 2f 62 01 be 87 df 95 bd a6 5c 8d bd
       -0.16908719 -0.1263511 -0.07318025 -0.06902437
0003b0 c3 2b 2d 3d 56 38 26 bd 5b 42 98 bd df be 09 3d
       0.042278063 -0.04058107 -0.07434531 0.033629294
0003c0 41 86 87 bc e0 ec 35 3a 3e 41 47 bd 84 89 db bd
       -0.01654351 0.0006939899 -0.048646204 -0.107195884
0003d0 81 23 13 bd 8a 36 64 be 24 81 d1 bd f6 fd d6 3c
       -0.03592253 -0.2228643 -0.1022971 0.026244145
0003e0 d8 e5 bb bd 8c 5b 28 bd 9a c7 aa bd b0 48 ad bd
       -0.091746986 -0.04110293 -0.08338852 -0.0846113
0003f0 6e b2 9d bb b1 f5 22 bd 09 92 b6 bd bf 0a 4f bd
       -0.0048125302 -0.03978509 -0.08914573 -0.050547358

actor_mean.2.weight f4 [4, 256]
000000 34 4c 4e 3d 9b c8 03 bd a0 a8 73 3c bc 60 48 bd
       0.05036564 -0.032173734 0.014871746 -0.048920378
000010 a1 84 43 3d d1 80 a2 3d cb 12 a7 3d b5 61 03 3e
       0.047733907 0.07934726 0.08157881 0.12830241
000020 0f 13 bf bc f3 f1 a5 bd ef 9d 27 be de e7 6c bd
       -0.023324518 -0.08102789 -0.1636884 -0.057838313
000030 cd 43 ce 3e f1 2c a8 3c 40 d5 33 3d 47 f8 8a 3e
       0.40286103 0.020529242 0.043904543 0.27142546
000040 ef 4b c8 ba c9 da 3c bd fa e7 85 3c 26 04 f6 ba
       -0.0015281419 -0.046107087 0.016345967 -0.0018769547
000050 a6 93 ae bd d0 56 1a be 44 a4 86 3d de 36 39 3e
       -0.085242555 -0.15072179 0.065743 0.18087336
000060 55 07 a0 3d b5 65 3d bb 30 1d cf bd aa ec 06 bf
       0.078138985 -0.0028899733 -0.10112989 -0.5270487
000070 85 17 23 be 71 cd e8 3c 15 d3 80 3d e1 71 3f 3e
       -0.1592694 0.028418275 0.06290261 0.18695785
000080 36 0c e0 3e c5 7a 58 3e 3a 3c bf bb 77 63 c2 bc
       0.43759316 0.21140583 -0.005836037 -0.02372907
000090 30 9d 40 bd d4 e0 29 3f 21 75 30 bd f3 26 b5 bd
       -0.047024906 0.66358685 -0.043080453 -0.088453196
0000a0 46 84 41 3e b0 2c 27 3d 92 4d cd 3d 91 d6 53 be
       0.18898115 0.0408141 0.10024561 -0.2068732
0000b0 16 8d 42 be 69 79 88 bd 2d 35 1c be 8f 7b b7 3d
       -0.18999133 -0.06663782 -0.1525466 0.08959114
0000c0 94 87 72 bc c8 4b 55 3e e3 6a 1b 3d fe 02 8e 3d
       -0.014802832 0.2082969 0.037943732 0.069341645
0000d0 c1 c4 17 3b 09 87 48 be 76 ee eb bc 27 5d 77 3a
       0.0023158046 -0.19582762 -0.02880023 0.0009436183
0000e0 33 cc 30 bd f5 44 81 be e5 e8 38 bd 64 bf 83 bd
       -0.04316349 -0.25247923 -0.04514398 -0.06432989
0000f0 65 eb 49 bc b6 6f 1d be f8 37 12 be 85 58 af 3b
       -0.012324189 -0.15374646 -0.14279163 0.0053511285
000100 a7 3b 8d 3b 1b fe cd bd 13 c9 92 bb d5 f3 f2 bc
       0.0043100896 -0.100582324 -0.0044795363 -0.029657284
000110 b6 1e 5a 3d bb c6 cc 3c 10 ab 7c be 03 89 c4 bd
       0.053251944 0.024997106 -0.2467463 -0.095964454
000120 58 15 a7 bd 9e 73 27 3f 63 b3 20 be 38 50 ee 3c
       -0.08158368 0.6541079 -0.1569343 0.029090986
000130 7a 0c 3b 3e f9 e5 a5 3e 32 4b fd 3b eb 31 a1 bd
       0.18266478 0.32402018 0.0077299112 -0.07870849
000140 77 43 b6 3b 0f 8a f8 be 34 8f 8f 3d 75 ff 8f 3e
       0.0055622417 -0.4854283 0.07009736 0.28124586
000150 38 e8 83 be 6c bc f8 3e fe c8 16 3d d3 c9 8b 3d
       -0.25763106 0.48581254 0.036812775 0.06825604
000160 fd de 81 3c e4 d4 5d be 3d ec d8 3d 52 28 ea bd
       0.0158534 -0.21663243 0.10591934 -0.11433472
000170 c4 a7 22 3e cb 45 e4 bd 8b 03 fc 3d 09 de 8a 3d
       0.1588431 -0.111461245 0.12305363 0.06780631
000180 32 78 cf 3e 72 23 ac 3d bd 94 86 bd f9 2b f1 bd
       0.4052139 0.08405198 -0.06571338 -0.11775965
000190 17 d8 c6 3c 86 f8 b1 3e 53 41 16 be ac e2 96 3e
       0.024272962 0.3475992 -0.14673357 0.29469812
0001a0 e5 e9 da bc 35 6e b3 bd 1b 62 b5 3e 55 49 ad 3c
       -0.026722858 -0.08761255 0.3542641 0.021153131
0001b0 22 ac 3c 3e c0 6d e9 3c 22 ae 8d 3e 13 bb f1 3c
       0.18425038 0.028494716 0.27671915 0.02950815
0001c0 fb 70 0f bf 6f a9 35 be c1 3c ab bd f2 7a f2 3b
       -0.5603177 -0.17740415 -0.08361197 0.00739991
0001d0 f0 a1 04 be 5f e1 9b 3c e3 3b b5 bd 2e 7e a7 3e
       -0.12952399 0.019028364 -0.08849313 0.32713455
0001e0 dd 5a 49 bc 0e 24 47 3e 11 f6 35 be de 55 72 bd
       -0.01228973 0.19447348 -0.17769648 -0.05916392
0001f0 2f b3 74 bc 37 ca 3d 3e 90 d8 97 3c 1a 25 81 bd
       -0.014935299 0.1853417 0.018535882 -0.06305905
000200 01 ea 9a 3d d6 01 92 bd 40 f5 88 3d f5 c9 d2 be
       0.07564164 -0.071292564 0.06687403 -0.41169706
000210 40 bf 1e 3e 2c 47 95 bc 35 b8 0e be 72 15 68 3d
       0.15502644 -0.018222414 -0.13937457 0.056661077
000220 6e eb 10 3e 45 17 a1 3d cd e5 3a be 0b ca 72 3d
       0.1415231 0.078657664 -0.18251725 0.059274714
000230 f0 f7 9e bc fb b2 a2 be f5 25 86 3d d9 02 1c 3d
       -0.019405335 -0.31777176 0.065502085 0.038088653
000240 51 80 8f 3d d5 8b 5d 3c 20 a7 4f bc d3 df 9b be
       0.07006896 0.013522108 -0.012674123 -0.30444202
000250 c1 93 cf bc 09 4e 0b be 67 18 01 3e f5 19 54 be
       -0.02533901 -0.13603987 0.12606965 -0.20713027
000260 c0 b6 bc be 30 be 0a 3e b1 9e 2b bd a7 7a a7 be
       -0.36858177 0.13549113 -0.041899387 -0.32710764
000270 42 76 c1 3c fd 71 3a 3e ea 21 dc bc 65 66 a2 3e
       0.02361596 0.18207546 -0.02687164 0.31718746
000280 5e f8 54 be 5c 3e d1 be ca f9 e2 be 1a 69 a7 3c
       -0.2079787 -0.4086789 -0.443312 0.020435859
000290 9a a3 40 bc 9b c2 82 bd 5f 16 45 3b 86 21 8d be
       -0.011757756 -0.06384774 0.0030073149 -0.2756464
0002a0 e9 57 be 3d f1 56 14 be 91 da 22 be 95 6f 71 3d
       0.09294111 -0.1448629 -0.15903689 0.058944304
0002b0 26 2e ab 3c 40 85 be bd 88 a5 77 3d d7 ea 44 3e
       0.020896029 -0.09302759 0.060460597 0.1923021
0002c0 ee c0 30 3d 69 53 1b 3e c9 36 16 3d 51 4e 8e bd
       0.043152742 0.15168537 0.03667334 -0.069485314
0002d0 95 db dc 3d 09 e4 03 3d 60 d4 2f 3e ee 44 12 3d
       0.107840694 0.032199893 0.17170858 0.035710268
0002e0 8b f4 b6 3d a1 79 70 be a1 48 e3 bd 2e bd 0d be
       0.089333616 -0.23483898 -0.11097837 -0.13841698
0002f0 16 d8 70 3d 73 16 9a be 6c de 6c 3d 02 c6 ef bd
       0.058799826 -0.30095252 0.057829306 -0.11707689
000300 56 e5 cf ba 7e 93 1b 3a 39 55 9f 3b c1 98 0d be
       -0.0015861194 0.0005934759 0.0048624543 -0.13827802
000310 98 6a 93 3e 7d 76 0f bf 1b 60 84 bd b9 e5 5b 3e
       0.28792262 -0.56040174 -0.06463643 0.21474351
000320 5e e7 d5 3d cb c8 8f bd 30 6d 5c bd 1c 6e 56 bd
       0.104445204 -0.0702072 -0.053815067 -0.052351102
000330 29 e5 41 be ef 03 4a bd fb 8b ea be 70 f4 55 bd
       -0.18935074 -0.049320158 -0.45809922 -0.052235067
000340 f1 5f c6 3d 1a db 3a bd 86 e5 ec bd 2d c8 e6 3c
       0.09686268 -0.045619108 -0.115672156 0.028171623
000350 d5 b3 c7 bc 32 92 06 3e b8 d8 5e be a7 a1 2d 3e
       -0.024377743 0.13141707 -0.21762359 0.16956197
000360 e2 bd 34 bd c5 e5 3b 3d f9 0b 8e bd 9b 91 0e 3f
       -0.0441264 0.045873422 -0.06935877 0.55690926
000370 b2 22 60 bc 26 cf 2b 3c f0 71 89 3b 57 7f 2e 3d
       -0.013680147 0.0104864 0.0041944906 0.04260191
000380 77 99 12 3d e5 aa 0d 3e 35 d5 35 bd 92 8a 62 bd
       0.035790887 0.13834722 -0.044392783 -0.055307932
000390 09 26 88 3d 99 7d f0 bd 00 eb 16 be 73 f5 2a 3f
       0.0664788 -0.11742706 -0.14738083 0.66780776
0003a0 97 89 97 3e 41 54 44 be 09 38 32 3c 6d df 1b bd
       0.2959716 -0.19172765 0.010877618 -0.038054872
0003b0 51 77 ce 3e d6 b5 d8 3e a4 b7 c6 bd 74 a9 98 3e
       0.40325406 0.4232623 -0.097029954 0.29816782
0003c0 39 9f 0b bd 4e 0f 13 be 9b ca 28 3d d1 a3 4c 3e
       -0.034087393 -0.14361307 0.041208845 0.19984366
0003d0 db 6b c4 3b 19 dc 48 bf 26 a6 96 be b3 dc c5 bd
       0.0059943027 -0.7846084 -0.29423636 -0.09661236
0003e0 79 04 4a 3c fe b8 05 3e 50 d6 8e bd fc 73 2b 3e
       0.012330168 0.1305885 -0.069744706 0.16743463
0003f0 97 66 7d 3c 06 05 04 3e 61 c1 7d 3c f0 a0 f8 3c
       0.015466354 0.12892541 0.015488 0.030350178

actor_mean.2.bias f4 [4]
000000 88 e9 00 3d 11 54 93 bd 69 62 c8 bd 16 a9 64 3d
       0.031472713 -0.07193769 -0.09784395 0.055825315

critic.0.weight f4 [256, 256]
000000 ac 73 31 3e 8a 04 0f 3e 90 98 15 be e3 b9 2a 3f
       0.17329282 0.13966575 -0.14608979 0.6668989
000010 be 84 d6 be cd c9 bc 3b 98 f1 4c ba 79 8d ff bd
       -0.4189815 0.005761361 -0.00078179827 -0.12478156
000020 e3 1e 4a be ef 43 e5 bd ef f1 f1 be e4 74 63 3e
       -0.19738345 -0.11194598 -0.47254893 0.22212559
000030 58 a2 3e 3e d4 b5 db 3d 6e 35 9b be 1f 30 10 3e
       0.18616617 0.1072804 -0.303142 0.14080857
000040 33 25 60 3e 5b 48 34 3e e4 46 09 3e d9 56 ac 3d
       0.2188919 0.17605726 0.13405949 0.084150024
000050 c6 a6 9e bd 43 51 e5 3d 94 51 b0 3e 05 1c cb bd
       -0.07746653 0.1119714 0.3443724 -0.09917454
000060 92 67 30 bc 34 9f 80 3e 9a e5 72 bd 42 da 48 3b
       -0.010766881 0.25121462 -0.059300996 0.003064767
000070 8a 85 03 bf d3 23 45 bd 97 21 1d 3e 07 7f 4c 3e
       -0.5137564 -0.048129868 0.15344845 0.19970332
000080 d9 2b 29 3e 4b 3d f3 bd 73 2d f3 3d 33 71 10 3e
       0.16520633 -0.11876925 0.11873903 0.14105682
000090 fc 25 2c be f3 db cb bd 30 5d 28 be a3 b8 98 3e
       -0.16811365 -0.09954061 -0.16441798 0.29828367
0000a0 b5 90 df 3c 92 af 32 3d ca f4 5a 3e 50 06 a6 bc
       0.027290681 0.04362447 0.21382442 -0.020266682
0000b0 c4 57 12 3e 46 ba fb 3e 9f 01 e8 bc ec f7 02 3e
       0.14291292 0.49165553 -0.028321085 0.12789887
0000c0 76 d3 f9 bd 9f 67 aa 3e 22 86 c2 bd 97 25 eb 3d
       -0.12198536 0.33282182 -0.0949824 0.11481779
0000d0 c6 7b 39 be 98 2b 8d bd 61 d7 58 3e ac 67 85 3c
       -0.18113622 -0.068930805 0.2117591 0.016284786
0000e0 28 6a ec 3d f5 f4 9c 3e 3e b7 ae bd c3 b4 dc 3d
       0.11543685 0.30655637 -0.085310444 0.10776665
0000f0 09 9d ce 3d 6b 97 12 3e 52 43 c7 3c a4 09 a3 3e
       0.10088546 0.14315574 0.024324093 0.31843293
000100 e5 5f 94 be 43 b3 22 be 33 48 f6 bc 94 2e 4a 3d
       -0.28979412 -0.15888695 -0.030063724 0.049360827
000110 06 74 08 3e b6 43 22 3e c4 7f 98 be a9 3b a0 bc
       0.1332551 0.15846142 -0.29784977 -0.019559698
000120 1f a9 88 be bc ff 6d be e2 5f 89 3c 2b 9a eb 3d
       -0.2669153 -0.23242086 0.016769353 0.115040146
000130 4b 5b c6 bd dd 5c e8 bd 80 63 49 be 7f 1d 01 be
       -0.096853815 -0.11345837 -0.19666862 -0.12608908
000140 ee 6a 55 3e 79 35 65 3e 55 d0 10 3e d3 b7 9a bc
       0.20841572 0.2238368 0.14141972 -0.018886482
000150 7b c4 80 3e 35 11 c3 3d 1c 26 0f bf 9e f3 65 be
       0.25149903 0.09524766 -0.55917525 -0.22456214
000160 f7 71 dd bd 9d 01 6b be 63 7f 11 3e 8d 5b 82 3d
       -0.10812753 -0.22949834 0.1420875 0.06365118
000170 01 07 fe be 20 78 ff bc 62 72 f1 3d 80 12 9e 3d
       -0.4961472 -0.03118521 0.11789395 0.07718372
000180 46 72 03 be 20 1c 5d 3d e0 3e 10 3e c8 bd 59 bc
       -0.1283656 0.0539819 0.14086485 -0.013289876
000190 d5 ba a4 bc ba 1c a6 3e c3 95 f1 bd a9 ec 45 3e
       -0.02010862 0.32443792 -0.11796143 0.1932856
0001a0 91 92 bb 3d 64 2c 9c 3e 83 94 d7 3e 93 97 12 be
       0.09158815 0.30502617 0.42105493 -0.14315633
0001b0 59 59 0f bf 74 6b 8e 3c 0f e7 45 3e da b4 2b be
       -0.5599571 0.017385222 0.19326423 -0.16768208
0001c0 33 6c ab 3e 7b ca 38 be 22 2f 51 be cb 46 83 3d
       0.33480987 -0.1804599 -0.20428136 0.06409987
0001d0 cd b1 7c 3e ad b8 e4 3e a1 cc 49 3e 6a de a0 bb
       0.246772 0.44672146 0.19706966 -0.0049093263
0001e0 0e 6f 07 3e 89 b5 d8 3d 37 29 69 be f5 16 12 bc
       0.13225958 0.105815 -0.22769628 -0.008916606
0001f0 0b ba a0 be 82 02 9b 3e 34 76 94 3d b3 0c 80 bc
       -0.3139194 0.3027535 0.07249108 -0.015631055
000200 7e 9e 5b be 96 8c 95 bd 11 a8 ab bc 16 23 1a 3e
       -0.21447179 -0.07302205 -0.020954164 0.15052447
000210 67 e2 b8 3e 45 d7 01 be 23 ff e8 bd c5 fa 52 bd
       0.3611023 -0.12679775 -0.113767885 -0.051508684
000220 d6 07 ac 3e c4 ce 59 bd a0 44 b7 bc ab 6c 2b 3f
       0.33599728 -0.053175703 -0.02237159 0.6696269
000230 3a 89 6a 3e bd 5e 77 be 56 ad 46 3e cb 5e 36 bd
       0.2290391 -0.24157234 0.1940206 -0.044523995
000240 40 4e 90 3d ef 46 55 3e 0e c0 d2 bb db ce da 3d
       0.07046175 0.2082784 -0.006431586 0.10683986
000250 8e c5 b2 ba db 98 2f 3d cd d4 0a bc d1 b5 c3 bd
       -0.0013639198 0.042870384 -0.008473587 -0.09556163
000260 e3 79 e9 3d 55 49 bf be 65 7e a0 3e e2 fc df bc
       0.11400201 -0.37360635 0.3134643 -0.027342264
000270 81 4f 09 3e 00 2d ec bc fc 5c a3 3e 2e b1 ae be
       0.13409235 -0.028830051 0.3190688 -0.34119552
000280 ea e0 aa bd c7 0f 13 be 77 2c e7 3c 96 88 2c 3e
       -0.0834368 -0.14361487 0.028219445 0.16848978
000290 7e c9 d8 3c 84 84 19 3e be 62 fe 3d 5c 6b 2c be
       0.026463266 0.14991957 0.12421177 -0.1683783
0002a0 d6 7f b6 3d 64 ea c5 3e 3a 1d 02 be a8 00 b8 3c
       0.089111015 0.38655388 -0.12706462 0.02246125
0002b0 62 43 d2 3d 21 98 6d 3e 55 43 7c 3d 49 e5 09 3e
       0.102667585 0.23202564 0.06158765 0.13466372
0002c0 2b 83 97 3e c4 fb e3 3b 41 51 5d bd 84 96 31 be
       0.2959226 0.006957503 -0.054032568 -0.17342573
0002d0 48 13 0a 3e d2 bb 85 be ab ed d9 3d 50 a2 6e be
       0.13483918 -0.26119858 0.10641035 -0.23304105
0002e0 4e 1f 4f bc 12 b5 b7 bc 5c 81 09 3e 39 c6 79 3e
       -0.012641741 -0.022425208 0.13428253 0.24392022
0002f0 50 2f 07 3e 06 6b 40 be 93 1b f3 bd 4b 3b b9 bd
       0.13201642 -0.18790826 -0.11870494 -0.09044512
000300 fd 77 62 3d 6e 1f 39 3e 57 dc 9e bd 3d f8 9e 3d
       0.05529021 0.18078396 -0.0775687 0.077621914
000310 9b f2 e6 bd 4c 18 18 be 3b d2 80 3e 2e 6f b6 3d
       -0.11276742 -0.14853019 0.25160393 0.089079246
000320 17 92 f7 bc 32 d6 95 3d e5 69 a9 3c 02 26 c7 3e
       -0.030221028 0.07316245 0.020680377 0.38896185
000330 52 3d 33 3d 45 33 59 3d 35 5a 9b bd 5f 77 f3 3d
       0.04375965 0.05302741 -0.07585565 0.118880026
000340 1b f9 78 3e 28 c2 48 be 64 61 91 3d 59 e9 b4 bd
       0.24313776 -0.19605315 0.07098654 -0.0883357
000350 2a 19 1f 3e f5 02 c5 bd d8 6a 0e be 13 e4 58 be
       0.15536943 -0.09619705 -0.13907945 -0.21180753
000360 3d 63 1e be 5b a0 a4 3c bd 57 40 be d4 c4 69 bd
       -0.15467544 0.020095995 -0.1878347 -0.057072476
000370 ab 8d 88 3d c3 97 8f bd be 30 63 bd c0 83 60 be
       0.06667646 -0.07011368 -0.055466406 -0.21925259
000380 e7 92 1e be 72 16 21 be f0 c3 a9 3d 70 a1 bb 3c
       -0.15485726 -0.15731218 0.08289325 0.022904128
000390 70 95 a4 be ea 36 ad 3d cd 2e f7 3d cb 55 60 3d
       -0.32145262 0.0845774 0.120694734 0.05476932
0003a0 56 30 0f be 46 2b a6 3d d2 db 27 bc a2 ed 99 be
       -0.13983282 0.081137225 -0.01024528 -0.30064112
0003b0 18 50 df 3d bc 2f 7b bd 70 02 a1 3e d8 bd 8d 3d
       0.109039485 -0.06132482 0.31447172 0.069209754
0003c0 7a 6d 62 3e 48 95 e7 3e 05 38 b0 bc 73 6f 51 3d
       0.22112074 0.4523108 -0.021511087 0.051131677
0003d0 41 89 30 be 7d 24 21 3d 31 31 e6 bd 8b 49 43 3e
       -0.17239858 0.03934144 -0.11239851 0.19071023
0003e0 fe 93 1c bd f1 5c ab 3d bb d2 42 be 5a 31 9d bd
       -0.038227074 0.083673365 -0.190257 -0.07675429
0003f0 4c cf 89 3d 9f e0 9d 3d e4 d8 77 3d d1 a2 34 3e
       0.06728992 0.07708859 0.060509577 0.17640235

critic.0.bias f4 [256]
000000 c7 a8 78 3e 40 73 ef 3d f8 0d 17 3e e6 55 04 3e
       0.24283133 0.11691904 0.14751422 0.12923393
000010 e7 7d 08 3c 5f f3 53 3e 2d 11 07 3e 10 ab 8c 3e
       0.008330799 0.20698307 0.13190146 0.2747426
000020 f7 80 8f 3e a2 0e 6d 3d 23 9e 8f 3e e5 c0 e0 3d
       0.2802808 0.057875283 0.28050336 0.10974292
000030 b7 26 0c 3e 49 98 ad 3e 8a 1d 7f 3c 06 c6 e7 3d
       0.13686644 0.33905247 0.0155710075 0.11317067
000040 0e 50 94 bd 2d d9 7a 3d 81 ad ec 3c de 54 c8 bb
       -0.07241832 0.06124227 0.028891327 -0.0061136326
000050 85 51 a2 3e 0c af 17 3e 69 a9 24 bb ef e4 8d 3e
       0.3170282 0.14812869 -0.002512539 0.27713725
000060 45 9a d7 3c 9f f5 9d 3e 90 60 13 3e 27 51 fa 3b
       0.026318679 0.30851457 0.14392304 0.0076390686
000070 88 47 9e 3e 2a b7 61 bd 4b 54 f1 3d 79 d6 e4 3d
       0.3091395 -0.05510632 0.11783656 0.1117372
000080 a8 ed 63 3c 3c 92 1c 3e 47 5c 7a 3d 29 e3 9c 3e
       0.013911642 0.15290159 0.06112316 0.3064206
000090 cc 31 9b 3e d5 e6 8f 3d 06 0a 55 3e 18 38 6f bd
       0.3031143 0.070264496 0.20804605 -0.058403105
0000a0 47 78 b8 3a 43 ef 84 3e ee ed 8a 3e 85 0a 72 be
       0.0014073931 0.25963792 0.2713465 -0.23636825
0000b0 04 a9 88 3e f7 8f 0c 3e 97 0c 97 3e 96 3c 22 bd
       0.2669145 0.13726793 0.29501793 -0.03960856
0000c0 b8 38 29 bd 0a 45 73 bd 12 06 8b bd f7 41 8f 3e
       -0.041313857 -0.059392013 -0.06788267 0.27980015
0000d0 4e 30 35 bd e1 e6 55 3e a2 4c cb 3d fa b0 e2 3d
       -0.04423552 0.20888855 0.09926726 0.11068912
0000e0 8e b9 02 3e 05 98 c5 3c 3f a5 84 3e 9f ce f7 3d
       0.12766096 0.02412034 0.25907323 0.12099957
0000f0 9b 8c 44 bd 98 2b 97 3e 64 8b 80 3c 98 e6 60 3e
       -0.047985654 0.29525447 0.015691467 0.21962965
000100 f8 28 43 3e 38 49 0d 3e c0 98 fd 3d c5 57 b0 3d
       0.19058597 0.13797462 0.123826504 0.08610491
000110 d2 30 9b 3d 5e d9 a3 bc b3 e0 8b 3d 87 60 b9 3e
       0.07577671 -0.02000111 0.06829967 0.36206457
000120 4f b6 93 bb d2 3b 48 3d d2 51 5b 3e 96 12 76 3e
       -0.004507817 0.048885174 0.2141793 0.24030527
000130 9c 7c 21 3d 01 64 2b 3e 75 00 ee bd 45 2b 21 3e
       0.039425477 0.16737367 -0.11621181 0.15739162
000140 4e 3a 1d 3e c8 6a 32 3d ec cd 14 3e 6d 56 f6 3c
       0.15354273 0.043558866 0.14531678 0.030070508
000150 30 2b 62 bd b0 3b ff 3c 4c fe 80 3c d3 44 4a bd
       -0.055216968 0.03115639 0.015746258 -0.049382042
000160 c8 02 82 3e 9c e6 88 bd 1d c1 98 3e 1d 05 03 bd
       0.25392747 -0.0668461 0.29834834 -0.0319873
000170 97 a7 d4 bc 64 29 9b bd 5b 55 96 3e 35 bd 4d 3e
       -0.02595882 -0.07576254 0.29361996 0.20091708
000180 a3 91 9b bc 28 78 cd 3c 27 86 5b 3e a7 72 05 be
       -0.018990343 0.025081709 0.21437894 -0.13032018
000190 30 0c 1b 3e 66 61 07 39 c2 a6 be 3c 4a d9 ae 3d
       0.15141368 0.00012910887 0.023272876 0.08537538
0001a0 58 1c dc 3d 64 94 b4 3d a8 43 d8 bc 9b cb 81 bb
       0.10747594 0.08817366 -0.026399449 -0.0039610392
0001b0 9a 5a 41 3d 0d 75 79 3d c3 9f 07 bd 41 85 1d 3e
       0.047205545 0.060902644 -0.033111345 0.15382864
0001c0 ad 29 3b bd f8 1c 87 3e fb 61 80 3e dd b7 71 3d
       -0.045694042 0.2638929 0.25074753 0.059013236
0001d0 bc 36 f7 3d 8e c0 2c 3e 75 c3 a4 bc 65 a6 02 bd
       0.12070987 0.16870329 -0.020112732 -0.031896967
0001e0 ab 82 84 3c d2 89 14 3e 63 33 ea 3d c5 13 e5 bc
       0.016175589 0.145057 0.114355825 -0.027963528
0001f0 1b 08 08 bd 7b 75 95 bd a3 6f ce 3c f8 6a 59 3c
       -0.033210855 -0.07297798 0.025199717 0.013270132
000200 a2 ca 3b bc 32 cd 1c 3d 9c 4c 0b 3e e3 ee 38 3e
       -0.011461886 0.038281627 0.13603443 0.18059878
000210 9d 8b 5e bd 6d c2 60 3e e1 d2 a0 3b 0a ea 3a 3e
       -0.054332364 0.21949168 0.004907951 0.18253341
000220 61 6d 25 3e de a7 84 3e 00 dc 56 3e 81 ad ee 3a
       0.16155006 0.25909323 0.20982361 0.0018209667
000230 43 ae 41 3d 97 af be 3d 2e ab 96 3d aa b1 28 3e
       0.04728533 0.09310835 0.07356869 0.16474023
000240 26 ab 85 bd a8 c4 75 bd 3a 68 54 3e e2 e8 94 3e
       -0.065267846 -0.060002 0.20742884 0.29083925
000250 e5 a4 d3 bc be 44 07 3c 9c dd 0c bd 67 65 16 3e
       -0.025835464 0.0082561355 -0.03439103 0.1468712
000260 53 c9 7c 3d 56 3e 2a 3e d8 36 53 bd 05 5a 5d 3e
       0.061715435 0.16625342 -0.051565975 0.21616371
000270 12 18 a8 3e 64 f6 29 bd 36 e4 d4 3d c4 0b f5 3d
       0.32830864 -0.041494742 0.1039509 0.11965135
000280 2d 54 12 3e 67 b8 1f 3d 3c e9 b6 3d 86 7f 14 3e
       0.14289923 0.03899422 0.08931205 0.14501771
000290 76 08 42 3e b2 3c 3e 3e b3 92 7d 3e 96 26 b8 3b
       0.1894854 0.18577841 0.24762993 0.005619834
0002a0 80 15 58 3e c0 10 27 3e ac 93 92 3e 4c 72 a4 bb
       0.21101952 0.16314983 0.2862829 -0.005018508
0002b0 96 c9 a9 3e f1 36 cf bc 95 ba 26 bd c6 fc 31 3e
       0.3316161 -0.025294753 -0.040705282 0.17381582
0002c0 4d 8f 50 3c b1 a5 7b 3e 65 5e 4b 3e dc 1c 82 3e
       0.012729478 0.24574925 0.19860227 0.25412643
0002d0 f6 80 cb 3d ff 5f 04 3e af 81 d3 3d 26 6a af 3e
       0.09936707 0.12927245 0.103274696 0.34260672
0002e0 7a f3 bb 3d 54 bb 08 3d fe 9e c8 3d 20 34 b9 3c
       0.09177299 0.033381775 0.0979595 0.022607863
0002f0 23 12 10 3e 68 c3 91 3c a8 25 09 3e 72 98 62 3d
       0.14069419 0.017793372 0.13393271 0.055321164
000300 bd a7 15 3d 98 c5 af 3c 6f c0 7a bd 09 67 22 3e
       0.03653692 0.021456525 -0.061218675 0.15859617
000310 df 65 8d bc 85 ab 35 bc f0 cd 9d 3d f3 94 ab bd
       -0.01726049 -0.011088257 0.07705295 -0.08378019
000320 94 44 28 3e 64 a2 87 3e 4a 59 0b bd cb 0a 90 3c
       0.1643241 0.26491082 -0.0340207 0.017583271
000330 86 b3 29 3e 4d 13 2f 3b 15 78 92 3e fc 4f 32 3d
       0.16572389 0.0026714385 0.2860724 0.04353331
000340 f7 a1 15 3c 45 9e 0b 3d 24 8c 38 3d a8 ff 31 3d
       0.009132854 0.034086484 0.045055524 0.043456703
000350 74 50 9c bc dc 6f 9b bb 13 58 b9 3d 61 0a 69 bd
       -0.019081332 -0.0047435593 0.09050002 -0.056894664
000360 c8 24 94 3d b9 3f 52 3e ba bf 64 bd 42 19 24 bc
       0.07233578 0.20532121 -0.055846907 -0.010015788
000370 32 a5 2a bc 9e 6e 04 3e ac 81 a9 3e c0 bc 88 3e
       -0.010415362 0.12932822 0.33106744 0.26706505
000380 f8 54 8f 3e 06 74 5f 3c 31 df 05 3e b9 8a 64 3e
       0.27994514 0.013638502 0.13073422 0.22318543
000390 de f1 a2 bd 0d fe 05 3d 18 80 05 3e b2 b4 1e 3e
       -0.07956289 0.032712985 0.13037145 0.15498617
0003a0 7f d5 e8 3c c2 71 10 bd 3a 81 7d 3e 0e 31 b0 3d
       0.028422115 -0.035264738 0.24756327 0.086031064
0003b0 70 64 7b bc ef f9 c3 3b 27 93 e7 3d 89 80 3c 3e
       -0.01534377 0.005980722 0.11307364 0.18408407
0003c0 86 b5 2f 3e d3 dd 3e 3d e6 84 b4 3e e7 b7 a1 3b
       0.1715909 0.046598267 0.35257643 0.004935253
0003d0 62 06 55 3e 79 00 45 3e 3d 91 72 3c ab a1 cf 3c
       0.20803216 0.19238462 0.014805135 0.025345644
0003e0 d1 c2 ae 3d 4f 71 90 bd 3d 58 b8 bd 32 7f 89 3e
       0.08533252 -0.07052862 -0.09001205 0.26854855
0003f0 f3 4b 87 3d 3f f5 78 bd b2 d9 0f 3e 76 a9 98 3e
       0.06606283 -0.06078076 0.14047888 0.29816788
