best_model_episode_1000.pth (torch, 561701 bytes, 10 tensors)

actor_log_std f4 [4]
00000000: ebc6 48bf aecc 8abf fd00 85be 52d9 1cbf
-0.78428525 -1.0843713 -0.25977316 -0.61269104

shared.0.weight f4 [256, 24]
00000000: 254d 593e 9853 db3c 7f2f 543d e1cf 4c3e
00000010: 0d5f c5bd 316c 8abd d1f6 49be fbe9 1c3d
00000020: d168 4c3e 0791 0fbe 9a8d 8b3e 1e5d 703c
00000030: 063d 2b3e 3ac0 1dbd 65c5 043e b271 71ba
00000040: 699a 373e 7e20 2e3d aea3 bdbd e595 3c3d
00000050: 0126 c9bd c490 a638 2151 86bd 7c48 513e
00000060: 26e1 adbe 0322 dbbd 48aa 66be 5434 e1bd
00000070: 66d2 873d cef5 53be 1fa5 823e 115c 18be
00000080: 16af 173e 6507 91bd 300d 20bd 4d94 313e
00000090: f5dd cb3c 5130 bf3d 943f 03bd dcab edbd
000000a0: 0367 0f3b 8a94 e0bd af59 0d3d 28e9 093e
000000b0: 7545 a13d 9700 d1bd bec8 be3d 9b21 c03d
000000c0: eca1 c63e dae6 3cbe 2e05 323c 2d80 f73d
000000d0: 07ee 89be f38c d43d 630b f9bc 2d9f 6e3d
000000e0: 2470 883d bc7f 263d 8779 cd3a cadc 4ebe
000000f0: 04ed 013c bd9e 03bd 5040 ad3d 649a 50bd
00000100: 24b9 983d b88a 25bd 4f5a 283e 13f0 05be
00000110: d753 0abe 98b6 f8bd 8293 313e 7e1b 043e
00000120: 27bd ed3e a605 783e 8945 b1be af95 7cbe
00000130: fb24 4b3c af1c b23d e0be 623e 2bb9 d73c
00000140: 5a5e a0bb ed9a 2cbe 0aa0 363b 4183 07bd
00000150: fb0a 903c 86cd 76bd 1e9b ae3d e5e9 3fbe
00000160: c593 04be d22c 173d 4d0f 8b3c d1d0 a0bd
00000170: 5861 c03d 9a05 da3d 01cc 3cbe 1961 2ebe
00000180: 7ac1 aa3e 4c39 f4bd 7ced ba3d ecdf bcbe
00000190: 2a7d 6dbe 318e 413e be90 9abb e097 5cbe
000001a0: c803 17bd 640a 76bd 8ced 3ebe 8794 12be
000001b0: 9123 ebbd 4121 4a3c bf17 8a3e 18a1 d23d
000001c0: 156f f93d 363f 0fbe d6f0 b5bd 8b47 d8bc
000001d0: 65ca 8b3d f0a5 12be 99da 73bd 3e41 4dbd
000001e0: 0917 acbd 6011 003c 9b46 91bd 7e12 ccbe
000001f0: 7caa 6abe 0ea2 1dbe 67ee 26be a1a0 fcbd
00000200: ef27 143e 4c5c b63b 22ed 3a3e 457c 6bbb
00000210: 02fd 21be d858 613e 5bfd c7bb 1c00 0fbd
00000220: 71a9 02be 9eba 23be f7a5 d03d feb5 2838
00000230: 5dbe 033e 585f fabd ff3f 793e 0474 babd
00000240: e416 fcbe 7feb 73bf 6b4e 1d3e c2cd ed3e
00000250: d4b7 b53d 8f73 f23c b94b 1c3e 39d6 0cbd
00000260: 20d1 1abc 5fed b1be 8d89 18bd c11c 4abe
00000270: d420 f6bb 0dc2 76bd bf39 013e 8127 79bd
00000280: db74 633e a43d 8d3d cd36 053d c60b 48be
00000290: 6c7e 533d 3a9f a9bd 97f4 f5bd 6570 5b3e
000002a0: 5d18 8cbe c802 d5bd cac0 dcbd 5563 2ebe
000002b0: 5935 f03d a8f5 fdbc bfd2 223e 57f1 9cbd
000002c0: 1108 d5be f734 a8bd 1b95 a63d 9b14 63be
000002d0: 4df8 71bc fcf4 eb3d 161b 243d 6e9c 66bd
000002e0: ceb2 093e de5a 153e 44e5 033e 403c d73c
000002f0: 14e1 a33b f914 923d 4145 05bd 078b 3cbc
00000300: a16f e83e 5d52 443f 8048 b4be 1865 5bbe
00000310: f5f1 6b3e ecc9 ea3c 0142 4d3e ce65 0c3c
00000320: 2477 9abc 28c2 ebbc 1faf 18bc 8089 6a3d
00000330: e1ab bf3c 3766 3fbe f0da 0abe 07fe 45be
00000340: 3c80 9ebd 4f08 673d 7690 eb3d 097a 9c3d
00000350: 27f8 4dbe 68a2 16be 66fd 59bd 8d7d 253e
00000360: cf58 1b3d 468c 10be a674 c8bc cd58 98be
00000370: 0849 91bd ab56 503e 9f8e 5fbe ce79 ee3b
00000380: ee98 65be 790b 133e c422 d33d aeec 373e
00000390: ee8b 44bd 5829 80be 1bba 08be 7b45 3e3e
000003a0: 5fcb 083e d3cc 583e 1c40 1d3e 386d d83d
000003b0: d611 6c3d 2fba bcbd a554 07be 7006 16be
000003c0: 9781 2e3e c52d 11be 1fd4 8a3d d45c 46be
000003d0: ec93 57bd 6b13 c6bd 6819 b7be 772a 343c
000003e0: abd3 3bbd 24eb 563e 0cf3 8cbd 6dd1 2bbe
000003f0: 5816 fabc 5f93 92bb 63af a2bc 2ee4 18be
0.21220835 0.026773259 0.05180311 0.20001175 -0.0963727 -0.06758917 -0.19723059 0.03830908
0.1996186 -0.14020167 0.2725647 0.014670638 0.16722497 -0.0385134 0.12965925 -0.00092103623
0.17929997 0.042511456 -0.09259735 0.046041388 -0.09821702 7.9424615e-05 -0.06558443 0.20437807
-0.33960837 -0.106998466 -0.22525895 -0.10996309 0.06631927 -0.20699236 0.25516602 -0.1487887
0.14812884 -0.070814885 -0.039075077 0.17341729 0.02488611 0.093353875 -0.032043055 -0.11605045
0.0021881468 -0.109658316 0.034509357 0.13467848 0.07874576 -0.10205191 0.09315632 0.0938141
0.38795412 -0.18447438 0.010865493 0.120849945 -0.26939413 0.103784464 -0.030400937 0.05825727
0.06662014 0.04064916 0.0015676477 -0.20201412 0.007930044 -0.032133806 0.08459532 -0.05092849
0.07457188 -0.040415496 0.164407 -0.13079862 -0.13508545 -0.12144202 0.17341426 0.12901112
0.46433374 0.24220905 -0.34623364 -0.24666475 0.012398954 0.08696877 0.22143126 0.026333412
-0.00489406 -0.16855974 0.0027866387 -0.033084158 0.01758336 -0.060254596 0.0852568 -0.18741567
-0.12946995 0.03690798 0.01697507 -0.078523286 0.09393567 0.106456 -0.18437196 -0.17029227
0.33350736 -0.11924991 0.09127328 -0.3688959 -0.23192278 0.18901898 -0.0047169616 -0.2154231
-0.03686884 -0.060068503 -0.18645304 -0.14314471 -0.11481393 0.01233703 0.26971242 0.102846324
0.1217939 -0.13988957 -0.088838264 -0.026401302 0.06825713 -0.14321113 -0.059534643 -0.050111048
-0.08402831 0.0078166425 -0.07093545 -0.39857858 -0.22916597 -0.1539385 -0.16301881 -0.12335325
0.14468358 0.005565202 0.18254521 -0.0035932225 -0.15819171 0.22006547 -0.0061032004 -0.034912214
-0.1275995 -0.15989158 0.10187905 4.0223815e-05 0.12865587 -0.122252166 0.24340819 -0.091041595
-0.49236214 -0.95281214 0.15361945 0.46446043 0.08872953 0.029596118 0.15263261 -0.034383986
-0.009449273 -0.34751412 -0.037240554 -0.19737531 -0.0075112376 -0.060243655 0.12619685 -0.06082869
0.22212546 0.06896523 0.032522965 -0.19535741 0.051634237 -0.08282323 -0.120095424 0.21429594
-0.27362338 -0.10400921 -0.10778959 -0.1703008 0.11728925 -0.031000927 0.15900706 -0.076632194
-0.41607717 -0.08213227 0.08133908 -0.22175829 -0.014768672 0.115213364 0.040064894 -0.056301527
0.13447115 0.14585444 0.12880427 0.026273847 0.0050011966 0.071329065 -0.03253675 -0.011507756
0.45397666 0.76688176 -0.35211563 -0.21425283 0.23041518 0.028660737 0.2004471 0.008569194
-0.018855639 -0.028779104 -0.009319096 0.057260036 0.023397388 -0.18691336 -0.1356008 -0.19335185
-0.077393025 0.056404408 0.11502163 0.07640464 -0.20114194 -0.1471039 -0.053220175 0.16161175
0.03792649 -0.1411601 -0.024469685 -0.2975525 -0.07094008 0.20345561 -0.2183175 0.007277704
-0.2242162 0.14359845 0.103093654 0.1796138 -0.04798501 -0.25031543 -0.13352244 0.18581192
0.1335883 0.21171884 0.15356487 0.10567707 0.057634197 -0.09215199 -0.13215883 -0.14650893
0.17041622 -0.14177616 0.0677874 -0.19371349 -0.052631304 -0.096716724 -0.3576157 0.0109964525
-0.04585616 0.20988137 -0.06882295 -0.16779108 -0.030528232 -0.0044731344 -0.019859022 -0.14930794

shared.0.bias f4 [256]
00000000: c3fd e1bd 7601 ab3d 0b1f 36bb a1bb d73d
00000010: cff0 13be 057a a93d d520 053e e8e2 9f3d
00000020: 1578 b0bd d499 6c3e 61d8 9abd 7091 913e
00000030: e34e 913d 0360 153e f1bb 393e a01a ca3d
00000040: 6379 173e 659e b6bd 61fe d4bd b1dd eb3d
00000050: b18f 9d3e ae64 023e 9393 bebd 847d 1cbe
00000060: 0abe 9f3c 00d5 c33d c73f 1abe 057a 823e
00000070: 543c 4f3e b1c3 523d e471 6d3e 43e0 963d
00000080: ae5d 7bbd 7202 e03d 4fe5 1b3e 13d1 3f3e
00000090: 85f2 90bc a353 833d f628 e6bc 198f cb3c
000000a0: f6a3 04be ef23 4d3e 07cc 813e 49f0 88bd
000000b0: 1364 33bd c622 f5bc b9d7 13be 12db 7a3e
000000c0: 30ea 913b 0311 61bd 6976 34be f85f c53c
000000d0: 1379 99bd 68cb cebd 2e57 433e 0438 e13d
000000e0: 38bf bc3d b950 393e 2da0 4d3d cacb e53b
000000f0: a6b8 f4bd 69cd 0d3e 8cc8 233c c8ae 0f3d
00000100: c828 c1bd ec02 0a3c 6fa2 86bd d3ab c4bd
00000110: 3852 d43b 7023 8cbd d094 65bd 2eab 68be
00000120: bf60 383e 91c3 bd3c f4f6 0ebe 2333 2cbe
00000130: 444a 65bd 1be2 0d3d 2541 e43d e420 013d
00000140: a5eb 363e d986 eeba 980f 9bbd 8023 993c
00000150: 7cc1 83be a3f8 0c3c fd13 0e3e 448f 6b3e
00000160: 9b8c f1bd e876 59bd 2599 e1bb 979c ad3d
00000170: 326f 9e3d 17d9 f2bd a5b0 373e 176a 0fbe
00000180: 0e9f 08be c4fd 293e 22c8 e2bc d927 e0bd
00000190: a52f 31be 176f 843e 03c6 fcbc 4569 103e
000001a0: 84ab 9b3c 5c0b c4bd 397f bdbc f2b2 183e
000001b0: edad ecbd c304 163d 225b 3c3e 0465 a9bd
000001c0: 3ff7 b53d 9030 2fbd 35c1 043e 1e25 0f3e
000001d0: a208 cebd d947 02be 1797 9e3d 9525 85bd
000001e0: 34bd 213e cb49 7f3d e52d 53ba 8397 ef3d
000001f0: adea cabd 41ea d23d 7061 563e a40d fb3d
00000200: c2b5 13be e1dd 533e fd45 693e aedf 6b3e
00000210: c483 8b3c 134e ea3b 0235 563d 5c5b 4bbd
00000220: f707 67be 8429 5fbc f379 883e f593 b43d
00000230: c90e ec3d 3138 e13d 96c8 133e a78d 93bd
00000240: 1f2d 433e f364 d43d 8c46 4abd ac1d 46bd
00000250: b25c bebd b8b4 e3bd eb15 1bbd d94e 8e3e
00000260: e45d 9b3c 7d79 723d 7382 32bd eb5a 973c
00000270: cd28 0dbd 929c 5a3e ec4b 0d3e 6347 a3bc
00000280: 5973 e6bc 633d cc3d a984 013c b3ad 7f3e
00000290: 97ca abbc b76e 423e 5c17 b8bd 4111 723e
000002a0: 1b52 153e 9409 813c 233f cebb 1613 ff3c
000002b0: a6c7 03be 1613 5abe 85d9 233e 0c2c 643e
000002c0: 95b8 363d 84de f13b 5bfb c43d c5eb 5c3d
000002d0: 4c24 b0bd d687 babd 94c8 013e 3d3d edbd
000002e0: cc15 b23c 3060 b0bd 98f7 d03d 2c9e f6bc
000002f0: d1db 59bd 709f 2d3e a49a 673e ff09 3d3e
00000300: 42f1 9d3d 599c 923c 3263 ee3d a2de 653e
00000310: 6253 243e 2fe5 4a3e 4536 e33d 3b11 d73d
00000320: b362 503e 3111 e43d ec22 3fbe 1bd8 d5bd
00000330: bcc1 cabd 2c69 7cbd 0904 b13d 187c febc
00000340: a332 80be 9910 b6bd 9f89 0c3e 131f 233d
00000350: bd6f 243d c5d5 543d f9d7 a3bc b4a5 15bd
00000360: 3e60 e73c b0df 8fbd cf60 59be cd6d 09be
00000370: 6035 d63b b7a2 163e 05c5 693e 175d 87bc
00000380: ddff 5d3e 682a bc3c 8111 25be 1ff0 cebd
00000390: 0ff3 d0bd 43fe 0ebe 5516 cf3d 4e87 343d
000003a0: e6a9 49be d5f0 8a3d 05b7 23be 9c6a 8a3e
000003b0: ea28 0b3e 0a9c 433c 58aa 5d3e 8ffe 07be
000003c0: adf9 713e be9c 63bd 9b52 953d 6e89 5c3e
000003d0: a56d f93b 2836 7e3d 89d1 083d eafc 973d
000003e0: 3656 783e 80ec 7cbc 3030 2bbd c2d6 9b3d
000003f0: 35d2 813c d54f 45bd 9fbb 31bd c872 583e
-0.11034729 0.08349888 -0.00277895 0.10533834 -0.1444733 0.082752265 0.13000806 0.07806951
-0.08616654 0.23105556 -0.07560802 0.28431273 0.070951246 0.14587407 0.181381 0.098683596
0.14792399 -0.0891693 -0.104000814 0.11516894 0.3077369 0.12733719 -0.09305491 -0.15282255
0.019499797 0.09562111 -0.15063392 0.2548372 0.20237857 0.051456157 0.23187977 0.07366993
-0.061368637 0.109379664 0.15224193 0.18732099 -0.017693767 0.06412437 -0.028095704 0.024848508
-0.12953171 0.20033239 0.25350973 -0.06686456 -0.04379661 -0.029923808 -0.1443776 0.24497631
0.004452966 -0.054947864 -0.17623295 0.024093613 -0.07493796 -0.100973904 0.19076225 0.10997012
0.092161596 0.180972 0.050201584 0.007012819 -0.119492814 0.13847889 0.009996545 0.035078794
-0.094316065 0.008423548 -0.065739505 -0.09603085 0.006479528 -0.06842697 -0.05605012 -0.2272155
0.18005656 0.023164542 -0.13961393 -0.16816382 -0.05597903 0.03463946 0.11145238 0.031525508
0.17863329 -0.0018198147 -0.07571334 0.018693686 -0.25733554 0.0086042015 0.13874812 0.2300387
-0.117943965 -0.053091913 -0.0068847113 0.08477133 0.077360526 -0.11857813 0.17938478 -0.14005314
-0.13341925 0.1660071 -0.027683321 -0.109451 -0.17303331 0.25866005 -0.030856138 0.14102657
0.019002683 -0.09572479 -0.023131954 0.14912012 -0.11556611 0.036625635 0.1839414 -0.0827122
0.08885049 -0.042770922 0.12964328 0.13979003 -0.1006024 -0.1272272 0.07743662 -0.06501309
0.15794832 0.062326234 -0.000805585 0.116988204 -0.09908042 0.10298587 0.20935607 0.12258461
-0.14424804 0.20690109 0.22780605 0.23034546 0.017030604 0.0071504205 0.052296646 -0.049647674
-0.22561632 -0.013620738 0.2665554 0.08817283 0.115262575 0.10997046 0.14431986 -0.072047524
0.19060181 0.10370817 -0.049383685 -0.04836814 -0.09295024 -0.11118454 -0.0378627 0.2779453
0.018965669 0.05919789 -0.043581437 0.01847597 -0.03446274 0.2134879 0.13798493 -0.0199315
-0.028131174 0.09972646 0.007905164 0.24968605 -0.020970626 0.18987547 -0.089888304 0.23639394
0.14582102 0.015751638 -0.0062941476 0.03113703 -0.12869129 -0.21296343 0.16000946 0.22282428
0.044609625 0.0073812623 0.09618255 0.053935785 -0.08600673 -0.0910794 0.1267417 -0.11583946
0.02173891 -0.08612096 0.10203475 -0.03010472 -0.05318815 0.16955352 0.22617584 0.18460844
0.07712032 0.017896818 0.11640014 0.22448209 0.16047433 0.19813989 0.110943355 0.10501333
0.20350151 0.111360915 -0.18665665 -0.104416095 -0.09900233 -0.061623737 0.08643348 -0.031065032
-0.25038633 -0.088898845 0.13724373 0.039824557 0.040145624 0.05196168 -0.020000445 -0.03653498
0.028244134 -0.07025087 -0.21228336 -0.13420792 0.0065371245 0.14710508 0.22829063 -0.01652388
0.21679635 0.02296944 -0.16119958 -0.10104393 -0.1020261 -0.1396418 0.10111681 0.04407435
-0.19693717 0.06784216 -0.15987785 0.27034461 0.13589826 0.011939058 0.21647012 -0.132807
0.236304 -0.055569403 0.07291146 0.215368 0.0076119476 0.062063366 0.033402953 0.074212864
0.24251637 -0.015437245 -0.041794002 0.07609321 0.015847305 -0.048171837 -0.04339182 0.21137536

actor_mean.0.weight f4 [256, 256]
00000000: 3d71 f8bd 2832 f0b9 958b 173d 4951 58bd
00000010: 1267 5f3d 9d05 ad3d 0186 783d 9c64 833d
00000020: 7001 d7bd 1aea b93c 5ded c4bd 6168 fc39
00000030: f4e5 af3d 2430 ce3a fe1d 0c3d 346b ed3c
00000040: 741c 90bd 1219 e4bc 44f8 eebd 0d81 213e
00000050: 55b3 89bd 06c0 6abd b3fb a83d 5bc1 0ebe
00000060: 73de f4ba b64e 67bd 8629 9d3d f82d ff3c
00000070: d76c 283c be45 a8bc ec17 ae3c d68c c43d
00000080: ba8d 4f3c 7998 b6bc c09e 573d 53dd 4d3d
00000090: 0413 263d 92f5 323d 6a12 9fbd 374f fabc
000000a0: 04dd 3e3d 8a95 ba3d d074 6f3d e3da 423d
000000b0: b589 0c3e b7d7 a83d 02e6 2c3e 5464 8fbd
000000c0: 12b5 8bbc 96ad 843d 2bd2 a7bc ff18 dd3c
000000d0: ad55 623d bbcd 31be 1e11 f13c fd20 033e
000000e0: 6f80 eb3d a4be 8cbd 018a a93d 04c9 b5bc
000000f0: 105c 693e b38e 5b39 ab0b 00bd 0b94 2b3c
00000100: 015f cd3d 96b1 063c 2025 223d acd1 6e3d
00000110: dbc0 e03d 790d 4b3d 2b8f c93d 7088 b4bb
00000120: 5b77 5bbd fcd5 f23c 748e 10bd 1fa7 833d
00000130: 20a0 c43d 330b f9bc 9db1 acbd fb6d 8cbd
00000140: 9d55 8bbb 00d4 76bc f914 003e a874 30be
00000150: 04ca 8abd 3116 0c3e ba20 9bbd 1389 39bd
00000160: 74b6 243d 7091 c1bc 4e3b 49bc 6fa2 79be
00000170: 95cb f9bd b811 7a3d d99e 1f3d df2e 043d
00000180: f741 28bd 800b 763d 1886 42bc 26b8 ecbd
00000190: 5c93 0abe 5e6f 983d 1f2d cebc 3e68 9dbd
000001a0: 6fc6 6ebd 64fa 213c 395e aabc 9140 073d
000001b0: 51e8 3dbe e236 a9bd c443 943d d1c9 e83d
000001c0: b277 18bc 148b 37bc 2aaa 163d 27d5 abbd
000001d0: 7708 c7bc 32bf 2bbd 199e 30be 2a27 aa3d
000001e0: f64a e43c ff0c 5e3d 72f2 973d 9725 0a3d
000001f0: e4b7 1e3b 8949 6c3c ae70 b03d 3ce8 453c
00000200: 2483 83bc 798f 8bbd 5f29 c6bd 3a91 063d
00000210: a93b ea3c 7b89 803d 878c 903d ee76 563d
00000220: 271b 943d b1a4 993d 4a4f 52bd 69de 08bb
00000230: 1460 5e3d c843 4a3d c162 bc3b 824e 1ebe
00000240: 8761 28bd 2e06 88bd c42d 91bd bac4 cc3d
00000250: 685d cebc 3e84 343e a826 e63d 8953 873d
00000260: 3f0d e53c 42a9 75bd 0f6e c5bc d1b4 873d
00000270: fa5e 1c3d 76bd d6bd 0eb7 a5bd b302 24bd
00000280: fdeb b23d 7e65 223d dc0e e33c 1479 0dbe
00000290: 3104 fe3d 7cdd 0b3d 0a59 c2bb 750c e63d
000002a0: ce5a 89ba d358 6dbd 0377 05bd da22 a43d
000002b0: ba27 5ebd d82d 023e 3b9e 873d 71b2 fd3d
000002c0: 2dd0 0c3e 7ca5 2f3d 467c 23bb 0578 8cbd
000002d0: 9b03 75bb c4ea 903d bbcf 6a3d 8993 c2bd
000002e0: abd2 85bd 7d4f 1e3c fcd3 abbd 2225 243c
000002f0: 4c49 8ebc 9fb9 08bd 4912 27bd e81f 353d
00000300: 7c19 c73d 3f49 95bd 80d0 2bbc d4f3 ccbc
00000310: 9c5b 5d3b dc01 c0bd cc64 a63d 4f4e d8bb
00000320: 6ba5 7f3d b7e2 2fbd cdda 993c 30fa 79bd
00000330: 5c17 f1bd e13a 8a3d f62f 16bd 761c 2cbe
00000340: dae6 a2bd c8ba 88bc 7695 d13d 71bd 833d
00000350: 87b8 bebc dadd 62bd 1bd3 813d 1ae2 043c
00000360: c677 5e3d 01b6 9f3d 70f4 20bc ee7b 0dbe
00000370: f087 c0ba f984 063d bc5a 4fbc 3c18 c2bb
00000380: 0ec2 27bb 1f26 8abc 347e d63c fabd febd
00000390: aa7e 40bd 1a9f 523d 517b 11bb 680d 84bc
000003a0: 8372 193e b81f ba3c 1e64 f33d 0dce 1d3e
000003b0: 2a6e 8b3d 2953 ecbc 850b 6d3d 435b 22bd
000003c0: f88b a43c c979 f0bd ed65 27bc 6faf 3b3d
000003d0: a77a 243d fb11 09bc e13f 073d 3ba9 3b3e
000003e0: a374 18bd 27f7 7fbc 3e84 f63d 9f0b 163d
000003f0: 0e06 10bd d9b6 603d 8f09 b03b 36bb 0dbe
-0.121309735 -0.00045813737 0.03699835 -0.052811895 0.054541655 0.08448336 0.06067467 0.06415674
-0.10498321 0.022694636 -0.09615586 0.00048142954 0.08588782 0.00157309 0.03420829 0.028981782
-0.07036677 -0.027843986 -0.11668447 0.15771885 -0.06723658 -0.057312034 0.08251133 -0.13940947
-0.0018682018 -0.05647155 0.076739356 0.03114985 0.010279856 -0.020541068 0.021251641 0.09597175
0.012668068 -0.022289502 0.05264163 0.0502599 0.04054548 0.043691225 -0.07767184 -0.03055535
0.046597496 0.091105536 0.05846101 0.047572028 0.13724406 0.08244269 0.16884616 -0.07001558
-0.017054114 0.064784214 -0.020485958 0.026989458 0.055257488 -0.17363636 0.029427107 0.12805553
0.11499106 -0.06872299 0.08278275 -0.022190578 0.22789025 0.00020938627 -0.031261127 0.010472308
0.10027886 0.008221051 0.039586186 0.058305427 0.10974284 0.049573395 0.0984176 -0.0055094287
-0.053580623 0.029643051 -0.035292104 0.0642836 0.09600854 -0.030400848 -0.084323145 -0.068569146
-0.0042521493 -0.015065193 0.12508 -0.17232001 -0.06776813 0.1368034 -0.075746015 -0.04529674
0.040213063 -0.02362892 -0.012282206 -0.2437837 -0.12197033 0.061052054 0.03896985 0.032271262
-0.041078534 0.06006956 -0.011872791 -0.11558561 -0.13532776 0.074431166 -0.025168 -0.07685898
-0.05829471 0.009886358 -0.020796882 0.03302056 -0.18545653 -0.08262421 0.07239488 0.113666184
-0.009305881 -0.011202592 0.036783375 -0.08390265 -0.024296029 -0.041930385 -0.1724781 0.08308251
0.027867775 0.054211613 0.0741929 0.033727255 0.0024218494 0.014421829 0.08615242 0.012079295
-0.016053744 -0.068144746 -0.0967586 0.032853343 0.028592901 0.06276222 0.070580535 0.052359514
0.072317414 0.075021155 -0.051345147 -0.002088452 0.054290846 0.049381047 0.005749077 -0.15459636
-0.041108634 -0.06641804 -0.07088807 0.0999846 -0.025191024 0.17628571 0.11237842 0.0660773
0.027960418 -0.05997587 -0.024100332 0.06626285 0.038176514 -0.104853556 -0.080915555 -0.040041637
0.087364174 0.03964757 0.027717046 -0.13815719 0.12403143 0.03414677 -0.0059310244 0.11232845
-0.0010479332 -0.057946038 -0.0325842 0.0801446 -0.054237105 0.127128 0.06621977 0.123875506
0.13751288 0.042882428 -0.00249459 -0.068588294 -0.0037386182 0.07076028 0.057327013 -0.09500796
-0.06534322 0.009662506 -0.08390042 0.010018619 -0.017368935 -0.033380147 -0.040788922 0.04421988
0.09721658 -0.07289361 -0.010486722 -0.02501861 0.0033776527 -0.09375355 0.08124694 -0.006601132
0.062413614 -0.04294082 0.01878109 -0.061029613 -0.117720336 0.067495115 -0.036666833 -0.16807732
-0.07954188 -0.016690627 0.102335855 0.064326175 -0.023281349 -0.055387355 0.06339093 0.008110547
0.054313444 0.07798386 -0.009823903 -0.13816807 -0.001468895 0.032841656 -0.01265591 -0.005923299
-0.0025597843 -0.01686388 0.026183225 -0.12438579 -0.046995796 0.051421262 -0.0022198746 -0.016119674
0.14985089 0.022720203 0.1188433 0.15410633 0.068081215 -0.028848248 0.057872314 -0.039637815
0.020086274 -0.11741979 -0.010217172 0.045821603 0.040156033 -0.008366103 0.033019904 0.18326275
-0.03722061 -0.015622891 0.12036942 0.036632176 -0.035162024 0.054861877 0.005372233 -0.13840947

actor_mean.0.bias f4 [256]
00000000: b66a 163c 87ed 80bd f91c d13c a7a4 e03c
00000010: 9b2c 7d3d 572b 113d 4fdc 1cbd d509 c4ba
00000020: fcd5 193d 2c5f 213d 18fd 0abb 44fe c3bc
00000030: c53c 543d da5c d9bc 031e 23bc 92f5 a53c
00000040: 42a6 c5bc 0299 f7bc dec4 b2bc ba64 c2bc
00000050: 387b c8bc 7c73 1fbd 7c86 393c 8afd 263d
00000060: 9624 2d3d 46e2 eb3c 09cc b33c 70b3 6ebd
00000070: 9162 373d b1ca 953c cbff 2dbb bc14 13bd
00000080: be86 53bd 4087 e0bb ddb3 2ebd c081 923d
00000090: 0fa9 debc 6c95 a8bc 7a53 b03d 74fa c7bc
000000a0: 4058 193c 821c 2dbd e765 c6bc 7c61 2f3d
000000b0: d3bf 103d 8b8b e13c 28bf 3abc 2602 a43b
000000c0: d0c0 6abd 46b1 22bd d7a2 4ebd 63d1 813d
000000d0: ff71 ffbc 7c31 373d 75ff 853a 24af 28bd
000000e0: 8e5f 683b 0a5d 33bd e7b3 7ebd d09b fd39
000000f0: 2ecf 533d 418e 3f3d 2f54 1bbd 1099 153d
00000100: 9268 a63c 7fe7 0bbd cf94 06bd d0fe 873d
00000110: fc30 7abd d45c 1d3d cf8d cbbc 5c7e aebd
00000120: 588a bcbc fe52 ef3c b185 21bd a850 e33c
00000130: 3c07 3e3d 93fd 2b3c ce6a a33c 0e10 3a3d
00000140: d19d e9bb 161c 95bd 4ddd 4e3d cc16 41bd
00000150: 7806 993b 3f06 df39 72a8 16bd bbea 30bd
00000160: 031c 9b3d 284f aa3c a88a b43c 98e1 973c
00000170: f199 2f3c 371c e23c 67eb 1ebc 47a3 b23c
00000180: 65af 85bd 316a 88bc 8e3f 31bc dc16 ea3c
00000190: c223 0b3d f9b4 b5bd c216 773c 2b9a 6ebd
000001a0: a16b 00bb 9960 2cbd a5e9 dabc b885 a8bb
000001b0: 31a0 d4bb f55b 91bc f104 433d 046a fbbc
000001c0: 8f91 36bc d7a6 4a3d 129b 45bd 74b7 90bc
000001d0: a542 82bc 530c 27bc 8172 d6bc 67f7 d43c
000001e0: d5e9 cfbc 4c60 0ebd 306b 3f3d ea60 163d
000001f0: 8b23 39bc a79a 1d3c 0311 0f3d ded9 9a3c
00000200: afa1 75bc 3603 96b9 1b66 843d 351c 253d
00000210: 33d9 10bd 3e1d 023d f873 16bd 2762 10bd
00000220: 8a6a e03c 539d 153d 3ed5 d0bc 5044 47bd
00000230: 904f bebc 040e 7d3d b4e7 3a3d e408 893c
00000240: 8e83 883b 740f 133d b31c b2bc 98d8 2d3d
00000250: 16ad efbc aa46 653d 315c b1bc 80fc 05bd
00000260: fd41 5dbd 873c 283d d90e ccbb f490 3a3c
00000270: 4cd6 753d 1055 92bc 0f0d 5e3d d63b 083d
00000280: 7976 bc3c 5c78 583d 5914 42bd 066a 39bd
00000290: 41fd debc 3640 b6bc 0ebe 243d ed3c 0b38
000002a0: ab07 0dbd 91fe 713d fc1c debc ac92 a2bb
000002b0: 9861 44bd 628b 06bd 34ab 463d ff57 cf3c
000002c0: 1f2a 45bd 06a3 3b3d 80e2 df3c 8326 9b3d
000002d0: dd36 e7bc ff0d 0abd 6a86 313c 589e 333d
000002e0: da69 543c 9970 4cbd f952 8dbc c3d5 91bc
000002f0: da71 1a3d f422 ac3c 89bc ed3c 1a42 38bb
00000300: d4c6 873d 2b10 2f3d 4ed8 db3c ad1b 31bd
00000310: 0c4f 3e3c f481 36bc 3078 d83b 8d3b 5d3d
00000320: 8c77 ba3c 1d70 803d 75f4 133d 8a44 05bd
00000330: 5280 02bd 2f86 33bd 977b 0a3d b48e 41bc
00000340: d0e3 293b ac5a ffbc c58a 20bd 2ced 4b3b
00000350: 2b7c 20bd dbce 5b3d 3465 9b3d 86d7 02bc
00000360: 5591 333d d3ca edbc f11d a03c 6318 50bc
00000370: 8d43 063d de8a 90bb 20d7 c5bb 3a35 7f3d
00000380: dd2f b4bc 4179 763d 2d31 91ba af06 173d
00000390: 365c 973d 4c10 31bd edfc 8c3d 21b2 afbd
000003a0: f266 68bd 29a0 4cbc ba69 373d 6c9c 44bd
000003b0: ddb2 0dbd 8774 933c b8d2 83bd 9bcd 0f3d
000003c0: 549d 263d 9d28 2f3b bcb4 f63a fda4 a73c
000003d0: 41cc 453c abf4 72bd bf4f 1c3c 5b9f 923d
000003e0: 1bb7 36bd 98c5 373d aeb1 593d 8489 2abd
000003f0: 2a18 943d f8da 0e3d 2ba7 8f3c 0380 08bd
0.009180715 -0.06295305 0.02552651 0.027422262 0.061810117 0.035441723 -0.03829604 -0.0014956543
0.037557587 0.039397404 -0.0021207985 -0.023924954 0.051815767 -0.026533533 -0.009955886 0.020258699
-0.02412713 -0.030224327 -0.02182239 -0.02372967 -0.024472818 -0.038928494 0.0113235675 0.040769137
0.04227122 0.028794419 0.021947877 -0.058276594 0.044771735 0.018285127 -0.002655017 -0.035908446
-0.051642172 -0.0068520606 -0.042652 0.07153654 -0.027180223 -0.020579062 0.08609672 -0.024411418
0.009359419 -0.042263515 -0.024218513 0.042817578 0.035339188 0.02753236 -0.011398114 0.005005139
-0.057312787 -0.039719842 -0.050448265 0.063387655 -0.031182287 0.044724926 0.0010223227 -0.041182652
0.0035457346 -0.0437899 -0.062183287 0.0004837201 0.051711254 0.046766523 -0.03792208 0.036522925
0.020313535 -0.03415632 -0.03285676 0.066403985 -0.06108187 0.038418606 -0.024847893 -0.08520195
-0.023015186 0.029214378 -0.03943414 0.02774842 0.046393618 0.0104974685 0.01994839 0.045425467
-0.007129409 -0.072807476 0.050504018 -0.04714088 0.0046699606 0.00042538528 -0.036781736 -0.043192606
0.07573702 0.020789698 0.022038773 0.018540189 0.010717855 0.027601345 -0.009699679 0.021806372
-0.065275945 -0.016652199 -0.010818375 0.028575353 0.03396965 -0.088724084 0.0150811095 -0.058252495
-0.0019595402 -0.04208431 -0.026722739 -0.0051428936 -0.006488823 -0.017744044 0.047612134 -0.0306902
-0.011143102 0.049475517 -0.04824359 -0.017665602 -0.01590092 -0.010195809 -0.026177647 0.025996877
-0.025380054 -0.034759805 0.04673308 0.03671352 -0.011299978 0.0096193915 0.034928333 0.018902715
-0.014992162 -0.00028612622 0.064647876 0.040310103 -0.035363387 0.03176617 -0.03673169 -0.035249855
0.027394552 0.03652699 -0.025492307 -0.048649132 -0.023231298 0.061780944 0.045631126 0.016727872
0.004166073 0.03590341 -0.0217422 0.042442888 -0.029257338 0.055975594 -0.021650406 -0.032711506
-0.05401801 0.04107335 -0.006227356 0.011387099 0.060018823 -0.017862827 0.054211672 0.03326019
0.02300571 0.05284916 -0.047382686 -0.045267127 -0.02722037 -0.022247415 0.040220313 3.3196924e-05
-0.03443114 0.059080664 -0.02711343 -0.0049613323 -0.047944635 -0.03284777 0.048503116 0.025310514
-0.048135873 0.04580977 0.027329683 0.07575705 -0.028224403 -0.033704754 0.0108352695 0.04385218
0.01296469 -0.04991207 -0.017251479 -0.017802125 0.037706234 0.02101276 0.029020565 -0.0028115571
0.0662972 0.04274003 0.02683654 -0.043239284 0.011615526 -0.011139382 0.0066061243 0.05401187
0.022762083 0.06271384 0.036121804 -0.032536067 -0.031860657 -0.04382914 0.03380927 -0.011813808
0.002592314 -0.031171165 -0.03919484 0.0031116707 -0.039180916 0.05366407 0.07587662 -0.007985955
0.04383977 -0.029027378 0.019545527 -0.012701127 0.032779265 -0.0044110855 -0.006037608 0.06230662
-0.02199548 0.06017423 -0.0011077278 0.03687161 0.07390635 -0.043228433 0.06884179 -0.08578897
-0.0567388 -0.012489357 0.044778563 -0.048000738 -0.034594405 0.0179999 -0.06436676 0.03510819
0.040677384 0.0026727088 0.0018822174 0.020464415 0.012072624 -0.059315365 0.009540497 0.07159301
-0.044608217 0.044866174 0.053147964 -0.04163505 0.072311714 0.034876794 0.017535767 -0.033325206

actor_mean.2.weight f4 [4, 256]
00000000: 5ec6 a73d 8468 e8bd f3a1 df3d de86 c33c
00000010: be15 013e 4b77 803e 00b0 af3e 1abb b3bd
00000020: 8a9e 01be eb42 d9bc 3cbe 9fbd 39bd 45be
00000030: 0933 763e 6f41 893c cce7 b33c 14c5 1a3e
00000040: b47e 25be 7efc 2abe a0fc 083d ced8 fcbd
00000050: d236 dd3d 373f 85bc 3dbc 87bd 89b4 9a3d
00000060: 2c08 ff3d c062 a43d 4a62 bcbd 2856 10be
00000070: 4244 bebc 1ce5 033e c48e 2c3e e7bb c0bb
00000080: fcf6 b53d 6dc4 cabd ebee cfbb bd9d e13c
00000090: b4b6 6abd e610 a53d 4ec8 f63d 6be3 cebb
000000a0: f2ce 053e 20a4 b73d 9bc2 bb3d d6d7 23bd
000000b0: b90d 8b3d 7bf4 acbd 925a b83d 51d3 40be
000000c0: e23e 95bc dce4 1d3e 964c 4a3e 1c03 3cbd
000000d0: 19e3 0d3e 188e fcbd e44e c5bd 8073 78bb
000000e0: f720 1fbe 1ede 55be 8a18 d53d eeee 973d
000000f0: 83a3 a8bd 2dbb 17be aeb6 7a3d 36f6 9dbc
00000100: faff 553e c169 abbd c36a fd3b 3b09 8abd
00000110: 030c 4d3d 9b4f fe3d f7fd a2bd ad95 54be
00000120: 00e3 04bd 58b1 f13d 5458 393e 064d 1f3e
00000130: 474e d33d d5c0 173e c118 15be 8440 203e
00000140: dbff 9f3d 651e 06bd c09a 273e cd6d 053e
00000150: 3e4a b5bd 6677 103e a834 6c3e f407 813e
00000160: c18d 523e 9b1e b8bc cbe5 463e ea55 d6bd
00000170: 2abc cf3c 40a8 0fbc 1465 b3bd fe2a 483e
00000180: db6d 603d 1465 853e 63b1 48bc 9962 503c
00000190: b679 6d3d baf8 99bc f2ce 41bd 8255 cb3c
000001a0: 3a81 12bd 3bcf b5bd 74c1 d9bb c67b 8c3b
000001b0: 2d9c 5e3d 1fe0 3c3d 68ab 183d 812a 183d
000001c0: 7b9e a7bc e2c2 583c 0d75 8a3d aa09 3cbd
000001d0: d4df f1bd ace6 723d 5e7e 7ebd a856 c93d
000001e0: 66ef 603d 2114 3c3d 3d0e 92bd df96 163d
000001f0: c0a7 ccbd 3f38 1a3e b57d 283d eca1 be3b
00000200: 49fb a63d d0c5 74bd 1281 2a3c e9f3 f7bd
00000210: eac0 83bd cb1a 373e d458 a93b 98ee ee3d
00000220: 5f26 943d dd3c 8bbc 99b2 dabb 012f b1bd
00000230: 235d f1bc 0563 a63d f56c 903e 1c08 553e
00000240: e5ba f93d de31 993b 60e2 edbb 8468 8cbd
00000250: b986 5bbd efb9 a1bd 3f32 833e 2669 efbd
00000260: 3b64 ab3e 0d2c 04be 7c9e fabd e6d0 0dbe
00000270: 03fc 293e 23f2 543e 128f 363d ce99 c93d
00000280: cfd0 a7bd 0c53 4dbd 7b99 f7bd 0183 013d
00000290: 5397 82bc b050 433e 5866 6cbc 3e42 06bd
000002a0: 4f5a f83c 5a09 8ebd d2da ebbd 6c9b 8c3e
000002b0: a471 03bd 517c 30bd 5574 2e3e 3058 ccbd
000002c0: 8971 083e 8536 e83c 0d6e 543d a598 8d3c
000002d0: 6d9e 32bd 9487 8c3e 7161 333e ca30 f43d
000002e0: 308b 913e a1d5 5cbd abe2 1cbe efd5 4c39
000002f0: 73c0 123e c394 61bd f6a9 853e 663a dcbd
00000300: 6fc0 fcbc d055 39bd 7637 7fbd c8c2 ee3c
00000310: 5308 6a3e b7dd 0abe 4136 ce3e 27a2 27bd
00000320: 0920 803c b40f 00be a231 443e 87c1 03bd
00000330: 52a6 82bd ed30 d0bd 6824 1cbe 636d 3cbd
00000340: 67d8 b13d e435 37bc ad14 4cbd c1b5 343e
00000350: 47b7 16bd 87b6 13be f94f 5dbc 57eb 96bd
00000360: a966 39bd 8745 a03d 29be 0bbd a909 fe3c
00000370: 47dd 3a3d f15e d83c b00d 223e a02b 443c
00000380: 5f57 803d 6052 c63c 6519 15bd 14ed 5fbd
00000390: 4b0c d2bc 035d 3b3e d0a6 c0bd 3bf0 e7bd
000003a0: c6d4 783d 804d 36bd 32fa bcbb 20a1 fbbc
000003b0: e9d6 903d ebdf 243e 1a69 9bbd 3908 6bbd
000003c0: 78be 903d d235 aa3c 6ab7 aa3d 3125 d63d
000003d0: 1f20 f7bd 41da 80bd df93 1bbe 8cf6 30be
000003e0: 88cc 053e 42ae 3c3d 8b6c 4d3d d894 edbc
000003f0: 561a f43d c6f3 083e a23d 2a3e e53e 963d
0.081921324 -0.1134806 0.10919561 0.02386802 0.1260595 0.25091013 0.34313965 -0.08775921
-0.12658134 -0.026521167 -0.07799956 -0.19310464 0.24042906 0.016754834 0.021961115 0.15114242
-0.16161615 -0.1669788 0.033444047 -0.1234604 0.10801472 -0.016265495 -0.066277005 0.075539656
0.124527305 0.080266476 -0.09198435 -0.14095366 -0.023225907 0.12880367 0.16851336 -0.0058817747
0.08884999 -0.099007465 -0.00634562 0.027541036 -0.057303146 0.08059864 0.12049924 -0.0063137314
0.13067225 0.08966851 0.091679774 -0.04000076 0.06789727 -0.084450684 0.0900165 -0.18830611
-0.018218461 0.15419334 0.19755778 -0.045901403 0.13856162 -0.1233179 -0.09634188 -0.003791064
-0.15539919 -0.20885512 0.10405071 0.07418619 -0.082343124 -0.14817496 0.061209373 -0.019282442
0.20898429 -0.0836978 0.0077336743 -0.06740042 0.050060283 0.12417527 -0.07958596 -0.20760222
-0.032443047 0.11801404 0.18100101 0.15556726 0.103176646 0.14819653 -0.14560224 0.15649611
0.078124724 -0.03274383 0.16367626 0.13030167 -0.08852051 0.14108047 0.23066962 0.2520138
0.20561887 -0.022475531 0.19423597 -0.104656056 0.025358278 -0.008768141 -0.087595135 0.1954765
0.054792266 0.2605368 -0.012249324 0.01271882 0.0579774 -0.01879536 -0.0473165 0.024821047
-0.03576777 -0.08877417 -0.006645376 0.004287216 0.05434816 0.046112176 0.03727284 0.03714991
-0.020461312 0.013230057 0.06760607 -0.045907654 -0.1181027 0.059302017 -0.062132232 0.098309815
0.05491581 0.045917634 -0.07131622 0.036764976 -0.09992933 0.15060519 0.04113551 0.0058176424
0.081533976 -0.05975896 0.010406749 -0.12107069 -0.0643328 0.17881314 0.00516806 0.11666602
0.07233881 -0.016996795 -0.0066741225 -0.086515434 -0.029463356 0.08124355 0.28208128 0.20803875
0.121938504 0.004675134 -0.007259652 -0.06855872 -0.05359528 -0.07896792 0.25624272 -0.11689977
0.33474907 -0.12907429 -0.1223726 -0.1384922 0.16600041 0.20795493 0.044570036 0.09843789
-0.08194124 -0.050128028 -0.12089821 0.031619076 -0.015941298 0.19073749 -0.0144286975 -0.032778017
0.0303165 -0.069353774 -0.11516346 0.27462327 -0.032090798 -0.043087307 0.17036565 -0.09977758
0.1332456 0.02834631 0.051862765 0.0172847 -0.043608118 0.27447188 0.1751764 0.11923368
0.28426504 -0.05391467 -0.15320842 0.00019534653 0.14331226 -0.05507351 0.26106232 -0.10753326
-0.030853478 -0.045247853 -0.06230875 0.029145613 0.22854738 -0.1356114 0.40275767 -0.040926125
0.015640276 -0.1250599 0.19159558 -0.032166984 -0.06379379 -0.10165582 -0.15248263 -0.046002757
0.086838536 -0.011182282 -0.049824405 0.17647459 -0.03679588 -0.14425097 -0.0135078365 -0.07369106
-0.04526392 0.07825761 -0.034116898 0.031010466 0.045621183 0.02641246 0.15825534 0.011973292
0.06266665 0.024209201 -0.03640117 -0.054669455 -0.025640627 0.182972 -0.09406817 -0.11325117
0.06074979 -0.044507504 -0.0057671303 -0.030716479 0.07072241 0.16101043 -0.07588406 -0.05738089
0.07067579 0.020777617 0.08335765 0.104563124 -0.120666735 -0.06291629 -0.15193127 -0.1728155
0.13066304 0.046064623 0.050152343 -0.029001638 0.11919086 0.13374242 0.16625074 0.07336215

actor_mean.2.bias f4 [4]
00000000: a806 7d3c 8223 773d 45eb 223d 4bb0 053d
0.0154434815 0.060336597 0.03977515 0.03263883

critic.0.weight f4 [256, 256]
00000000: d072 513c 9401 473d 0090 9cbc 14b5 89be
00000010: e55f 02bd 4c7f 35bb 0fc5 9d3d 7359 b33d
00000020: 8d75 8cbe 8f47 1fbd c9b8 36bd 98cd 063d
00000030: 4e31 253d cf6d e13d 4875 613d 82f9 d23d
00000040: a9e8 233d 338a e63d 3f48 253e 18fa 693d
00000050: cc4a f0bc 2ff9 d43d ba79 023d bb0d 5a3d
00000060: ffdb ce3d 1abe c53c 3746 64bd 8da1 c03d
00000070: 556a 0ebc 61b9 2dbd e26a 84bc 91cf 033e
00000080: f31a 9bbd 1d55 103d 6763 f8bd 981b 953d
00000090: 077e 98bd 2995 51bc d46f 14be 7931 31bc
000000a0: d500 4a3d bf6f 703d c077 e5bc bda1 bebd
000000b0: 98fb 303d cbb9 b03d 9dea d9bc 0dd4 4cbd
000000c0: ab6c fc3b b318 cd3c 13c1 a73d 1aaa 12bd
000000d0: 4f2c d1bd 96cd 4a3f 38d6 09ba c916 acbd
000000e0: 99a9 3b3d b851 5f3d 71cd 22bd 9b6f 70bc
000000f0: 7822 db3d 19c6 eb3b f64b d73c a381 90bd
00000100: b9e6 a93d 3fd8 22bd 2327 173e 02c4 9fbd
00000110: cc1c 0d3d ff94 c7ba 7a88 b9bd 8dd2 1e3d
00000120: 882a 9e3c 76b5 41bc feca 1c3e d93f 883d
00000130: 3c5c 3dbc 0600 a53d 9abc 89be 7e3a 90bb
00000140: 68b9 583d 8be4 8e3e ef56 04be 158a a7be
00000150: e7f5 403c 2d71 9dbd 6c6f 48bd 85dd 433c
00000160: e6a9 e1bd bd3e 0cbc eedb 153c c865 e63d
00000170: 2bb8 3abd f133 813e fea1 d23c b20d 9c3d
00000180: 3303 343e caa2 a23d d0a6 75be ae41 69bd
00000190: 3c1f 913e ab13 023d 86fb ac3d 783e 8b3d
000001a0: 8b4e c83d b581 f53c 8f6f ca3d f6a0 dbba
000001b0: bbbf 8abe cdde 2f3d 462a a73c a213 9cbd
000001c0: b8b4 9f3d d4fd 733e 1ed9 8ebd 2611 02bd
000001d0: b738 413e 0a33 083e 682a 0d3d 8999 afbd
000001e0: 1f4b a33a 7e0f 2d3d 1cfd 353c 3509 273c
000001f0: 51e3 373d fb50 eb3d 2cdc efbc 3536 baba
00000200: 5f85 9abd 6084 9abd 8dd2 0b3e 5402 ec3c
00000210: 6e3e 893c 31cf 9abd a10b 653e 5311 863d
00000220: 595c 1c3e b5f3 7f3e 8d87 913d 0957 843c
00000230: db0d 423b c4de 6cbb da9d 143d a68e 86bc
00000240: de48 6f3d e59e e53d 6160 613e d871 00bd
00000250: b433 9abd 106f a93c 650f c9bb 7909 9d3c
00000260: d862 b3bb 59c5 2f3e 6ec8 4a3d c3cd 75bd
00000270: 32a0 a1bc dec0 253d 7bcb 8a3b 5f5d 2c3d
00000280: a708 2f3e 754c 4b3c b41f 92be 9dfa 283d
00000290: f4d2 7c3c 45d5 85bc 1522 3c3d 03af cb3d
000002a0: 1bb9 353c 046b b43d 6218 8d3d 13f3 cdbc
000002b0: 35ad 2b3e b176 1c3d 6af6 b339 d885 003e
000002c0: baf3 37bd 5651 f53a 8fad 983c a67d 813e
000002d0: a318 06bc ef07 50bd 50b7 863c 9635 8ebe
000002e0: 2044 2bbc b91c 953e 0186 d63d 18b8 f23b
000002f0: 9274 4cbd a0ff 333d 0f61 3ebd 034d 3cbe
00000300: 8b85 123c 2ab3 c0bc 2a29 88be a1e8 a5bb
00000310: a528 2fbd 3241 15bd 1621 da3c 4677 28be
00000320: 1e9d 1c3d 74ae ce3c 27b7 dfbd ce29 80bd
00000330: c690 85bc 0e26 853e 02ee 9ebd 89cd 093b
00000340: f4e8 a73d 7bf1 273d e791 b03c ba03 fe3c
00000350: 4232 e63c 313d 14bd 5b04 5e3c a389 84bc
00000360: efa2 d6bd 0ae9 cb3d 1cc3 fe3b d857 343d
00000370: c53c 8fbd d2ee 23bd 355b 0cbe 99e9 e9bd
00000380: 96b3 bbbd 2250 ee3b 27ca a5bc 74a9 a9be
00000390: 8813 09bd a81c 03bd 772c 913c d406 dc3e
000003a0: d0c8 743d 5bc3 983d 5a0c f8bc 5229 6bbd
000003b0: 7f54 093e 36d7 84bd 2d4d 063b ffaa 423e
000003c0: fd08 40bd 7ab5 6c3b b0d7 b4bb fd36 983d
000003d0: 8be3 12be 6c48 39bd 1699 753c 2049 bdbc
000003e0: 54f2 693d 4c00 84be fdcf 93bd b10f 2f3d
000003f0: d0f2 bdbb fc3e 9cbd 0ac5 873d be70 4b3d
0.012783721 0.04858549 -0.019111633 -0.26895964 -0.031829733 -0.0027694283 0.077036016 0.087572955
-0.27433434 -0.038886603 -0.04460982 0.032910913 0.040330224 0.110072725 0.05504349 0.10301496
0.040016804 0.11256828 0.16140841 0.057123274 -0.02933254 0.103990905 0.03185437 0.05323575
0.10100555 0.024138499 -0.055731025 0.09405813 -0.008692344 -0.04241312 -0.016164247 0.12872149
-0.075734995 0.03523742 -0.121283345 0.07280654 -0.07445913 -0.01279191 -0.14495784 -0.010815018
0.0493172 0.05870032 -0.028011203 -0.09308193 0.04320869 0.08629187 -0.02660113 -0.050006915
0.007703384 0.025036192 0.08191123 -0.035806753 -0.10213529 0.7921995 -0.00052580563 -0.084027834
0.045816038 0.054521292 -0.039746705 -0.014675046 0.10699934 0.007195246 0.026281338 -0.07055976
0.0829596 -0.03975701 0.14761023 -0.078010574 0.03445129 -0.0015226899 -0.09059234 0.038775016
0.01930739 -0.011823049 0.1531181 0.06652803 -0.011557635 0.08056645 -0.26901704 -0.004401504
0.052911192 0.2790874 -0.12923788 -0.32722536 0.011777378 -0.07687602 -0.048934385 0.01195467
-0.11018734 -0.00855988 0.009146674 0.11249882 -0.045585793 0.2523494 0.02571201 0.076198
0.17579345 0.07941206 -0.23989415 -0.056947403 0.28344142 0.031757038 0.08446412 0.06799024
0.09780606 0.029969076 0.09884559 -0.0016756344 -0.27099404 0.04293709 0.0204059 -0.07620932
0.07798141 0.23827296 -0.069750056 -0.031754635 0.18869291 0.1330072 0.03446427 -0.085742064
0.0012458301 0.042251103 0.011107709 0.010195066 0.04489452 0.11490055 -0.02927979 -0.0014206829
-0.0754497 -0.0754478 0.13654537 0.028809704 0.016753402 -0.0755905 0.22367717 0.06546273
0.15269603 0.2499531 0.071059324 0.016154783 0.002961031 -0.003614352 0.03628335 -0.016425442
0.0584191 0.11211947 0.22009422 -0.03135857 -0.07529393 0.020682842 -0.0061358684 0.019169556
-0.0054744296 0.17165126 0.04950755 -0.060010683 -0.019729707 0.040467136 0.0042356825 0.042081233
0.17093144 0.0124083655 -0.28539813 0.04125463 0.0154311545 -0.016337046 0.04593094 0.0994549
0.011091496 0.08809474 0.06889416 -0.02514032 0.16765292 0.03819913 0.00034325133 0.12551057
-0.04491017 0.0018716257 0.018637447 0.25291175 -0.008184585 -0.050788816 0.016444832 -0.27775258
-0.010453254 0.29123476 0.10474778 0.0074071996 -0.049915858 0.043944955 -0.04647928 -0.18388753
0.008942972 -0.023522932 -0.26593906 -0.005063132 -0.04276337 -0.03643913 0.026627105 -0.16451749
0.038235776 0.02522967 -0.109236054 -0.062579736 -0.016304385 0.26005596 -0.0776024 0.002102705
0.08198729 0.041001778 0.021553947 0.031007636 0.028100137 -0.03619117 0.013550843 -0.016178912
-0.10480296 0.09956558 0.0077747237 0.044029087 -0.06994013 -0.04002268 -0.13706668 -0.11421508
-0.09165113 0.007272736 -0.020237995 -0.33137095 -0.033465892 -0.03200975 0.017721398 0.4297396
0.059761822 0.07459136 -0.030279327 -0.057412453 0.13411139 -0.06486361 0.0020492778 0.19010542
-0.046883572 0.003611891 -0.005518876 0.07432363 -0.14344613 -0.045235083 0.014990112 -0.023106158
0.057115868 -0.25781476 -0.07217405 0.042739574 -0.005796768 -0.07629201 0.06629379 0.049668066

critic.0.bias f4 [256]
00000000: 4272 3d3d 5b78 843c eef4 933d b302 ac3d
00000010: 6218 ad3c 79d2 cbbc a2a4 263c 2a08 4fbb
00000020: 00a6 473c 3c0c 913d 8833 1dbd 785e 663c
00000030: 593b 083e 8e0a b83d d970 c53d 3544 873d
00000040: 458a 77bd 2c86 9e3d 32de 2abc 6fee 8cbb
00000050: bce0 fc3d 101a 5fbd e90f 0c3d 2209 d03c
00000060: 341b ea3c 5ac1 9a3d 8057 4d3d 5f33 ea3d
00000070: e715 9f3d 0864 693d a67d 1fbd 3e9d 803d
00000080: 7ae1 e23d ec7c 4d3d b52a ae3d 6c47 13bd
00000090: f94b b73d 9219 92bc 71ac 843d 8305 843c
000000a0: 7b99 e33b 9155 953d 00cb f93d 4622 66bc
000000b0: 9695 f53c d71f 843c 9c0a 04bd efa4 0fbc
000000c0: 9ba6 483d d6cd 59bd 9d1f 8d3b 191b 063a
000000d0: be19 19bd 61e3 40bc 89e9 f8bc 4b6a 983d
000000e0: 9cfb 873d 153a 2f3d 2d5c 3a3d 8e1a fb3c
000000f0: 142e 23bd e9e8 3e3d a5f9 e93d 8d3e 5a3d
00000100: 1c07 d63d 95c5 703d ca9b f13c 18c8 433d
00000110: a839 ebbc bc60 743d 7521 663d 686e c63d
00000120: 7f93 113c 9f61 713d 3e82 e3bb 4164 143d
00000130: 6701 bebc 290a fc3c f90e b9bd 4490 8a3d
00000140: 2ed2 9e3d a060 9e3d 966f 363d ef13 37bd
00000150: 5012 e5bc bb3f 6b3c ae57 953d 2ab5 e4bc
00000160: b79f 253d a14d cbbb 6b48 453d 2639 d0bb
00000170: 3b57 063d a616 abbc 0a68 533d 6541 3d3d
00000180: 9615 6cbd 63e8 d83c 3079 273d 23d2 453c
00000190: 83f3 af3d 4e29 9e3c ff57 f83c 68d9 6a3d
000001a0: 6b68 663d 9da0 443c 2365 663d 5272 8e3d
000001b0: 764d d43c 1312 9a3d 7872 cbbc 3ba3 2f3d
000001c0: 1a83 2b3d 6fec e8bc f733 f13d 0d94 95bc
000001d0: eac7 243d b6ab 033d 3101 1d3d 95e0 8fbc
000001e0: 5aab 993c 3040 7b3d 7d68 1a3d b70c 883d
000001f0: f442 883d fa02 54bd b8a9 ef3c d39e b9bc
00000200: 4ad4 0abd e8e3 7b3c bce4 653d d48f 36bb
00000210: 5974 c1bc 5886 6ebc db2c bf3d 9cb7 a93d
00000220: 9efb ea3a 6cee 983c e5d6 813d ead7 9539
00000230: f439 8f3d cac2 233d 2709 203d 33f3 9f3d
00000240: cfcf d53c 8bfc ab3c ab68 8e3c 8e04 013e
00000250: d6f2 74bc 8212 973c 7407 9b3d 9397 233c
00000260: 6117 2dbd 579e eb3c 8f52 4cbd c5aa 883d
00000270: beac ed3d 74bf 4a3d 848c 393c de1c 823d
00000280: 906d e0bc d5ff f63c ce19 a03d 8099 463d
00000290: e142 e0bc d50a 853c d219 a73d 2da9 bb3d
000002a0: 8d34 6b3d 06db 0e3d 30b4 a9bb 0573 d63d
000002b0: b82c d23d 6903 e9bc 69a3 eabc 65fb 3abd
000002c0: 3ad7 a73c 6843 dabd 7995 9f3c eb28 393d
000002d0: a7fc 733d 6f72 d83d 52d9 e93c e445 903d
000002e0: 1d41 e63d 592e 813d abad 94bb e8e4 773d
000002f0: 4931 653d 8060 b13d 3137 9c3d 7f4d a93c
00000300: 7161 f13d 4057 06bd 922a 12bd fa81 fdbc
00000310: 3643 d7bc 1867 acbb 2113 4a39 0bbe a43c
00000320: 1326 1f3c 2a34 a93c e81c 5e3d fb7d ec3c
00000330: 30c4 96bc 4eb0 863d a75a a83d c941 af3d
00000340: 420b ba3d ad58 a13d 8b5f 2f3d 0658 a03d
00000350: 8db6 4b3d 33ad 563d 559b 073d c3d6 ae3c
00000360: f197 833d fa60 753c e37b 66bc 119b 54bd
00000370: 7336 a4bb 77d3 a83d 41a5 133e 4eaf 613d
00000380: 3cc3 fdbc b8fe b43d 149e 8d3d 33e2 ef3d
00000390: 7e3c 36bd b3ec debc 3b5e 353b cf9b d93c
000003a0: f269 85bd b038 6abc ed0e 7c3d 0c6c 373d
000003b0: 0b69 d43a 678b ca3d 160d 883d d59c ac3d
000003c0: 1e08 523d c920 873c eada 603d 9e3b f83d
000003d0: b61a 0c3d 2547 f0bc 23c1 9fbc a431 143d
000003e0: d49c f63c 2ea6 17bd 7b21 6c3c 389f f73c
000003f0: 68ce 9dbd c42d f8bc 2003 bd3d 8320 c63c
0.046251543 0.016170671 0.07224451 0.08398952 0.02112979 -0.024880635 0.010171087 -0.003159056
0.012185574 0.07082412 -0.038379222 0.014060609 0.1330389 0.08986388 0.096406646 0.06604806
-0.0604346 0.07740435 -0.010428952 -0.0043008844 0.12347552 -0.054468215 0.03419486 0.02539498
0.028577425 0.0755641 0.050132275 0.114355795 0.077678494 0.056980163 -0.038938187 0.062799916
0.110781625 0.050167963 0.085042395 -0.035956785 0.089500375 -0.017834459 0.06478203 0.01611591
0.0069457865 0.07291711 0.12196922 -0.014046257 0.029978555 0.016128464 -0.03223668 -0.008767351
0.048987012 -0.053174816 0.004306747 0.0005115732 -0.037378065 -0.011772961 -0.030384796 0.07442149
0.066397876 0.04278 0.045498062 0.03065231 -0.039838865 0.04660884 0.11424569 0.05328231
0.10450575 0.05878218 0.029493231 0.047798246 -0.028714016 0.059662566 0.05618425 0.09689027
0.008885263 0.05893099 -0.0069430163 0.036228422 -0.023194028 0.030766563 -0.09036059 0.06765798
0.07754932 0.077332735 0.04454001 -0.044696745 -0.027962834 0.014358456 0.07292114 -0.027918417
0.04043552 -0.0062043224 0.048164766 -0.006354469 0.032798033 -0.020884823 0.05161289 0.046204943
-0.057637773 0.026477998 0.040887058 0.012074026 0.08591368 0.019306805 0.030315397 0.05733624
0.056251924 0.012001184 0.056248795 0.069553986 0.025915843 0.07522979 -0.024834856 0.042880278
0.041873075 -0.028433053 0.1177749 -0.018259073 0.040229715 0.03214618 0.038331214 -0.017563144
0.018758465 0.06134051 0.037697304 0.0664305 0.06653395 -0.05176065 0.029255733 -0.022658741
-0.03389386 0.015374161 0.05612634 -0.0027856724 -0.02361505 -0.014558397 0.093347274 0.08286974
0.0017927771 0.018668376 0.06339816 0.00028580363 0.069934756 0.039980687 0.03907123 0.078100584
0.026100067 0.020994445 0.017383894 0.12599394 -0.014950475 0.018441442 0.07569781 0.009984869
-0.042258624 0.028762026 -0.04988342 0.06673197 0.116052136 0.04949899 0.011325005 0.06353162
-0.027395993 0.030151287 0.07817422 0.048486233 -0.02737564 0.016240517 0.08159222 0.09163127
0.057423163 0.034876846 -0.0051789507 0.10471157 0.10262436 -0.028444009 -0.028642373 -0.045649905
0.02048837 -0.10657388 0.019480454 0.045205038 0.05956712 0.105687015 0.02854601 0.070445806
0.11242888 0.06307668 -0.0045373044 0.060521036 0.055955205 0.08660984 0.076277144 0.020666836
0.117861636 -0.03279805 -0.03568513 -0.030945767 -0.026277166 -0.005261313 0.00019271347 0.02011015
0.009713667 0.020654757 0.054226786 0.028868666 -0.018404096 0.06576596 0.082204156 0.085574694
0.090841785 0.07878242 0.042815726 0.07829289 0.04973464 0.05241127 0.03310712 0.02134264
0.06425465 0.014976734 -0.014067623 -0.051905695 -0.0050113737 0.08243459 0.14418508 0.055098824
-0.030976884 0.08837646 0.06914917 0.11713066 -0.044491284 -0.027212476 0.0027674574 0.026563553
-0.06514348 -0.014295742 0.06153767 0.044780776 0.0016205622 0.0988987 0.06643121 0.08428351
0.051277272 0.016495125 0.054896273 0.12120746 0.03420516 -0.0293308 -0.019501274 0.036180153
0.030104078 -0.037023716 0.014412279 0.030227289 -0.077053845 -0.03029526 0.09229112 0.024185425
