best_model_episode_50.pth (torch, 561607 bytes, 10 tensors)

actor_log_std f4 [4]
000000 7d 12 00 bd 45 bc 4f bd 0d 53 e3 bc 6a 52 83 bc
       -0.03126763 -0.050716657 -0.027749563 -0.016030509

shared.0.weight f4 [256, 24]
000000 0f ca d4 3d e1 b9 b2 3d e8 3e a3 bd ac 17 91 3d
       0.10390102 0.0872686 -0.07970983 0.07084593
000010 86 22 19 be 56 9b 91 bb d4 2a 61 be f1 da 8a 3d
       -0.14954576 -0.0044435663 -0.21988994 0.06780041
000020 79 98 2d 3e f3 38 28 be c9 4f 1c 3e 23 cc 08 3e
       0.16952695 -0.16427974 0.1526481 0.13359122
000030 80 2f 24 3e 29 20 1b bc 10 75 5b 3d 61 df 96 bd
       0.16033745 -0.009468117 0.053578436 -0.07366825
000040 cb 6a e6 3d d3 75 70 bc 43 80 0f be 74 60 e4 3b
       0.11250838 -0.014676529 -0.14013772 0.006969506
000050 a6 e0 0e be 4e b7 8f bd 4f 52 fd bd 9b 45 09 3e
       -0.13952884 -0.070173845 -0.12369215 0.13405459
000060 14 32 55 be ef 0b 75 bd 52 13 1b be 10 47 48 be
       -0.20819885 -0.059825834 -0.15144089 -0.19558358
000070 60 d0 0c 3d 4c 1f 56 be 44 d7 09 3e 27 b7 29 be
       0.03437841 -0.20910376 0.13461024 -0.16573773
000080 e9 ef 25 3e 3a 49 13 3d 08 c6 91 bd 1e f2 e9 3d
       0.162048 0.035958506 -0.071178496 0.11423133
000090 ed 06 31 3d 0e e3 1a 3e 27 e0 45 3d e9 34 1d bd
       0.043219496 0.15125677 0.04830947 -0.038380537
0000a0 10 8f a5 3d 93 83 f0 bc 0a 33 e5 3d f8 ae 53 3e
       0.08083928 -0.029359614 0.111913756 0.20672214
0000b0 1f c7 0f 3e ed dc 8f bd 5d df 1b 3e 50 9d 09 3e
       0.14040802 -0.0702456 0.15221925 0.13438916
0000c0 9c 1d 97 3d 4d 9d 50 be 46 6b 7a bd fc d3 30 be
       0.073786944 -0.20372505 -0.06113746 -0.17268366
0000d0 6f 5b 59 be 5b 93 22 3e 4f 4b 68 bc 7a f8 b8 3d
       -0.21226285 0.15876524 -0.014178111 0.09031768
0000e0 32 66 42 3d 83 ac 87 bd 9e 90 d1 3d c2 ff bd bd
       0.047460742 -0.06624701 0.10232662 -0.092772976
0000f0 86 57 62 3c 19 1b 47 be 22 bb ac 3b d4 09 03 be
       0.0138148125 -0.1944393 0.0052713314 -0.12796718
000100 d9 c8 9f 3b d5 34 cd bd 54 a0 e4 3d 25 0a 37 be
       0.004876238 -0.100198425 0.11163393 -0.17874964
000110 f0 e5 37 be fd c8 37 be 29 f5 07 3e ea b6 61 3d
       -0.17958808 -0.17947765 0.13277115 0.05510608
000120 f4 47 f6 3d ef 92 9b be c6 9b 93 bc f8 24 8a be
       0.12025443 -0.3038554 -0.018018615 -0.2698133
000130 3b 0d 65 be a8 4a a8 3d 3b 96 ba bc 96 9a 1b 3e
       -0.22368328 0.082173645 -0.022776714 0.15195689
000140 33 56 1a be cc 36 45 be 70 df df 3d 1d c0 40 3c
       -0.15071945 -0.19259185 0.10931289 0.011764553
000150 2b 60 16 3e db b6 b6 bd 03 c7 37 3d d4 07 6c be
       0.14685123 -0.08921596 0.044867527 -0.23049861
000160 23 1c 33 be 54 67 1e bc f0 7f eb bc 82 d6 fd bd
       -0.17491202 -0.00966819 -0.028747529 -0.1239443
000170 e0 71 4b 3d ee 1b 89 3d 6f 3c 59 be 79 4b 0d be
       0.049669147 0.0669478 -0.2121446 -0.13798322
000180 b9 fc 29 3e 93 01 19 be 86 7a 5b 3d 57 d9 0e be
       0.16600312 -0.14942007 0.053583644 -0.13950096
000190 f0 2a d4 bd 3d 6d 8c 3d c7 23 e9 bb b7 73 21 be
       -0.10359752 0.06856773 -0.0071148607 -0.15766798
0001a0 7f 23 c9 3c 84 a7 1f be 78 ae 16 be 61 60 d3 bd
       0.024553059 -0.15591246 -0.14714992 -0.10321117
0001b0 e1 89 40 be dc 87 ec bd 52 36 46 3e f0 00 e6 3c
       -0.18802597 -0.115493506 0.19356659 0.028076619
0001c0 0e bc 56 3d 8c ae 4d be 90 02 14 be 47 9b a0 bd
       0.052425437 -0.20086116 -0.14454103 -0.07842117
0001d0 f1 71 af 3c 52 f0 42 be 57 50 c7 bd 4f 38 09 be
       0.021416636 -0.19036987 -0.097321205 -0.13400386
0001e0 b8 e7 29 bd ef c7 84 bd 7a ea 58 bd df 50 2f be
       -0.04148075 -0.06483447 -0.05295799 -0.17120694
0001f0 f6 09 45 be 55 af 2d be 15 be 16 be 23 ae 09 be
       -0.19242081 -0.16961415 -0.14720948 -0.13445334
000200 3a 96 34 3e 67 4d 6a bd 71 d9 1c 3e 82 6c 97 3d
       0.17635432 -0.057202723 0.15317322 0.07393743
000210 58 8a 15 be 78 6e 36 3e c7 e9 51 bd 97 2e 96 bd
       -0.14603555 0.17815578 -0.051248338 -0.07333105
000220 6d 78 28 be e1 c4 4a be cf ad 81 3d b7 10 25 bd
       -0.16452189 -0.19801666 0.063319795 -0.040299144
000230 22 30 aa 3d a3 95 28 be 32 bd 28 3e be d6 b8 bd
       0.08309962 -0.16463332 0.16478422 -0.09025334
000240 d6 c9 bb bd 27 01 b5 bd e9 bc 4e 3e 6e d7 17 3e
       -0.091693565 -0.088381104 0.20189251 0.14828274
000250 26 91 ea 3d 2e 16 33 be af 1c 91 ba f8 9a aa bd
       0.11453466 -0.1748893 -0.001107117 -0.08330339
000260 03 41 cc bc 5c 2c 54 be 03 f4 39 3e c2 52 22 be
       -0.024933344 -0.20720047 0.1815949 -0.15851882
000270 99 91 d9 3d f0 6d 67 3d eb c3 f9 3c cf b5 15 be
       0.10623474 0.05650133 0.030488929 -0.14620136
000280 00 4a 19 3e 6e ae 13 3c 80 bb 1c bc ae e3 5e be
       0.14969635 0.009013755 -0.009566188 -0.2176654
000290 ef 27 3a 3d 92 5f 99 bd 7d 9e ed bd 8a fd 75 3e
       0.04544824 -0.07488932 -0.11602495 0.24022499
0002a0 63 16 c8 3d 7a bf ab bc da a8 2c be f7 03 0e be
       0.09769895 -0.020965327 -0.16861287 -0.138687
0002b0 67 c5 f7 3d 58 12 c1 bd 96 c3 1e be 00 91 83 bd
       0.120981984 -0.09427327 -0.15504298 -0.06424141
0002c0 fe 3a 30 be 33 df 3a 3d c7 72 a8 3d 51 8f 13 be
       -0.17210004 0.045623016 0.08225017 -0.1441014
0002d0 12 34 87 3d 45 0b d7 3d 22 4f 2b bd e5 2a 1b be
       0.066017285 0.10500196 -0.041823514 -0.15153082
0002e0 f5 f2 e2 3c cf eb e8 3c af c5 24 bb 8b 16 eb bd
       0.027703742 0.028432755 -0.0025142243 -0.11478909
0002f0 71 4a 08 be fc b2 6d bd 3a 3f d6 bd 11 4a 71 bd
       -0.13309647 -0.05803202 -0.10461278 -0.058908526
000300 20 ca fe 3d 0c fa 27 3e d5 b7 da bd 5d 15 f0 bd
       0.12440896 0.16403979 -0.106795944 -0.11722825
000310 90 79 d8 3b 1a d1 4e ba 03 0c 83 bc da d7 b3 3c
       0.0066062883 -0.0007889435 -0.015996939 0.021953512
000320 a0 a3 2e be b3 be 81 bd d5 84 53 3e 05 f7 22 3d
       -0.17054605 -0.06335201 0.2065614 0.039786357
000330 6d 47 23 bd d3 cd ff bd ee 8f e8 bd c0 a2 2f be
       -0.03986304 -0.1249043 -0.113555774 -0.17151928
000340 4d 22 62 bd 79 60 a4 3d 97 e3 10 3e 6d 5e d4 3d
       -0.055208493 0.08026213 0.14149319 0.10369573
000350 1a 77 31 be 29 b2 f3 bd 69 36 15 bc c6 28 9d 3e
       -0.1733059 -0.11899216 -0.009107211 0.3069517
000360 3e 71 f0 3d 06 73 98 3d 4c 77 6e bd 1c 37 8f be
       0.11740349 0.07443814 -0.05821924 -0.27971733
000370 ab 1e 72 bd dd 21 1d 3e d2 46 00 be 77 15 17 bd
       -0.05911128 0.15344949 -0.12527016 -0.036885705
000380 73 58 44 be f0 89 f3 3d b1 7a 2c 3e 45 7a 82 3d
       -0.19174366 0.11891544 0.16843678 0.06370977
000390 ba 1a 16 be 49 25 df bd b7 9c e4 bd b3 53 53 3e
       -0.14658633 -0.108957835 -0.111627035 0.20637397
0003a0 b9 cf 1b 3e 31 5a 67 3e 0e f7 24 3e 4f b0 d6 3d
       0.15215959 0.22592999 0.16109869 0.10482847
0003b0 1c 7d 4c 3d 5c f3 d6 bd 76 58 c5 bd 35 85 26 bc
       0.049924 -0.10495636 -0.09636013 -0.010163595
0003c0 cb 9f 42 3e c7 eb a9 bc c9 ca 12 be a3 46 54 be
       0.19006269 -0.02074231 -0.14335169 -0.20730071
0003d0 25 92 7e 3d 79 d6 b2 bd bb f1 a4 bd 73 1a b0 3d
       0.062151093 -0.08732314 -0.08053919 0.08598795
0003e0 6a d3 18 be db 19 bd 3d f7 e1 ad bc f2 c1 02 be
       -0.14924398 0.09233447 -0.021225912 -0.12769297
0003f0 6f 5e 40 bd 45 f6 e7 bd a5 98 03 be 7b 51 85 be
       -0.04696506 -0.11326269 -0.12851198 -0.26038727

shared.0.bias f4 [256]
000000 12 85 1d be 98 38 11 3e ad 53 39 bd 46 d0 0b 3e
       -0.15382794 0.14181745 -0.045245815 0.13653669
000010 a5 86 5e be 69 4b 96 3d 31 e6 28 3e 4a 25 17 3d
       -0.2173105 0.07338602 0.16494061 0.036900796
000020 6b 6e 83 3d e5 c9 c3 3e de 77 2a be c1 6a a5 3e
       0.06417545 0.3823997 -0.16647288 0.3230801
000030 7b 86 b6 3d d7 3d 48 3e ad c7 89 3e b6 17 1e 3e
       0.08912369 0.1955484 0.26910153 0.15438733
000040 25 1e 18 3e 56 79 8a 3d 07 01 48 be c6 f3 2a 3e
       0.14855249 0.06761424 -0.19531642 0.16694555
000050 10 54 8a 3e 2a 42 47 3e fb 06 89 3d 95 80 d6 bd
       0.2701726 0.19458833 0.066907845 -0.10473744
000060 51 18 0e 3e 6e 1d 54 3e 26 26 0d bd 88 7b 8e 3e
       0.13876463 0.20714352 -0.03446021 0.27828622
000070 cf 06 f6 3d 8c 59 e7 3d 78 9a 83 3e ed 8b 47 3e
       0.120130174 0.112963766 0.25703788 0.19486971
000080 de 53 df 3c c7 e3 40 3e 3c 36 14 3e 6b a9 67 3e
       0.02726167 0.1883689 0.14473814 0.22623222
000090 e2 77 85 3c 30 f7 0a 3e 5a 7f 17 bd 67 20 1b 3e
       0.016292516 0.13570857 -0.036986686 0.1514908
0000a0 75 e4 e7 bc a2 21 6a 3e 39 ed c5 3e 31 49 29 bd
       -0.028307179 0.22864392 0.3865755 -0.041329566
0000b0 ed dd 53 bc 15 c0 5c 39 d0 88 e1 3c 25 52 8c 3e
       -0.012931329 0.00021052391 0.027531058 0.2740642
0000c0 6c 44 2c bd cd 46 c5 bd 3b 02 63 bd 68 bf ef 3b
       -0.04205744 -0.09632645 -0.05542205 0.0073165186
0000d0 5b 31 93 bd ce 98 b2 bc a0 ab ad 3e 17 4b 50 3e
       -0.07187148 -0.021801379 0.33920002 0.20341145
0000e0 69 a4 a5 3d ba d6 88 3e d3 f0 33 3c 00 53 04 3e
       0.080879994 0.26726323 0.01098271 0.12922287
0000f0 e5 e8 42 be 1d 02 3c 3e 4d fd 0f bd 68 8a bc 3d
       -0.19034155 0.18360181 -0.035153676 0.092060864
000100 10 b1 49 bc 0e 97 a5 3c d0 f8 26 be 1e 16 c6 bd
       -0.012310281 0.02021363 -0.16305852 -0.09672187
000110 89 a2 0a be 5b 08 0c bd 59 b6 e0 bc 5c d7 01 be
       -0.13538565 -0.034187656 -0.0274307 -0.1267981
000120 36 e0 8e 3e bb 4f 22 3e fc c2 a4 bd 84 83 18 be
       0.27905434 0.15850727 -0.08045003 -0.14893919
000130 8f bb 12 be f9 22 27 3e 12 c3 9d 3e b0 16 9e 3d
       -0.1432936 0.16321935 0.3081289 0.07719171
000140 41 f2 5f 3e 96 8c 13 3d ff 12 68 bd 7e e5 2d 3d
       0.21869756 0.036022745 -0.05665874 0.04245519
000150 71 9c 1b be b1 c8 f5 3d db 7b 78 3d 59 03 6f 3e
       -0.15196396 0.120011695 0.060664993 0.23341121
000160 24 22 7f bd d7 10 1c 3c c7 7f 1e 3e 56 d6 c8 3d
       -0.06228842 0.009525499 0.1547843 0.09806506
000170 1d 78 53 3b fe e6 2c be a1 6a 63 3e da 80 19 be
       0.0032267638 -0.16884992 0.22208644 -0.14990559
000180 c8 e6 6c 3d 6b db 6a 3e 66 ff 82 3b cb d5 10 3d
       0.057837278 0.22935264 0.003997731 0.03536014
000190 ed c3 c3 bd c6 14 8d 3e c1 22 fd 3d 76 0f 73 3e
       -0.09558854 0.2755491 0.123601444 0.23736367
0001a0 1b 4a ac 3d 54 a0 8d bd c8 83 55 3c 17 6f 85 3e
       0.08412572 -0.06915346 0.013031907 0.26061317
0001b0 2d 81 ef bd 57 25 1d bc 0d f9 72 3e 42 dd e1 bd
       -0.1169456 -0.009591422 0.23727818 -0.1102853
0001c0 60 48 ad 3d 71 ec 1f 3c 70 ee 34 3e 27 d9 0b 3e
       0.0846107 0.009760962 0.17669082 0.13657056
0001d0 09 8f a2 bd 78 71 37 bd d6 b0 38 3e 8a 6d 37 3b
       -0.07937438 -0.044785947 0.18036208 0.0027988874
0001e0 0f d8 8b 3e 8b 10 10 3e 32 06 14 3c 08 ad d8 3d
       0.27313277 0.1406881 0.00903468 0.10579878
0001f0 d2 8e a3 3c 04 46 3f 3e ae 3c 65 3e bb 1b a3 3d
       0.019965563 0.18679053 0.22386429 0.079642735
000200 61 e9 22 3a a7 34 a1 3e 04 38 8c 3e 89 57 9e 3e
       0.0006214586 0.31485483 0.27386487 0.3092616
000210 08 fa f9 3c fe af 24 3e 67 f7 aa 3d 6d 6a a7 bc
       0.030514732 0.1608276 0.083479695 -0.02043649
000220 7f b3 07 be 0e 2a 04 3c 1e 94 1e 3e 3f bf 21 3e
       -0.13252066 0.008066667 0.1548619 0.15795611
000230 45 43 2d 3e d5 d9 7c 3e 56 22 46 3e 4b 86 b5 bd
       0.16920193 0.24692471 0.19349036 -0.08863505
000240 51 29 7c 3e 3d 38 27 bd 40 12 cb 3d 00 07 aa bc
       0.24625136 -0.040825117 0.0991559 -0.020755291
000250 8d 88 58 ba 39 ec 26 be fd 65 95 3c 3f 3c 88 3e
       -0.0008260094 -0.1630105 0.018237108 0.26608464
000260 3b ed 7e 3c c6 a6 82 3d 54 93 5c 3c 06 11 71 bd
       0.01555949 0.06379466 0.01346286 -0.058854125
000270 03 e8 e4 bc 12 60 d6 3d 75 25 0d 3e 09 52 7c 3d
       -0.027942663 0.10467543 0.1378382 0.061601672
000280 4f 43 22 3e 36 20 cc 3d 8b 3f 4f 3c 96 02 92 3e
       0.15845989 0.09967081 0.012649427 0.28517598
000290 b9 32 c0 bd e8 a1 a6 3e eb d3 36 bc 78 4a 8a 3e
       -0.093846746 0.325454 -0.011158924 0.2700994
0002a0 af ad 23 3e b8 db 2d 3e 20 47 69 3d 64 4c a6 3c
       0.15984224 0.16978347 0.056952596 0.020300098
0002b0 d3 22 61 bd 21 01 42 be f7 ba 83 3e fb 78 89 3e
       -0.05496485 -0.18945743 0.2572858 0.26850113
0002c0 8a 41 0a 3e e1 69 b3 bc 2d ed e0 3d d5 ff 08 3e
       0.13501564 -0.021901073 0.10982738 0.13378842
0002d0 b3 ad 49 be 06 ed a0 bd 14 10 19 3e bb 73 d4 bd
       -0.19695167 -0.07857709 0.1494754 -0.10373636
0002e0 d3 3f e1 3c 2a 18 03 bd b6 d0 13 3e 1a 4b 03 3d
       0.027496254 -0.032005467 0.14435086 0.032054044
0002f0 b8 82 a3 3d 9d 19 5a 3e 2f c6 9b 3e 81 9f 6a 3e
       0.07983917 0.21298833 0.3042464 0.22912408
000300 19 0b 45 3e 47 d1 19 3e ae 7b 8c 3e 4e 78 a1 3e
       0.19242515 0.15021239 0.2743811 0.31537098
000310 d6 62 28 3e 79 d2 42 3e b1 f5 92 3c 19 c6 02 3e
       0.16443953 0.19025601 0.01793942 0.12770881
000320 35 2f 7d 3e 02 7c 4e 3e 8c 33 5a bd f8 02 d5 bd
       0.2472504 0.20164493 -0.053271815 -0.10400957
000330 a0 1e 32 be 9c 5e aa 3b 6d 8f ab 3d 9d 92 ab 3d
       -0.17394495 0.0051992666 0.08376966 0.08377574
000340 15 3c fd bd db 78 63 bd 55 b8 5b 3e 42 c1 91 bc
       -0.12364975 -0.05553518 0.21457036 -0.017792348
000350 e6 00 58 3d 94 90 be 3d 66 fd c9 bc 7d 9c a3 bc
       0.05273523 0.0930492 -0.024656963 -0.01997208
000360 2c 0c c7 bc 00 4b 3a 3c ca 5b b1 bd 6a eb c5 bd
       -0.024297796 0.01137042 -0.086600855 -0.09664042
000370 3e 58 0d bd 65 25 88 3d 89 d5 9f 3e 62 66 ce 3d
       -0.034507982 0.066477574 0.31217602 0.10078122
000380 c1 35 8a 3e 9d 81 62 3e 6f 7f 2b be 25 71 0c be
       0.26994136 0.22119756 -0.16747831 -0.13715036
000390 3a 91 a9 bc 14 1b 86 bd 96 3a 1e 3e fd 5d 0c 3e
       -0.020699132 -0.065481335 0.15452036 0.13707729
0003a0 bc 5e 51 be de 65 86 3d fa 10 05 be 6b dc b0 3e
       -0.20446295 0.065623984 -0.12994757 0.34543166
0003b0 ba 6f 7b 3e c5 1c 59 b9 b1 6e 9e 3e 3c 4a 3a 3c
       0.24554339 -0.0002070545 0.30943826 0.011370238
0003c0 71 ed 81 3e 6e fa 07 bd 2f ad 02 3d 60 71 5a 3e
       0.25376466 -0.033197813 0.031903442 0.21332312
0003d0 51 d2 30 3e a4 f8 0e 3d b3 46 1d 3d 51 14 1f 3d
       0.1726773 0.03490509 0.038397502 0.038837735
0003e0 54 ae 81 3e 9d 46 03 3d 60 11 28 bd 18 83 4c 3e
       0.25328314 0.032049764 -0.041032195 0.19971883
0003f0 b4 b3 bf 3b 2f b1 8c bd a5 44 08 3e 6e 26 95 3e
       0.0058502797 -0.068697326 0.13307436 0.29130882

actor_mean.0.weight f4 [256, 256]
000000 07 51 e4 3c 93 f6 1d bd 00 4b 15 3d 0f 82 be bc
       0.027870668 -0.03856523 0.03644848 -0.023255376
000010 01 a4 01 3d a2 83 a0 3c 95 4f 35 3d 73 04 7a bc
       0.031650547 0.019594017 0.04426535 -0.01525985
000020 35 6d 09 bd 57 a9 0c bd f2 1e ae bc 1d d7 df bc
       -0.033551414 -0.034341183 -0.02125499 -0.027324254
000030 6b e8 3c 3d e7 0f fc bc ee 80 eb 3b 83 d0 5a bd
       0.04612009 -0.030769302 0.0071870005 -0.05342151
000040 d4 aa 09 bc fe eb e7 bc f0 4b 28 bd a6 c3 ee 3c
       -0.008402545 -0.028310772 -0.041088045 0.029146027
000050 ef 3c 3b bd 6e 4e b0 3b d2 db 73 bc 5f a6 45 bd
       -0.045712408 0.0053804433 -0.014883952 -0.048254367
000060 1a ec 5d 3d ee e7 4d 3d f2 d2 a9 3c ac 15 23 ba
       0.054180242 0.050270014 0.02073047 -0.0006221186
000070 26 6e 21 3d 40 e2 d9 bc fa da 5e bd a0 8e 87 3d
       0.039411686 -0.026597142 -0.05440805 0.066190004
000080 07 4b c1 bd 21 a6 a8 3c 00 d3 94 3b 68 c4 60 3d
       -0.094381385 0.020587029 0.0045417547 0.054874808
000090 c7 e5 8c 3d f2 14 51 bd 23 3c 4f 3c ab 3f 90 bd
       0.06879764 -0.051045366 0.012648615 -0.07043394
0000a0 65 16 08 3d 5f 24 50 3d 85 f2 a6 bc 4a e5 1f 3d
       0.033224482 0.050815936 -0.020379314 0.039037026
0000b0 eb 08 74 bc 97 4c a0 bc 7f b5 33 3d f5 a6 69 bd
       -0.014894704 -0.01956777 0.04387426 -0.05704399
0000c0 cc ad c9 bb 1c 76 91 ba 6e 44 f5 bc 02 e1 14 3d
       -0.0061547514 -0.0011097821 -0.029939856 0.036347397
0000d0 64 72 6a 3d df 6e 54 bd 39 6f 08 3d cd 27 0d 3c
       0.057237998 -0.051863547 0.033309195 0.008615446
0000e0 3c 46 b9 3d 26 5b 55 bd 95 34 6f 3d f4 a2 fa bc
       0.09046599 -0.05208888 0.058399756 -0.03059528
0000f0 64 36 85 3d 60 96 37 bd 7a 3e ec 3b e4 2b e0 3b
       0.06504515 -0.044821143 0.007209596 0.0068411697
000100 09 af bd 3a 6a 6a 46 bd ea 06 ea 3c 8f e8 7b ba
       0.001447172 -0.048441328 0.02856775 -0.0009609544
000110 af 99 6a bd 56 6e b4 3a 6b e0 94 3d 7b b9 33 3d
       -0.05727547 0.0013765793 0.07269367 0.04387806
000120 d0 a5 15 bd 22 a8 27 3d 0c 81 be 3c 48 70 25 bc
       -0.036535084 0.04093183 0.023254894 -0.010097571
000130 1c 3f 38 3d 9c ba ad bb f0 4e 2b bc f3 02 d6 bc
       0.04498206 -0.0053017866 -0.010455832 -0.026124453
000140 58 41 4d bc b9 6d 6d 3d 63 8e 04 3d 83 45 06 bd
       -0.012527786 0.057965968 0.032362353 -0.032781135
000150 e1 2f 19 bc 3e ab 52 3d 79 fc 04 bd a8 19 2a bc
       -0.009349794 0.05143284 -0.03246734 -0.0103820935
000160 88 00 cc 3c 7b 13 66 3d ca 92 50 3d 94 e5 39 bd
       0.024902597 0.05617092 0.05092124 -0.04538496
000170 71 68 5f bd ed c2 24 3d 2e 09 0e bc 3d d0 d5 3c
       -0.054542962 0.04022496 -0.008669181 0.026100272
000180 af d7 db 3c f1 80 00 bd 80 e7 84 3c 11 d9 89 3d
       0.026836244 -0.031372968 0.016223669 0.06730855
000190 84 80 1f bd 6a a5 52 3d 28 8c 5c 3c 0f 4d f1 bc
       -0.03894092 0.051427282 0.01346115 -0.02945569
0001a0 35 de 6b bd 2c 50 2f 3d a7 31 7a bd 3b ae 1f 3d
       -0.05758496 0.042801067 -0.06108251 0.03898452
0001b0 61 10 a7 bc ce 45 82 3b eb ea af 3c 6b e4 96 3d
       -0.020393552 0.0039756065 0.021474322 0.07367786
0001c0 aa c5 4b bd 29 27 31 bd f0 77 28 3d dc e4 03 bd
       -0.049749054 -0.043250237 0.041130006 -0.03220068
0001d0 33 23 bd bc 58 ae 06 3d da d6 a7 bc fa 3c 39 3d
       -0.023088073 0.03288111 -0.020488191 0.045224167
0001e0 71 b6 25 bd 4e eb 35 3d c4 a1 7f 3d 9b 77 82 bd
       -0.040457193 0.044413857 0.06241013 -0.06370469
0001f0 1b 31 02 bd 72 de 1b 3d 5a 66 a7 3c 7a 14 a1 ba
       -0.031785112 0.038053937 0.020434547 -0.0012289428
000200 82 42 52 3d 28 53 ea bc 0d 97 c3 3c e9 71 4c bb
       0.051332958 -0.028604105 0.023875738 -0.0031195825
000210 7a 71 3f bc 9b 34 63 bb 05 5a b8 bb 88 f7 a9 3c
       -0.01168477 -0.0034668806 -0.0056259655 0.020747915
000220 38 94 27 3d af 3d 0c 3d cc 52 05 bd 02 4d 58 3d
       0.040912837 0.034238514 -0.032549664 0.052807815
000230 85 e6 1c 3d 01 26 21 3d 58 4b be 3c 94 42 05 bd
       0.038305778 0.039342884 0.023229286 -0.032534197
000240 be 0f 20 bd c6 2d 4c bb 92 4d 5d bd 21 aa 90 3c
       -0.039077513 -0.0031155213 -0.054029055 0.017659249
000250 1e b7 a3 bd 61 a4 1f bd 70 a0 06 bd 3a d5 14 3d
       -0.07993911 -0.038975123 -0.03286785 0.03633616
000260 61 a5 24 3d 21 4c 45 bd 8c 80 45 bd 19 9c 6a 3c
       0.04019678 -0.048168305 -0.048218295 0.014319443
000270 bb 53 c7 bc 64 b7 55 bd 0e b2 9a 3c e7 4c 05 bd
       -0.024331918 -0.052176848 0.018883731 -0.032544043
000280 a4 b1 5b 3b b5 44 47 3d f9 03 5a 3d 66 e4 53 bd
       0.003352263 0.04864951 0.053226445 -0.05173149
000290 0e ef 28 3d d1 84 cb 3b 7a 79 94 3d de 30 88 3d
       0.041243605 0.0062109013 0.07249732 0.06649946
0002a0 d9 41 83 bc e0 25 47 bc 46 d8 7f bc 28 83 0d 3d
       -0.01602261 -0.012155026 -0.015615528 0.03454891
0002b0 81 9a 0f bd 0c 9e 95 3d de 96 a9 3c 05 59 73 3d
       -0.035059456 0.07305536 0.020701822 0.059411068
0002c0 c7 e3 21 3d f8 bc 2e 3d 93 67 52 bd 11 09 fe bc
       0.039523866 0.042660683 -0.051368307 -0.031010183
0002d0 b6 9e 17 bd c4 ad f2 3c d8 17 34 3d 41 1a ce 3c
       -0.037016593 0.029623874 0.04396805 0.025159003
0002e0 63 c5 95 3c 3b 1b a5 ba 35 94 23 3c 96 00 5b bd
       0.018282598 -0.0012596616 0.009984066 -0.053467356
0002f0 81 d5 46 3d 7e 03 5a bd cf c1 7d bd 7f e6 9b 3c
       0.048543457 -0.053225987 -0.06195241 0.019030808
000300 86 44 52 3d d3 e5 c9 bc 2f f1 6c 3d 8d a3 a8 bc
       0.05133488 -0.024645722 0.057847198 -0.0205858
000310 05 23 3f bd 25 cc 0d bc c2 47 c6 3c 26 10 5f bd
       -0.046664257 -0.008654629 0.024204139 -0.05445876
000320 d3 90 69 3d 00 ae d7 bc 58 94 03 bd 55 fb d9 bc
       0.05702288 -0.026328087 -0.032123893 -0.026609102
000330 bb c0 e2 bc 99 80 74 3d e0 56 15 bd 7a 95 cb bc
       -0.027679792 0.059692953 -0.036459804 -0.02485155
000340 a6 42 fb bb 43 26 48 3d 2d f0 9a 3c 8f ce 34 3c
       -0.007667857 0.048864614 0.018913353 0.0110355755
000350 95 85 93 bc 9b f6 f3 3c 7f b5 67 3c d6 04 20 3d
       -0.018008033 0.029780677 0.014142393 0.039067112
000360 e1 c7 64 3d 9e 75 40 3d 89 a4 20 3d 93 6a 9d 3a
       0.055854682 0.04698717 0.039219413 0.0012009911
000370 04 b9 84 bd 67 17 62 3c c1 69 54 bd 8e 08 7d 3c
       -0.064806014 0.013799525 -0.051858667 0.015443934
000380 3a 65 4d bc 58 10 0b 3e 74 05 94 bd 7e 9c 79 bd
       -0.012536341 0.13580453 -0.072276026 -0.06094026
000390 68 a8 a0 3c 1b 5b 20 3d 9a 96 88 bc 22 ca 46 3c
       0.019611552 0.039149385 -0.016673375 0.012133153
0003a0 82 2a 46 3d a1 02 1f 3c 7b 4c bf bc 03 2f 69 3c
       0.048380382 0.009705217 -0.023351898 0.0142324
0003b0 e6 b0 58 3d 09 d2 a0 bc cd 4d 16 3d 26 c8 00 3c
       0.05290308 -0.019631403 0.03669529 0.007860219
0003c0 37 58 cf bb e0 bc de bb be ca 70 bd db fe f4 3c
       -0.0063276547 -0.006797418 -0.0587871 0.02990668
0003d0 88 ad 07 bd 71 bd 76 bd a1 aa ed bb ec 65 ee bc
       -0.033124477 -0.06023926 -0.0072530066 -0.029101335
0003e0 28 48 e9 bc c7 e3 17 3c 0a 16 94 37 90 cf 85 bc
       -0.02847679 0.009270615 1.7653238e-05 -0.016334325
0003f0 70 04 8d 3c de 5e b9 3b c7 84 74 3c fb b1 85 bd
       0.01721403 0.005657061 0.014924235 -0.06528088

actor_mean.0.bias f4 [256]
000000 87 7b 57 3b 95 21 88 bd cc 9c cd 3c e2 4b 19 3d
       0.0032880025 -0.0664703 0.02509918 0.037425883
000010 db b4 68 3d 30 de fc 3b 2a 15 cc bc 6a 8f fb bc
       0.056813102 0.0077169165 -0.024912436 -0.030708034
000020 7d 87 dc 3c 34 63 56 3d 32 7e eb b9 13 a0 ec bc
       0.026920075 0.0523407 -0.00044916716 -0.028884923
000030 9c ed 2a 3d 30 fa 72 bd c7 7a b8 bc 87 21 08 bc
       0.04173051 -0.05932063 -0.022519482 -0.008308775
000040 5f 94 b5 bc 3a 08 e4 bc 7f 82 0a bd e3 d2 ac bc
       -0.022165475 -0.027835954 -0.033815857 -0.021096652
000050 fd 47 ea bb 93 ce 10 bd 45 81 14 3c 59 7b 49 3d
       -0.007149695 -0.035353255 0.009064023 0.0491899
000060 f0 c0 7d 3c 93 3c 3a 3c 03 7e 6e 3b 0c dd 80 bd
       0.015487894 0.011366981 0.0036391027 -0.06292161
000070 cc 66 cc 3c e6 2a 93 3c e4 3e 19 bc 19 30 06 bd
       0.024951361 0.017964792 -0.009353373 -0.032760713
000080 4c 44 7b bd 3e dc 0a bd d8 0c 2c bd d8 24 37 3d
       -0.06134443 -0.033901446 -0.042004436 0.04471287
000090 e4 c7 c5 bc ad 3f 0f bc 6e 13 72 3d 81 dc e5 bc
       -0.024143167 -0.008743209 0.05910056 -0.028059246
0000a0 e2 f2 a6 3c f3 21 3a bd 90 f0 38 bd 46 cb 3c 3d
       0.020379487 -0.045442533 -0.045151293 0.046092294
0000b0 e6 d5 36 3d 4c 62 b3 3c ac ed 40 bd 50 6d 6a bc
       0.044637583 0.021897458 -0.04710166 -0.014308289
0000c0 b3 7c 77 bd 30 f5 e7 bc 41 f2 7c bd c3 03 41 3d
       -0.060421657 -0.028315157 -0.06175447 0.047122728
0000d0 97 9e 3f bd a9 72 2f 3d 34 5e 05 3c 9b 3d 75 bd
       -0.046782102 0.042833958 0.008140136 -0.059873205
0000e0 40 73 c0 3c d3 51 32 bd fe e1 5e bd 9c e7 42 bc
       0.023492455 -0.043535065 -0.05441474 -0.01189604
0000f0 b7 16 16 3d d6 04 aa 3c 76 d4 e2 bc 83 69 aa 3c
       0.036642756 0.02075426 -0.0276892 0.020802265
000100 e6 06 a0 3c f2 3a 72 bd 54 34 fb bc be 93 34 3d
       0.01953454 -0.059138246 -0.0306646 0.04408621
000110 66 7c 48 bd dc 4e dc 3c 94 f9 20 bd 33 55 55 bd
       -0.04894676 0.026893072 -0.039300516 -0.052083205
000120 6c 9d 80 bc 37 75 b8 3b 86 65 8b bc be 68 c1 3c
       -0.015700065 0.0056292075 -0.017016184 0.023609515
000130 f1 e9 09 3d e8 95 ad bc f2 e6 77 bb a0 07 3c 3c
       0.03367037 -0.021189645 -0.0037826863 0.011476427
000140 d2 7e b4 bc bc 2d 88 bd a1 34 4c 3d 37 3c 6c bd
       -0.022033129 -0.06649348 0.04985488 -0.057674613
000150 89 eb fe 3b b4 bd 83 3c 9c 81 5c bd cf 75 8d bd
       0.007779543 0.016081668 -0.053834543 -0.06907236
000160 76 2d 7a 3d 93 a1 98 3c bf 4d 5e bc ea e9 50 3d
       0.06107851 0.018631732 -0.013568341 0.051004328
000170 56 8a 51 ba 6b 58 18 3c 6d 7e e5 bc 69 f2 78 3b
       -0.0007993331 0.009298424 -0.028014386 0.0037986285
000180 7f 5d 78 bd a6 02 8d 3c e7 8e 0b bc cb df 97 3c
       -0.06063604 0.017213177 -0.008517957 0.01853933
000190 f8 ab 0e 3d e1 b3 4c bd 8f 22 2f 3c d2 75 3b bd
       0.03483197 -0.049976233 0.010689392 -0.04576666
0001a0 c0 0f 3e bc 49 a6 66 bd c4 e0 2f bd 15 17 23 bc
       -0.011600435 -0.056310926 -0.042938963 -0.009954234
0001b0 5f ec 12 39 18 c7 5e bc 28 97 79 3d 66 6a aa bc
       0.000140117 -0.013597272 0.06093517 -0.020802688
0001c0 7f f2 1f bd d1 1d 20 3d 94 64 2a bd 61 d4 90 bc
       -0.03904962 0.039090935 -0.041599825 -0.017679395
0001d0 c4 1c c6 3a 42 25 bd 3c da f5 a9 bc e8 db 31 3d
       0.0015114774 0.023089055 -0.020747114 0.04342261
0001e0 c0 bd 6d bc c6 d4 dc bc eb dc 14 3d a4 53 13 3d
       -0.014510572 -0.026956927 0.036343496 0.035968438
0001f0 ab 12 af bc 4e 7f 99 3c 9a d0 96 3c 79 70 d0 3c
       -0.021371206 0.018737461 0.018410016 0.025444256
000200 f3 7e db bb bf 1c 49 3b 70 4e 42 3d ed 76 18 3d
       -0.006698483 0.00306873 0.047438085 0.03722279
000210 3a 7d 2e bd e6 d7 93 3c 01 8d 06 bd 8d 3a 15 bd
       -0.042599894 0.018047284 -0.032849316 -0.03643279
000220 e6 14 37 3d 72 79 20 3d 78 f3 d4 bc 25 f7 36 bd
       0.044697665 0.03917832 -0.025995001 -0.04466929
000230 d4 be 93 bc d9 c4 72 3d 78 e0 f7 3c 67 13 69 bc
       -0.01803533 0.05926976 0.030258402 -0.014225817
000240 9f 38 2d bb f4 84 1e 3d 8d 4a b3 bc 4a 18 ea 3c
       -0.0026431454 0.038701013 -0.021886135 0.028576035
000250 15 d7 2f bd b4 b8 61 3d c8 23 1c bd 46 7e fd bb
       -0.042929728 0.055107787 -0.03812006 -0.007736
000260 7b bd 58 bd 98 5a a2 3c 97 de b2 3c 86 59 a2 3c
       -0.052915078 0.01981859 0.021834655 0.019818079
000270 db d0 14 3d fe 6b c6 bc ca ad 0e 3d 10 a2 df 3c
       0.036331993 -0.024221417 0.034833707 0.027298957
000280 31 9b aa 3b 8a 59 50 3d 0e ab 83 bd d0 68 65 bd
       0.0052064885 0.05086664 -0.064291105 -0.05600816
000290 7e 18 08 bd 2e bf 40 bc 64 5e 23 3d c2 f5 80 3c
       -0.033226483 -0.011764331 0.03988494 0.015742186
0002a0 07 00 3b bd 39 39 2f 3d c3 5f e5 bc ed 89 3b bc
       -0.045654323 0.04277918 -0.027999764 -0.011446458
0002b0 5f e8 74 bd 2e c7 55 bd 50 cf 09 3d 29 d6 58 3d
       -0.05979192 -0.052191906 0.033644974 0.052938614
0002c0 0e e0 e1 bc 2a 1a 20 3d 79 0b 99 3c a0 40 61 3d
       -0.027572658 0.039087452 0.018682228 0.05499327
0002d0 ce 57 1b bd ed db 36 bd 4b 96 9c 3b af 02 29 3d
       -0.037925534 -0.04464333 0.0047786585 0.041262325
0002e0 a8 2f 15 3d 1d 22 8b bd 00 d7 aa bb c0 be 1b 3b
       0.0364224 -0.06793616 -0.0052136183 0.002376482
0002f0 4b cc 42 3d 2e 41 51 3c f1 4e ee b8 83 43 63 bc
       0.04755811 0.012771888 -0.00011363428 -0.0138710765
000300 4c ba 37 3d ce 7d f7 3c e4 e7 2f 3c 20 38 04 bd
       0.0448554 0.030211356 0.010736439 -0.032280087
000310 65 c7 36 3c 34 d1 0e bd 0d 79 2c 3b 69 56 58 3d
       0.011155938 -0.03486748 0.002631727 0.052816782
000320 21 d7 54 3d 05 2b 5c 3d 92 ad 4b 3c bf af 45 bd
       0.051962975 0.053751964 0.012431519 -0.048263308
000330 f0 69 d2 bc c3 35 3f bd 5f 19 2d 3d 88 6d 28 3a
       -0.02568528 -0.04668213 0.042260524 0.0006425013
000340 ec 8d b8 bb 17 6f 73 bd 63 fd 04 bd 1a d0 a9 bc
       -0.005632153 -0.059432115 -0.03246821 -0.020729113
000350 d8 b7 31 bd 9a d9 4a 3d 1b ee 75 3d 2c 26 8d bc
       -0.043388218 0.049523927 0.06004153 -0.017230116
000360 d0 25 26 3d b0 55 5e bd 7a 14 47 3d c7 fa c5 bc
       0.040563405 -0.054280937 0.048603512 -0.024167432
000370 2e 1d 4d 3c 63 8c 29 bc 74 17 73 bc 1c de 37 3d
       0.012519164 -0.010348412 -0.014837135 0.044889554
000380 05 cc 47 bc 82 57 5c 3d ad db 45 bb 3b 57 85 3c
       -0.012194638 0.05379439 -0.0030190751 0.016276946
000390 f9 24 62 3d 68 0f 50 bd a3 67 52 3d 6e 29 84 bd
       0.05521104 -0.050795943 0.051368367 -0.064532146
0003a0 f2 66 68 bd 16 11 7d bc 1c 6d 06 3d 30 70 56 bd
       -0.0567388 -0.015445968 0.0328189 -0.052353084
0003b0 a8 26 42 bd 67 53 57 3c b2 57 0e bd ff 84 ed 3c
       -0.047400147 0.013142443 -0.0347516 0.028994082
0003c0 df ca 4f 3d e5 4a bb bc 5b 93 f5 bc 45 1d 91 3c
       0.050730582 -0.022862861 -0.029977491 0.017714152
0003d0 11 2a 51 3c 11 8d 57 bd 5b 61 0a 3c 14 ed 72 3d
       0.012766377 -0.052624766 0.008446063 0.059308127
0003e0 40 9c 53 bd 98 c5 37 3d 19 64 05 3d 54 bb 17 bd
       -0.051662683 0.044866174 0.032566164 -0.037043884
0003f0 85 13 51 3d 9a b6 81 3c 1b 80 6f 3c a4 39 06 bd
       0.051044006 0.015834142 0.014617945 -0.032769814

actor_mean.2.weight f4 [4, 256]
000000 6a 95 3a 3d 29 22 3e bd 9d ee a0 3c 47 52 90 3c
       0.04555265 -0.046419296 0.01964503 0.017617358
000010 97 c7 96 3d 93 2d 92 3d 20 ab a7 3d b1 ba 15 bd
       0.073622875 0.07137599 0.081869364 -0.036554996
000020 68 be cb bc 36 48 9a bd 67 5c 58 bd 0d 28 6d bd
       -0.024871066 -0.075333044 -0.052822497 -0.057899524
000030 bd 15 7e 3d 6f 0c f8 3c c2 12 ad 3c 24 81 5e 3d
       0.06203245 0.030279366 0.021127108 0.054322377
000040 21 9f 5f bd 89 c1 1f bd 5e 62 f4 3b 34 3f 68 3c
       -0.054595117 -0.03900293 0.0074580153 0.014175225
000050 a5 99 8e 3c 60 f5 ea bc 98 39 8f bc f7 44 2c 3d
       0.017407248 -0.028681457 -0.017483518 0.042057958
000060 67 53 89 3c b9 99 87 3c 65 c2 4a bd 8b 24 17 bd
       0.016763402 0.016552793 -0.049501795 -0.036900084
000070 d6 9a 81 bc a1 6a 99 3c b4 c0 5f 3d ed 79 8a bb
       -0.015820902 0.018727602 0.054627135 -0.0042259605
000080 48 09 76 3d 41 eb d6 bc b6 d4 b0 3a fb 51 04 bd
       0.060067445 -0.026235225 0.0013491127 -0.032304745
000090 86 0d 6d bd ab 55 82 3d f8 bc 74 3d b3 4b 65 bd
       -0.057874225 0.06363996 0.059750527 -0.055980396
0000a0 d5 14 4a 3d 84 f4 64 3d 81 65 72 3d c4 33 73 bd
       0.049336273 0.05589725 0.059178833 -0.05937554
0000b0 9f 20 0b 3c d9 b3 1b bd 23 e7 93 bd f0 dc 0b bc
       0.008491664 -0.038013313 -0.0722182 -0.008536562
0000c0 f9 71 6e bc f9 3b 6b 3c 2d f3 77 3d 47 8d 20 3b
       -0.01455354 0.01435756 0.060534645 0.002449827
0000d0 15 f0 c1 3c a7 be 7e bd 24 0e 8a bd 8e ac 15 3d
       0.02367405 -0.06219354 -0.06740978 0.036541514
0000e0 6f 2c 14 bd 0b 7d 14 bd e8 db 3e 3c 67 66 29 3c
       -0.036175188 -0.036252063 0.011649109 0.010339356
0000f0 14 6c 9e bc 02 fc 87 bd 63 26 a6 bb cc d8 bc bc
       -0.019338645 -0.066398636 -0.005070494 -0.023052596
000100 cc 79 d7 3c e4 b6 64 bd f0 37 f9 3b 38 76 42 bd
       0.026303194 -0.05583848 0.007605545 -0.047476023
000110 52 df 62 3d 0f a1 9b 3d 0c e2 33 bd ef c0 55 bd
       0.055388756 0.07599079 -0.043916747 -0.05218595
000120 53 ba 5b bc 76 45 28 3d d9 68 9a 3b 06 0c 6b 3d
       -0.013411122 0.041081868 0.004712206 0.057384513
000130 8e 39 86 3d e7 bd 31 3d 69 dd b1 bb 0a 9f 5c 3d
       0.065539464 0.043393996 -0.0054280055 0.05386261
000140 11 19 32 3c d3 f3 99 bb a7 43 7a 3d fd 0a aa 3c
       0.010870234 -0.0046982556 0.061099675 0.020757193
000150 da 9e 36 bd f2 30 3b 3d 22 e3 1c 3d 6f 19 aa 3d
       -0.044585086 0.045700975 0.03830255 0.08305632
000160 0e 1c 47 3d ba ec 0f bc 56 78 08 3d b2 39 6c bd
       0.04861074 -0.008784467 0.033317886 -0.05767221
000170 44 fb 66 3d 6f 7e 98 bc 06 97 0e bb aa 32 88 3d
       0.05639197 -0.018614976 -0.0021757497 0.066502884
000180 5a e4 83 3d 30 a5 8a 3d 6d 52 9a 3b 97 ac b1 3c
       0.06440039 0.06769788 0.004709533 0.021688743
000190 9e f8 0b 3d 85 4a 99 bc 8d 33 a0 bc d0 28 af bc
       0.034172647 -0.018712291 -0.019555831 -0.021381766
0001a0 1c ef 2a bc 29 7e 5a bd 40 52 19 bd e7 77 9b 3c
       -0.010432985 -0.053342972 -0.037431955 0.018978072
0001b0 3d 51 2d bc 90 ca 1a 3d 02 ac 71 3c 0f ee e2 3c
       -0.010578451 0.037790835 0.0147504825 0.027701406
0001c0 73 1b 3a bd 50 52 4a 3a ae 84 da 3b 20 60 36 bc
       -0.045436334 0.0007717954 0.0066686487 -0.011131316
0001d0 29 90 68 bd 5d a3 f0 3c 9c 1b ea bc 42 b5 36 3d
       -0.056778107 0.029374773 -0.028577618 0.044606455
0001e0 8f f3 3c 3c ed 44 26 3c a7 b8 68 bd 58 ac 93 3b
       0.011532678 0.010148269 -0.056816723 0.004506629
0001f0 6e 60 8f bc 87 c9 63 3d 2d ef 17 3c a9 58 2b 3c
       -0.017502036 0.055612113 0.009273333 0.01045815
000200 34 45 70 3d 04 d5 95 bd 57 c7 82 3c 21 b9 59 bd
       0.058659747 -0.0731602 0.015964193 -0.05315507
000210 05 47 24 bd 9e 5b e8 3c bb e1 23 3c 2a f7 9b 3d
       -0.040106792 0.028363999 0.010002549 0.07615502
000220 3b c8 50 3d 5e 56 3b bc 25 90 2e bc 53 f3 94 3b
       0.050972205 -0.011434166 -0.010654484 0.004545608
000230 34 87 d8 bc 01 da 29 3d af ea 36 3d 59 ae a5 3c
       -0.026431657 0.04146767 0.044657405 0.020224737
000240 2d 97 84 3d 00 15 a3 3b b0 24 18 bc 93 92 0a bd
       0.06474147 0.0049768686 -0.009286091 -0.03383119
000250 75 42 73 bc 6d c3 07 bd f1 61 65 3d a1 37 96 bd
       -0.014847388 -0.033145357 0.056001607 -0.07334829
000260 56 f3 13 3d f6 53 7b bd bc 95 3b bd 60 59 27 bd
       0.036120735 -0.06135937 -0.045797095 -0.04085672
000270 06 bd d7 3c ea e1 4d 3d ed ab 6c 3d d7 68 7a 3d
       0.02633525 0.050264277 0.05778115 0.06113514
000280 44 24 5f bd 3b cc 5f bd 4a 75 14 bd b1 33 c0 3c
       -0.054477945 -0.05463813 -0.036244668 0.023462148
000290 2d 25 29 bc ab 5d 6a 3d ad d3 82 3b 22 dd 0a bd
       -0.010323805 0.057218235 0.003992519 -0.033902295
0002a0 9a e5 eb 3c 33 c3 a0 bc 40 c3 6c bd d0 e4 34 3d
       0.028796006 -0.019624328 -0.057803392 0.044163525
0002b0 48 b7 16 bd e3 fd 03 bd e5 4e a5 3d 04 78 34 bd
       -0.036795884 -0.032224547 0.080716886 -0.04405977
0002c0 1b 04 89 3d 36 7f 8a bb 17 44 27 3d 26 c8 28 bc
       0.06690236 -0.0042265905 0.04083642 -0.010301625
0002d0 30 a6 10 bd 9c 14 1b 3d 34 a3 6e 3d fd 16 5e 3d
       -0.03531474 0.03786145 0.05826111 0.054221142
0002e0 d1 7d 85 3d dc ba 08 bd 07 0c a1 bc 4e bc d0 bc
       0.06518138 -0.033381328 -0.019659055 -0.025480416
0002f0 b8 da 99 3d 12 3d 28 bc 4d 8b 96 3c 02 f2 97 bc
       0.075124204 -0.010268467 0.01837697 -0.018548016
000300 1f b7 09 3d 88 aa 3e 39 78 04 62 bc ae 3c c3 3c
       0.033621904 0.0001818334 -0.013795011 0.023832645
000310 3e 61 5c 3d 1e 27 66 bd be 78 38 3d c3 a7 fc 3a
       0.053803675 -0.05618965 0.045037024 0.0019276071
000320 fa 92 1b 3d 6b 2e 26 bd 0b bb dc 3c 40 be f8 bc
       0.037981965 -0.04057161 0.026944658 -0.030364156
000330 db c5 53 bd 89 50 8f bd a2 f3 4c bd 60 d5 7e 3c
       -0.05170236 -0.06997783 -0.050037034 0.015553802
000340 67 17 8c 3d a2 63 1d bd 0d 8e 7b bd c5 3c d4 3c
       0.06840401 -0.038425095 -0.061414767 0.025907883
000350 af 48 2e bc 42 5d 31 bd 7a 7e 5d bc 4e 9e 05 bc
       -0.010637446 -0.04330183 -0.013518924 -0.008155419
000360 2d 7d e2 bc d0 7c 0c 3d 6a 13 1b bb 4e 7a 59 3d
       -0.02764758 0.034298718 -0.0023662695 0.053095154
000370 e7 27 1e bc b2 e3 9e 3c 1a d1 36 3d 74 98 b1 bc
       -0.009653068 0.019395683 0.04463301 -0.02167914
000380 3a 44 d0 3c 45 8b 14 3d a9 da 02 bd 68 1e ce bc
       0.025423158 0.03626563 -0.03194681 -0.025160983
000390 38 4b 02 bc 0a 32 98 bb c3 1d 66 bd b4 3b 69 bd
       -0.007952504 -0.004644637 -0.056180727 -0.056941703
0003a0 c6 d4 78 3d fc 6b 12 bd f8 86 33 bc c6 7c 29 bd
       0.06074979 -0.035747513 -0.010957472 -0.04137876
0003b0 8b a6 8a 3d 4c c8 ff 3c 76 c0 69 bc c9 7d 1d bd
       0.06770047 0.031223439 -0.014267078 -0.038450036
0003c0 b1 4c c8 bc c8 72 95 bb 90 27 2e 3d 9f 88 43 ba
       -0.024450632 -0.004560802 0.0425182 -0.0007459018
0003d0 a0 41 d8 bc be 74 60 bc dc 8d 57 bd d7 91 5e bd
       -0.02639848 -0.0136997085 -0.052625522 -0.054338302
0003e0 b0 4c 65 3d 42 ae 3c 3d 06 ab b3 3c 70 c0 fc 3c
       0.055981338 0.046064623 0.021932136 0.03085348
0003f0 ed 8e 03 3d d1 ed 39 3d 49 fd 88 3d 48 7a 2e 3d
       0.032118727 0.045392815 0.06688935 0.042597085

actor_mean.2.bias f4 [4]
000000 43 fe 28 3c 9f 60 28 3d e6 a6 8b 3c d6 82 23 3d
       0.010314527 0.04110777 0.017047357 0.039919697

critic.0.weight f4 [256, 256]
000000 e9 7f 13 3c 24 5b f6 3c 22 cc 47 bd 89 c9 51 bd
       0.009002664 0.030072756 -0.04877866 -0.05121759
000010 b2 43 23 bc a9 46 27 bd 59 ec 8b 3c 37 26 5b 3d
       -0.00996487 -0.04083887 0.017080473 0.05350324
000020 40 f0 d7 3b d1 d2 46 bb 26 ba a4 3b f9 a5 c2 bc
       0.0065899193 -0.0030338059 0.0050270734 -0.023760783
000030 82 a8 69 bc 55 f2 42 3d b4 65 9d 3b 55 66 4d 3d
       -0.014261367 0.047594387 0.0048033837 0.05014642
000040 26 ad d8 ba e6 4e 3b 3d 64 37 7a 3d bf 73 4e bc
       -0.0016531094 0.04572954 0.06108798 -0.012600838
000050 7b fc 7f bd a1 98 45 3d 01 21 17 3d 9b fb 06 bd
       -0.062496644 0.04824126 0.03689671 -0.032954793
000060 86 81 18 3d 5c 62 09 3d bc 71 a1 bd 36 fb 44 3d
       0.0372329 0.03354107 -0.07883021 0.048091136
000070 1c 69 4c bd 60 cc b3 3c a7 0f ad bc 3b cc 46 3d
       -0.049904928 0.02194804 -0.021125628 0.048534613
000080 cc 1e 2a bd 07 cd 80 3c bd bc 16 bd 03 82 4c 3d
       -0.041533276 0.015722765 -0.03680109 0.049928676
000090 92 e6 4c bd 05 15 35 3d d8 05 bb bc 0e 6e 2f bd
       -0.050024576 0.0442095 -0.022829935 -0.042829566
0000a0 75 d3 20 3c 23 11 b4 3b d0 57 8b bd 18 5a 87 bd
       0.00981604 0.005495207 -0.06803858 -0.06608981
0000b0 b2 83 04 3d a9 58 83 bb bc 74 fc bb 1e a2 56 bd
       0.032352157 -0.004008372 -0.0077043455 -0.0524007
0000c0 c3 9d 0b 3d 89 ce 3d 3d da 7e 08 3d d4 7c 6f bd
       0.034086 0.046339545 0.0333241 -0.058468655
0000d0 fb 20 7d bd e8 6a 22 3d 36 23 3c bd 65 1c 6c bd
       -0.06179903 0.039652735 -0.045932017 -0.057644267
0000e0 4e 77 72 3d 6f c8 97 bb 29 21 6b bc a5 66 c6 bc
       0.05919581 -0.004632048 -0.014351168 -0.024218867
0000f0 55 aa 5c 3d d1 33 49 3d bf b6 85 bc 14 69 7f bd
       0.05387338 0.04912168 -0.016322492 -0.06235607
000100 7e b7 1e 3c 38 ff 15 bd 5f 4a a0 3c 38 58 69 bd
       0.009687303 -0.03662035 0.019566713 -0.056968898
000110 f0 8c 3a 3c 12 ab 1d 3d 75 1d 8b bd bb 60 6d 3d
       0.011386141 0.038493223 -0.06792728 0.057953577
000120 35 c2 02 3c 68 45 b5 3c cd 8d 31 3c 30 f4 0e 3c
       0.007980873 0.022127822 0.010837031 0.008725211
000130 d2 c4 8e bc 3d d4 6b bd 56 5c 1f bd d1 76 8b 3b
       -0.017427836 -0.057575453 -0.038906418 0.0042561074
000140 20 b6 57 3d d0 60 48 3d bc bc 51 bd 0a 1b 4d bd
       0.052663922 0.048920453 -0.05120538 -0.050074615
000150 43 42 39 3c 90 be 3c 3c c2 4e 42 3c f4 12 b9 3b
       0.011307302 0.011520043 0.011859598 0.0056480113
000160 29 c9 87 bd 2b d9 23 bd 07 b8 34 3d 36 36 18 3c
       -0.06630165 -0.04000203 0.044120815 0.009290269
000170 28 d3 0b 3b c0 91 30 bd c6 94 7f bc 16 c3 55 3d
       0.0021335576 -0.043107748 -0.015599435 0.052188
000180 13 a9 db 3b 75 96 64 3c e8 04 12 bd 34 dd cd 3c
       0.006703505 0.013951887 -0.03564921 0.025129892
000190 5e cb b2 3c 1f bb a3 3c 72 c6 9a bc 9a 94 9d 3c
       0.021825489 0.019986687 -0.018893454 0.019235898
0001a0 96 47 21 3d 23 8a f2 bb 88 27 eb 3c 09 53 43 bd
       0.03937491 -0.007401721 0.028705373 -0.04768661
0001b0 c4 41 df bc 93 f8 d9 3c f0 5e ce 3c 14 07 2c 3c
       -0.02725304 0.026607787 0.025191754 0.010499734
0001c0 9e 0b c6 3b 64 b4 39 3d b8 5f 8b bd fc 25 b4 3c
       0.0060438653 0.04533805 -0.06805366 0.021990769
0001d0 40 3e 92 bc 8d 1f 59 3d d8 c7 f3 3c de 62 6f bd
       -0.017851949 0.053008605 0.029758379 -0.058443896
0001e0 cf 2c fb 3b 38 2c b4 3c 5f 87 c3 3c e4 fd 9e bc
       0.0076652537 0.021993741 0.02386826 -0.019408174
0001f0 90 4c 64 bc e0 ee 42 3d e6 b6 2f bd c0 b9 3b 3c
       -0.01393427 0.04759109 -0.042899035 0.0114578605
000200 46 a3 8b bc 4e 19 9d bd 13 a7 66 3d 12 4c 05 3d
       -0.017045628 -0.07670842 0.05631168 0.03254325
000210 06 5d 9b 3a 1d 37 40 bd bf 9d 52 3c 5f d9 8e 3c
       0.0011853285 -0.04692756 0.012854992 0.017437635
000220 b5 b2 18 bb 49 a0 8a bc e8 2c 55 bc 37 b8 1e 3d
       -0.0023299877 -0.016922133 -0.013011195 0.0387499
000230 a3 27 3c bc f9 02 06 3c 2c 4b 9c 3b fb c9 de bc
       -0.0114840595 0.00817942 0.0047697034 -0.027195921
000240 c2 aa 28 3d a0 c4 3e 3c 4d 5a 2a bd 54 12 97 bc
       0.041178472 0.011643559 -0.041590024 -0.018441357
000250 c8 96 42 bd c2 03 25 3d ec 96 20 bd 49 63 2f bd
       -0.047507077 0.040286787 -0.03920643 -0.042819295
000260 78 f0 08 3c 5c d2 5b 3d d2 43 c0 3c 13 92 a6 bc
       0.0083581135 0.05366741 0.02346984 -0.020333325
000270 9b 57 6c 3c 4f 07 15 3c bf be 32 bd 44 d9 a2 3c
       0.014425184 0.009095981 -0.04363894 0.019878991
000280 c3 a2 23 3d f8 f5 00 3d 20 25 2e 3c dd 07 55 3c
       0.039950144 0.031484574 0.0106289685 0.013002363
000290 d7 d8 90 3c 0d 57 9b bc d9 4e 56 3d 05 a8 93 bc
       0.017681522 -0.018962407 0.05232129 -0.018024454
0002a0 7f 39 16 bd 35 c0 ee 3c ef dd 15 bd a8 00 b8 3c
       -0.036675926 0.029144386 -0.036588605 0.02246125
0002b0 27 8a 20 3d da 59 f6 3c c2 03 c7 bb 9e 18 a8 3b
       0.039194252 0.030072141 -0.006073446 0.0051298877
0002c0 0a 94 20 bd 87 ab d5 3b 16 45 94 bc d9 be 3c b9
       -0.03920368 0.006520692 -0.018099349 -0.00018000173
0002d0 3c 58 0a 3d dc 15 7a 3b 72 5e 72 bd 43 9f 2c bd
       0.033775553 0.0038160002 -0.0591721 -0.04214407
0002e0 8a 2a 3d bd 5b fc ca bc c9 b2 cb bc 56 ed 50 3a
       -0.046183147 -0.024778536 -0.024865525 0.0007969936
0002f0 2c f5 54 bd dd 37 10 bc b9 f5 54 bd 5c 9e 00 bd
       -0.051991627 -0.008802381 -0.051992152 -0.031401023
000300 1d 6c 3c 3d d0 82 d4 ba 47 04 23 bc 94 56 97 bc
       0.046001542 -0.0016213302 -0.00994975 -0.0184739
000310 b2 22 76 bd 52 de 8a bd 02 94 43 3d da 1d 44 3d
       -0.06009168 -0.067806855 0.047748573 0.04788003
000320 43 3e 32 3d 10 44 57 bc 1f 41 42 bc 49 ad 9d 3c
       0.04351641 -0.013138786 -0.011856346 0.019247668
000330 4d e4 0e bd 7a 71 0b 3d 16 67 a2 bc 19 d6 18 3d
       -0.034885693 0.034043767 -0.019824546 0.037313554
000340 b2 44 1f 3d de 0e 8a bd 43 5a af bc a1 47 d8 bc
       0.038883872 -0.06741117 -0.021405345 -0.026401343
000350 f6 0a df 3a ff 7a 87 bd 2d 4a 29 3d 36 15 88 3b
       0.0017016816 -0.066152565 0.041330505 0.004152919
000360 82 f8 30 bd ec a7 23 3c 3a c5 dc 3c 77 1e 81 3c
       -0.043205746 0.009988766 0.026949514 0.015761597
000370 f1 17 5b 3a 70 64 e9 bc 03 06 77 bd f0 75 2d bd
       0.00083577546 -0.028490275 -0.060308468 -0.042348802
000380 80 c6 60 bd d0 48 21 bc d7 7a 61 bc 2f 84 da bc
       -0.054876804 -0.00984402 -0.013762197 -0.026674358
000390 bd 78 e0 bc 55 5c 50 bb 2b 92 18 bd e8 ac 85 bd
       -0.027401322 -0.0031793315 -0.03724877 -0.0652712
0003a0 8a 88 da b9 4e 16 7a 3c 18 21 15 bd d7 6a 18 bd
       -0.0004168193 0.015264107 -0.036408514 -0.037211265
0003b0 81 1a 45 3d 00 fc ef bc 64 d2 5a bc 3c 5c bf bb
       0.04812098 -0.029294968 -0.013355825 -0.0058398526
0003c0 dc 10 6b bd 68 ab 19 3d 7d 01 12 bc b3 ca 81 bd
       -0.057389125 0.03751698 -0.008911488 -0.0633749
0003d0 2d c9 21 bd 45 b9 61 bc bd d8 2d bc 90 3c dd 3b
       -0.039498497 -0.013777082 -0.010610756 0.0067516044
0003e0 97 a6 3d 3d 5e d4 90 3c 10 12 28 bd 44 f4 e2 3c
       0.04630145 0.01767939 -0.04103285 0.027704366
0003f0 4f a8 d2 3c 82 44 65 bd 1d 61 f0 bc 8c 26 84 bc
       0.025715021 -0.055973537 -0.029343182 -0.016131662

critic.0.bias f4 [256]
000000 ec b1 81 3c a7 f5 89 3d 0a df 02 3e c9 45 29 3e
       0.01583191 0.067363076 0.12780395 0.16530527
000010 00 20 8a ba 78 d7 c5 bc 3c 61 7a bd 6d 3c 84 bd
       -0.0010538101 -0.024150595 -0.061127886 -0.06456838
000020 e0 12 06 bd 51 d8 20 3e 45 17 5c bd d0 65 2e bd
       -0.032732844 0.15707518 -0.05373313 -0.042577565
000030 ea 9e 38 3d 74 43 5b 3c 75 1b fe 3c cc 3d 01 3e
       0.045073427 0.013382781 0.031018952 0.1262123
000040 36 4b 79 bd cb 60 ed 3c 35 85 99 3d 4c 3f 39 3d
       -0.060862742 0.028976819 0.0749611 0.04522638
000050 1d f7 53 3d b5 47 54 bd 4c 6c b4 3d 7a 3c 99 bc
       0.051749337 -0.051826198 0.088097185 -0.018705595
000060 d1 8d f1 3d 37 a0 07 3e 15 ad 0c bd 95 7d 47 3d
       0.117946275 0.13244711 -0.03434475 0.04870375
000070 b8 26 b3 bb b1 7e 18 bd 93 a7 ba 3d 85 b2 01 3e
       -0.005467262 -0.037230197 0.091139935 0.12665756
000080 03 a8 0b 3d 5e b5 e3 3d bd 4e 10 3e 9c e2 0e bd
       0.034095775 0.111185774 0.14092536 -0.03488408
000090 cb f6 75 b9 c7 82 4f 3d 91 2d 05 3c 14 cb 96 3d
       -0.00023456958 0.05066183 0.00812854 0.07362953
0000a0 b6 c2 8c 3d 03 60 04 3d f1 00 26 3d 07 b0 6a bc
       0.06873076 0.032318126 0.04052824 -0.014324195
0000b0 b5 c5 cc 3d 83 22 98 3d 73 68 28 bd d1 6b ac bc
       0.09998647 0.074284576 -0.041115236 -0.021047505
0000c0 02 3a c0 bc dc 5d 52 bd 99 f3 64 bd 4e 30 57 bc
       -0.02346516 -0.051359043 -0.055896375 -0.013134075
0000d0 fb 54 0e bd f9 e0 4c bc 0e 61 26 bd b5 c7 fc 3d
       -0.034749012 -0.01250481 -0.040619902 0.123427786
0000e0 d4 d4 27 3e b9 a9 33 3d d9 7c ec bc 4a de c7 3d
       0.16389781 0.043863032 -0.028868126 0.09759195
0000f0 cb c4 1d bd 8a ba 45 3a d6 b9 11 3d ca e4 fe 3d
       -0.038517755 0.000754275 0.035577618 0.12445982
000100 1b d9 fc 3c 02 f3 46 3e 98 b7 ea 3c a2 bf 93 bc
       0.030865243 0.19428638 0.028651997 -0.018035714
000110 23 03 1f 3d 47 5b 1e bc 35 e3 de 3d c7 38 f6 3b
       0.03882135 -0.009665317 0.1088318 0.0075140926
000120 92 6d 4b 3c d1 3b d6 3d 63 70 d6 bd ef fd db 3d
       0.01241626 0.10460628 -0.10470655 0.10741793
000130 9d 85 91 3d a3 8c 39 bd 32 04 86 bd 28 a1 09 3e
       0.07105563 -0.045300137 -0.06543769 0.13440382
000140 7b dc 2a 3e 86 2d 0b 3e 95 08 f7 3d d8 7d 8b 3d
       0.16685669 0.13591585 0.12062184 0.06811112
000150 57 6a 7b 3d d2 57 98 3d ea 04 5a 3d 99 df 0c 3d
       0.06138071 0.074386254 0.053227343 0.034392927
000160 ea 4c 22 3d c6 f9 50 bd 08 9d 15 3d 3e cb 8a 3d
       0.039624132 -0.051019453 0.03652671 0.067770466
000170 1c 5e 1f 3c ee 97 7f bd c9 99 bf 3b a1 8d 38 3d
       0.009727027 -0.06240075 0.00584719 0.045056943
000180 96 15 6c bd 61 86 ba 3d c0 02 d2 bc be 52 ca bc
       -0.057637773 0.09107662 -0.025636077 -0.024697658
000190 91 71 28 3e 1a 3a 92 3c 9a a2 e9 3d 5d 19 12 3e
       0.16449572 0.01784997 0.11407967 0.14267488
0001a0 58 2b 02 3e 68 ef 9f 3d 00 70 91 bb bb 7d 63 3c
       0.12711847 0.07809335 -0.0044384003 0.013884957
0001b0 f4 45 bc 3d ba 68 fc 3d 15 a6 22 bc 9d bd d8 3d
       0.0919303 0.123246625 -0.009927292 0.10583041
0001c0 d6 3c 02 bd 2c 21 4d bd 49 fb 10 3d 53 64 1e 3d
       -0.0317963 -0.050080463 0.035395894 0.038669895
0001d0 56 76 d4 bc de 0d ef 3d b4 b2 94 ba 6b 10 46 bc
       -0.025935333 0.11672567 -0.0011344762 -0.012088875
0001e0 d0 d8 c1 3d b5 1c e5 3d a1 1c cc 3d b4 c9 53 bc
       0.09465182 0.11187116 0.09966398 -0.012926508
0001f0 37 f5 40 bc 5e 02 33 bd ad 72 3c bd 14 57 77 3d
       -0.011777214 -0.04370343 -0.0460078 0.06038578
000200 98 8d be 3c 20 cf 90 3d 88 94 0d 3e 50 09 90 3d
       0.023260877 0.07070756 0.13826191 0.07033026
000210 79 8e b6 bc ed ab 9e 3d 54 c2 f2 3c 28 6d 12 3e
       -0.022284733 0.07747636 0.029633678 0.14299452
000220 19 a7 d8 3d 3d 9c a2 3c 69 f6 13 3c 7f 50 78 3d
       0.10578746 0.01984989 0.009030917 0.060623642
000230 82 c5 0b 3e 84 39 bd 3d 33 cb 0b 3e 5e 88 89 3c
       0.13649562 0.09239486 0.13651733 0.016788658
000240 c0 12 3f bd 3c f7 4e bd ae 3d a0 bd 03 bf 68 3d
       -0.04664874 -0.05052875 -0.078242645 0.056822788
000250 65 70 89 bc 00 4b e2 3c 1d 1b 0b 3e d7 f5 7c 3d
       -0.016777227 0.027623653 0.13584562 0.06175789
000260 dc 4e 2a bd 6c ef 48 3e f8 4b 37 bd c2 b4 05 3e
       -0.041579112 0.19622582 -0.044750184 0.13057235
000270 02 d0 c5 3c 76 d2 85 bc 98 86 eb 3d 35 5e fe 3d
       0.024147037 -0.016335707 0.11500281 0.12420312
000280 37 e7 4c 3d 5d 28 9f 3d c7 d3 8b 3c 1f f5 0c 3e
       0.05002519 0.077713706 0.017068757 0.13765381
000290 70 5c d7 bc a2 48 c6 3d 94 87 07 3e eb 73 7a 3c
       -0.026289195 0.09681822 0.13235313 0.015286426
0002a0 19 48 e7 3d d3 b2 ad 3d 30 b4 a9 bb 82 5e 87 3c
       0.112930484 0.08481374 -0.0051789507 0.016524557
0002b0 83 ea 6a 3c f1 36 cf bc 65 9d 8d bc db c4 33 bd
       0.0143381385 -0.025294753 -0.017286966 -0.043888908
0002c0 78 d2 e6 3d a0 61 6f bd a1 91 b2 bd 17 a7 e1 3d
       0.112706125 -0.05844271 -0.08719183 0.11018198
0002d0 a4 ea f1 3d aa 61 08 3d 7e 34 d9 3d e3 3f 20 3e
       0.11812332 0.033296265 0.10605715 0.15649371
0002e0 f9 4b 31 3d 8a ba 01 3e 71 a2 58 3d 23 4b 32 3d
       0.043285344 0.12668815 0.05288929 0.043528687
0002f0 d2 93 59 bc f5 d0 21 3e 10 9c 11 3e 1d b6 da 3d
       -0.013279872 0.15802367 0.1421969 0.106792666
000300 56 c2 3d 3d 29 3e e8 3c a6 d7 e2 3c c4 9a 20 3d
       0.04632791 0.028349953 0.02769072 0.039210096
000310 f0 fb 2f 3d 59 4b e6 bb 21 0b 11 bd cd 3e 7a bd
       0.042964876 -0.007028025 -0.035411004 -0.061095048
000320 e7 57 67 bd 51 ab c3 bc 59 41 ca bc 29 ab 31 3d
       -0.056480315 -0.023885401 -0.024689363 0.04337612
000330 2c c6 2f 3d 3e 0d af 3c 5e 9e 21 bd e5 59 0d 3e
       0.0429136 0.021368619 -0.03945767 0.13803823
000340 f7 63 99 3c b8 c9 0d 3e df 87 eb bc 90 a8 13 3e
       0.018724425 0.13846481 -0.028751312 0.1441977
000350 d3 1d da 3d d0 85 d2 3d 3d 6d ca 3d bc 4e 24 bd
       0.1065022 0.10279429 0.09884117 -0.04011415
000360 64 b1 f3 3d 51 99 33 bd da 40 64 3d e8 b5 53 3d
       0.11899069 -0.043847386 0.05572591 0.05168715
000370 72 62 5b 3d 4e d0 24 3e 07 7a 57 3d 94 33 45 bd
       0.05356068 0.16095087 0.05260661 -0.04814489
000380 78 d4 d6 3c b3 f4 bc 3c 02 1c 2a 3e 0d 4f 6e 3d
       0.02622436 0.0230659 0.16612247 0.058180857
000390 7e 3c 36 bd f7 46 4a 3d a2 25 ac 3d d0 a4 a1 3d
       -0.044491284 0.049384084 0.084056154 0.078927636
0003a0 c8 5b 8a bd d6 37 4c 3d ad 1f ff 3d f0 33 00 3e
       -0.06755787 0.049857937 0.124572136 0.12519813
0003b0 d0 95 5b 3d ec 62 05 3d 3d dd 02 3e 9e ac 17 3e
       0.05360967 0.032565042 0.12779708 0.14811942
0003c0 21 96 e2 3d 12 da bb 3d a6 1d e0 3b 93 1a 41 3d
       0.11063791 0.09172453 0.006839472 0.047144484
0003d0 c2 0e d8 3d cd 28 14 bd 6a de 14 3d 3b 91 c0 3d
       0.1054969 -0.036171723 0.036344923 0.094027005
0003e0 1f 30 d0 3d 2e a6 17 bd 88 2d 76 bd ef bf 05 3d
       0.10165428 -0.037023716 -0.060102016 0.032653745
0003f0 11 39 89 bd d5 04 eb 3c db 7b 26 3e 61 b1 90 3d
       -0.06700338 0.028688828 0.16258185 0.07065082
