best_model_episode_1850.pth (torch, 561701 bytes, 10 tensors)

actor_log_std f4 [4]
0	0xc02f0ce5	-2.735162
1	0xc02f0411	-2.7346232
2	0xc02bcc43	-2.6843421
3	0xc0379592	-2.868504

shared.0.weight f4 [256, 24]
0	0xbe3e3699	-0.18575515
1	0x3f063f30	0.52440166
2	0xbf21b0a2	-0.63160145
3	0x3f0330a7	0.5124611
4	0xbdf51b5f	-0.11968111
5	0x3d590181	0.05297995
6	0xbd1742f3	-0.036929082
7	0xbdeac963	-0.11464193
8	0xbe27be5b	-0.16381209
9	0xbe6a741b	-0.22895853
10	0xbd329aef	-0.043604787
11	0x3d3ef32a	0.046618618
12	0x3e699736	0.22811589
13	0x3e7adb69	0.24497761
14	0x3c9e9e79	0.019362675
15	0xbe14309c	-0.14471668
16	0x3c2e8e19	0.010653996
17	0xbe075396	-0.13215479
18	0xbe85e158	-0.26148486
19	0xbde736c8	-0.112897456
20	0xbe7ff79f	-0.24996804
21	0xbe5f3164	-0.21796185
22	0xbe5dd163	-0.21661906
23	0x3cf0706f	0.029350488
24	0xbf896418	-1.0733671
25	0xbe1f51d5	-0.1555856
26	0xbf152b31	-0.5826903
27	0xbe8199f3	-0.25312766
28	0x3eb6e15a	0.35718805
29	0xbeb4063c	-0.35161006
30	0x3e97c324	0.29641068
31	0xbdf7bba4	-0.120963365
32	0xbe6e6130	-0.23279262
33	0xbe715cb2	-0.23570517
34	0xbe7b6738	-0.24551094
35	0x3dfc965a	0.12333365
36	0xbdc2d30d	-0.09512911
37	0xbe356032	-0.17712477
38	0xbe1531f2	-0.14569834
39	0xbe63165c	-0.22176498
40	0xbdb20b3a	-0.086935475
41	0xbe38407b	-0.17993347
42	0xbcc8b991	-0.024502547
43	0x3dcbfe6d	0.09960637
44	0x3d4abe4c	0.049497887
45	0xbe7c2ed1	-0.24627234
46	0xbcce5509	-0.025187032
47	0xbd2fb16a	-0.042893805
48	0x3e816dea	0.2527917
49	0xbf140ed7	-0.57835144
50	0x3eade91d	0.33966914
51	0x3e46b4cc	0.19404906
52	0xbe5cbc91	-0.21556307
53	0x3e3d34c6	0.18477163
54	0x3e99dce8	0.3005135
55	0x3e1ab7c3	0.15109162
56	0xbe26d1e9	-0.16291012
57	0x3db6140d	0.08890543
58	0xbc196f41	-0.009364904
59	0xbdba259c	-0.09089205
60	0xbe3de82f	-0.18545602
61	0xbeac1705	-0.33611313
62	0xbd962753	-0.07331719
63	0xbe531615	-0.20613892
64	0xbd9d99b7	-0.076953344
65	0xbe4a4754	-0.19753772
66	0xbc4e3ad7	-0.012587271
67	0xbeab696f	-0.33478877
68	0xbebac18b	-0.36475787
69	0xbe145294	-0.14484626
70	0x3e7641d2	0.24048546
71	0x3e37ee2d	0.1796195
72	0x3e0b6096	0.13611063
73	0xbe61967b	-0.2203006
74	0xbe83217b	-0.2561148
75	0xbf82485a	-1.017833
76	0xbdacbeff	-0.08434867
77	0x3c92574e	0.017863896
78	0x3e60f416	0.21968111
79	0xbd10a342	-0.035311945
80	0xbc33fe8b	-0.010985981
81	0xbee2fec3	-0.44334993
82	0xbdfe3775	-0.12412921
83	0xbd365b89	-0.04452089
84	0xbce9d276	-0.028542738
85	0x3d95e16d	0.07318387
86	0x3e32a9d9	0.17447604
87	0xbdfa904b	-0.12234553
88	0xbd934be1	-0.07192207
89	0x3dd1e8b4	0.10249463
90	0x3dd18597	0.10230558
91	0x3d0c12ba	0.034197547
92	0x3e8789e4	0.2647239
93	0x3f13f7d6	0.5780004
94	0xbdaa583e	-0.08317612
95	0xbe3a6e6c	-0.18206185
96	0x3ef15426	0.47134513
97	0xbd53ca45	-0.05170657
98	0xbe23b724	-0.15987831
99	0xbe8ac631	-0.27104333
100	0xbe66cb8a	-0.22538581
101	0xbc1d912d	-0.009617132
102	0xbe13e1b8	-0.14441574
103	0xbdf63f9f	-0.120238535
104	0xbe6d0290	-0.23145509
105	0xbf26d610	-0.65170383
106	0xbe8aa22c	-0.27076852
107	0xbecf5e5a	-0.40501672
108	0xbeaf36ce	-0.342215
109	0x3d8c7053	0.06857362
110	0x3e74e3b7	0.23914991
111	0x3d957141	0.07296992
112	0x3dc1525d	0.09439538
113	0xbe2ddb3a	-0.1697816
114	0xbe00e815	-0.12588532
115	0xbd954b22	-0.07289721
116	0x3c3e1c99	0.011603498
117	0xbe7674ee	-0.24068043
118	0xbe0f5184	-0.1399594
119	0xbde752f4	-0.11295119
120	0x3dd19c7b	0.102349244
121	0xbd5a0aec	-0.053233072
122	0x3e86197a	0.26191312
123	0xbf4f053e	-0.80867374
124	0xbe87d215	-0.26527467
125	0xbe2d1548	-0.1690265
126	0xbeb1a37f	-0.3469505
127	0xbdf3a446	-0.11896567
128	0x3dabf8be	0.08397053
129	0xbe3987b7	-0.18118177
130	0x3e4b1ca5	0.19835146
131	0x3dac2a2b	0.084064804
132	0x3d32d104	0.043656364
133	0x3e25c15c	0.16187042
134	0xbea8b251	-0.32948545
135	0xbeabf171	-0.33582643
136	0xbed1577a	-0.40887052
137	0xbeddf79f	-0.43352982
138	0xbe287fdf	-0.16455029
139	0xbe8cdf25	-0.27513996
140	0xbe461df5	-0.19347365
141	0xbecb3526	-0.39688987
142	0x3e80a88c	0.2512859
143	0xbcb2f5cd	-0.021845723
144	0xbd96915a	-0.07351942
145	0xbf0a83b6	-0.54107225
146	0x3c3cbc14	0.011519451
147	0x3ea67de8	0.32517934
148	0x3e998e1c	0.29991233
149	0xbd4b74b3	-0.04967184
150	0xbe2a9e20	-0.16661882
151	0xbe1ec093	-0.15503149
152	0x3be4f92d	0.006987712
153	0xbe954176	-0.29151505
154	0x3db010de	0.08596967
155	0xbeb6d262	-0.35707384
156	0x3de27e0c	0.11059198
157	0x3d8ffd4f	0.07030737
158	0x3b1ac147	0.0023613737
159	0xbe3ac252	-0.1823819
160	0x3ddaf5a0	0.106913805
161	0xbd1c207c	-0.038116917
162	0xbd80feab	-0.06298574
163	0xbe912ebb	-0.28355965
164	0xbd009270	-0.031389654
165	0xbe29140c	-0.16511554
166	0xbe22920f	-0.1587603
167	0x3e360aed	0.17777605
168	0x3e6191d6	0.22028288
169	0x3d5b5dd6	0.053556286
170	0xbea1c5cf	-0.31596228
171	0xbe90fa14	-0.28315794
172	0x3de85441	0.11344195
173	0xbe1dc725	-0.15407999
174	0xbda0894b	-0.078386866
175	0xbe0388b4	-0.12845117
176	0xbe191e4e	-0.14952967
177	0xbe7243c6	-0.23658666
178	0x3db36428	0.08759338
179	0xbdd7c46b	-0.10535511
180	0xbc077f9e	-0.008270172
181	0xbe007fb6	-0.12548718
182	0xbd815721	-0.06315447
183	0xbe3113e7	-0.17292748
184	0x3bf210a0	0.0073872358
185	0x3c13c7bf	0.009019791
186	0xbcb4b34f	-0.022058157
187	0xbe0cc43d	-0.13746734
188	0xbe206ddb	-0.15666907
189	0xbd959f49	-0.07305772
190	0xbde60990	-0.11232293
191	0xbd244496	-0.04010447
192	0x3e653e5f	0.22387074
193	0x3fbe7e08	1.4882212
194	0xbf2a722e	-0.66580474
195	0x3f362b0b	0.7115943
196	0x3db03136	0.08603136
197	0xbc1bd3cd	-0.009510946
198	0x3d848b31	0.06471861
199	0x3d80f879	0.062973924
200	0x3b1a441a	0.0023539127
201	0xbe302135	-0.17200167
202	0x3d8f0359	0.069830604
203	0xbe268beb	-0.16264312
204	0xbc9170a5	-0.017753908
205	0xbeac0e59	-0.33604696
206	0xbe07e98f	-0.1327269
207	0xbe5baf20	-0.21453524
208	0xbdef86fe	-0.116956696
209	0x3c357b9c	0.011076834
210	0x3d9f900d	0.077911474
211	0x3d667a26	0.056268834
212	0xbe37b5cb	-0.17940442
213	0xbe327148	-0.17426026
214	0xbd416aa3	-0.047220837
215	0x3e5c862c	0.21535558
216	0x3d8a59e7	0.06755429
217	0xbeee8608	-0.46586633
218	0xbe6ac766	-0.22927627
219	0xbe860435	-0.26175085
220	0x3e1cbf29	0.15307297
221	0x3d9c0ee1	0.076200254
222	0xbc537b9a	-0.012907887
223	0x3de5de89	0.11224086
224	0xbe74d0e1	-0.23907806
225	0xbe686ed0	-0.22698522
226	0x3e0e41ef	0.13892339
227	0xbcc977d0	-0.024593264
228	0xbe09bb73	-0.13450412
229	0xbea2d460	-0.31802654
230	0xbe54a6ac	-0.20766705
231	0x3ddd0724	0.107923776
232	0x3d565bf9	0.052333806
233	0x3e00e6c9	0.12588038
234	0x3d809fc6	0.06280474
235	0x3c120c6d	0.008914095
236	0xbd5fe9df	-0.054666396
237	0xbe7b6958	-0.24551904
238	0xbea9aab3	-0.33138046
239	0xbe7d37be	-0.24728295
240	0x3eb91120	0.36145878
241	0x3f0a4689	0.5401388
242	0xbef19940	-0.47187233
243	0xbf210051	-0.6289111
244	0x3e3abb2c	0.18235463
245	0x3d38c9ee	0.04511445
246	0xbe570613	-0.20998411
247	0x3e4f3039	0.20233239
248	0x3d9cef90	0.076628804
249	0xbd4b8983	-0.04969169
250	0x3da151c7	0.07876926
251	0xbe527bb5	-0.20555003
252	0xbc9d3368	-0.019189551
253	0xbdb67861	-0.08909679
254	0xbe5d574b	-0.21615331
255	0xbeb63c73	-0.35592994

shared.0.bias f4 [256]
0	0xbe76c1b4	-0.2409733
1	0xbba829f4	-0.0051319543
2	0x3c51a0b7	0.012794665
3	0x3db2ae62	0.08724667
4	0xbe434ee7	-0.19073068
5	0x3dd2d9a6	0.102954194
6	0x3dbc52c6	0.09195475
7	0x3d688016	0.056762777
8	0xbcb97504	-0.022638805
9	0x3e46ab28	0.19401228
10	0xbe6f6d4b	-0.23381536
11	0x3f02d62f	0.5110807
12	0x3e61485f	0.22000264
13	0x3d536f5a	0.051619865
14	0x3e2c80ae	0.16845962
15	0x3e1f3a4e	0.15549585
16	0x3e25d653	0.1619504
17	0x3dbca877	0.092118196
18	0xbe7c4ba3	-0.24638228
19	0x3e63c134	0.2224167
20	0x3e94f543	0.2909337
21	0xbb581266	-0.003296995
22	0x3da971ee	0.082736835
23	0x3c4874e1	0.012234897
24	0x3e52af32	0.20574644
25	0x3e87831c	0.26467216
26	0x3d97576e	0.07389723
27	0x3e70f002	0.23529056
28	0x3e4821dd	0.19544168
29	0x3da9d794	0.082930714
30	0x3e7a1c8c	0.24424952
31	0xbca25488	-0.019815698
32	0xbd674d65	-0.056470294
33	0x3e64d4aa	0.2234675
34	0x3e21f01c	0.1581425
35	0x3e192702	0.14956287
36	0xbe2840c5	-0.16430958
37	0x3d3e6741	0.04648519
38	0xbddc679d	-0.1076195
39	0x3dfefe9c	0.12450907
40	0xbea3c26c	-0.3198427
41	0x3e240985	0.16019256
42	0x3eb69135	0.3565766
43	0xbe2122e1	-0.15735961
44	0xbd2d609f	-0.042328473
45	0xbd980f91	-0.07424844
46	0x3e642b53	0.22282152
47	0x3ee40aba	0.44539434
48	0xbdaab72d	-0.08335719
49	0xbdb11c22	-0.08647944
50	0xbd143afe	-0.03618907
51	0xbcf14a78	-0.029454455
52	0xbe136ff0	-0.1439817
53	0xbdf362d8	-0.11884087
54	0x3ec8d384	0.39223874
55	0x3ea3403e	0.3188495
56	0x3de7093e	0.1128106
57	0x3e3a1fdb	0.18176214
58	0xbcb3e876	-0.021961432
59	0x3d03487e	0.032051556
60	0xbe3891b2	-0.18024328
61	0x3ea97933	0.3310028
62	0xbcf855a6	-0.030314278
63	0xbdbd1917	-0.09233301
64	0xbe0adddb	-0.13561194
65	0xbd3e24e4	-0.0464219
66	0xbe368a4e	-0.17826197
67	0xbe7c64d5	-0.2464784
68	0xbe88b9f0	-0.2670436
69	0xbe887638	-0.26652694
70	0xbd7b434a	-0.06134347
71	0xbdd7879a	-0.10523911
72	0x3d8531b0	0.06503618
73	0x3e010488	0.12599385
74	0xbe106cb3	-0.14103965
75	0xbe5353e2	-0.20637468
76	0xbe4c010e	-0.19922277
77	0x3d189989	0.037255798
78	0x3eb552c7	0.35414717
79	0x3d898864	0.067154676
80	0x3e786ad4	0.24259502
81	0x3deca928	0.115557015
82	0xbea1d377	-0.31606647
83	0xbd327ffc	-0.043579087
84	0xbdad1e58	-0.08453053
85	0x3db38e14	0.087673336
86	0xbe19addb	-0.15007727
87	0x3e089286	0.13337144
88	0xbd6c1edc	-0.057646617
89	0xbdc11726	-0.09428243
90	0x3e277b58	0.16355646
91	0x3e2e7b4d	0.17039223
92	0xbe1392ad	-0.14411421
93	0xbe5bb213	-0.21454649
94	0x3e035560	0.12825537
95	0xbe33e950	-0.1756947
96	0xbdb55da6	-0.08855753
97	0x3c3a8744	0.011384789
98	0x3d5a2217	0.053255167
99	0xbdb72eef	-0.08944499
100	0xbe75711c	-0.23968929
101	0x3ed5766d	0.41691914
102	0x3a92d96e	0.0011203715
103	0x3df8b262	0.12143399
104	0xbc8acedd	-0.016944343
105	0xbe3e9c04	-0.18614203
106	0xbdcbf5e3	-0.099590085
107	0x3e235b62	0.15952829
108	0xbe981b9a	-0.29708558
109	0xbd23bcca	-0.039974965
110	0x3e8f0ad3	0.27937946
111	0xbe3e1d6d	-0.18565913
112	0x3bc8efef	0.006132118
113	0xbdeeacca	-0.11654051
114	0x3dc58fbb	0.09646555
115	0x3d44841a	0.047977544
116	0xbe274d3d	-0.16338058
117	0xbce995dc	-0.028513841
118	0x3e6e5ee4	0.23278385
119	0xbde476ed	-0.11155496
120	0x3e9657d4	0.29363883
121	0x3e31eebe	0.17376229
122	0xbe1d289b	-0.15347521
123	0xbcbf6ca2	-0.02336723
124	0xbb3806fd	-0.0028080337
125	0x3e0e2e4c	0.13884848
126	0x3e2c93f0	0.16853309
127	0x3e1a5e29	0.15074982
128	0xbc8694ed	-0.016428435
129	0x3e290b78	0.16508281
130	0x3eaa689a	0.3328293
131	0x3ed89036	0.42297524
132	0xbd51b5ae	-0.051198654
133	0x3dc8c874	0.098038584
134	0xbd2ed2cd	-0.042681504
135	0x3c7d51c2	0.015461387
136	0xbe831057	-0.25598404
137	0xbc2a7248	-0.010403223
138	0x3db65662	0.08903195
139	0x3e303e15	0.17211182
140	0x3e9c7951	0.30561307
141	0x3e4545e1	0.19264938
142	0x3d5685ad	0.052373577
143	0xbde7f01e	-0.113250956
144	0x3e458872	0.19290331
145	0x3e37f445	0.17964275
146	0x3c3d7577	0.01156365
147	0xbd68cc7e	-0.056835644
148	0xbe3d777d	-0.18502612
149	0xbe869946	-0.26288813
150	0x3dfa2602	0.12214281
151	0x3e1ad981	0.15122034
152	0x3d366cce	0.044537358
153	0xbda669d4	-0.08125654
154	0xbddb028f	-0.106938474
155	0xbe021ba8	-0.12705863
156	0xbdddea11	-0.1083566
157	0x3dc6db55	0.09709803
158	0x3e3cea8d	0.18448849
159	0xbd6416c3	-0.05568577
160	0x3e1d1356	0.15339407
161	0x3e1e83e3	0.15479998
162	0xbd2fc3f7	-0.042911496
163	0x3e7f68c5	0.2494231
164	0xbaac3776	-0.0013139087
165	0x3e2d8b93	0.16947775
166	0x3db53a9e	0.08849071
167	0x3e9faa0d	0.31184426
168	0x3ea78cc2	0.32724577
169	0x3e7e8152	0.2485402
170	0x3c19e24c	0.009392332
171	0xbd64c6b1	-0.05585355
172	0xbd0d31ad	-0.034471203
173	0xbded58a8	-0.115891755
174	0x3e39305f	0.18084858
175	0x3ea6b711	0.32561544
176	0x3dc8e64c	0.09809551
177	0xbc0a11fb	-0.008427138
178	0x3d27b078	0.040939778
179	0x3d1632fd	0.03666972
180	0xbe360047	-0.17773543
181	0xbd99a862	-0.075028196
182	0x3d530f58	0.051528305
183	0xbe8f8998	-0.28034663
184	0x3a36b688	0.00069699483
185	0xbe1505d1	-0.14553
186	0x3e04ecdd	0.12980981
187	0xbcc71c53	-0.024305498
188	0x3ce00024	0.027343817
189	0x3e6175ac	0.22017545
190	0x3e8f78a1	0.2802172
191	0x3e6112b3	0.2197979
192	0x3dc5c842	0.09657337
193	0x3d32aac3	0.043619882
194	0x3e8829d9	0.26594427
195	0x3e9199c1	0.28437617
196	0x3e00d096	0.12579569
197	0x3e4b8835	0.19876178
198	0x3d810206	0.06299214
199	0x3e77eeb4	0.24212152
200	0x3e3e029c	0.18555683
201	0x3e6da262	0.23206475
202	0xbd87a12f	-0.0662254
203	0x3c4f6e66	0.012660598
204	0xbe850aad	-0.25984707
205	0x3c199cf9	0.009375804
206	0xbcde5439	-0.02713977
207	0x3e129281	0.143137
208	0xbe823c05	-0.25436416
209	0xbde37e85	-0.11108116
210	0x3ec8d879	0.39227656
211	0xbc43f932	-0.011961268
212	0xbdc3dfe1	-0.09564186
213	0x3e30a2af	0.17249559
214	0xbe24b201	-0.16083528
215	0xbe2da76b	-0.16958396
216	0xbda98b70	-0.08278549
217	0x3bb10a6d	0.005402854
218	0xbe809657	-0.251147
219	0xbddbec5e	-0.10738443
220	0xbcf15656	-0.029460113
221	0xbd57f184	-0.05272056
222	0x3e79a12c	0.24377888
223	0x3da2ea42	0.079548374
224	0x3e9eb0fa	0.30994397
225	0x3e509a69	0.20371403
226	0xbd118ff4	-0.035537675
227	0xbd02ea18	-0.03196153
228	0xbcc978f3	-0.024593806
229	0xbdd7985a	-0.10527106
230	0x3d4dbf5e	0.05023133
231	0x3d92b573	0.07163515
232	0xbe8fc14f	-0.2807717
233	0x3e0622e1	0.13099243
234	0xbe81877f	-0.25298688
235	0x3e884c97	0.26620933
236	0x3dd283ac	0.10279021
237	0x3de1bf80	0.11022854
238	0x3ea7f1ac	0.32801569
239	0xbcd4bd42	-0.025969151
240	0x3eaf4a27	0.3423626
241	0xbc325fd1	-0.010887102
242	0xbd0c4475	-0.034244973
243	0x3e06a8ed	0.13150378
244	0xbd4b5bac	-0.049647972
245	0xbd47ddd0	-0.04879552
246	0x3dd5d718	0.104414165
247	0xbc6f64b7	-0.014611415
248	0x3e59801b	0.21240275
249	0x3d657d5b	0.05602775
250	0xbe380475	-0.1797045
251	0x3e0c795e	0.13718173
252	0x3d691fa9	0.05691496
253	0xbdc75053	-0.097321175
254	0x3dc65e41	0.09685946
255	0x3e561665	0.2090698

actor_mean.0.weight f4 [256, 256]
0	0xbbb98e10	-0.005662687
1	0xbd7a993c	-0.061181292
2	0x3c5f93ab	0.013646047
3	0xbd0f9b69	-0.03506032
4	0x3c960519	0.018312978
5	0xbd3ff26c	-0.04686205
6	0x3d2fb7e2	0.042899974
7	0xbc72d47c	-0.014821168
8	0xbd6fd774	-0.05855508
9	0xbd951c5b	-0.07280799
10	0xbc7a7f00	-0.015289068
11	0xbd461178	-0.048356503
12	0x3cc0168c	0.023448251
13	0xbcfe8b45	-0.031072268
14	0xbd291b0a	-0.041285552
15	0xbdc6ba5b	-0.09703513
16	0xbdae4dd9	-0.08510942
17	0xbd522594	-0.05130537
18	0xbddb1cd2	-0.106988564
19	0xbd26eaf5	-0.040751416
20	0xbd7a0e79	-0.06104896
21	0xbc98d911	-0.018658193
22	0xbd1c6518	-0.038182348
23	0xbe0004d0	-0.12501836
24	0x3d99a3b1	0.07501925
25	0x3d4068fe	0.04697513
26	0xbb90c0c8	-0.0044175126
27	0xbbbfa26a	-0.0058482187
28	0x3cb32279	0.021867024
29	0xbdac2521	-0.08405519
30	0xbe154600	-0.14577484
31	0x3d2c0f6e	0.042006902
32	0xbe003d93	-0.12523489
33	0x3cc371e5	0.02385802
34	0x3b94ee66	0.004545021
35	0x3cc2a32a	0.023759443
36	0x3cede02d	0.02903756
37	0xbdaeb1d9	-0.085300155
38	0x3ca63690	0.02028969
39	0xbdad5170	-0.084627986
40	0x3b1aaec6	0.0023602708
41	0x3d44000c	0.047851607
42	0xbd5cf180	-0.05394125
43	0xbc8ca705	-0.017169485
44	0xbd2f41e0	-0.042787433
45	0xbd1d0e3b	-0.03834365
46	0x3be76fef	0.007062904
47	0xbd9ea18a	-0.07745655
48	0xbcf97168	-0.030449584
49	0xbc192c6b	-0.009348969
50	0xbd44c9db	-0.048044067
51	0x3d76f3bb	0.060291033
52	0x3d7736f3	0.060355138
53	0xbd8a72ae	-0.06760155
54	0x3c6e79b1	0.014555381
55	0xbd34eff1	-0.04417414
56	0x3ccff3bf	0.025384782
57	0xbd3497f1	-0.044090215
58	0x3d6f46be	0.058417074
59	0xbd8d741c	-0.06906912
60	0x3d720fa1	0.059096936
61	0xbd8693c9	-0.065711565
62	0xbd1c5ffd	-0.03817748
63	0x3c250222	0.010071309
64	0xbc400429	-0.011719742
65	0xbd36563b	-0.04451583
66	0x3ce8ee6d	0.028434003
67	0xbdade7e2	-0.08491494
68	0xbd428913	-0.047494005
69	0x3c19ae7b	0.009379978
70	0x3d067651	0.03282768
71	0x3cd3ff7b	0.025878659
72	0xbd65184b	-0.05593137
73	0x3c47e9a0	0.012201697
74	0x3cc34967	0.023838712
75	0xbc9ba874	-0.019001223
76	0xbca730a5	-0.020408938
77	0x3cd7fbe7	0.026365234
78	0xbd8abea0	-0.0677464
79	0xbcf03c99	-0.02932577
80	0xbc7cf73c	-0.015439805
81	0x3ceed58c	0.029154561
82	0x3d30194f	0.042992886
83	0xbd1eaa5b	-0.038736682
84	0xbd3ef654	-0.046621636
85	0x3d924c2c	0.07143435
86	0xbcfe69b7	-0.031056268
87	0xbd4c1ac8	-0.049830228
88	0x3c012f13	0.0078847585
89	0x3d5bbcaa	0.05364672
90	0x3d014555	0.03156026
91	0xbdd7764d	-0.10520611
92	0xbd618f56	-0.055068336
93	0x3d23152e	0.03981512
94	0xbca89ded	-0.020583117
95	0xbc967133	-0.018364524
96	0x3bcf7cbd	0.0063320086
97	0xbd85570e	-0.06510745
98	0xbc4136f0	-0.011792883
99	0x3d2b3b78	0.04180476
100	0xbd1c9f28	-0.03823772
101	0xbc6d6701	-0.01448989
102	0xbd0e1f7b	-0.03469799
103	0xbd983663	-0.074322484
104	0xbd5b550c	-0.053547904
105	0xbc9f5416	-0.019449275
106	0xbdbdb6ce	-0.09263383
107	0x3c05a1e2	0.008156272
108	0xbdae74a5	-0.08518342
109	0x3bfb956b	0.007677724
110	0xbc51bdef	-0.012801631
111	0x3d9bf8e5	0.07615832
112	0xbd58aafc	-0.05289744
113	0xbd980d3a	-0.07424398
114	0x3d335aa5	0.043787617
115	0xbd081a1e	-0.033228032
116	0xbcb15d24	-0.021650858
117	0x3cd47a95	0.025937358
118	0xbc58e21c	-0.013237502
119	0xbd9534dc	-0.07285473
120	0xbdad9d25	-0.084772386
121	0x3ccd8fef	0.025093047
122	0x3d118e3a	0.03553603
123	0xbd09e311	-0.033663813
124	0xbd2b664c	-0.041845605
125	0x3ce7333e	0.028222676
126	0x3c698f1d	0.014255312
127	0x3c1b9957	0.009497008
128	0xbc82b483	-0.015955215
129	0xbd7a19c6	-0.061059736
130	0x3d364310	0.04449755
131	0x3b1c53cf	0.0023853665
132	0xbc402348	-0.011727162
133	0xbc860ca6	-0.016363453
134	0xbd3c564a	-0.04598073
135	0xbbb10369	-0.005402018
136	0x3d1d8cc1	0.03846431
137	0x3cce6885	0.025196323
138	0xbd15508d	-0.036453772
139	0x3d5b1dd1	0.053495232
140	0x3c44e008	0.012016304
141	0x3d0864e3	0.033299338
142	0x3d0382b6	0.032107078
143	0xbd036e49	-0.032087598
144	0xbd35d4c5	-0.044392366
145	0xbbc709e9	-0.0060741794
146	0xbe02cc46	-0.12773237
147	0xbad27063	-0.0016055222
148	0xbdccf301	-0.10007287
149	0xbd804ee7	-0.062650494
150	0xbc49dd3e	-0.012320815
151	0x3a0a5ca6	0.0005278088
152	0x3c87ed17	0.016592545
153	0xbd4b52e0	-0.049639583
154	0xbd5ccc70	-0.053905904
155	0xbc1241d8	-0.008926831
156	0xbd3fea07	-0.046854045
157	0xbda77b28	-0.08177787
158	0x3bd6f4ab	0.0065599284
159	0xbd6ccb65	-0.05781116
160	0xbc29d492	-0.010365622
161	0x3cdf877f	0.02728629
162	0x3d59c973	0.053170633
163	0xbd638ce0	-0.05555427
164	0x3ba9334d	0.005163586
165	0xbc6630d6	-0.014049729
166	0x3db1cc0a	0.086814955
167	0x3d754973	0.0598845
168	0xbd0a1e03	-0.033720028
169	0xbc9926c3	-0.01869524
170	0xbd9fea1b	-0.07808324
171	0x3c9d463d	0.019198531
172	0xbd878f88	-0.06619173
173	0x3df1a30a	0.11798675
174	0xbd78c1a4	-0.060731545
175	0x3d866621	0.06562448
176	0x3d00c69f	0.03143942
177	0x3d5e366a	0.054251112
178	0xbd9ef482	-0.0776148
179	0xbd82b4d0	-0.063821435
180	0xbdd27b98	-0.1027748
181	0xbcbb002c	-0.02282723
182	0x3d1bbb4c	0.038020417
183	0xbc010ea4	-0.007877026
184	0x3ccd50db	0.025062969
185	0xbc6b9b3a	-0.014380271
186	0x3b9377f3	0.004500383
187	0xbd705d90	-0.05868298
188	0x3d9d9eea	0.07696326
189	0xbda9ebdf	-0.08296942
190	0xbd6584c1	-0.056034807
191	0xbb5e7a70	-0.003394749
192	0x3d115fc3	0.035491716
193	0xbd3c0f2f	-0.045912918
194	0x3cbebad0	0.023282439
195	0xbc0d848d	-0.00863756
196	0xbe1a2e9f	-0.15056847
197	0xbd972c9b	-0.07381555
198	0xbd13ef0c	-0.036116645
199	0xbd811de1	-0.06304527
200	0x3d3ed402	0.046588905
201	0xbd40956e	-0.047017507
202	0xbdb6bfef	-0.08923327
203	0xbd50698d	-0.05088191
204	0xbc451137	-0.01202803
205	0x3d22ad7f	0.03971624
206	0xbd38c761	-0.045112018
207	0xbd6f6de0	-0.058454394
208	0xbd2a3f83	-0.041564476
209	0x3d3b47a1	0.045722608
210	0x3c908246	0.017640244
211	0xbc6b14df	-0.014348238
212	0xbd043129	-0.032273445
213	0xbcd53a9f	-0.02602893
214	0xbd2b4a58	-0.041818947
215	0x3c65ca67	0.014025307
216	0x3d264fa8	0.04060331
217	0x3cb1e6be	0.021716472
218	0x3bb461dc	0.00550483
219	0x3bded84d	0.0068006874
220	0xbd54e9ad	-0.051980663
221	0xbda7adb4	-0.08187428
222	0xbdb345ff	-0.08753585
223	0xbd280883	-0.041023742
224	0xbcb9cfd0	-0.0226821
225	0x3df530a2	0.119721666
226	0xbe0344ac	-0.12819165
227	0xbda88281	-0.08228017
228	0x3cb87323	0.022515839
229	0x3ca7b3c9	0.02047147
230	0xbd40cefa	-0.04707239
231	0xbd6f429a	-0.058413126
232	0xbc41b819	-0.011823677
233	0xbc124761	-0.008928151
234	0xbcdeb82f	-0.027187435
235	0xba460a88	-0.000755467
236	0xbc85648d	-0.016283298
237	0xbcac60c4	-0.021042235
238	0x3d09e6b8	0.033667296
239	0xbc462590	-0.012093917
240	0xbd80587d	-0.06266878
241	0xbca0a04f	-0.019607691
242	0xbdf71b79	-0.12065787
243	0x3c879bfe	0.016553875
244	0xbd720bff	-0.05909347
245	0xbde85394	-0.11344066
246	0xbc7c6002	-0.015403749
247	0xbd428078	-0.0474858
248	0xbcfb7fac	-0.030700527
249	0x3cd101f7	0.025513632
250	0xbd80e25e	-0.06293176
251	0xbd0c5408	-0.034259826
252	0x3c1217c3	0.008916798
253	0xbdf958e5	-0.121751584
254	0x3c8344f3	0.016024088
255	0xbdc35d93	-0.09539332

actor_mean.0.bias f4 [256]
0	0xbcb871d0	-0.022515208
1	0xbdada383	-0.08478453
2	0xbceedbf1	-0.02915761
3	0x3bbec86c	0.005822232
4	0x3ceb1c7d	0.028700108
5	0xbc3102ee	-0.010803921
6	0xbd300d36	-0.04298135
7	0xbde878ef	-0.11351191
8	0x3be81f4b	0.0070838085
9	0xbe52cd4e	-0.2058613
10	0xbd1d89cc	-0.03846149
11	0xbd400d67	-0.04688778
12	0xbd83dcee	-0.06438623
13	0xbda86a9a	-0.08223458
14	0xbdf4e205	-0.11957172
15	0x3e0225b9	0.12709703
16	0xbd8637d1	-0.06553615
17	0xbd2d54a2	-0.04231704
18	0xbd350562	-0.044194587
19	0xbdd28f7c	-0.10281274
20	0xbe49f2f8	-0.19721591
21	0xbd9e6b04	-0.07735255
22	0xbe0d2982	-0.13785365
23	0x3ac612df	0.0015111825
24	0xbdbc3307	-0.0918942
25	0xbc4f8e3e	-0.0126681905
26	0xbdaf7a29	-0.08568222
27	0xbe9a45d4	-0.301314
28	0xbd9c1e3b	-0.076229535
29	0xbd754382	-0.059878834
30	0xbdd608dc	-0.104509085
31	0xbe58e7f6	-0.21182236
32	0xbe21e4ab	-0.15809886
33	0xbdc4cf5b	-0.096098624
34	0xbd972f8b	-0.07382115
35	0x3c3f73bd	0.011685309
36	0xbd2b4de0	-0.041822314
37	0xbcb84707	-0.022494806
38	0x3d74b818	0.059745878
39	0xbe3b150f	-0.18269752
40	0x3d62d449	0.055378232
41	0xbd917063	-0.07101514
42	0xbde703b9	-0.11280007
43	0xbe302f67	-0.17205583
44	0xbd500eae	-0.05079525
45	0xbd44f7f1	-0.048088018
46	0xbe3f3107	-0.18671046
47	0x3c2b7937	0.010465912
48	0xbd8ec489	-0.0697108
49	0xbdc5f15f	-0.096651785
50	0xbd941d9e	-0.072322115
51	0x3dba0d5f	0.090845816
52	0xbd93806e	-0.072022304
53	0xbd514c14	-0.051097944
54	0xbd9be286	-0.07611565
55	0xbda9dc7b	-0.082940064
56	0xb9876c3d	-0.0002582985
57	0xbe1a31f8	-0.15058124
58	0xbd8a4fd7	-0.067535095
59	0x3c404c49	0.011736938
60	0x3b69eedc	0.003569535
61	0xbdd04d57	-0.101710014
62	0xbdc408b3	-0.09571972
63	0xbb00ec7c	-0.0019672206
64	0xbc6da4ee	-0.014504654
65	0xbde30cb3	-0.110864066
66	0xbd3c207e	-0.045929424
67	0xbc63aaf3	-0.013895738
68	0xbd728483	-0.059208404
69	0xbdd1d208	-0.102451384
70	0xbde58c49	-0.11208398
71	0xbe1baec5	-0.15203388
72	0xbdfae67a	-0.12250991
73	0xbd33a66e	-0.04385989
74	0xbc47eaca	-0.012201974
75	0xbdf7a669	-0.12092287
76	0xbdd017ca	-0.101607874
77	0xbe45231a	-0.19251671
78	0xbe045a99	-0.12925185
79	0xbc5d150a	-0.013493786
80	0xbd77fb64	-0.06054248
81	0xbe5b1deb	-0.21398132
82	0x3cad4302	0.021150116
83	0xbe447d1e	-0.19188353
84	0xbda813ee	-0.08206926
85	0x3df14277	0.11780255
86	0xbd951e45	-0.07281164
87	0xbdba0d12	-0.09084524
88	0x3c67e87e	0.014154552
89	0xbdc2f3eb	-0.0951918
90	0xbd6989b3	-0.057016086
91	0xbc69fb69	-0.014281132
92	0xbe050523	-0.12990241
93	0x3d516db7	0.051130023
94	0xbd00cf23	-0.03144754
95	0xbd1150a1	-0.035477284
96	0xbdb82afa	-0.08992572
97	0xbdb62158	-0.088930786
98	0xbdda392d	-0.10655437
99	0xbd145634	-0.036215022
100	0x3c3905a1	0.011292846
101	0xbe84e0e0	-0.25952816
102	0xbcc91db3	-0.024550295
103	0xbdb02da2	-0.08602454
104	0xbd54daf3	-0.05196662
105	0xbe48e28f	-0.19617675
106	0xbe08bbc2	-0.13352874
107	0xbd3e0f58	-0.04640135
108	0xbd97a19c	-0.074038714
109	0xbcbd6912	-0.02312139
110	0xbdbc1dbb	-0.09185358
111	0xbd08dc14	-0.033413008
112	0xbd0b356d	-0.033986498
113	0xbc115583	-0.008870485
114	0xbdcad17b	-0.099032365
115	0xbd21e90b	-0.039528888
116	0x3cdbd422	0.026834551
117	0xbb931270	-0.004488282
118	0xbe17e48f	-0.14833282
119	0xbd41a0ec	-0.047272608
120	0xbd36b743	-0.044608366
121	0xbdcf3f41	-0.101194866
122	0xbd3ea8b4	-0.046547607
123	0xbce82b45	-0.028340945
124	0xbd40acfe	-0.04703998
125	0x3c8e3370	0.017358512
126	0xbc41bf28	-0.01182536
127	0xbd852cc8	-0.06502682
128	0xbd1975d3	-0.03746588
129	0xbd4d2660	-0.050085425
130	0xbdb81c2c	-0.08989748
131	0xbd6a4859	-0.057197902
132	0xbe1df4ad	-0.15425368
133	0xbd628510	-0.05530268
134	0xbe6bb25a	-0.23017254
135	0xbd8aa076	-0.06768887
136	0xbd8fd156	-0.070223495
137	0xbdf33f04	-0.11877254
138	0xbd90972a	-0.07060082
139	0xbe1ade1b	-0.15123789
140	0xbd35dfa0	-0.04440272
141	0x3d24e40b	0.04025654
142	0x3d7a8681	0.06116343
143	0xbdeb58c9	-0.11491544
144	0xbe2c5a8c	-0.16831416
145	0x3cc1003c	0.023559682
146	0xbd18d306	-0.037310623
147	0x3ca46c14	0.020071067
148	0xbda57e3f	-0.0808072
149	0xbda5caef	-0.08095347
150	0xbe4672b0	-0.19379687
151	0xbdcd186b	-0.10014423
152	0xbe2f9859	-0.1714796
153	0xbd9b79b2	-0.07591571
154	0x3c315008	0.010822304
155	0xbe5d51d2	-0.21613243
156	0xbbad0c33	-0.0052809953
157	0xbce3c6f8	-0.027804837
158	0xbd71dd30	-0.05904883
159	0xbdd9e33b	-0.10639044
160	0xbdc0c192	-0.094119206
161	0xbc4cc343	-0.012497726
162	0xbe89dff4	-0.26928675
163	0xbda4d9b2	-0.080493346
164	0xbd728a25	-0.059213776
165	0x3d663263	0.056200396
166	0x3cd14560	0.025545776
167	0xbda59460	-0.08084941
168	0xbe04e0dd	-0.12976404
169	0xbda6d9a8	-0.081469834
170	0xbe1e8a11	-0.15482356
171	0xbde2f631	-0.110821135
172	0xbe30f9c1	-0.17282774
173	0xbce453cd	-0.02787199
174	0x3c56c801	0.013109208
175	0x3d79f590	0.061025202
176	0xbd7414ac	-0.059590027
177	0x3d6c012d	0.05761831
178	0x3bb19b6e	0.00542014
179	0x3cf46fb3	0.029838419
180	0xbddcc48a	-0.10779674
181	0x3dab65ce	0.08369027
182	0xbce7064c	-0.028201245
183	0xbd475ac9	-0.048670564
184	0xbb1c8a41	-0.0023886117
185	0xbdf9092b	-0.12159952
186	0xbe0a4347	-0.13502227
187	0xbde59e50	-0.11211836
188	0xbd3f25e7	-0.046667006
189	0xbdc60c98	-0.09670371
190	0xbdc98a7a	-0.098408654
191	0xbdf14cff	-0.11782264
192	0xbc35d95b	-0.011099185
193	0x3c3d4755	0.011552651
194	0xbc0b9696	-0.008519789
195	0xbe1004a8	-0.14064276
196	0xbdac9a11	-0.08427823
197	0xbe7bfdd7	-0.24608551
198	0xbd0f67c7	-0.03501108
199	0xbd9fa787	-0.07795625
200	0xbd107286	-0.035265468
201	0x3d361f8d	0.044463683
202	0xbdd6c041	-0.10485888
203	0xbd820682	-0.063488975
204	0xbdd832db	-0.10556575
205	0xbd8f7270	-0.07004249
206	0xbe26f134	-0.16302949
207	0xbdde0604	-0.10840991
208	0xbdb48995	-0.08815304
209	0xbd995b70	-0.074881434
210	0xbde747dc	-0.11293003
211	0xbd27fa48	-0.04101017
212	0xbd9520b8	-0.07281631
213	0x3c90c7aa	0.017673332
214	0x3d69f627	0.057119515
215	0xbe039a49	-0.12851824
216	0xbd8369a1	-0.064166315
217	0xbd9c91cc	-0.07644996
218	0xbdbf889f	-0.0935223
219	0xbe2526e5	-0.16128118
220	0xbda03cb3	-0.078240775
221	0xbd096d0b	-0.033551257
222	0xbd65e213	-0.056123804
223	0x3b16322d	0.002291809
224	0xbcd47e6f	-0.025939194
225	0xbdb3c07b	-0.08776947
226	0xbcb5ed50	-0.022207886
227	0xba326b1a	-0.00068061205
228	0xbc429085	-0.011875276
229	0xbd8e23c8	-0.069404185
230	0xbc8f6763	-0.017505353
231	0xbdd4252d	-0.10358653
232	0xbe52ada9	-0.20574059
233	0xbe01622f	-0.1263511
234	0xbde0ee62	-0.10982968
235	0xbd8d5ca6	-0.06902437
236	0x3c980c00	0.01856041
237	0xbd7c7804	-0.061637893
238	0xbdd2a372	-0.10285081
239	0x3d0821fa	0.033235528
240	0xbc7be769	-0.015374997
241	0x3be54f17	0.0069979536
242	0xbd47413e	-0.048646204
243	0xbddb8984	-0.107195884
244	0xbd132381	-0.03592253
245	0xbe726ad4	-0.23673564
246	0xbe27b266	-0.16376647
247	0x3c860700	0.01636076
248	0xbdbbe5d8	-0.091746986
249	0x3bbcabfa	0.005757806
250	0xbd9c494e	-0.07631169
251	0xbdad48b0	-0.0846113
252	0xbd261989	-0.040551696
253	0xbd22f5b1	-0.03978509
254	0xbdd0a71e	-0.10188125
255	0xbd4f0abf	-0.050547358

actor_mean.2.weight f4 [4, 256]
0	0x3d700558	0.058598846
1	0xbd03c89b	-0.032173734
2	0x3c73a8a0	0.014871746
3	0xbd4860bc	-0.048920378
4	0x3d4384a1	0.047733907
5	0x3da280d1	0.07934726
6	0x3da712cb	0.08157881
7	0x3dfa20db	0.12213298
8	0xbcbf130f	-0.023324518
9	0xbdebf12d	-0.1152061
10	0xbe6053de	-0.21906993
11	0xbd8758e3	-0.06608751
12	0x3ec60ec7	0.3868315
13	0x3ca82cf1	0.020529242
14	0x3d33d540	0.043904543
15	0x3e6ee099	0.23327865
16	0xbc1a477e	-0.009416459
17	0xbd3cdac9	-0.046107087
18	0x3c85e7fa	0.016345967
19	0xbaf60426	-0.0018769547
20	0xbe5acd61	-0.21367408
21	0xbe1a56d0	-0.15072179
22	0x3d6644b0	0.05621785
23	0x3e121f19	0.14269675
24	0x3d64bbd4	0.05584319
25	0xbb3d65b5	-0.0028899733
26	0xbdbff1ea	-0.09372313
27	0xbf050205	-0.51956207
28	0xbe231785	-0.1592694
29	0x3ce8cd71	0.028418275
30	0xbc423427	-0.011853254
31	0x3e235dd1	0.15953757
32	0x3ef05fc3	0.4694806
33	0x3e587ac5	0.21140583
34	0xbbbf3c3a	-0.005836037
35	0xbcc26377	-0.02372907
36	0xbd409d30	-0.047024906
37	0x3f43c387	0.76470226
38	0xbc4f7904	-0.01266313
39	0xbdaa63ff	-0.08319854
40	0x3e026cf7	0.1273688
41	0x3d272cb0	0.0408141
42	0x3dcd4d92	0.10024561
43	0xbe274951	-0.16336562
44	0xbe32fc2e	-0.17479011
45	0xbd0fd8aa	-0.035118736
46	0xbe11c8d9	-0.14236774
47	0x3de43a85	0.11143974
48	0xbc728794	-0.014802832
49	0x3ea898a5	0.3292896
50	0x3d1b6ae3	0.037943732
51	0x3d096443	0.033542883
52	0x3b17c4c1	0.0023158046
53	0xbe2d29c3	-0.16910462
54	0xbcebee76	-0.02880023
55	0xbb9118d0	-0.0044280067
56	0xbd30cc33	-0.04316349
57	0xbe8144f5	-0.25247923
58	0xbc883987	-0.016628994
59	0xbd01b7e5	-0.031669516
60	0xbc49eb65	-0.012324189
61	0xbe1d6fb6	-0.15374646
62	0xbe1237f8	-0.14279163
63	0x3baf5885	0.0053511285
64	0x3b8d3ba7	0.0043100896
65	0xbdcdfe1b	-0.100582324
66	0xbb92c913	-0.0044795363
67	0xbcf2f3d5	-0.029657284
68	0x3d5a1eb6	0.053251944
69	0xbbd2496a	-0.006417443
70	0xbe6b2d36	-0.22966465
71	0xbdc48903	-0.095964454
72	0xbdd891bf	-0.10574674
73	0x3f2497db	0.64294213
74	0xbdc48611	-0.09595884
75	0xbe0bf221	-0.13666584
76	0x3e3b0c7a	0.18266478
77	0x3ea5d78e	0.32391018
78	0x3bfd4b32	0.0077299112
79	0xbda131eb	-0.07870849
80	0x3bb64377	0.0055622417
81	0xbef39a07	-0.4757845
82	0x3d7bba40	0.06145692
83	0x3e8fff75	0.28124586
84	0xbe83e838	-0.25763106
85	0x3ef51d8d	0.47874108
86	0x3d16c8fe	0.036812775
87	0x3d8bc9d3	0.06825604
88	0x3c81defd	0.0158534
89	0xbde2ca97	-0.11073797
90	0xbcbcd85b	-0.023052385
91	0xbdea2852	-0.11433472
92	0x3e0ec27d	0.13941379
93	0xbe100509	-0.14064421
94	0x3e47d660	0.19515371
95	0x3d8ade09	0.06780631
96	0x3efbb95a	0.4916485
97	0x3e0ea79a	0.13931122
98	0xbd8694bd	-0.06571338
99	0xbd0fc9a5	-0.035104413
100	0x3cc6d817	0.024272962
101	0x3eaca29d	0.33717814
102	0xbdc897e7	-0.09794598
103	0x3ee7d18c	0.4527706
104	0xbcdae9e5	-0.026722858
105	0xbdb36e35	-0.08761255
106	0x3eab2c16	0.33432072
107	0x3cad4955	0.021153131
108	0x3e2b4948	0.16727173
109	0x3ce96dc0	0.028494716
110	0x3e8dae22	0.27671915
111	0x3cf1bb13	0.02950815
112	0xbf1f4dca	-0.6222807
113	0xbe35a96f	-0.17740415
114	0xbdab3cc1	-0.08361197
115	0x3bf27af2	0.00739991
116	0xbdd69cb0	-0.104791045
117	0x3c9be15f	0.019028364
118	0xbe236af2	-0.15958765
119	0x3ea49f92	0.32152992
120	0xbc495add	-0.01228973
121	0x3e57b46b	0.21064918
122	0xbe35f611	-0.17769648
123	0xbd7255de	-0.05916392
124	0xbc74b32f	-0.014935299
125	0x3e42213f	0.18957995
126	0x3c97d890	0.018535882
127	0xbd81251a	-0.06305905
128	0x3d9aea01	0.07564164
129	0xbd9201d6	-0.071292564
130	0x3d88f540	0.06687403
131	0xbec95397	-0.39321586
132	0x3e2b93c2	0.16755584
133	0xbc95472c	-0.018222414
134	0xbe8b3070	-0.27185392
135	0x3d681572	0.056661077
136	0x3e10eb6e	0.1415231
137	0x3db45888	0.088059485
138	0xbe3ae5cd	-0.18251725
139	0x3d72ca0b	0.059274714
140	0xbc9ef7f0	-0.019405335
141	0xbeb458f1	-0.35224107
142	0x3d03de26	0.03219428
143	0x3d1c02d9	0.038088653
144	0x3d78cd9a	0.060742952
145	0x3c5d8bd5	0.013522108
146	0xbc4fa720	-0.012674123
147	0xbe48ae46	-0.1959773
148	0xbccf93c1	-0.02533901
149	0xbd9a5619	-0.07535953
150	0x3e011867	0.12606965
151	0xbe7cddac	-0.24693936
152	0xbef43fa6	-0.4770481
153	0x3dfb8bc8	0.122825205
154	0xbd2b9eb1	-0.041899387
155	0xbe9e3562	-0.30900103
156	0x3d71db67	0.05904713
157	0x3e645c31	0.22300793
158	0xbd98f045	-0.07467703
159	0x3eac7b3d	0.33687773
160	0xbe497e30	-0.19677043
161	0xbecb538c	-0.3971218
162	0xbee0af6e	-0.43883842
163	0x3ca7691a	0.020435859
164	0xbc40a39a	-0.011757756
165	0xbd1fe696	-0.039038263
166	0x3b45165f	0.0030073149
167	0xbe8d2186	-0.2756464
168	0x3dbe57e9	0.09294111
169	0xbe1456f1	-0.1448629
170	0xbe22da91	-0.15903689
171	0x3d716f95	0.058944304
172	0x3cab2e26	0.020896029
173	0xbd910ab6	-0.07082121
174	0x3d77a588	0.060460597
175	0x3e16a11d	0.14709897
176	0x3d30c0ee	0.043152742
177	0x3e0ff858	0.1405958
178	0x3d1636c9	0.03667334
179	0xbd8e4e51	-0.069485314
180	0x3ddcdb95	0.107840694
181	0x3df78fac	0.1208795
182	0x3e2fd460	0.17170858
183	0x3d1244ee	0.035710268
184	0x3db6f48b	0.089333616
185	0xbe40ec09	-0.1884004
186	0xbde348a1	-0.11097837
187	0xbe0dbd2e	-0.13841698
188	0x3d70d816	0.058799826
189	0xbe9a1673	-0.30095252
190	0x3d6cde6c	0.057829306
191	0xbdefc602	-0.11707689
192	0xbacfe556	-0.0015861194
193	0xbba2f9b4	-0.0049736146
194	0x3b9f5539	0.0048624543
195	0xbda75c37	-0.081718855
196	0x3e936a98	0.28792262
197	0xbf0f767d	-0.56040174
198	0xbcb50a59	-0.02209966
199	0x3e5be5b9	0.21474351
200	0x3dd5e75e	0.104445204
201	0xbd0bf657	-0.034170475
202	0xbd5c6d30	-0.053815067
203	0xbd566e1c	-0.052351102
204	0xbe41e529	-0.18935074
205	0xbd4a03ef	-0.049320158
206	0xbed633cf	-0.41836402
207	0xbd4c1f90	-0.049834788
208	0x3dc65ff1	0.09686268
209	0xbd3adb1a	-0.045619108
210	0xbdf25f7c	-0.118346184
211	0x3ce6c82d	0.028171623
212	0xbd426847	-0.047462728
213	0x3dedd198	0.116122425
214	0xbe65604c	-0.22400016
215	0x3e265606	0.16243753
216	0xbd34bde2	-0.0441264
217	0x3d3be5c5	0.045873422
218	0xbd9ab26d	-0.07553563
219	0x3f048433	0.5176422
220	0xbc6022b2	-0.013680147
221	0x3c2bcf26	0.0104864
222	0x3b8971f0	0.0041944906
223	0xbc713f66	-0.014724588
224	0x3ccabe93	0.024749076
225	0x3da7897f	0.08180522
226	0xbd35d535	-0.044392783
227	0xbd628a92	-0.055307932
228	0xbbada0c9	-0.005298708
229	0xbe01a1cf	-0.12659381
230	0xbe5cdfaf	-0.21569704
231	0x3f13d5df	0.57748216
232	0x3e6743d5	0.2258447
233	0xbe445441	-0.19172765
234	0x3c507694	0.012723584
235	0xbd1bdf6d	-0.038054872
236	0x3ecb14f0	0.39664412
237	0x3ee773a9	0.4520543
238	0xbdccdc24	-0.10002926
239	0x3e9220ef	0.2854075
240	0xbdca65a4	-0.09882668
241	0xbdd952fa	-0.1061153
242	0x3d28ca9b	0.041208845
243	0x3e4ca3d1	0.19984366
244	0x3bc46bdb	0.0059943027
245	0xbf41c0c1	-0.75684744
246	0xbec5449d	-0.3852891
247	0xbe002bd9	-0.12516727
248	0x3c4a0479	0.012330168
249	0x3df625b4	0.1201891
250	0xbe11ee5c	-0.14251083
251	0x3e2b73fc	0.16743463
252	0x3d1845f4	0.037176087
253	0x3e040506	0.12892541
254	0x3da4fd1e	0.08056091
255	0x3cf8a0f0	0.030350178

actor_mean.2.bias f4 [4]
0	0x3d62e730	0.05539626
1	0xbdb10945	-0.08644346
2	0xbe1e2d41	-0.1544695
3	0x3b8727a6	0.0041245995

critic.0.weight f4 [256, 256]
0	0x3e3173ac	0.17329282
1	0x3d98d97c	0.07463357
2	0xbdc5cdf1	-0.09658421
3	0x3f3021aa	0.6880137
4	0xbec4ea0c	-0.38459814
5	0x3cd6000a	0.026123066
6	0xbc451217	-0.012028239
7	0xbdf713a1	-0.12064291
8	0xbe507ef4	-0.20360929
9	0xbe122955	-0.1427358
10	0xbeebdc73	-0.46066627
11	0x3e6a3617	0.22872196
12	0x3e5297f3	0.20565777
13	0x3df58a46	0.11989264
14	0xbe9f44c0	-0.3110714
15	0x3dcb785b	0.09935065
16	0x3e20df97	0.15710293
17	0x3e34c83e	0.17654511
18	0x3db6cda5	0.08925942
19	0x3deeac76	0.11653988
20	0xbdd8ad9c	-0.10579988
21	0x3df8989d	0.12138484
22	0x3ea179dd	0.31538287
23	0xbdb08501	-0.086191185
24	0xbc8d1fd6	-0.017227095
25	0x3e81fb3d	0.25386992
26	0xbd7f44c8	-0.062321454
27	0xbd0a4ea7	-0.033766415
28	0xbf03665f	-0.5132808
29	0xbdad329f	-0.08456921
30	0x3e274b8e	0.16337416
31	0x3e567fb4	0.20947152
32	0x3d51fe0a	0.05126766
33	0xbe04472d	-0.12917776
34	0x3e1305df	0.14357708
35	0x3e5d1113	0.21588545
36	0xbe2f17cc	-0.17098922
37	0xbdb8b40e	-0.09018718
38	0xbe21f59e	-0.15816352
39	0x3e59903c	0.21246427
40	0x3d38940f	0.045063075
41	0xbbcc30c7	-0.0062314006
42	0x3e6e40a6	0.23266849
43	0xbce5c60d	-0.02804854
44	0x3dfab943	0.12242367
45	0x3ef44901	0.47711948
46	0x3c6cfe8c	0.014464986
47	0x3e137624	0.14400536
48	0xbdee4395	-0.11633984
49	0x3eab2e8e	0.33433956
50	0xbe1754bf	-0.14778422
51	0x3e18dcc2	0.14927962
52	0xbe397bc6	-0.18113622
53	0xbca47622	-0.020075861
54	0x3e801c09	0.2502139
55	0x3d231ffd	0.03982543
56	0x3e18dcca	0.14927974
57	0x3e9cf4f5	0.30655637
58	0xbdaeb73e	-0.085310444
59	0x3d934d96	0.07192533
60	0x3e0a270f	0.13491462
61	0x3e18e139	0.14929666
62	0x3d10a401	0.035312656
63	0x3e89faac	0.2694906
64	0xbe8e2ff5	-0.27770963
65	0xbe3e1e07	-0.18566142
66	0xbcf64833	-0.030063724
67	0x3d195a96	0.037439905
68	0x3e36e6be	0.17861459
69	0x3deec761	0.11659122
70	0xbe939f01	-0.28832248
71	0xbcaa2c9b	-0.020773223
72	0xbe88a91f	-0.2669153
73	0xbdf2ed89	-0.118617125
74	0x3c895fe2	0.016769353
75	0x3da4c06a	0.080445126
76	0xbda13b94	-0.07872692
77	0xbe0ab0ca	-0.13544002
78	0xbe50769f	-0.2035775
79	0xbe04916d	-0.129461
80	0x3e542cd3	0.20720224
81	0x3e536933	0.20645599
82	0x3e191a34	0.14951402
83	0xbb87be5d	-0.004142566
84	0x3d9fcf64	0.078032285
85	0x3da0d76f	0.07853591
86	0xbf016c71	-0.50556093
87	0xbe7c50e7	-0.24640237
88	0xbdb926b4	-0.09040585
89	0xbe6b019d	-0.22949834
90	0x3df3d58a	0.11905964
91	0x3dcd7835	0.10032693
92	0xbefe0701	-0.4961472
93	0xbcff7820	-0.03118521
94	0x3e1e938d	0.15485974
95	0x3d6f8d3b	0.058484297
96	0xbd74f760	-0.059806228
97	0x3dcb67f6	0.09931938
98	0x3d8e6e7e	0.069546685
99	0x3decfd6f	0.11571776
100	0x3b180a8c	0.0023199646
101	0x3eaa2bea	0.3323663
102	0xbe212806	-0.15737924
103	0x3e54ce89	0.20781912
104	0x3da38239	0.079838224
105	0x3e877e24	0.26463425
106	0x3ed79483	0.42105493
107	0xbdcc94be	-0.09989308
108	0xbf62e5dc	-0.8863199
109	0x3a24e1d1	0.0006289753
110	0x3e33931d	0.17536588
111	0xbe2bb4da	-0.16768208
112	0x3e931cce	0.28732914
113	0xbe0b2763	-0.13589244
114	0xbe44f213	-0.19232969
115	0x3d8346cb	0.06409987
116	0x3e71b9b7	0.23606001
117	0x3edbd62e	0.42936844
118	0x3e7d98fa	0.24765387
119	0xbd0ce9c0	-0.03440261
120	0x3dc0e173	0.09418001
121	0x3df2d012	0.118560925
122	0xbe50b73c	-0.20382398
123	0xbbd26b56	-0.006421487
124	0xbec4bd95	-0.3842589
125	0x3e9b0282	0.3027535
126	0x3e1eef25	0.15520914
127	0x3c309008	0.010776527
128	0xbe467ccc	-0.19383544
129	0xbd958c96	-0.07302205
130	0x3cfe70d4	0.03105966
131	0x3e1a656b	0.1507775
132	0x3eb8e267	0.3611023
133	0xbe1d8e91	-0.15386416
134	0xbde8ff23	-0.113767885
135	0x3cb4c36f	0.022065846
136	0x3ee1d2b0	0.44106054
137	0xbd8db79c	-0.06919786
138	0xbc257c93	-0.010100502
139	0x3f2930f4	0.6609032
140	0x3e5ccd4d	0.21562691
141	0xbe6ddb06	-0.23228082
142	0x3d9b884a	0.075943545
143	0xbd365ecb	-0.044523995
144	0x3dedd8c3	0.1161361
145	0x3e4986ec	0.19680375
146	0x3cff8df7	0.031195624
147	0x3dd3c87e	0.10340975
148	0xbae8c501	-0.0017758907
149	0x3d2f98db	0.042870384
150	0x3b5667b0	0.003271561
151	0xbdc3b5d1	-0.09556163
152	0x3dbdd959	0.092699714
153	0xbea8676d	-0.32891408
154	0x3ecc612a	0.3991788
155	0xbcdffce2	-0.027342264
156	0x3dfcedc1	0.123500355
157	0xbd19b695	-0.03752764
158	0x3eb959d4	0.36201346
159	0xbe679dba	-0.22618762
160	0xbe0c8384	-0.13722044
161	0xbe0148fb	-0.12625496
162	0x3ce72c77	0.028219445
163	0x3e2d7db0	0.16942477
164	0x3ce9c82c	0.028537832
165	0x3e591516	0.2119945
166	0x3d8bac72	0.06820001
167	0xbe23cffe	-0.15997311
168	0x3db298d4	0.08720556
169	0x3ec1b1a2	0.37830836
170	0xbd19770d	-0.03746705
171	0x3ce8bd5c	0.028410606
172	0x3dd928ef	0.106035106
173	0x3e590167	0.21191941
174	0x3dd3a450	0.103340745
175	0x3dec7b8d	0.11547003
176	0x3ec7770a	0.38958007
177	0x3ce96a0e	0.028492954
178	0xbdac480b	-0.084121786
179	0xbe4858a8	-0.1956507
180	0x3e1707db	0.1474909
181	0xbe90df57	-0.28295395
182	0x3dbfe319	0.09369487
183	0xbe81990a	-0.25312072
184	0xbd421fc0	-0.04739356
185	0x3c8e3b90	0.017362386
186	0x3e206556	0.15663657
187	0x3e61b2db	0.22040884
188	0x3e092840	0.1339426
189	0xbe29b858	-0.16574228
190	0xbe28a790	-0.1647017
191	0xbdd8ba58	-0.10582417
192	0x3d2c48f8	0.042061776
193	0x3e765a59	0.24057902
194	0xbd93316d	-0.071871616
195	0x3e0145bf	0.12624262
196	0xbdd4ed8d	-0.10396872
197	0xbdca6cf0	-0.098840594
198	0x3e889531	0.26676324
199	0x3dd2b1c6	0.10287814
200	0x3c604bf2	0.013689982
201	0x3c925db8	0.017866954
202	0x3d2d1cf2	0.042263933
203	0x3ebdd668	0.3707764
204	0x3cac295e	0.02101582
205	0x3d0eafed	0.034835745
206	0xbdb790a9	-0.089631386
207	0x3dc033f7	0.093849115
208	0x3e4d2796	0.20034632
209	0xbe3889da	-0.18021336
210	0x3dd17375	0.102271
211	0xbdce0b4f	-0.10060751
212	0x3e0954a4	0.13411194
213	0xbde5b042	-0.11215259
214	0xbe25021d	-0.16114087
215	0xbe66dd7d	-0.22545429
216	0xbe1e633d	-0.15467544
217	0x3ce1a57c	0.02754473
218	0xbdc0970d	-0.09403811
219	0xba15f57f	-0.00057204807
220	0x3db572f3	0.088598154
221	0xbdc97f34	-0.09838715
222	0xbdbd96ea	-0.092573
223	0xbe58a299	-0.21155776
224	0xbe407f26	-0.18798503
225	0xbe3efb9c	-0.18650669
226	0x3d7b8848	0.061409265
227	0x3cbfbf9d	0.023406798
228	0xbeab023a	-0.33400136
229	0x3da3d4c5	0.07999567
230	0x3ddc8907	0.107683234
231	0x3d8def75	0.069304384
232	0xbe0c6545	-0.13710506
233	0x3d8bf079	0.06832976
234	0xbdc338f1	-0.09532345
235	0xbe9fbfe9	-0.31201103
236	0x3ddf5018	0.109039485
237	0xbd3fab34	-0.04679413
238	0x3eac1616	0.336106
239	0x3d730963	0.059335124
240	0x3e5a77c7	0.21334754
241	0x3efc80df	0.4931707
242	0xbcf46647	-0.029833926
243	0x3da31ad3	0.07964101
244	0xbe22fcd1	-0.15916754
245	0x3d18ca09	0.03730205
246	0xbdb0dcfa	-0.08635898
247	0x3e3436f9	0.17599095
248	0xbc4afa8d	-0.0123888375
249	0x3dea3f6a	0.114378765
250	0xbe221ad7	-0.15830551
251	0xbd8ee173	-0.06976595
252	0x3d6b7b81	0.05749083
253	0x3d901783	0.070357345
254	0x3d745f55	0.05966123
255	0x3e34a2d1	0.17640235

critic.0.bias f4 [256]
0	0x3e8b3c5d	0.2719449
1	0x3dc6438b	0.096808515
2	0x3e0d501b	0.13800089
3	0x3e423ef3	0.18969326
4	0x3c087de7	0.008330799
5	0x3e83dc76	0.25754136
6	0x3de5d46a	0.112221554
7	0x3e9bf5a9	0.3046086
8	0x3e9e1db3	0.30882034
9	0x3da6f773	0.08152666
10	0x3e9eead0	0.31038523
11	0x3e0b3e81	0.13598062
12	0x3e0f4951	0.13992812
13	0x3eb7f629	0.35929993
14	0x3c7f1d8a	0.0155710075
15	0x3e043735	0.12911685
16	0xbd94500e	-0.07241832
17	0x3d262689	0.040564094
18	0x36c4045e	5.8417636e-06
19	0xbd116ef3	-0.0355062
20	0x3e9e62c8	0.3093474
21	0x3e1d7766	0.15377578
22	0xbb24a969	-0.002512539
23	0x3e971067	0.29504701
24	0x3cc89463	0.024484819
25	0x3eade7e9	0.33965996
26	0x3e2a0118	0.1660198
27	0x3bfa5127	0.0076390686
28	0x3ead2f74	0.33825266
29	0xbd61b72a	-0.05510632
30	0x3e19baf1	0.15012719
31	0x3de4d679	0.1117372
32	0x3c63eda8	0.013911642
33	0x3e074613	0.13210325
34	0x3d7a5c47	0.06112316
35	0x3eac7fc1	0.33691218
36	0x3ea86576	0.3288991
37	0x3e24a37d	0.16077991
38	0x3e84c236	0.2592942
39	0xbd6f3818	-0.058403105
40	0xbc04daca	-0.008108804
41	0x3e93fb33	0.28902587
42	0x3e9b4865	0.3032867
43	0xbe720a85	-0.23636825
44	0x3e5eaa9a	0.21744767
45	0x3e0c8ff7	0.13726793
46	0x3ea5b985	0.32368103
47	0xbd223c96	-0.03960856
48	0xbd2938b8	-0.041313857
49	0xbd73450a	-0.059392013
50	0xbd8b0612	-0.06788267
51	0x3e9b4139	0.30323198
52	0xbd35304e	-0.04423552
53	0x3e53727b	0.2064914
54	0x3e0a761e	0.1352162
55	0x3dcf4ba8	0.10121852
56	0x3dc43ad0	0.0958153
57	0x3cc59805	0.02412034
58	0x3e8e0140	0.2773533
59	0x3e2c5eeb	0.16833083
60	0xbd448c9b	-0.047985654
61	0x3ea2fff5	0.31835905
62	0x3c808b64	0.015691467
63	0x3dc81055	0.0976874
64	0x3e838989	0.25690868
65	0x3e3648f7	0.17801271
66	0x3e0a45f7	0.13503252
67	0x3e1baaed	0.15201922
68	0x3dcf22ca	0.10114057
69	0xbcf08407	-0.02935983
70	0x3d52f3e6	0.05150213
71	0x3ec80912	0.3906942
72	0xbb93b64f	-0.004507817
73	0x3d483bd2	0.048885174
74	0x3e78c6c3	0.24294572
75	0x3e764068	0.24048007
76	0x3d217c9c	0.039425477
77	0x3e591c76	0.21202263
78	0xbdee0075	-0.11621181
79	0x3e30ed6d	0.17278071
80	0x3e015163	0.12628703
81	0x3d1f1977	0.038842645
82	0x3e4aba09	0.1979753
83	0x3d234033	0.039856147
84	0xbd622b30	-0.055216968
85	0xbcb3e74f	-0.021960882
86	0x3cf4a895	0.029865542
87	0xbd4a44d3	-0.049382042
88	0x3e9dfb9f	0.30856034
89	0xbd88e69c	-0.0668461
90	0x3ea8708c	0.32898366
91	0xbe1ae497	-0.15126263
92	0xbd09645e	-0.033542983
93	0xbd9b2964	-0.07576254
94	0x3ea43b80	0.32076645
95	0x3e511368	0.20417559
96	0xbd5d51a7	-0.054032948
97	0x3ccd7828	0.025081709
98	0x3e79a4f4	0.24379331
99	0xbe0572a7	-0.13032018
100	0x3e1b0c30	0.15141368
101	0x39076166	0.00012910887
102	0xbb105511	-0.002202336
103	0x3daed94a	0.08537538
104	0x3ddc1c58	0.10747594
105	0x3dfab30a	0.1224118
106	0xbcd843a8	-0.026399449
107	0xbb81cb9b	-0.0039610392
108	0x3d415a9a	0.047205545
109	0x3d79750d	0.060902644
110	0xbd079fc3	-0.033111345
111	0x3e0f3a0c	0.13986987
112	0xbd5f1158	-0.0544599
113	0x3e956d55	0.29184976
114	0x3e8d3c30	0.27584982
115	0x3d5ac504	0.053410545
116	0x3dca4497	0.09876364
117	0x3dc25556	0.09488933
118	0xbca4c375	-0.020112732
119	0xbd02a665	-0.031896967
120	0x3c8482ab	0.016175589
121	0x3e0b8d8d	0.13628216
122	0x3d9a1dc9	0.07525212
123	0xbce513c5	-0.027963528
124	0xbd08081b	-0.033210855
125	0xbd95757b	-0.07297798
126	0x3cce6fa3	0.025199717
127	0x3d1a62fd	0.03769206
128	0xbc3bcaa2	-0.011461886
129	0x3d1ccd32	0.038281627
130	0x3d8075cd	0.06272469
131	0x3e223a8d	0.15842648
132	0xbd93b84d	-0.07212887
133	0x3e3f277d	0.18667407
134	0x3ba0d2e1	0.004907951
135	0x3e0b3f93	0.1359847
136	0x3e2a1a8c	0.1661169
137	0x3e8f2647	0.2795889
138	0x3e6d2b48	0.23161042
139	0xbbfc7805	-0.007704737
140	0x3d41ae43	0.04728533
141	0x3dbeaf97	0.09310835
142	0x3d96ab2e	0.07356869
143	0x3e355d47	0.17711364
144	0xbd42c2d3	-0.04754908
145	0xbd75c4a8	-0.060002
146	0x3e7b5da5	0.24547441
147	0x3ea74772	0.32671696
148	0xbcd3a4e5	-0.025835464
149	0x3b80546e	0.003916315
150	0xbd0cdd9c	-0.03439103
151	0x3e10a459	0.14125194
152	0x3dbd4cf0	0.0924319
153	0x3e429acb	0.19004361
154	0xbd5336d8	-0.051565975
155	0x3e4eabb9	0.20182694
156	0x3eb61f2b	0.35570654
157	0xbd29f664	-0.041494742
158	0x3dd4e436	0.1039509
159	0x3df50bc4	0.11965135
160	0x3dc9b2a6	0.098485276
161	0x3d1fb867	0.03899422
162	0x3e07076d	0.13186426
163	0x3e2213f6	0.15827927
164	0x3e58e441	0.21180822
165	0x3e1eef87	0.1552106
166	0x3e86b6ea	0.26311427
167	0x3bb82696	0.005619834
168	0x3e8d3021	0.27575782
169	0x3e1d4f82	0.15362361
170	0x3e9b0371	0.30276063
171	0xbba4724c	-0.005018508
172	0x3eb8498a	0.35993606
173	0xbccf36f1	-0.025294753
174	0xbd26ba95	-0.040705282
175	0x3e5196aa	0.2046763
176	0x3d69bd10	0.05706507
177	0x3e81767c	0.2528571
178	0x3e60af4b	0.21941869
179	0x3e599cfd	0.21251293
180	0x3dcb80f6	0.09936707
181	0x3e2050db	0.15655844
182	0x3db737ce	0.08946191
183	0x3eaf6a26	0.34260672
184	0x3dc2f28d	0.09518919
185	0x3d08bb54	0.033381775
186	0xbcda6a91	-0.026662143
187	0x3cb93420	0.022607863
188	0x3e3962ed	0.18104143
189	0x3cce2c74	0.025167681
190	0x3e0925a8	0.13393271
191	0x3d14a4d0	0.03628999
192	0x3d15a7bd	0.03653692
193	0x3cafc598	0.021456525
194	0xbd7ac06f	-0.061218675
195	0x3e209f66	0.15685806
196	0xbd147a34	-0.036249354
197	0xbc35ab85	-0.011088257
198	0x3d676f2f	0.056502517
199	0xbdab94f3	-0.08378019
200	0x3ddbc05e	0.107300505
201	0x3e9015ca	0.28141624
202	0xbd0b594a	-0.0340207
203	0x3c900acb	0.017583271
204	0x3e06468b	0.13112848
205	0x3b2f134d	0.0026714385
206	0x3ea121ab	0.31471
207	0x3d324ffc	0.04353331
208	0x3c15a1f7	0.009132854
209	0x3cc9f140	0.02465117
210	0x3da81f42	0.08209087
211	0x3d31ffa8	0.043456703
212	0xbd1ed2ed	-0.038775373
213	0xbb9b6fdc	-0.0047435593
214	0x3dae230b	0.08502778
215	0xbd690a61	-0.056894664
216	0x3d497e5a	0.049192764
217	0x3e60e8db	0.21963827
218	0xbd64bfba	-0.055846907
219	0x3ca57f37	0.020202262
220	0xbc2aa532	-0.010415362
221	0x3e11a784	0.14224058
222	0x3eba18f3	0.3634716
223	0x3e97036d	0.294948
224	0x3e6fde31	0.23424603
225	0x3c5f7406	0.013638502
226	0x3ddf9233	0.10916557
227	0x3e61891b	0.22024958
228	0xbda2f1de	-0.07956289
229	0x3e07b639	0.13253106
230	0x3e058018	0.13037145
231	0x3df3f198	0.11911315
232	0x3dcafae3	0.09911134
233	0xbcd89143	-0.026436454
234	0x3e28c5f5	0.16481765
235	0x3d44e1a6	0.048066758
236	0xbc7b6470	-0.01534377
237	0x3bc3f9ef	0.005980722
238	0x3d851c7f	0.06499576
239	0x3e25b35c	0.16181701
240	0x3e27f0e9	0.16400494
241	0x3d3eddd3	0.046598267
242	0x3ec390bc	0.3819636
243	0x3ba1b7e7	0.004935253
244	0x3e3ce643	0.18447213
245	0x3e4b100c	0.1983034
246	0x3db1f452	0.086891785
247	0x3ccfa1ab	0.025345644
248	0x3d2ea331	0.0426361
249	0xbd90714f	-0.07052862
250	0xbdb8583d	-0.09001205
251	0x3e9ab85e	0.30218786
252	0x3dd6dcea	0.10491355
253	0xbd78f53f	-0.06078076
254	0x3dd54fd6	0.10415618
255	0x3e7a0cda	0.24418965
