best_model_episode_1100.pth (torch, 561701 bytes, 10 tensors)

actor_log_std f4 [4]
-2.4921327 -2.5454361 -2.365928 -2.2665138
00000000: 1a7f 1fc0 6de8 22c0 5d6b 17c0 900e 11c0

shared.0.weight f4 [256, 24]
-0.043923244 0.5610121 -0.48570308 0.5223879 -0.22322118 0.13305548 -0.042800058 -0.08168966
-0.008662117 -0.14286892 -0.09574958 0.13338687 0.34688994 0.15610518 0.08643704 -0.07151227
0.08995506 -0.049031828 -0.17608549 -0.025327617 -0.16339593 -0.13930833 -0.13225582 0.1268514
-0.6284254 0.010072772 -0.53523856 -0.21723174 0.2548299 -0.51209515 0.2411893 -0.20031896
-0.07315736 -0.20416638 -0.18195102 0.024961412 -0.20327759 -0.16473034 -0.081646286 -0.16062304
-0.029336795 -0.12657748 0.027721532 0.15002285 0.10229321 -0.17415519 0.0370282 0.0065192305
0.3086011 -0.29366753 0.20492314 0.020680252 -0.21089159 0.022915049 0.11757809 0.061589047
0.05316881 0.060959626 0.022294464 -0.08070144 0.009466408 -0.079917066 -0.02997772 -0.150346
-0.0131624 -0.12670524 0.068572156 -0.24406676 -0.26882735 -0.079530105 0.2276337 0.16190347
0.14495152 -0.33834007 -0.21206449 -0.672531 -0.15737149 0.0011531742 0.25157472 -0.04294982
0.03034999 -0.48640758 -0.044911705 0.023215784 -0.010667672 0.16917402 0.11067759 -0.16789381
-0.11342439 0.059397537 0.054878272 -0.009274587 0.20535824 0.42571852 -0.11685227 -0.16565305
0.43253577 0.013101661 -0.0728021 -0.23932476 -0.14394945 -0.04686225 -0.1986828 -0.08629404
-0.100536644 -0.37469402 -0.39266047 -0.41038886 -0.21234395 0.14996715 0.21356553 0.0468921
0.06859489 -0.1909249 -0.14068277 -0.079616606 0.012328264 -0.22505571 -0.121636026 -0.13249262
-0.025280476 -0.0018305236 0.22328664 -0.37307602 -0.2080314 -0.28086042 -0.14111955 0.057321522
0.10825124 -0.1312303 0.16381882 0.023066053 -0.2819738 0.32434168 -0.19568413 -0.21039666
-0.29616547 -0.32847455 -0.06459261 -0.17981297 -0.09797473 -0.31075308 0.18925148 -0.07219622
-0.09325877 -0.56913805 0.039274424 0.30059925 0.33553135 -0.07373798 -0.13375668 -0.12936515
0.032640375 -0.3092423 0.107055575 -0.3523485 0.06314615 0.07030737 0.01669034 -0.1683258
0.12071567 -0.024228543 -0.049020924 -0.26976424 -0.01740124 -0.15104944 -0.14480428 0.19489588
0.17657518 0.023467287 -0.22391489 -0.19013858 0.13812277 -0.17782578 -0.13161463 -0.09604259
-0.26762933 -0.106388375 0.11735448 -0.11940947 0.018824466 -0.0048204754 -0.052397925 -0.16308214
0.016580261 0.018346297 -0.012567589 -0.12477502 -0.14011467 -0.057555813 -0.09833414 -0.03707879
0.19752151 1.437646 -0.632979 0.7530937 0.10605993 0.03072041 0.007972683 0.042744815
-0.016200518 -0.14009935 0.08484719 -0.18620422 -0.02984694 -0.33604696 -0.15493312 -0.23674147
-0.13916303 -0.011129463 0.055705052 0.03406236 -0.2016111 -0.19646707 -0.069430105 0.19035691
0.1236349 -0.4176721 -0.23333015 -0.24945487 0.10666333 0.070013925 -0.070090055 0.08703
-0.23907806 -0.2011236 0.114773914 -0.027895605 -0.09556505 -0.31802654 -0.20520656 0.11044765
0.054872584 0.12853418 0.06546777 0.011654488 -0.051547803 -0.24280466 -0.33138126 -0.25343943
0.39548567 0.6781367 -0.30776 -0.48360255 0.14360042 0.10461278 -0.10131654 0.03407402
-0.030451937 0.15605088 0.023884978 -0.23025307 0.010969871 -0.12658276 -0.11894696 -0.25687164
00000000: dce8 33bd 7d9e 0f3f 13ae f8be 37bb 053f
00000010: 1894 64be b23f 083e 1d4f 2fbd e94c a7bd
00000020: 8deb 0dbc 3b4c 12be 5b18 c4bd 9196 083e
00000030: 8f9b b13e 09da 1f3e e705 b13d 0675 92bd
00000040: 5c3a b83d 99d5 48bd c14f 34be dd7b cfbc
00000050: 4351 27be d8a6 0ebe 126e 07be 55e5 013e
00000060: 7de0 20bf 4508 253c 6505 09bf ff71 5ebe
00000070: 1179 823e ab18 03bf 54fa 763e 6a20 4dbe
00000080: 87d3 95bd fe10 51be 5e51 3abe e07b cc3c
00000090: 0028 50be 12af 28be 2b36 a7bd 5e7a 24be
000000a0: b853 f0bc 879d 01be 4418 e33c 979f 193e
000000b0: 1a7f d13d bd55 32be e2aa 173d 459f d53b
000000c0: f700 9e3e 975b 96be 5fd7 513e a269 a93c
000000d0: f7f3 57be 57b8 bb3c c8cc f03d cc44 7c3d
000000e0: 8ac7 593d cdb0 793d e1a2 b63c cc46 a5bd
000000f0: fe18 1b3c 8fab a3bd d693 f5bc 4df4 19be
00000100: 1ba7 57bc 05bf 01be 8f6f 8c3d a3ec 79be
00000110: bda3 89be aee0 a2bd cf18 693e 06ca 253e
00000120: 2c6e 143e e93a adbe 6f27 59be fe2a 2cbf
00000130: fe25 21be 1b26 973a 67ce 803e 27ec 2fbd
00000140: 8ba0 f83c 6a0a f9be 56f5 37bd 072f be3c
00000150: 76c7 2ebc f43b 2d3e efaa e23d 5bec 2bbe
00000160: 0c4b e8bd d54a 733d 0ac8 603d 70f4 17bc
00000170: 6e49 523e c7f7 d93e 3e50 efbd f4a0 29be
00000180: 5475 dd3e 59a8 563c 4419 95bd 8d11 75be
00000190: 7c67 13be a1f2 3fbd 8173 4bbe eeba b0bd
000001a0: 28e6 cdbd e5d7 bfbe cb0a c9be 7d1e d2be
000001b0: b170 59be fd90 193e ecb0 5a3e ee11 403d
000001c0: 7a7b 8c3d d181 43be 250f 10be 080e a3bd
000001d0: 7dfc 493c 0175 66be 4f1c f9bd 25ac 07be
000001e0: 0019 cfbc 2eee efba 41a5 643e d203 bfbe
000001f0: 2f06 55be f0cc 8fbe a581 10be f9c9 6a3d
00000200: d3b2 dd3d 3c61 06be 1fc0 273e 05f5 bc3c
00000210: df5e 90be 1d10 a63e 6c61 48be 3972 57be
00000220: 00a3 97be d12d a8be 2149 84bd e420 38be
00000230: faa6 c8bd 071b 9fbe 24cb 413e 9ddb 93bd
00000240: 74fe bebd 08b3 11bf 38de 203d 25e8 993e
00000250: c4ca ab3e f003 97bd 83f7 08be 4c78 04be
00000260: eab1 053d 0255 9ebe f43f db3d 0667 b4be
00000270: c552 813d 4ffd 8f3d 2eba 883c 995d 2cbe
00000280: c739 f73d f07a c6bc 2aca 48bd 8a1e 8abe
00000290: 0c8d 8ebc b4ac 1abe 9347 14be c992 473e
000002a0: 20d0 343e 783e c03c f249 65be b0b3 42be
000002b0: 0e70 0d3e f617 36be fcc5 06be fab1 c4bd
000002c0: b606 89be 26e2 d9bd 8c57 f03d f48c f4bd
000002d0: c435 9a3c 14f5 9dbb 359f 56bd 01ff 26be
000002e0: 54d3 873c f94a 963c 4ae8 4dbc 0c8a ffbd
000002f0: 387a 0fbe a5bf 6bbd 6963 c9bd eedf 17bd
00000300: 1443 4a3e c904 b83f e90a 22bf c0ca 403f
00000310: f335 d93d 5fa9 fb3c db9f 023c 3015 2f3d
00000320: f3b6 84bc 3476 0fbe 5dc4 ad3d 52ac 3ebe
00000330: 9281 f4bc 590e acbe caa6 1ebe 5b6c 72be
00000340: c180 0ebe 5a58 36bc fb2a 643d f984 0b3d
00000350: 2473 4ebe aa2e 49be 5f31 8ebd ecec 423e
00000360: 4b34 fd3d 1ed9 d5be 19ee 6ebe 1971 7fbe
00000370: 4e72 da3d 7663 8f3d 608b 8fbd c93c b23d
00000380: e1d0 74be 58f3 4dbe 960e eb3d 5385 e4bc
00000390: 9cb7 c3bd 60d4 a2be ab21 52be 6132 e23d
000003a0: 13c2 603d 779e 033e f713 863d 77f2 3e3c
000003b0: ca23 53bd c9a1 78be ceaa a9be d0c2 81be
000003c0: 197d ca3e 5e9a 2d3f b892 9dbe c19a f7be
000003d0: fd0b 133e 3a3f d63d 0c7f cfbd 3391 0b3d
000003e0: 5776 f9bc cdcb 1f3e 6eaa c33c 76c7 6bbe
000003f0: f9ba 333c e99e 01be 779a f3bd ae84 83be

shared.0.bias f4 [256]
-0.14678286 0.047181323 -0.0005043605 0.11312821 -0.21035324 0.064363204 0.11760736 0.057804447
-0.04786392 0.18785581 -0.2172211 0.45219162 0.20800789 0.10260615 0.19627932 0.17107742
0.15375765 0.11548065 -0.24852335 0.18655218 0.29099214 -0.0034272342 0.032622755 0.0027096088
0.16591376 0.237571 -0.0048472937 0.292719 0.1319959 0.082662754 0.22968014 -0.0022350375
-0.077042796 0.18639234 0.13359044 0.10738976 -0.14467683 0.053604104 -0.12213283 0.17244759
-0.25951216 0.13334137 0.32019177 -0.091947354 -0.06253238 -0.031372607 0.15942784 0.35815862
-0.07970248 -0.08209681 -0.10518926 -0.0059783733 -0.11892927 -0.106784426 0.29761142 0.23495652
0.17187679 0.2586901 -0.021961432 0.0551848 -0.1480728 0.35907194 -0.020887898 0.031644337
-0.08963052 -0.072513424 -0.17826197 -0.22730392 -0.2050236 -0.24087825 -0.03459983 -0.13010809
0.15824842 0.14062503 -0.14103965 -0.24706084 -0.1882173 0.11268958 0.39085394 0.045351505
0.16984072 0.11274376 -0.21040545 -0.056103032 -0.074607864 0.12768003 -0.055642318 0.18258567
-0.053960554 -0.044035982 0.12557827 0.13558 -0.10312442 -0.20507038 0.22925155 -0.14607298
-0.03845399 0.1595029 0.039826494 -0.053821176 -0.20681703 0.35228994 0.026887223 0.23187432
0.10357631 -0.20971231 -0.048758823 0.16389829 -0.19613284 -0.056441694 0.2635524 -0.17613076
0.038818248 -0.03914688 0.07614661 0.10581156 -0.1757214 -0.06910274 0.23136128 -0.1335511
0.25329745 0.13065082 -0.054905746 -0.027435005 0.0108078495 0.1399846 0.2685743 0.08663473
-0.015468558 0.17460953 0.3526638 0.4084137 -0.041670665 0.033851307 -0.061363883 -0.0061450843
-0.15847081 -0.018382827 0.097642265 0.14650771 0.23532368 0.17488627 0.10217813 -0.113250956
0.28285226 0.14716066 0.053215995 -0.06199205 -0.16599382 -0.2454556 0.12392063 0.15434977
0.019871954 -0.046541236 -0.14691523 -0.12705863 -0.081462115 0.17644976 0.22250845 -0.007381218
0.18786739 0.10031614 -0.042911496 0.22681284 0.016027577 0.22180715 0.1034699 0.25552765
0.2672925 0.24602336 0.03580678 -0.046343356 -0.033821493 -0.097380735 0.19535166 0.3196706
0.107751064 -0.08628939 0.056934427 0.09346246 -0.13793302 -0.16032748 0.05382362 -0.18901528
0.02154685 -0.05883345 0.13257273 -0.06000768 0.009274223 0.222969 0.3752683 0.18018618
0.06616877 0.05343915 0.28350204 0.28952488 0.15890256 0.16366062 0.058119845 0.16703601
0.13489866 0.24633981 -0.052668024 -0.01209101 -0.2017938 -0.027076745 -0.0035082884 0.06847854
-0.1577958 -0.11265289 0.33966157 0.031988855 0.07167178 0.14254296 -0.11430134 -0.08649236
-0.08278549 0.030138958 -0.19260442 -0.12044769 -0.046427175 0.005987215 0.25043616 0.10305422
0.30139694 0.21756607 0.026267326 -0.04891907 -0.0411904 -0.14662439 0.07557579 0.12305711
-0.31242537 0.0673542 -0.26643413 0.24892627 0.10279021 0.11162604 0.27148804 0.0078004426
0.2750977 0.061276805 -0.03141627 0.15439744 0.014868774 0.020114154 0.078521654 0.00731014
0.23862393 0.03470384 -0.10882452 0.122274235 0.035392746 -0.09256021 0.11167986 0.21899095
00000000: 3f4e 16be 3441 413d 0f37 04ba c3af e73d
00000010: d766 57be dbd0 833d 21dc f03d 5bc4 6c3d
00000020: f50c 44bd 465d 403e 356f 5ebe a985 e73e
00000030: 0500 553e 2c23 d23d 72fd 483e eb2e 2f3e
00000040: a572 1d3e 1e81 ec3d e87c 7ebe 8907 3f3e
00000050: ecfc 943e 739b 60bb 709f 053d b193 313b
00000060: 4ce5 293e d045 733e 0cd6 9ebb 44df 953e
00000070: ef29 073e 174b a93d 4531 6b3e b579 12bb
00000080: 9dc8 9dbd a2dd 3e3e efcb 083e 2aef db3d
00000090: 2a26 14be fa8f 5b3d c720 fabd 1a96 303e
000000a0: c7de 84be a48a 083e 2df0 a33e e54e bcbd
000000b0: fa10 80bd 9080 00bd 0d41 233e 9160 b73e
000000c0: 0e3b a3bd 5f22 a8bd 776d d7bd 3be6 c3bb
000000d0: 3091 f3bd cbb1 dabd 8660 983e 7198 703e
000000e0: 7800 303e 0773 843e 76e8 b3bc 7509 623d
000000f0: 65a0 17be 47d8 b73e 191d abbc 7e9d 013d
00000100: 3590 b7bd eb81 94bd 4e8a 36be 5cc2 68be
00000110: b5f1 51be caa8 76be 8db8 0dbd 0e3b 05be
00000120: e00b 223e 0200 103e b36c 10be 84fd 7cbe
00000130: 09bc 40be cbc9 e63d 021e c83e 80c2 393d
00000140: baea 2d3e 33e6 e63d 8774 57be 4bcc 65bd
00000150: 02cc 98bd 8ebe 023e 33e9 63bd bdf7 3a3e
00000160: be05 5dbd 135f 34bd 9797 003e 7cd5 0a3e
00000170: e532 d3bd f8fd 51be ebc0 6a3e 2894 15be
00000180: ee81 1dbd ba54 233e 1b21 233d 9873 5cbd
00000190: d8c7 53be 595f b43e 9842 dc3c 7670 6d3e
000001a0: d11f d43d d3be 56be 55b7 47bd f4d4 273e
000001b0: 0cd7 48be 682f 67bd 57f0 863e 9f5b 34be
000001c0: e2ff 1e3d 7b58 20bd c1f2 9b3d bbb3 d83d
000001d0: 50f0 33be bd85 8dbd f9e9 6c3e 9fc1 08be
000001e0: 34b0 813e 54c9 053e d9e4 60bd 60bf e0bc
000001f0: 6813 313c 1f58 0f3e 9282 893e 8d6d b13d
00000200: d66f 7dbc d7cc 323e 5990 b43e 9a1b d13e
00000210: dcae 2abd aba7 0a3d b258 7bbd b45c c9bb
00000220: 2c46 22be 9597 96bc abf8 c73d 1e06 163e
00000230: b1f8 703e 6315 333e c442 d13d 1ef0 e7bd
00000240: 03d2 903e 49b1 163e 04f9 593d 60eb 7dbd
00000250: 49fa 29be b658 7bbe 19ca fd3d de0d 1e3e
00000260: 82ca a23c 06a2 3ebd f270 16be a81b 02be
00000270: 9cd5 a6bd 3faf 343e 41d9 633e 25de f1bb
00000280: 4f60 403e 8c72 cd3d f7c3 2fbd a041 683e
00000290: 444c 833c 6a21 633e 07e8 d33d 85d4 823e
000002a0: 90da 883e 8ced 7b3e 21aa 123d 88d2 3dbd
000002b0: 6888 0abd 8d6f c7bd 440a 483e ddab a33e
000002c0: 97ac dc3d 7eb8 b0bd 1334 693d 3f69 bf3d
000002d0: 503e 0dbe e32c 24be 2876 5c3d 398d 41be
000002e0: 0583 b03c 58fb 70bd 25c1 073e 9dca 75bd
000002f0: e9f2 173c fc51 643e 2b23 c03e ba82 383e
00000300: 7e83 873d 03e3 5a3d 2e27 913e 9b3c 943e
00000310: 5ab7 223e a696 273e 130f 6e3d 7d0b 2b3e
00000320: e022 0a3e 8140 7c3e 6dba 57bd 5f19 46bc
00000330: 09a3 4ebe 0dd0 ddbc 50eb 65bb 7a3e 8c3d
00000340: 3995 21be 8fb6 e6bd 1fe8 ad3e bf06 033d
00000350: a7c8 923d c8f6 113e d216 eabd e822 b1bd
00000360: 708b a9bd fae5 f63c 183a 45be 47ad f6bd
00000370: 6c2a 3ebd 6630 c43b 2b39 803e 170e d33d
00000380: b350 9a3e a4c9 5e3e 932e d73c 5d5f 48bd
00000390: 44b7 28bd b424 16be 7bc7 9a3d 5e05 fc3d
000003a0: 38f6 9fbe 00f1 893d 0e6a 88be 87e6 7e3e
000003b0: ac83 d23d 319c e43d 7b00 8b3e db9a ff3b
000003c0: 9bd9 8c3e 63fd 7a3d 59ae 00bd 5d1a 1e3e
000003d0: 299c 733c 70c6 a43c f6cf a03d e689 ef3b
000003e0: d559 743e 9d25 0e3d 64df debd ea6a fa3d
000003f0: fcf7 103d 3590 bdbd 69b8 e43d 2a3f 603e

actor_mean.0.weight f4 [256, 256]
-0.005662687 -0.061181292 0.03694234 -0.044254806 0.018312978 -0.006949048 0.042899974 -0.014821168
-0.05855508 -0.07280799 -0.015289068 -0.049872283 0.033555515 -0.031072268 -0.041285552 -0.09497025
-0.076781616 -0.044479106 -0.10546998 -0.0196728 -0.06104896 -0.018658193 -0.040445372 -0.07702582
0.056177028 0.030812189 -0.0021005576 -0.0058482187 0.02109644 -0.056508724 -0.09637281 0.042006902
-0.12523489 0.023148978 0.004545021 0.037655875 0.06607197 -0.085300155 0.02028969 -0.103026494
0.0023602708 0.047851607 -0.04120422 0.022716904 -0.035233438 -0.029080136 0.0034553031 -0.07795938
-0.021895159 -0.001528813 -0.041332673 0.065212026 0.060355138 -0.073334366 0.0057093077 0.003677921
0.040887408 -0.044090215 0.058417074 -0.06906912 0.06855361 -0.069505565 -0.018074844 0.010071309
-0.010790453 -0.04451583 0.028434003 -0.062359843 -0.047494005 0.009379978 0.060537905 0.03562033
-0.05593137 0.012201697 0.023838712 -0.019001223 0.03895852 -0.02030359 -0.061611585 -0.02208694
-0.038668837 0.029710356 0.042992886 -0.038736682 -0.00921208 0.058640372 -0.031056268 -0.049830228
0.014892932 0.05364672 0.014143606 -0.078655586 -0.055068336 0.03981512 -0.011092367 0.007170965
-0.012364584 -0.06510745 -0.017189922 0.05086781 -0.03823772 0.02141543 -0.017305063 -0.074322484
-0.053547904 0.009764435 -0.09263383 0.026241755 -0.02012208 0.0074068056 0.0047005853 0.07615832
-0.05289744 -0.07424398 0.028770598 -0.033228032 -0.021650858 0.028564356 -0.025270307 -0.01238168
-0.08950447 0.016648123 0.03553603 -0.033663813 -0.073354825 0.028222676 0.014255312 -0.005051184
0.0069555463 -0.061059736 0.036891673 -0.013626214 -0.011727162 -0.024201673 -0.04598073 0.0047052037
0.03846431 0.037404947 -0.036453772 0.053495232 0.014734184 0.015846705 0.032107078 -0.032087598
-0.044392366 -0.003014746 -0.092892975 0.016791241 -0.10007287 -0.062650494 -0.004721072 0.0005278088
0.031624164 -0.049639583 -0.053905904 -0.008926831 -0.059504587 -0.060659334 0.0065599284 -0.052154396
-0.029784702 0.0148795275 0.053170633 -0.060937066 0.02777321 -0.014049729 0.09266425 0.06304365
-0.03797667 -0.017075185 -0.0593543 0.019198531 -0.07511431 0.1105861 -0.021215942 0.049484923
0.03143942 0.047282103 -0.0793107 -0.07646463 -0.08064985 -0.0299563 0.038020417 0.021580346
0.037119392 -0.00073430495 0.004500383 -0.05868298 0.04282731 -0.08296942 -0.070659846 0.016601214
0.035491716 -0.045912918 0.027564982 -0.028683338 -0.06998099 -0.035945978 -0.024265539 -0.056870047
0.04267446 -0.040871978 -0.04828198 -0.026973695 -0.01159556 0.034043733 -0.045112018 -0.033577748
-0.0069975066 0.045722608 0.011382835 -0.023451157 -0.032273445 0.007475252 0.014205108 0.014025307
0.04060331 0.029173398 0.0020459571 0.0068006874 -0.051980663 -0.043865647 -0.07957486 -0.00080853107
-0.05026046 0.12017078 -0.068516545 -0.061582662 0.022515839 0.015078406 -0.05113566 -0.024846213
0.0058162105 -0.010955415 -0.027187435 -0.000755467 -0.016283298 -0.018703736 0.02475916 -0.033892877
-0.03863415 -0.004495709 -0.06549059 0.019892387 -0.05909347 -0.0651898 -0.0061591063 -0.057225805
-0.040791553 0.025513632 -0.012142645 -0.034259826 0.009502441 -0.07812575 0.0030187308 -0.09539332
00000000: 108e b9bb 3c99 7abd da50 173d 8744 35bd
00000010: 1905 963c d7b4 e3bb e2b7 2f3d 7cd4 72bc
00000020: 74d7 6fbd 5b1c 95bd 007f 7abc e146 4cbd
00000030: 8271 093d 458b febc 0a1b 29bd c37f c2bd
00000040: ae3f 9dbd b92f 36bd a500 d8bd da28 a1bc
00000050: 790e 7abd 11d9 98bc 0caa 25bd b7bf 9dbd
00000060: e219 663d d869 fc3c 82a9 09bb 6aa2 bfbb
00000070: 71d2 ac3c b175 67bd 1c5f c5bd 6e0f 2c3d
00000080: 933d 00be eda2 bd3c 66ee 943b 0c3d 1a3d
00000090: be50 873d d9b1 aebd 9036 a63c 8eff d2bd
000000a0: c6ae 1a3b 0c00 443d c2c5 28bd cd18 ba3c
000000b0: f050 10bd 7739 eebc 5e72 623b 2ba9 9fbd
000000c0: 7a5d b3bc 7462 c8ba 734c 29bd e28d 853d
000000d0: f336 773d 5430 96bd 2515 bb3b 4609 713b
000000e0: 8e79 273d f197 34bd be46 6f3d 1c74 8dbd
000000f0: d665 8c3d ef58 8ebd b211 94bc 2202 253c
00000100: 71ca 30bc 3b56 36bd 6dee e83c 096d 7fbd
00000110: 1389 42bd 7bae 193c 98f6 773d a0e6 113d
00000120: 4b18 65bd a0e9 473c 6749 c33c 74a8 9bbc
00000130: f892 1f3d b753 a6bc 6e5c 7cbd acef b4bc
00000140: 3763 1ebd 2263 f33c 4f19 303d 5baa 1ebd
00000150: 44ee 16bc e330 703d b769 febc c81a 4cbd
00000160: 7c01 743c aabc 5b3d 95ba 673c 2e16 a1bd
00000170: 568f 61bd 2e15 233d c2bc 35bc 6afa ea3b
00000180: d394 4abc 0e57 85bd e1d1 8cbc c45a 503d
00000190: 289f 1cbd 696f af3c 59c3 8dbc 6336 98bd
000001a0: 0c55 5bbd 02fb 1f3c ceb6 bdbd f3f8 d63c
000001b0: 0fd7 a4bc cab4 f23b 5e07 9a3b e5f8 9b3d
000001c0: fcaa 58bd 3a0d 98bd 51b0 eb3c 1e1a 08bd
000001d0: 245d b1bc ccff e93c ad03 cfbc 88dc 4abc
000001e0: 1f4e b7bd a561 883c 3a8e 113d 11e3 09bd
000001f0: 0e3b 96bd 3e33 e73c 1d8f 693c 6784 a5bb
00000200: 5aeb e33b c619 7abd b91b 173d 7c40 5fbc
00000210: 4823 40bc 9642 c6bc 4a56 3cbd 1c2e 9a3b
00000220: c18c 1d3d ee35 193d 8d50 15bd d11d 5b3d
00000230: a667 713c f3d0 813c b682 033d 496e 03bd
00000240: c5d4 35bd 0b93 45bb ac3e bebd c98d 893c
00000250: 01f3 ccbd e74e 80bd 39b3 9abb a65c 0a3a
00000260: 5788 013d e052 4bbd 70cc 5cbd d841 12bc
00000270: 15bb 73bd ec75 78bd abf4 d63b d99f 55bd
00000280: 0cff f3bc 43c9 733c 73c9 593d 2599 79bd
00000290: a584 e33c d630 66bc c1c6 bd3d 071d 813d
000002a0: 6d8d 1bbd 42e1 8bbc 7f1d 73bd 3d46 9d3c
000002b0: 88d5 99bd f77a e23d 0ecd adbc b4b0 4a3d
000002c0: 9fc6 003d e1aa 413d a66d a2bd 7d99 9cbd
000002d0: c02b a5bd ea66 f5bc 4cbb 1b3d 44c9 b03c
000002e0: 810a 183d 5f7e 40ba f377 933b 905d 70bd
000002f0: b06b 2f3d dfeb a9bd 1cb6 90bd 45ff 873c
00000300: c35f 113d 2f0f 3cbd f5cf e13c 52f9 eabc
00000310: 3152 8fbd 173c 13bd 86c8 c6bc 91f0 68bd
00000320: 6acb 2e3d 6069 27bd 53c3 45bd f0f7 dcbc
00000330: 4efb 3dbc 7171 0b3d 61c7 38bd d288 09bd
00000340: 574b e5bb a147 3b3d 127f 3a3c a41c c0bc
00000350: 2931 04bd f5f2 f43b 8bbc 683c 67ca 653c
00000360: a84f 263d 0dfd ee3c 7715 063b 4dd8 de3b
00000370: ade9 54bd 77ac 33bd 25f8 a2bd 9af3 53ba
00000380: e9dd 4dbd 191c f63d 6752 8cbd 1a3e 7cbd
00000390: 2373 b83c 6b0b 773c a073 51bd 498a cbbc
000003a0: e995 be3b 577e 33bc 2fb8 debc 880a 46ba
000003b0: 8d64 85bc 9438 99bc b9d3 ca3c 42d3 0abd
000003c0: d83e 1ebd be50 93bb ee1f 86bd 5cf5 a23c
000003d0: ff0b 72bd 3b82 85bd 54d2 c9bb 9b65 6abd
000003e0: 0b15 27bd f701 d13c f2f1 46bc 0854 0cbd
000003f0: 20b0 1b3c 6500 a0bd e6d5 453b 935d c3bd

actor_mean.0.bias f4 [256]
-0.016613986 -0.08478453 -0.02915761 0.005822232 0.028700108 -0.010803921 -0.037097946 -0.104186505
0.0070838085 -0.069221005 -0.037047394 -0.0380882 0.017042106 -0.07270648 -0.11957172 0.06465343
-0.03102143 -0.04231704 -0.044194587 -0.10281274 -0.0909927 -0.07735255 -0.041510206 -0.004097479
-0.07411089 -0.0126681905 -0.06751563 -0.16234843 -0.076229535 -0.059878834 -0.07601218 -0.11274831
-0.17396224 -0.096098624 -0.07382115 0.011685309 -0.041822314 -0.0059742974 0.09041405 -0.059854697
0.02994757 -0.07101514 -0.08513764 -0.11844544 -0.03906017 -0.03997919 -0.079645924 0.0386161
-0.060421657 -0.028017001 -0.072322115 0.05609127 -0.063030384 -0.05029089 -0.07611565 -0.07498215
-0.0002582985 -0.15058124 -0.039569918 0.007075185 0.003569535 -0.101710014 -0.09571972 -0.0019672206
-0.014504654 -0.110864066 -0.045929424 -0.013895738 -0.059208404 -0.043571815 -0.16074948 -0.12588196
-0.084007226 0.060631316 -0.017808912 -0.032364655 -0.04323646 -0.17188841 -0.12925185 -0.013493786
-0.052895408 -0.10268744 0.02100665 -0.16913292 -0.030931681 0.03656351 -0.063334934 -0.09084524
0.023663552 -0.1367611 -0.020530323 -0.014281132 -0.11439326 0.008835232 0.013629875 -0.035477284
-0.102904886 -0.09086451 -0.09854182 -0.024680229 0.011292846 -0.15331468 -0.021119831 -0.09227557
-0.05196662 -0.14444587 -0.14223327 -0.041176986 -0.028659444 -0.02312139 -0.07597747 -0.033413008
-3.250036e-05 0.0006573391 -0.099032365 -0.039528888 0.041058302 -0.004488282 -0.08565276 -0.030085042
-0.044608366 -0.09659255 -0.046547607 -0.028340945 -0.04703998 0.0075448793 -0.0022977123 -0.05550376
-0.02923982 -0.050085425 -0.045466755 -0.04501749 -0.060634054 -0.04577626 -0.1485895 -0.06768887
-0.060695242 -0.08571675 -0.07060082 -0.12015775 -0.03491192 0.007528662 0.0013854856 -0.08904887
-0.11122683 0.023559682 -0.037310623 -0.016329149 -0.07573072 0.029861934 -0.19379687 -0.17412117
-0.1611934 0.0029946272 0.010822304 -0.17672332 0.0068982164 -0.016492672 -0.009469864 -0.08266842
-0.092094906 0.09669113 -0.18688256 -0.080493346 -0.059213776 0.00544941 0.025545776 -0.08084941
-0.044759996 -0.037494075 -0.15482356 -0.101346046 -0.17282774 -0.06483442 0.013109208 0.013213619
-0.05016393 0.04177479 0.00542014 0.030332915 -0.098497786 0.031486027 -0.028201245 0.03257578
-0.0023886117 -0.08080767 -0.08130323 -0.11211836 -0.027660478 -0.09270245 -0.098408654 -0.097205326
-0.011099185 0.021048846 -0.008519789 -0.10685448 0.012501428 -0.17817713 -0.038078513 -0.068428464
-0.035265468 -0.018102767 -0.09943354 -0.063488975 -0.0814349 -0.07004249 -0.050010215 -0.06645599
-0.08815304 -0.074881434 -0.1108227 -0.031537157 -0.07779428 0.03142288 0.05894368 -0.03136319
-0.051152498 -0.07644996 0.0156294 -0.11878927 -0.071718 -0.033551257 -0.056123804 0.0466653
-0.05320356 -0.0026531746 -0.022207886 0.0038062385 0.04622194 -0.047239758 0.010882682 -0.10299527
-0.06801804 -0.107427485 -0.035108395 -0.06902437 0.004238647 0.02317547 -0.008617163 0.03418885
0.026215086 -0.015535752 -0.0475327 -0.031124847 -0.03592253 -0.12532255 -0.041127313 0.017516175
-0.091746986 0.021789553 -0.02283766 -0.0703746 0.07061471 -0.03978509 -0.015218181 -0.050547358
00000000: 0e1a 88bc 83a3 adbd f1db eebc 6cc8 be3b
00000010: 7d1c eb3c ee02 31bc 04f4 17bd bc5f d5bd
00000020: 4b1f e83b bec3 8dbd 02bf 17bd 5f02 1cbd
00000030: e39b 8b3c 23e7 94bd 05e2 f4bd 0469 843d
00000040: a720 febc a254 2dbd 6205 35bd 7c8f d2bd
00000050: 615a babd 046b 9ebd 9b06 2abd 2544 86bb
00000060: 73c7 97bd 3e8e 4fbc a245 8abd ab3e 26be
00000070: 3b1e 9cbd 8243 75bd 46ac 9bbd 96e8 e6bd
00000080: 2823 32be 5bcf c4bd 8b2f 97bd bd73 3f3c
00000090: e04d 2bbd 0ac4 c3bb 002b b93d 332a 75bd
000000a0: 9b54 f53c 6370 91bd a55c aebd 8693 f2bd
000000b0: 8ffd 1fbd 38c1 23bd 671d a3bd ea2b 1e3d
000000c0: b37c 77bd e983 e5bc 9e1d 94bd f6bf 653d
000000d0: 1316 81bd d2fd 4dbd 86e2 9bbd 3e90 99bd
000000e0: 3d6c 87b9 f831 1abe 1114 22bd f4d6 e73b
000000f0: dcee 693b 574d d0bd b308 c4bd 7cec 00bb
00000100: eea4 6dbc b30c e3bd 7e20 3cbd f3aa 63bc
00000110: 8384 72bd 5c78 32bd 839b 24be 33e7 00be
00000120: fb0b acbd 8b58 783d ffe3 91bc cd90 04bd
00000130: b718 31bd 8403 30be 995a 04be 0a15 5dbc
00000140: dba8 58bd cb4d d2bd 2316 ac3c 2e31 2dbe
00000150: 7064 fdbc 9ec3 153d bfb5 81bd 120d babd
00000160: 11da c13c 1a0b 0cbe 352f a8bc 69fb 69bc
00000170: 0347 eabd a6c1 103c d74f 5f3c a150 11bd
00000180: ccbf d2bd 2c17 babd 4bd0 c9bd 312e cabc
00000190: a105 393c 86fe 1cbe 7f03 adbc f9fa bcbd
000001a0: f3da 54bd 9ee9 13be 99a5 11be 33a9 28bd
000001b0: 36c7 eabc 1269 bdbc 139a 9bbd 14dc 08bd
000001c0: ff50 08b8 4851 2c3a 7bd1 cabd 0be9 21bd
000001d0: c02c 283d 7012 93bb b76a afbd e874 f6bc
000001e0: 43b7 36bd 51d2 c5bd b4a8 3ebd 452b e8bc
000001f0: feac 40bd 093b f73b 3795 16bb e957 63bd
00000200: 5988 efbc 6026 4dbd 593b 3abd 4264 38bd
00000210: 6a5b 78bd e37f 3bbd d927 18be 76a0 8abd
00000220: 939b 78bd 438c afbd 2a97 90bd 4415 f6bd
00000230: cdff 0ebd ffb2 f63b 2f99 b53a 415f b6bd
00000240: e4ca e3bd 3c00 c13c 06d3 18bd b5c4 85bc
00000250: b518 9bbd 04a1 f43c b072 46be d24c 32be
00000260: e20f 25be 8241 443b 0850 313c f5f6 34be
00000270: 6f0a e23b a41b 87bc 7d27 1bbc 104e a9bd
00000280: 419c bcbd 0006 c63d 245e 3fbe b2d9 a4bd
00000290: 258a 72bd f790 b23b 6045 d13c 6094 a5bd
000002a0: 4256 37bd 6393 19bd 118a 1ebe 848e cfbd
000002b0: c1f9 30be e9c7 84bd 01c8 563c ef7d 583c
000002c0: b178 4dbd 0b1c 2b3d 6e9b b13b bc7c f83c
000002d0: 35b9 c9bd 7ef7 003d 4c06 e7bc 2e6e 053d
000002e0: 418a 1cbb 7e7e a5bd 4f82 a6bd 509e e5bd
000002f0: 3a98 e2bc c8da bdbd 7a8a c9bd 9613 c7bd
00000300: 5bd9 35bc a16e ac3c 9696 0bbc 86d6 dabd
00000310: cad2 4c3c 1174 36be 37f8 1bbd 3924 8cbd
00000320: 8672 10bd 414c 94bc d0a3 cbbd 8206 82bd
00000330: 57c7 a6bd 7072 8fbd 83d7 4cbd 141a 88bd
00000340: 9589 b4bd 705b 99bd 03f7 e2bd 1b2d 01bd
00000350: 9c52 9fbd 47b5 003d ee6e 713d b076 00bd
00000360: 4885 51bd cc91 9cbd 3a09 803c ca47 f3bd
00000370: e3e0 92bd 0b6d 09bd 13e2 65bd 1d24 3f3d
00000380: faeb 59bd e2e0 2dbb 50ed b5bc 1672 793b
00000390: 3853 3d3d 7a7e 41bd 474d 323c 2fef d2bd
000003a0: 0b4d 8bbd f102 dcbd d2cd 0fbd a65c 8dbd
000003b0: 59e4 8a3b 7cda bd3c 002f 0dbc 9c09 0c3d
000003c0: 05c1 d63c ab89 7ebc a6b1 42bd 89f9 febc
000003d0: 8123 13bd 8e54 00be 1d75 28bd 157e 8f3c
000003e0: d8e5 bbbd 0180 b23c 0b16 bbbc 8f20 90bd
000003f0: 729e 903d b1f5 22bd ad55 79bc bf0a 4fbd

actor_mean.2.weight f4 [4, 256]
0.05036564 -0.032173734 0.014871746 -0.048920378 0.047733907 0.07934726 0.09095745 0.12830241
-0.023324518 -0.20659791 -0.3531002 -0.057838313 0.2653641 0.03003866 0.043904543 0.22194329
-0.056776833 -0.046107087 0.016345967 -0.0018769547 -0.07884043 -0.15072179 0.012015091 0.292074
0.24693176 -0.0028899733 -0.115072675 -0.46492198 -0.1592694 0.028418275 0.14650466 -0.03962395
0.32885227 0.21140583 -0.005836037 -0.02372907 -0.047024906 0.43116233 -0.0102287615 -0.06563878
0.206937 0.0408141 0.14940512 -0.08066112 -0.17477484 -0.091615506 -0.16527745 0.073118314
-0.01455354 0.17786388 0.037943732 0.037939854 0.011447578 -0.098757446 -0.02880023 0.0009436183
-0.04316349 -0.25247923 0.07062618 -0.13080192 -0.012324189 -0.15374646 -0.14279163 0.0053511285
0.0043100896 -0.100582324 -0.0044795363 -0.029657284 0.053251944 0.11101524 -0.22836757 -0.10710713
-0.095777474 0.5464165 -0.24667248 0.16193159 0.19824485 0.2240716 0.0077299112 -0.07870849
-0.002751261 -0.31733873 0.07009736 0.33957717 -0.22484641 0.33626807 0.046193898 0.06825604
0.02505448 -0.21386687 0.07279016 -0.11433472 0.1588431 -0.10998288 0.007951207 0.06780631
0.40986815 0.06476578 -0.080512 -0.102621846 0.024272962 0.3361702 -0.23020537 0.16124153
-0.026722858 -0.1571732 0.26494378 0.03599853 0.045146763 0.028494716 0.24169655 0.02950815
-0.533012 -0.18693046 -0.08361197 0.00739991 0.06974607 0.019028364 -0.07496088 0.32691947
-0.01228973 0.20254132 -0.17769648 -0.05916392 -0.014935299 0.1241087 0.028001443 -0.0604951
0.045250196 -0.071292564 0.07185751 -0.40888366 0.06870553 -0.00872539 -0.25521186 0.056661077
0.15103363 -0.050588723 -0.18251725 0.1060257 -0.010148171 -0.060749386 0.06607967 0.059089717
0.06869979 0.013522108 -0.012674123 -0.45320645 0.018107863 -0.18144606 0.12606965 -0.059223637
-0.17009427 -0.16829275 -0.041899387 -0.36287102 0.02361596 0.10347354 -0.0133961765 0.23302649
-0.2061504 -0.31093565 -0.4005397 0.020435859 -0.011757756 -0.018440248 0.0030073149 -0.2756464
0.028878536 -0.17719726 -0.15903689 0.05938244 0.020896029 -0.1453859 0.060460597 0.15172504
0.06739857 0.1296236 0.03667334 -0.046135824 0.09855237 0.0038072001 0.17170858 -0.021690981
0.089333616 -0.21138978 -0.12961619 -0.13841698 0.058942653 -0.29494113 0.057829306 -0.13252579
-0.0015861194 0.0005934759 0.0048624543 -0.09699242 0.24522537 -0.5769413 -0.09366146 0.22425786
0.104445204 0.02192523 -0.06473881 -0.052351102 -0.18826076 -0.049320158 -0.49448144 -0.08766302
0.09686268 -0.045619108 -0.12715091 0.019273758 -0.039391816 0.063345075 -0.22686249 0.06732435
0.0054981834 0.045873422 0.0009569306 0.31977725 -0.013839739 0.0104864 0.0041944906 0.019493643
-0.071342945 0.09837474 -0.044392783 -0.03959194 0.07263493 -0.026574356 -0.15761103 0.3002553
0.13335967 -0.19174358 0.037106715 -0.038054872 0.2176316 0.22498041 0.046848044 0.15512908
-0.049314193 -0.08574382 0.045415666 0.3422014 0.0059943027 -0.6741297 -0.22905007 -0.18451402
0.012330168 0.104716495 -0.033483386 0.17149334 0.010072354 0.12892541 0.0072827204 0.030350178
00000000: 344c 4e3d 9bc8 03bd a0a8 733c bc60 48bd
00000010: a184 433d d180 a23d e647 ba3d b561 033e
00000020: 0f13 bfbc 678e 53be 8dc9 b4be dee7 6cbd
00000030: cedd 873e a313 f63c 40d5 333d 1a45 633e
00000040: d38e 68bd c9da 3cbd fae7 853c 2604 f6ba
00000050: 1777 a1bd d056 1abe f2da 443c b98a 953e
00000060: aedb 7c3e b565 3dbb 39ab ebbd 410a eebe
00000070: 8517 23be 71cd e83c 5105 163e b94c 22bd
00000080: 535f a83e c57a 583e 3a3c bfbb 7763 c2bc
00000090: 309d 40bd 4fc1 dc3e 8996 27bc a06d 86bd
000000a0: 4be7 533e b02c 273d a8fd 183e a831 a5bd
000000b0: 2df8 32be e9a0 bbbd 7e3e 29be 0ebf 953d
000000c0: f971 6ebc f321 363e e36a 1b3d d266 1b3d
000000d0: 9f8e 3b3c 5841 cabd 76ee ebbc 275d 773a
000000e0: 33cc 30bd f544 81be 75a4 903d f0f0 05be
000000f0: 65eb 49bc b66f 1dbe f837 12be 8558 af3b
00000100: a73b 8d3b 1bfe cdbd 13c9 92bb d5f3 f2bc
00000110: b61e 5a3d f55b e33d 30d9 69be fc5a dbbd
00000120: fb26 c4bd f4e1 0b3f b697 7cbe 65d1 253e
00000130: b300 4b3e 0773 653e 324b fd3b eb31 a1bd
00000140: 804e 34bb 397a a2be 348f 8f3d 0fdd ad3e
00000150: 233e 66be 542b ac3e d035 3d3d d3c9 8b3d
00000160: 0e3f cd3c ebff 5abe 0213 953d 5228 eabd
00000170: c4a7 223e b43e e1bd c845 023c 09de 8a3d
00000180: 3dda d13e eca3 843d 7ae3 a4bd 672b d2bd
00000190: 17d8 c63c 801e ac3e f5ba 6bbe 801c 253e
000001a0: e5e9 dabc 03f2 20be b6a6 873e 3273 133d
000001b0: d0eb 383d c06d e93c 4d7f 773e 13bb f13c
000001c0: 7973 08bf b36a 3fbe c13c abbd f27a f23b
000001d0: 07d7 8e3d 5fe1 9b3c 1785 99bd fd61 a73e
000001e0: dd5a 49bc fe66 4f3e 11f6 35be de55 72bd
000001f0: 2fb3 74bc b42c fe3d 4863 e53c b6c9 77bd
00000200: 4558 393d d601 92bd 082a 933d 3359 d1be
00000210: 7cb5 8c3d f0f4 0ebc 21ab 82be 7215 683d
00000220: 8fa8 1a3e 1f36 4fbd cde5 3abe 0124 d93d
00000230: 8444 26bc 59d4 78bd c754 873d 0f08 723d
00000240: 7ab2 8c3d d58b 5d3c 20a7 4fbc ad0a e8be
00000250: f156 943c ffcc 39be 6718 013e 7c94 72bd
00000260: 312d 2ebe ef54 2cbe b19e 2bbd 3bca b9be
00000270: 4276 c13c efe9 d33d a37b 5bbc 7f9e 6e3e
00000280: 1719 53be f532 9fbe 8a13 cdbe 1a69 a73c
00000290: 9aa3 40bc 0110 97bc 5f16 453b 8621 8dbe
000002a0: ae92 ec3c 3373 35be 91da 22be 003b 733d
000002b0: 262e ab3c 0be0 14be 88a5 773d cf5d 1b3e
000002c0: 4308 8a3d 0dbc 043e c936 163d ebf8 3cbd
000002d0: d3d5 c93d 3882 793b 60d4 2f3e 49b1 b1bc
000002e0: 8bf4 b63d 9076 58be 1bba 04be 2ebd 0dbe
000002f0: da6d 713d 8602 97be 6cde 6c3d d7b4 07be
00000300: 56e5 cfba 7e93 1b3a 3955 9f3b f6a3 c6bd
00000310: 5c1c 7b3e 6db2 13bf 94d1 bfbd daa3 653e
00000320: 5ee7 d53d 8a9c b33c c895 84bd 1c6e 56bd
00000330: 6ec7 40be ef03 4abd ac2c fdbe ab88 b3bd
00000340: f15f c63d 1adb 3abd d933 02be 00e4 9d3c
00000350: 5059 21bd 10bb 813d a44e 68be 59e1 893d
00000360: 1b2a b43b c5e5 3b3d 87da 7a3a d8b9 a33e
00000370: 13c0 62bc 26cf 2b3c f071 893b 22b1 9f3c
00000380: 401c 92bd b278 c93d 35d5 35bd 282b 22bd
00000390: 9fc1 943d 77b2 d9bc c964 21be 10bb 993e
000003a0: 708f 083e 6e58 44be 36fd 173d 6ddf 1bbd
000003b0: d1da 5e3e 4461 663e bce3 3f3d 28da 1e3e
000003c0: aefd 49bd 759a afbd c705 3a3d 0635 af3e
000003d0: db6b c43b c493 2cbf 1a8c 6abe 3ef1 3cbe
000003e0: 7904 4a3c 9a75 d63d e025 09bd f39b 2f3e
000003f0: 8406 253c 0605 043e e3a3 ee3b f0a0 f83c

actor_mean.2.bias f4 [4]
0.033468507 0.014373883 -0.038829256 0.0301216
00000000: 4616 093d 6f80 6b3c 6d0b 1fbd 93c1 f63c

critic.0.weight f4 [256, 256]
0.22390081 0.18696876 0.0041061044 0.7225216 -0.16898146 0.08949259 -0.0056828503 -0.064990245
-0.16628112 -0.11194598 0.2458415 0.09711425 0.11329954 0.13138743 -0.321515 0.12688023
0.092619345 0.18358487 0.18378395 0.10964356 -0.07513971 0.14553483 0.50930405 -3.5680252e-05
0.0019114548 0.23848209 0.0039387117 -0.0029788823 -0.4849148 -0.05451973 0.15879177 0.19970332
0.16597615 -0.123500094 0.14904225 0.13074107 -0.093572244 -0.050175443 -0.12671883 0.23038349
-0.030619105 0.13140303 0.24537514 -0.018540746 0.1148411 0.4948356 -0.06889536 0.06794963
-0.0034268263 0.31825674 -0.11400093 0.07345312 -0.2020101 -0.11002879 0.16572115 0.009016416
0.09095888 0.40256125 -0.085310444 0.24305414 0.13531327 0.09340984 -0.01814388 0.27579024
-0.18736579 0.02311267 -0.030063724 0.100578286 0.14627858 0.14080799 -0.2099935 0.11280404
-0.14188182 -0.03590178 0.016769353 0.1626651 -0.032507863 -0.08420041 -0.19014151 -0.066577196
0.22254577 0.18936807 0.13265271 0.014179613 0.1922603 0.10854333 -0.68038255 -0.06956019
-0.079986565 -0.09817123 0.12571084 0.12116359 -0.46521524 -0.04007437 0.15884535 0.11742206
-0.085221164 0.06078784 0.16327903 -0.012123142 0.0034492642 0.2794677 -0.20502359 0.22459385
0.15548736 0.18626484 0.4596228 -0.1324292 -0.3102625 0.04998681 0.23915172 -0.15841293
0.23819566 0.03849072 -0.17220774 0.10908055 0.22281116 0.4896695 0.19766684 -0.051807977
0.05870261 0.15081492 -0.1187657 0.037851717 -0.30433375 0.3434822 0.08531298 -0.009666951
-0.19583806 -0.0755274 0.27651733 0.15148363 0.3517707 -0.07931432 -0.078049585 0.045553327
0.3104748 -0.018456964 0.04538805 0.74156827 0.11660777 -0.24752714 0.3150945 -0.044523995
0.07711007 0.11895814 0.06492209 0.08690661 -0.0013639198 0.040286787 -0.086919576 -0.09156667
0.081874296 -0.29957324 0.23226976 -0.027342264 0.13933204 -0.053251557 0.337541 -0.28220946
-0.026657384 -0.19282854 0.028219445 0.22103563 0.038369823 0.17675802 0.09821437 -0.12586446
0.045755543 0.43763468 0.0021721416 0.02246125 0.13344215 0.22115256 0.070886016 0.011953604
0.31514788 0.077689044 -0.043581996 -0.20248538 0.08474916 -0.29024285 0.086094156 -0.21614075
-0.013077447 0.0665006 0.09862614 0.25996882 0.15999384 -0.20856564 0.023120038 -0.037711896
0.052992903 0.108582005 -0.12043893 0.050932232 -0.10179077 -0.11807857 0.28435522 -0.0059403195
0.046782345 0.00622667 0.01718526 0.42912886 0.05105353 0.101315364 -0.015463422 -0.005269562
0.259335 -0.15917578 0.028775245 -0.039470106 0.24660544 -0.12088589 -0.09307414 -0.18918519
-0.15467544 0.058682144 -0.17770702 0.022199338 0.08692372 -0.12305644 -0.10972187 -0.2292545
-0.17678331 -0.1692459 0.08116454 0.00426996 -0.09199511 0.112096526 0.08244978 0.06263064
-0.063435316 0.038236026 -0.011242288 -0.2383776 0.109039485 -0.11219959 0.2573757 0.027797196
0.17248227 0.46551996 -0.014354405 0.045882862 -0.22269645 0.041504163 -0.08330292 0.17666538
-0.034318045 0.10022818 -0.06930724 -0.011396764 0.020217123 0.039189644 0.10886482 0.16989534
00000000: 4146 653e bd74 3f3e 808c 863b 2df7 383f
00000010: 7a09 2dbe e447 b73d 3437 babb 9b19 85bd
00000020: 9945 2abe ef43 e5bd e0bd 7b3e d6e3 c63d
00000030: 9709 e83d 6d8a 063e 9d9d a4be e4ec 013e
00000040: 36af bd3d acfd 3b3e dc31 3c3e ce8c e03d
00000050: d9e2 99bd 1507 153e c061 023f 61a7 15b8
00000060: c889 fa3a a634 743e 4f10 813b 5a39 43bb
00000070: c146 f8be 1550 5fbd 4f9a 223e 077f 4c3e
00000080: a7f5 293e 9eed fcbd 889e 183e fde0 053e
00000090: cea2 bfbd c484 4dbd 95c2 01be a6e9 6b3e
000000a0: ebd4 fabc 848e 063e 9f43 7b3e c3e2 97bc
000000b0: d031 eb3d 175b fd3e 0319 8dbd 2d29 8b3d
000000c0: 9b94 60bb 8cf2 a23e 5279 e9bd 976e 963d
000000d0: bcdb 4ebe c656 e1bd ceb2 293e 97b9 133c
000000e0: a648 ba3d 821c ce3e 3eb7 aebd 2fe3 783e
000000f0: 908f 0a3e a84d bf3d 79a2 94bc 6134 8d3e
00000100: d1dc 3fbe c856 bd3c 3348 f6bc fdfb cd3d
00000110: 0dca 153e f82f 103e 8908 57be ce05 e73d
00000120: 7849 11be bf0d 13bd e25f 893c ae91 263e
00000130: f726 05bd 4471 acbd 75b4 42be a059 88bd
00000140: 0ae3 633e b4e9 413e 1dd6 073e 9c51 683c
00000150: e2df 443e f74b de3d 8d2d 2ebf 9375 8ebd
00000160: ffcf a3bd ff0d c9bd 58ba 003e 9e24 f83d
00000170: b130 eebe 0625 24bd 5ba8 223e fa7a f03d
00000180: 6f88 aebd acfc 783d 9e32 273e 25a0 46bc
00000190: 0d0d 623b 6416 8f3e b4f1 51be eefb 653e
000001a0: 1438 1f3e 36bc 3e3e ae53 eb3e 859b 07be
000001b0: bada 9ebe f8be 4c3d 30e4 743e 0037 22be
000001c0: 90e9 733e 72a8 1d3d 3a57 30be a065 df3d
000001d0: 9c28 643e f6b5 fa3e 2d69 4a3e 9a34 54bd
000001e0: 2672 703d 3a6f 1a3e 6e3b f3bd 670a 1b3d
000001f0: a2d1 9bbe e6dc af3e 92b8 ae3d 2262 1ebc
00000200: c689 48be 1cae 9abd ae93 8d3e 861e 1b3e
00000210: 4a1b b43e 8c6f a2bd 76d8 9fbd 2096 3a3d
00000220: 8ef6 9e3e 0f33 97bc d2e8 393d 6bd7 3d3f
00000230: 0ed0 ee3d c177 7dbe 1154 a13e cb5e 36bd
00000240: e2eb 9d3d 53a0 f33d dff5 843d 18fc b13d
00000250: 8ec5 b2ba c203 253d e402 b2bd 4e87 bbbd
00000260: b6ad a73d aa61 99be 20d8 6d3e e2fc dfbc
00000270: 0fad 0e3e 4e1e 5abd 2dd2 ac3e c27d 90be
00000280: 9660 dabc d874 45be 772c e73c 2a57 623e
00000290: ad29 1d3d 0e00 353e 9e24 c93d 9de2 00be
000002a0: 2a6a 3b3d a711 e03e 7d5a 0e3b a800 b83c
000002b0: 0fa5 083e d175 623e b02c 913d 0dd9 433c
000002c0: 105b a13e 6f1b 9f3d 0983 32bd 5458 4fbe
000002d0: f890 ad3d b69a 94be 2252 b03d 0054 5dbe
000002e0: ca42 56bc 7731 883d 80fc c93d a21a 853e
000002f0: 6dd5 233e 3b92 55be 3c66 bd3c ca77 1abd
00000300: 160f 593d 3e60 de3d b0a8 f6bd 519e 503d
00000310: ae77 d0bd 2dd3 f1bd 0297 913e 03a7 c2bb
00000320: d89e 3f3d 1809 cc3b 1ac8 8c3c c7b6 db3e
00000330: 821d 513d 6e7e cf3d 4b5a 7dbc 4aac acbb
00000340: 8fc7 843e fafe 22be 10ba eb3c 68ab 21bd
00000350: 2386 7c3e 0693 f7bd a89d bebd c3b9 41be
00000360: 3d63 1ebe b05c 703d d4f8 35be 63db b53c
00000370: 1005 b23d 0405 fcbd dcb5 e0bd b1c1 6abe
00000380: af06 35be cc4e 2dbe 9839 a63d 05eb 8b3b
00000390: ef67 bcbd dd92 e53d 6edb a83d 7e44 803d
000003a0: 60ea 81bd 619d 1c3d 9331 38bc 4219 74be
000003b0: 1850 df3d e6c8 e5bd bfc6 833e f2b6 e33c
000003c0: 319f 303e a258 ee3e bd2e 6bbc abef 3b3d
000003d0: 8a0a 64be 4500 2a3d b99a aabd c5e7 343e
000003e0: 1491 0cbd 6f44 cd3d f4f0 8dbd 7eb9 3abc
000003f0: 619e a53c 5285 203d 85f4 de3d 0bf9 2d3e

critic.0.bias f4 [256]
0.13443848 0.11122421 0.19591264 0.117787585 0.008330799 0.05477968 0.06833427 0.18551049
0.19495131 0.050235137 0.18885091 0.08411203 0.10653105 0.22250614 0.0155710075 0.17673966
-0.07241832 0.011727863 0.07713458 -0.029051114 0.2693035 -0.008534517 -0.002512539 0.21151495
0.045353606 0.16376567 0.0030605467 0.0076390686 0.22199512 -0.05510632 0.16627796 0.1117372
0.023235578 0.056092635 0.06112316 0.21175615 0.22437961 0.08229879 0.21838729 -0.039377872
0.0014073931 0.14757878 0.16741525 -0.21259926 0.14796472 0.1467784 0.20666105 -0.03960856
-0.041313857 -0.059392013 -0.06788267 0.20841858 -0.04423552 0.11063457 0.08188838 0.13367914
0.16504641 0.02412034 0.19266252 0.073788464 -0.047985654 0.22304451 0.024484362 0.23936877
0.22004187 0.1776591 0.03511527 0.15298091 0.051882226 -0.019193098 0.09643231 0.27173126
-0.004507817 0.048885174 0.12529632 0.2711495 0.08043702 0.09387353 -0.08767574 0.17414664
0.11040191 0.10124008 0.16278209 0.055781856 -0.055216968 0.021706084 -0.02803198 -0.049382042
0.1503481 -0.0668461 0.1932063 0.038255632 -0.028886465 -0.07576254 0.21172735 0.10788492
-0.05138183 0.010324653 0.15157437 -0.13032018 0.18004133 0.00012910887 0.05875259 0.08537538
0.11496308 0.07798132 -0.026399449 0.004943921 0.01848704 0.060902644 -0.033111345 0.02326651
-0.045694042 0.1782036 0.19234514 0.07275909 0.17146395 0.14584227 0.040836304 -0.031896967
0.016175589 0.15880841 0.043951653 -0.027963528 -0.033210855 -0.0670408 0.074935615 -0.05670957
-0.021512946 0.0478008 0.1580069 0.2862088 -0.054332364 0.10036561 0.004907951 0.20788553
0.110539116 0.19143775 0.18817483 0.045915663 0.04728533 0.09310835 0.07356869 0.11150646
-0.065267846 -0.060002 0.13718931 0.210953 -0.025835464 0.0082561355 -0.03439103 0.18575078
0.026614802 0.15266149 -0.051565975 0.23730722 0.24766216 -0.041494742 0.113476574 0.14471729
0.13028686 0.07786098 0.04001276 0.11322303 0.11137246 0.13857219 0.19844224 0.005619834
0.11169765 0.17445281 0.19225597 0.007168882 0.2454901 -0.025294753 -0.040705282 0.055553056
-0.008505835 0.17086847 0.13009574 0.09750769 0.09936707 0.04718044 0.11542112 0.29204148
0.1287981 0.033381775 0.09532344 0.022607863 0.02546647 0.018793289 0.15982792 0.017496757
0.03653692 0.08892922 -0.061218675 0.1660608 -0.039293032 -0.011088257 0.13682333 -0.08378019
0.15052369 0.20056795 -0.0340207 0.017583271 0.029530272 0.0026714385 0.19461961 0.04353331
0.009132854 0.03998073 -0.035422698 0.06842149 0.01662372 -0.0047435593 0.08700924 -0.047507957
0.08188436 0.14856072 -0.055846907 -0.026629439 -0.010415362 0.1378783 0.25692022 0.18000112
0.122634314 0.013638502 0.15121411 0.15652569 -0.06579161 0.03142073 0.13988455 0.05614001
-0.022263138 -0.046648484 0.2046852 0.1169777 -0.01534377 0.005980722 0.08141218 0.21996664
0.1469678 0.046598267 0.2600021 0.014117536 0.08953147 0.13277034 0.17255035 0.025345644
0.082863234 -0.07052862 -0.09001205 0.14386213 -0.013077296 -0.06078076 0.11819288 0.15185726
00000000: 3eaa 093e 85c9 e33d 539d 483e 9e3a f13d
00000010: e77d 083c a860 603d d6f2 8b3d 76f6 3d3e
00000020: 51a1 473e 5cc3 4d3d 2262 413e ee42 ac3d
00000030: f32c da3d a6d8 633e 8a1d 7f3c 3efb 343e
00000040: 0e50 94bd 3926 403c bcf8 9d3d 9afc edbc
00000050: 26e2 893e 5cd4 0bbc 69a9 24bb 6097 583e
00000060: b4c4 393d 30b2 273e 7493 483b 2751 fa3b
00000070: b052 633e 2ab7 61bd c544 2a3e 79d6 e43d
00000080: 8a58 be3c 64c1 653d 475c 7a3d 9bd6 583e
00000090: c5c3 653e 458c a83d eba0 5f3e b14a 21bd
000000a0: 4778 b83a e41e 173e e76e 2b3e 9fb3 59be
000000b0: 1084 173e 144d 163e f49e 533e 963c 22bd
000000c0: b838 29bd 0a45 73bd 1206 8bbd ae6b 553e
000000d0: 4e30 35bd 6194 e23d 18b5 a73d 2fe3 083e
000000e0: ed01 293e 0598 c53c 5349 453e 681e 973d
000000f0: 9b8c 44bd c865 643e 6e93 c83c 161d 753e
00000100: a852 613e 44ec 353e 08d5 0f3d 07a7 1c3e
00000110: 7582 543d d83a 9dbc 4e7e c53d 5c20 8b3e
00000120: 4fb6 93bb d23b 483d ae4d 003e 1bd4 8a3e
00000130: 2abc a43d c440 c03d 578f b3bd 7f53 323e
00000140: 661a e23d f656 cf3d 59b0 263e 847b 643d
00000150: 302b 62bd f5d0 b13c 53a3 e5bc d344 4abd
00000160: daf4 193e 9ce6 88bd dfd7 453e f0b1 1c3d
00000170: 4fa3 ecbc 6429 9bbd 0ecf 583e c5f2 dc3d
00000180: c175 52bd bc28 293c 5036 1b3e a772 05be
00000190: c15c 383e 6661 0739 8ea6 703d 4ad9 ae3d
000001a0: c371 eb3d acb4 9f3d a843 d8bc 9e00 a23b
000001b0: 2272 973c 0d75 793d c39f 07bd 6899 be3c
000001c0: ad29 3bbd 017b 363e 20f6 443e b802 953d
000001d0: 3f94 2f3e ad57 153e f843 273d 65a6 02bd
000001e0: ab82 843c ac9e 223e a606 343d c513 e5bc
000001f0: 1b08 08bd b04c 89bd d877 993d 4b48 68bd
00000200: eb3b b0bc c6ca 433d 90cc 213e f689 923e
00000210: 9d8b 5ebd 7c8c cd3d e1d2 a03b f2df 543e
00000220: 5562 e23d 4208 443e e7b0 403e 1012 3c3d
00000230: 43ae 413d 97af be3d 2eab 963d 805d e43d
00000240: 26ab 85bd a8c4 75bd 5b7b 0c3e 1004 583e
00000250: e5a4 d3bc be44 073c 9cdd 0cbd 7435 3e3e
00000260: 4907 da3c 4b53 1c3e d836 53bd aa00 733e
00000270: 269b 7d3e 64f6 29bd 6866 e83d c530 143e
00000280: eb69 053e 9475 9f3d 6be4 233d 7ae1 e73d
00000290: 3f17 e43d dee5 0d3e 7134 4b3e 9626 b83b
000002a0: bdc1 e43d c2a3 323e c0de 443e f1e8 ea3b
000002b0: c261 7b3e f136 cfbc 95ba 26bd 9a8b 633d
000002c0: 0f5c 0bbc 25f8 2e3e d137 053e 1db2 c73d
000002d0: f680 cb3d 4740 413d e861 ec3d 7686 953e
000002e0: a6e3 033e 54bb 083d f038 c33d 2034 b93c
000002f0: 0f9f d03c 62f4 993c eea9 233e 5c55 8f3c
00000300: bda7 153d 8620 b63d 6fc0 7abd d80b 2a3e
00000310: bbf1 20bd 85ab 35bc 6a1b 0c3e f394 abbd
00000320: e222 1a3e af61 4d3e 4a59 0bbd cb0a 903c
00000330: 78e9 f13c 4d13 2f3b 5d4a 473e fc4f 323d
00000340: f7a1 153c d5c2 233d 6417 11bd 9120 8c3d
00000350: 782e 883c dc6f 9bbb e731 b23d b497 42bd
00000360: fdb2 a73d 4d20 183e babf 64bd fb25 dabc
00000370: 32a5 2abc f82f 0d3e 0c8b 833e 3752 383e
00000380: b327 fb3d 0674 5f3c dfd7 1a3e 4548 203e
00000390: c0bd 86bd 06b3 003d e53d 0f3e 11f3 653d
000003a0: 2f61 b6bc 7b12 3fbd ff98 513e 0192 ef3d
000003b0: 7064 7bbc eff9 c33b 6ebb a63d ef3e 613e
000003c0: ba7e 163e d3dd 3e3d ff1e 853e 3d4d 673c
000003d0: 465c b73d f3f4 073e 0ab1 303e aba1 cf3c
000003e0: 33b4 a93d 4f71 90bd 3d58 b8bd 9850 133e
000003f0: 2842 56bc 3ff5 78bd 1c0f f23d 7880 1b3e

critic.2.weight f4 [1, 256]
0.31690004 -0.7461559 -0.2960559 -0.2650768 -0.4193317 0.76081073 0.32754722 0.16209824
0.14086467 -0.89791906 0.1651822 0.23589379 0.56393063 0.26635262 0.002501295 -0.7851661
0.034419633 0.014158431 -0.63189286 -0.2029509 0.08160353 0.99022716 -0.16906585 0.21360397
-0.37218723 -0.26572505 0.3179964 0.095278956 0.14870758 -0.0009850741 -1.9221251 -0.49182764
0.0016816134 -1.2518158 -0.1183786 0.20453234 0.11983323 -0.19096747 0.06967179 -0.76132303
-0.25900525 0.36896408 0.43464068 -0.48338223 -0.29836372 -0.5199494 0.15343781 -0.003447253
0.017499847 0.0046909703 -0.0009023864 0.10834751 0.03173662 0.15768386 0.56974953 -0.24322174
-0.44623643 0.040428963 0.10231308 -0.18651675 0.021016229 0.11105236 0.016850103 -0.804651
0.046422083 -0.14936124 -1.2234201 0.043108646 -0.7802378 0.030321542 -0.51760596 0.15987109
0.053390227 -0.30982363 0.16605574 -0.5838573 -0.39114207 0.7158004 -0.63783354 -0.71719366
-0.7908866 -0.37784675 -0.86974955 -0.50983727 -0.23896149 -0.94256413 -0.76196593 -0.24381849
0.423056 0.020153271 0.41804537 -0.41894606 -0.37613067 0.025104707 0.12347782 0.4701269
0.10273453 -0.17063156 0.40423033 -1.9125912 -0.2093001 0.038457196 -0.42398718 -0.08555099
-0.39586657 -0.1476298 -0.0025179512 0.04787471 -0.53216743 -0.18695143 0.08804125 -0.59041244
0.0066812714 0.13965681 0.36148578 -0.64403635 0.057071917 -0.641762 -0.027106784 -0.0028135858
-0.34189388 -0.88505745 -0.28119484 0.026797362 0.00082183175 0.012970001 0.5206248 -0.34193826
-0.5312314 -0.3950981 -0.18594407 -0.95025563 0.13156463 -0.7070582 -0.0015948071 -0.8967987
-0.36414418 0.41635785 0.75441724 -0.38552153 -0.19895534 -0.1800789 -0.3119173 0.78568864
0.0028277715 0.036675796 0.18332672 0.18912992 0.036331613 0.020608293 -0.62499684 -1.9161341
0.36758956 0.24098009 0.04051707 -1.0737764 0.12533331 0.020224962 -0.89925605 -0.23901549
-0.69265544 -1.076707 0.17310117 -0.10046914 0.24918687 -0.43891925 -0.45782456 0.030545946
-0.14996265 -0.92086077 0.25884262 0.0015330432 0.14034203 0.01893009 0.07770306 0.4278607
-0.19936834 0.20111834 0.10609783 -0.40763968 -0.2645917 0.03360578 -0.598367 -0.8663733
0.03146063 -0.13415365 -0.99031764 0.04052775 0.26430127 -0.26615924 -0.13409042 -0.6481859
0.013893051 -0.89609295 -0.1656247 -1.9340867 -0.17182854 0.030664667 0.03409337 0.027844027
0.07211593 0.09064993 0.011907536 0.013868893 -0.22329162 0.036678698 0.1745396 -0.15816729
0.0117801605 -0.3832786 0.049012415 -0.66890955 -0.8577335 -0.264638 -0.8785607 0.01987357
-0.7607355 0.08262489 -0.11216637 -0.5380491 -0.11506881 -0.803593 0.27990013 0.14842047
-0.74544156 0.017652016 -0.53185415 0.57025737 -0.00018947994 -0.16289899 -0.69967264 -0.3056128
0.30938175 -0.45597324 -0.8144503 -0.24999465 -0.35737506 0.0480615 -0.64449704 -0.3316444
-0.6224534 -0.29099107 0.17333563 0.044391487 -0.28453743 0.19388726 -0.23140298 -0.23108253
-0.6812702 -0.39994898 0.03741451 0.39108625 0.16529322 -0.18172482 -0.78515196 -0.9120944
00000000: b940 a23e 1304 3fbf a494 97be 25b8 87be
00000010: a5b2 d6be 7ec4 423f 45b4 a73e 15fd 253e
00000020: d43e 103e 06de 65bf 8625 293e 248e 713e
00000030: c25d 103f 5f5f 883e c4ec 233b a500 49bf
00000040: 9afb 0c3d c4f8 673c bbc3 21bf 5cd2 4fbe
00000050: c01f a73d 877f 7d3f 991f 2dbe 00bb 5a3e
00000060: 538f bebe 1d0d 88be 6dd0 a23e 9d21 c33d
00000070: cd46 183e 9a1d 81ba 3208 f6bf d5d0 fbbe
00000080: 9569 dc3a 803b a0bf 7b70 f2bd ed70 513e
00000090: 206b f53d fa8c 43be 15b0 8e3d 11e6 42bf
000000a0: 569c 84be dce8 bc3e 3989 de3e e07d f7be
000000b0: 21c3 98be 671b 05bf cd1e 1d3e 4feb 61bb
000000c0: d75b 8f3c b6b6 993b 208e 6cba 4de5 dd3d
000000d0: 42fe 013d e177 213e 1bdb 113f 1f0f 79be
000000e0: 1a79 e4be d798 253d 8589 d13d 3ffe 3ebe
000000f0: 3a2a ac3c 6b6f e33d 3a09 8a3c 9cfd 4dbf
00000100: 1525 3e3d 27f2 18be 0899 9cbf b192 303d
00000110: aabd 47bf e264 f83c d381 04bf 3fb5 233e
00000120: b6af 5a3d 34a1 9ebe 840a 2a3e ac77 15bf
00000130: c643 c8be b23e 373f 0f49 23bf 019a 37bf
00000140: 8b77 4abf 2175 c1be e8a7 5ebf b284 02bf
00000150: 52b2 74be e24b 71bf 3310 43bf 8eab 79be
00000160: cc9a d83e 7918 a53c 0b0a d63e 1980 d6be
00000170: 3394 c0be 63a8 cd3c f0e1 fc3d 79b4 f03e
00000180: 7b66 d23d 0aba 2ebe 47f7 ce3e cacf f4bf
00000190: c452 56be 4b85 1d3d d914 d9be 5c35 afbd
000001a0: 06af cabe 442c 17be 3604 25bb 4618 443d
000001b0: 203c 08bf 3270 3fbe f94e b43d 4525 17bf
000001c0: 91ee da3b 3202 0f3e aa14 b93e 91df 24bf
000001d0: 3ec4 693d 844a 24bf 0c0f debc 2364 38bb
000001e0: b70c afbe 2093 62bf c5f8 8fbe 2486 db3c
000001f0: 3270 573a 2180 543c ab47 053f 8812 afbe
00000200: c8fe 07bf 4c4a cabe 1f68 3ebe f443 73bf
00000210: e1b8 063e c401 35bf d908 d1ba 9994 65bf
00000220: 1b71 babe db2c d53e 7d21 413f 1463 c5be
00000230: f3ba 4bbe 9a66 38be a0b3 9fbe e422 493f
00000240: 2252 393b 5c39 163d 00ba 3b3e 46ab 413e
00000250: 75d0 143d b9d2 a83c cbff 1fbf e243 f5bf
00000260: b334 bc3e 7cc3 763e 3af5 253d 8171 89bf
00000270: 6057 003e d2ae a53c a535 66bf 7ac0 74be
00000280: de51 31bf 89d1 89bf 6f41 313e c4c2 cdbd
00000290: d82a 7f3e 06ba e0be fb67 eabe 7e3b fa3c
000002a0: cf8f 19be 88bd 6bbf 0587 843e 65f0 c83a
000002b0: d2b5 0f3e 4713 9b3c c822 9f3d 8f10 db3e
000002c0: 3727 4cbe f7f1 4d3e d249 d93d 26b6 d0be
000002d0: 9078 87be 37a6 093d 942e 19bf a4ca 5dbf
000002e0: dddc 003d 935f 09be 7585 7dbf 6d00 263d
000002f0: 7f52 873e 0646 88be 004f 09be 83ef 25bf
00000300: ae9f 633c 5966 65bf 8599 29be 2790 f7bf
00000310: d2f3 2fbe 7834 fb3c 7da5 0b3d 2819 e43c
00000320: 84b1 933d aca6 b93d d317 433c 5a3a 633c
00000330: 8fa6 64be 673c 163d 82ba 323e 9bf6 21be
00000340: 9301 413c 183d c4be 3ec1 483d a83d 2bbf
00000350: 6c94 5bbf a27e 87be 5be9 60bf e6cd a23c
00000360: 90bf 42bf 3d37 a93d 7bb7 e5bd 96bd 09bf
00000370: 32a9 ebbd 45b8 4dbf 124f 8f3e 89fb 173e
00000380: 42d5 3ebf f69a 903c 9827 08bf 63fc 113f
00000390: 22af 46b9 fece 26be bf1d 33bf 4879 9cbe
000003a0: 4967 9e3e 5375 e9be d17f 50bf 99fe 7fbe
000003b0: ddf9 b6be 23dc 443d c2fd 24bf 4bcd a9be
000003c0: 1b59 1fbf c8fc 94be e57e 313e d9d3 353d
000003d0: e4ae 91be 628a 463e e7f4 6cbe e6a0 6cbe
000003e0: b967 2ebf 1dc6 ccbe f53f 193d 753c c83e
000003f0: a042 293e 1216 3abe b8ff 48bf 057f 69bf
