best_model_episode_200.pth (torch, 564334 bytes, 12 tensors)

actor_log_std f4 [4]
000000 fa c7 cc bc 43 f0 8d bc ce d4 cd bc 2e 7b 78 bc
       -0.0249977 -0.01732648 -0.025125887 -0.015166087

shared.0.weight f4 [256, 24]
000000 1d f9 34 3e bb 8c 31 3e a1 29 33 bb 72 43 61 3e
       0.17673154 0.1733884 -0.0027338045 0.21998385
000010 36 ff 24 bd c2 70 1e 3d fb 81 b5 bd 1d 35 f5 3d
       -0.04028245 0.038681753 -0.088626824 0.11973021
000020 42 7c 3d 3e 3a 40 23 be 46 ff 32 3e 34 33 21 3d
       0.18504432 -0.15942469 0.17480192 0.03935547
000030 81 c6 1c 3e 29 17 fd 3c 57 a3 d5 3d eb 3c bc bc
       0.15310098 0.030894833 0.10431545 -0.022978267
000040 a8 15 27 3e 3a 3a 13 3d 19 52 b7 bd 40 4f 6d 3d
       0.16316855 0.0359442 -0.08951206 0.057936907
000050 c2 fb b3 bd 1b d5 8f bc 2d 86 99 bd bf cd 0c 3e
       -0.08788253 -0.017557671 -0.07496295 0.13750361
000060 b6 9e 35 be 31 1c b7 bd 60 53 ca bd ad 8a b6 bd
       -0.17736325 -0.08940924 -0.09879184 -0.08913169
000070 2a 56 b8 3b 2b 43 4e be 47 5c 37 3e b1 ed 2b be
       0.005625506 -0.2014281 0.17906295 -0.16789891
000080 90 8d 1d 3e 54 dc 34 3d f1 0e 65 bd 46 7b 10 3e
       0.15386033 0.044155434 -0.055922452 0.14109525
000090 3b 2b e2 3c b1 fb 17 3e 74 68 f7 3b 31 dc a1 bd
       0.027608505 0.14842106 0.0075502936 -0.07903326
0000a0 4a 03 25 3d e5 fa 8e bd 7b 87 92 3d 84 0c 2c 3e
       0.04028634 -0.06981448 0.07154747 0.1680165
0000b0 03 bf d4 3d bb c3 d3 bd ce cf d2 3d 69 24 8f 3c
       0.10387995 -0.10340067 0.10293542 0.017473416
0000c0 dc 11 ee 3d 3b 90 08 be 00 6f 13 be 49 07 57 bd
       0.116245 -0.1333627 -0.14397812 -0.052497182
0000d0 66 e9 29 be 1c ce 2b 3e d3 91 5e 3d b2 6f 9c 3d
       -0.1659294 0.16777843 0.054338288 0.07638492
0000e0 c4 2d 57 3d 90 fa 81 bc ac 6a 15 3e d8 cf 17 be
       0.05253388 -0.015866548 0.14591473 -0.1482538
0000f0 e0 0e 71 3c 17 24 0f be 0d 7f 61 3d 83 1f a0 bd
       0.014713019 -0.13978611 0.055052806 -0.078185104
000100 52 fc 5f 3d b7 56 4e bd 73 5e 25 3e 72 c9 03 be
       0.05468399 -0.050375666 0.16149311 -0.12869814
000110 75 52 04 be 63 2d 04 be 99 2e 37 3e c0 ca 72 3d
       -0.1292208 -0.12907939 0.1788887 0.05927539
000120 1a 27 55 3e 83 2c 2f be 8c 43 16 be 58 7a 0e be
       0.20815697 -0.17106824 -0.14674205 -0.13913858
000130 37 b4 10 be 4c bc b2 3d b9 55 8e 3d 73 ab 2c 3e
       -0.14131247 0.08727321 0.06949944 0.16862278
000140 dc 87 dc bd 92 8d 10 be 6e 53 d5 3d fa 1b aa bd
       -0.107681006 -0.14116505 0.104163036 -0.08306117
000150 00 35 f8 3d 14 53 59 bd f7 f2 f1 3d 45 0a 21 be
       0.12119484 -0.053057745 0.1181392 -0.15726574
000160 b1 3f d0 bd a3 24 82 3d 4d 4b 36 3d 81 2b 4f bd
       -0.10168398 0.06354644 0.044505406 -0.050578598
000170 ce c1 fc 3d 30 18 10 3e 40 59 14 be 45 d1 e8 bd
       0.12341653 0.14071727 -0.14487171 -0.1136804
000180 44 e0 38 3e c3 95 b0 bd cb bb 1d bd f6 9a 6d be
       0.180543 -0.08622315 -0.03850917 -0.23203644
000190 bb 65 9b bd 26 36 6c 3d 9f ca e3 bb ff fc 05 be
       -0.07587763 0.057668827 -0.0069516446 -0.13084792
0001a0 40 25 9e 3c eb 32 14 be 0b 72 1d be 8c dc b9 bd
       0.019304872 -0.14472549 -0.15375535 -0.09075269
0001b0 fd 3f 21 be 6a 4d b2 bd cc 27 7d 3e c9 63 a7 3d
       -0.15747066 -0.08706172 0.24722213 0.081733294
0001c0 6e 43 d9 3d a0 b6 16 be 1f 08 ba bd 2b 34 ca bc
       0.10608564 -0.14718103 -0.0908358 -0.024683079
0001d0 a9 28 9a 3d 1d 6c 0b be 20 8f 38 bd b6 9a a6 bd
       0.075272866 -0.1361546 -0.04505837 -0.081349775
0001e0 82 25 98 3c 2e f4 8d bd 7b 1d 9e bc 5b ea 23 be
       0.018572573 -0.06931339 -0.019301167 -0.16007368
0001f0 b0 61 0c be 16 d9 f9 bd 3d 06 94 bd 7d 29 26 be
       -0.1370914 -0.12199609 -0.07227752 -0.16226764
000200 24 89 2f 3e db 23 10 bd 32 7a 3c 3e b9 0d 3a 3d
       0.17142159 -0.035190444 0.18405989 0.045423243
000210 d7 80 31 be ec a3 0a 3e 49 55 5e bd 2e 96 9c bd
       -0.17334305 0.13539094 -0.054280553 -0.07645832
000220 79 c5 2b be 4b 2c 4e be 46 6e 75 3d 59 a6 30 bd
       -0.16774549 -0.20134084 0.059919618 -0.04312739
000230 03 ad a5 3d af db 29 be 0f 2c 1d 3e 00 ca 15 be
       0.0808964 -0.16587709 0.15348838 -0.14627838
000240 80 a4 ba ba 3f 44 6c 3d 47 55 0f 3e 7a 1b 4f 3e
       -0.0014239699 0.057682272 0.13997374 0.20225325
000250 43 65 39 3e 2c f6 23 be f6 55 74 3d 34 4e bb bd
       0.18105035 -0.16011876 0.05965229 -0.091457754
000260 49 44 c1 bc ed c2 23 be c5 f6 3b 3e 6f 90 2c be
       -0.023592131 -0.15992327 0.18355854 -0.16851972
000270 9f a0 d4 3d 0a 86 98 3d 75 87 7d 3d 37 3d eb bd
       0.103821985 0.07447441 0.06189676 -0.11486285
000280 c8 52 39 3e e6 b3 24 3d f1 c8 b0 3c 0c fa 3c be
       0.18097985 0.040210627 0.021580191 -0.1845476
000290 3d 4c a6 3d e1 32 0f bd e2 7d c6 bd 0e 09 29 3e
       0.0812001 -0.03496063 -0.09691979 0.1650736
0002a0 66 12 85 3d 7d e4 c5 bd 9a c1 b0 bd 28 74 9b 3c
       0.0649765 -0.09662721 -0.086306766 0.018976286
0002b0 11 12 d2 3d 46 ec 74 bd fa 5c f4 bd 91 26 70 bd
       0.10257352 -0.05979564 -0.11931796 -0.05863053
0002c0 5e 6c 20 be a7 2c 99 3d a3 a1 26 3e 76 de 4c be
       -0.15666339 0.0747922 0.16272597 -0.20006737
0002d0 95 6c 3b 3d 85 ec d0 3d 6a 43 db 3c f7 e5 a9 bd
       0.04575785 0.102013625 0.026765544 -0.082958154
0002e0 9f 2e c5 3d 60 a5 c6 3d 41 4c 87 3d ed b1 3c bd
       0.09628033 0.096995115 0.06606341 -0.04606812
0002f0 36 39 83 bd b5 e9 43 3c 20 aa 39 bd 08 c4 99 bd
       -0.064073965 0.011957576 -0.04532826 -0.07508093
000300 a7 e8 10 3e 04 5c 51 3e 76 07 3e bd 80 e7 37 bd
       0.1415125 0.20445257 -0.046393834 -0.04489851
000310 be af 72 3c 0f a6 75 bc e1 8e 75 3d 92 e2 47 3d
       0.014812408 -0.014993205 0.059950713 0.04880006
000320 07 c2 42 be 2e b0 95 bd 95 9c 23 3e 97 f8 bb 3d
       -0.19019328 -0.07308994 0.159777 0.09178274
000330 bf b4 09 bc 25 c8 e6 bd ce c6 f2 bd 21 c0 34 be
       -0.00840491 -0.11268643 -0.11854325 -0.17651416
000340 3c ad 76 bd ad 25 9a 3d 84 c9 0b 3e d7 0b ce 3d
       -0.060223803 0.07526717 0.13651091 0.10060852
000350 32 2f 32 be 54 d3 ed bd a5 70 cf bc 1c 18 52 3e
       -0.17400816 -0.11612573 -0.025322268 0.2051701
000360 7f 23 06 3d e1 93 74 bd d7 19 95 3d 23 47 a5 bd
       0.032748695 -0.05971134 0.07280319 -0.08070209
000370 ed 4d 02 be 39 1b 1c 3e 0c c1 a6 bd e2 de 26 bd
       -0.12725039 0.1524476 -0.081422895 -0.0407399
000380 bd 13 3f be ed 8c ea 3d 80 d1 25 3e 59 22 63 3d
       -0.18659873 0.11452661 0.16193199 0.05545268
000390 4c 3f 13 be a5 12 3e be 81 cd 2c be a0 f2 18 3e
       -0.14379615 -0.185618 -0.16875269 0.14936304
0003a0 dc 08 c3 3d fa 1c 2d 3e e6 7e d5 3d 75 a2 48 3d
       0.09523174 0.16905585 0.104245946 0.048983056
0003b0 27 a9 9d bb cc 23 22 be e1 2f 36 be b1 d3 42 be
       -0.0048114243 -0.15833968 -0.17791702 -0.19026066
0003c0 fb 3c b0 3d 10 b5 00 be b6 11 70 bc d3 f6 f2 bd
       0.08605381 -0.1256907 -0.01465266 -0.11863484
0003d0 c4 54 07 bd 71 d9 fc bd f6 51 ed bd a6 02 7b 3d
       -0.033039823 -0.12346161 -0.115878984 0.061281823
0003e0 7e e2 82 bd 52 07 c5 3d c2 8c 83 bd d0 9e 26 be
       -0.06390856 0.09620537 -0.06423332 -0.1627152
0003f0 d1 3a d8 bc fc fc 97 bd bd c1 6c bd 83 2f 42 be
       -0.026395233 -0.074213 -0.05780195 -0.18963437

shared.0.bias f4 [256]
000000 06 9b 23 be 7b cd 9b 3c ee ef 4b bd f0 d2 18 3e
       -0.15977105 0.01901888 -0.04978936 0.14924216
000010 d0 01 26 be 1f 59 2c 3c 6b 3e a2 3d 64 1f 43 3c
       -0.16211629 0.010519295 0.079220615 0.01190934
000020 b0 28 42 bd 89 4b 44 3e 21 89 1a be 38 cd 45 3e
       -0.047402084 0.1916944 -0.15091373 0.19316566
000030 1c 45 76 3d 59 bb ad 3d 1d c8 1a 3e 13 46 ea 3c
       0.0601245 0.08482999 0.151154 0.028597867
000040 e5 67 0b 3d 54 69 3a bd 89 71 4b be 43 71 b3 3d
       0.03403463 -0.045510605 -0.19867529 0.08761837
000050 f6 84 1d 3e 6a 7f a0 3d ee 90 03 bd c7 50 37 be
       0.15382752 0.07836802 -0.032120638 -0.17901908
000060 b9 78 ca ba f0 cd 53 3d fc 00 14 be f7 5f 1f 3e
       -0.0015447355 0.05171007 -0.144535 0.15563951
000070 70 6f 1f bc 46 ad 4d 3d 90 9b 2c 3e 20 e3 9e 3d
       -0.009731159 0.050214075 0.16856217 0.077581644
000080 fc f9 f7 bd 6d 6c 9e 3d 31 8d eb 3d c8 e6 cd 3d
       -0.121082276 0.07735524 0.115015395 0.10053784
000090 d2 e5 d0 bd 78 f7 f8 3c 84 d1 f6 bd 79 84 06 bd
       -0.10200085 0.03039144 -0.12051681 -0.03284118
0000a0 f6 7a 05 be 80 db 0c 3e 8d ee 4a 3e a6 5a 54 be
       -0.13035187 0.13755608 0.19817562 -0.20737705
0000b0 33 87 a6 bd 3f 7c da bd 09 fd 16 be 66 ad 4b 3e
       -0.08131256 -0.10668229 -0.14744963 0.19890365
0000c0 cc 0d 19 be 2a c4 ba bd 55 8a 26 be 2a b3 cd 3b
       -0.1494667 -0.091194466 -0.16263707 0.0062774615
0000d0 19 62 27 be cf bc 0f be 36 38 62 3e 66 5b c1 3d
       -0.16346015 -0.14036869 0.22091755 0.09441261
0000e0 58 15 b8 3d 14 4f 15 3e ab d1 23 3d 24 6d ae 3c
       0.08988446 0.14580947 0.039994877 0.021292277
0000f0 e5 e5 17 be 9c 05 83 3d 01 e1 0c be 45 a1 50 3c
       -0.14833792 0.06397554 -0.13757707 0.012733762
000100 2d 9e ce bd 8a 0c f9 bd 17 bb f3 bd ee ce c4 bd
       -0.100887634 -0.12160595 -0.11900919 -0.09609781
000110 4a b4 e5 bd 91 b4 ee bd 91 18 68 bd a9 0c 29 be
       -0.11216028 -0.11655534 -0.056664053 -0.16508736
000120 d8 3e 21 3e 1e b0 61 3d ca 8a 56 be 6e 4d 4b be
       0.15746629 0.0550996 -0.20951381 -0.19853756
000130 e3 d5 cf bd b6 4b 83 3d b0 1b 45 3e 4a 26 26 bd
       -0.101482175 0.06410925 0.19248843 -0.04056386
000140 52 a3 e8 3d 31 de c6 bd 0a 50 56 bd 9c 0a 34 bb
       0.11359276 -0.097103484 -0.052322425 -0.0027472144
000150 6e 7f 50 be 2c 08 10 3b 25 90 26 3d 8c 02 f6 3d
       -0.2036111 0.0021977527 0.04066481 0.120122045
000160 cc 9c 16 be c2 b2 6b bd 78 bf 73 bb 6a 9e 32 3c
       -0.14708251 -0.057543524 -0.0037192982 0.010902027
000170 b7 fc f5 3c 8f f7 23 be b1 0b 1f 3e ff 25 3d be
       0.03002773 -0.16012405 0.15531804 -0.18471526
000180 ba b2 a3 bd ce da de 3d d3 e7 65 bd 0b 1e c7 bd
       -0.07993074 0.108815774 -0.056129288 -0.09722527
000190 16 4a 42 be a6 5c f6 3d 1d 20 fb 3b c7 c6 d6 3d
       -0.18973574 0.1202939 0.0076637403 0.104871325
0001a0 05 fb 00 3d e0 02 2a be e6 a4 aa bd 26 48 1c 3e
       0.03148939 -0.16602659 -0.08332233 0.15261897
0001b0 28 44 d8 bd f0 40 ba bd 93 8a fb 3d 91 64 c6 bd
       -0.10559875 -0.09094417 0.1228229 -0.0968715
0001c0 d1 29 cd 3c 26 bf cf bd a6 cd 7a 3d 9b e1 34 3d
       0.025044354 -0.101438805 0.061231278 0.044160467
0001d0 1e 97 1d be f3 0f 1b be 65 ea 8f 3d 57 37 a2 bd
       -0.15389678 -0.15142803 0.07027129 -0.079207115
0001e0 10 ce c1 3d 25 52 77 bb 6b d8 93 bd 3d 6a 94 bc
       0.094631314 -0.003773817 -0.07219013 -0.018117065
0001f0 88 66 cd bd b1 e6 d9 3d 77 79 1d 3e da da 66 bc
       -0.10029322 0.10639704 0.15378366 -0.014090264
000200 ce ff fd bd 65 12 24 3e f9 b0 2a 3e 5b 34 12 3e
       -0.124023065 0.16022642 0.16669072 0.14277785
000210 a6 f9 f6 bb c3 66 24 3d d5 fc 15 3b c6 92 ad bd
       -0.0075370846 0.040137064 0.0022886295 -0.084752604
000220 c4 82 59 be 51 7c 61 bc f9 35 b6 3d 97 c5 ed 3d
       -0.2124129 -0.0137625495 0.08897013 0.11609953
000230 3c 25 37 3d 96 1b be 3d 65 81 fa 3d fd c2 25 bd
       0.044713244 0.09282605 0.12231711 -0.04046916
000240 15 c6 0a 3e 05 1f cb b9 f2 0d 5b bd a7 2d aa bd
       0.13552125 -0.0003874229 -0.053480096 -0.08309489
000250 bd 76 f4 bd 69 db 16 be 74 b5 25 3d 6b f5 30 3e
       -0.1193671 -0.14732136 0.04045625 0.1728112
000260 93 7e e8 3c d3 d6 43 3c f4 b6 a9 bd b8 65 5a bd
       0.028380668 0.011953074 -0.08286849 -0.053319663
000270 8c 69 94 bd b8 74 7f 3d 6e 89 09 3d 58 ab 93 bd
       -0.07246694 0.06236717 0.03357833 -0.072104156
000280 aa 1b 9b 3c c0 4f 93 bc e9 6e 82 bc d6 b1 0d 3e
       0.01893409 -0.017982364 -0.015922027 0.1383737
000290 1d 65 b3 bd 81 f7 38 3e 80 7f e6 bd 71 6f 3f 3e
       -0.0875952 0.18063165 -0.112547874 0.18694855
0002a0 ee e1 99 3d 40 56 98 3d 2f 6d 35 bd 8c 07 96 bd
       0.07513796 0.07438326 -0.04429358 -0.07325658
0002b0 25 72 09 be e6 9f 43 be 55 30 13 3e 62 02 50 3e
       -0.13422449 -0.19103965 0.14373906 0.20313409
0002c0 98 16 82 3d 76 2b ae bd 13 3e 02 3d 73 21 1d 3c
       0.06351966 -0.08504383 0.03179748 0.009590494
0002d0 3d 68 2f be de 47 17 be 9c 05 9f 3d 3a 4f 89 bd
       -0.17129607 -0.14773509 0.07764742 -0.067045644
0002e0 ee 8d 49 bd 6e 8e e5 bd 45 cc b5 3d 0e d6 96 bd
       -0.04920762 -0.11208807 0.08876852 -0.073650464
0002f0 ec dd 85 bd 85 85 fe 3d 83 16 34 3e 17 f3 45 3e
       -0.06536469 0.124278106 0.17586713 0.19331013
000300 0d da a2 3d 5f 96 cf 3a 86 7c 12 3e 0d 2f 28 3e
       0.07951746 0.0015837661 0.14305314 0.16424198
000310 54 e7 b2 3d 81 28 74 3d 1a d1 50 3d 47 35 c8 3c
       0.087355286 0.05960894 0.050980665 0.024439467
000320 9c b7 00 3e 17 3d 77 3d f4 cb 3f be 1f 0a 02 be
       0.12570041 0.060360994 -0.18730146 -0.12699173
000330 21 cb 24 be fa 0b 81 bd 04 d6 35 bb 48 52 b3 bd
       -0.16093113 -0.063011125 -0.0027745971 -0.08755928
000340 f9 fe 3b be d6 f6 e7 bd 7a b1 92 3d f0 48 5a bc
       -0.18358983 -0.11326377 0.07162757 -0.013323054
000350 6d 6d 2f bd b4 83 e2 3c b6 52 31 bd a6 74 ed bd
       -0.042828966 0.027650692 -0.04329177 -0.115945145
000360 62 67 d1 bd d5 62 ac bd de d8 48 be 15 50 4f be
       -0.10224797 -0.08417288 -0.19613978 -0.20245393
000370 1e 41 a7 bd 7e 39 a1 3d fd cd 47 3e 24 91 94 bc
       -0.08166717 0.07872294 0.19512172 -0.018135615
000380 04 61 16 3e c1 0a 87 3d d8 63 1e be 98 a8 d4 bd
       0.14685446 0.06593848 -0.15467775 -0.10383719
000390 7c 97 7f bd b3 50 2c be f7 eb f5 3c 87 b5 14 3d
       -0.062400326 -0.1682766 0.030019743 0.03630593
0003a0 1d f8 1f be 15 7c 15 bd 6d 8b 37 be 55 c9 54 3e
       -0.15621991 -0.036495287 -0.1792428 0.20779927
0003b0 a9 de 04 3e 09 a6 b6 bd f1 a3 3f 3e 8d 08 f6 bd
       0.12975563 -0.089183874 0.18714882 -0.1201335
0003c0 8f 3f 38 3e 4d 94 c0 bd 2a f9 52 3d 56 8d 09 3e
       0.17992996 -0.09403286 0.051507153 0.13432822
0003d0 eb 2e b9 3d 2c 77 47 3d aa ce ba bc cd 3f 91 3b
       0.09042152 0.048697636 -0.022803623 0.0044326545
0003e0 fa 67 37 3e 72 d1 2d bd d0 6e 6e bd e5 af f1 3c
       0.17910758 -0.04243607 -0.058211148 0.029502818
0003f0 84 98 cd bd 4c 39 72 bd c1 f2 98 3c 90 e9 09 3e
       -0.10038856 -0.059136674 0.018670442 0.13468003

shared.1.weight f4 [256]
000000 e4 85 81 3f 99 4d 82 3f 13 15 7f 3f a9 84 80 3f
       1.0118985 1.0179931 0.9964153 1.0040485
000010 75 62 81 3f e7 d6 80 3f b0 2d 81 3f 1c 8d 80 3f
       1.0108172 1.0065583 1.0092068 1.0043063
000020 46 9c 81 3f af a7 81 3f 56 ce 80 3f 10 18 82 3f
       1.0125816 1.0129298 1.0062969 1.0163593
000030 d1 de 82 3f 00 53 82 3f 5c 64 82 3f 90 d3 82 3f
       1.0224248 1.018158 1.0186877 1.0220814
000040 21 0e 83 3f 89 c9 82 3f c7 79 80 3f 8f 5b 81 3f
       1.0238687 1.0217754 1.0037163 1.0106066
000050 53 65 82 3f 4e dc 80 3f 89 0a 82 3f be 22 82 3f
       1.0187172 1.0067232 1.0159465 1.0166852
000060 cb 9f 82 3f 6f db 82 3f 7c 9b 80 3f c1 b1 80 3f
       1.0205015 1.0223216 1.004745 1.0054246
000070 65 f4 80 3f 5e a5 80 3f 9e 92 81 3f 0e b7 80 3f
       1.0074583 1.0050466 1.0122869 1.0055864
000080 ae 7f 81 3f 59 23 83 3f 1e aa 80 3f e7 7e 81 3f
       1.011709 1.0245162 1.0051916 1.0116853
000090 85 2f 81 3f d8 79 83 3f 5b e6 81 3f e7 c0 81 3f
       1.0092627 1.0271559 1.0148424 1.0136994
0000a0 3a 2e 83 3f db 81 85 3f e2 5a 82 3f 9f d2 81 3f
       1.0248482 1.0430254 1.0183985 1.0142401
0000b0 f1 6c 82 3f d0 cf 81 3f 63 4a 82 3f 63 c3 83 3f
       1.0189496 1.0141544 1.0178951 1.0294002
0000c0 38 93 82 3f 6d 1e 83 3f 63 99 81 3f a5 79 81 3f
       1.0201178 1.024366 1.0124935 1.0115248
0000d0 0b ea 81 3f d3 41 81 3f 4e b5 84 3f f1 de 81 3f
       1.0149549 1.0098213 1.036783 1.0146161
0000e0 25 bc 80 3f 2e fb 80 3f 7f 43 81 3f 4a bf 81 3f
       1.0057417 1.0076654 1.0098723 1.0136502
0000f0 ce bb 80 3f 82 39 83 3f 1e 3a 84 3f fc 88 81 3f
       1.0057313 1.0251925 1.0330236 1.0119929
000100 cb dd 81 3f 21 3b 80 3f 3b e8 80 3f 4e 92 80 3f
       1.0145811 1.0018045 1.0070871 1.0044649
000110 50 52 80 3f 0e 9d 81 3f a8 e3 81 3f 16 c3 82 3f
       1.002512 1.0126054 1.01476 1.0215786
000120 4d 9c 81 3f 72 9e 80 3f 76 cc 82 3f 98 a5 81 3f
       1.0125824 1.0048354 1.0218647 1.012866
000130 f9 81 83 3f d2 3a 80 3f d7 78 81 3f bf 0d 81 3f
       1.027404 1.001795 1.0115002 1.008232
000140 76 78 82 3f 27 81 84 3f 64 81 82 3f 47 41 80 3f
       1.0193012 1.0351914 1.0195737 1.0019921
000150 d9 5f 80 3f 97 f3 81 3f 2a 0f 82 3f cd a1 81 3f
       1.002925 1.0152463 1.0160878 1.0127503
000160 d5 88 82 3f cf 0c 82 3f ed d2 81 3f 33 ca 80 3f
       1.0198008 1.0160159 1.0142494 1.0061706
000170 f8 54 81 3f ff 39 81 3f ee 16 81 3f be 54 81 3f
       1.0104055 1.0095824 1.0085123 1.0103986
000180 6f 74 80 3f 0d d5 83 3f b9 8d 80 3f 4c eb 7f 3f
       1.0035533 1.0299393 1.004325 0.9996841
000190 c9 32 82 3f c5 19 82 3f 2f 22 83 3f 26 1b 83 3f
       1.0171748 1.0164114 1.0244807 1.024266
0001a0 3b 50 82 3f 8b a9 80 3f 7c 23 81 3f 6e 0f 81 3f
       1.0180734 1.005174 1.0088954 1.0082834
0001b0 81 7c 81 3f 41 b9 82 3f f3 f5 81 3f 53 38 80 3f
       1.011612 1.0212785 1.0153183 1.0017189
0001c0 8b 81 80 3f 6a b1 81 3f ea 15 81 3f 44 7d 81 3f
       1.0039533 1.0132267 1.0084813 1.0116353
0001d0 89 7a 81 3f ab d9 80 3f 1a 4c 82 3f 74 94 80 3f
       1.011552 1.0066427 1.0179474 1.0045304
0001e0 8b ce 81 3f b7 92 81 3f 7f a3 80 3f cc d2 80 3f
       1.0141157 1.0122899 1.0049895 1.006433
0001f0 f4 d8 80 3f 3d aa 80 3f de 82 80 3f a6 43 81 3f
       1.0066209 1.0051953 1.0039937 1.009877
000200 23 9c 82 3f e0 98 84 3f 0e 56 84 3f e1 3f 83 3f
       1.0203899 1.0359154 1.0338762 1.0253869
000210 ab 55 80 3f 76 ed 81 3f fb 85 80 3f 2e 2d 83 3f
       1.0026144 1.0150592 1.0040888 1.0248163
000220 96 03 82 3f 29 88 82 3f 9c 20 82 3f 46 d2 80 3f
       1.0157344 1.0197803 1.0166202 1.006417
000230 29 90 80 3f a6 58 84 3f c9 17 80 3f 81 16 83 3f
       1.0043994 1.0339553 1.0007259 1.0241243
000240 98 97 81 3f 83 ea 82 3f 58 ce 83 3f c3 07 82 3f
       1.0124388 1.0227817 1.0297346 1.0158619
000250 3a 88 83 3f ab 0d 81 3f 82 c9 81 3f 42 bc 7f 3f
       1.0275948 1.0082296 1.013962 0.99896634
000260 8a eb 80 3f 5f e3 7f 3f 2e 13 82 3f c8 97 81 3f
       1.0071881 0.99956316 1.0162103 1.0124445
000270 a6 92 80 3f a1 55 80 3f 5a ee 81 3f fd 97 82 3f
       1.0044754 1.0026132 1.0150864 1.0202633
000280 1c 08 82 3f db b5 82 3f 8c cf 80 3f 79 99 82 3f
       1.0158725 1.0211748 1.0063338 1.0203086
000290 3d 8e 82 3f 9d 15 81 3f db 7d 83 3f 34 0b 81 3f
       1.0199658 1.0084721 1.0272783 1.0081544
0002a0 19 e1 81 3f 59 1c 81 3f 02 74 81 3f 9e 34 82 3f
       1.0146819 1.0086776 1.0113528 1.0172307
0002b0 7f 75 83 3f 3e 7d 81 3f b3 97 81 3f fa 23 82 3f
       1.0270232 1.0116346 1.012442 1.0167229
0002c0 74 24 82 3f c7 73 80 3f fc af 80 3f 78 63 83 3f
       1.0167375 1.0035332 1.0053706 1.026473
0002d0 c3 92 80 3f 38 97 7f 3f 2e 21 83 3f 5b 45 81 3f
       1.0044788 0.99840117 1.0244501 1.0099291
0002e0 91 8a 80 3f b3 44 83 3f a4 be 81 3f d9 77 83 3f
       1.0042287 1.025534 1.0136304 1.027095
0002f0 b0 02 82 3f 7e 6e 81 3f 5f 29 81 3f 69 aa 82 3f
       1.015707 1.0111845 1.009075 1.0208255
000300 ff 16 81 3f 13 da 83 3f 1d f3 80 3f b5 be 80 3f
       1.0085143 1.0300926 1.0074192 1.0058199
000310 f8 32 81 3f 8c b0 81 3f e3 4c 81 3f 68 ec 81 3f
       1.009368 1.0132003 1.0101589 1.015027
000320 9d b0 82 3f ec 29 83 3f 98 07 82 3f 16 10 81 3f
       1.0210148 1.0247169 1.0158567 1.0083034
000330 fd e8 7f 3f 3d c8 81 3f f7 e1 80 3f a0 25 82 3f
       0.99964887 1.0139233 1.0068959 1.0167732
000340 2c 5f 81 3f 66 51 83 3f e4 d8 80 3f 92 49 82 3f
       1.0107169 1.0259216 1.006619 1.0178702
000350 d1 e9 80 3f 34 49 81 3f 71 0a 81 3f 17 2c 81 3f
       1.0071355 1.0100465 1.0081311 1.009158
000360 bc fb 81 3f 2f db 81 3f 7f 26 82 3f 2d db 81 3f
       1.0154948 1.0145015 1.0167998 1.0145012
000370 35 98 80 3f 83 a9 81 3f c9 c0 81 3f 2c 42 82 3f
       1.004645 1.0129856 1.0136958 1.0176444
000380 cc 25 83 3f 26 3b 80 3f f8 06 80 3f 27 1d 81 3f
       1.024591 1.0018051 1.0002127 1.0087022
000390 37 26 81 3f ed ee 80 3f 3c 71 81 3f c7 01 81 3f
       1.0089787 1.0072914 1.0112681 1.0078667
0003a0 d6 24 82 3f 68 55 82 3f 2e d9 82 3f 20 3e 83 3f
       1.0167491 1.0182314 1.0222528 1.0253334
0003b0 54 be 83 3f 86 82 81 3f 31 77 82 3f 5b 3d 83 3f
       1.0292459 1.0117958 1.0192624 1.0253099
0003c0 72 ad 80 3f 27 65 81 3f e4 98 81 3f 1b cc 81 3f
       1.0052931 1.0108994 1.0124784 1.0140413
0003d0 b3 d1 82 3f 71 f5 81 3f e8 22 81 3f d4 a9 80 3f
       1.0220245 1.0153028 1.0088778 1.0051827
0003e0 f4 ea 80 3f 24 90 80 3f 4a 8b 81 3f 5c bf 7f 3f
       1.0071702 1.0043988 1.0120633 0.99901366
0003f0 85 44 82 3f 12 9f 81 3f 63 00 81 3f c4 40 81 3f
       1.017716 1.012667 1.0078243 1.009789

shared.1.bias f4 [256]
000000 81 df 07 3c 8d ae 58 3c 02 c5 92 bb 0d 96 b2 38
       0.008293034 0.01322521 -0.0044790516 8.5156506e-05
000010 e0 ab 2a 3c d7 1f 29 3c f8 9f c5 3b df 8d 98 3b
       0.010416955 0.010322533 0.0060310327 0.004655584
000020 cd 4a 80 3c 09 0f 6d 3c 7e dd cb 3b ba b2 52 3c
       0.015660668 0.014468917 0.0062214723 0.012859995
000030 60 b6 77 3c 46 20 a3 3b ff 2b 92 3c 5f 9d 85 3c
       0.015119165 0.0049782125 0.017843245 0.016310392
000040 21 7d 92 3c 64 1c 27 3c 82 33 b5 3b 0a be 57 3c
       0.017881932 0.01019964 0.005529822 0.013167867
000050 58 92 60 3c 79 7a b0 3b 48 40 3e 3c e0 4d 86 3c
       0.013706766 0.0053856936 0.0116120055 0.016394556
000060 bd eb 73 3c 34 e5 d3 3c ba 34 b1 3b d5 16 0a 3c
       0.014887747 0.025866129 0.005407897 0.008428295
000070 55 de 14 3c 46 76 e1 3b 6d f1 26 3c 6f 90 95 3b
       0.009086211 0.0068805544 0.010189396 0.004564337
000080 f1 17 a0 3c a2 95 31 3c 06 9c c2 3b c0 6b 4b 3c
       0.019542666 0.010838898 0.0059390096 0.012415826
000090 51 1b 3a 3c f9 18 87 3c bd d3 ee 3b 0a cc 22 3c
       0.011359052 0.0164914 0.0072884248 0.009936342
0000a0 7c 0b 94 3c 1c 20 bc 3c 9e 4c 7d 3c 53 0b 71 3c
       0.018071882 0.02296453 0.0154601615 0.014712173
0000b0 85 0b a4 3c 71 81 5f 3c c6 cc 67 3c e9 53 8a 3c
       0.020025024 0.013641701 0.014147943 0.016885715
0000c0 a2 39 80 3c d1 3c b1 3c d5 4e 76 3c 27 70 44 3c
       0.015652481 0.021635445 0.015033443 0.01198963
0000d0 a7 23 71 3c d5 6c 58 3c 98 a8 e7 3c 21 cb 84 3c
       0.014717973 0.013209541 0.028278634 0.01621014
0000e0 8d 05 72 3b 36 a1 01 3c 99 90 34 3c 2b 82 5a 3c
       0.0036929578 0.007911971 0.011020803 0.0133366985
0000f0 a5 23 0b 3c 15 b2 83 3c 71 be ee 3c c7 d3 83 3c
       0.008492385 0.016076127 0.029143544 0.016092194
000100 59 4c 3b 3c 87 48 e0 3a ed ab 53 3c 92 b3 6a 3b
       0.011431777 0.0017111459 0.012919408 0.0035812599
000110 0e ed 2a 3b e0 11 03 3c 58 0a b3 3c a5 20 9e 3c
       0.0026081237 0.007999867 0.021855518 0.019302676
000120 ed 1f 84 3c 4c 0a cf 3b 5e 5d 80 3c 84 07 3c 3c
       0.016128505 0.006318366 0.015669521 0.011476401
000130 53 f4 38 3c e8 58 c5 3b 63 91 5f 3c 1d 87 88 3a
       0.01128872 0.0060225613 0.013645503 0.0010416243
000140 1a 4d 3a 3c 2c 2f ac 3c f0 b5 6c 3c f1 24 1e 3b
       0.0113709215 0.021018587 0.014447674 0.0024130906
000150 fb 2b 8d bb c7 bc 6b 3c 54 08 a6 3b 07 b8 14 3c
       -0.0043082214 0.01438827 0.0050669108 0.009077079
000160 bf 70 8c 3c 65 b9 26 3c 58 d8 c1 3b e3 8f 52 3b
       0.017143605 0.010176037 0.0059156828 0.003212922
000170 69 44 04 3c 0e a4 14 3c f6 47 3d 3b 3c 21 5f 3c
       0.008072951 0.009072317 0.0028882003 0.013618764
000180 e8 4c 27 3b b1 be a9 3c f9 55 17 3c a9 1a 3e 3a
       0.0025528017 0.020720812 0.009236806 0.00072518975
000190 f4 7e 8f 3c b0 b6 98 3b 66 12 a8 3c 15 2a 8c 3c
       0.01751659 0.00466045 0.020516586 0.01710991
0001a0 76 e5 89 3c 4e 3b 80 bb 20 79 17 ba e4 1a 45 3c
       0.016833048 -0.0039133197 -0.0005778242 0.012030337
0001b0 7f d5 4a 3c ea 0e 82 3c c9 13 91 3c d6 b3 49 3a
       0.012380003 0.015876252 0.01770963 0.0007694339
0001c0 c2 b0 ca bb 15 33 54 3b 5e 16 57 3c 8f f5 13 3c
       -0.006185622 0.003237908 0.013127891 0.009030714
0001d0 fb d6 46 3c 2c bb 13 3b f8 a3 70 3c a4 10 ce 39
       0.012136216 0.0022541983 0.014687531 0.0003930378
0001e0 67 76 55 3c ed 8f 2f 3c e8 e9 73 3b 72 48 a4 3b
       0.013028718 0.010715467 0.0037218276 0.005013519
0001f0 58 3c f0 3b 5b 27 30 3c 2a 48 76 3b 02 fb 44 3c
       0.0073314123 0.010751571 0.0037579634 0.012022736
000200 f1 1a 7d 3c 9a 0b e1 3c 3d a0 d0 3c f5 c3 57 3c
       0.015448318 0.027471352 0.025467033 0.013169278
000210 02 3b 18 3c 4d bf 69 3c 1b 04 03 bb 81 1a 37 3c
       0.009291412 0.014266801 -0.001999146 0.011175753
000220 89 97 ce 3b 80 a9 67 3c a4 eb 6e 3c d0 9d ef 3b
       0.0063046855 0.014139533 0.014582548 0.007312514
000230 83 5b 19 3c 62 cd 96 3c 2c a3 69 3b 83 f9 ef 3b
       0.009360197 0.018408481 0.0035650237 0.0073234453
000240 23 96 08 3c da 28 82 3c 9f af c4 3c d0 62 bd 3b
       0.008336577 0.01588862 0.024009524 0.0057796016
000250 c6 d4 8c 3c d6 93 b9 3b 04 da 6f 3b 8d 36 a0 bb
       0.017191302 0.0056633754 0.0036598453 -0.0048893155
000260 b2 20 a0 3b cd 56 07 bb f0 7d 32 3c d8 57 1e 3c
       0.00488671 -0.0020651103 0.010894284 0.009664498
000270 ec 5b 54 3b 2d 91 75 39 4d 47 1a 3c d2 99 8a 3c
       0.0032403423 0.00023419103 0.0094164135 0.01691905
000280 40 c1 3c 3b ce f7 bd 3c 06 d6 e9 3b de b4 68 3c
       0.002880171 0.023189452 0.0071361093 0.014203278
000290 68 15 2b 3c ca 97 22 3c 2a bd 8e 3c be 4f fa 3b
       0.010442115 0.009923885 0.017424185 0.0076389005
0002a0 56 c3 57 3c 52 0f 73 3c b6 e2 4e 3c 07 03 05 3c
       0.01316913 0.014835196 0.012627294 0.008118398
0002b0 7d 31 b8 3c d1 db 59 3c a8 b9 34 3c 09 e1 a1 3c
       0.022484535 0.013297037 0.011030592 0.019760625
0002c0 76 eb 63 3c 88 17 b0 3a f0 f6 f1 3b a6 77 cb 3c
       0.013911119 0.0013434747 0.0073841736 0.024837326
0002d0 60 46 fa 39 e7 f4 d1 ba 02 54 98 3c 5d 63 5a 3b
       0.0004773615 -0.0016018421 0.018594746 0.0033323385
0002e0 73 59 32 3b a2 03 86 3c da 71 46 3c f4 0a d1 3c
       0.002721396 0.016359154 0.012112105 0.025517918
0002f0 da a7 8c 3c 26 e7 84 3c 58 11 0c 3c b2 d0 34 3c
       0.017169882 0.016223501 0.008549057 0.011036085
000300 01 bd 64 3c b8 f3 73 3c 96 de 42 3c 8a 61 a0 3b
       0.013961078 0.01488965 0.011893889 0.00489444
000310 43 f5 0d 3c 5a eb 56 3c 42 25 14 3c b9 3f 83 3c
       0.008664432 0.013117636 0.009042086 0.016021596
000320 54 51 73 3c 5c b0 86 3c 1c a3 0d 3c 0a 93 71 3b
       0.014850933 0.016441517 0.008644845 0.0036861324
000330 32 27 9b bb 3e ba 90 3c 51 9b 82 3b 29 be 4b 3c
       -0.004734897 0.017666932 0.0039858003 0.012435474
000340 ed ef 05 3c 19 9a ad 3c b9 ec 8e 3b 11 2d 5f 3c
       0.008174879 0.021191644 0.0043617156 0.0136215845
000350 60 da 49 3c 5d 46 10 3c 0d 90 83 3c 1b b5 4a 3c
       0.012320131 0.008805838 0.0160599 0.0123722805
000360 93 58 80 3c b8 1f 32 3c bb 41 77 3c 17 09 83 3c
       0.015667235 0.01087182 0.015091355 0.015995545
000370 39 31 84 bb 35 31 f5 3b 3a f9 82 3c ca 3d 2f 3a
       -0.004034188 0.0074826726 0.015987981 0.00066849275
000380 bb bc 98 3c 98 8d 2e 3b e5 d9 13 3b 47 c5 d5 3b
       0.018644681 0.002663469 0.0022560295 0.0065237614
000390 c9 4e 5f 3b c0 a4 16 3c b0 a1 5d 3c 10 42 cd 3b
       0.003407406 0.009194553 0.013527319 0.006263979
0003a0 f8 14 31 3c a1 e2 7f 3c 61 44 24 3c 63 a4 76 3c
       0.010808222 0.015617997 0.010026068 0.015053841
0003b0 d2 3a 8b 3c 0f 9f 2d 3c 76 73 9c 3c 30 21 8f 3c
       0.016995821 0.010597005 0.019098025 0.01747188
0003c0 2d c8 d9 3b 33 f4 b1 3b 1b 94 5f 3b ff 74 8a 3b
       0.0066461773 0.005430722 0.0034115377 0.004225373
0003d0 27 12 46 3c 65 36 61 3c 54 4d e7 3b d0 1a a4 3b
       0.012089289 0.013745879 0.007058779 0.005008079
0003e0 19 87 18 3c b9 32 39 3b 36 ea 0b 3c 9e 70 f8 b9
       0.009309554 0.0028258993 0.008539727 -0.00047386152
0003f0 f7 b8 32 3c 8f f1 96 3b f9 42 65 3c 14 fc 74 3c
       0.010908357 0.0046064327 0.013993018 0.014952678

actor_mean.0.weight f4 [256, 256]
000000 3b 3c a7 3c 0b cc 18 bd 6a cf 1d 3d 1d 6b df bc
       0.020414462 -0.037303966 0.038527884 -0.027272755
000010 7a be 76 3c 51 6c ae 3b e1 82 20 3d 63 b6 5a bc
       0.015060062 0.005322971 0.039187316 -0.013349148
000020 da 46 dc bc 84 d8 e7 bb 3c 9e 6c bb 6d ef 03 bd
       -0.026889253 -0.007075371 -0.0036105057 -0.032210756
000030 a1 a2 1f 3d 60 85 e0 bc 7c 0e 01 3c 0d 58 37 bd
       0.038973454 -0.027407348 0.0078769885 -0.044761706
000040 16 27 1b bc d3 6e 96 bc 7e 27 c6 bc c5 21 e2 3c
       -0.009469768 -0.018363392 -0.024188753 0.027603993
000050 ca 3e 63 bd ba e3 fd 3a e3 1d 8b ba 9b f6 c5 bc
       -0.055479802 0.0019370236 -0.0010613765 -0.024165442
000060 f0 dc 3e 3d 00 1a 32 3d 6a 0c 9d 3c 85 8c 73 b9
       0.04659742 0.043481827 0.019170959 -0.00023226633
000070 7b d7 0a 3d a4 32 ed bc 7f 4c 5e bd c2 90 74 3d
       0.033896904 -0.028954811 -0.05427217 0.059708364
000080 7e 03 c2 bc 25 bb a8 3c e4 df a7 39 c3 ec 5e 3d
       -0.023683306 0.02059705 0.00032019534 0.054425012
000090 da 6c 86 3d 9d f0 41 bd ab 84 04 3b 64 73 4a bd
       0.065637305 -0.047348607 0.0020220678 -0.04942645
0000a0 09 f7 34 3d 4b 0f 6c 3d 68 ea 83 bc 6c fe 48 3c
       0.044180904 0.057631772 -0.016102985 0.01226769
0000b0 e8 ef 4d bc 04 66 84 bc 78 3b 5d 3d bd d8 89 bd
       -0.012569405 -0.016161926 0.054011792 -0.06730793
0000c0 10 a7 ba bb 55 3f 3e ba 86 6f 4e bd 8c f4 bf 3c
       -0.005696185 -0.0007257362 -0.050399326 0.023432039
0000d0 02 e1 28 3d 87 82 55 bd 9b 13 e6 3c 1c 35 a4 bb
       0.04123021 -0.052126434 0.02808552 -0.005011214
0000e0 99 a2 73 3d ab fb 6a bd 21 0b 46 3d 80 51 bc bc
       0.059481237 -0.057368916 0.048350457 -0.022988081
0000f0 69 8a 5b 3d 35 86 07 bd af 82 a7 3c 23 11 8c 3c
       0.053598795 -0.033086974 0.020448057 0.017098015
000100 2c 79 34 3d bd 33 e9 3c 30 08 16 3d 08 c7 cc bb
       0.04406087 0.028467054 0.036628902 -0.0062493123
000110 60 15 5a bd 11 af 90 3b 8b 9c 83 3d 60 1a 5e 3d
       -0.05324304 0.004415401 0.064263426 0.054224372
000120 1b 2a 18 bd 91 51 2a 3d a7 2f 02 3d 5d 48 6a bc
       -0.03714953 0.041581694 0.031783726 -0.014299479
000130 c8 05 e8 3c 36 5b 58 bb 45 9e 4b 3c 07 7b 23 bd
       0.02832307 -0.003301335 0.012427871 -0.03991225
000140 96 3d f5 bb 59 ff 75 3d 17 f6 12 3d cf 76 56 bd
       -0.0074841483 0.06005797 0.03587922 -0.0523594
000150 cb db 69 bc 4d 5c 36 3d 0b 03 d3 bc 2f fd 65 bc
       -0.014273594 0.04452162 -0.025758287 -0.014037414
000160 76 bf 12 3d 4d ab 46 3d 4d 7d 81 3d 94 b3 34 bd
       0.035827123 0.04850321 0.06322727 -0.04411657
000170 8d f4 5a bd 6c a9 1e 3d 4f 4d 56 bc fb 14 60 3d
       -0.053455878 0.038735792 -0.013079955 0.05470751
000180 38 36 45 3d 37 94 b1 bc 28 70 3e 3c 17 3c a6 3c
       0.04814741 -0.02167712 0.01162342 0.020292325
000190 19 98 a0 bc e3 47 74 3d bc 46 09 3c 96 3f a5 bc
       -0.019603776 0.05963887 0.008378681 -0.020171922
0001a0 6d e9 73 bd 2c c1 49 3d 32 d0 8b bd dd 84 33 3d
       -0.059548784 0.04925649 -0.068268195 0.04382788
0001b0 dd e1 d9 bc 74 5c f4 bb 80 ef 1a 3c 4c eb 7e 3d
       -0.026596958 -0.0074573103 0.009456515 0.062236115
0001c0 66 5a 34 bd c3 b7 15 bd de 29 20 3d 16 d8 f3 bc
       -0.044031523 -0.036552202 0.039102428 -0.029766124
0001d0 19 3d 51 bc 1d e5 3d 3d 7c bc 9f bc 4c 6c 26 3d
       -0.0127709145 0.046361078 -0.019499056 0.040630624
0001e0 91 bf bb bc 5c 9e 3f 3d f4 6f 80 3d f6 0f 2d 3c
       -0.022918494 0.046781883 0.06271353 0.010562887
0001f0 b4 87 9d bc b2 c8 05 3d 05 d7 72 3c 43 46 2e bb
       -0.019229747 0.0326621 0.014821772 -0.0026592172
000200 10 3b 72 3d fd 6f c4 3b 46 ec d1 3c eb f3 8b bc
       0.059138358 0.0059947954 0.02562536 -0.017084083
000210 b3 82 64 bc d3 68 d0 ba 9c 45 ff 3b 49 29 e3 3c
       -0.013947177 -0.0015900381 0.0077902805 0.027729647
000220 6c 42 4b 3d ca 58 36 3d 97 3d 1a bd 96 cb 65 3d
       0.04962389 0.04451827 -0.037656393 0.056102358
000230 2a 64 32 3d 4a c9 bd 3c b4 5a 16 3c 49 8c 3e bd
       0.043552555 0.023167271 0.009176899 -0.046520505
000240 cb cb 2b bd 01 29 38 bc 6d d3 11 bd 55 11 51 3c
       -0.0419424 -0.011240245 -0.035602022 0.01276048
000250 02 ed 5b bd 42 a6 5f bd 2c 8c 0d bd 2d 34 ee 3c
       -0.053692825 -0.054601915 -0.034557506 0.029077614
000260 98 df 32 3d 10 65 64 bd 23 35 27 bd 92 24 ac 3c
       0.043670267 -0.055760443 -0.04082216 0.021013532
000270 c9 18 ac bb cb ed 56 bd a9 a1 4a 3c 38 b5 3e bd
       -0.005251978 -0.05247287 0.012367644 -0.046559542
000280 37 ca 22 3c ec a9 03 3d 71 e5 5b 3d 37 bc 4c bd
       0.009935907 0.032144472 0.05368561 -0.049984183
000290 c0 78 63 3d 6d d8 37 3c 76 56 7d 3d 83 d3 65 3d
       0.055535078 0.0112210335 0.061850034 0.056109916
0002a0 2e 3c 90 bc f0 5d 81 bc 01 f8 6c bc af b9 4e 3d
       -0.01760682 -0.015791863 -0.014463426 0.05047005
0002b0 75 8c a4 bc 49 6d 3c 3d dc f1 e2 3c f7 a1 51 3d
       -0.020086506 0.04600266 0.027703218 0.051179852
0002c0 18 e9 4a 3d a7 a1 6c 3d e3 da 5b bd 26 fe ea bc
       0.0495387 0.05777135 -0.053675544 -0.02868564
0002d0 e1 50 2b bd 67 76 e7 3c e5 22 71 3c f3 44 bb 3c
       -0.04182518 0.0282547 0.014717792 0.022860026
0002e0 0a a6 e3 3c dc 4d 27 3c e9 44 be 3c bf 7d b9 bc
       0.027789135 0.010211434 0.023226218 -0.022642968
0002f0 18 82 37 3d 77 54 71 bd 40 52 7a bd ec 70 0b 3c
       0.0448018 -0.058918443 -0.061113596 0.008510809
000300 b1 29 61 3d 7e 35 e3 bc 90 96 6d 3d 99 c1 b8 bc
       0.0549714 -0.027735468 0.058004916 -0.022553252
000310 32 85 56 bd ee 53 6c bc af d4 1a 3d cd a8 1f bd
       -0.05237312 -0.014424307 0.037800487 -0.03897934
000320 36 36 79 3d a9 61 fc bc 3d 84 d0 bc 25 e5 db bc
       0.060842715 -0.030808287 -0.025453681 -0.026842663
000330 42 4f 37 bd 7a 20 5d 3d b1 42 17 bd fe 34 bf bc
       -0.04475332 0.05398605 -0.036928836 -0.023340698
000340 54 13 98 bc a7 90 6c 3d fe 3a cb 3c e6 60 97 3c
       -0.018563904 0.05775514 0.024808403 0.018478822
000350 08 07 9a bc b4 08 e4 3c b0 2e 34 3c bb 20 71 3d
       -0.01880218 0.027836181 0.010997459 0.058869105
000360 96 3c aa 3c 75 88 35 3d f0 f9 3d 3d 1c 5e 26 3c
       0.020780843 0.04431959 0.046380937 0.010154273
000370 c0 91 6c bd 94 34 76 3c f7 1a 3d bd f4 50 90 3c
       -0.057756186 0.015027184 -0.046168294 0.017616726
000380 fb 66 bc bb 22 67 48 3d 1b ac 2d bd 2a 0c 5a bd
       -0.005749581 0.04892648 -0.04240046 -0.053234257
000390 57 65 ff 3c 08 5b 32 3d a8 91 8c bc d7 65 4b 3c
       0.031176252 0.043543845 -0.017159298 0.012414417
0003a0 4b d6 3f 3d f9 05 01 3c 69 f7 2d bc 87 a4 0d 3d
       0.046835225 0.007874959 -0.010618069 0.034580734
0003b0 b2 6a 56 3d e3 db 4d bc 26 4c 2d 3d 10 f6 b1 3b
       0.052347846 -0.012564632 0.04230895 0.0054309443
0003c0 9d 59 56 bc 93 37 ee bb 49 f5 58 bd 87 b1 09 3d
       -0.013082889 -0.0072698086 -0.052968297 0.03361657
0003d0 ac 48 aa bc 2d b0 5b bd ad 5f 6b bc bf cd ec bc
       -0.020786606 -0.05363481 -0.014366073 -0.028906701
0003e0 63 de 24 bd 71 eb 55 bc da 17 27 bb 0d 4b 9e 3c
       -0.040251147 -0.013056622 -0.0025496394 0.019322896
0003f0 a0 e5 1d 3c 56 66 41 bc 29 21 73 3c c9 f4 2b bd
       0.009637266 -0.011804184 0.014839449 -0.041981492

actor_mean.0.bias f4 [256]
000000 f4 eb 88 3b 74 8b 76 bd e3 c2 07 3d 42 9e 37 3d
       0.0041785184 -0.060191587 0.033144843 0.04482866
000010 1d 4d 68 3d 55 5f 0f 3c 6f 5a 78 bc 5e 81 d9 bc
       0.056714166 0.008750756 -0.01515828 -0.026550945
000020 1b e3 19 3d 48 6f 4d 3d 18 15 a9 3b 27 13 cc bc
       0.0375701 0.050154954 0.0051599853 -0.024911476
000030 db 96 30 3d 78 13 56 bd b8 b5 af bc 59 18 12 bb
       0.043112617 -0.05226466 -0.021448955 -0.0022292344
000040 82 c2 bb bc 2b 96 9d bc 22 6d df bc 47 f4 91 bc
       -0.022919897 -0.019236645 -0.027273718 -0.017816676
000050 f9 7a df b9 4c 75 1b bd e5 84 88 3b 64 1b 45 3d
       -0.00042625496 -0.03795366 0.004166233 0.048121825
000060 51 79 85 3c 58 e5 80 3c 18 81 b0 3b d3 24 8b bd
       0.0162932 0.01573436 0.005386483 -0.06794133
000070 1b 94 c7 3c 59 7c b5 3c a8 57 9c bb 16 d4 d1 bc
       0.024362614 0.02215402 -0.0047711916 -0.025613826
000080 43 1a 51 bd 99 9f 00 bd c2 cf 3c bd 9a fa 35 3d
       -0.051050436 -0.031402204 -0.04609657 0.044428445
000090 e4 c7 c5 bc 37 b8 01 bc 47 ae 7f 3d 29 d9 f3 bc
       -0.024143167 -0.007917455 0.062422063 -0.029766636
0000a0 42 a8 e5 3c 9f 15 31 bd 1a 35 41 bd 95 9f 35 3d
       0.028034333 -0.04323351 -0.047169782 0.044341642
0000b0 89 9d 3e 3d fc 6e bc 3c 1d b1 3f bd a0 e7 5d bc
       0.046536956 0.02300214 -0.046799768 -0.013543993
0000c0 e2 03 6c bd ab 8c 13 bd 29 75 60 bd 25 c4 2b 3d
       -0.05762089 -0.036022823 -0.054799233 0.041935105
0000d0 70 51 30 bd db a8 26 3d 7f 33 e6 3b a2 48 5f bd
       -0.043046415 0.040688377 0.007025182 -0.054512627
0000e0 00 8c 00 3d 2b 04 2b bd fa 9f 7d bd 51 c0 e9 bb
       0.031383514 -0.04175202 -0.061920144 -0.0071335216
0000f0 27 88 1b 3d 24 f7 f5 3c 54 9b d4 bc ca 22 d1 3c
       0.037971642 0.030025072 -0.025952972 0.025529284
000100 c1 1c 9e 3c 3e 3b 73 bd 03 4c ff bc fa ad 22 3d
       0.01930082 -0.05938267 -0.031164175 0.0397167
000110 cf a2 37 bd a5 fc 10 3d 00 9b 2b bd bb 1a 55 bd
       -0.044833 0.03539719 -0.041895866 -0.052027445
000120 dc 26 5a bc aa c1 ca 3b 21 16 90 bc 30 fa 9f 3c
       -0.013314929 0.0061876373 -0.017588677 0.019528478
000130 b4 aa e5 3c 38 b9 9a bc c5 16 3d ba 9f 1b bf 3c
       0.0280355 -0.018887147 -0.0007213171 0.0233286
000140 5c f4 c0 bc 08 87 79 bd b5 c6 5d 3d c4 4f 39 bd
       -0.02355402 -0.06091979 0.05414458 -0.045242086
000150 8b 48 71 3c 91 44 5f 3c 00 65 3c bd 12 97 59 bd
       0.014726768 0.013627187 -0.04599476 -0.053122588
000160 04 90 80 3d cf 37 69 3c 4b 92 07 bc d1 4f 59 3d
       0.06277469 0.014234497 -0.008274625 0.053054634
000170 76 a1 a2 bb 54 bb 1d 3c af 94 df bc 25 a4 48 3b
       -0.0049630953 0.009627182 -0.027292578 0.0030615416
000180 f8 4a 5f bd b3 c2 b6 3c 17 3e 18 bc cb 30 ab 3c
       -0.054514855 0.022309637 -0.009292147 0.02089729
000190 9d 38 32 3d a6 cf 54 bd d5 b1 11 3c 64 9b 59 bd
       0.043511022 -0.05195584 0.008892496 -0.053126708
0001a0 ba 73 07 bc 51 eb 74 bd 77 15 24 bd ad ae 89 bb
       -0.008267337 -0.059794728 -0.040059533 -0.004201731
0001b0 05 52 0c 3b 18 c7 5e bc aa 82 7f 3d df 1a 7b bc
       0.0021411192 -0.013597272 0.06238047 -0.015326231
0001c0 92 41 df bc 0f cf 28 3d 46 48 2e bd 1e 21 72 bc
       -0.027252946 0.04121309 -0.042549394 -0.014778404
0001d0 fc d1 5f 3c 99 42 c3 3c cc a9 93 bc ae 5e 4e 3d
       0.013660904 0.023835467 -0.018025301 0.050383262
0001e0 bd 6a 06 bc 2d e6 c3 bc f7 f3 0d 3d e3 d2 18 3d
       -0.008204159 -0.023913467 0.03465649 0.037310492
0001f0 9a cb ae bc 11 57 49 3c b1 83 b8 3c ab 90 d8 3c
       -0.02133732 0.012288825 0.022523733 0.02643617
000200 05 b5 e8 ba 77 5a 2d 3c a7 53 42 3d df 4b 20 3d
       -0.0017754143 0.0105806505 0.04744306 0.039134856
000210 6b f8 31 bd 83 36 8e 3c ef ab d8 bc fc f1 0a bd
       -0.0434498 0.017359978 -0.026449172 -0.03392218
000220 a8 30 3b 3d 1a 93 28 3d 04 9b 92 bc ee 0c 28 bd
       0.0457007 0.041155912 -0.017896183 -0.041027956
000230 84 2b 8e bc 0c 52 78 3d 44 49 0e 3d 25 27 c5 bb
       -0.017354734 0.06062512 0.03473784 -0.0060166293
000240 c2 ee 25 bc f4 84 1e 3d 6d 10 93 bc 0f 44 08 3d
       -0.010127725 0.038701013 -0.017952168 0.03326803
000250 f0 0a 1e bd 1b a0 68 3d 29 c6 1e bd 48 d1 02 bc
       -0.03858465 0.056793313 -0.0387632 -0.007984467
000260 79 d5 4c bd 1c 00 87 3c 8b 0b f2 3c 81 65 ce 3c
       -0.05000827 0.016479544 0.02954652 0.025194885
000270 d5 4b 13 3d de 24 ae bc c7 e4 0d 3d a4 39 08 3d
       0.03596099 -0.021257814 0.034642007 0.033258095
000280 cc 21 34 3b 83 82 60 3d ef 10 72 bd 36 7c 4c bd
       0.0027485965 0.054811966 -0.05909818 -0.049923144
000290 1d cd de bc e4 f6 d2 bb 57 fe 23 3d a6 b5 86 3c
       -0.027197415 -0.006438123 0.04003748 0.016444039
0002a0 56 c3 1b bd c6 32 2e 3d b6 be 1c bd 10 97 26 bc
       -0.038028084 0.04252889 -0.038267814 -0.010167852
0002b0 7c 9a 69 bd 8d eb 57 bd 21 13 13 3d 62 fc 6a 3d
       -0.057032093 -0.052714873 0.035906915 0.057369597
0002c0 b3 35 d7 bc bb 8b 25 3d 61 10 c5 3c ea 64 6b 3d
       -0.026270723 0.04041646 0.024055662 0.057469286
0002d0 20 ad 17 bd 6e 25 2c bd 4e b5 35 3b 31 0e 39 3d
       -0.03703034 -0.042027883 0.0027726474 0.04517955
0002e0 16 c2 13 3d b2 64 62 bd 4a dd 56 ba f8 12 48 3b
       0.036073767 -0.05527181 -0.0008196427 0.0030528884
0002f0 af b4 45 3d b0 c3 54 3c 2e 6e c9 b8 b1 ad 15 bc
       0.048268016 0.012986109 -9.6049494e-05 -0.00913565
000300 62 cd 3f 3d 09 c7 28 3d 63 b2 8d 3c b9 b3 f6 bc
       0.046826728 0.04120544 0.017296975 -0.030114995
000310 d8 b1 47 3c a9 5e 12 bd a3 b9 f8 3a fa 7b 5f 3d
       0.012188397 -0.035734806 0.0018976222 0.054561593
000320 74 3e 47 3d 78 6c 66 3d 2d 0f 4c 3c b0 f0 2b bd
       0.048643544 0.056255788 0.01245479 -0.041977584
000330 48 cc ac bc f9 a2 4a bd f2 03 34 3d f0 7e 42 3a
       -0.021093503 -0.04947183 0.043949075 0.0007419428
000340 16 5c ed bb 21 30 61 bd c3 2f 19 bd 42 f5 35 bc
       -0.0072436435 -0.05497754 -0.037399065 -0.011105837
000350 85 67 60 bd 8c e9 48 3d 16 84 55 3d c2 a9 26 bc
       -0.054786224 0.049050853 0.05212792 -0.010172309
000360 b7 8a 26 3d 5b 4d 31 bd 95 85 d0 3c c8 b5 a8 bc
       0.040659633 -0.043286663 0.025454322 -0.020594493
000370 8f 3f 3f 3c 05 c6 c4 bb 55 98 8b bc d0 72 3c 3d
       0.011672868 -0.006005051 -0.017040411 0.04600793
000380 3f 92 17 bc 56 94 5a 3d 8e 22 d8 3b af 8a 8b 3c
       -0.009251176 0.05336412 0.006595916 0.017033903
000390 2c af 5e 3d d4 0a 36 bd 47 4d 67 3d 6d c1 7e bd
       0.054366276 -0.04444392 0.05647018 -0.062196184
0003a0 61 9e 63 bd e1 fe 56 bc 01 56 07 3d 30 70 56 bd
       -0.055570964 -0.013122291 0.033041004 -0.052353084
0003b0 2d 63 4a bd 42 a4 6c 3c da 84 e0 bc 83 d3 ff 3c
       -0.049410988 0.014443459 -0.027407099 0.031228786
0003c0 cb 8d 62 3d ce fb 83 bc 1d 0d e2 bc 0d 93 ba 3c
       0.055311006 -0.01611128 -0.027594144 0.022775197
0003d0 72 3b 6b 3c b4 27 60 bd 23 61 40 3c 1b a0 76 3d
       0.014357435 -0.054725364 0.011741909 0.060211282
0003e0 10 8a 5e bd 98 c5 37 3d 9e 24 0f 3d 92 8e 22 bd
       -0.054330885 0.044866174 0.03494703 -0.039686747
0003f0 75 98 5c 3d fb 76 88 3c 91 5c a1 3c d3 58 d7 bc
       0.05385633 0.016658297 0.01969746 -0.026287472

actor_mean.2.weight f4 [4, 256]
000000 39 74 3a 3d de 8e 3b bd ac dd 6c 3c 62 59 b9 3c
       0.045520995 -0.045790546 0.014457148 0.022625629
000010 55 2f 80 3d 8a df 83 3d a5 6f 8e 3d 37 73 16 bd
       0.06259028 0.06439121 0.06954888 -0.03673097
000020 e8 55 a1 bc 8a a1 30 bd fd cf 52 bd f7 e3 83 bd
       -0.019694284 -0.043122806 -0.051467884 -0.06439965
000030 4e 59 4e 3d c2 cf dd 3c 6d 76 14 3d 2f 32 80 3d
       0.050378136 0.027076606 0.036245752 0.06259572
000040 f5 ab 3a bd 5e ff 44 bd c6 8c a9 3c 46 95 09 3c
       -0.045574147 -0.0480951 0.020697009 0.008397406
000050 89 6f 20 3c e8 61 92 bc 99 83 c9 bc 6b 22 20 3d
       0.009792217 -0.017868951 -0.024598883 0.039095324
000060 f2 86 86 3c 50 a2 9f 3c 69 47 63 bd 0f a3 4c bd
       0.016421769 0.019486576 -0.055488024 -0.049960192
000070 95 59 03 bc 29 e9 8d 3c 83 36 5f 3d 4c 37 5d ba
       -0.0080169635 0.017323093 0.054495346 -0.0008438721
000080 cf eb 55 3d 00 da 2a bd bd 69 b8 b9 18 90 15 bd
       0.052226838 -0.041711807 -0.00035173996 -0.03651437
000090 86 0d 6d bd 55 b0 84 3d a8 6e 6a 3d 7f ed 35 bc
       -0.057874225 0.06478945 0.057234436 -0.011103987
0000a0 2d 5b 3f 3c 8f 64 48 3d 9d 76 4c 3d 86 e1 6a bd
       0.011679453 0.048924025 0.049917806 -0.057343982
0000b0 fb 94 27 3c e8 ec 17 bd 21 33 b4 bc 15 d5 95 bc
       0.010228391 -0.037091166 -0.021997036 -0.018290082
0000c0 19 b1 ad bc e5 e5 48 3c 5b f4 73 3d f9 45 4f 3b
       -0.02120261 0.012261842 0.059559207 0.00316274
0000d0 7f 8e ec 3c b9 28 29 bd 21 b0 75 bd 9b 3f 1b 3d
       0.028876541 -0.0412986 -0.059982423 0.037902456
0000e0 e8 84 2c bd 82 44 16 bd 09 59 09 3c af eb b7 3c
       -0.042118937 -0.036686428 0.008383044 0.02245125
0000f0 6c f8 70 bc 45 df 86 bd 4f 36 0f bc d5 be d0 bb
       -0.014707666 -0.06585554 -0.0087409755 -0.006370405
000100 44 ed dc 3c 28 27 67 bd 3d ad ea 3b f2 7d 61 bd
       0.026968606 -0.056433827 0.007161765 -0.05505175
000110 b9 f4 1e 3d 59 f1 91 3d 48 47 22 bd 17 c7 4d bd
       0.038807604 0.071261115 -0.03961876 -0.050238695
000120 6b 75 c8 bb b6 55 ba 3c 68 26 7f 3b 6d 6f 5c 3d
       -0.006117513 0.022745948 0.0038932804 0.0538172
000130 5a 06 83 3d 96 ed 22 3d 8c 88 f0 bb 9f ec 53 3d
       0.06397696 0.03977736 -0.0073404964 0.05173933
000140 59 23 82 3b 38 1e 4f bb 07 55 89 3d 98 8b a6 3c
       0.003971499 -0.0031603705 0.06705671 0.020330235
000150 4a cd 43 bd c7 30 8d 3c 75 5a 36 3d 1e 22 5f 3d
       -0.0478032 0.017235173 0.04451986 0.054475896
000160 e9 c8 4c 3d 84 7e 61 bc 75 0f f5 3c 69 ab 7e bd
       0.04999629 -0.013763074 0.029914597 -0.06217519
000170 f6 7a 20 3d 80 d1 c3 bc e2 ff 34 bc 73 00 68 3d
       0.039179765 -0.023903608 -0.011047335 0.056641053
000180 3a 14 5b 3d 42 f6 80 3d 51 43 27 3b a6 9c e6 3c
       0.053486086 0.0629697 0.0025522301 0.028150868
000190 ab 99 14 3d 44 e6 71 bc 38 24 c0 bc bc d3 b9 bc
       0.03627936 -0.014764372 -0.02345477 -0.02268397
0001a0 3b 14 c6 bb 62 48 26 bd ce 87 32 bd 78 17 bf 3c
       -0.006044892 -0.040596373 -0.043586545 0.02332662
0001b0 a7 0e 31 bc 90 ca 1a 3d 7e 17 72 3c a5 3f c8 3c
       -0.010806716 0.037790835 0.014776109 0.02444441
0001c0 50 e1 d9 bc b3 21 e1 3b 1d 10 3c 3b 48 5a a6 bb
       -0.026596695 0.0068704723 0.0028696128 -0.0050766803
0001d0 0b 1f 40 bd 16 98 3a 3c 4f 0d 18 bd 89 fe 2b 3d
       -0.046904605 0.011388799 -0.037122067 0.04199079
0001e0 c7 19 52 3c 19 1c 8f 3c 2b 7f 4a bd 05 9c 34 3c
       0.012823529 0.017469453 -0.049437683 0.011023526
0001f0 76 21 e1 bc 36 ec 15 3d db 28 0a bc 69 3d 86 3c
       -0.027481776 0.03660222 -0.008432592 0.016386705
000200 95 f2 79 3d 6e 84 8b bd 5d e2 65 3c d1 dd 5c bd
       0.06102236 -0.06812368 0.01403102 -0.053922478
000210 81 78 04 bd 81 98 0c 3d 89 28 21 b9 29 82 28 3d
       -0.032341484 0.034325127 -0.00015369257 0.041139755
000220 67 8a 5e 3d 8c 48 94 bc 5e 57 1e bc a9 1d 05 3a
       0.05433121 -0.018101 -0.009664385 0.0005077967
000230 42 51 dd bc a2 c0 2a 3d e2 e0 59 3d 98 17 7c 3c
       -0.027016286 0.041687615 0.05319298 0.015386485
000240 47 c2 6e 3d 00 15 a3 3b 0c 4a 2b bc 83 04 1d bd
       0.058290746 0.0049768686 -0.010454666 -0.03833438
000250 06 2c e0 bc d2 6d f6 bb 1d 32 5e 3d 71 2b 66 bd
       -0.027364742 -0.007520416 0.05424701 -0.056193773
000260 ed 10 22 3d 22 58 6a bd bf 8f 34 bd 8a 0b 30 bd
       0.039566923 -0.057212956 -0.0440824 -0.042979755
000270 30 fc bf 3c 1c 5f 25 3d 38 fa 73 3d f1 7b 62 3c
       0.023435682 0.040373906 0.0595648 0.013823495
000280 f0 be 29 bd bc 5f 85 bd af a4 b0 bc 12 42 15 3d
       -0.041441858 -0.065124005 -0.021562902 0.036439963
000290 6c 1b e2 bb 9d cb 0f 3d 0f 42 45 3c fd 2c 00 bd
       -0.0069002416 0.03510629 0.012039675 -0.031292904
0002a0 ab 9d 08 3d dd f9 b1 bc 07 ed 66 bd 26 87 5d 3d
       0.03335349 -0.02172559 -0.05637839 0.054083966
0002b0 de a7 17 bd 8f 37 52 bc e9 42 7d 3d d1 c5 47 bd
       -0.037025325 -0.012830629 0.06183139 -0.048772637
0002c0 87 e1 83 3d d2 6c 34 bc e1 3d 30 3d fb e0 d5 ba
       0.064395 -0.011012273 0.043027762 -0.001631766
0002d0 00 0b 17 bd ff 25 3c 3d 35 ba 3a 3d 05 04 61 3d
       -0.036875725 0.045934673 0.045587737 0.054935474
0002e0 24 33 77 3d 84 1b c1 bc 89 f0 aa bc fe db 35 bd
       0.060351506 -0.02357269 -0.02086665 -0.044399254
0002f0 dd 12 8d 3d 1d 29 10 bc e6 87 20 3c 36 11 bf bc
       0.068883635 -0.008798865 0.009798026 -0.023323637
000300 04 60 f1 bb 65 51 4d 3b f4 81 63 bc c8 2c bb 3c
       -0.0073661823 0.0031329032 -0.013885964 0.022848502
000310 c0 87 5e 3d df 79 66 bd 17 3f 5b 3d 59 54 9b bb
       0.05432868 -0.05626857 0.053526964 -0.0047402796
000320 25 16 98 3b 9d 01 59 bd 9a 4c e0 3c d4 14 47 bd
       0.0046413117 -0.052980054 0.027380276 -0.048603848
000330 32 ff 45 bd b0 35 5a bd 9b 74 3d bd c2 ff 8f 3c
       -0.048339076 -0.053273857 -0.04625378 0.01757801
000340 8c 2c 5d 3d fa 71 ac bb eb 59 1b bd f7 14 05 3d
       0.05399756 -0.0052626105 -0.03792755 0.032490697
000350 b8 0f 5d bc be 3c 4c bd c4 30 67 bc d7 3b a0 bb
       -0.013492517 -0.049862616 -0.014110748 -0.004889946
000360 bb 2f c9 bc 26 97 ed bb 0c 1b f8 bc de fc 28 3d
       -0.024558892 -0.0072506843 -0.030286334 0.041256778
000370 94 74 0b bc 8c b5 25 3c d7 24 57 3d 32 21 59 bc
       -0.008511681 0.010114085 0.052525368 -0.013252543
000380 37 1b 4c 3c 7f d3 22 3d c5 c8 22 bd f5 a2 ea bc
       0.01245766 0.03975248 -0.03974225 -0.028642157
000390 40 20 90 bc d3 8d 89 bb 16 b0 5e bd e4 8d 75 bd
       -0.017593503 -0.004197815 -0.054367147 -0.05994977
0003a0 cc de 71 3d 3d 2f 05 bd 58 9a 81 bc c6 7c 29 bd
       0.059050366 -0.032515753 -0.015820667 -0.04137876
0003b0 c3 6f 2d 3d f4 f3 fb 3c 7b b2 95 bc f7 24 68 bc
       0.042342912 0.030755974 -0.018273583 -0.014168969
0003c0 4a 24 b6 bc e2 df 0c 3c 71 53 47 3d 77 9a ad b9
       -0.0222341 0.0085983 0.04866356 -0.00033112217
0003d0 72 eb d8 bc 96 9d 74 bc d5 80 6a bd 95 1a 71 bd
       -0.026479457 -0.01493015 -0.05725177 -0.05886324
0003e0 19 b9 b2 3c 42 ae 3c 3d 18 25 f8 3c 16 f3 12 3c
       0.021816777 0.046064623 0.030291125 0.008969089
0003f0 42 37 06 3d 7f 04 26 3d bd e2 6c 3d cf bd 2f 3d
       0.03276754 0.04053163 0.057833422 0.042905625

actor_mean.2.bias f4 [4]
000000 28 52 23 3c 2d e1 23 3d 49 be 8c 3c 16 a8 28 3d
       0.009968318 0.040009666 0.017180579 0.041175924
