best_model_episode_700.pth (torch, 561686 bytes, 10 tensors)

actor_log_std f4 [4]
0	0xbffb7681	-1.964554
1	0xc016e6e0	-2.3578415
2	0xbff124aa	-1.8839314
3	0xbfd51e21	-1.664982

shared.0.weight f4 [256, 24]
0	0x3d6647ff	0.056221005
1	0x3f2018b3	0.6253769
2	0xbee74a6b	-0.45173964
3	0x3ed9f0d0	0.42566538
4	0xbe341845	-0.17587383
5	0x3e077988	0.13229954
6	0xbdde2061	-0.108460195
7	0xbc716303	-0.014733079
8	0x3cb1db3c	0.021710984
9	0xbe5bbf05	-0.21459587
10	0xbc3d61b7	-0.011558942
11	0x3e10f96f	0.14157651
12	0x3e96e133	0.29468688
13	0x3db349ee	0.08754335
14	0x3d69bb10	0.057063162
15	0xbdca19d0	-0.098682046
16	0x3d80c616	0.06287782
17	0xbda19395	-0.07889477
18	0xbe560e19	-0.20903815
19	0xbd7325ab	-0.059362095
20	0xbe4ada1f	-0.19809769
21	0xbe3267c6	-0.17422399
22	0xbe2a5ad0	-0.16636205
23	0x3de1f65e	0.11033319
24	0xbf3e2dc3	-0.74288577
25	0x3d6d2293	0.0578943
26	0xbefaf594	-0.49015486
27	0xbe595c6d	-0.21226664
28	0x3e717287	0.23578845
29	0xbf0741dc	-0.5283487
30	0x3e719019	0.23590125
31	0xbe7dd179	-0.24786939
32	0xbd0e22a2	-0.034700997
33	0xbe51db2d	-0.20493765
34	0xbe412340	-0.18861103
35	0xbd4d63c6	-0.05014398
36	0xbdbf9432	-0.09354438
37	0xbc2ec03b	-0.0106659485
38	0xbd9cea0f	-0.07661831
39	0xbe203994	-0.15646964
40	0xbcd219da	-0.025647093
41	0xbe016158	-0.1263479
42	0x3ca5f52e	0.020258512
43	0x3e01e66a	0.12685552
44	0x3d88f9bb	0.06688257
45	0xbe4486ed	-0.19192095
46	0x3cdf9517	0.027292771
47	0xbc194f87	-0.00935734
48	0x3eb22bcc	0.3479904
49	0xbe8907e2	-0.26763827
50	0x3e80b182	0.25135428
51	0x3d56999b	0.052392583
52	0xbe7638a6	-0.24045047
53	0x3a74f73b	0.00093447015
54	0x3d428580	0.047490597
55	0x3d9ae9c4	0.075641185
56	0x3d6c5efc	0.05770777
57	0x3d00de36	0.031461917
58	0x3da3c4d0	0.079965234
59	0xbd7e0a04	-0.06202127
60	0x3cbeaff7	0.023277266
61	0xbdb344f0	-0.08753383
62	0xbcd7eebf	-0.02635896
63	0xbe13ecfb	-0.1444587
64	0xbbc4f657	-0.0060108113
65	0xbdeed990	-0.116625905
66	0x3dabcbf3	0.083885096
67	0xbe67ae7b	-0.22625153
68	0xbe77b34a	-0.24189487
69	0xbdf749b5	-0.120746054
70	0x3e6951bd	0.22785087
71	0x3e256f99	0.16155852
72	0x3d936b54	0.071982056
73	0xbe9d3077	-0.30701038
74	0xbe019fcd	-0.12658615
75	0xbf003617	-0.50082535
76	0xbe009df3	-0.12560253
77	0x3c217634	0.009854842
78	0x3e94e8d9	0.290839
79	0xbcd4500b	-0.025917074
80	0xbe80458e	-0.25053066
81	0xbed3ac4a	-0.41342384
82	0x3dceb5a4	0.10093239
83	0xbd42f745	-0.047599096
84	0xbbb18b51	-0.005418219
85	0x3dbbf74e	0.09178029
86	0x3e244b5f	0.16044377
87	0xbde1fb3e	-0.11034249
88	0xbd5e055e	-0.054204337
89	0x3de52081	0.1118784
90	0x3dc9177c	0.098189324
91	0x3c30c107	0.010788209
92	0x3e48b74a	0.19601169
93	0x3e954ea6	0.29161566
94	0xbe2cd425	-0.16877802
95	0xbe420de0	-0.18950605
96	0x3ed42294	0.4143263
97	0xbc7d7052	-0.015468674
98	0xbd9ce14b	-0.07660159
99	0xbe77533b	-0.24152844
100	0xbe2b5e4d	-0.16735192
101	0xbbef45bd	-0.0073020146
102	0xbe374714	-0.17898208
103	0xbe27a224	-0.16370445
104	0xbd82d081	-0.06387425
105	0xbe27e50e	-0.16395971
106	0xbedb3155	-0.42811075
107	0xbea48e43	-0.32139787
108	0xbe9378cd	-0.288031
109	0x3de7a2e1	0.113103636
110	0x3e8560f0	0.2605052
111	0x3dc03a87	0.09386163
112	0x3deee69d	0.1166508
113	0xbe0ef71b	-0.13961451
114	0xbdab39d4	-0.08360639
115	0xbc5d640d	-0.0135126235
116	0x3daf10b0	0.08548105
117	0xbe1370cf	-0.14398502
118	0xbd4945cb	-0.049138825
119	0xbd852189	-0.06500537
120	0x3c4156bb	0.011800463
121	0x3cfbaa1a	0.03072076
122	0x3e4d6bb7	0.20060621
123	0xbdf5a642	-0.11994602
124	0xbe58f487	-0.2118703
125	0xbe60a936	-0.21939549
126	0xbdc063ef	-0.09394061
127	0x3df9de12	0.1220056
128	0x3dc272c0	0.09494543
129	0xbdc1e185	-0.094668426
130	0x3e13327e	0.1437473
131	0x3d5b87fb	0.053596478
132	0xbe41421a	-0.18872872
133	0x3e4ef54b	0.2021076
134	0xbde3b2ee	-0.111181125
135	0xbe064a9b	-0.13114397
136	0xbe6538de	-0.22384974
137	0xbe865cf1	-0.26242784
138	0xbba012b6	-0.004885043
139	0xbdf5fd15	-0.12011162
140	0xbc9b2750	-0.018939644
141	0xbe62bc10	-0.22142053
142	0x3e3a14bf	0.18171977
143	0xbd8fa279	-0.07013411
144	0xbdbefe74	-0.09325877
145	0xbf11b308	-0.56913805
146	0x3d20de38	0.039274424
147	0x3e99e825	0.30059925
148	0x3eabcac4	0.33553135
149	0xbd9703f0	-0.07373798
150	0xbe08f783	-0.13375668
151	0xbe04784c	-0.12936515
152	0x3d05b1ea	0.032640375
153	0xbe9e5502	-0.3092423
154	0x3ddb3ff4	0.107055575
155	0xbeb46706	-0.3523485
156	0x3d8152c5	0.06314615
157	0x3d8ffd4f	0.07030737
158	0x3c88ba2e	0.01669034
159	0xbe2c5d99	-0.1683258
160	0x3df739c7	0.12071567
161	0xbcc67af0	-0.024228543
162	0xbd48ca2a	-0.049020924
163	0xbe8a1e8a	-0.26976424
164	0xbc8e8d0c	-0.01740124
165	0xbe1aacb4	-0.15104944
166	0xbe144793	-0.14480428
167	0x3e4792c9	0.19489588
168	0x3e34d020	0.17657518
169	0x3cc03e78	0.023467287
170	0xbe6549f2	-0.22391489
171	0xbe42b3b0	-0.19013858
172	0x3e0d700e	0.13812277
173	0xbe3617f6	-0.17782578
174	0xbe06c5fc	-0.13161463
175	0xbdc4b1fa	-0.09604259
176	0xbe8906b6	-0.26762933
177	0xbdd9e226	-0.106388375
178	0x3df0578c	0.11735448
179	0xbdf48cf4	-0.11940947
180	0x3c9a35c4	0.018824466
181	0xbb9df514	-0.0048204754
182	0xbd569f35	-0.052397925
183	0xbe26ff01	-0.16308214
184	0x3c87d354	0.016580261
185	0x3c964af9	0.018346297
186	0xbc4de84a	-0.012567589
187	0xbdff8a0c	-0.12477502
188	0xbe0f7a38	-0.14011467
189	0xbd6bbfa5	-0.057555813
190	0xbdc96369	-0.09833414
191	0xbd17dfee	-0.03707879
192	0x3e5bf323	0.21479468
193	0x3fba2538	1.4542608
194	0xbf267006	-0.65014684
195	0x3f44ad6c	0.7682712
196	0x3db5f3e3	0.08884408
197	0x3d4832d3	0.048876595
198	0xbc184a11	-0.009295003
199	0x3cd0e3fe	0.02549934
200	0x3a86802f	0.001026159
201	0xbdfc1cd6	-0.123101875
202	0x3d8b63fa	0.068061784
203	0xbe41a8d8	-0.18912065
204	0xbc4ec52b	-0.012620251
205	0xbeac0e59	-0.33604696
206	0xbe0d021e	-0.13770339
207	0xbe60c7af	-0.21951173
208	0xbdf9b829	-0.12193329
209	0x3bc7e4a1	0.0061002527
210	0x3d955ec4	0.07293466
211	0x3d521778	0.051291913
212	0xbe3cce94	-0.18438178
213	0xbe378a23	-0.17923789
214	0xbd55d09e	-0.052200906
215	0x3e5490c2	0.20758346
216	0x3dfd344b	0.1236349
217	0xbed5d91e	-0.4176721
218	0xbe6eee19	-0.23333015
219	0xbe7f7119	-0.24945487
220	0x3dda724e	0.10666333
221	0x3d8f6376	0.070013925
222	0xbd8f8b60	-0.070090055
223	0x3db23cc9	0.08703
224	0xbe74d0e1	-0.23907806
225	0xbe4df358	-0.2011236
226	0x3deb0e96	0.114773914
227	0xbce48553	-0.027895605
228	0xbdc3b79c	-0.09556505
229	0xbea2d460	-0.31802654
230	0xbe5221ab	-0.20520656
231	0x3de23261	0.11044765
232	0x3d60c213	0.054872584
233	0x3e039e77	0.12853418
234	0x3d8613f7	0.06546777
235	0x3c3ef277	0.011654488
236	0xbd5323ca	-0.051547803
237	0xbe78a1c9	-0.24280466
238	0xbea9aace	-0.33138126
239	0xbe81c2d0	-0.25343943
240	0x3ebb8ce5	0.36630931
241	0x3f089f37	0.5336794
242	0xbeaa4fa9	-0.332639
243	0xbed541c1	-0.4165173
244	0x3dbcb0fb	0.09213444
245	0xbd97ea95	-0.0741779
246	0xbdbb5471	-0.09146965
247	0x3b1ca76f	0.002390351
248	0x3daab881	0.083359726
249	0x3dcefa12	0.10106291
250	0x3d3db871	0.046318475
251	0xbe3a8855	-0.18216069
252	0x3d0608ba	0.032723166
253	0xbdad5d9c	-0.0846512
254	0xbde192fe	-0.11014365
255	0xbe7b241c	-0.24525493

shared.0.bias f4 [256]
0	0xbe2ce9d3	-0.16886072
1	0x3cfebed2	0.03109685
2	0x3c83d2f9	0.01609181
3	0x3dc08152	0.09399666
4	0xbe121882	-0.14267161
5	0x3da8b9f1	0.082385905
6	0x3df0dc21	0.11760736
7	0x3d6cc45b	0.057804447
8	0xbcfafb00	-0.030637264
9	0x3e405d46	0.18785581
10	0xbe2575ab	-0.16158168
11	0x3ed2d6bc	0.41179454
12	0x3e3e03f2	0.18556193
13	0x3e28024b	0.16407125
14	0x3e54442f	0.20729135
15	0x3e1eea35	0.1551903
16	0x3e4a7152	0.19769791
17	0x3db388fb	0.08766361
18	0xbe9312b5	-0.2872521
19	0x3e09af72	0.13445833
20	0x3e869cb6	0.26291436
21	0x3d60b640	0.054861307
22	0x3c6c88de	0.014436929
23	0xbbb3b086	-0.0054836897
24	0x3e39698d	0.1810667
25	0x3e4e1cde	0.201282
26	0xbc62a65a	-0.013833607
27	0x3e91cc5d	0.2847623
28	0x3dc62807	0.09675603
29	0x3d9f6f2b	0.077848755
30	0x3e815574	0.25260508
31	0x3bc70490	0.006073542
32	0xbd939540	-0.072062016
33	0x3e10a6c8	0.14126122
34	0x3e10347a	0.14082518
35	0x3e106f14	0.14104873
36	0xbd446974	-0.04795213
37	0x3e111c81	0.1417103
38	0xbdfa20c7	-0.12213283
39	0x3e24a7cf	0.16079639
40	0xbe03b1ca	-0.1286079
41	0x3e1067f2	0.14102152
42	0x3e8bce0e	0.27305645
43	0xbd970e26	-0.073757455
44	0xbd63095e	-0.055428855
45	0xbd26c3c5	-0.040714044
46	0x3d9d586c	0.07682881
47	0x3eb29fc7	0.34887525
48	0xbd99c575	-0.07508365
49	0xbdc13b33	-0.094351195
50	0xbe026228	-0.12732756
51	0x3c8c9678	0.017161593
52	0xbdd2f0fb	-0.102998696
53	0xbda18c63	-0.07888105
54	0x3e8339c7	0.25630018
55	0x3e846f29	0.25866058
56	0x3e05ef30	0.13079524
57	0x3e64a2fd	0.223278
58	0xbcb3e876	-0.021961432
59	0x3dbfdc40	0.09368181
60	0xbe4be4b6	-0.19911465
61	0x3e81e6ab	0.25371298
62	0xbd29ae75	-0.04142614
63	0xbcc42c4a	-0.0239469
64	0xbda9918b	-0.08279713
65	0xbd7f8fe5	-0.062393088
66	0xbe240356	-0.16016898
67	0xbe44be6a	-0.19213262
68	0xbe40b2bd	-0.18818183
69	0xbe6cd773	-0.23129062
70	0x3cc37539	0.023859607
71	0xbe181f39	-0.1485566
72	0x3e358d2d	0.17729636
73	0x3dd135f2	0.102153674
74	0xbe106cb3	-0.14103965
75	0xbe637ebd	-0.22216316
76	0xbe1e43e4	-0.15455586
77	0x3dcf962c	0.10136065
78	0x3ea1be46	0.3159048
79	0x3d67356a	0.056447424
80	0x3e2f48bb	0.17117588
81	0x3dd57036	0.10421793
82	0xbe3c19b1	-0.18369175
83	0xbd65cc4b	-0.056103032
84	0xbdc4f633	-0.09617271
85	0x3dbe6bcb	0.092979036
86	0xbbbbb052	-0.005727806
87	0x3e66e113	0.22546797
88	0xbd6165dc	-0.05502878
89	0xbd9af2fc	-0.07565877
90	0x3e22461d	0.15847059
91	0x3e1cf1bd	0.15326591
92	0xbcba8f72	-0.022773478
93	0xbe51fdf8	-0.20507038
94	0x3e67ebdc	0.22648567
95	0xbe1dbf91	-0.15405108
96	0xbd133d79	-0.035947297
97	0x3e354050	0.17700315
98	0x3d2badc6	0.04191377
99	0xbd004da5	-0.031324048
100	0xbe01b075	-0.1266497
101	0x3ea8dfa6	0.3298313
102	0x3d876c0e	0.06612407
103	0x3e5dcb89	0.21659674
104	0x3de61060	0.11233592
105	0xbe2c9adf	-0.16855954
106	0xbda69142	-0.081331745
107	0x3e3c66fb	0.18398659
108	0xbe29cf1a	-0.16582909
109	0xbda57717	-0.08079355
110	0x3e9e118d	0.30872765
111	0xbe345b9f	-0.17613076
112	0x3c08f32e	0.00835876
113	0x3aa3ddab	0.0012501975
114	0x3dd1e2a2	0.10248305
115	0x3ddc64c6	0.107614085
116	0xbdf97e19	-0.12182254
117	0xbd9e434c	-0.077276796
118	0x3e430606	0.19045267
119	0xbde0eefd	-0.109830834
120	0x3e68e121	0.2274213
121	0x3e0225c6	0.12709722
122	0xbda0278a	-0.078200415
123	0x3d664e5f	0.056227084
124	0xb9fefbd8	-0.00048634293
125	0x3e4542fb	0.19263832
126	0x3e772e52	0.24138764
127	0x3db5c947	0.08876281
128	0xbcc34a90	-0.023839265
129	0x3e3222ae	0.17396042
130	0x3ea03b59	0.3129528
131	0x3eb9c217	0.3628089
132	0x3d004ca0	0.031323075
133	0x3d4e75d2	0.05040533
134	0xbd7b58b2	-0.061363883
135	0x3d7308ac	0.059334442
136	0xbe060c8e	-0.13090727
137	0xbc969795	-0.018382827
138	0x3dafede1	0.08590294
139	0x3dad5cea	0.084649876
140	0x3e47d81f	0.19516037
141	0x3e019166	0.12653121
142	0x3e43d891	0.19125582
143	0xbde7f01e	-0.113250956
144	0x3e8a96dc	0.27068222
145	0x3dc2da38	0.09514278
146	0x3d2fcd7f	0.042920586
147	0xbd226b1e	-0.039652936
148	0xbe040fef	-0.12896703
149	0xbe7b58b6	-0.2454556
150	0x3dc7f122	0.09762789
151	0x3e81a40f	0.2532048
152	0x3d1ba145	0.037995595
153	0x3d492a78	0.049112767
154	0xbe0d461d	-0.13796277
155	0xbdf0bb10	-0.11754429
156	0xbd850093	-0.0649425
157	0x3e270c22	0.16313222
158	0x3e29a2df	0.16566037
159	0xbcd49c40	-0.025953412
160	0x3e586be4	0.21134907
161	0x3d656feb	0.056014936
162	0xbd2fc3f7	-0.042911496
163	0x3e876135	0.2644135
164	0xbc922eed	-0.017844642
165	0x3e402b59	0.18766536
166	0x3dae8ec5	0.08523325
167	0x3e7029cd	0.23453446
168	0x3e65860a	0.22414413
169	0x3e7a2a51	0.24430205
170	0x3da290db	0.07937785
171	0xbd3dd288	-0.046343356
172	0x3c626e22	0.013820203
173	0xbe03d920	-0.12875795
174	0x3e68f4df	0.22749661
175	0x3e93e9d3	0.2888933
176	0x3cf33ca2	0.029691998
177	0xbd3897d3	-0.045066666
178	0x3dae6ac6	0.08516459
179	0x3da866dc	0.08222744
180	0xbe14b68f	-0.14522766
181	0xbddb65ac	-0.10712752
182	0x3d82a97b	0.06379982
183	0xbe2f961a	-0.17147103
184	0x3d721e74	0.059111074
185	0xbd350780	-0.044196606
186	0x3e069f28	0.13146651
187	0x3c99aca6	0.018759083
188	0xba967305	-0.001147837
189	0x3e806fce	0.250853
190	0x3ecab14f	0.395884
191	0x3e4a79ac	0.19772977
192	0x3dc02746	0.09382491
193	0x3d86846b	0.065682255
194	0x3e8638e0	0.26215267
195	0x3e84a309	0.25905636
196	0x3e1af0be	0.15130898
197	0x3e3af511	0.18257548
198	0x3cf483b7	0.029847963
199	0x3e4714e8	0.19441569
200	0x3e00f59d	0.12593694
201	0x3e5bfb54	0.21482593
202	0xbdbc8074	-0.09204188
203	0x3c4dc7e3	0.012559864
204	0xbe31b855	-0.17355473
205	0xbd37b392	-0.044848986
206	0xbce2a0ef	-0.02766463
207	0x3d1f05d4	0.038823918
208	0xbe26f74a	-0.16305271
209	0xbde6b68f	-0.11265289
210	0x3ea7c864	0.32770073
211	0x3d55c2d4	0.052187756
212	0x3d0f7f8a	0.03503374
213	0x3de37b9d	0.11107562
214	0xbdc241aa	-0.09485181
215	0xbd5441e1	-0.05182064
216	0xbda98b70	-0.08278549
217	0x3d233f38	0.039855212
218	0xbe4c2473	-0.1993578
219	0xbde32d36	-0.11092608
220	0x3c317725	0.010831629
221	0x3ca20b2a	0.019780714
222	0x3e83b183	0.25721368
223	0x3de5a10d	0.112123586
224	0x3e7a836c	0.24464196
225	0x3e672e12	0.22576168
226	0xbdb60703	-0.08888056
227	0xbd44e9ae	-0.048074417
228	0xbd28b744	-0.0411904
229	0xbe169ce8	-0.14708292
230	0x3d2d576d	0.042319704
231	0x3df41663	0.119183324
232	0xbe81f114	-0.2537924
233	0x3c3e5c1b	0.011618639
234	0xbe88d817	-0.26727363
235	0x3e955747	0.2916815
236	0x3dd283ac	0.10279021
237	0x3d181065	0.03712501
238	0x3e84c807	0.2593386
239	0xbc45c0a4	-0.012069855
240	0x3e4fd73c	0.20296949
241	0x3d2edbab	0.04268996
242	0x3c25425a	0.01008662
243	0x3e184a68	0.14872134
244	0x3d8133aa	0.06308682
245	0x3d2c2747	0.042029645
246	0x3da62822	0.081131235
247	0x3d7666c0	0.060156584
248	0x3e73f4a0	0.23823786
249	0x3cfa98d3	0.03059045
250	0xbd8261d3	-0.06366315
251	0x3e0384c8	0.12843621
252	0xbc4046c8	-0.011735626
253	0xbdca1dcb	-0.09868964
254	0x3e065018	0.13116491
255	0x3e88b6cc	0.26701963

actor_mean.0.weight f4 [256, 256]
0	0xbbb98e10	-0.005662687
1	0xbd7a993c	-0.061181292
2	0x3d1750da	0.03694234
3	0xbd354487	-0.044254806
4	0x3c960519	0.018312978
5	0xbbe3b4d7	-0.006949048
6	0x3d2fb7e2	0.042899974
7	0xbc72d47c	-0.014821168
8	0xbd6fd774	-0.05855508
9	0xbd951c5b	-0.07280799
10	0xbc7a7f00	-0.015289068
11	0xbd4c46e1	-0.049872283
12	0x3d097182	0.033555515
13	0xbcfe8b45	-0.031072268
14	0xbd291b0a	-0.041285552
15	0xbdc27fc3	-0.09497025
16	0xbd9d3fae	-0.076781616
17	0xbd362fb9	-0.044479106
18	0xbdd800a5	-0.10546998
19	0xbca128da	-0.0196728
20	0xbd7a0e79	-0.06104896
21	0xbc98d911	-0.018658193
22	0xbd25aa0c	-0.040445372
23	0xbd9dbfb7	-0.07702582
24	0x3d6619e2	0.056177028
25	0x3cfc69d8	0.030812189
26	0xbb09a982	-0.0021005576
27	0xbbbfa26a	-0.0058482187
28	0x3cacd271	0.02109644
29	0xbd6775b1	-0.056508724
30	0xbdc55f1c	-0.09637281
31	0x3d2c0f6e	0.042006902
32	0xbe003d93	-0.12523489
33	0x3cbda2ed	0.023148978
34	0x3b94ee66	0.004545021
35	0x3d1a3d0c	0.037655875
36	0x3d8750be	0.06607197
37	0xbdaeb1d9	-0.085300155
38	0x3ca63690	0.02028969
39	0xbdd2ff8e	-0.103026494
40	0x3b1aaec6	0.0023602708
41	0x3d44000c	0.047851607
42	0xbd28c5c2	-0.04120422
43	0x3cba18cd	0.022716904
44	0xbd1050f0	-0.035233438
45	0xbcee3977	-0.029080136
46	0x3b62725e	0.0034553031
47	0xbd9fa92b	-0.07795938
48	0xbcb35d7a	-0.021895159
49	0xbac86274	-0.001528813
50	0xbd294c73	-0.041332673
51	0x3d858de2	0.065212026
52	0x3d7736f3	0.060355138
53	0xbd963054	-0.073334366
54	0x3bbb1525	0.0057093077
55	0x3b710946	0.003677921
56	0x3d27798e	0.040887408
57	0xbd3497f1	-0.044090215
58	0x3d6f46be	0.058417074
59	0xbd8d741c	-0.06906912
60	0x3d8c65d6	0.06855361
61	0xbd8e58ef	-0.069505565
62	0xbc9411b2	-0.018074844
63	0x3c250222	0.010071309
64	0xbc30ca71	-0.010790453
65	0xbd36563b	-0.04451583
66	0x3ce8ee6d	0.028434003
67	0xbd7f6d09	-0.062359843
68	0xbd428913	-0.047494005
69	0x3c19ae7b	0.009379978
70	0x3d77f698	0.060537905
71	0x3d11e6a0	0.03562033
72	0xbd65184b	-0.05593137
73	0x3c47e9a0	0.012201697
74	0x3cc34967	0.023838712
75	0xbc9ba874	-0.019001223
76	0x3d1f92f8	0.03895852
77	0xbca653b7	-0.02030359
78	0xbd7c5c6e	-0.061611585
79	0xbcb4efac	-0.02208694
80	0xbd1e6337	-0.038668837
81	0x3cf36322	0.029710356
82	0x3d30194f	0.042992886
83	0xbd1eaa5b	-0.038736682
84	0xbc16ee44	-0.00921208
85	0x3d7030e3	0.058640372
86	0xbcfe69b7	-0.031056268
87	0xbd4c1ac8	-0.049830228
88	0x3c74017c	0.014892932
89	0x3d5bbcaa	0.05364672
90	0x3c67ba95	0.014143606
91	0xbda1162e	-0.078655586
92	0xbd618f56	-0.055068336
93	0x3d23152e	0.03981512
94	0xbc35bcc2	-0.011092367
95	0x3beafa6a	0.007170965
96	0xbc4a94d3	-0.012364584
97	0xbd85570e	-0.06510745
98	0xbc8cd1e1	-0.017189922
99	0x3d505ac4	0.05086781
100	0xbd1c9f28	-0.03823772
101	0x3caf6f69	0.02141543
102	0xbc8dc359	-0.017305063
103	0xbd983663	-0.074322484
104	0xbd5b550c	-0.053547904
105	0x3c1ffb02	0.009764435
106	0xbdbdb6ce	-0.09263383
107	0x3cd6f8f3	0.026241755
108	0xbca4d70f	-0.02012208
109	0x3bf2b4ca	0.0074068056
110	0x3b9a075e	0.0047005853
111	0x3d9bf8e5	0.07615832
112	0xbd58aafc	-0.05289744
113	0xbd980d3a	-0.07424398
114	0x3cebb051	0.028770598
115	0xbd081a1e	-0.033228032
116	0xbcb15d24	-0.021650858
117	0x3ce9ffcc	0.028564356
118	0xbccf03ad	-0.025270307
119	0xbc4adc88	-0.01238168
120	0xbdb74e1f	-0.08950447
121	0x3c8861a5	0.016648123
122	0x3d118e3a	0.03553603
123	0xbd09e311	-0.033663813
124	0xbd963b0e	-0.073354825
125	0x3ce7333e	0.028222676
126	0x3c698f1d	0.014255312
127	0xbba58467	-0.005051184
128	0x3be3eb5a	0.0069555463
129	0xbd7a19c6	-0.061059736
130	0x3d171bb9	0.036891673
131	0xbc5f407c	-0.013626214
132	0xbc402348	-0.011727162
133	0xbcc64296	-0.024201673
134	0xbd3c564a	-0.04598073
135	0x3b9a2e1c	0.0047052037
136	0x3d1d8cc1	0.03846431
137	0x3d1935ee	0.037404947
138	0xbd15508d	-0.036453772
139	0x3d5b1dd1	0.053495232
140	0x3c7167a6	0.014734184
141	0x3c81d0f3	0.015846705
142	0x3d0382b6	0.032107078
143	0xbd036e49	-0.032087598
144	0xbd35d4c5	-0.044392366
145	0xbb45930b	-0.003014746
146	0xbdbe3eac	-0.092892975
147	0x3c898dc9	0.016791241
148	0xbdccf301	-0.10007287
149	0xbd804ee7	-0.062650494
150	0xbb9ab339	-0.004721072
151	0x3a0a5ca6	0.0005278088
152	0x3d018857	0.031624164
153	0xbd4b52e0	-0.049639583
154	0xbd5ccc70	-0.053905904
155	0xbc1241d8	-0.008926831
156	0xbd73bb15	-0.059504587
157	0xbd7875ec	-0.060659334
158	0x3bd6f4ab	0.0065599284
159	0xbd559fd9	-0.052154396
160	0xbcf3ff0c	-0.029784702
161	0x3c73c943	0.0148795275
162	0x3d59c973	0.053170633
163	0xbd799925	-0.060937066
164	0x3ce384a5	0.02777321
165	0xbc6630d6	-0.014049729
166	0x3dbdc6c1	0.09266425
167	0x3d811d07	0.06304365
168	0xbd1b8d6d	-0.03797667
169	0xbc8be142	-0.017075185
170	0xbd731d7f	-0.0593543
171	0x3c9d463d	0.019198531
172	0xbd99d588	-0.07511431
173	0x3de27af7	0.1105861
174	0xbcadcd0e	-0.021215942
175	0x3d4ab0b4	0.049484923
176	0x3d00c69f	0.03143942
177	0x3d41aae1	0.047282103
178	0xbda26da6	-0.0793107
179	0xbd9c997d	-0.07646463
180	0xbda52bc0	-0.08064985
181	0xbcf566ea	-0.0299563
182	0x3d1bbb4c	0.038020417
183	0x3cb0c944	0.021580346
184	0x3d180a81	0.037119392
185	0xba407e5f	-0.00073430495
186	0x3b9377f3	0.004500383
187	0xbd705d90	-0.05868298
188	0x3d2f6bb0	0.04282731
189	0xbda9ebdf	-0.08296942
190	0xbd90b61c	-0.070659846
191	0x3c87ff45	0.016601214
192	0x3d115fc3	0.035491716
193	0xbd3c0f2f	-0.045912918
194	0x3ce1cff5	0.027564982
195	0xbceaf952	-0.028683338
196	0xbd8f5231	-0.06998099
197	0xbd133c17	-0.035945978
198	0xbcc6c886	-0.024265539
199	0xbd68f091	-0.056870047
200	0x3d2ecb6a	0.04267446
201	0xbd276960	-0.040871978
202	0xbd45c353	-0.04828198
203	0xbcdcf7f0	-0.026973695
204	0xbc3dfb4e	-0.01159556
205	0x3d0b7171	0.034043733
206	0xbd38c761	-0.045112018
207	0xbd0988d2	-0.033577748
208	0xbbe54b57	-0.0069975066
209	0x3d3b47a1	0.045722608
210	0x3c3a7f12	0.011382835
211	0xbcc01ca4	-0.023451157
212	0xbd043129	-0.032273445
213	0x3bf4f2f5	0.007475252
214	0x3c68bc8b	0.014205108
215	0x3c65ca67	0.014025307
216	0x3d264fa8	0.04060331
217	0x3ceefd0d	0.029173398
218	0x3b061577	0.0020459571
219	0x3bded84d	0.0068006874
220	0xbd54e9ad	-0.051980663
221	0xbd33ac77	-0.043865647
222	0xbda2f825	-0.07957486
223	0xba53f39a	-0.00080853107
224	0xbd4ddde9	-0.05026046
225	0x3df61c19	0.12017078
226	0xbd8c5267	-0.068516545
227	0xbd7c3e1a	-0.061582662
228	0x3cb87323	0.022515839
229	0x3c770b6b	0.015078406
230	0xbd5173a0	-0.05113566
231	0xbccb8a49	-0.024846213
232	0x3bbe95e9	0.0058162105
233	0xbc337e57	-0.010955415
234	0xbcdeb82f	-0.027187435
235	0xba460a88	-0.000755467
236	0xbc85648d	-0.016283298
237	0xbc993894	-0.018703736
238	0x3ccad3b9	0.02475916
239	0xbd0ad342	-0.033892877
240	0xbd1e3ed8	-0.03863415
241	0xbb9350be	-0.004495709
242	0xbd861fee	-0.06549059
243	0x3ca2f55c	0.019892387
244	0xbd720bff	-0.05909347
245	0xbd85823b	-0.0651898
246	0xbbc9d254	-0.0061591063
247	0xbd6a659b	-0.057225805
248	0xbd27150b	-0.040791553
249	0x3cd101f7	0.025513632
250	0xbc46f1f2	-0.012142645
251	0xbd0c5408	-0.034259826
252	0x3c1bb020	0.009502441
253	0xbda00065	-0.07812575
254	0x3b45d5e6	0.0030187308
255	0xbdc35d93	-0.09539332

actor_mean.0.bias f4 [256]
0	0xbc881a0e	-0.016613986
1	0xbdada383	-0.08478453
2	0xbceedbf1	-0.02915761
3	0x3c7902d5	0.015198429
4	0x3ceb1c7d	0.028700108
5	0xbc3102ee	-0.010803921
6	0xbd17f404	-0.037097946
7	0xbdd55fbc	-0.104186505
8	0x3be81f4b	0.0070838085
9	0xbc431cf5	-0.011908759
10	0xbd144da4	-0.036206856
11	0xbd1c025f	-0.0380882
12	0x3c9adbc8	0.018903628
13	0xbd94e723	-0.07270648
14	0xbdf4e205	-0.11957172
15	0x3bdb2a6b	0.006688406
16	0xbc44d08d	-0.012012613
17	0xbd2d54a2	-0.04231704
18	0xbd350562	-0.044194587
19	0xbdd28f7c	-0.10281274
20	0xbdaaa4ec	-0.083322376
21	0xbd9e6b04	-0.07735255
22	0x3c35ea5c	0.011103239
23	0xbc7995f4	-0.0152335055
24	0xbd608919	-0.054818247
25	0xbc4f8e3e	-0.0126681905
26	0xbd887be2	-0.06664254
27	0xbe121775	-0.1426676
28	0xbd9c1e3b	-0.076229535
29	0xbd754382	-0.059878834
30	0xbd7e47c4	-0.06208016
31	0xbd492e23	-0.049116265
32	0xbdaae851	-0.08345092
33	0xbd3341c9	-0.04376391
34	0xbd972f8b	-0.07382115
35	0x3c3f73bd	0.011685309
36	0xbd2b4de0	-0.041822314
37	0x3c200200	0.009766102
38	0x3dd98dd0	0.10622752
39	0xbdbb6ad8	-0.09151238
40	0xbbc2bed4	-0.0059431586
41	0xbd917063	-0.07101514
42	0xbd3180f4	-0.04333587
43	0xbc9b3188	-0.018944517
44	0x3c1ebeef	0.009689077
45	0xbc74dfd3	-0.014945942
46	0xbe1bb7df	-0.1520686
47	0xba11e39a	-0.00055652263
48	0xbd777cb3	-0.060421657
49	0xbcaee2d4	-0.021348394
50	0xbd941d9e	-0.072322115
51	0x3d44d126	0.048051022
52	0xbd811613	-0.063030384
53	0xbd29ba69	-0.04143754
54	0xbd9be178	-0.07611364
55	0xbd84140b	-0.064491354
56	0xb9876c3d	-0.0002582985
57	0xbd8698a6	-0.06572084
58	0xbcd95e75	-0.026534298
59	0xbd39f04c	-0.04539518
60	0x3c546f71	0.012966023
61	0xbd1ffe7a	-0.039061047
62	0xbdc408b3	-0.09571972
63	0xbb00ec7c	-0.0019672206
64	0xbc6da4ee	-0.014504654
65	0xbdc0338b	-0.09384831
66	0xbd3c207e	-0.045929424
67	0x3c8448f1	0.016148062
68	0xbd728483	-0.059208404
69	0xbcf9c10d	-0.030487562
70	0xbdcd82d3	-0.10034718
71	0xbdc4160a	-0.09574516
72	0xbd9b9fa4	-0.075988084
73	0x3d3295db	0.043599945
74	0xbd985bd7	-0.07439392
75	0xbc9b8a4a	-0.01898684
76	0xbd4f0aec	-0.050547525
77	0xbdf75915	-0.12077538
78	0xbdc87333	-0.097875975
79	0xbb835102	-0.0040074596
80	0xbd589810	-0.052879393
81	0xbdb6ea79	-0.08931441
82	0x3cac1623	0.02100665
83	0xbde096df	-0.109662764
84	0xbd61b1ce	-0.05510121
85	0x3d3c7cbd	0.046017397
86	0xbd81b5bf	-0.063334934
87	0xbdba0d12	-0.09084524
88	0x3cc1da11	0.023663552
89	0xbd787159	-0.06065497
90	0xbc76b2b7	-0.015057257
91	0x3bd13d88	0.006385509
92	0xbdea4703	-0.11439326
93	0x3ca7c0ac	0.020477615
94	0xbc8b3753	-0.016994154
95	0xbca7e73c	-0.020496003
96	0xbdd34e0b	-0.1031762
97	0xbd1c4307	-0.03814986
98	0xbdc9d04b	-0.09854182
99	0xbabc5120	-0.0014367439
100	0x3c3905a1	0.011292846
101	0xbe1d9c3f	-0.15391634
102	0xbcc92e47	-0.0245582
103	0xbd939a22	-0.07207133
104	0xbd54daf3	-0.05196662
105	0xbdcd3b08	-0.10021025
106	0xbdc84095	-0.09777943
107	0xbd28a933	-0.041176986
108	0xbc621db0	-0.013801023
109	0xbcbd6912	-0.02312139
110	0xbc2f4c49	-0.01069934
111	0xbcde9ee3	-0.027175372
112	0xbc762d4c	-0.015025448
113	0x3dcfb016	0.101410076
114	0xbdcad17b	-0.099032365
115	0xbd21e90b	-0.039528888
116	0x3b060d79	0.0020454808
117	0xbb931270	-0.004488282
118	0xbd40ee3d	-0.0471022
119	0x3aa92b21	0.001290653
120	0xbd36b743	-0.044608366
121	0xbda4781a	-0.0803072
122	0x3c69cf72	0.01427065
123	0xbce82b45	-0.028340945
124	0xbd40acfe	-0.04703998
125	0x3a796a6c	0.0009514454
126	0xbb169537	-0.0022977123
127	0xbd6357e9	-0.05550376
128	0xbcef8859	-0.02923982
129	0xbcf033ed	-0.029321635
130	0xbc8bbf58	-0.017059013
131	0xbca1568b	-0.019694587
132	0xbd86611a	-0.065614894
133	0xbd3b7fe3	-0.04577626
134	0xbdfe22f6	-0.12409012
135	0xbd8aa076	-0.06768887
136	0xbd13aec1	-0.03605533
137	0xbc8af8b4	-0.016964294
138	0xbd90972a	-0.07060082
139	0xbd8116d6	-0.06303184
140	0xbd0effcd	-0.03491192
141	0xbc5ba4f5	-0.013406028
142	0x3b67431b	0.00352878
143	0xbc8c134f	-0.01709905
144	0xbdb3f5e5	-0.08787135
145	0x3cc1003c	0.023559682
146	0xbd18d306	-0.037310623
147	0xbd7e63b5	-0.062106807
148	0xbd9b18b5	-0.07573072
149	0xbc1fd758	-0.009755932
150	0xbe064b01	-0.13114549
151	0xbdd6af7f	-0.10482692
152	0xbdab3a22	-0.08360697
153	0x3cb5b749	0.022182124
154	0x3c315008	0.010822304
155	0xbdc355e6	-0.09537868
156	0x3be20a6f	0.0068982164
157	0xba2cd262	-0.0006592629
158	0xbb638f99	-0.0034723042
159	0x3c546460	0.012963384
160	0xbda91948	-0.08256775
161	0x3d917b08	0.071035445
162	0xbe043e9d	-0.1291451
163	0xbd86b593	-0.06577601
164	0xbd728a25	-0.059213776
165	0x3c8ca87a	0.01717018
166	0x3cd14560	0.025545776
167	0xbda59460	-0.08084941
168	0xbca426b6	-0.02003799
169	0x3cb13bf9	0.021635043
170	0xbd69a9df	-0.057046767
171	0xbc80f775	-0.015742997
172	0xbe01cdd7	-0.12676178
173	0xbd59ce09	-0.053175006
174	0x3c56c801	0.013109208
175	0x3c65aabc	0.014017757
176	0xbd4d78b1	-0.05016393
177	0x3c92d24b	0.017922541
178	0x3bb19b6e	0.00542014
179	0x3d169d65	0.036771197
180	0xbdc9b935	-0.098497786
181	0xbc790b2a	-0.015200416
182	0xba920ac9	-0.001114213
183	0x3d020ffd	0.03175353
184	0xbb1c8a41	-0.0023886117
185	0xbd94f713	-0.07273688
186	0xbd122f7f	-0.035689827
187	0xbda7b21e	-0.0818827
188	0xbce2983a	-0.027660478
189	0xbcadb782	-0.021205667
190	0xbd5ce030	-0.05392474
191	0xbd580e3a	-0.052747943
192	0xbc35d95b	-0.011099185
193	0x3cac6ea1	0.021048846
194	0x3a6e859a	0.00090988877
195	0xbd471120	-0.048600316
196	0xbcb312c7	-0.02185954
197	0xbe0c7c8e	-0.13719389
198	0x3b27ef18	0.0025624689
199	0xbd8c2439	-0.068428464
200	0xbd107286	-0.035265468
201	0x3ca967e7	0.020679427
202	0xbda63c71	-0.08116997
203	0xbd820682	-0.063488975
204	0xbcf8a9a1	-0.030354323
205	0xbd8f7270	-0.07004249
206	0xbc83f14e	-0.016106274
207	0xbd8e3a0d	-0.06944666
208	0xbd90caaa	-0.07069905
209	0xbd877049	-0.066132136
210	0xbde2f703	-0.1108227
211	0xbd012d1b	-0.031537157
212	0xbd9ce2be	-0.07660435
213	0x3d3ea898	0.046547502
214	0x3d7e8bac	0.06214492
215	0x3c8f433e	0.017488118
216	0x3d29f798	0.04149589
217	0xbd9c91cc	-0.07644996
218	0xbbdf1ee2	-0.0068091014
219	0xbd9d5b1d	-0.07683394
220	0xbd7ecc90	-0.062206805
221	0xbd096d0b	-0.033551257
222	0xbd65e213	-0.056123804
223	0x3d0ea9a1	0.03482974
224	0xbc356a07	-0.011072642
225	0xbc016454	-0.007897455
226	0xbc5a80ad	-0.013336343
227	0x3b797216	0.0038062385
228	0x3d65b146	0.056077264
229	0xbd8133e9	-0.06308729
230	0x3d1a5b90	0.037684977
231	0xbdc6ed05	-0.09713177
232	0xbd98bab6	-0.07457487
233	0xbce12a95	-0.027486125
234	0x3d034d11	0.032055918
235	0xbd8d5ca6	-0.06902437
236	0xbd0d04f1	-0.03442854
237	0x3cdf0afb	0.027226916
238	0xbd1f471b	-0.03888617
239	0x3941f5ce	0.00018497484
240	0x3d28800d	0.041137744
241	0xbca92f45	-0.020652423
242	0xbd42b1a6	-0.0475327
243	0xbca84d72	-0.020544741
244	0xbcb6a1e8	-0.022294
245	0xbdf712f3	-0.12064161
246	0xbd4a6872	-0.049416013
247	0xbc103af0	-0.008803114
248	0xbda90e6a	-0.082547024
249	0x3d4d0569	0.050053988
250	0x3d5f589a	0.054527856
251	0xbcf7406b	-0.030182084
252	0x3d9feb60	0.07808566
253	0xbd22f5b1	-0.03978509
254	0xbd36cfe1	-0.044631843
255	0xbd4f0abf	-0.050547358

actor_mean.2.weight f4 [4, 256]
0	0x3d4e4c34	0.05036564
1	0xbd03c89b	-0.032173734
2	0x3c73a8a0	0.014871746
3	0xbd3f8771	-0.046760026
4	0x3d4384a1	0.047733907
5	0x3da280d1	0.07934726
6	0x3dba47e6	0.09095745
7	0x3e0361b5	0.12830241
8	0xbcbf130f	-0.023324518
9	0xbe48d072	-0.19610766
10	0xbe2f53a6	-0.17121753
11	0xbd6ce7de	-0.057838313
12	0x3ea7f30a	0.32802612
13	0x3cf613a3	0.03003866
14	0x3d33d540	0.043904543
15	0x3e47d766	0.19515762
16	0xbdd31fde	-0.103088126
17	0xbd3cdac9	-0.046107087
18	0x3c85e7fa	0.016345967
19	0xbaf60426	-0.0018769547
20	0x3db5c3c0	0.08875227
21	0xbe1a56d0	-0.15072179
22	0xbd8c01fa	-0.068363145
23	0x3e84dc10	0.25949144
24	0x3df4f795	0.11961285
25	0xbb3d65b5	-0.0028899733
26	0xbdf37154	-0.1188685
27	0xbf0214a5	-0.5081275
28	0xbe231785	-0.1592694
29	0x3ce8cd71	0.028418275
30	0x3e0203bf	0.12696742
31	0xbe4c228b	-0.19935052
32	0x3e413ba6	0.1887041
33	0x3e5df236	0.21674427
34	0xbbbf3c3a	-0.005836037
35	0xbcc26377	-0.02372907
36	0xbd409d30	-0.047024906
37	0x3eaf6bb4	0.34261858
38	0x3d77e028	0.060516506
39	0xbdcbd7ec	-0.09953293
40	0x3e581914	0.21103317
41	0x3d272cb0	0.0408141
42	0x3e65775e	0.22408816
43	0xbd4c9454	-0.049946144
44	0xbdbcc595	-0.09217373
45	0xbe248d09	-0.16069426
46	0xbe532e8f	-0.2062323
47	0x3dbad4b4	0.09122601
48	0xbc6e71f9	-0.01455354
49	0x3dbfdfe7	0.09368878
50	0x3d1b6ae3	0.037943732
51	0x3d211646	0.039327882
52	0x3c3b8e9f	0.011447578
53	0xbd7cb21b	-0.061693292
54	0xbceed857	-0.029155893
55	0x3cea7f73	0.028625226
56	0xbd30cc33	-0.04316349
57	0xbebd122a	-0.3692792
58	0x3d78e1f2	0.060762353
59	0xbdcad6d1	-0.09904254
60	0xbc878304	-0.016541965
61	0xbdd5d494	-0.10440937
62	0xbe1237f8	-0.14279163
63	0x3baf5885	0.0053511285
64	0x3b8d3ba7	0.0043100896
65	0xbdbbc330	-0.091680884
66	0xbb92c913	-0.0044795363
67	0xbcfe876a	-0.03107043
68	0x3d5a1eb6	0.053251944
69	0x3e169d5d	0.14708467
70	0xbe8af973	-0.2714344
71	0x3ce86d4b	0.028372427
72	0x3d6af439	0.057361815
73	0x3eaae06a	0.3337434
74	0xbe3a9886	-0.18222246
75	0x3e535e52	0.20641449
76	0x3df67cd5	0.120355286
77	0x3e32be10	0.17455316
78	0xbb2d989f	-0.0026488674
79	0xbda13721	-0.07871843
80	0x3befcbf8	0.007318016
81	0xbe5aed22	-0.21379521
82	0x3d8f8f34	0.07009736
83	0x3e88db3e	0.2672977
84	0xbe26bacc	-0.16282195
85	0x3e8e65b4	0.27811968
86	0x3d3d35d0	0.046193898
87	0x3d8bc9d3	0.06825604
88	0x3ccd3f0e	0.02505448
89	0xbe81bf87	-0.25341436
90	0x3d96a873	0.07356348
91	0xbdb6c3f8	-0.08924097
92	0x3e22a7c4	0.1588431
93	0xbca31188	-0.01990582
94	0xbd61a7be	-0.055091612
95	0x3e0b3699	0.13595046
96	0x3f119314	0.5686505
97	0x3e0f74aa	0.14009348
98	0xbda4e37a	-0.080512
99	0x3d3eee15	0.04661377
100	0x3cc6d817	0.024272962
101	0x3e22bc2a	0.15892091
102	0xbdec2281	-0.115300186
103	0x3de05d6d	0.109553196
104	0xbcdae9e5	-0.026722858
105	0xbe0c0366	-0.13673171
106	0x3c82ac96	0.015951436
107	0x3d137332	0.03599853
108	0xbc29f54f	-0.0103734275
109	0x3ce96dc0	0.028494716
110	0x3e43e866	0.19131622
111	0x3c9c12d4	0.019051947
112	0xbea2bed6	-0.3178622
113	0xbe498456	-0.19679388
114	0xbdab3cc1	-0.08361197
115	0x3bf27af2	0.00739991
116	0xbdb9e566	-0.090769574
117	0x3c9be15f	0.019028364
118	0xbe19377b	-0.1496257
119	0x3e693217	0.22773014
120	0xbc495add	-0.01228973
121	0xbd7d6919	-0.061867807
122	0xbde4379d	-0.1114342
123	0xbd7255de	-0.05916392
124	0xbc74b32f	-0.014935299
125	0x3d9f1da8	0.07769328
126	0x3ce56348	0.028001443
127	0xbd77c9b6	-0.0604951
128	0x3d395845	0.045250196
129	0xbdde792b	-0.10862955
130	0x3d766a65	0.06016006
131	0xbec7b4e1	-0.39005187
132	0x3d3ea985	0.046548385
133	0xbc0ef4f0	-0.00872539
134	0xbeacb788	-0.33733773
135	0x3d681572	0.056661077
136	0x3e0c704e	0.13714716
137	0xbdd22beb	-0.10262283
138	0xbe3ae5cd	-0.18251725
139	0x3e12ef5e	0.14349124
140	0xbc264484	-0.010148171
141	0xbb7ffc07	-0.0039060132
142	0x3e2108f7	0.15726076
143	0x3d920d1f	0.07131409
144	0x3e296f36	0.1654633
145	0x3c5d8bd5	0.013522108
146	0xbc4fa720	-0.012674123
147	0xbe9e7686	-0.309498
148	0x3c9456f1	0.018107863
149	0xbe3c95a3	-0.18416457
150	0x3e1eb6a9	0.15499367
151	0xbdc5dd2f	-0.09661328
152	0xbc8cb3c9	-0.017175572
153	0xbe1c9398	-0.15290678
154	0xbd2b9eb1	-0.041899387
155	0xbe89dbac	-0.2692541
156	0x3cc17642	0.02361596
157	0x3dc7b8e0	0.09752059
158	0x3bfbce49	0.007684503
159	0x3e396bb4	0.18107492
160	0xbe5cd5b1	-0.21565892
161	0xbea8f08e	-0.3299603
162	0xbeb6ec2e	-0.35727066
163	0x3c6af791	0.014341251
164	0xbc40a39a	-0.011757756
165	0x3c1df02f	0.009639784
166	0x3b45165f	0.0030073149
167	0xbe8d2186	-0.2756464
168	0x3d19eb64	0.037578
169	0xbdba07d1	-0.09083522
170	0xbe02dc22	-0.12779287
171	0xbd468d30	-0.04847449
172	0x3cd1589e	0.025554951
173	0xbe506391	-0.20350482
174	0x3d77a588	0.060460597
175	0xbcac3d72	-0.021025393
176	0x3d8a0843	0.06739857
177	0x3e03bc56	0.12864813
178	0x3d1636c9	0.03667334
179	0xbc975008	-0.018470779
180	0x3dc9d5d3	0.09855237
181	0x3cf45a44	0.029828198
182	0x3e50c426	0.20387325
183	0x3cacbbb9	0.021085607
184	0x3db6f48b	0.089333616
185	0xbe932772	-0.28741032
186	0xbe7a0aff	-0.24418257
187	0xbe152c8c	-0.14567775
188	0x3d716dda	0.058942653
189	0xbe58b8f3	-0.21164303
190	0xbcf8c687	-0.030368103
191	0xbd40762e	-0.046987705
192	0xbacfe556	-0.0015861194
193	0x3a1b937e	0.0005934759
194	0xbb8b2c57	-0.004247229
195	0xbdc1b3c9	-0.094581194
196	0x3e66c1b8	0.22534835
197	0xbf05d4d0	-0.5227785
198	0xbca1bb0b	-0.01974251
199	0x3e65a3da	0.22425786
200	0x3dd5e75e	0.104445204
201	0x3c829857	0.015941782
202	0xbdb42818	-0.0879671
203	0xbd566e1c	-0.052351102
204	0xbe26548f	-0.16243194
205	0xbd4a03ef	-0.049320158
206	0xbee06fd3	-0.43835315
207	0x3d572769	0.05252782
208	0x3dec2ee5	0.11532382
209	0xbd34e1a5	-0.044160504
210	0xbe0233d9	-0.12715091
211	0x3c9de400	0.019273758
212	0x3c976e04	0.018485077
213	0x3d3eeca0	0.046612382
214	0xbe6e0a9e	-0.23246238
215	0xbc96ce9a	-0.018409062
216	0xbd8e7f41	-0.069578655
217	0x3d3be5c5	0.045873422
218	0x3d9a22dd	0.07526181
219	0x3e81cb40	0.2535038
220	0xbc2d94ff	-0.0105946055
221	0x3c2bcf26	0.0104864
222	0x3b8971f0	0.0041944906
223	0xbcf73ba2	-0.030179802
224	0x3b037180	0.0020056665
225	0x3d5e814b	0.054322522
226	0xbd27b9ef	-0.040948804
227	0xbd222b28	-0.03959194
228	0x3d2e9a10	0.042627394
229	0xbd75995e	-0.059960715
230	0xbdb6e5a4	-0.08930519
231	0x3d330aaa	0.043711342
232	0x3defabab	0.11702665
233	0xbe354c27	-0.17704831
234	0xbd9a0e62	-0.075222746
235	0xbd1bdf6d	-0.038054872
236	0x3e5b1e90	0.21398377
237	0x3de67d24	0.112543374
238	0xbbc7caba	-0.006097165
239	0x3d6154aa	0.055012383
240	0xbd3359b4	-0.04378672
241	0xbe4ca3c0	-0.1998434
242	0x3d3a05c7	0.045415666
243	0x3d057e66	0.032591246
244	0x3d0e1a9b	0.03469334
245	0xbed35247	-0.4127371
246	0xbe5ff590	-0.21871018
247	0xbe3b25d4	-0.18276149
248	0x3cb23075	0.021751622
249	0x3d47ea31	0.048807327
250	0xbd17bc78	-0.037044972
251	0x3e58a772	0.21157625
252	0xbcdd4a13	-0.02701286
253	0x3e040506	0.12892541
254	0x3d5b7cce	0.05358582
255	0x3cf8a0f0	0.030350178

actor_mean.2.bias f4 [4]
0	0x3bc49b00	0.0059999228
1	0x3d3622a3	0.044466626
2	0x3c7c8cd1	0.015414433
3	0x3c77dfd2	0.0151290465

critic.0.weight f4 [256, 256]
0	0x3e6d8967	0.23196946
1	0x3e2f61ff	0.17127226
2	0xbd90ae5f	-0.07064509
3	0x3eba495f	0.36384103
4	0xbe0c55d0	-0.1370461
5	0xbd45e72e	-0.048316173
6	0xbbba3734	-0.0056828503
7	0xbd85199b	-0.064990245
8	0xbe2a4599	-0.16628112
9	0xbde543ef	-0.11194598
10	0x3e292ccd	0.16520996
11	0x3d9d6b6f	0.07686507
12	0x3d376270	0.04477161
13	0x3dd6cea1	0.1048863
14	0xbe415928	-0.18881667
15	0x3d21e8f7	0.039528813
16	0x3d9d0b54	0.07668176
17	0x3e3cebaf	0.18449281
18	0x3deb4925	0.114885606
19	0x3d8934f6	0.066995546
20	0xbcce0537	-0.025148971
21	0x3dab6885	0.08369545
22	0x3e58336b	0.21113364
23	0xbe008f16	-0.12554583
24	0xbd1a0a2e	-0.037607364
25	0x3e5ea922	0.21744207
26	0xbd13c98e	-0.03608089
27	0xbd90ac54	-0.07064119
28	0xbea1dcc1	-0.31613734
29	0xbd59db93	-0.053187918
30	0x3da36157	0.079775505
31	0x3e43903b	0.19097988
32	0x3d7b97c3	0.061424028
33	0xbdd0428f	-0.10168945
34	0x3db05aec	0.08611092
35	0x3e081e60	0.13292837
36	0xbb8224c3	-0.0039716675
37	0xbde613f4	-0.112342745
38	0xbe01c295	-0.12671883
39	0x3da3dd40	0.080011845
40	0x3db44f19	0.08804149
41	0x3e0078d3	0.12546091
42	0x3de885d8	0.11353654
43	0xbd112d21	-0.03544343
44	0x3dcb0d17	0.09914606
45	0x3e7baff0	0.24578834
46	0xbdc74558	-0.09730023
47	0xbb8d4346	-0.004310998
48	0xbe1c1cfc	-0.15245432
49	0x3e6572fd	0.22407146
50	0xbc33c913	-0.010973233
51	0x3c4a4ba0	0.012347132
52	0xbe504ff1	-0.20342995
53	0xbe13dda7	-0.14440022
54	0xbe50a3a1	-0.2037492
55	0x3cba740b	0.022760412
56	0x3e102a08	0.14078534
57	0x3e927557	0.28605148
58	0xbdaeb73e	-0.085310444
59	0x3db1fc7a	0.08690734
60	0x3e25ee4a	0.16204181
61	0x3d58f3ba	0.05296681
62	0xbdec0253	-0.11523881
63	0x3ed90189	0.42383984
64	0xbde75f92	-0.112975255
65	0xbd60495c	-0.05475746
66	0xbcf64833	-0.030063724
67	0x3d99b9b5	0.07506124
68	0x3e39b917	0.18137012
69	0x3df63d7b	0.12023445
70	0xbe4fe1c7	-0.20300971
71	0x3d209cdf	0.039212104
72	0xbe289bb9	-0.16465653
73	0xbddfe42c	-0.10932192
74	0x3c895fe2	0.016769353
75	0x3dec3d75	0.115351595
76	0xbcb7249c	-0.022356324
77	0xbd86d862	-0.065842405
78	0xbe90cb30	-0.2828002
79	0xbdde57f7	-0.10856622
80	0x3e3be0c1	0.18347456
81	0x3df4442b	0.119270645
82	0xbb99778a	-0.0046834396
83	0x3c68519c	0.014179613
84	0x3e2bd4e1	0.16780426
85	0x3cf9ef8b	0.03050973
86	0xbed0fa7e	-0.4081611
87	0xbd665cbf	-0.056240793
88	0xbe15b4d2	-0.14619759
89	0xbd066068	-0.032806784
90	0x3df87d5c	0.121332854
91	0x3ce5d387	0.028054966
92	0xbea63b07	-0.3246691
93	0xbd242506	-0.04007437
94	0x3d306414	0.043064192
95	0x3db7d47e	0.089760765
96	0xbe11d8bc	-0.14242834
97	0xbcfdcdca	-0.030981917
98	0x3d25ad3d	0.040448416
99	0x3de2684a	0.11055048
100	0x3d89c70e	0.0672742
101	0x3db322bb	0.08746859
102	0xbcac78cb	-0.021053692
103	0x3e1b5088	0.15167439
104	0x3ddd6272	0.108097926
105	0x3de8df9d	0.11370776
106	0x3ed7ea82	0.42171103
107	0xbd5ca8b7	-0.053871837
108	0xbe38226f	-0.17981885
109	0x3db94c59	0.09047765
110	0xbdd0020e	-0.10156642
111	0xbe223700	-0.15841293
112	0x3d712062	0.058868773
113	0x3d54da42	0.05196596
114	0xbe16b7ef	-0.14718603
115	0xbbfd5b2d	-0.0077318163
116	0x3e4bd637	0.19905935
117	0x3e27ce65	0.16387327
118	0x3e2be5de	0.16786906
119	0xbd5bccf0	-0.05366224
120	0x3dd1bf84	0.10241607
121	0x3d47912e	0.04872244
122	0xbd967eae	-0.07348381
123	0xbdb4879a	-0.088149264
124	0xbdf5de68	-0.12005311
125	0x3e13cb91	0.14433123
126	0x3d0d34ee	0.034474306
127	0x3cf03b0b	0.029325029
128	0xbdfbcf99	-0.122954555
129	0xbe1a7d44	-0.15086848
130	0x3e77561e	0.24153945
131	0x3d678a83	0.05652858
132	0x3e96c80e	0.29449505
133	0xbde51020	-0.11184716
134	0xbd9fd876	-0.078049585
135	0x3d6c24bb	0.057652216
136	0x3e3658a2	0.17807248
137	0xbc97330f	-0.018456964
138	0x3dc9495d	0.09828446
139	0x3ebe55f6	0.37174958
140	0x3e1abf82	0.15112117
141	0xbde120d2	-0.10992588
142	0x3e0f75b0	0.14009738
143	0xbd365ecb	-0.044523995
144	0x3e0efe2a	0.13964143
145	0x3e1722aa	0.14759317
146	0xbc762965	-0.015024518
147	0xbac02044	-0.0014658053
148	0xbd051179	-0.032487366
149	0x3d2503c2	0.040286787
150	0xbe292348	-0.16517365
151	0xbdbc4736	-0.0919327
152	0x3df13e66	0.1177948
153	0xbeaa4e14	-0.33262694
154	0x3e1ab59e	0.15108344
155	0xbcdffce2	-0.027342264
156	0x3e2dee5a	0.16985455
157	0xbe0952e7	-0.13410531
158	0x3e88d343	0.2672368
159	0xbe595ba6	-0.21226367
160	0xbd7d0ae7	-0.061777975
161	0xbe445e02	-0.19176486
162	0x3ce72c77	0.028219445
163	0xbb64b05e	-0.0034895162
164	0x3d3f6c89	0.046734367
165	0x3db54bbc	0.08852336
166	0xbdea1f37	-0.11431735
167	0xbe0842c8	-0.13306725
168	0x3ce3f9aa	0.02782901
169	0x3eb8cba4	0.36092865
170	0x3cec8453	0.02887169
171	0x3cb800a8	0.02246125
172	0x3d29fa71	0.041498605
173	0x3e668dcd	0.2251503
174	0x3d2d1ea8	0.042265564
175	0xbdf8ef12	-0.12154974
176	0x3e69fd59	0.2285055
177	0x3e1dcb9b	0.154097
178	0xbda800a0	-0.08203244
179	0xbe4206a4	-0.18947846
180	0x3d646be8	0.05576697
181	0xbe994c47	-0.29941007
182	0x3ddfae10	0.10921872
183	0xbd2f70c9	-0.04283217
184	0xbe012537	-0.12611853
185	0x3d84753e	0.06467675
186	0x3d2334c9	0.03984526
187	0x3e6bdd99	0.23033752
188	0x3ce109cd	0.027470494
189	0xbe1c3ff4	-0.15258771
190	0xbcbc49b4	-0.022984363
191	0xbd9a21bb	-0.07525965
192	0x3c3c9d1c	0.011512067
193	0x3e377cf2	0.17918757
194	0xbe503a6e	-0.20334789
195	0x3c78e7a2	0.015191944
196	0xbd30d083	-0.043167602
197	0xbda9cc20	-0.08290887
198	0x3e57694d	0.21036263
199	0x3d95dfeb	0.073180996
200	0x3e0fa62c	0.14028233
201	0xbe44a625	-0.19204004
202	0x3cbd33cb	0.023095986
203	0x3e8b19e4	0.2716819
204	0xbd2c5607	-0.04207423
205	0x3d99ae34	0.0750393
206	0xbbbe453b	-0.0058065928
207	0x3ca4a3c4	0.02009762
208	0x3e908050	0.28222895
209	0xbe22fefa	-0.15917578
210	0xbcde5b24	-0.027143069
211	0xbd918390	-0.07105172
212	0x3ddbadaf	0.10726487
213	0xbda2d496	-0.07950704
214	0xbd125f7d	-0.035735596
215	0xbe3488c1	-0.17630292
216	0xbe1e633d	-0.15467544
217	0x3d6a7e36	0.05724927
218	0xbd9fc508	-0.078012526
219	0x3c8be3e4	0.01707644
220	0xbd8c228a	-0.06842525
221	0xbdabd250	-0.08389723
222	0xbe24cfa9	-0.16094841
223	0xbe598439	-0.21241845
224	0xbe2b4d32	-0.16728666
225	0xbe708c5b	-0.23491041
226	0x3df43e02	0.119258896
227	0xbdb63f21	-0.0889876
228	0xbdbc67ef	-0.09199511
229	0xbcac42a2	-0.021027867
230	0xbda9f85c	-0.08299324
231	0x3d272521	0.040806893
232	0xbd0b3d1a	-0.033993818
233	0x3d6d7ee4	0.05798234
234	0x3b8e68b0	0.004345976
235	0xbe9322da	-0.28737527
236	0x3ddf5018	0.109039485
237	0xbe593b64	-0.21214062
238	0x3e26fc58	0.16307199
239	0xbd608f1f	-0.05482399
240	0xbdfa0733	-0.122084044
241	0x3e8878d2	0.2665468
242	0x3d1433e8	0.036182314
243	0x3d43021b	0.04760943
244	0xbde3ef7e	-0.11129664
245	0x3d9a3c12	0.07530989
246	0xbe0fef4d	-0.1405613
247	0x3db483a2	0.088141695
248	0xbdec1424	-0.11527279
249	0x3dbb48d9	0.09144754
250	0xbd26789f	-0.040642377
251	0x3d89c358	0.06726712
252	0xbc9ad377	-0.018899662
253	0x3d32adfb	0.043622952
254	0xbc4424cb	-0.011971663
255	0x3d9ef546	0.07761626

critic.0.bias f4 [256]
0	0x3d533788	0.05156663
1	0x3d81ada9	0.06331951
2	0x3e2d3093	0.16913061
3	0x3dcca5c1	0.099925525
4	0x3c087de7	0.008330799
5	0x3b75ca0e	0.0037504467
6	0x3d82a62c	0.06379351
7	0x3dd1d717	0.10246103
8	0x3de9965e	0.114056334
9	0x3dca0d17	0.09865778
10	0x3dd39d9a	0.103327945
11	0x3c00d1f7	0.0078625595
12	0x3da19950	0.0789057
13	0x3e010087	0.12597857
14	0x3c7f1d8a	0.0155710075
15	0x3dcfd07d	0.10147188
16	0xbd94500e	-0.07241832
17	0x3c402639	0.011727863
18	0x3d4e1adf	0.050318595
19	0xbcedfc9a	-0.029051114
20	0x3e4c96ac	0.19979352
21	0x3bfb8b86	0.0076765446
22	0xbb24a969	-0.002512539
23	0x3e071b07	0.13193904
24	0x3dfb583d	0.122726895
25	0x3e0af280	0.13569069
26	0xbb6ce107	-0.003614487
27	0x3bfa5127	0.0076390686
28	0x3e1010a5	0.1406885
29	0xbd3eaebe	-0.046553366
30	0x3def97b6	0.116988584
31	0x3e2f8d2f	0.17143701
32	0x3ceda741	0.029010417
33	0x3d7f27a2	0.062293656
34	0x3d7a5c47	0.06112316
35	0x3dfbc3fd	0.12293241
36	0x3e15ca01	0.1462784
37	0x3d337bf7	0.043819394
38	0x3e1cbf0f	0.15307258
39	0x3dcb05c3	0.09913208
40	0x3d4e8f5f	0.050429698
41	0x3d4d0b3c	0.050059542
42	0x3d750312	0.05981738
43	0xbd6f1329	-0.058367882
44	0x3dbd3730	0.09239042
45	0x3e00e587	0.12587558
46	0x3dfce4f0	0.12348354
47	0xbd223c96	-0.03960856
48	0xbd2938b8	-0.041313857
49	0xbd73450a	-0.059392013
50	0xbd8b0612	-0.06788267
51	0x3e06b602	0.13155368
52	0xbd35304e	-0.04423552
53	0x3d1cdb4e	0.038295083
54	0xbb14d9f8	-0.0022712927
55	0x3df655b2	0.12028064
56	0x3e006756	0.1253942
57	0x3d09577b	0.033530694
58	0x3defe675	0.11713878
59	0x3d1fd9a6	0.039025925
60	0xbd448c9b	-0.047985654
61	0x3e1659e1	0.14682724
62	0x3cc8936e	0.024484362
63	0x3e37956c	0.17928094
64	0x3e291bf4	0.1651457
65	0x3e0a31fe	0.13495633
66	0x3dcb6eac	0.09933218
67	0x3dd75f8a	0.105162695
68	0xbba46111	-0.005016454
69	0xbc9d3ad8	-0.019193098
70	0x3d03eb72	0.03220696
71	0x3e412f19	0.18865623
72	0xbb93b64f	-0.004507817
73	0x3d483bd2	0.048885174
74	0x3d29fd88	0.041501552
75	0x3df4e60b	0.1195794
76	0x3d2109ec	0.039316103
77	0x3d2613e9	0.04054633
78	0xbd97e2a0	-0.07416272
79	0x3e23e246	0.16004285
80	0x3e08b345	0.13349636
81	0x3d444af5	0.047923047
82	0x3de915b2	0.11381091
83	0x3d974693	0.07386508
84	0xbd622b30	-0.055216968
85	0x3d5fe3f5	0.054660756
86	0x3c4d9e09	0.012549886
87	0xbd4a44d3	-0.049382042
88	0x3e05e5b4	0.13075906
89	0xbd74ee00	-0.059797287
90	0x3de686c3	0.112561725
91	0x3dddc5ef	0.108287685
92	0x3d9ad41a	0.075599864
93	0xbd9b2964	-0.07576254
94	0x3e0912c3	0.13386063
95	0x3df79a9d	0.12090037
96	0xbd884b13	-0.06654944
97	0x3c2928bc	0.010324653
98	0x3db973d1	0.09055293
99	0xbdde1c22	-0.1084521
100	0x3e2dd54b	0.16975896
101	0x39076166	0.00012910887
102	0x3ddb87ea	0.10719283
103	0x3dc98c62	0.09841229
104	0x3e24ac41	0.16081335
105	0x3d357a05	0.04430582
106	0xbc8c2479	-0.017107235
107	0x3ba2009e	0.004943921
108	0x3c55a905	0.013040786
109	0x3d79750d	0.060902644
110	0xbd079fc3	-0.033111345
111	0x3c862d3d	0.016378993
112	0xbd3b29ad	-0.045694042
113	0x3dc7abfb	0.097495995
114	0x3e1141f9	0.14185323
115	0x3d41b5ef	0.047292646
116	0x3de40369	0.11133463
117	0x3e29e999	0.16593017
118	0x3dee773a	0.116438344
119	0xbd02a665	-0.031896967
120	0x3d99bdd0	0.07506907
121	0x3e13369b	0.14376299
122	0x3db1b537	0.08677142
123	0xbc998df5	-0.018744448
124	0xbd08081b	-0.033210855
125	0xbd7414b8	-0.05959007
126	0x3ddf9238	0.10916561
127	0xbc575883	-0.013143661
128	0xbcb03beb	-0.021512946
129	0x3d9951dd	0.07486317
130	0x3dc3bbfa	0.09557338
131	0x3e4e47eb	0.20144622
132	0xbd5e8b9d	-0.054332364
133	0x3c3629c4	0.011118356
134	0x3ca36519	0.019945668
135	0x3e03d3ee	0.12873814
136	0x3d551c0a	0.052028693
137	0x3d9f1e87	0.077694945
138	0x3dd96f25	0.10616902
139	0x3c008ed0	0.007846549
140	0x3d41ae43	0.04728533
141	0x3de99b04	0.1140652
142	0x3d96ab2e	0.07356869
143	0x3d63e698	0.055639833
144	0xbd85ab26	-0.065267846
145	0xbd75c4a8	-0.060002
146	0x3d813915	0.06309716
147	0x3e2b83dc	0.16749519
148	0xbc897065	-0.016777227
149	0x3c0744be	0.0082561355
150	0x3d1b5b45	0.03792884
151	0x3e33fb92	0.17576435
152	0xbc9b04c6	-0.018923175
153	0x3dc2204c	0.094788164
154	0xbd5336d8	-0.051565975
155	0x3e0e74b7	0.1391171
156	0x3e2d4786	0.16921815
157	0xbd036f46	-0.03208854
158	0x3e0d393e	0.13791367
159	0x3e033aef	0.1281545
160	0x3e1257ae	0.1429126
161	0x3db48364	0.08814123
162	0x3bddef5a	0.0067729177
163	0x3ddc6143	0.10760739
164	0x3b08e374	0.0020887526
165	0x3def2ca4	0.116784364
166	0x3e010fb6	0.1260365
167	0x3bb82696	0.005619834
168	0x3d815be7	0.06316357
169	0x3e1ddb33	0.15415649
170	0x3dbed1b8	0.093173444
171	0x3beae8f1	0.007168882
172	0x3e28bb0e	0.16477606
173	0xbccf36f1	-0.025294753
174	0xbd26ba95	-0.040705282
175	0x3be08700	0.0068520308
176	0x3dbac44d	0.09119473
177	0x3dbeec69	0.093224354
178	0x3d60a50c	0.0548449
179	0x3d8fe31a	0.07025738
180	0x3e168c02	0.14701846
181	0x3ca50115	0.020142118
182	0x3dbb281a	0.09138508
183	0x3e50ce44	0.20391184
184	0x3e1fad50	0.15593457
185	0x3d08bb54	0.033381775
186	0x3db7c831	0.0897373
187	0x3d0381fd	0.03210639
188	0xbca367c3	-0.019946938
189	0x3c99f462	0.018793289
190	0x3e16b366	0.14716873
191	0x3d8100f5	0.06299011
192	0x3d15a7bd	0.03653692
193	0x3dd34176	0.1031522
194	0xbd7ac06f	-0.061218675
195	0x3e300e0a	0.17192855
196	0xbcf3e4af	-0.02977213
197	0xbc35ab85	-0.011088257
198	0x3dbee2ef	0.09320628
199	0xbd9ac6cd	-0.075574495
200	0x3da80d1c	0.082056254
201	0x3e034654	0.12819797
202	0xbd0b594a	-0.0340207
203	0x3c900acb	0.017583271
204	0xbb9aecbd	-0.0047279284
205	0x3b2f134d	0.0026714385
206	0x3de1b960	0.110216856
207	0x3d324ffc	0.04353331
208	0x3c15a1f7	0.009132854
209	0x3d23c2d5	0.03998073
210	0xbd111764	-0.035422698
211	0x3e22cf38	0.1589936
212	0x3c71e0d9	0.0147630805
213	0xbb9b6fdc	-0.0047435593
214	0x3df9490b	0.12172135
215	0xbd4297b4	-0.047507957
216	0x3d8775d8	0.06614274
217	0x3d9ff0b3	0.078095816
218	0xbd64bfba	-0.055846907
219	0xbc8c1a0d	-0.017102266
220	0xbc2aa532	-0.010415362
221	0x3d159f21	0.03652871
222	0x3e2e99d3	0.17050867
223	0x3dc9652a	0.09833749
224	0x3d9af7ea	0.07566817
225	0x3c5f7406	0.013638502
226	0x3e285984	0.16440398
227	0x3dfc5b1e	0.12322067
228	0xbd6e6c2d	-0.058208633
229	0x3cd82e01	0.026389124
230	0x3df9c544	0.121958286
231	0x3ba4c0a0	0.0050278455
232	0xbd96a7e9	-0.07356245
233	0xbd3f127b	-0.046648484
234	0x3dd8919f	0.1057465
235	0x3dc3f86e	0.095688686
236	0xbbc12ef6	-0.0058954908
237	0x3bc3f9ef	0.005980722
238	0x3da6bb6e	0.08141218
239	0x3dbefe6a	0.093258694
240	0x3e0677f3	0.13131694
241	0x3d3eddd3	0.046598267
242	0x3e33a9fd	0.17545314
243	0x3c674d3d	0.014117536
244	0x3d357e65	0.044309992
245	0x3da885c0	0.08228636
246	0xbc0e2205	-0.008675103
247	0x3ccfa1ab	0.025345644
248	0x3daabdbc	0.0833697
249	0xbd3e1f1a	-0.04641638
250	0xbda510dc	-0.08059856
251	0x3d8c62ce	0.06854783
252	0xbd97d372	-0.07413377
253	0xbd78f53f	-0.06078076
254	0x3dda42ea	0.10657294
255	0x3db6cae6	0.089254186
