best_model_episode_200.pth (torch, 561686 bytes, 10 tensors)

actor_log_std f4 [4]
0	0xbf806a0b	-1.0032362
1	0xbf729cd1	-0.9477053
2	0xbf326f90	-0.6970148
3	0xbf5ece00	-0.8703308

shared.0.weight f4 [256, 24]
0	0x3d0c7956	0.034295402
1	0x3e8443af	0.25832888
2	0xbe6cbb90	-0.23118424
3	0x3e68cac5	0.227336
4	0xbe24e646	-0.16103467
5	0x3e08bde8	0.13353693
6	0xbe5342b2	-0.20630911
7	0x3c725cae	0.014792604
8	0x3e1d9fb4	0.15392953
9	0xbe275ed4	-0.16344768
10	0x3dad9ea4	0.08477524
11	0x3e5203bf	0.20509242
12	0x3e83f830	0.2577529
13	0x3d223f25	0.039611
14	0x3d351cac	0.044216797
15	0xbda6f0b6	-0.08151381
16	0x3dd7e32e	0.10541378
17	0xbcadc7ff	-0.02121353
18	0xbe134c29	-0.14384522
19	0x3bf4cfc5	0.007471057
20	0xbe0b81d3	-0.13623743
21	0xbd8ec321	-0.06970812
22	0xbdfba7a2	-0.12287833
23	0x3e0d87b3	0.13821296
24	0xbeccb4ee	-0.39981788
25	0xbd8618fd	-0.06547735
26	0xbec9248a	-0.3928569
27	0xbe53d495	-0.20686562
28	0x3e1011be	0.14069268
29	0xbe8b98c8	-0.27265
30	0x3e3e70fc	0.18597788
31	0xbe24e294	-0.16102058
32	0x3db49cd3	0.08818974
33	0xbd9d41eb	-0.076785885
34	0xbe06e477	-0.1317309
35	0x3ca4346e	0.020044532
36	0x3ab0a40c	0.0013476624
37	0x3e1f3e0a	0.1555101
38	0xbcef7c8a	-0.02923419
39	0xbde78c72	-0.11306085
40	0x3c036241	0.008019031
41	0xbdcfc3b3	-0.101447485
42	0x3d1bfdf0	0.03808397
43	0x3e0556fa	0.1302146
44	0x3d690c60	0.056896567
45	0xbe2fcf22	-0.17168859
46	0x3d66f317	0.056384172
47	0x3cddcac9	0.027074235
48	0x3eae4160	0.34034252
49	0xbe1b8646	-0.1518794
50	0x3e658114	0.2241252
51	0xbdc0572b	-0.09391626
52	0xbe8ec1ea	-0.2788232
53	0x3d994714	0.0748426
54	0xbd1e487e	-0.038643353
55	0x3d65e010	0.056121886
56	0x3d929c19	0.071586795
57	0xbbba9ced	-0.0056949765
58	0x3d8b57c0	0.06803846
59	0xbda0269f	-0.078198664
60	0x3cb24a53	0.021763956
61	0xbe06fd9d	-0.13182683
62	0x3c22a903	0.009927991
63	0xbe001ee9	-0.12511791
64	0x3be45bcc	0.006968951
65	0xbdca8b8f	-0.098899
66	0x3de8f1ff	0.11374282
67	0xbe31564c	-0.17318076
68	0xbe26c84a	-0.16287342
69	0xbe009f07	-0.12560664
70	0x3e614350	0.21998334
71	0x3e247e7f	0.1606388
72	0x3d9b6431	0.07587469
73	0xbef46c6c	-0.4773897
74	0x3d25c398	0.040469736
75	0xbedc4935	-0.43024603
76	0xbe52b64a	-0.2057735
77	0x3db92722	0.09040667
78	0x3dfbce6a	0.1229523
79	0x3d142170	0.0361647
80	0xbe76b9a4	-0.24094254
81	0xbea2ba1e	-0.3178262
82	0x3e0f28bb	0.13980381
83	0x3d9a8900	0.07545662
84	0x3e15c76b	0.14626853
85	0x3d29801e	0.041381948
86	0x3e149c57	0.14512764
87	0xbe03605e	-0.1282973
88	0xbd8ff95c	-0.070299834
89	0x3dc789d5	0.09743086
90	0x3da64781	0.08119107
91	0xbc1c4b02	-0.009539368
92	0x3e29e1c7	0.16590033
93	0x3e333749	0.17501558
94	0xbe056d9d	-0.13030095
95	0xbda2c952	-0.07948555
96	0x3edd44c0	0.43216515
97	0xbe18c106	-0.14917383
98	0xba0f56f3	-0.00054679735
99	0xbe5f745f	-0.21821736
100	0xbe3a634a	-0.18201938
101	0x3d14b2ac	0.036303207
102	0xbe6a9682	-0.22908977
103	0xbe35107a	-0.17682067
104	0x3d00822f	0.031374153
105	0xbdaf20b0	-0.085511565
106	0xbe88ff12	-0.26757103
107	0xbe674365	-0.22584303
108	0xbe0266e2	-0.12734559
109	0xbd1b71b7	-0.037950244
110	0x3e78a5bd	0.24281974
111	0x3d9a2f23	0.07528522
112	0x3dc9bd7e	0.09850596
113	0xbe1ee377	-0.15516458
114	0xbdc8e418	-0.098091304
115	0xbcea5b83	-0.02860809
116	0x3d9b23bb	0.075751744
117	0xbe08a079	-0.13342465
118	0xbd34e428	-0.0441629
119	0xbd729ced	-0.059231687
120	0x3d734f66	0.059401892
121	0x3db1cd52	0.0868174
122	0x3e0a02cb	0.13477628
123	0xbd0d4e11	-0.034498278
124	0xbe5231a0	-0.20526743
125	0xbe976f27	-0.2957699
126	0xbc8114dc	-0.015757017
127	0xbd63bd59	-0.055600498
128	0x3db75410	0.089515805
129	0xbd9e0eaf	-0.077176444
130	0x3e1e0f10	0.15435433
131	0xbb49c594	-0.0030787932
132	0xbe8d1a96	-0.27559346
133	0x3e377973	0.17917423
134	0xbd0adfcb	-0.03390483
135	0xbd6540ff	-0.05597019
136	0xbe167a3f	-0.1469507
137	0xbe390b8d	-0.18070813
138	0x3da5da22	0.08098246
139	0xbcb1d2d3	-0.021706974
140	0x3dd09285	0.101841964
141	0xbe0c659f	-0.1371064
142	0x3e4b323c	0.19843382
143	0xbd872262	-0.06598355
144	0xbdf2d94b	-0.118578516
145	0xbeca9661	-0.39567855
146	0x3e2ee0cf	0.17077945
147	0x3e3a5599	0.18196715
148	0x3e7ef42a	0.24897829
149	0xbdec7faf	-0.11547791
150	0xbdf33bc3	-0.11876633
151	0xbc829432	-0.015939806
152	0xbdc68f68	-0.09695321
153	0xbe83eff2	-0.25769
154	0x3daa6a96	0.08321111
155	0xbeb3cf45	-0.35119072
156	0x3d2a4dc7	0.04157808
157	0x3db86650	0.090038896
158	0x3d5501f7	0.052003827
159	0xbe01e632	-0.12685469
160	0x3e2ad9cf	0.1668465
161	0x3cd684d3	0.026186382
162	0x3be183db	0.0068821735
163	0xbe53cf23	-0.20684485
164	0x3d52dfb4	0.05148287
165	0xbda1b3f4	-0.078956515
166	0xbdb95b44	-0.09050611
167	0x3e85e610	0.26152086
168	0x3e129b38	0.14317024
169	0x3c2ed120	0.0106699765
170	0xbe4aa17e	-0.19788167
171	0xbe286f1a	-0.16448632
172	0x3e345745	0.17611416
173	0xbd8a72ae	-0.06760155
174	0xbdbb89c2	-0.091571346
175	0xbd57fa54	-0.052728966
176	0xbe236cc0	-0.15959454
177	0x3c63b1c8	0.013897367
178	0x3dad7030	0.08468664
179	0xbe059f52	-0.13049057
180	0x3d8249a1	0.063617
181	0x3db9b02a	0.09066804
182	0xbd597ed6	-0.053099476
183	0xbe26b6d6	-0.16280684
184	0x3c869249	0.016427176
185	0x3c8c89d0	0.017155558
186	0xbc61f8b6	-0.013792207
187	0xbe0117c3	-0.1260672
188	0xbe13d4da	-0.14436665
189	0xbd8d854f	-0.06910192
190	0xbdeb2c8f	-0.11483108
191	0xbd767e03	-0.060178768
192	0x3e82a8bc	0.2551936
193	0x3f4b1c0f	0.7933969
194	0xbf01e212	-0.5073558
195	0x3e82d11b	0.2555016
196	0x3d70f80e	0.058830313
197	0xbd01fa79	-0.03173301
198	0xbe748004	-0.23876959
199	0x3c844cea	0.016149957
200	0xbd6e67b4	-0.058204368
201	0xbdc0c72c	-0.09412989
202	0x3d4069df	0.046975967
203	0xbe009772	-0.12557772
204	0x3d2efb0a	0.04271988
205	0xbe48fe30	-0.19628215
206	0xbe10eab9	-0.1415204
207	0xbe4c0db8	-0.19927108
208	0xbda8364d	-0.08213482
209	0x3d5d66db	0.05405317
210	0x3df3ae61	0.118984945
211	0x3db2476c	0.08705029
212	0xbe3ba929	-0.18326248
213	0xbe01e190	-0.12683702
214	0xb8ec472d	-0.000112666145
215	0x3e852ad5	0.2600924
216	0x3de5a330	0.11212766
217	0xbe7b8550	-0.24562573
218	0xbe0d1ff7	-0.13781725
219	0xbeab2151	-0.33423856
220	0x3cc9ce8d	0.024634624
221	0x3dc36b8f	0.095419995
222	0xbdb676e9	-0.08909399
223	0x3cf9ebc0	0.030507922
224	0xbe3551ff	-0.1770706
225	0x3d3ceba8	0.046123177
226	0x3e7336eb	0.23751418
227	0x3d6e2f64	0.058150664
228	0xbdd98b3f	-0.10622262
229	0xbe062030	-0.13098216
230	0xbe10f3f8	-0.14155567
231	0x3e341540	0.17586231
232	0x3df8319d	0.12118838
233	0x3e480c51	0.19535948
234	0x3e059a32	0.13047102
235	0x3d96093a	0.073259786
236	0x3c334a8f	0.010943069
237	0xbe2e41ea	-0.17017332
238	0xbe3e9d0f	-0.186146
239	0xbdc0e9b7	-0.094195776
240	0x3e883539	0.26603106
241	0x3d2c8758	0.04212126
242	0xbe4a0995	-0.19730218
243	0xbe860d45	-0.26182
244	0x3e159499	0.14607467
245	0xbd6261b9	-0.055268977
246	0x3ca708e9	0.02038999
247	0x3d8f8d2a	0.07009347
248	0xbdfacb2f	-0.122457854
249	0x3d80d11c	0.062898844
250	0xba9f1d38	-0.0012139445
251	0xbdf23262	-0.11826016
252	0xbd103dc4	-0.035215154
253	0xbde64ca0	-0.11245084
254	0xbdf15113	-0.11783042
255	0xbe7fb2db	-0.24970572

shared.0.bias f4 [256]
0	0xbe1c16c5	-0.15243061
1	0x3d47ac3b	0.048748236
2	0x3d160a86	0.03663113
3	0x3e4c7a61	0.19968559
4	0xbe0d8740	-0.13821125
5	0x3db45a61	0.08806301
6	0x3e3c8679	0.18410672
7	0x3d15567a	0.036459424
8	0x3c9c4b86	0.019078981
9	0x3ea6b8a0	0.32562733
10	0xbe0ef82a	-0.13961855
11	0x3e900e99	0.28136137
12	0x3dff23c8	0.124579966
13	0x3e512850	0.20425534
14	0x3e7acaa1	0.2449136
15	0x3e17ef6d	0.14837427
16	0x3dd8fd12	0.10595144
17	0x3d5f67d6	0.054542385
18	0xbe75dcc1	-0.24009992
19	0x3e2fd916	0.17172655
20	0x3e573252	0.2101529
21	0x3e39984c	0.18124503
22	0x3ca56814	0.02019123
23	0xbdce49c2	-0.10072662
24	0x3dfc12fa	0.12308307
25	0x3e14b65f	0.14522694
26	0xbca27584	-0.019831426
27	0x3e82e1aa	0.25562793
28	0x3d8dc5b8	0.069224775
29	0x3de5a44b	0.11212977
30	0x3e549723	0.20760779
31	0x3e1df173	0.15424137
32	0x3cad3c93	0.021147048
33	0x3dfe18a0	0.124070406
34	0x3e1514e8	0.14558756
35	0x3e192b32	0.14957884
36	0xbba1d413	-0.0049386113
37	0x3e0c4a76	0.1370028
38	0xbdc41a53	-0.095753334
39	0x3df04b14	0.1173307
40	0xbd91ba71	-0.07115639
41	0x3e82d789	0.25555065
42	0x3eac0784	0.33599484
43	0xbd98f101	-0.07467843
44	0xbcafe10c	-0.021469615
45	0xbce44f27	-0.027869774
46	0xbd15040d	-0.036380816
47	0x3e7c04bc	0.24611181
48	0xbd1e3a02	-0.03862954
49	0xbdaf5fa9	-0.085631676
50	0xbd95abfa	-0.073081926
51	0x3cdec864	0.027195163
52	0xbd34d751	-0.044150654
53	0xbd438d46	-0.04774215
54	0x3e9b166b	0.3029054
55	0x3e370ace	0.17875215
56	0x3e00f130	0.12592006
57	0x3e7dc861	0.2478347
58	0xbc174449	-0.009232589
59	0x3e0c117e	0.13678548
60	0xbe3b34eb	-0.18281905
61	0x3e22f2f7	0.15912996
62	0xbd0edda0	-0.034879327
63	0x3d510f7b	0.051040154
64	0xbba3ee07	-0.0050027403
65	0x3c1b99d4	0.009497125
66	0xbe32904d	-0.17437859
67	0xbdff8003	-0.12475588
68	0xbdfb4760	-0.12269473
69	0xbde182ac	-0.11011252
70	0x3c8da5ba	0.017290939
71	0xbe2ca013	-0.16857938
72	0x3e425782	0.18978694
73	0x3e227dc6	0.15868291
74	0xbdf9d7e1	-0.12199379
75	0xbe0cc2a9	-0.13746132
76	0xbdd849c8	-0.10560948
77	0x3ddf6a94	0.10909
78	0x3e87ba1d	0.2650918
79	0x3dc4a6e5	0.09602145
80	0x3e3320a2	0.17492917
81	0x3d2a7e8d	0.041624594
82	0xbd8724ec	-0.06598839
83	0x3cbd9741	0.023143413
84	0xbe36e2e9	-0.17859997
85	0x3e0f6ea1	0.14007045
86	0x3d63d1fc	0.05562018
87	0x3e79d6ec	0.24398392
88	0xbd6e2ac0	-0.05814624
89	0xbd815e31	-0.06316794
90	0x3e0e7c75	0.13914664
91	0x3dae6be1	0.0851667
92	0x3d17fb88	0.037105113
93	0xbe43c71e	-0.19118926
94	0x3e6e1f15	0.23254044
95	0xbe1cb00b	-0.1530153
96	0x3d4bf307	0.049792316
97	0x3e47a021	0.19494678
98	0x3ce8dd65	0.028425882
99	0x3ca724a6	0.020403218
100	0xbdd2ebf3	-0.1029891
101	0x3e6ab5cc	0.22920913
102	0x3dfece9b	0.124417506
103	0x3e3ccb40	0.18436909
104	0x3e0ab454	0.13545352
105	0xbdd9a0de	-0.10626386
106	0xbd8d7078	-0.06906217
107	0x3e809c74	0.25119364
108	0xbdb29d41	-0.087214
109	0xbced693c	-0.028980844
110	0x3e8e5a17	0.27803108
111	0xbe0c197a	-0.13681594
112	0x3dc5761a	0.09641667
113	0x3b90ecf6	0.004422779
114	0x3de29742	0.110640064
115	0x3e1726df	0.14760922
116	0xbdbac18a	-0.09118946
117	0xbdd0a14a	-0.101870134
118	0x3e067621	0.13131
119	0xbcce5db0	-0.025191158
120	0x3e81361d	0.25236598
121	0x3dde7545	0.10862211
122	0xbd274a6f	-0.04084247
123	0x3d95eb8c	0.073203176
124	0x3d0cf2ad	0.03441112
125	0x3e4ddd3d	0.20103927
126	0x3e5a2447	0.21302901
127	0x3dadcf4c	0.08486804
128	0xbd8d3e65	-0.068966664
129	0x3e9093d8	0.28237796
130	0x3e995287	0.29945776
131	0x3e7de929	0.24795975
132	0x3a06f68a	0.00051484315
133	0x3df77497	0.120827846
134	0x3d61cfc6	0.05512979
135	0xbceeb9ec	-0.029141389
136	0xbdb51b94	-0.08843151
137	0x3b97d1ca	0.004633163
138	0x3e1c315e	0.15253207
139	0x3dd897ba	0.105758145
140	0x3dc86eb7	0.09786742
141	0x3e3f53f5	0.18684371
142	0x3e63c631	0.22243573
143	0xbda6e727	-0.081495576
144	0x3e8d17fc	0.2755736
145	0x3cb0f7c8	0.021602526
146	0x3dc922a8	0.09821063
147	0x3cff52c4	0.031167395
148	0xbccb20ac	-0.024795853
149	0xbe7b58b6	-0.2454556
150	0x3d2fbdff	0.042905804
151	0x3e4a1c57	0.19737373
152	0x3a009625	0.0004905186
153	0x3e043cfc	0.12913889
154	0xbd0ba906	-0.03409674
155	0xbddde874	-0.108353525
156	0xbce82b38	-0.02834092
157	0x3e14d98a	0.1453611
158	0x3df260c6	0.11834864
159	0x3b7b4a55	0.0038343866
160	0x3e17be7f	0.14818762
161	0x3d96f55f	0.073710196
162	0x3c51f654	0.012815077
163	0x3e830a16	0.25593632
164	0xbdce0cf2	-0.10061063
165	0x3e65c8ad	0.22439833
166	0xbc137387	-0.008999712
167	0x3e6d189f	0.23153923
168	0x3dd36646	0.103222415
169	0x3dfe6e1d	0.12423346
170	0x3d58f02c	0.05296342
171	0xbd3dd288	-0.046343356
172	0xbd28d243	-0.041216146
173	0xbe1e1efa	-0.15441504
174	0x3e54d332	0.2078369
175	0x3e9aa6ed	0.3020548
176	0x3d8c9e1f	0.06866097
177	0xbd6b5c38	-0.057460994
178	0x3e1f352a	0.15547624
179	0x3db7eb98	0.08980483
180	0xbe335071	-0.17511155
181	0xbda494b9	-0.08036179
182	0x3e0a3de1	0.13500167
183	0xbdb6da89	-0.08928401
184	0x3dacc1b4	0.084353834
185	0x3c64052b	0.013917248
186	0x3e4c242a	0.1993567
187	0x3d4aa243	0.04947115
188	0x3a8e98ce	0.001087928
189	0x3e2b1abf	0.16709422
190	0x3eba6fe4	0.3641349
191	0x3e81e79e	0.25372022
192	0x3e31e6aa	0.17373148
193	0x3de6ce2a	0.112697914
194	0x3e872cd8	0.264014
195	0x3e7e79d4	0.24851161
196	0x3e2ae1c2	0.16687682
197	0x3e44b452	0.19209412
198	0x3d17128d	0.036882926
199	0x3e2ee599	0.17079772
200	0x3e3953a8	0.18098319
201	0x3e22aa5c	0.158853
202	0xbd85ce1c	-0.06533453
203	0xbdb076fb	-0.08616444
204	0xbe217fb9	-0.15771379
205	0x3c95f814	0.01830677
206	0x3d01c870	0.031685293
207	0x3dc75c87	0.09734445
208	0xbe04b588	-0.12959874
209	0xbd4fbb11	-0.05071551
210	0x3e588d33	0.21147613
211	0xbc054245	-0.008133476
212	0x3d4203e2	0.047366984
213	0x3dd2285d	0.10261605
214	0xbd305b2f	-0.04305571
215	0xbd03373a	-0.03203509
216	0x3c70d605	0.014699464
217	0x3d515f3d	0.051116217
218	0xbdece442	-0.11566974
219	0xbd464e52	-0.048414536
220	0x3b5db7af	0.0033831408
221	0x3d44427e	0.047914974
222	0x3e60bf1d	0.21947904
223	0x3d7c771e	0.061637037
224	0x3e5fa348	0.2183963
225	0x3e3fd3aa	0.18733087
226	0xbe40ce36	-0.18828663
227	0xbe1cda58	-0.15317667
228	0xbce07b9c	-0.027402692
229	0xbd93a807	-0.07209783
230	0x3ddc8330	0.107672095
231	0x3e1a656b	0.1507775
232	0xbe43a879	-0.19107236
233	0x3c878e08	0.016547218
234	0xbe048155	-0.12939961
235	0x3eb38a4c	0.3506645
236	0x3e24329e	0.16034934
237	0x3c0e7d3f	0.008696853
238	0x3e74df7c	0.23913378
239	0x3cf0ecd8	0.02940981
240	0x3e73edda	0.23821202
241	0xbc8d79af	-0.017269937
242	0x3d17d8d9	0.037072036
243	0x3e502b26	0.2032896
244	0x3df4cc14	0.11952987
245	0x3d863ead	0.06554923
246	0x3d12536d	0.035724092
247	0x3d284d73	0.041089486
248	0x3e8335ff	0.25627133
249	0x3c96fe55	0.018431822
250	0xbcb5c3f4	-0.022188164
251	0x3e48aa88	0.19596303
252	0xbcd3cdec	-0.025855027
253	0xbd906331	-0.07050169
254	0x3d74d84d	0.059776593
255	0x3e9bd3af	0.3043494

actor_mean.0.weight f4 [256, 256]
0	0xbbb98e10	-0.005662687
1	0xbd7a993c	-0.061181292
2	0x3d1750da	0.03694234
3	0xbd354487	-0.044254806
4	0x3c960519	0.018312978
5	0xbbe3b4d7	-0.006949048
6	0x3d2fb7e2	0.042899974
7	0xbc72d47c	-0.014821168
8	0xbd6fd774	-0.05855508
9	0xbd951c5b	-0.07280799
10	0xbc7a7f00	-0.015289068
11	0xbd4c46e1	-0.049872283
12	0x3d097182	0.033555515
13	0xbcfe8b45	-0.031072268
14	0xbd291b0a	-0.041285552
15	0xbdc27fc3	-0.09497025
16	0xbd9d3fae	-0.076781616
17	0xbd362fb9	-0.044479106
18	0xbdd800a5	-0.10546998
19	0xbca128da	-0.0196728
20	0xbd7a0e79	-0.06104896
21	0xbc98d911	-0.018658193
22	0xbd25aa0c	-0.040445372
23	0xbd9dbfb7	-0.07702582
24	0x3d6619e2	0.056177028
25	0x3cfc69d8	0.030812189
26	0xbb09a982	-0.0021005576
27	0xbbbfa26a	-0.0058482187
28	0x3cacd271	0.02109644
29	0xbd6775b1	-0.056508724
30	0xbdc55f1c	-0.09637281
31	0x3d2c0f6e	0.042006902
32	0xbe003d93	-0.12523489
33	0x3cbda2ed	0.023148978
34	0x3b94ee66	0.004545021
35	0x3d1a3d0c	0.037655875
36	0x3d8750be	0.06607197
37	0xbdaeb1d9	-0.085300155
38	0x3ca63690	0.02028969
39	0xbdd2ff8e	-0.103026494
40	0x3b1aaec6	0.0023602708
41	0x3d44000c	0.047851607
42	0xbd28c5c2	-0.04120422
43	0x3cba18cd	0.022716904
44	0xbd1050f0	-0.035233438
45	0xbcee3977	-0.029080136
46	0x3b62725e	0.0034553031
47	0xbd9fa92b	-0.07795938
48	0xbcb35d7a	-0.021895159
49	0xbac86274	-0.001528813
50	0xbd294c73	-0.041332673
51	0x3d858de2	0.065212026
52	0x3d7736f3	0.060355138
53	0xbd963054	-0.073334366
54	0x3bbb1525	0.0057093077
55	0x3b710946	0.003677921
56	0x3d27798e	0.040887408
57	0xbd3497f1	-0.044090215
58	0x3d6f46be	0.058417074
59	0xbd8d741c	-0.06906912
60	0x3d8c65d6	0.06855361
61	0xbd8e58ef	-0.069505565
62	0xbc9411b2	-0.018074844
63	0x3c250222	0.010071309
64	0xbc30ca71	-0.010790453
65	0xbd36563b	-0.04451583
66	0x3ce8ee6d	0.028434003
67	0xbd7f6d09	-0.062359843
68	0xbd428913	-0.047494005
69	0x3c19ae7b	0.009379978
70	0x3d77f698	0.060537905
71	0x3d11e6a0	0.03562033
72	0xbd65184b	-0.05593137
73	0x3c47e9a0	0.012201697
74	0x3cc34967	0.023838712
75	0xbc9ba874	-0.019001223
76	0x3d1f92f8	0.03895852
77	0xbca653b7	-0.02030359
78	0xbd7c5c6e	-0.061611585
79	0xbcb4efac	-0.02208694
80	0xbd1e6337	-0.038668837
81	0x3cf36322	0.029710356
82	0x3d30194f	0.042992886
83	0xbd1eaa5b	-0.038736682
84	0xbc16ee44	-0.00921208
85	0x3d7030e3	0.058640372
86	0xbcfe69b7	-0.031056268
87	0xbd4c1ac8	-0.049830228
88	0x3c74017c	0.014892932
89	0x3d5bbcaa	0.05364672
90	0x3c67ba95	0.014143606
91	0xbda1162e	-0.078655586
92	0xbd618f56	-0.055068336
93	0x3d23152e	0.03981512
94	0xbc35bcc2	-0.011092367
95	0x3beafa6a	0.007170965
96	0xbc4a94d3	-0.012364584
97	0xbd85570e	-0.06510745
98	0xbc8cd1e1	-0.017189922
99	0x3d505ac4	0.05086781
100	0xbd1c9f28	-0.03823772
101	0x3caf6f69	0.02141543
102	0xbc8dc359	-0.017305063
103	0xbd983663	-0.074322484
104	0xbd5b550c	-0.053547904
105	0x3c1ffb02	0.009764435
106	0xbdbdb6ce	-0.09263383
107	0x3cd6f8f3	0.026241755
108	0xbca4d70f	-0.02012208
109	0x3bf2b4ca	0.0074068056
110	0x3b9a075e	0.0047005853
111	0x3d9bf8e5	0.07615832
112	0xbd58aafc	-0.05289744
113	0xbd980d3a	-0.07424398
114	0x3cebb051	0.028770598
115	0xbd081a1e	-0.033228032
116	0xbcb15d24	-0.021650858
117	0x3ce9ffcc	0.028564356
118	0xbccf03ad	-0.025270307
119	0xbc4adc88	-0.01238168
120	0xbdb74e1f	-0.08950447
121	0x3c8861a5	0.016648123
122	0x3d118e3a	0.03553603
123	0xbd09e311	-0.033663813
124	0xbd963b0e	-0.073354825
125	0x3ce7333e	0.028222676
126	0x3c698f1d	0.014255312
127	0xbba58467	-0.005051184
128	0x3be3eb5a	0.0069555463
129	0xbd7a19c6	-0.061059736
130	0x3d171bb9	0.036891673
131	0xbc5f407c	-0.013626214
132	0xbc402348	-0.011727162
133	0xbcc64296	-0.024201673
134	0xbd3c564a	-0.04598073
135	0x3b9a2e1c	0.0047052037
136	0x3d1d8cc1	0.03846431
137	0x3d1935ee	0.037404947
138	0xbd15508d	-0.036453772
139	0x3d5b1dd1	0.053495232
140	0x3c7167a6	0.014734184
141	0x3c81d0f3	0.015846705
142	0x3d0382b6	0.032107078
143	0xbd036e49	-0.032087598
144	0xbd35d4c5	-0.044392366
145	0xbb45930b	-0.003014746
146	0xbdbe3eac	-0.092892975
147	0x3c898dc9	0.016791241
148	0xbdccf301	-0.10007287
149	0xbd804ee7	-0.062650494
150	0xbb9ab339	-0.004721072
151	0x3a0a5ca6	0.0005278088
152	0x3d018857	0.031624164
153	0xbd4b52e0	-0.049639583
154	0xbd5ccc70	-0.053905904
155	0xbc1241d8	-0.008926831
156	0xbd73bb15	-0.059504587
157	0xbd7875ec	-0.060659334
158	0x3bd6f4ab	0.0065599284
159	0xbd559fd9	-0.052154396
160	0xbcf3ff0c	-0.029784702
161	0x3c73c943	0.0148795275
162	0x3d59c973	0.053170633
163	0xbd799925	-0.060937066
164	0x3ce384a5	0.02777321
165	0xbc6630d6	-0.014049729
166	0x3dbdc6c1	0.09266425
167	0x3d811d07	0.06304365
168	0xbd1b8d6d	-0.03797667
169	0xbc8be142	-0.017075185
170	0xbd731d7f	-0.0593543
171	0x3c9d463d	0.019198531
172	0xbd99d588	-0.07511431
173	0x3de27af7	0.1105861
174	0xbcadcd0e	-0.021215942
175	0x3d4ab0b4	0.049484923
176	0x3d00c69f	0.03143942
177	0x3d41aae1	0.047282103
178	0xbda26da6	-0.0793107
179	0xbd9c997d	-0.07646463
180	0xbda52bc0	-0.08064985
181	0xbcf566ea	-0.0299563
182	0x3d1bbb4c	0.038020417
183	0x3cb0c944	0.021580346
184	0x3d180a81	0.037119392
185	0xba407e5f	-0.00073430495
186	0x3b9377f3	0.004500383
187	0xbd705d90	-0.05868298
188	0x3d2f6bb0	0.04282731
189	0xbda9ebdf	-0.08296942
190	0xbd90b61c	-0.070659846
191	0x3c87ff45	0.016601214
192	0x3d115fc3	0.035491716
193	0xbd3c0f2f	-0.045912918
194	0x3ce1cff5	0.027564982
195	0xbceaf952	-0.028683338
196	0xbd8f5231	-0.06998099
197	0xbd133c17	-0.035945978
198	0xbcc6c886	-0.024265539
199	0xbd68f091	-0.056870047
200	0x3d2ecb6a	0.04267446
201	0xbd276960	-0.040871978
202	0xbd45c353	-0.04828198
203	0xbcdcf7f0	-0.026973695
204	0xbc3dfb4e	-0.01159556
205	0x3d0b7171	0.034043733
206	0xbd38c761	-0.045112018
207	0xbd0988d2	-0.033577748
208	0xbbe54b57	-0.0069975066
209	0x3d3b47a1	0.045722608
210	0x3c3a7f12	0.011382835
211	0xbcc01ca4	-0.023451157
212	0xbd043129	-0.032273445
213	0x3bf4f2f5	0.007475252
214	0x3c68bc8b	0.014205108
215	0x3c65ca67	0.014025307
216	0x3d264fa8	0.04060331
217	0x3ceefd0d	0.029173398
218	0x3b061577	0.0020459571
219	0x3bded84d	0.0068006874
220	0xbd54e9ad	-0.051980663
221	0xbd33ac77	-0.043865647
222	0xbda2f825	-0.07957486
223	0xba53f39a	-0.00080853107
224	0xbd4ddde9	-0.05026046
225	0x3df61c19	0.12017078
226	0xbd8c5267	-0.068516545
227	0xbd7c3e1a	-0.061582662
228	0x3cb87323	0.022515839
229	0x3c770b6b	0.015078406
230	0xbd5173a0	-0.05113566
231	0xbccb8a49	-0.024846213
232	0x3bbe95e9	0.0058162105
233	0xbc337e57	-0.010955415
234	0xbcdeb82f	-0.027187435
235	0xba460a88	-0.000755467
236	0xbc85648d	-0.016283298
237	0xbc993894	-0.018703736
238	0x3ccad3b9	0.02475916
239	0xbd0ad342	-0.033892877
240	0xbd1e3ed8	-0.03863415
241	0xbb9350be	-0.004495709
242	0xbd861fee	-0.06549059
243	0x3ca2f55c	0.019892387
244	0xbd720bff	-0.05909347
245	0xbd85823b	-0.0651898
246	0xbbc9d254	-0.0061591063
247	0xbd6a659b	-0.057225805
248	0xbd27150b	-0.040791553
249	0x3cd101f7	0.025513632
250	0xbc46f1f2	-0.012142645
251	0xbd0c5408	-0.034259826
252	0x3c1bb020	0.009502441
253	0xbda00065	-0.07812575
254	0x3b45d5e6	0.0030187308
255	0xbdc35d93	-0.09539332

actor_mean.0.bias f4 [256]
0	0xbc881a0e	-0.016613986
1	0xbd9a1fcd	-0.07525597
2	0x3c6ce766	0.014459467
3	0x3d7d114c	0.061784074
4	0x3d1c59cd	0.03817158
5	0xbc3102ee	-0.010803921
6	0xbcfc0cb4	-0.030767776
7	0xbd64adff	-0.055829998
8	0x3c9546b0	0.018222183
9	0x3cd8510f	0.02640584
10	0xbd1bd5b3	-0.038045596
11	0xbd1c025f	-0.0380882
12	0x3da66287	0.08124261
13	0xbd94e723	-0.07270648
14	0xbd2751de	-0.04084956
15	0x3ca8649b	0.020555785
16	0xbc85a789	-0.016315239
17	0xbd2d54a2	-0.04231704
18	0xbd350562	-0.044194587
19	0xbd36a754	-0.04459317
20	0xbd6e7106	-0.058213256
21	0xbd8af091	-0.06784166
22	0xbcd4d716	-0.025981467
23	0x3d0bab3b	0.034098845
24	0x3c926287	0.017869247
25	0x3ba55d90	0.005046554
26	0x3c2a38c4	0.010389511
27	0xbdbea686	-0.093091056
28	0xbcd8736d	-0.026422227
29	0x39344756	0.00017192712
30	0xbc1c40a1	-0.009536893
31	0xbd85af8e	-0.06527625
32	0xbd77de02	-0.060514458
33	0xbcec5827	-0.028850628
34	0xbd972f8b	-0.07382115
35	0x3cad41cb	0.021149537
36	0xbd045f74	-0.032317594
37	0xbc04df6d	-0.0081099095
38	0x3de58fec	0.112090915
39	0xbb4bc2d4	-0.0031091468
40	0x3cb4ab4a	0.022054333
41	0xbd917063	-0.07101514
42	0xbd400a26	-0.04688468
43	0x3ce6daa3	0.028180426
44	0x3d5ffd38	0.054684848
45	0x3ce6b74c	0.028163575
46	0xbd3a89ce	-0.045541577
47	0xbc6a6d50	-0.014308289
48	0xbd777cb3	-0.060421657
49	0xbc2299b2	-0.009924339
50	0xbd89a632	-0.06721152
51	0x3d68bf56	0.056823097
52	0xbd5b62cd	-0.05356102
53	0x3c680061	0.014160247
54	0x3cab4acb	0.020909688
55	0xbd84140b	-0.064491354
56	0xb9876c3d	-0.0002582985
57	0xbd8c89ea	-0.068622425
58	0xbd2e13f8	-0.042499512
59	0xbcea9b6d	-0.028638566
60	0x3ca08f94	0.019599713
61	0x3ce783c6	0.028261077
62	0xbcbcf63b	-0.02306663
63	0xbb00ec7c	-0.0019672206
64	0xbba4f1c5	-0.005033704
65	0xbd63005d	-0.05542027
66	0xbd162949	-0.036660466
67	0x3d386b68	0.045024306
68	0xbd728483	-0.059208404
69	0x3c955c66	0.018232536
70	0xbd6b88c5	-0.05750348
71	0xbd5095d8	-0.050924152
72	0xbcdbebf6	-0.026845913
73	0x3d1853fe	0.037189476
74	0xbc98c825	-0.018650124
75	0x3c0c1f04	0.008552317
76	0x3c75588b	0.014974724
77	0xbd63ba79	-0.055597756
78	0x39f394aa	0.00046459335
79	0x3b971ca4	0.0046115685
80	0xbd406146	-0.046967767
81	0xbd9ece0b	-0.07754143
82	0x3cf9fe32	0.030516718
83	0xbd98f0b2	-0.07467784
84	0xbbf69cc2	-0.007526011
85	0x3cd76a2a	0.02629574
86	0xbd81b5bf	-0.063334934
87	0xbd9924e3	-0.07477739
88	0x3d0b841e	0.034061544
89	0xbca9a9df	-0.020710884
90	0xbc159545	-0.009129827
91	0x3d271068	0.04078713
92	0xbcc01f90	-0.02345255
93	0x3c88f289	0.016717212
94	0xbd364b3c	-0.044505343
95	0x3d4b6b65	0.049662966
96	0xbd680d13	-0.056653094
97	0xbc82220e	-0.01588538
98	0xbbd521ac	-0.006504258
99	0xbcb7a373	-0.022416806
100	0x3ca20138	0.019775972
101	0xbd9471a3	-0.07248237
102	0x3c4efe8e	0.012633933
103	0xbd66d6fb	-0.056357365
104	0xbd54daf3	-0.05196662
105	0xbd5f4e61	-0.054518107
106	0xbd87c270	-0.06628883
107	0xbca930cb	-0.02065315
108	0xbc621db0	-0.013801023
109	0xbcbd6912	-0.02312139
110	0x3d327caa	0.04357592
111	0xbcde9ee3	-0.027175372
112	0x3b6888fc	0.003548204
113	0x3d1db34c	0.03850107
114	0xbdb75de1	-0.08953453
115	0xbd0abeaf	-0.033873256
116	0xbaaedb10	-0.0013340432
117	0x3ba41474	0.005007321
118	0xbcc98ec0	-0.024604201
119	0x3cf123f1	0.029436084
120	0xbd0db649	-0.03459767
121	0xbd049e5c	-0.032377586
122	0x3cf409f4	0.029789902
123	0x3d392d1d	0.04520904
124	0xbd40acfe	-0.04703998
125	0xbcd7390a	-0.026272316
126	0xbb169537	-0.0022977123
127	0xbd34b40f	-0.04411703
128	0xbca19022	-0.019722048
129	0x3c0f9806	0.008764273
130	0x3bc921bb	0.006138054
131	0x3c8e16bf	0.01734483
132	0xbd157c9e	-0.036495797
133	0xbd13ee6b	-0.036116045
134	0xbd25a84d	-0.040443707
135	0xbd8aa076	-0.06768887
136	0x3d12d344	0.03584601
137	0x3cecde00	0.028914452
138	0xbd53350a	-0.051564254
139	0xbdb0ab5c	-0.08626434
140	0xbd0effcd	-0.03491192
141	0x3cc4eb85	0.024038086
142	0x3ce28704	0.027652271
143	0xbcff6fd2	-0.03118125
144	0xbd36bf75	-0.04461618
145	0x3cc1003c	0.023559682
146	0xbd0647b3	-0.03278322
147	0x3c07b97a	0.008283967
148	0xbd3c8c7f	-0.046032425
149	0x3d28847c	0.041141972
150	0xbd4d56e0	-0.05013168
151	0xbd258df8	-0.040418595
152	0xbd1378c7	-0.036003854
153	0x3d0d2a6d	0.03446429
154	0x3ca67d10	0.020323306
155	0xbce2de4a	-0.027693886
156	0x3c81d676	0.015849333
157	0xbcb12616	-0.021624606
158	0x3d4cc3f2	0.049991556
159	0x3c20783f	0.009794294
160	0xbc9f39c8	-0.019436732
161	0x3d81c7be	0.06336926
162	0xbdd13c0f	-0.102165334
163	0xbd86b593	-0.06577601
164	0xbd287fb7	-0.041137423
165	0x3c40ba75	0.011763205
166	0x3d059f68	0.032622725
167	0xbc9690bf	-0.018379567
168	0xbc2480ae	-0.010040445
169	0x3d683031	0.056686584
170	0xbd13fe84	-0.036131397
171	0xbcaa0831	-0.02075586
172	0xbd730712	-0.059332915
173	0xbd403e2d	-0.046934295
174	0x3c56c801	0.013109208
175	0x3d33f7e7	0.04393759
176	0xbd33f269	-0.043932352
177	0x3cce76b6	0.02520309
178	0x3bb19b6e	0.00542014
179	0x3d8140d6	0.063111946
180	0xbd07ae28	-0.033125073
181	0xbd6bb908	-0.057549506
182	0x3ca3f209	0.020012872
183	0x3d89645f	0.067085974
184	0xbb1c8a41	-0.0023886117
185	0xbdc32789	-0.09529025
186	0x3c1f00f5	0.009704818
187	0x3b8ad776	0.0042371107
188	0x3d1a4067	0.037659075
189	0xbd0f7c74	-0.035030797
190	0x3cafbf63	0.021453565
191	0xbcd46150	-0.025925308
192	0x3bfc095d	0.007691546
193	0x3cac6ea1	0.021048846
194	0x3a6e859a	0.00090988877
195	0xbcf18961	-0.029484453
196	0x3bff45df	0.0077903117
197	0xbd97ef1c	-0.07418653
198	0x3c6e7856	0.0145550575
199	0x3ca0e848	0.01964201
200	0x3d3e76a2	0.046499856
201	0x3d8a4cc5	0.06752924
202	0xbd05b8a4	-0.03264679
203	0xbd516564	-0.051122084
204	0xbcfe3590	-0.0310314
205	0xbd77f72c	-0.060538456
206	0x3c21ca56	0.009874901
207	0xbcb5fe21	-0.022215905
208	0x3cd6b28a	0.026208181
209	0xbd877049	-0.066132136
210	0xbd34b144	-0.044114366
211	0xbcb5170d	-0.022105718
212	0xbd55f001	-0.05223084
213	0x3cf670aa	0.03008302
214	0x3d4977c2	0.049186476
215	0xbc6d0d48	-0.0144684985
216	0x3d0290f8	0.031876534
217	0xbd892a74	-0.066975504
218	0x3d0e6d76	0.03477236
219	0xba4a5293	-0.0007717993
220	0x3b8edb7a	0.0043596597
221	0xbcaf62f3	-0.021409487
222	0xbd3fe96f	-0.04685348
223	0x3d660ce8	0.056164652
224	0xbc9e75ed	-0.01934334
225	0x3d8b66a3	0.06806686
226	0xbc5a80ad	-0.013336343
227	0x3b797216	0.0038062385
228	0x3d8cb8d2	0.06871189
229	0xbd0aa667	-0.0338501
230	0x3d9a3ac8	0.07530743
231	0xbd954cf6	-0.0729007
232	0xbad34e41	-0.0016121344
233	0xbc4309c9	-0.011904188
234	0x3d6d4918	0.057931036
235	0xbd567030	-0.052353084
236	0xbc9b3594	-0.018946446
237	0x3d3af3ca	0.04564265
238	0xbcd47b41	-0.025937678
239	0x3d3ef331	0.046618644
240	0x3d48b140	0.048997164
241	0xbc92ee01	-0.017935755
242	0xbd2ae3b6	-0.04172107
243	0x3c8ab25c	0.016930752
244	0x3c73dc2f	0.014884039
245	0xbd8f992e	-0.070116386
246	0xbc87a218	-0.016556785
247	0x3d1be677	0.038061585
248	0xbd98b55f	-0.07456469
249	0x3d7a38fc	0.0610895
250	0x3d8f7f19	0.07006664
251	0x3bed0d0a	0.0072342204
252	0x3daa6148	0.08319336
253	0x3a2a43bd	0.0006495079
254	0x3c5bd4f0	0.0134174675
255	0xbd329776	-0.043601476

actor_mean.2.weight f4 [4, 256]
0	0x3d4e4c34	0.05036564
1	0xbd2aa63a	-0.041662432
2	0x3d000820	0.03125775
3	0xbcf69424	-0.030099936
4	0x3d6738bd	0.056450594
5	0x3da280d1	0.07934726
6	0x3db0daa3	0.08635452
7	0x3d0d5764	0.03450717
8	0xbca7167b	-0.020396462
9	0xbe817011	-0.25280812
10	0xbdf5cd47	-0.12002044
11	0xbd6ce7de	-0.057838313
12	0x3d968e3e	0.07351349
13	0x3cf613a3	0.03003866
14	0x3cbb9c5f	0.022901712
15	0x3e3beadf	0.18351315
16	0x3ad756a5	0.001642902
17	0xbd3cdac9	-0.046107087
18	0x3c85e7fa	0.016345967
19	0x3cf3beb7	0.029754026
20	0x3df6f871	0.12059105
21	0xbe13aeb7	-0.14422117
22	0xbd3132bd	-0.04326128
23	0x3db9e63c	0.09077117
24	0x3d0e531a	0.03474722
25	0x3c70686a	0.014673332
26	0xbde2b43c	-0.11069533
27	0xbe99e9d3	-0.30061206
28	0xbd43036c	-0.047610685
29	0x3d32e9b2	0.0436799
30	0x3d867c31	0.065666564
31	0xbe1697bf	-0.14706324
32	0x3d6f6be3	0.0584525
33	0xbd81d864	-0.06340101
34	0xbbbf3c3a	-0.005836037
35	0xbd07b4f3	-0.03313155
36	0xbd4658e2	-0.04842461
37	0x3dd6e1cb	0.10492285
38	0x3da922dc	0.08258602
39	0xbd4ff1f9	-0.050767872
40	0x3e1445cd	0.14479752
41	0x3d272cb0	0.0408141
42	0x3e01bc1b	0.12669413
43	0xbcae746c	-0.021295749
44	0xbad5067e	-0.0016252545
45	0xbdf26b6e	-0.11836897
46	0xbdee881e	-0.11647056
47	0xbc0bdcf0	-0.008536562
48	0xbc6e71f9	-0.01455354
49	0x3d4d4c2d	0.050121475
50	0x3d41e29e	0.04733526
51	0x3c054316	0.00813367
52	0x3ca8dfdc	0.020614557
53	0xbd6a6515	-0.057225306
54	0xbe2fa3e0	-0.17152357
55	0x3cea7f73	0.028625226
56	0xbd30cc33	-0.04316349
57	0xbe47d05f	-0.19513081
58	0x3d6228dd	0.05521475
59	0xbdb5a25c	-0.08868858
60	0xbc81b533	-0.015833473
61	0xbe453e9d	-0.19262166
62	0xbdbcea09	-0.09224326
63	0x3baf5885	0.0053511285
64	0x3bf02f82	0.007329882
65	0xbe338f02	-0.17535022
66	0xbb892d3d	-0.004186301
67	0xbd36ae36	-0.044599734
68	0x3d5a1eb6	0.053251944
69	0x3e3150a3	0.17315917
70	0xbdc62c26	-0.096763894
71	0xbd09d5c4	-0.03365113
72	0xbcce17ee	-0.025157895
73	0x3e02c16c	0.12769097
74	0xbd7b6154	-0.061372116
75	0x3da44a37	0.08021968
76	0x3e0ad486	0.13557634
77	0x3e057747	0.13033782
78	0x3c39ab0e	0.0113322865
79	0x3d767d37	0.060178008
80	0xba642579	-0.00087030936
81	0xbda14afd	-0.07875631
82	0x3da27606	0.079326674
83	0x3daa0868	0.083023846
84	0xbd75ce17	-0.060010996
85	0x3e4276f8	0.18990695
86	0x3d3d35d0	0.046193898
87	0x3d8d6522	0.06904055
88	0x3d0c9449	0.034321103
89	0xbe21978b	-0.15780465
90	0x3cd08c49	0.025457518
91	0xbdc07fe8	-0.09399396
92	0x3dd4679e	0.10371326
93	0xbdc4fd48	-0.09618622
94	0xbe08e997	-0.13370357
95	0x3e2337d1	0.15939261
96	0x3df609ed	0.12013612
97	0x3db404c3	0.08789971
98	0xbd72965f	-0.059225436
99	0x3da86fc8	0.082244456
100	0x3cf69dfa	0.030104626
101	0xbd2d6122	-0.04232896
102	0xbd49635a	-0.049167015
103	0xbc9a546f	-0.01883909
104	0xbcdae9e5	-0.026722858
105	0xbd20f5a7	-0.039296772
106	0xbcfe240c	-0.031023048
107	0x3c96b4f7	0.018396838
108	0xbc29f54f	-0.0103734275
109	0x3ce96dc0	0.028494716
110	0x3da00864	0.078141004
111	0x3c9c12d4	0.019051947
112	0xbe279c6b	-0.16368262
113	0xbdc927c8	-0.09822041
114	0xbdab3a29	-0.083607025
115	0xbc150114	-0.009094495
116	0xbdb39aca	-0.08769758
117	0x3c989242	0.018624429
118	0xbdc1956d	-0.09452329
119	0x3d377c97	0.044796553
120	0x3bdc2964	0.0067188013
121	0xbd87b018	-0.06625384
122	0xbcbb41a7	-0.022858454
123	0xbd3089e5	-0.043100256
124	0xbc74b32f	-0.014935299
125	0x3df16c29	0.11788208
126	0x3ce56348	0.028001443
127	0xbd77c783	-0.060493004
128	0x3d5fd92e	0.054650478
129	0xbdf50993	-0.11964717
130	0x3e1b2386	0.1515027
131	0xbe90df8d	-0.28295556
132	0xbba4adc9	-0.0050255996
133	0x3b91cc37	0.004449393
134	0xbe5599fb	-0.2085952
135	0x3d681572	0.056661077
136	0x3dca8ded	0.098903514
137	0xbd11e5bb	-0.03561948
138	0xbe365094	-0.17804176
139	0x3db8fc24	0.09032467
140	0xbc264484	-0.010148171
141	0x3d6df695	0.058096487
142	0x3d915d9c	0.07097933
143	0x3c961f12	0.018325362
144	0x3dc84dbd	0.097804524
145	0x3c5d8bd5	0.013522108
146	0xbc52b0a7	-0.0128595
147	0xbe198fdf	-0.14996289
148	0x3b18a8e5	0.0023294028
149	0xbe2df606	-0.16988382
150	0x3da3ef23	0.08004596
151	0xbe182d4f	-0.14861034
152	0xbca9b6f1	-0.020717116
153	0xbd850ef6	-0.06496994
154	0xbd500446	-0.050785325
155	0xbe4b5558	-0.19856775
156	0x3cc5bf91	0.024139198
157	0x3e179037	0.14801107
158	0x3ddc82b6	0.10767119
159	0x3e19280a	0.1495668
160	0xbe3d6ca0	-0.18498468
161	0xbe3c96eb	-0.18416946
162	0xbe80b59c	-0.25138557
163	0x3c6af791	0.014341251
164	0xb8239e31	-3.9009556e-05
165	0x3c49a53d	0.012307462
166	0x3b879132	0.0041371817
167	0xbd669d8d	-0.056302596
168	0x3d704728	0.05866161
169	0xbd93a1ee	-0.0720862
170	0xbdbf8030	-0.09350622
171	0x3d26c623	0.0407163
172	0xbd67e30c	-0.056613013
173	0xbdebb596	-0.11509244
174	0x3d77a588	0.060460597
175	0xbdcef042	-0.10104419
176	0x3d82f6ba	0.063947156
177	0x3bac5f1d	0.005260362
178	0x3d1636c9	0.03667334
179	0x3cf9de4d	0.03050151
180	0xbd45e4e5	-0.048313994
181	0x3b4a7c9d	0.003089703
182	0x3cfd70ba	0.030937541
183	0x3e11a9a8	0.14224875
184	0x3db6f48b	0.089333616
185	0xbe68470f	-0.22683357
186	0xbcdaaf98	-0.026695058
187	0xbd914d08	-0.07094771
188	0x3dcf344a	0.10117395
189	0xbe49790b	-0.1967508
190	0x3c813ef6	0.015777092
191	0xbd621a7a	-0.05520103
192	0xbac82c33	-0.0015271961
193	0x3a1b937e	0.0005934759
194	0xbb8b2c57	-0.004247229
195	0xbc1aa227	-0.009438074
196	0x3df9fd4f	0.12206518
197	0xbe558b81	-0.20853998
198	0x3d521135	0.05128594
199	0x3d8672f6	0.06564896
200	0x3d121f51	0.035674397
201	0xbd24c25d	-0.04022442
202	0x3cd1a7b2	0.025592659
203	0xbd0941ba	-0.033509947
204	0xbe3e967a	-0.1861209
205	0xbd706253	-0.05868752
206	0xbe8e963d	-0.27848998
207	0x3d7bb72e	0.06145399
208	0x3d6fbb14	0.05852802
209	0xbd34e1a5	-0.044160504
210	0xbe0a5492	-0.13508824
211	0x3cd0ea15	0.025502244
212	0x3b3aa10d	0.0028477341
213	0xbd9d4ed1	-0.07681049
214	0xbe5d41ca	-0.21607128
215	0xbd3f3108	-0.04667762
216	0xbcb4d0ed	-0.02207228
217	0x3d431a9e	0.047632806
218	0xba8262f2	-0.0009947701
219	0x3d83da22	0.0643809
220	0x3d1b5be5	0.037929434
221	0x3c88ecbd	0.016714448
222	0x3bdc3f5b	0.0067214197
223	0xbd0afbfc	-0.033931717
224	0x3d128af5	0.03577705
225	0xbbdab870	-0.0066748187
226	0xbd27b9ef	-0.040948804
227	0xbd222b28	-0.03959194
228	0xbc1572d1	-0.009121613
229	0xbd608dcf	-0.05482274
230	0xbd833de5	-0.0640829
231	0xbdf5de27	-0.12005263
232	0x3de1d002	0.110260025
233	0xbdc6f239	-0.09714169
234	0x3b672ac1	0.0035273286
235	0xbd297cc6	-0.04137876
236	0x3dde591a	0.108568385
237	0x3daa978b	0.08329686
238	0xbd3a3705	-0.045462627
239	0xbc9961c7	-0.018723382
240	0xbd217843	-0.03942133
241	0xbda937c4	-0.082625896
242	0x3d600807	0.054695155
243	0xbccd6d6e	-0.025076594
244	0xbd16724b	-0.036730092
245	0xbde73335	-0.11289064
246	0xbe440792	-0.19143513
247	0xbe4486b6	-0.19192013
248	0x3cb230a5	0.021751711
249	0x3cc92e89	0.024558323
250	0x3c5ed2be	0.01360005
251	0xbc9369e7	-0.017994834
252	0xbc93a091	-0.0180209
253	0x3d567f31	0.052367393
254	0x3dcf04c8	0.10108334
255	0x3d1ea704	0.038733497

actor_mean.2.bias f4 [4]
0	0x3c9a1a8e	0.01881149
1	0x3db5b1a0	0.0887177
2	0x3d07b280	0.033129215
3	0x3cb07ae9	0.021542983

critic.0.weight f4 [256, 256]
0	0x3c9d0fb0	0.01917252
1	0x3c9f90b2	0.019478176
2	0xbd042023	-0.03225721
3	0xbd2a43cd	-0.041568566
4	0xbbd886ee	-0.0066078817
5	0xbd4205ca	-0.047368802
6	0xbb71ccba	-0.0036895708
7	0x3d5b2637	0.05350324
8	0x3d8c814c	0.06860599
9	0x3c84cd29	0.01621111
10	0x3ba4ba26	0.0050270734
11	0xbabec8b2	-0.0014555661
12	0xbc66cbf7	-0.014086715
13	0x3d42f255	0.047594387
14	0x3b2362d5	0.0024930735
15	0x3d5025fb	0.05081747
16	0x3d343062	0.043991454
17	0x3d508188	0.05090478
18	0x3d6e2edf	0.05815017
19	0xbc4163de	-0.011803595
20	0xbd55a482	-0.05215884
21	0x3d6b9cec	0.0575227
22	0x3d1a9def	0.037748273
23	0x3c0a3f33	0.008437919
24	0x3cbbcb87	0.022924198
25	0x3d61ac7f	0.055096146
26	0xbd91aa09	-0.0711251
27	0x3d62ad8c	0.05534129
28	0xbcd75858	-0.026287243
29	0x3c9d2dff	0.019186972
30	0xbc5f5500	-0.013631105
31	0x3d46cc3b	0.048534613
32	0xbd28d28d	-0.041216422
33	0x3caf2c94	0.021383561
34	0xbd16bcbd	-0.03680109
35	0x3d9f6151	0.077822335
36	0xbd8b406e	-0.06799398
37	0x3d19e70c	0.03757386
38	0xbcbb05d8	-0.022829935
39	0xbd55927c	-0.05214165
40	0x3cbbf2a6	0.022942852
41	0x3cdacc1a	0.026708651
42	0xbd8094fd	-0.06278417
43	0xbdc611d2	-0.09671368
44	0x3cdbdbab	0.026838144
45	0x3d772c36	0.060344897
46	0x3a4717c7	0.00075947907
47	0xbd8c6bcc	-0.06856498
48	0x3d4b1cb0	0.049587905
49	0x3d8efafa	0.06981464
50	0x3d265d98	0.0406166
51	0xbd71984b	-0.05898313
52	0xbd8605d9	-0.06544084
53	0x3d5ca633	0.053869437
54	0xbd4ce9fd	-0.050027836
55	0xbdb8308c	-0.089936346
56	0x3d6d50c5	0.057938356
57	0x3c616ed8	0.013759337
58	0xbc6b2129	-0.014351168
59	0xbd0a54b9	-0.033772204
60	0x3da909ff	0.0825386
61	0x3d570031	0.052490417
62	0xbc19818f	-0.009369268
63	0xbd316fd1	-0.043319527
64	0x3ce9167b	0.028453102
65	0xbd15ff38	-0.03662035
66	0x3ca04a5f	0.019566713
67	0xbd5dfb25	-0.05419459
68	0x3c3a8cf0	0.011386141
69	0xbd175df9	-0.036954854
70	0xbd78b22a	-0.060716785
71	0x3d6d60bb	0.057953577
72	0x3c2c03fa	0.010498995
73	0x3cc56865	0.02409763
74	0x3c318dcd	0.010837031
75	0x3c8f0af1	0.017461272
76	0xbb10d5b2	-0.0022100029
77	0xbd252ab7	-0.04032394
78	0xbd54ceb4	-0.05195494
79	0x3c8f3cb5	0.017485002
80	0x3d156a5b	0.03647838
81	0x3d91fd42	0.07128383
82	0xbd2fefde	-0.042953365
83	0xbd4d1b0a	-0.050074615
84	0x3d222e1e	0.039594762
85	0x3d0fb5b2	0.035085388
86	0xbd073549	-0.0330098
87	0x3cd77334	0.02630005
88	0xbd7266f5	-0.05918022
89	0xbd23d92b	-0.04000203
90	0x3d46eaa2	0.048563607
91	0x3d361ab3	0.044459056
92	0x3c7c0192	0.015381234
93	0xbd3091c0	-0.043107748
94	0x3bc7aeeb	0.00609385
95	0x3d3a09cf	0.04541951
96	0x3d66e758	0.05637297
97	0xbbd392f1	-0.0064567258
98	0xbcae6a92	-0.021291051
99	0x3d6db4b6	0.058033668
100	0x3d95fb72	0.0732335
101	0x3c97aca5	0.01851494
102	0x3be3c6bb	0.0069511808
103	0x3cf0ff8e	0.029418733
104	0x3d28d5a3	0.041219365
105	0x3b998454	0.004684964
106	0x3e1d6155	0.1536916
107	0xbd536d33	-0.051617812
108	0xbcae13a2	-0.021249596
109	0x3d341950	0.043969452
110	0x3c0d20db	0.00861379
111	0x3c2c0714	0.010499734
112	0x3bc60b9e	0.0060438653
113	0x3d6aaed1	0.057295624
114	0xbd5f73e0	-0.054553866
115	0x3cda0983	0.026615864
116	0x3d52f52e	0.051503353
117	0x3d446466	0.04794731
118	0x3d4ccb08	0.049998313
119	0xbd5f5cc0	-0.054531813
120	0xbbb0d824	-0.0053968597
121	0x3d2c5eaa	0.042082466
122	0x3d09768c	0.03356032
123	0xbd714cee	-0.058911256
124	0x3ce80246	0.028321397
125	0x3d83add3	0.06429639
126	0xbd7be54b	-0.061497968
127	0x3b58e7ec	0.003309722
128	0x3b7d8983	0.00386867
129	0xbd678d90	-0.05653149
130	0x3d80c309	0.062872
131	0x3cce9998	0.025219724
132	0x3a9b5d06	0.0011853285
133	0xbd49421f	-0.049135324
134	0x3c82ab1e	0.015950736
135	0x3c4c0e1d	0.012454537
136	0xbc908d4d	-0.017645502
137	0xbc8aa049	-0.016922133
138	0xbd1fd3e5	-0.039020438
139	0x3d135539	0.035969947
140	0x3c0fde29	0.008780994
141	0x3c50e411	0.012749688
142	0xbb505da5	-0.0031794098
143	0xbcdec9fb	-0.027195921
144	0x3d1b47d9	0.037910316
145	0x3d2e5a4e	0.04256659
146	0xbccb050a	-0.024782676
147	0x3cb47dda	0.022032667
148	0xbd14ee34	-0.03635998
149	0x3d2503c2	0.040286787
150	0xbcccd02f	-0.025001613
151	0xbccaeee0	-0.024772108
152	0xbc53d05a	-0.012928093
153	0x3cdc53ed	0.026895488
154	0x3cc043d2	0.02346984
155	0xbca69213	-0.020333325
156	0x3c872838	0.01649867
157	0x3d0a9515	0.033833582
158	0xbc749c2b	-0.0149298115
159	0x3cfbfe0b	0.030760786
160	0x3d0dab31	0.03458709
161	0x3d49f0cb	0.049301904
162	0x3cdfcfdf	0.0273208
163	0x3ca2086f	0.019779412
164	0x3c89a139	0.01680051
165	0xbc87501c	-0.016517691
166	0x3d4675f1	0.04845232
167	0xbcd6e146	-0.026230466
168	0xbc7b6163	-0.015343043
169	0x3d43744e	0.04771834
170	0xbd0dbb96	-0.034602724
171	0x3cb800a8	0.02246125
172	0x3d4e5756	0.05037626
173	0x3d530ce0	0.05152595
174	0x3cfd6f3d	0.030936832
175	0x3b5d4c12	0.0033767265
176	0xbd20940a	-0.03920368
177	0x3cf7e971	0.03026268
178	0xbc87da15	-0.016583482
179	0x3a14ace6	0.0005671516
180	0x3d0a54d1	0.033772293
181	0x3c3c5055	0.011493762
182	0xbcdf9cb3	-0.0272964
183	0xbc6747d8	-0.01411625
184	0xbd066d88	-0.0328193
185	0x3cc8dbc3	0.024518853
186	0xbcc2bcdf	-0.023771701
187	0xbb373d85	-0.0027960252
188	0xbd5116b5	-0.051047046
189	0x3bddebd9	0.0067725
190	0xbd2afd60	-0.041745543
191	0xbd19f96e	-0.03759139
192	0x3d639712	0.055563994
193	0x3c736124	0.014854703
194	0x3c3ee8a7	0.011652148
195	0xbca31a08	-0.019909874
196	0xbd86a433	-0.06574287
197	0xbd44f379	-0.048083756
198	0x3da586d7	0.08082359
199	0x3d65f2c3	0.05613972
200	0x3d217427	0.039417412
201	0xbc11f1ed	-0.008907777
202	0xbcd376f9	-0.025813567
203	0x3d9fb18f	0.077975385
204	0xbcec2eba	-0.028830875
205	0x3d8121ad	0.06305251
206	0x3bfecf78	0.007776197
207	0x3d434f83	0.04768325
208	0x3d12f7c6	0.035880826
209	0xbd8b88d2	-0.06813206
210	0xbc918d24	-0.017767496
211	0xbd08ddfa	-0.03341482
212	0x3bfa6f40	0.0076426566
213	0xbd83fc69	-0.06444628
214	0x3d18472a	0.037177242
215	0x3c928b73	0.01788876
216	0xbd64b884	-0.05584003
217	0x3b9df96f	0.0048209946
218	0x3d5c33fd	0.053760517
219	0x3cfa34dc	0.030542783
220	0xbc9a0fc5	-0.018806348
221	0xbcc3ec1f	-0.023916302
222	0xbdba2cd8	-0.090905845
223	0x39b5c1f5	0.0003466752
224	0xbd9a0a7f	-0.07521533
225	0x39cb5c09	0.0003878775
226	0xbc617ad7	-0.013762197
227	0xbcda842f	-0.026674358
228	0x3cc02b18	0.023458049
229	0x3bdeb560	0.006796524
230	0xbcb1e0e4	-0.021713682
231	0xbdcd4bb4	-0.10024205
232	0x3d37a7d9	0.044837806
233	0x3cb2f10b	0.021843454
234	0xbbde9776	-0.006792958
235	0xbd192628	-0.037389904
236	0x3d451a81	0.04812098
237	0xbcd99a0d	-0.026562715
238	0xbbb57456	-0.00553755
239	0xbb1613d2	-0.0022899997
240	0xbd3415c3	-0.043966066
241	0x3d4e61f5	0.050386388
242	0xbc7ce564	-0.01543555
243	0xbd7b7199	-0.061387632
244	0xbd6c3daa	-0.057675995
245	0xbcd24c91	-0.025671275
246	0xbd05d66c	-0.03267519
247	0x3bab6daf	0.005231581
248	0x3d84d207	0.06485372
249	0x3c90d45e	0.01767939
250	0xbd29356f	-0.041310724
251	0x3d2946e3	0.04132737
252	0x3d1426c9	0.0361698
253	0xbd634f36	-0.055495463
254	0xbbcf5da9	-0.006328304
255	0x3ce1c113	0.027557885

critic.0.bias f4 [256]
0	0x3cb1dac4	0.02171076
1	0x3d9c44a0	0.07630277
2	0x3dc2e0e3	0.0951555
3	0x3e101e5e	0.14074084
4	0x3bb4b628	0.005514879
5	0xbcc5d778	-0.024150595
6	0xba523851	-0.0008019256
7	0xbca2420b	-0.019806882
8	0xbbcf1846	-0.0063200323
9	0x3e086e5c	0.13323349
10	0xbc97d417	-0.01853375
11	0xbd54f8f5	-0.051995236
12	0x3d73c45a	0.059513427
13	0x3bd5cda2	0.0065247575
14	0x3cfda63d	0.030963058
15	0x3dd9dfc9	0.10638387
16	0xbd94500e	-0.07241832
17	0x3c402639	0.011727863
18	0x3d446f77	0.047957864
19	0x3d0d65ff	0.0345211
20	0x3daf8b0c	0.08571443
21	0xbd473483	-0.048634063
22	0x3d9c9bf2	0.07646932
23	0x3c91f11d	0.017815167
24	0x3dbcab4e	0.09212361
25	0x3dfa6f75	0.1222829
26	0xbd0cad15	-0.03434475
27	0x3bfa5127	0.0076390686
28	0x3c98e234	0.01866255
29	0xbd3eaebe	-0.046553366
30	0x3de2beba	0.110715345
31	0x3de6dd23	0.11272647
32	0x3ceda741	0.029010417
33	0x3daa5f11	0.08318914
34	0x3df6a44d	0.12043057
35	0xbbeca654	-0.0072219763
36	0x3ce2ad2b	0.027670464
37	0x3d0b81dc	0.03405939
38	0x3d38440f	0.04498678
39	0x3d8e41e4	0.069461614
40	0x3d5f9c2b	0.054592293
41	0x3d046003	0.032318126
42	0x3cc9582f	0.024578182
43	0xbb97f8a0	-0.0046377927
44	0x3dad60b8	0.08465713
45	0x3cdb8adc	0.026799612
46	0x3b303128	0.0026884768
47	0xbcff1367	-0.031137181
48	0xbd09b55c	-0.033620223
49	0xbd73450a	-0.059392013
50	0xbd7d9d24	-0.06191744
51	0x3c655c21	0.013999016
52	0xbd35304e	-0.04423552
53	0xbcca341f	-0.024683056
54	0xbd1fbb2c	-0.03899686
55	0x3dd9808b	0.10620221
56	0x3e122388	0.14271367
57	0x3d138316	0.036013685
58	0xbb4d2d9e	-0.0031307708
59	0x3dab974b	0.08378466
60	0xbd448c9b	-0.047985654
61	0x3ce53d0f	0.027983217
62	0x3cc8936e	0.024484362
63	0x3ddfea2e	0.10933338
64	0x3d793315	0.06083973
65	0x3e2fbd16	0.17161974
66	0xbc0bf039	-0.00854116
67	0x3c1b0379	0.009461277
68	0x3cecb89e	0.028896626
69	0xbc9d3ad8	-0.019193098
70	0x3d91bcfc	0.07116124
71	0x3d8bba3a	0.06822629
72	0x3b3e2c10	0.0029017963
73	0x3dec1f73	0.11529436
74	0xbda3bf1b	-0.07995435
75	0x3db25d36	0.08709185
76	0x3d4973f2	0.04918284
77	0xbd6bc0d6	-0.05755695
78	0xbd96cecd	-0.07363663
79	0x3de47c31	0.111565
80	0x3e1050c9	0.14093317
81	0x3df77946	0.12083678
82	0x3dc415bc	0.09574458
83	0x3d4b777a	0.04967449
84	0x3d15281a	0.036415197
85	0x3d3c5792	0.04598195
86	0x3d1dbdab	0.03851096
87	0x3c89a60b	0.016802808
88	0x3c6603d1	0.014038996
89	0xbd74ee00	-0.059797287
90	0x3ccb8402	0.02484322
91	0x3d63dff5	0.055633504
92	0x3c0d8c8b	0.008639465
93	0xbd9b2964	-0.07576254
94	0x3c84031c	0.016114764
95	0x3d12d077	0.03584334
96	0xbd884b13	-0.06654944
97	0x3d937db3	0.072017096
98	0xbcf6d957	-0.030132933
99	0xbd057ef4	-0.032591775
100	0x3e159a62	0.14609674
101	0x3c1be4a9	0.009514966
102	0x3db60568	0.0888775
103	0x3df26643	0.11835911
104	0x3ddfef7c	0.1093435
105	0x3d94c978	0.072649896
106	0xbc111477	-0.008854977
107	0x3ba2009e	0.004943921
108	0x3d9d29d5	0.076739945
109	0x3dd0ccde	0.10195325
110	0xbd079fc3	-0.033111345
111	0x3dadf7ba	0.08494516
112	0xbd1d9b15	-0.038477976
113	0xbcb0abb1	-0.021566244
114	0x3d692c1e	0.05692684
115	0xbc3857b9	-0.011251383
116	0xb93e7961	-0.00018165029
117	0x3dba4ef6	0.09097092
118	0x3cbe95df	0.023264823
119	0xbd02a665	-0.031896967
120	0x3d8fc898	0.07020682
121	0x3d91077b	0.07081505
122	0x3dada675	0.08479015
123	0xbc998df5	-0.018744448
124	0xbcfd90de	-0.030952867
125	0xbd4d34f2	-0.05009932
126	0xbc9a0694	-0.018801965
127	0x3d1c6288	0.038179904
128	0x3b043a19	0.002017623
129	0x3d6b6752	0.05747158
130	0x3de5aab2	0.11214198
131	0x3d5b59a5	0.05355229
132	0xbcb68e79	-0.022284733
133	0x3c91bc95	0.017790118
134	0x3ca36519	0.019945668
135	0x3e02415e	0.12720248
136	0x3db0a19d	0.08624575
137	0x3cc266be	0.023730632
138	0x3cbad8e0	0.022808492
139	0x3d474eff	0.04865932
140	0x3de832a4	0.11337784
141	0x3dab7f15	0.08373848
142	0x3ded383e	0.11582993
143	0xbc0ce7c5	-0.00860018
144	0xbd85ab26	-0.065267846
145	0xbd4ef73c	-0.05052875
146	0xbd14db6e	-0.036342077
147	0x3d41e707	0.047339465
148	0xbc897065	-0.016777227
149	0x3c8bbcfa	0.017057884
150	0x3df90db2	0.12160815
151	0x3d014c0b	0.03156666
152	0xbd69a007	-0.05703738
153	0x3e3044ee	0.17213795
154	0xbd374bf8	-0.044750184
155	0x3dde58d7	0.108567886
156	0x3d5026c4	0.05081822
157	0xbce1d18b	-0.027565738
158	0x3de11c8e	0.109917745
159	0x3de717a2	0.112838045
160	0x3cd7b0bb	0.026329389
161	0x3d29a94c	0.04142122
162	0x3bddef5a	0.0067729177
163	0x3de678e8	0.1125353
164	0xbd06835c	-0.032840118
165	0x3da13f08	0.078733504
166	0x3df78a6d	0.120869495
167	0x3bb82696	0.005619834
168	0x3dc53ac6	0.09630351
169	0x3d39d702	0.045371063
170	0x3c8e04e0	0.017336309
171	0x3beae8f1	0.007168882
172	0x3d396bec	0.045268938
173	0xbccf36f1	-0.025294753
174	0xbcdb09dd	-0.026738102
175	0xbd53c1d9	-0.05169854
176	0x3db6c35c	0.089239806
177	0xbc991f9a	-0.018691827
178	0xbd81df24	-0.06341389
179	0x3dbb70f2	0.09152402
180	0x3da954a2	0.082680956
181	0x3ca50115	0.020142118
182	0x3dad7df9	0.08471293
183	0x3e06cbf8	0.13163745
184	0x3d7ea225	0.06216635
185	0x3dce1d43	0.10064175
186	0x3d275f9f	0.040862676
187	0x3d0381fd	0.03210639
188	0xbca367c3	-0.019946938
189	0x3e09b852	0.13449219
190	0x3e0639ee	0.13108036
191	0x3da65901	0.08122445
192	0x3d15a7bd	0.03653692
193	0x3c8198c2	0.01581991
194	0xbbe5172f	-0.006991289
195	0x3c9af697	0.018916411
196	0x3cf2e143	0.029648429
197	0xbc35ab85	-0.011088257
198	0xbc5a7c57	-0.013335309
199	0xbd8b6303	-0.06805994
200	0xbd0f9888	-0.035057575
201	0x3c3d7d49	0.011565515
202	0xbd0b594a	-0.0340207
203	0x3cddacc6	0.027059924
204	0x3cd593a6	0.02607138
205	0x3c475bc7	0.0121678775
206	0xbc52040a	-0.012818346
207	0x3df5bd46	0.11998992
208	0x3c4a1b3c	0.012335595
209	0x3ded5bed	0.11589799
210	0xbd111764	-0.035422698
211	0x3e00ee91	0.12591006
212	0x3db34fc5	0.08755449
213	0x3d9785be	0.07398556
214	0x3d86f46e	0.0658959
215	0xbd4297b4	-0.047507957
216	0x3dd33977	0.10313695
217	0xbd0ae60a	-0.03391079
218	0x3d125ba2	0.03573192
219	0x3ce865b7	0.028368814
220	0x3d1d8852	0.038460083
221	0x3e0ff44d	0.14058037
222	0x3dccddaf	0.1000322
223	0xbcc1815f	-0.02362126
224	0x3c7ba999	0.015360259
225	0x3c5f7406	0.013638502
226	0x3e10ec4f	0.14152645
227	0x3d74a8bc	0.05973123
228	0xbd4a2aab	-0.049357098
229	0x3d0805f4	0.033208802
230	0x3d586203	0.052827846
231	0x3d85fd3c	0.06542441
232	0xbd8a5bc8	-0.06755787
233	0x3c1c84b3	0.009553122
234	0x3debb756	0.11509578
235	0x3dce5d72	0.10076417
236	0x3c65d5c1	0.014028014
237	0x3c9bc7d0	0.019016176
238	0x3dd9b198	0.106295764
239	0x3e05b633	0.13057785
240	0x3db874b0	0.090066314
241	0x3db3c643	0.0877805
242	0x3d60019b	0.05468903
243	0x3d17dd11	0.03707606
244	0x3daeb059	0.085297294
245	0xbd1428cd	-0.036171723
246	0x3cc09ffc	0.023513786
247	0x3d885075	0.06655971
248	0x3da8f579	0.08249945
249	0xbd17a62e	-0.037023716
250	0xbd8860d9	-0.06659097
251	0x3d426e8b	0.047468703
252	0xbd97d372	-0.07413377
253	0x3c23c140	0.009994805
254	0x3e122cf4	0.14274961
255	0x3d0f7a48	0.035028726
