best_model_episode_1900.pth (torch, 561701 bytes, 10 tensors)

actor_log_std f4 [4]
0	0xc0347e6d	-2.8202164
1	0xc02d8480	-2.7112122
2	0xc02e42da	-2.7228303
3	0xc039db7d	-2.9040215

shared.0.weight f4 [256, 24]
0	0xbe3e3699	-0.18575515
1	0x3f063f30	0.52440166
2	0xbf21b0a2	-0.63160145
3	0x3f0330a7	0.5124611
4	0xbdf51b5f	-0.11968111
5	0x3d590181	0.05297995
6	0xbd1742f3	-0.036929082
7	0xbdeac963	-0.11464193
8	0xbe27be5b	-0.16381209
9	0xbe6a741b	-0.22895853
10	0xbd329aef	-0.043604787
11	0x3d3ef32a	0.046618618
12	0x3e699736	0.22811589
13	0x3e7adb69	0.24497761
14	0x3c9e9e79	0.019362675
15	0xbe14309c	-0.14471668
16	0x3c2e8e19	0.010653996
17	0xbe075396	-0.13215479
18	0xbe85e158	-0.26148486
19	0xbde736c8	-0.112897456
20	0xbe7ff79f	-0.24996804
21	0xbe5f3164	-0.21796185
22	0xbe5dd163	-0.21661906
23	0x3cf0706f	0.029350488
24	0xbf869880	-1.0515289
25	0xbe29ee1c	-0.16594738
26	0xbf16748d	-0.5877159
27	0xbe87e8e7	-0.26544878
28	0x3eaa4179	0.33253077
29	0xbeb56a86	-0.35432833
30	0x3e921d4d	0.2853798
31	0xbdcd5e5b	-0.100277625
32	0xbe6e6130	-0.23279262
33	0xbe827064	-0.25476372
34	0xbe85fb3e	-0.26168245
35	0x3dbf1baf	0.09331452
36	0xbdae42e6	-0.085088536
37	0xbe424e2b	-0.18975131
38	0xbe23325e	-0.15937182
39	0xbe70c095	-0.23510964
40	0xbdcc29db	-0.09968921
41	0xbe452556	-0.19252524
42	0xbd12ef94	-0.03587301
43	0x3db5881c	0.088638514
44	0x3d1ec057	0.03875765
45	0xbe83b169	-0.2572129
46	0xbd24bde3	-0.040220153
47	0xbd69b6e7	-0.057059195
48	0x3e49af6b	0.19695823
49	0xbf1eb296	-0.6199125
50	0x3eb4f035	0.35339513
51	0x3e943f9b	0.28954777
52	0xbe524022	-0.20532277
53	0x3e5cbaac	0.21555585
54	0x3eb4a85c	0.35284698
55	0x3e3689c3	0.1782599
56	0xbe571b51	-0.21006514
57	0x3db9cfc2	0.0907283
58	0xbd121892	-0.035667963
59	0xbd9baa00	-0.07600784
60	0xbde04771	-0.10951126
61	0xbe9aa3d4	-0.30203116
62	0xbda45e66	-0.080258176
63	0xbe5d3cb5	-0.21605189
64	0xbdb7104b	-0.089386545
65	0xbe58aaee	-0.21158955
66	0xbcdd5363	-0.027017301
67	0xbeb21f43	-0.34789476
68	0xbebfd4c4	-0.37467015
69	0xbe1d3976	-0.15353951
70	0x3e730732	0.23733214
71	0x3e3835a4	0.17989212
72	0x3e045d8a	0.12926307
73	0xbe3b6dc8	-0.18303597
74	0xbe848b65	-0.258876
75	0xbf7f4fc0	-0.99731064
76	0xbd9b5b91	-0.07585824
77	0x3c64b6af	0.013959571
78	0x3e7cc2b9	0.24683656
79	0xbc95e040	-0.018295407
80	0xbd0abd49	-0.033871923
81	0xbee16289	-0.4402049
82	0xbe07f1c3	-0.13275819
83	0xbd5e85cb	-0.054326814
84	0xbd1c3fdc	-0.03814684
85	0x3db4cc90	0.0882808
86	0x3e23cca0	0.15996027
87	0xbe0b3e8e	-0.13598081
88	0xbda81f3e	-0.08209084
89	0x3dc882ca	0.09790571
90	0x3dd59ac7	0.10429912
91	0x3d0b847e	0.0340619
92	0x3e8449ef	0.25837657
93	0x3f12e3f3	0.5737907
94	0xbdb5f460	-0.088845015
95	0xbe44b937	-0.19211279
96	0x3ef15426	0.47134513
97	0xbd53ca45	-0.05170657
98	0xbe23b724	-0.15987831
99	0xbe8ac631	-0.27104333
100	0xbe66cb8a	-0.22538581
101	0xbc1d912d	-0.009617132
102	0xbe13e1b8	-0.14441574
103	0xbdf63f9f	-0.120238535
104	0xbe6d0290	-0.23145509
105	0xbf26d610	-0.65170383
106	0xbe8aa22c	-0.27076852
107	0xbecf5e5a	-0.40501672
108	0xbeaf36ce	-0.342215
109	0x3d8c7053	0.06857362
110	0x3e74e3b7	0.23914991
111	0x3d957141	0.07296992
112	0x3dc1525d	0.09439538
113	0xbe2ddb3a	-0.1697816
114	0xbe00e815	-0.12588532
115	0xbd954b22	-0.07289721
116	0x3c3e1c99	0.011603498
117	0xbe7674ee	-0.24068043
118	0xbe0f5184	-0.1399594
119	0xbde752f4	-0.11295119
120	0x3dded1af	0.10879838
121	0xbd181438	-0.037128657
122	0x3e8a36b9	0.26994875
123	0xbf53a87e	-0.82678974
124	0xbe8061a0	-0.25074482
125	0xbe412342	-0.18861106
126	0xbebb6c99	-0.3660629
127	0xbd928812	-0.071548596
128	0x3d8d263a	0.06892057
129	0xbe324160	-0.17407751
130	0x3e1942a2	0.14966825
131	0x3da72f24	0.08163288
132	0x3d947340	0.07248545
133	0x3e4b7de4	0.19872242
134	0xbeb2c9c2	-0.34919554
135	0xbeb5b034	-0.35485995
136	0xbeda04f6	-0.4258191
137	0xbee5b2a1	-0.44862846
138	0xbe383e65	-0.17992552
139	0xbe9516ea	-0.29119045
140	0xbe57a82e	-0.21060249
141	0xbed40a96	-0.41414326
142	0x3e8006e7	0.25005266
143	0xbcd75a13	-0.026288068
144	0xbd96915a	-0.07351942
145	0xbf0a83b6	-0.54107225
146	0x3c3cbc14	0.011519451
147	0x3ea67de8	0.32517934
148	0x3e998e1c	0.29991233
149	0xbd4b74b3	-0.04967184
150	0xbe2a9e20	-0.16661882
151	0xbe1ec093	-0.15503149
152	0x3be4f92d	0.006987712
153	0xbe954176	-0.29151505
154	0x3db010de	0.08596967
155	0xbeb6d262	-0.35707384
156	0x3de27e0c	0.11059198
157	0x3d8ffd4f	0.07030737
158	0x3b1ac147	0.0023613737
159	0xbe3ac252	-0.1823819
160	0x3ddaf5a0	0.106913805
161	0xbd1c207c	-0.038116917
162	0xbd80feab	-0.06298574
163	0xbe912ebb	-0.28355965
164	0xbd009270	-0.031389654
165	0xbe29140c	-0.16511554
166	0xbe22920f	-0.1587603
167	0x3e360aed	0.17777605
168	0x3e6191d6	0.22028288
169	0x3d5b5dd6	0.053556286
170	0xbea1c5cf	-0.31596228
171	0xbe90fa14	-0.28315794
172	0x3de85441	0.11344195
173	0xbe1dc725	-0.15407999
174	0xbda0894b	-0.078386866
175	0xbe0388b4	-0.12845117
176	0xbe191e4e	-0.14952967
177	0xbe7243c6	-0.23658666
178	0x3db36428	0.08759338
179	0xbdd7c46b	-0.10535511
180	0xbc077f9e	-0.008270172
181	0xbe007fb6	-0.12548718
182	0xbd815721	-0.06315447
183	0xbe3113e7	-0.17292748
184	0x3bf210a0	0.0073872358
185	0x3c13c7bf	0.009019791
186	0xbcb4b34f	-0.022058157
187	0xbe0cc43d	-0.13746734
188	0xbe206ddb	-0.15666907
189	0xbd959f49	-0.07305772
190	0xbde60990	-0.11232293
191	0xbd244496	-0.04010447
192	0x3e653e5f	0.22387074
193	0x3fbe7e08	1.4882212
194	0xbf2a722e	-0.66580474
195	0x3f362b0b	0.7115943
196	0x3db03136	0.08603136
197	0xbc1bd3cd	-0.009510946
198	0x3d848b31	0.06471861
199	0x3d80f879	0.062973924
200	0x3b1a441a	0.0023539127
201	0xbe302135	-0.17200167
202	0x3d8f0359	0.069830604
203	0xbe268beb	-0.16264312
204	0xbc9170a5	-0.017753908
205	0xbeac0e59	-0.33604696
206	0xbe07e98f	-0.1327269
207	0xbe5baf20	-0.21453524
208	0xbdef86fe	-0.116956696
209	0x3c357b9c	0.011076834
210	0x3d9f900d	0.077911474
211	0x3d667a26	0.056268834
212	0xbe37b5cb	-0.17940442
213	0xbe327148	-0.17426026
214	0xbd416aa3	-0.047220837
215	0x3e5c862c	0.21535558
216	0x3d8a59e7	0.06755429
217	0xbeee8608	-0.46586633
218	0xbe6ac766	-0.22927627
219	0xbe860435	-0.26175085
220	0x3e1cbf29	0.15307297
221	0x3d9c0ee1	0.076200254
222	0xbc537b9a	-0.012907887
223	0x3de5de89	0.11224086
224	0xbe74d0e1	-0.23907806
225	0xbe686ed0	-0.22698522
226	0x3e0e41ef	0.13892339
227	0xbcc977d0	-0.024593264
228	0xbe09bb73	-0.13450412
229	0xbea2d460	-0.31802654
230	0xbe54a6ac	-0.20766705
231	0x3ddd0724	0.107923776
232	0x3d565bf9	0.052333806
233	0x3e00e6c9	0.12588038
234	0x3d809fc6	0.06280474
235	0x3c120c6d	0.008914095
236	0xbd5fe9df	-0.054666396
237	0xbe7b6958	-0.24551904
238	0xbea9aab3	-0.33138046
239	0xbe7d37be	-0.24728295
240	0x3eb91120	0.36145878
241	0x3f0a4689	0.5401388
242	0xbef19940	-0.47187233
243	0xbf210051	-0.6289111
244	0x3e3abb2c	0.18235463
245	0x3d38c9ee	0.04511445
246	0xbe570613	-0.20998411
247	0x3e4f3039	0.20233239
248	0x3d9cef90	0.076628804
249	0xbd4b8983	-0.04969169
250	0x3da151c7	0.07876926
251	0xbe527bb5	-0.20555003
252	0xbc9d3368	-0.019189551
253	0xbdb67861	-0.08909679
254	0xbe5d574b	-0.21615331
255	0xbeb63c73	-0.35592994

shared.0.bias f4 [256]
0	0xbe76c1b4	-0.2409733
1	0xbc9e1517	-0.019297166
2	0x3c63b0b2	0.013897108
3	0x3d9b034a	0.07568987
4	0xbe434ee7	-0.19073068
5	0x3dc9fce2	0.09862687
6	0x3dbc52c6	0.09195475
7	0x3d688016	0.056762777
8	0xbcb97504	-0.022638805
9	0x3e46ab28	0.19401228
10	0xbe6f6d4b	-0.23381536
11	0x3f039e75	0.5141366
12	0x3e629649	0.22127642
13	0x3d536f5a	0.051619865
14	0x3e2c80ae	0.16845962
15	0x3e1e4118	0.15454519
16	0x3e0c781d	0.13717695
17	0x3da465c2	0.08027221
18	0xbe83af1d	-0.25719538
19	0x3e6d3760	0.23165655
20	0x3e9f0fec	0.31066835
21	0xbb581266	-0.003296995
22	0x3d629826	0.05532088
23	0x3cfd2fd8	0.030906603
24	0x3e377581	0.17915918
25	0x3e8e6d7b	0.27817902
26	0x3d9571c8	0.07297093
27	0x3e70f002	0.23529056
28	0x3e4d7686	0.20064744
29	0x3de2f828	0.11082488
30	0x3e865743	0.2623845
31	0xbca25488	-0.019815698
32	0xbd8d70cb	-0.06906279
33	0x3e55f14b	0.20892827
34	0x3e0546cc	0.13015288
35	0x3e0b8901	0.13626482
36	0xbe3d7015	-0.18499787
37	0x3d3e6741	0.04648519
38	0xbddc679d	-0.1076195
39	0x3e158a0e	0.14603445
40	0xbea3c26c	-0.3198427
41	0x3e2dd457	0.16975532
42	0x3eb2ce0c	0.34922826
43	0xbe290bc1	-0.1650839
44	0xbc9291dc	-0.017891817
45	0xbda37506	-0.07981305
46	0x3e5f5802	0.21810916
47	0x3ee4f2b1	0.4471641
48	0xbd891e47	-0.06695228
49	0xbdcd6466	-0.10028915
50	0xbdb1fff5	-0.08691398
51	0xbc58ec06	-0.013239866
52	0xbe136ff0	-0.1439817
53	0xbdfdfa16	-0.12401216
54	0x3ec6874b	0.38775095
55	0x3ea7bd05	0.32761398
56	0x3e0824c5	0.13295276
57	0x3e3a1fdb	0.18176214
58	0xbcb3e876	-0.021961432
59	0x3cbceba8	0.023061588
60	0xbe3f9067	-0.18707429
61	0x3ea86976	0.3289296
62	0xbd42257b	-0.047399025
63	0xbdbd1917	-0.09233301
64	0xbe09d3d3	-0.13459711
65	0xbd3e24e4	-0.0464219
66	0xbe368a4e	-0.17826197
67	0xbe7e6575	-0.2484339
68	0xbe88b9f0	-0.2670436
69	0xbe86cfd7	-0.26330444
70	0xbdcf4d9a	-0.10122223
71	0xbe0a2b69	-0.13493122
72	0x3d8531b0	0.06503618
73	0x3dfb2f19	0.122648425
74	0xbe106cb3	-0.14103965
75	0xbe59dc5f	-0.21275471
76	0xbe4569a2	-0.19278577
77	0x3d7ed395	0.0622135
78	0x3eb4971d	0.3527154
79	0x3d8573cd	0.06516228
80	0x3e855ca2	0.26047236
81	0x3e07e635	0.13271411
82	0xbea1d377	-0.31606647
83	0xbd327ffc	-0.043579087
84	0xbdaf9e95	-0.08575169
85	0x3dcf44fb	0.10120579
86	0xbe19addb	-0.15007727
87	0x3e089286	0.13337144
88	0xbd7b7f0e	-0.061400466
89	0xbdc11726	-0.09428243
90	0x3e0cdf0c	0.1375696
91	0x3e408433	0.1880043
92	0xbe1392ad	-0.14411421
93	0xbe5bb213	-0.21454649
94	0x3e035560	0.12825537
95	0xbe3ed8ce	-0.18637392
96	0xbd89a855	-0.0672156
97	0x3c3a8744	0.011384789
98	0x3d8cca5a	0.06874533
99	0xbdf2deac	-0.118588775
100	0xbe75711c	-0.23968929
101	0x3ed990dc	0.4249333
102	0x3b5f1ee6	0.0034045517
103	0x3e0317e2	0.1280208
104	0xbc8acedd	-0.016944343
105	0xbe5feac8	-0.21866906
106	0xbdcbf5e3	-0.099590085
107	0x3e32640f	0.17420982
108	0xbe9f22a2	-0.3108111
109	0xbd2c0649	-0.04199818
110	0x3e9706bd	0.29497328
111	0xbe3e1d6d	-0.18565913
112	0x3bc8efef	0.006132118
113	0xbde2884f	-0.11061155
114	0x3dc5c69f	0.096570246
115	0x3d44841a	0.047977544
116	0xbe325486	-0.17415056
117	0xbcc4699f	-0.023976145
118	0x3e6ce383	0.23133664
119	0xbdefa452	-0.117012635
120	0x3e9b542c	0.30337656
121	0x3e2e96ac	0.17049664
122	0xbe1d289b	-0.15347521
123	0xbcbf6ca2	-0.02336723
124	0x3cb48df9	0.022040354
125	0x3e0e2e4c	0.13884848
126	0x3e2c93f0	0.16853309
127	0x3e18f820	0.14938402
128	0xbcc0fc26	-0.023557734
129	0x3e290b78	0.16508281
130	0x3eaea3c2	0.34109312
131	0x3ed67b0a	0.41890746
132	0xbd51b5ae	-0.051198654
133	0x3de3ccd7	0.111230545
134	0xbd2ed2cd	-0.042681504
135	0xba99d9f9	-0.0011737935
136	0xbe831057	-0.25598404
137	0xbc2a7248	-0.010403223
138	0x3db65662	0.08903195
139	0x3e28e64e	0.16494104
140	0x3e980caa	0.29697162
141	0x3e5002f1	0.20313622
142	0x3d5685ad	0.052373577
143	0xbde7f01e	-0.113250956
144	0x3e458872	0.19290331
145	0x3e3c3ee0	0.1838336
146	0x3ca7974c	0.020457886
147	0xbd84a497	-0.064767055
148	0xbe3d777d	-0.18502612
149	0xbe869946	-0.26288813
150	0x3df879f6	0.12132637
151	0x3e1ad981	0.15122034
152	0x3d1e1e07	0.038602855
153	0xbda669d4	-0.08125654
154	0xbd8ed43a	-0.06974073
155	0xbe021ba8	-0.12705863
156	0xbdce1342	-0.10062267
157	0x3ddae508	0.106882155
158	0x3e3cea8d	0.18448849
159	0xbda2a209	-0.07941062
160	0x3e3758d6	0.17904982
161	0x3e098169	0.13428272
162	0xbd2fc3f7	-0.042911496
163	0x3e734a46	0.23758802
164	0xbc011349	-0.007878133
165	0x3e42503f	0.18975924
166	0x3d9a9861	0.07548595
167	0x3e970b04	0.29500592
168	0x3ead4ce1	0.33847716
169	0x3e83a23b	0.2570971
170	0xbba3badb	-0.00499664
171	0xbd64c6b1	-0.05585355
172	0xbd291eaa	-0.04128901
173	0xbdfbd9ae	-0.122973785
174	0x3e34bd4b	0.17650335
175	0x3ea37df3	0.3193203
176	0x3dc8e64c	0.09809551
177	0xbc02a6a4	-0.0079743005
178	0x3d3b6cbf	0.045758005
179	0x3cc780ec	0.024353467
180	0xbe37fa22	-0.17966512
181	0xbd856553	-0.06513467
182	0x3d2c0785	0.04199936
183	0xbe90b511	-0.28263143
184	0x3c554083	0.013015869
185	0xbe0f62b6	-0.14002499
186	0x3dfbac0b	0.12288674
187	0xbcc71c53	-0.024305498
188	0x3d234846	0.039863847
189	0x3e627ffe	0.22119138
190	0x3e9a07a4	0.30083954
191	0x3e5febb7	0.21867262
192	0x3dc5c842	0.09657337
193	0x3d24face	0.04027825
194	0x3e866621	0.26249793
195	0x3e82571d	0.25457087
196	0x3de8233d	0.11334846
197	0x3e498071	0.19677903
198	0x3d9177da	0.07102938
199	0x3e7db335	0.24775393
200	0x3e483bdd	0.19554086
201	0x3e554938	0.20828712
202	0xbd57f23f	-0.05272126
203	0x3c518fdb	0.0127906455
204	0xbe7b298f	-0.24527572
205	0xbd1db6a8	-0.038504273
206	0xbd0bb72d	-0.034110237
207	0x3e13cf95	0.14434655
208	0xbe870d64	-0.26377404
209	0xbde37e85	-0.11108116
210	0x3eb93e5b	0.36180386
211	0xbd24a5d5	-0.040197212
212	0xbdc3dfe1	-0.09564186
213	0x3e2fb982	0.1716061
214	0xbe312e96	-0.17302927
215	0xbe2da76b	-0.16958396
216	0xbda98b70	-0.08278549
217	0xbb3c2844	-0.0028710524
218	0xbe91c237	-0.28468487
219	0xbddf11e8	-0.10892087
220	0xbc3b64c1	-0.011437596
221	0xbd5b6616	-0.053564154
222	0x3e6d2216	0.23157534
223	0x3da6a31e	0.08136581
224	0x3e989efd	0.29808798
225	0x3e56b36a	0.20966879
226	0xbd68c92a	-0.05683247
227	0xbd873591	-0.06602014
228	0xbcc978f3	-0.024593806
229	0xbe02f15e	-0.12787387
230	0x3d19b2d1	0.03752405
231	0x3da4ad9f	0.08040928
232	0xbe905a0e	-0.28193706
233	0x3e10c818	0.1413883
234	0xbe8710b6	-0.26379937
235	0x3e884c97	0.26620933
236	0x3dd283ac	0.10279021
237	0x3ddfc2b8	0.109258115
238	0x3eaf4f06	0.34239978
239	0xbd086c87	-0.033306625
240	0x3eb4bd55	0.353007
241	0x3c8a37c8	0.016872302
242	0xbcc1a68f	-0.023638992
243	0x3e03e3a0	0.12879801
244	0xbd4b5bac	-0.049647972
245	0xbd63cde8	-0.05561629
246	0x3de27271	0.11056984
247	0xbcf285f3	-0.029604888
248	0x3e4be13c	0.19910139
249	0x3d2651de	0.04060542
250	0xbe30900d	-0.17242451
251	0x3e15c41d	0.14625593
252	0x3d5c98d1	0.053856675
253	0xbdd4abd2	-0.103843346
254	0x3db63170	0.08896148
255	0x3e561665	0.2090698

actor_mean.0.weight f4 [256, 256]
0	0xbbb98e10	-0.005662687
1	0xbd7a993c	-0.061181292
2	0x3c5f93ab	0.013646047
3	0xbd0f9b69	-0.03506032
4	0x3c960519	0.018312978
5	0xbd3ff26c	-0.04686205
6	0x3d2fb7e2	0.042899974
7	0xbc72d47c	-0.014821168
8	0xbd6fd774	-0.05855508
9	0xbd951c5b	-0.07280799
10	0xbc7a7f00	-0.015289068
11	0xbd461178	-0.048356503
12	0x3cc0168c	0.023448251
13	0xbcfe8b45	-0.031072268
14	0xbd291b0a	-0.041285552
15	0xbdc6ba5b	-0.09703513
16	0xbdae4dd9	-0.08510942
17	0xbd522594	-0.05130537
18	0xbddb1cd2	-0.106988564
19	0xbd26eaf5	-0.040751416
20	0xbd7a0e79	-0.06104896
21	0xbc98d911	-0.018658193
22	0xbd1c6518	-0.038182348
23	0xbe0004d0	-0.12501836
24	0x3d99a3b1	0.07501925
25	0x3d4068fe	0.04697513
26	0xbb90c0c8	-0.0044175126
27	0xbbbfa26a	-0.0058482187
28	0x3cb32279	0.021867024
29	0xbdac2521	-0.08405519
30	0xbe154600	-0.14577484
31	0x3d2c0f6e	0.042006902
32	0xbe003d93	-0.12523489
33	0x3cc371e5	0.02385802
34	0x3b94ee66	0.004545021
35	0x3cc2a32a	0.023759443
36	0x3cede02d	0.02903756
37	0xbdaeb1d9	-0.085300155
38	0x3ca63690	0.02028969
39	0xbdad5170	-0.084627986
40	0x3b1aaec6	0.0023602708
41	0x3d44000c	0.047851607
42	0xbd5cf180	-0.05394125
43	0xbc8ca705	-0.017169485
44	0xbd2f41e0	-0.042787433
45	0xbd1d0e3b	-0.03834365
46	0x3be76fef	0.007062904
47	0xbd9ea18a	-0.07745655
48	0xbcf97168	-0.030449584
49	0xbc192c6b	-0.009348969
50	0xbd44c9db	-0.048044067
51	0x3d76f3bb	0.060291033
52	0x3d7736f3	0.060355138
53	0xbd8a72ae	-0.06760155
54	0x3c6e79b1	0.014555381
55	0xbd34eff1	-0.04417414
56	0x3ccff3bf	0.025384782
57	0xbd3497f1	-0.044090215
58	0x3d6f46be	0.058417074
59	0xbd8d741c	-0.06906912
60	0x3d720fa1	0.059096936
61	0xbd8693c9	-0.065711565
62	0xbd1c5ffd	-0.03817748
63	0x3c250222	0.010071309
64	0xbc400429	-0.011719742
65	0xbd36563b	-0.04451583
66	0x3ce8ee6d	0.028434003
67	0xbdade7e2	-0.08491494
68	0xbd428913	-0.047494005
69	0x3c19ae7b	0.009379978
70	0x3d067651	0.03282768
71	0x3cd3ff7b	0.025878659
72	0xbd65184b	-0.05593137
73	0x3c47e9a0	0.012201697
74	0x3cc34967	0.023838712
75	0xbc9ba874	-0.019001223
76	0xbca730a5	-0.020408938
77	0x3cd7fbe7	0.026365234
78	0xbd8abea0	-0.0677464
79	0xbcf03c99	-0.02932577
80	0xbc7cf73c	-0.015439805
81	0x3ceed58c	0.029154561
82	0x3d30194f	0.042992886
83	0xbd1eaa5b	-0.038736682
84	0xbd3ef654	-0.046621636
85	0x3d924c2c	0.07143435
86	0xbcfe69b7	-0.031056268
87	0xbd4c1ac8	-0.049830228
88	0x3c012f13	0.0078847585
89	0x3d5bbcaa	0.05364672
90	0x3d014555	0.03156026
91	0xbdd7764d	-0.10520611
92	0xbd618f56	-0.055068336
93	0x3d23152e	0.03981512
94	0xbca89ded	-0.020583117
95	0xbc967133	-0.018364524
96	0x3bcf7cbd	0.0063320086
97	0xbd85570e	-0.06510745
98	0xbc4136f0	-0.011792883
99	0x3d2b3b78	0.04180476
100	0xbd1c9f28	-0.03823772
101	0xbc6d6701	-0.01448989
102	0xbd0e1f7b	-0.03469799
103	0xbd983663	-0.074322484
104	0xbd5b550c	-0.053547904
105	0xbc9f5416	-0.019449275
106	0xbdbdb6ce	-0.09263383
107	0x3c05a1e2	0.008156272
108	0xbdae74a5	-0.08518342
109	0x3bfb956b	0.007677724
110	0xbc51bdef	-0.012801631
111	0x3d9bf8e5	0.07615832
112	0xbd58aafc	-0.05289744
113	0xbd980d3a	-0.07424398
114	0x3d335aa5	0.043787617
115	0xbd081a1e	-0.033228032
116	0xbcb15d24	-0.021650858
117	0x3cd47a95	0.025937358
118	0xbc58e21c	-0.013237502
119	0xbd9534dc	-0.07285473
120	0xbdad9d25	-0.084772386
121	0x3ccd8fef	0.025093047
122	0x3d118e3a	0.03553603
123	0xbd09e311	-0.033663813
124	0xbd2b664c	-0.041845605
125	0x3ce7333e	0.028222676
126	0x3c698f1d	0.014255312
127	0x3c1b9957	0.009497008
128	0xbc82b483	-0.015955215
129	0xbd7a19c6	-0.061059736
130	0x3d364310	0.04449755
131	0x3b1c53cf	0.0023853665
132	0xbc402348	-0.011727162
133	0xbc860ca6	-0.016363453
134	0xbd3c564a	-0.04598073
135	0xbbb10369	-0.005402018
136	0x3d1d8cc1	0.03846431
137	0x3cce6885	0.025196323
138	0xbd15508d	-0.036453772
139	0x3d5b1dd1	0.053495232
140	0x3c44e008	0.012016304
141	0x3d0864e3	0.033299338
142	0x3d0382b6	0.032107078
143	0xbd036e49	-0.032087598
144	0xbd35d4c5	-0.044392366
145	0xbbc709e9	-0.0060741794
146	0xbe02cc46	-0.12773237
147	0xbad27063	-0.0016055222
148	0xbdccf301	-0.10007287
149	0xbd804ee7	-0.062650494
150	0xbc49dd3e	-0.012320815
151	0x3a0a5ca6	0.0005278088
152	0x3c87ed17	0.016592545
153	0xbd4b52e0	-0.049639583
154	0xbd5ccc70	-0.053905904
155	0xbc1241d8	-0.008926831
156	0xbd3fea07	-0.046854045
157	0xbda77b28	-0.08177787
158	0x3bd6f4ab	0.0065599284
159	0xbd6ccb65	-0.05781116
160	0xbc29d492	-0.010365622
161	0x3cdf877f	0.02728629
162	0x3d59c973	0.053170633
163	0xbd638ce0	-0.05555427
164	0x3ba9334d	0.005163586
165	0xbc6630d6	-0.014049729
166	0x3db1cc0a	0.086814955
167	0x3d754973	0.0598845
168	0xbd0a1e03	-0.033720028
169	0xbc9926c3	-0.01869524
170	0xbd9fea1b	-0.07808324
171	0x3c9d463d	0.019198531
172	0xbd878f88	-0.06619173
173	0x3df1a30a	0.11798675
174	0xbd78c1a4	-0.060731545
175	0x3d866621	0.06562448
176	0x3d00c69f	0.03143942
177	0x3d5e366a	0.054251112
178	0xbd9ef482	-0.0776148
179	0xbd82b4d0	-0.063821435
180	0xbdd27b98	-0.1027748
181	0xbcbb002c	-0.02282723
182	0x3d1bbb4c	0.038020417
183	0xbc010ea4	-0.007877026
184	0x3ccd50db	0.025062969
185	0xbc6b9b3a	-0.014380271
186	0x3b9377f3	0.004500383
187	0xbd705d90	-0.05868298
188	0x3d9d9eea	0.07696326
189	0xbda9ebdf	-0.08296942
190	0xbd6584c1	-0.056034807
191	0xbb5e7a70	-0.003394749
192	0x3d115fc3	0.035491716
193	0xbd3c0f2f	-0.045912918
194	0x3cbebad0	0.023282439
195	0xbc0d848d	-0.00863756
196	0xbe1a2e9f	-0.15056847
197	0xbd972c9b	-0.07381555
198	0xbd13ef0c	-0.036116645
199	0xbd811de1	-0.06304527
200	0x3d3ed402	0.046588905
201	0xbd40956e	-0.047017507
202	0xbdb6bfef	-0.08923327
203	0xbd50698d	-0.05088191
204	0xbc451137	-0.01202803
205	0x3d22ad7f	0.03971624
206	0xbd38c761	-0.045112018
207	0xbd6f6de0	-0.058454394
208	0xbd2a3f83	-0.041564476
209	0x3d3b47a1	0.045722608
210	0x3c908246	0.017640244
211	0xbc6b14df	-0.014348238
212	0xbd043129	-0.032273445
213	0xbcd53a9f	-0.02602893
214	0xbd2b4a58	-0.041818947
215	0x3c65ca67	0.014025307
216	0x3d264fa8	0.04060331
217	0x3cb1e6be	0.021716472
218	0x3bb461dc	0.00550483
219	0x3bded84d	0.0068006874
220	0xbd54e9ad	-0.051980663
221	0xbda7adb4	-0.08187428
222	0xbdb345ff	-0.08753585
223	0xbd280883	-0.041023742
224	0xbcb9cfd0	-0.0226821
225	0x3df530a2	0.119721666
226	0xbe0344ac	-0.12819165
227	0xbda88281	-0.08228017
228	0x3cb87323	0.022515839
229	0x3ca7b3c9	0.02047147
230	0xbd40cefa	-0.04707239
231	0xbd6f429a	-0.058413126
232	0xbc41b819	-0.011823677
233	0xbc124761	-0.008928151
234	0xbcdeb82f	-0.027187435
235	0xba460a88	-0.000755467
236	0xbc85648d	-0.016283298
237	0xbcac60c4	-0.021042235
238	0x3d09e6b8	0.033667296
239	0xbc462590	-0.012093917
240	0xbd80587d	-0.06266878
241	0xbca0a04f	-0.019607691
242	0xbdf71b79	-0.12065787
243	0x3c879bfe	0.016553875
244	0xbd720bff	-0.05909347
245	0xbde85394	-0.11344066
246	0xbc7c6002	-0.015403749
247	0xbd428078	-0.0474858
248	0xbcfb7fac	-0.030700527
249	0x3cd101f7	0.025513632
250	0xbd80e25e	-0.06293176
251	0xbd0c5408	-0.034259826
252	0x3c1217c3	0.008916798
253	0xbdf958e5	-0.121751584
254	0x3c8344f3	0.016024088
255	0xbdc35d93	-0.09539332

actor_mean.0.bias f4 [256]
0	0xbcb871d0	-0.022515208
1	0xbdada383	-0.08478453
2	0xbceedbf1	-0.02915761
3	0x3bbec86c	0.005822232
4	0x3ceb1c7d	0.028700108
5	0xbc3102ee	-0.010803921
6	0xbd300d36	-0.04298135
7	0xbde878ef	-0.11351191
8	0x3be81f4b	0.0070838085
9	0xbe5c8439	-0.21534814
10	0xbcfe430c	-0.03103783
11	0xbd400d67	-0.04688778
12	0xbd83dcee	-0.06438623
13	0xbda86a9a	-0.08223458
14	0xbdf4e205	-0.11957172
15	0x3df3275f	0.11872744
16	0xbd9798df	-0.07402205
17	0xbd2d54a2	-0.04231704
18	0xbd350562	-0.044194587
19	0xbdd28f7c	-0.10281274
20	0xbe4c1a95	-0.19932015
21	0xbd9e6b04	-0.07735255
22	0xbe0d2982	-0.13785365
23	0xba5255d4	-0.00080236536
24	0xbde22d09	-0.11043746
25	0xbc4f8e3e	-0.0126681905
26	0xbdaf7a29	-0.08568222
27	0xbe9a45d4	-0.301314
28	0xbd9c1e3b	-0.076229535
29	0xbd754382	-0.059878834
30	0xbde7b299	-0.11313362
31	0xbe58e7f6	-0.21182236
32	0xbe0ee353	-0.13953905
33	0xbdc4cf5b	-0.096098624
34	0xbd972f8b	-0.07382115
35	0x3c3f73bd	0.011685309
36	0xbd2b4de0	-0.041822314
37	0xbc8fbb8c	-0.017545484
38	0x3d5aeaa7	0.05344644
39	0xbe444b45	-0.19169338
40	0x3d3aa14e	0.04556399
41	0xbd917063	-0.07101514
42	0xbde703b9	-0.11280007
43	0xbe3496ad	-0.17635603
44	0xbd500eae	-0.05079525
45	0xbd6315c0	-0.055440664
46	0xbe3f3107	-0.18671046
47	0x3cab9071	0.020942898
48	0xbd8ec489	-0.0697108
49	0xbde7d869	-0.11320574
50	0xbd941d9e	-0.072322115
51	0x3db6b710	0.08921635
52	0xbd93806e	-0.072022304
53	0xbd5117b7	-0.051048007
54	0xbdaf463c	-0.08558318
55	0xbda9dc7b	-0.082940064
56	0xb9876c3d	-0.0002582985
57	0xbe1a31f8	-0.15058124
58	0xbd84d6c6	-0.06486277
59	0xbaaf2c5b	-0.0013364659
60	0x3b69eedc	0.003569535
61	0xbdd04d57	-0.101710014
62	0xbdc408b3	-0.09571972
63	0xbb00ec7c	-0.0019672206
64	0xbc6da4ee	-0.014504654
65	0xbde30cb3	-0.110864066
66	0xbd3c207e	-0.045929424
67	0xbc63aaf3	-0.013895738
68	0xbd728483	-0.059208404
69	0xbdf3a794	-0.11897197
70	0xbdf3db08	-0.11907011
71	0xbe1baec5	-0.15203388
72	0xbde0f1db	-0.1098363
73	0xbd33a66e	-0.04385989
74	0xbc497bb6	-0.012297561
75	0xbe0c9fda	-0.13732854
76	0xbdd017ca	-0.101607874
77	0xbe45231a	-0.19251671
78	0xbe045a99	-0.12925185
79	0xbc5d150a	-0.013493786
80	0xbd77fb64	-0.06054248
81	0xbe64d9b1	-0.22348668
82	0x3ca01ff2	0.019546483
83	0xbe447d1e	-0.19188353
84	0xbda813ee	-0.08206926
85	0x3dfa86dc	0.12232754
86	0xbd951e45	-0.07281164
87	0xbdba0d12	-0.09084524
88	0x3c67e87e	0.014154552
89	0xbdc1971a	-0.094526485
90	0xbd84e204	-0.064884216
91	0xbc69fb69	-0.014281132
92	0xbe050523	-0.12990241
93	0x3d36a9ef	0.044595655
94	0xbcac23f0	-0.02101323
95	0xbd1150a1	-0.035477284
96	0xbdbde733	-0.092726134
97	0xbd8723ad	-0.065986015
98	0xbdda392d	-0.10655437
99	0xbd3a1b4c	-0.04543619
100	0x3c3905a1	0.011292846
101	0xbe84e0e0	-0.25952816
102	0xbd04d910	-0.03243357
103	0xbdbb037c	-0.09131524
104	0xbd54daf3	-0.05196662
105	0xbe48e28f	-0.19617675
106	0xbe0e870d	-0.13918705
107	0xbd3e0f58	-0.04640135
108	0xbd97a19c	-0.074038714
109	0xbcbd6912	-0.02312139
110	0xbdbc1dbb	-0.09185358
111	0xbd08dc14	-0.033413008
112	0xbcf1110a	-0.02942707
113	0xbc115583	-0.008870485
114	0xbdcad17b	-0.099032365
115	0xbd21e90b	-0.039528888
116	0x3d395b59	0.04525313
117	0xbb931270	-0.004488282
118	0xbe1a05ee	-0.15041324
119	0xbd41a0ec	-0.047272608
120	0xbd36b743	-0.044608366
121	0xbdc4fd72	-0.09618653
122	0xbd3ea8b4	-0.046547607
123	0xbce82b45	-0.028340945
124	0xbd40acfe	-0.04703998
125	0x3ceacb79	0.028661476
126	0xbc41bf28	-0.01182536
127	0xbd852cc8	-0.06502682
128	0xbd1975d3	-0.03746588
129	0xbd4d2660	-0.050085425
130	0xbdb81c2c	-0.08989748
131	0xbd8d961d	-0.069133975
132	0xbe199518	-0.14998281
133	0xbd628510	-0.05530268
134	0xbe5bd858	-0.21469247
135	0xbd8aa076	-0.06768887
136	0xbd8fd156	-0.070223495
137	0xbdf33f04	-0.11877254
138	0xbd90972a	-0.07060082
139	0xbe1ade1b	-0.15123789
140	0xbd35dfa0	-0.04440272
141	0x3d3a3216	0.045457922
142	0x3d745326	0.05964961
143	0xbdeb58c9	-0.11491544
144	0xbe2c5a8c	-0.16831416
145	0x3cc1003c	0.023559682
146	0xbd18d306	-0.037310623
147	0x3d0a21ab	0.033723515
148	0xbda57e3f	-0.0808072
149	0xbddb6900	-0.107133865
150	0xbe4672b0	-0.19379687
151	0xbd9ee9f2	-0.07759465
152	0xbe2d9f58	-0.16955316
153	0xbda007cd	-0.07813988
154	0x3c315008	0.010822304
155	0xbe5d51d2	-0.21613243
156	0xbbad0c33	-0.0052809953
157	0xbd51be0a	-0.051206626
158	0xbd71dd30	-0.05904883
159	0xbe058aa2	-0.13041165
160	0xbdc0c192	-0.094119206
161	0xbc4cc343	-0.012497726
162	0xbe8dea90	-0.2771802
163	0xbda4d9b2	-0.080493346
164	0xbd728a25	-0.059213776
165	0x3d950f28	0.072782815
166	0x3cd14560	0.025545776
167	0xbda59460	-0.08084941
168	0xbe04e0dd	-0.12976404
169	0xbda6d9a8	-0.081469834
170	0xbe1e8a11	-0.15482356
171	0xbde2f631	-0.110821135
172	0xbe30f9c1	-0.17282774
173	0xbd22d1a5	-0.039750714
174	0x3c56c801	0.013109208
175	0x3cd66a49	0.026173728
176	0xbd7414ac	-0.059590027
177	0x3d2a878c	0.041633174
178	0x3bb19b6e	0.00542014
179	0x3cf46fb3	0.029838419
180	0xbddcc48a	-0.10779674
181	0x3dab0243	0.08350041
182	0xbce7064c	-0.028201245
183	0xbd475ac9	-0.048670564
184	0xbb1c8a41	-0.0023886117
185	0xbdc93b1e	-0.09825729
186	0xbe0a4347	-0.13502227
187	0xbde59e50	-0.11211836
188	0xbd3f25e7	-0.046667006
189	0xbdc60c98	-0.09670371
190	0xbdc98a7a	-0.098408654
191	0xbdf14cff	-0.11782264
192	0xbc35d95b	-0.011099185
193	0x3c3d4755	0.011552651
194	0xbc0b9696	-0.008519789
195	0xbe1004a8	-0.14064276
196	0xbdac9a11	-0.08427823
197	0xbe7bfdd7	-0.24608551
198	0xbd4fe3e2	-0.050754435
199	0xbd9fa787	-0.07795625
200	0xbd107286	-0.035265468
201	0x3cfcb50d	0.03084805
202	0xbdea427b	-0.114384614
203	0xbd820682	-0.063488975
204	0xbdd832db	-0.10556575
205	0xbd8f7270	-0.07004249
206	0xbe26f134	-0.16302949
207	0xbdf14e3e	-0.11782502
208	0xbdb48995	-0.08815304
209	0xbd995b70	-0.074881434
210	0xbde747dc	-0.11293003
211	0xbd27fa48	-0.04101017
212	0xbdb7fad2	-0.08983387
213	0x3c2605cd	0.010133219
214	0x3d764235	0.060121734
215	0xbe039a49	-0.12851824
216	0xbd8369a1	-0.064166315
217	0xbd9c91cc	-0.07644996
218	0xbdbf889f	-0.0935223
219	0xbe3af4e8	-0.18257487
220	0xbda03cb3	-0.078240775
221	0xbd096d0b	-0.033551257
222	0xbd65e213	-0.056123804
223	0x3b92af56	0.004476468
224	0xbd15fc69	-0.03661767
225	0xbdc7248e	-0.09723769
226	0xbcb5ed50	-0.022207886
227	0xba326b1a	-0.00068061205
228	0xbd34fe69	-0.044187937
229	0xbda6fe8e	-0.08154021
230	0xbc8f6763	-0.017505353
231	0xbdc4fa27	-0.09618025
232	0xbe5b3d8e	-0.214102
233	0xbe01622f	-0.1263511
234	0xbdfd7131	-0.12375105
235	0xbd8d5ca6	-0.06902437
236	0x3ccfedf4	0.02538202
237	0xbd2d232f	-0.04226988
238	0xbdd2a372	-0.10285081
239	0xbbcc5957	-0.006236236
240	0xbcadeecc	-0.021232031
241	0x3b847ff1	0.004043572
242	0xbd47413e	-0.048646204
243	0xbddb8984	-0.107195884
244	0xbd132381	-0.03592253
245	0xbe726ad4	-0.23673564
246	0xbe329870	-0.17440963
247	0x3ccc888a	0.02496745
248	0xbdbbe5d8	-0.091746986
249	0xbc9da89c	-0.019245438
250	0xbdab0036	-0.083496496
251	0xbdad48b0	-0.0846113
252	0xbd3b5025	-0.04573073
253	0xbd22f5b1	-0.03978509
254	0xbdd66f8f	-0.10470497
255	0xbd4f0abf	-0.050547358

actor_mean.2.weight f4 [4, 256]
0	0x3d700558	0.058598846
1	0xbd03c89b	-0.032173734
2	0x3c73a8a0	0.014871746
3	0xbd4860bc	-0.048920378
4	0x3d4384a1	0.047733907
5	0x3da280d1	0.07934726
6	0x3da712cb	0.08157881
7	0x3dfa20db	0.12213298
8	0xbcbf130f	-0.023324518
9	0xbdec0e81	-0.11526204
10	0xbe8ebe35	-0.2787949
11	0xbd8758e3	-0.06608751
12	0x3ec60ec7	0.3868315
13	0x3ca82cf1	0.020529242
14	0x3d33d540	0.043904543
15	0x3e5f2549	0.21791567
16	0xbd08e0ef	-0.03341764
17	0xbd3cdac9	-0.046107087
18	0x3c85e7fa	0.016345967
19	0xbaf60426	-0.0018769547
20	0xbe47702d	-0.19476385
21	0xbe1a56d0	-0.15072179
22	0x3d6644b0	0.05621785
23	0x3e3e8340	0.18604755
24	0x3d5ccf2c	0.053908512
25	0xbb3d65b5	-0.0028899733
26	0xbdbff1ea	-0.09372313
27	0xbf050205	-0.51956207
28	0xbe231785	-0.1592694
29	0x3ce8cd71	0.028418275
30	0x3cc94d4e	0.024572995
31	0x3e235dd1	0.15953757
32	0x3ef2e90b	0.47443423
33	0x3e587ac5	0.21140583
34	0xbbbf3c3a	-0.005836037
35	0xbcc26377	-0.02372907
36	0xbd409d30	-0.047024906
37	0x3f3975b0	0.724452
38	0xbd31f981	-0.043450836
39	0xbd9db468	-0.077004254
40	0x3dc64468	0.09681016
41	0x3d272cb0	0.0408141
42	0x3dcd4d92	0.10024561
43	0xbde36ab3	-0.11104336
44	0xbe32fc2e	-0.17479011
45	0xbd2227dd	-0.039588798
46	0xbe11c8d9	-0.14236774
47	0x3db2da7b	0.08733078
48	0xbc728794	-0.014802832
49	0x3ec8710b	0.39148745
50	0x3d1b6ae3	0.037943732
51	0x3cb392a6	0.021920513
52	0x3b17c4c1	0.0023158046
53	0xbe49658d	-0.19667645
54	0xbd1bcbdd	-0.038036216
55	0xbb9118d0	-0.0044280067
56	0xbd30cc33	-0.04316349
57	0xbe8144f5	-0.25247923
58	0xbd4cbc17	-0.049984064
59	0xbcaa381b	-0.020778706
60	0xbc49eb65	-0.012324189
61	0xbe1d6fb6	-0.15374646
62	0xbe1237f8	-0.14279163
63	0x3baf5885	0.0053511285
64	0x3b8d3ba7	0.0043100896
65	0xbdcdfe1b	-0.100582324
66	0xbb92c913	-0.0044795363
67	0xbcf2f3d5	-0.029657284
68	0x3d5a1eb6	0.053251944
69	0xbd4822ff	-0.0488615
70	0xbe685356	-0.2268804
71	0xbdc48903	-0.095964454
72	0xbe005dcd	-0.12535782
73	0x3f2497db	0.64294213
74	0xbde225a8	-0.110423386
75	0xbe0cfbe1	-0.13767959
76	0x3e3b0c7a	0.18266478
77	0x3ea5d78e	0.32391018
78	0x3bfd4b32	0.0077299112
79	0xbda131eb	-0.07870849
80	0x3bb64377	0.0055622417
81	0xbef7d49a	-0.4840439
82	0x3d6f6314	0.058444098
83	0x3e8fff75	0.28124586
84	0xbe83e838	-0.25763106
85	0x3f008d10	0.50215244
86	0x3d16c8fe	0.036812775
87	0x3d8bc9d3	0.06825604
88	0x3c81defd	0.0158534
89	0xbcaf711d	-0.021416241
90	0x3c84f3dd	0.016229564
91	0xbdea2852	-0.11433472
92	0x3e0ec27d	0.13941379
93	0xbdee364e	-0.116314515
94	0x3e1e7eff	0.15478133
95	0x3d8ade09	0.06780631
96	0x3ede6633	0.43437347
97	0x3e09f3da	0.13471928
98	0xbd8694bd	-0.06571338
99	0xbd5ac036	-0.053405963
100	0x3cc6d817	0.024272962
101	0x3eaca29d	0.33717814
102	0xbdc5b01f	-0.09652733
103	0x3ef6da7b	0.48213562
104	0xbcdae9e5	-0.026722858
105	0xbdb36e35	-0.08761255
106	0x3eabc784	0.33550656
107	0x3cad4955	0.021153131
108	0x3e2b4948	0.16727173
109	0x3ce96dc0	0.028494716
110	0x3e8dae22	0.27671915
111	0x3cf1bb13	0.02950815
112	0xbf26658e	-0.6499871
113	0xbe35a96f	-0.17740415
114	0xbdab3cc1	-0.08361197
115	0x3bf27af2	0.00739991
116	0xbe25e700	-0.16201401
117	0x3c9be15f	0.019028364
118	0xbe2c001d	-0.16796918
119	0x3ea49f92	0.32152992
120	0xbc495add	-0.01228973
121	0x3e369944	0.17831904
122	0xbe35f611	-0.17769648
123	0xbd7255de	-0.05916392
124	0xbc74b32f	-0.014935299
125	0x3e24b34c	0.16084021
126	0x3c97d890	0.018535882
127	0xbd81251a	-0.06305905
128	0x3d9aea01	0.07564164
129	0xbd9201d6	-0.071292564
130	0x3d88f540	0.06687403
131	0xbec64ceb	-0.3873056
132	0x3e3b8c81	0.18315317
133	0xbc95472c	-0.018222414
134	0xbe8ab2af	-0.2708945
135	0x3d681572	0.056661077
136	0x3e10eb6e	0.1415231
137	0x3db45888	0.088059485
138	0xbe3ae5cd	-0.18251725
139	0x3d72ca0b	0.059274714
140	0xbc9ef7f0	-0.019405335
141	0xbebd7910	-0.37006426
142	0x3d1ba480	0.037998676
143	0x3d1c02d9	0.038088653
144	0x3d78cd9a	0.060742952
145	0x3c5d8bd5	0.013522108
146	0xbc4fa720	-0.012674123
147	0xbe30a0c0	-0.17248821
148	0xbccf93c1	-0.02533901
149	0xbdb4cf77	-0.08828633
150	0x3e011867	0.12606965
151	0xbe5ede7d	-0.2176456
152	0xbf030275	-0.51175624
153	0x3d9dcb1c	0.07704756
154	0xbd2b9eb1	-0.041899387
155	0xbe9e3562	-0.30900103
156	0x3d71db67	0.05904713
157	0x3e64e0fb	0.22351448
158	0xbd98f045	-0.07467703
159	0x3ea1decf	0.31615302
160	0xbe497e30	-0.19677043
161	0xbecb538c	-0.3971218
162	0xbedd8ab0	-0.43269873
163	0x3ca7691a	0.020435859
164	0xbc40a39a	-0.011757756
165	0xbd222a21	-0.03959096
166	0x3b45165f	0.0030073149
167	0xbe8d2186	-0.2756464
168	0x3dbe57e9	0.09294111
169	0xbe1456f1	-0.1448629
170	0xbe22da91	-0.15903689
171	0x3d716f95	0.058944304
172	0x3cab2e26	0.020896029
173	0xbdc3ef68	-0.095671475
174	0x3d77a588	0.060460597
175	0x3dfc64ce	0.123239145
176	0x3d30c0ee	0.043152742
177	0x3de0afac	0.10971007
178	0x3d1636c9	0.03667334
179	0xbd8e4e51	-0.069485314
180	0x3ddcdb95	0.107840694
181	0x3e0182b3	0.12647514
182	0x3e2fd460	0.17170858
183	0x3d1244ee	0.035710268
184	0x3db6f48b	0.089333616
185	0xbe5875c4	-0.21138674
186	0xbde348a1	-0.11097837
187	0xbe0dbd2e	-0.13841698
188	0x3d70d816	0.058799826
189	0xbe9a1673	-0.30095252
190	0x3d6cde6c	0.057829306
191	0xbdefc602	-0.11707689
192	0xbacfe556	-0.0015861194
193	0xbba2f9b4	-0.0049736146
194	0x3b9f5539	0.0048624543
195	0xbda75c37	-0.081718855
196	0x3e936a98	0.28792262
197	0xbf0f767d	-0.56040174
198	0xbd1734dd	-0.03691565
199	0x3e5be5b9	0.21474351
200	0x3dd5e75e	0.104445204
201	0x3b362238	0.0027791392
202	0xbd81b258	-0.063328445
203	0xbd566e1c	-0.052351102
204	0xbe41e529	-0.18935074
205	0xbd4a03ef	-0.049320158
206	0xbed633cf	-0.41836402
207	0xbd70cd60	-0.05878961
208	0x3dc65ff1	0.09686268
209	0xbd3adb1a	-0.045619108
210	0xbdf25f7c	-0.118346184
211	0x3ce6c82d	0.028171623
212	0xbc8fa9d1	-0.01753703
213	0x3dcde8b6	0.10054152
214	0xbe4ff4cd	-0.20308228
215	0x3e265606	0.16243753
216	0xbd34bde2	-0.0441264
217	0x3d3be5c5	0.045873422
218	0xbd9ab26d	-0.07553563
219	0x3efd4245	0.49464622
220	0xbc6022b2	-0.013680147
221	0x3c2bcf26	0.0104864
222	0x3b8971f0	0.0041944906
223	0xbaab754a	-0.001308122
224	0x3c3b1241	0.011417926
225	0x3d9409e3	0.07228448
226	0xbd35d535	-0.044392783
227	0xbd628a92	-0.055307932
228	0xbbb56a56	-0.005536358
229	0xbe080e19	-0.13286628
230	0xbe5cdfaf	-0.21569704
231	0x3f11ed4b	0.57002705
232	0x3e5ee7d9	0.2176813
233	0xbe445441	-0.19172765
234	0x3c681f83	0.014167669
235	0xbd1bdf6d	-0.038054872
236	0x3eccd86b	0.40008864
237	0x3eec86fa	0.4619673
238	0xbdccdc24	-0.10002926
239	0x3e8a41c5	0.27003303
240	0xbdc4b038	-0.096039236
241	0xbdb716de	-0.089399084
242	0x3d28ca9b	0.041208845
243	0x3e4ca3d1	0.19984366
244	0x3bc46bdb	0.0059943027
245	0xbf41c0c1	-0.75684744
246	0xbed34a30	-0.41267538
247	0xbe089fb3	-0.1334217
248	0x3c4a0479	0.012330168
249	0x3e1d3ffc	0.1535644
250	0xbda6f159	-0.08151502
251	0x3e2b73fc	0.16743463
252	0x3c1b2116	0.0094683375
253	0x3e040506	0.12892541
254	0x3d4743de	0.048648708
255	0x3cf8a0f0	0.030350178

actor_mean.2.bias f4 [4]
0	0x3d659260	0.056047797
1	0xbdb0d7b4	-0.08634892
2	0xbe0f5642	-0.13997748
3	0x3b9347dc	0.0044946503

critic.0.weight f4 [256, 256]
0	0x3e3173ac	0.17329282
1	0x3dbb517a	0.091464
2	0xbda0de60	-0.07854915
3	0x3f28665f	0.65781206
4	0xbec4ea0c	-0.38459814
5	0x3d135267	0.035967257
6	0xbc451217	-0.012028239
7	0xbdf713a1	-0.12064291
8	0xbe507ef4	-0.20360929
9	0xbe122955	-0.1427358
10	0xbeebdc73	-0.46066627
11	0x3e6416da	0.22274342
12	0x3e5cfda7	0.21581136
13	0x3df58a46	0.11989264
14	0xbe9f44c0	-0.3110714
15	0x3dd5f0bf	0.10446309
16	0x3e114f42	0.1419039
17	0x3e2f802a	0.17138734
18	0x3d92b00f	0.07162487
19	0x3ddcf428	0.107887566
20	0xbc309d51	-0.010779695
21	0x3df8989d	0.12138484
22	0x3e85f1ef	0.26161143
23	0xbd85a833	-0.06526222
24	0xbb4ffe91	-0.0031737427
25	0x3e75bbe1	0.23997451
26	0xbd23b2d3	-0.039965462
27	0xbd0a4ea7	-0.033766415
28	0xbf01cadc	-0.50700164
29	0xbdccf612	-0.10007872
30	0x3e021a11	0.12705256
31	0x3e567fb4	0.20947152
32	0x3d70b754	0.058768585
33	0xbe09eedd	-0.13470025
34	0x3e2a10cb	0.16607969
35	0x3e6fbbb9	0.23411454
36	0xbe318f29	-0.17339768
37	0xbdb8b40e	-0.09018718
38	0xbe21f59e	-0.15816352
39	0x3e8df53d	0.27726164
40	0x3d38940f	0.045063075
41	0xbd8b3878	-0.0679788
42	0x3df35b96	0.11882703
43	0xbd1d8306	-0.03845503
44	0x3df5d2af	0.12003075
45	0x3ef4676a	0.4773515
46	0x3c3f409a	0.011673117
47	0x3e22d67d	0.15902133
48	0xbdd8e7fa	-0.10591121
49	0x3eae46f2	0.34038502
50	0xbe301bd5	-0.17198117
51	0x3e062613	0.13100462
52	0xbe397bc6	-0.18113622
53	0xbcbf1c3a	-0.02332889
54	0x3e720475	0.23634513
55	0x3d284057	0.041076984
56	0x3e03b964	0.1286369
57	0x3e9cf4f5	0.30655637
58	0xbdaeb73e	-0.085310444
59	0x3dac2838	0.084061086
60	0x3e108c8d	0.14116116
61	0x3e15c632	0.14626387
62	0x3cea1b19	0.028577374
63	0x3e89faac	0.2694906
64	0xbe9a5f76	-0.30150956
65	0xbe3e1e07	-0.18566142
66	0xbcf64833	-0.030063724
67	0x3d5d7527	0.054066803
68	0x3e36e6be	0.17861459
69	0x3e023112	0.12714031
70	0xbe95dfcf	-0.29272315
71	0x3c114f6e	0.008869035
72	0xbe88a91f	-0.2669153
73	0xbdcb5ebc	-0.099301785
74	0x3c895fe2	0.016769353
75	0x3db56fd8	0.08859223
76	0xbd85fa39	-0.06541867
77	0xbde8f7cb	-0.11375388
78	0xbe6a1b71	-0.2286203
79	0xbdf93874	-0.12168971
80	0x3e612426	0.21986446
81	0x3e578eb1	0.21050526
82	0x3e191a34	0.14951402
83	0xbb87be5d	-0.004142566
84	0x3ddf2f6b	0.10897716
85	0x3dc2156c	0.09476742
86	0xbf016c71	-0.50556093
87	0xbe7c50e7	-0.24640237
88	0xbda71f71	-0.08160294
89	0xbe6b019d	-0.22949834
90	0x3e0edbd9	0.13951053
91	0x3dd88016	0.105713055
92	0xbefe0701	-0.4961472
93	0xbcff7820	-0.03118521
94	0x3e1e938d	0.15485974
95	0x3d1fdb2c	0.039027378
96	0xbd8cd359	-0.06876249
97	0x3dcb67f6	0.09931938
98	0x3dc64cc7	0.09682613
99	0x3d8de00b	0.069274984
100	0x3b180a8c	0.0023199646
101	0x3eb3f376	0.35146683
102	0xbe0ee081	-0.13952829
103	0x3e396bf5	0.18107589
104	0x3da38239	0.079838224
105	0x3e8538c6	0.26019877
106	0x3ed79483	0.42105493
107	0xbdcdc23c	-0.10046813
108	0xbf5a177e	-0.85192096
109	0x3bdc21f0	0.006717913
110	0x3e3d3e94	0.18480903
111	0xbe2bb4da	-0.16768208
112	0x3e931cce	0.28732914
113	0xbe104811	-0.14089991
114	0xbe3870e0	-0.18011808
115	0x3d8346cb	0.06409987
116	0x3e7b1e90	0.24523377
117	0x3edea368	0.43484044
118	0x3e59d616	0.21273074
119	0xbd731de8	-0.059354693
120	0x3de56c7f	0.112023346
121	0x3ddeecc6	0.10885005
122	0xbe50b73c	-0.20382398
123	0xbbd26b56	-0.006421487
124	0xbebbd730	-0.36687613
125	0x3e9b0282	0.3027535
126	0x3e1eef25	0.15520914
127	0x3c223c4a	0.009902069
128	0xbe5a2007	-0.2130128
129	0xbd958c96	-0.07302205
130	0x3d22a883	0.039711487
131	0x3e292005	0.1651612
132	0x3eb8e267	0.3611023
133	0xbe0b7d08	-0.13621914
134	0xbde8ff23	-0.113767885
135	0x3b67c9f7	0.0035368183
136	0x3ee1d2b0	0.44106054
137	0xbd8db79c	-0.06919786
138	0xbc257c93	-0.010100502
139	0x3f2a1a24	0.6644614
140	0x3e68815e	0.227056
141	0xbe560221	-0.2089925
142	0x3d9b884a	0.075943545
143	0xbd365ecb	-0.044523995
144	0x3dedd8c3	0.1161361
145	0x3e6b0740	0.22951984
146	0x3c8f506e	0.017494407
147	0x3dd03b9f	0.10167622
148	0xbae8c501	-0.0017758907
149	0x3d2f98db	0.042870384
150	0x3c9558d2	0.01823083
151	0xbdc3b5d1	-0.09556163
152	0x3dd7974b	0.10526904
153	0xbea8676d	-0.32891408
154	0x3ebc5a5b	0.36787686
155	0xbcdffce2	-0.027342264
156	0x3e1144a8	0.14186347
157	0xbd288961	-0.04114664
158	0x3eb959d4	0.36201346
159	0xbe7b76db	-0.24557059
160	0xbe124a8e	-0.14286253
161	0xbe0a34ea	-0.13496748
162	0x3ce72c77	0.028219445
163	0x3e23145d	0.15925737
164	0x3d361fce	0.044463925
165	0x3e61ef7f	0.22064017
166	0x3d81ea7a	0.06343551
167	0xbe2716d4	-0.16317302
168	0x3ddc11a7	0.107455544
169	0x3eb55a99	0.35420683
170	0xbc29ac1d	-0.010355976
171	0x3ce8bd5c	0.028410606
172	0x3de6b503	0.11264994
173	0x3e5614f7	0.20906435
174	0x3dc5e93c	0.096636266
175	0x3df988cc	0.12184295
176	0x3ec7770a	0.38958007
177	0x3d4a865a	0.049444534
178	0xbdbfa3d5	-0.0935742
179	0xbe61151f	-0.21980713
180	0x3e212b5f	0.15739201
181	0xbe31caf4	-0.17362577
182	0x3dcf9b71	0.1013707
183	0xbe7f912a	-0.2495772
184	0xbd939831	-0.072067626
185	0x3d493764	0.04912509
186	0x3e206eb8	0.15667236
187	0x3e61b2db	0.22040884
188	0x3e055ae0	0.13022947
189	0xbe333ef2	-0.1750448
190	0xbe008781	-0.1255169
191	0xbdf3edcd	-0.11910591
192	0x3d2c48f8	0.042061776
193	0x3e6794fa	0.22615424
194	0xbd87f560	-0.066385984
195	0x3dd10e42	0.102077976
196	0xbdfb1abe	-0.1226096
197	0xbdd834d0	-0.10556948
198	0x3e6a3e1e	0.22875258
199	0x3df45102	0.119295135
200	0x3bdec1b9	0.006797996
201	0x3c8864de	0.01664966
202	0x3cb8052c	0.022463404
203	0x3eb66c2a	0.35629398
204	0x3bb95bb3	0.0056566834
205	0x3d0136b7	0.03154632
206	0xbdc2bcad	-0.09508643
207	0x3db4ba35	0.08824579
208	0x3e56622f	0.20935892
209	0xbe3889da	-0.18021336
210	0x3ccf08f9	0.025272833
211	0xbdf4d1f1	-0.11954106
212	0x3e0954a4	0.13411194
213	0xbe002ce8	-0.1251713
214	0xbe12a05b	-0.14318983
215	0xbe66dd7d	-0.22545429
216	0xbe1e633d	-0.15467544
217	0x3cc4a47d	0.024004215
218	0xbe098d3b	-0.13432781
219	0xbcad1c39	-0.021131622
220	0x3cf9977a	0.030467737
221	0xbdd4e739	-0.10395665
222	0xbd9372ca	-0.07199629
223	0xbe5f9b48	-0.21836579
224	0xbe469f17	-0.19396625
225	0xbe4b9a57	-0.19883095
226	0x3d6c59e4	0.057702914
227	0x3ca4ce8f	0.020118026
228	0xbeab023a	-0.33400136
229	0x3db74c46	0.08950095
230	0x3dc65be4	0.096854955
231	0x3d252fab	0.040328663
232	0xbdecd532	-0.11564101
233	0x3da67d36	0.08129351
234	0xbda8f70a	-0.08250244
235	0xbe9fbfe9	-0.31201103
236	0x3ddf5018	0.109039485
237	0xbd04b61b	-0.03240023
238	0x3e9e19e4	0.30879128
239	0x3d62eada	0.055399753
240	0x3e58ae75	0.211603
241	0x3ef909aa	0.48640186
242	0xbc7158a5	-0.014730607
243	0x3da61a57	0.08110493
244	0xbe22fcd1	-0.15916754
245	0x3d00029f	0.0312525
246	0xbd8c0beb	-0.06838211
247	0x3e4756ae	0.1946666
248	0xbd391b51	-0.045192067
249	0x3e01f7ec	0.12692231
250	0xbe41eae1	-0.18937255
251	0xbdd6e9fb	-0.10493847
252	0x3d6f02bc	0.058352217
253	0x3d7b847f	0.061405655
254	0x3d9f4f2e	0.07778774
255	0x3e34a2d1	0.17640235

critic.0.bias f4 [256]
0	0x3e8fe652	0.28105408
1	0x3dc6438b	0.096808515
2	0x3e0d501b	0.13800089
3	0x3e50d59a	0.20393983
4	0x3c087de7	0.008330799
5	0x3e8a208d	0.2697796
6	0x3dd0d152	0.10196175
7	0x3ea03ec1	0.31297877
8	0x3ea2368c	0.3168224
9	0x3da6f773	0.08152666
10	0x3ea358c3	0.31903657
11	0x3e1ee89a	0.15518418
12	0x3e05d42a	0.13069215
13	0x3ec1093b	0.37702355
14	0x3c7f1d8a	0.0155710075
15	0x3dff0448	0.124519885
16	0xbd94500e	-0.07241832
17	0x3d796e8a	0.060896434
18	0xbc24584f	-0.01003082
19	0xbd116ef3	-0.0355062
20	0x3ea42cdb	0.32065472
21	0x3e1dc6d1	0.15407874
22	0xbb24a969	-0.002512539
23	0x3e9b3570	0.30314207
24	0x3cc89463	0.024484819
25	0x3ea9b1f3	0.33143577
26	0x3e345679	0.17611112
27	0x3bfa5127	0.0076390686
28	0x3eb167dd	0.34649554
29	0xbd61b72a	-0.05510632
30	0x3e1a11a3	0.1504579
31	0x3de4d679	0.1117372
32	0x3c63eda8	0.013911642
33	0x3e0e873b	0.13918774
34	0x3d7a5c47	0.06112316
35	0x3eb10d2b	0.3458036
36	0x3eac0f91	0.33605626
37	0x3e027642	0.12740424
38	0x3e875c62	0.2643767
39	0xbd6f3818	-0.058403105
40	0xbc04daca	-0.008108804
41	0x3e98e0f2	0.2985912
42	0x3ea054a6	0.31314582
43	0xbe720a85	-0.23636825
44	0x3e5fb0a3	0.21844725
45	0x3e0c8ff7	0.13726793
46	0x3ea9eec2	0.3318997
47	0xbd223c96	-0.03960856
48	0xbd2938b8	-0.041313857
49	0xbd73450a	-0.059392013
50	0xbd8b0612	-0.06788267
51	0x3e9e5cc3	0.30930147
52	0xbd35304e	-0.04423552
53	0x3e49123a	0.19635859
54	0x3de4be18	0.1116907
55	0x3dcf4ba8	0.10121852
56	0x3dc43ad0	0.0958153
57	0x3cc59805	0.02412034
58	0x3e8fbfeb	0.2807611
59	0x3e2c5eeb	0.16833083
60	0xbd448c9b	-0.047985654
61	0x3ea61702	0.3243943
62	0x3c808b64	0.015691467
63	0x3dc81055	0.0976874
64	0x3e8a9ccd	0.27072755
65	0x3e48f2b0	0.19623828
66	0x3dee0b64	0.11623266
67	0x3e083f5b	0.13305418
68	0x3dca300d	0.09872446
69	0xbcf08407	-0.02935983
70	0x3d52f3e6	0.05150213
71	0x3ecc5329	0.39907196
72	0xbb93b64f	-0.004507817
73	0x3d483bd2	0.048885174
74	0x3e80a4eb	0.25125822
75	0x3e6c89b9	0.23099412
76	0x3d217c9c	0.039425477
77	0x3e57cb1e	0.21073577
78	0xbdee0075	-0.11621181
79	0x3e1a14da	0.15047017
80	0x3dda824b	0.10669383
81	0x3d1f1977	0.038842645
82	0x3e22f36e	0.15913174
83	0x3cc03d54	0.023466744
84	0xbd622b30	-0.055216968
85	0xbcb3e74f	-0.021960882
86	0x3cf4a895	0.029865542
87	0xbd4a44d3	-0.049382042
88	0x3ea40440	0.32034492
89	0xbd88e69c	-0.0668461
90	0x3ead73c1	0.33877376
91	0xbe17e53e	-0.14833543
92	0xbd620466	-0.055179976
93	0xbd9b2964	-0.07576254
94	0x3ea8224a	0.3283866
95	0x3e308a21	0.17240192
96	0xbcc264d3	-0.023729717
97	0x3ccd7828	0.025081709
98	0x3e7b22e8	0.24525034
99	0xbe0572a7	-0.13032018
100	0x3e1b0c30	0.15141368
101	0x39076166	0.00012910887
102	0xbb105511	-0.002202336
103	0x3daed94a	0.08537538
104	0x3ddc1c58	0.10747594
105	0x3dc63115	0.096773304
106	0xbcd843a8	-0.026399449
107	0xbb81cb9b	-0.0039610392
108	0x3d415a9a	0.047205545
109	0x3d79750d	0.060902644
110	0xbd079fc3	-0.033111345
111	0x3e18dc8b	0.1492788
112	0xbd5f1158	-0.0544599
113	0x3e99871c	0.29985893
114	0x3e9321c0	0.28736687
115	0x3d5ac504	0.053410545
116	0x3dca4497	0.09876364
117	0x3ce9dad1	0.028546723
118	0xbca4c375	-0.020112732
119	0xbd02a665	-0.031896967
120	0x3c8482ab	0.016175589
121	0x3e0b8d8d	0.13628216
122	0x3dc167a5	0.09443597
123	0xbce513c5	-0.027963528
124	0xbd08081b	-0.033210855
125	0xbd95757b	-0.07297798
126	0x3cce6fa3	0.025199717
127	0x3d2b3377	0.041797128
128	0xbc3bcaa2	-0.011461886
129	0x3d1ccd32	0.038281627
130	0x3dbd1eec	0.092344135
131	0x3e223a8d	0.15842648
132	0xbd93b84d	-0.07212887
133	0x3e0dcd2d	0.138478
134	0x3ba0d2e1	0.004907951
135	0x3e0b3f93	0.1359847
136	0x3e357d2b	0.17723529
137	0x3e8ea17c	0.27857578
138	0x3e5bc2af	0.21460985
139	0xbbfc7805	-0.007704737
140	0x3d41ae43	0.04728533
141	0x3dbeaf97	0.09310835
142	0x3d96ab2e	0.07356869
143	0x3e4a7287	0.19770251
144	0xbd75d9c5	-0.060022134
145	0xbd75c4a8	-0.060002
146	0x3e8078ca	0.25092155
147	0x3eaca050	0.3371606
148	0xbcd3a4e5	-0.025835464
149	0x3b80546e	0.003916315
150	0xbd0cdd9c	-0.03439103
151	0x3e10a459	0.14125194
152	0x3dbc749e	0.092019305
153	0x3e4ea169	0.2017876
154	0xbd5336d8	-0.051565975
155	0x3e4eabb9	0.20182694
156	0x3eba07cb	0.3633407
157	0xbd29f664	-0.041494742
158	0x3dd4e436	0.1039509
159	0x3df50bc4	0.11965135
160	0x3e174fe3	0.14776568
161	0x3d1fb867	0.03899422
162	0x3e0fabdd	0.14030404
163	0x3e2dc712	0.1697047
164	0x3e5d4bd8	0.21610963
165	0x3e1eef87	0.1552106
166	0x3e7f9172	0.24957827
167	0x3bb82696	0.005619834
168	0x3e920143	0.28516588
169	0x3e1d4f82	0.15362361
170	0x3e9ced63	0.30649862
171	0xbba4724c	-0.005018508
172	0x3ebc6ac2	0.368002
173	0xbccf36f1	-0.025294753
174	0xbd26ba95	-0.040705282
175	0x3e5b5ffa	0.21423331
176	0x3d6a9975	0.057275254
177	0x3e88457f	0.2661552
178	0x3e65d718	0.22445333
179	0x3e4dfb2a	0.20115343
180	0x3dcb80f6	0.09936707
181	0x3e2c1ed4	0.16808635
182	0x3e0e897b	0.13919632
183	0x3eaf6a26	0.34260672
184	0x3db951ae	0.09048782
185	0x3d08bb54	0.033381775
186	0xbcda6a91	-0.026662143
187	0x3cb93420	0.022607863
188	0x3e42e15f	0.19031285
189	0xbc46d736	-0.012136271
190	0x3e0925a8	0.13393271
191	0x3d14a4d0	0.03628999
192	0x3d15a7bd	0.03653692
193	0x3cafc598	0.021456525
194	0xbd7ac06f	-0.061218675
195	0x3e38d23f	0.18048953
196	0xbd147a34	-0.036249354
197	0xbc35ab85	-0.011088257
198	0x3da44028	0.08020049
199	0xbdab94f3	-0.08378019
200	0x3e1762b8	0.14783752
201	0x3e92271a	0.28545457
202	0xbd0b594a	-0.0340207
203	0x3c900acb	0.017583271
204	0x3e0fd551	0.14046218
205	0x3b2f134d	0.0026714385
206	0x3ea583a7	0.32327005
207	0x3d324ffc	0.04353331
208	0x3c15a1f7	0.009132854
209	0x3cc9f140	0.02465117
210	0x3db8885e	0.09010385
211	0x3d31ffa8	0.043456703
212	0xbd1ed2ed	-0.038775373
213	0xbb9b6fdc	-0.0047435593
214	0x3dae230b	0.08502778
215	0xbd690a61	-0.056894664
216	0x3d2764e9	0.04086772
217	0x3e642de3	0.2228313
218	0xbd64bfba	-0.055846907
219	0x3ce7e523	0.028307503
220	0xbc2aa532	-0.010415362
221	0x3dbf9997	0.09355467
222	0x3ebac8f7	0.3648145
223	0x3e9b24d8	0.30301547
224	0x3e71fc6d	0.23631449
225	0x3c5f7406	0.013638502
226	0x3dabba76	0.08385174
227	0x3e5a99cd	0.21347733
228	0xbda2f1de	-0.07956289
229	0x3e1015aa	0.14070764
230	0x3e058018	0.13037145
231	0x3df3f198	0.11911315
232	0x3dde4761	0.10853458
233	0xbcd89143	-0.026436454
234	0x3e28c5f5	0.16481765
235	0x3d44e1a6	0.048066758
236	0xbc7b6470	-0.01534377
237	0x3bc3f9ef	0.005980722
238	0x3d851c7f	0.06499576
239	0x3e25b35c	0.16181701
240	0x3e27f0e9	0.16400494
241	0x3d3eddd3	0.046598267
242	0x3ec80867	0.3906891
243	0x3ba1b7e7	0.004935253
244	0x3e218790	0.15774369
245	0x3e58d52a	0.21175066
246	0x3df5d246	0.12002997
247	0x3ccfa1ab	0.025345644
248	0x3d2ea331	0.0426361
249	0xbd90714f	-0.07052862
250	0xbdb8583d	-0.09001205
251	0x3ea08f22	0.31359202
252	0x3dd35af3	0.103200816
253	0xbd78f53f	-0.06078076
254	0x3dd54fd6	0.10415618
255	0x3e8b330d	0.27187386
