best_model_episode_550.pth (torch, 561686 bytes, 10 tensors)

actor_log_std f4 [4]
0	0xbfd87047	-1.6909264
1	0xc00037e1	-2.0034106
2	0xbfc089bb	-1.5042032
3	0xbfbb3fb0	-1.4628811

shared.0.weight f4 [256, 24]
0	0xbccafb0c	-0.024777912
1	0x3f1264fa	0.5718533
2	0xbe9db599	-0.3080261
3	0x3ef94cbb	0.48691353
4	0xbe2c8882	-0.16848949
5	0x3e43ffbc	0.19140524
6	0x3c39f0c1	0.011348904
7	0x3c934d21	0.017981114
8	0x3aa89002	0.00128603
9	0xbe1411b4	-0.14459878
10	0x3d352f1e	0.044234388
11	0x3e25d5df	0.16194867
12	0x3e946dd8	0.28990054
13	0x3dc0de80	0.094174385
14	0x3da34e46	0.07973914
15	0xbd8b2bb6	-0.067954466
16	0x3dc88752	0.09791435
17	0xbd301971	-0.042993013
18	0xbe33f6dc	-0.17574638
19	0xbcf9749b	-0.03045111
20	0xbe35bc64	-0.17747647
21	0xbe266aad	-0.16251631
22	0xbe344a97	-0.17606579
23	0x3de7839f	0.113044016
24	0xbf00540b	-0.5012824
25	0x3d879c1f	0.066215746
26	0xbf076617	-0.5289015
27	0xbe9a1783	-0.30096063
28	0x3e682aae	0.22672531
29	0xbefc7e3c	-0.4931506
30	0x3dff1b6e	0.12456404
31	0xbe90c7dd	-0.28277484
32	0xbd1419bb	-0.03615735
33	0xbe6becf5	-0.2303961
34	0xbe2bb4dc	-0.16768211
35	0xbdedebdc	-0.11617252
36	0xbd529dbe	-0.051419966
37	0x39868f79	0.00025665367
38	0xbdcc1b3f	-0.09966134
39	0xbe392a66	-0.1808258
40	0xbd5446aa	-0.051825203
41	0xbe1e0bb6	-0.15434155
42	0xbc4cd9ac	-0.012503069
43	0x3db14e56	0.086575195
44	0x3cbc647b	0.022997132
45	0xbe635bbb	-0.22202961
46	0xbc936a06	-0.017994892
47	0xbd363a55	-0.044489224
48	0x3eb8062e	0.35942215
49	0xbe8e7d7e	-0.27830118
50	0x3e83bbc0	0.2572918
51	0xbc6075c2	-0.013699951
52	0xbe82f006	-0.25573748
53	0x3a4ac774	0.00077354093
54	0x3d17c2b3	0.037050914
55	0x3d888906	0.0666676
56	0x3d6f375d	0.058402408
57	0x3d079002	0.03309632
58	0x3d952787	0.0728293
59	0xbd4ba22c	-0.049715206
60	0x3cbe86e7	0.023257686
61	0xbdf9a890	-0.12190354
62	0xbc133c61	-0.008986563
63	0xbe0a541a	-0.13508645
64	0x367feb7a	3.8135026e-06
65	0xbde15383	-0.11002257
66	0x3dbbeeee	0.091764316
67	0xbe594767	-0.21218644
68	0xbe5f67c9	-0.21816935
69	0xbdd57f74	-0.104247004
70	0x3e7abdd7	0.2448648
71	0x3e32d92e	0.1746566
72	0x3db94b62	0.09047581
73	0xbeca4e48	-0.3951285
74	0xbdb9b4b1	-0.09067667
75	0xbf03fbf1	-0.5155631
76	0xbe05a144	-0.13049799
77	0x3dad9176	0.0847501
78	0x3e64dfce	0.22351
79	0xbd0ac4ec	-0.033879206
80	0xbe811580	-0.25211716
81	0xbecd92f8	-0.4015119
82	0x3ddbabbc	0.10726115
83	0xbd275c75	-0.04085966
84	0x3c6b579d	0.01436415
85	0xbb26adf7	-0.002543328
86	0x3e24464d	0.16042443
87	0xbdf23cd9	-0.11828012
88	0xbd834009	-0.06408698
89	0x3dd0f1a7	0.102023415
90	0x3db158da	0.08659525
91	0x3aa3d967	0.0012500704
92	0x3e3f55f0	0.18685126
93	0x3e82351b	0.2543114
94	0xbe32c983	-0.17459683
95	0xbe384377	-0.17994486
96	0x3ed6769c	0.41887367
97	0xbd96a9ce	-0.073566064
98	0xbd887735	-0.06663362
99	0xbe97d263	-0.296527
100	0xbe2a7e2b	-0.16649692
101	0x3cc04dca	0.023474593
102	0xbe3f87c1	-0.1870413
103	0xbe00e996	-0.12589106
104	0xbd8c09b9	-0.06837792
105	0xbe44195e	-0.19150302
106	0xbea9be2a	-0.33152896
107	0xbe995a0e	-0.2995152
108	0xbe91f3d8	-0.2850635
109	0x3d764ca2	0.060131676
110	0x3e7f6f69	0.24944843
111	0x3da506aa	0.08057912
112	0x3dcf4b47	0.1012178
113	0xbe20661f	-0.15663956
114	0xbdd19811	-0.102340825
115	0xbd10ac4f	-0.035320576
116	0x3d823e91	0.0635959
117	0xbe2940e2	-0.16528657
118	0xbd69f1f7	-0.05711552
119	0xbd94ed8c	-0.07271871
120	0x3b8b7a24	0.0042565037
121	0x3e0735ef	0.13204168
122	0x3e1db2e2	0.1540027
123	0xbe44d3e3	-0.19221453
124	0xbe3447f2	-0.1760557
125	0xbe642987	-0.22281466
126	0xbd4850e2	-0.04890526
127	0xbd3bfbc1	-0.045894388
128	0x3ddf132b	0.10892328
129	0xbe0f750f	-0.14009498
130	0x3dd43029	0.10360748
131	0x3b863f7e	0.0040969243
132	0xbe3e0e26	-0.18560085
133	0x3e323abe	0.17405221
134	0xbde9cf2e	-0.114164695
135	0xbe0a3bb5	-0.13499339
136	0xbe6aaba8	-0.22917044
137	0xbe89f9a3	-0.2694827
138	0xbc6cb04f	-0.014446332
139	0xbe02e81d	-0.12783857
140	0xbca3c2bf	-0.019990323
141	0xbe6818d3	-0.2266572
142	0x3e0b0e9e	0.13579795
143	0xbdcc365f	-0.09971308
144	0xbdbefe74	-0.09325877
145	0xbf11b308	-0.56913805
146	0x3d20de38	0.039274424
147	0x3e99e825	0.30059925
148	0x3eabcac4	0.33553135
149	0xbd9703f0	-0.07373798
150	0xbe08f783	-0.13375668
151	0xbe04784c	-0.12936515
152	0x3d05b1ea	0.032640375
153	0xbe9e5502	-0.3092423
154	0x3ddb3ff4	0.107055575
155	0xbeb46706	-0.3523485
156	0x3d8152c5	0.06314615
157	0x3d8ffd4f	0.07030737
158	0x3c88ba2e	0.01669034
159	0xbe2c5d99	-0.1683258
160	0x3df739c7	0.12071567
161	0xbcc67af0	-0.024228543
162	0xbd48ca2a	-0.049020924
163	0xbe8a1e8a	-0.26976424
164	0xbc8e8d0c	-0.01740124
165	0xbe1aacb4	-0.15104944
166	0xbe144793	-0.14480428
167	0x3e4792c9	0.19489588
168	0x3e129b38	0.14317024
169	0x3c2ed120	0.0106699765
170	0xbe4aa17e	-0.19788167
171	0xbe286f1a	-0.16448632
172	0x3e345745	0.17611416
173	0xbd8a72ae	-0.06760155
174	0xbdbb89c2	-0.091571346
175	0xbd57fa54	-0.052728966
176	0xbe236cc0	-0.15959454
177	0x3c63b1c8	0.013897367
178	0x3dad7030	0.08468664
179	0xbe059f52	-0.13049057
180	0x3d8249a1	0.063617
181	0x3db9b02a	0.09066804
182	0xbd597ed6	-0.053099476
183	0xbe26b6d6	-0.16280684
184	0x3c869249	0.016427176
185	0x3c8c89d0	0.017155558
186	0xbc61f8b6	-0.013792207
187	0xbe0117c3	-0.1260672
188	0xbe13d4da	-0.14436665
189	0xbd8d854f	-0.06910192
190	0xbdeb2c8f	-0.11483108
191	0xbd767e03	-0.060178768
192	0x3e54baff	0.20774458
193	0x3fae6af3	1.3626388
194	0xbf205f9b	-0.6264588
195	0x3f58a7f1	0.8463126
196	0x3d91027e	0.070805535
197	0x3d438b74	0.047740415
198	0xbc978835	-0.018497566
199	0x3d5a6f52	0.05332882
200	0x3d2bdd0d	0.041958857
201	0xbdc0fd56	-0.0942332
202	0x3da2d503	0.07950785
203	0xbe1f3fa4	-0.1555162
204	0xbb7e4a0e	-0.0038801464
205	0xbe7ff113	-0.24994306
206	0xbe05fca1	-0.13084652
207	0xbe5579e7	-0.20847283
208	0xbddbcb53	-0.107321404
209	0x3cb6d87f	0.02232003
210	0x3db929e1	0.09041191
211	0x3d99ea23	0.07515361
212	0xbe25d67d	-0.16195102
213	0xbe280681	-0.16408731
214	0xbd4209aa	-0.047372498
215	0x3e5ab7d1	0.21359183
216	0x3e14b2de	0.14521357
217	0xbed58c7c	-0.41708744
218	0xbe3e1996	-0.18564448
219	0xbe925e0e	-0.28587383
220	0x3d9ccf24	0.076566964
221	0x3dc20b14	0.09474769
222	0xbdc630e3	-0.09677293
223	0x3d5381eb	0.05163757
224	0xbe83ca45	-0.25740257
225	0xbe2b2a5c	-0.16715378
226	0x3e1a489d	0.15066762
227	0xb9b9f5f0	-0.00035469187
228	0xbe06f468	-0.13179171
229	0xbea2d460	-0.31802654
230	0xbe2c5d01	-0.16832353
231	0x3e16d32f	0.14728998
232	0x3dbb8802	0.09156801
233	0x3e2930a4	0.16522461
234	0x3dd145ea	0.10218413
235	0x3d442100	0.047883034
236	0xbc82b750	-0.01595655
237	0xbe54cac9	-0.20780481
238	0xbe981920	-0.2970667
239	0xbe62b3d0	-0.22138906
240	0x3ebcdd57	0.3688762
241	0x3ec652ab	0.38734946
242	0xbeb63abb	-0.35591683
243	0xbecec63a	-0.4038561
244	0x3de3b19d	0.111178614
245	0xbd0fbec9	-0.035094056
246	0xbdb20056	-0.0869147
247	0x394e2361	0.0001965887
248	0xbd64fe58	-0.055906624
249	0xbd9485fd	-0.07252119
250	0xbb49a59e	-0.0030768882
251	0xbe1fff8e	-0.1562483
252	0x3dc5be5f	0.09655451
253	0x3d082eb1	0.033247653
254	0xbdaeb449	-0.085304804
255	0xbe5f225d	-0.21790452

shared.0.bias f4 [256]
0	0xbe2c39bd	-0.168189
1	0xbb7d94b1	-0.0038693363
2	0x3ce715ff	0.02820873
3	0x3dd157c6	0.102218196
4	0xbe1a9aab	-0.15098064
5	0x3d3fdf72	0.046843953
6	0x3df0dc21	0.11760736
7	0x3d15567a	0.036459424
8	0xbccb14ca	-0.024790186
9	0x3e60c44a	0.21949878
10	0xbe23cf45	-0.15997036
11	0x3ecedadb	0.40401348
12	0x3e3031b3	0.17206459
13	0x3e19705a	0.14984265
14	0x3e6cc8b7	0.23123442
15	0x3e19d425	0.15022333
16	0x3e3169c7	0.17325507
17	0x3da0a249	0.078434534
18	0xbe9312b5	-0.2872521
19	0x3df4c355	0.11951319
20	0x3e7f273e	0.24917313
21	0x3d4d69c9	0.050149713
22	0x3d17019b	0.036866765
23	0xbb6f6d95	-0.0036533822
24	0x3e27a2c9	0.16370691
25	0x3e1fe2b1	0.1561382
26	0xbcd1868c	-0.025576852
27	0x3ea89ddd	0.3293294
28	0x3dbd8bad	0.09255157
29	0x3d4b80e4	0.049683467
30	0x3e786410	0.24256921
31	0x3d6ec068	0.05828896
32	0xbd17b987	-0.037042167
33	0x3e110a57	0.141641
34	0x3e27cb21	0.16386081
35	0x3e346b44	0.17619044
36	0xbd1e8996	-0.03870543
37	0x3e244b1d	0.16044278
38	0xbdf7bac5	-0.1209617
39	0x3e202fcb	0.15643232
40	0xbe09fe9d	-0.13476034
41	0x3e2ad1a4	0.16681534
42	0x3e936532	0.28788143
43	0xbdae5699	-0.08512611
44	0xbdce543b	-0.100746594
45	0xbd3f94f0	-0.046772897
46	0x3dc0e0b9	0.094178624
47	0x3eb61813	0.35565242
48	0xbdea370a	-0.11436279
49	0xbda40a22	-0.08009745
50	0xbd758a02	-0.059946068
51	0x3ce69a5f	0.028149782
52	0xbd547531	-0.051869575
53	0xbdb66aa5	-0.089070596
54	0x3e90e2b6	0.28297967
55	0x3e7fd4e2	0.24983552
56	0x3d8b63da	0.068061545
57	0x3e609a14	0.21933776
58	0xbce6579f	-0.028117953
59	0x3dcaad65	0.09896354
60	0xbe3578d5	-0.17721875
61	0x3e718cb3	0.23588829
62	0xbcdb91b5	-0.026802877
63	0x3aadbcf6	0.0013255167
64	0xbd5aa0b9	-0.053375933
65	0xbcfe7550	-0.031061798
66	0xbe33232d	-0.17493887
67	0xbe2073b6	-0.1566914
68	0xbe22c505	-0.1589547
69	0xbe4b7394	-0.19868308
70	0x3cf6016a	0.030029971
71	0xbe2192c9	-0.1577865
72	0x3e118401	0.14210512
73	0x3e0c01f9	0.13672628
74	0xbe106cb3	-0.14103965
75	0xbe4e0dcc	-0.2012245
76	0xbe1594d6	-0.14607558
77	0x3e0cb163	0.13739543
78	0x3ea6bcfa	0.32566053
79	0x3d865861	0.06559826
80	0x3e2881bd	0.16455741
81	0x3df21953	0.118212365
82	0xbe39dc2b	-0.18150394
83	0xbd52d598	-0.05147323
84	0xbe41a326	-0.18909892
85	0x3dbc6928	0.091997445
86	0x3cf2ee57	0.029654665
87	0x3e756dd3	0.23967676
88	0xbd28bc0a	-0.041194953
89	0xbd9af2fc	-0.07565877
90	0x3e1400c9	0.14453425
91	0x3e0f6a74	0.14005452
92	0xbc91fe35	-0.01782141
93	0xbe51fdf8	-0.20507038
94	0x3e3a21e8	0.18176997
95	0xbe136880	-0.14395332
96	0xbd04ccbb	-0.03242181
97	0x3e2a7631	0.16646649
98	0x3d54d75e	0.051963203
99	0x3b70cca3	0.0036743067
100	0xbdf0e738	-0.117628515
101	0x3ea1e1d6	0.31617612
102	0x3d4657bd	0.048423517
103	0x3e49abed	0.1969449
104	0x3dd43735	0.103620924
105	0xbe2e4e55	-0.17022069
106	0xbbd76051	-0.006572761
107	0x3e2f9d3e	0.17149827
108	0xbe29867b	-0.16555206
109	0xbd059b3f	-0.032618757
110	0x3e9d1b2f	0.30684802
111	0xbe21588d	-0.15756436
112	0x3d2e22f1	0.04251379
113	0x3c2ae3ac	0.010430258
114	0x3d9c613f	0.07635736
115	0x3dcd6bbf	0.100303166
116	0xbdd31691	-0.103070386
117	0xbd9e5d07	-0.07732587
118	0x3e72f290	0.23725343
119	0xbddce56c	-0.10785946
120	0x3e447403	0.1918488
121	0x3e0a3de4	0.13500172
122	0xbd270a5d	-0.040781368
123	0x3d255f3f	0.040374037
124	0x3bf53488	0.007483069
125	0x3e2abf1d	0.16674466
126	0x3e4903a9	0.19630302
127	0x3da030c0	0.07821798
128	0xbd0ddd95	-0.034635145
129	0x3e3222ae	0.17396042
130	0x3ea8f543	0.3299962
131	0x3eae3f0c	0.34032476
132	0x3b6bcf7d	0.0035981827
133	0x3d6a90c7	0.057266977
134	0xbd6b4b6b	-0.05744497
135	0x3d3e5e57	0.04647669
136	0xbe167a3f	-0.1469507
137	0xbc07a763	-0.008279654
138	0x3e187434	0.14888078
139	0x3e18eb77	0.14933573
140	0x3e330f0e	0.17486212
141	0x3e0b90f6	0.13629517
142	0x3e043b37	0.12913214
143	0xbde7f01e	-0.113250956
144	0x3e758e56	0.23980078
145	0x3dd8d1fe	0.10586928
146	0x3d480850	0.048836052
147	0x3b80e43b	0.003933457
148	0xbda3c88a	-0.07997234
149	0xbe7b58b6	-0.2454556
150	0x3da3fe70	0.080075145
151	0x3e6dcdf4	0.23223096
152	0x3d5abe91	0.053404395
153	0x3dedc540	0.11609888
154	0xbdc929ed	-0.0982245
155	0xbdf0bb10	-0.11754429
156	0xbd71eda3	-0.05906452
157	0x3e120d72	0.14262941
158	0x3e40dd81	0.18834497
159	0xbba06d4d	-0.004895842
160	0x3e38d5c7	0.180503
161	0x3da766f6	0.08173935
162	0xbd2fc3f7	-0.042911496
163	0x3e76af95	0.24090417
164	0xbd2cdbee	-0.04220193
165	0x3e37d14a	0.17950931
166	0x3d820b4e	0.063498124
167	0x3e63ad72	0.22234133
168	0x3e5f4188	0.21802342
169	0x3e59a10b	0.2125284
170	0x3d983d54	0.074335724
171	0xbd3dd288	-0.046343356
172	0xbc9bbb02	-0.01901007
173	0xbde04bbc	-0.10951945
174	0x3e39cd2e	0.18144676
175	0x3ea7af03	0.3275071
176	0x3d0002bc	0.031252608
177	0xbd4772af	-0.048693355
178	0x3d9e568f	0.077313535
179	0x3d90a4c0	0.070626736
180	0xbe1dd791	-0.15414263
181	0xbdbf9181	-0.093539245
182	0x3da5d24d	0.08096752
183	0xbe107efb	-0.14110939
184	0x3d603a8e	0.054743342
185	0xbd0a098f	-0.033700522
186	0x3e3046c6	0.17214498
187	0x3c1f3f18	0.009719633
188	0xbc020dd1	-0.007937864
189	0x3e806103	0.25074014
190	0x3ec987ad	0.39361325
191	0x3e41fa3a	0.1894311
192	0x3dcfffe2	0.10156228
193	0x3d05b19e	0.032640092
194	0x3e842542	0.25809675
195	0x3e7661fe	0.24060819
196	0x3e19cb89	0.15019049
197	0x3e4043ac	0.18775815
198	0x3d4267b4	0.04746218
199	0x3e52033b	0.20509045
200	0x3def1a7a	0.11674972
201	0x3e5aeb95	0.2137893
202	0xbdbb0859	-0.091324516
203	0xbcca3a9a	-0.024686147
204	0xbe4824a6	-0.1954523
205	0x3c716ac3	0.014734927
206	0xbce2a0ef	-0.02766463
207	0x3d9183c8	0.071052134
208	0xbe409093	-0.1880515
209	0xbde412c0	-0.11136389
210	0x3e9c0582	0.30472952
211	0x3d367876	0.044548474
212	0x3d1aed13	0.037823748
213	0x3e00ce1b	0.12578623
214	0xbd45aca8	-0.04826036
215	0xbd2a374c	-0.04155664
216	0xbda98b70	-0.08278549
217	0x3d2b92d2	0.041888066
218	0xbe39d8bf	-0.18149088
219	0xbde32d36	-0.11092608
220	0xb8841028	-6.29726e-05
221	0x3cdcf726	0.026973318
222	0x3e7c7b96	0.2465652
223	0x3ddd00f2	0.10791196
224	0x3e8a920c	0.2706455
225	0x3e5fde13	0.21862058
226	0xbdf72fc2	-0.12069656
227	0xbd111c8f	-0.035427626
228	0xbd355a25	-0.04427542
229	0xbdf93d68	-0.121699154
230	0x3d79e769	0.061011706
231	0x3e2588e6	0.16165504
232	0xbe7551c0	-0.23956966
233	0x3d0dcd60	0.03461969
234	0xbe74d26a	-0.23908392
235	0x3eab617b	0.3347281
236	0x3dd283ac	0.10279021
237	0x3d45cef3	0.048293065
238	0x3e87daf2	0.2653423
239	0x3b890e49	0.004182611
240	0x3e45988f	0.19296478
241	0x3cf0e711	0.029407056
242	0xbbe3cc60	-0.0069518536
243	0x3e0dd82a	0.13851991
244	0x3d9bb0bc	0.07602069
245	0x3d6a98aa	0.057274498
246	0x3d89d29f	0.06729626
247	0x3d60167e	0.05470895
248	0x3e678705	0.226101
249	0x3d0879ed	0.033319402
250	0xbd2bbfd0	-0.041930974
251	0x3e474736	0.19460759
252	0xbc48a449	-0.0122462
253	0xbdd188fd	-0.102312066
254	0x3ddbf009	0.107391424
255	0x3e870cb0	0.26376867

actor_mean.0.weight f4 [256, 256]
0	0xbbb98e10	-0.005662687
1	0xbd7a993c	-0.061181292
2	0x3d1750da	0.03694234
3	0xbd354487	-0.044254806
4	0x3c960519	0.018312978
5	0xbbe3b4d7	-0.006949048
6	0x3d2fb7e2	0.042899974
7	0xbc72d47c	-0.014821168
8	0xbd6fd774	-0.05855508
9	0xbd951c5b	-0.07280799
10	0xbc7a7f00	-0.015289068
11	0xbd4c46e1	-0.049872283
12	0x3d097182	0.033555515
13	0xbcfe8b45	-0.031072268
14	0xbd291b0a	-0.041285552
15	0xbdc27fc3	-0.09497025
16	0xbd9d3fae	-0.076781616
17	0xbd362fb9	-0.044479106
18	0xbdd800a5	-0.10546998
19	0xbca128da	-0.0196728
20	0xbd7a0e79	-0.06104896
21	0xbc98d911	-0.018658193
22	0xbd25aa0c	-0.040445372
23	0xbd9dbfb7	-0.07702582
24	0x3d6619e2	0.056177028
25	0x3cfc69d8	0.030812189
26	0xbb09a982	-0.0021005576
27	0xbbbfa26a	-0.0058482187
28	0x3cacd271	0.02109644
29	0xbd6775b1	-0.056508724
30	0xbdc55f1c	-0.09637281
31	0x3d2c0f6e	0.042006902
32	0xbe003d93	-0.12523489
33	0x3cbda2ed	0.023148978
34	0x3b94ee66	0.004545021
35	0x3d1a3d0c	0.037655875
36	0x3d8750be	0.06607197
37	0xbdaeb1d9	-0.085300155
38	0x3ca63690	0.02028969
39	0xbdd2ff8e	-0.103026494
40	0x3b1aaec6	0.0023602708
41	0x3d44000c	0.047851607
42	0xbd28c5c2	-0.04120422
43	0x3cba18cd	0.022716904
44	0xbd1050f0	-0.035233438
45	0xbcee3977	-0.029080136
46	0x3b62725e	0.0034553031
47	0xbd9fa92b	-0.07795938
48	0xbcb35d7a	-0.021895159
49	0xbac86274	-0.001528813
50	0xbd294c73	-0.041332673
51	0x3d858de2	0.065212026
52	0x3d7736f3	0.060355138
53	0xbd963054	-0.073334366
54	0x3bbb1525	0.0057093077
55	0x3b710946	0.003677921
56	0x3d27798e	0.040887408
57	0xbd3497f1	-0.044090215
58	0x3d6f46be	0.058417074
59	0xbd8d741c	-0.06906912
60	0x3d8c65d6	0.06855361
61	0xbd8e58ef	-0.069505565
62	0xbc9411b2	-0.018074844
63	0x3c250222	0.010071309
64	0xbc30ca71	-0.010790453
65	0xbd36563b	-0.04451583
66	0x3ce8ee6d	0.028434003
67	0xbd7f6d09	-0.062359843
68	0xbd428913	-0.047494005
69	0x3c19ae7b	0.009379978
70	0x3d77f698	0.060537905
71	0x3d11e6a0	0.03562033
72	0xbd65184b	-0.05593137
73	0x3c47e9a0	0.012201697
74	0x3cc34967	0.023838712
75	0xbc9ba874	-0.019001223
76	0x3d1f92f8	0.03895852
77	0xbca653b7	-0.02030359
78	0xbd7c5c6e	-0.061611585
79	0xbcb4efac	-0.02208694
80	0xbd1e6337	-0.038668837
81	0x3cf36322	0.029710356
82	0x3d30194f	0.042992886
83	0xbd1eaa5b	-0.038736682
84	0xbc16ee44	-0.00921208
85	0x3d7030e3	0.058640372
86	0xbcfe69b7	-0.031056268
87	0xbd4c1ac8	-0.049830228
88	0x3c74017c	0.014892932
89	0x3d5bbcaa	0.05364672
90	0x3c67ba95	0.014143606
91	0xbda1162e	-0.078655586
92	0xbd618f56	-0.055068336
93	0x3d23152e	0.03981512
94	0xbc35bcc2	-0.011092367
95	0x3beafa6a	0.007170965
96	0xbc4a94d3	-0.012364584
97	0xbd85570e	-0.06510745
98	0xbc8cd1e1	-0.017189922
99	0x3d505ac4	0.05086781
100	0xbd1c9f28	-0.03823772
101	0x3caf6f69	0.02141543
102	0xbc8dc359	-0.017305063
103	0xbd983663	-0.074322484
104	0xbd5b550c	-0.053547904
105	0x3c1ffb02	0.009764435
106	0xbdbdb6ce	-0.09263383
107	0x3cd6f8f3	0.026241755
108	0xbca4d70f	-0.02012208
109	0x3bf2b4ca	0.0074068056
110	0x3b9a075e	0.0047005853
111	0x3d9bf8e5	0.07615832
112	0xbd58aafc	-0.05289744
113	0xbd980d3a	-0.07424398
114	0x3cebb051	0.028770598
115	0xbd081a1e	-0.033228032
116	0xbcb15d24	-0.021650858
117	0x3ce9ffcc	0.028564356
118	0xbccf03ad	-0.025270307
119	0xbc4adc88	-0.01238168
120	0xbdb74e1f	-0.08950447
121	0x3c8861a5	0.016648123
122	0x3d118e3a	0.03553603
123	0xbd09e311	-0.033663813
124	0xbd963b0e	-0.073354825
125	0x3ce7333e	0.028222676
126	0x3c698f1d	0.014255312
127	0xbba58467	-0.005051184
128	0x3be3eb5a	0.0069555463
129	0xbd7a19c6	-0.061059736
130	0x3d171bb9	0.036891673
131	0xbc5f407c	-0.013626214
132	0xbc402348	-0.011727162
133	0xbcc64296	-0.024201673
134	0xbd3c564a	-0.04598073
135	0x3b9a2e1c	0.0047052037
136	0x3d1d8cc1	0.03846431
137	0x3d1935ee	0.037404947
138	0xbd15508d	-0.036453772
139	0x3d5b1dd1	0.053495232
140	0x3c7167a6	0.014734184
141	0x3c81d0f3	0.015846705
142	0x3d0382b6	0.032107078
143	0xbd036e49	-0.032087598
144	0xbd35d4c5	-0.044392366
145	0xbb45930b	-0.003014746
146	0xbdbe3eac	-0.092892975
147	0x3c898dc9	0.016791241
148	0xbdccf301	-0.10007287
149	0xbd804ee7	-0.062650494
150	0xbb9ab339	-0.004721072
151	0x3a0a5ca6	0.0005278088
152	0x3d018857	0.031624164
153	0xbd4b52e0	-0.049639583
154	0xbd5ccc70	-0.053905904
155	0xbc1241d8	-0.008926831
156	0xbd73bb15	-0.059504587
157	0xbd7875ec	-0.060659334
158	0x3bd6f4ab	0.0065599284
159	0xbd559fd9	-0.052154396
160	0xbcf3ff0c	-0.029784702
161	0x3c73c943	0.0148795275
162	0x3d59c973	0.053170633
163	0xbd799925	-0.060937066
164	0x3ce384a5	0.02777321
165	0xbc6630d6	-0.014049729
166	0x3dbdc6c1	0.09266425
167	0x3d811d07	0.06304365
168	0xbd1b8d6d	-0.03797667
169	0xbc8be142	-0.017075185
170	0xbd731d7f	-0.0593543
171	0x3c9d463d	0.019198531
172	0xbd99d588	-0.07511431
173	0x3de27af7	0.1105861
174	0xbcadcd0e	-0.021215942
175	0x3d4ab0b4	0.049484923
176	0x3d00c69f	0.03143942
177	0x3d41aae1	0.047282103
178	0xbda26da6	-0.0793107
179	0xbd9c997d	-0.07646463
180	0xbda52bc0	-0.08064985
181	0xbcf566ea	-0.0299563
182	0x3d1bbb4c	0.038020417
183	0x3cb0c944	0.021580346
184	0x3d180a81	0.037119392
185	0xba407e5f	-0.00073430495
186	0x3b9377f3	0.004500383
187	0xbd705d90	-0.05868298
188	0x3d2f6bb0	0.04282731
189	0xbda9ebdf	-0.08296942
190	0xbd90b61c	-0.070659846
191	0x3c87ff45	0.016601214
192	0x3d115fc3	0.035491716
193	0xbd3c0f2f	-0.045912918
194	0x3ce1cff5	0.027564982
195	0xbceaf952	-0.028683338
196	0xbd8f5231	-0.06998099
197	0xbd133c17	-0.035945978
198	0xbcc6c886	-0.024265539
199	0xbd68f091	-0.056870047
200	0x3d2ecb6a	0.04267446
201	0xbd276960	-0.040871978
202	0xbd45c353	-0.04828198
203	0xbcdcf7f0	-0.026973695
204	0xbc3dfb4e	-0.01159556
205	0x3d0b7171	0.034043733
206	0xbd38c761	-0.045112018
207	0xbd0988d2	-0.033577748
208	0xbbe54b57	-0.0069975066
209	0x3d3b47a1	0.045722608
210	0x3c3a7f12	0.011382835
211	0xbcc01ca4	-0.023451157
212	0xbd043129	-0.032273445
213	0x3bf4f2f5	0.007475252
214	0x3c68bc8b	0.014205108
215	0x3c65ca67	0.014025307
216	0x3d264fa8	0.04060331
217	0x3ceefd0d	0.029173398
218	0x3b061577	0.0020459571
219	0x3bded84d	0.0068006874
220	0xbd54e9ad	-0.051980663
221	0xbd33ac77	-0.043865647
222	0xbda2f825	-0.07957486
223	0xba53f39a	-0.00080853107
224	0xbd4ddde9	-0.05026046
225	0x3df61c19	0.12017078
226	0xbd8c5267	-0.068516545
227	0xbd7c3e1a	-0.061582662
228	0x3cb87323	0.022515839
229	0x3c770b6b	0.015078406
230	0xbd5173a0	-0.05113566
231	0xbccb8a49	-0.024846213
232	0x3bbe95e9	0.0058162105
233	0xbc337e57	-0.010955415
234	0xbcdeb82f	-0.027187435
235	0xba460a88	-0.000755467
236	0xbc85648d	-0.016283298
237	0xbc993894	-0.018703736
238	0x3ccad3b9	0.02475916
239	0xbd0ad342	-0.033892877
240	0xbd1e3ed8	-0.03863415
241	0xbb9350be	-0.004495709
242	0xbd861fee	-0.06549059
243	0x3ca2f55c	0.019892387
244	0xbd720bff	-0.05909347
245	0xbd85823b	-0.0651898
246	0xbbc9d254	-0.0061591063
247	0xbd6a659b	-0.057225805
248	0xbd27150b	-0.040791553
249	0x3cd101f7	0.025513632
250	0xbc46f1f2	-0.012142645
251	0xbd0c5408	-0.034259826
252	0x3c1bb020	0.009502441
253	0xbda00065	-0.07812575
254	0x3b45d5e6	0.0030187308
255	0xbdc35d93	-0.09539332

actor_mean.0.bias f4 [256]
0	0xbc881a0e	-0.016613986
1	0xbdada383	-0.08478453
2	0xbceedbf1	-0.02915761
3	0x3d71c1bd	0.059022654
4	0x3ceb1c7d	0.028700108
5	0xbc3102ee	-0.010803921
6	0xbd17f404	-0.037097946
7	0xbdc55690	-0.09635651
8	0x3be81f4b	0.0070838085
9	0xbcb0e71b	-0.021594575
10	0xbd3a1a26	-0.045435093
11	0xbd1c025f	-0.0380882
12	0x3cd0f25c	0.025506191
13	0xbd94e723	-0.07270648
14	0xbdf4e205	-0.11957172
15	0x3b9fb2a1	0.004873589
16	0xbbd46f14	-0.006482968
17	0xbd2d54a2	-0.04231704
18	0xbd350562	-0.044194587
19	0xbdd28f7c	-0.10281274
20	0xbda4b2b7	-0.080419
21	0xbd9e6b04	-0.07735255
22	0xba910f5b	-0.0011067198
23	0xbbd47eb4	-0.0064848308
24	0xbd50a582	-0.05093909
25	0xbb4f62bd	-0.0031644546
26	0xbd981b95	-0.07427136
27	0xbdfb1c7e	-0.12261294
28	0xbd9c1e3b	-0.076229535
29	0xbd4e8c0f	-0.05042654
30	0xbd094438	-0.033512324
31	0xbd5ea13c	-0.054352984
32	0xbdad3551	-0.08457435
33	0xbda3ebba	-0.08003946
34	0xbd972f8b	-0.07382115
35	0x3c3f73bd	0.011685309
36	0xbd2b4de0	-0.041822314
37	0x3bb99318	0.005663287
38	0x3dbd629e	0.09247325
39	0xbd2eb68b	-0.042654555
40	0x3ba04d8e	0.0048920577
41	0xbd917063	-0.07101514
42	0xbcb373f6	-0.02190588
43	0xbcfc0124	-0.030762263
44	0x3d0ad976	0.033898793
45	0xbc2d1738	-0.010564618
46	0xbe232460	-0.15931845
47	0xbc30f221	-0.0107999155
48	0xbd777cb3	-0.060421657
49	0x3c44f133	0.012020397
50	0xbd941d9e	-0.072322115
51	0x3ce431d2	0.027855787
52	0xbd811613	-0.063030384
53	0xbd056da2	-0.032575257
54	0xbd9be178	-0.07611364
55	0xbd84140b	-0.064491354
56	0xb9876c3d	-0.0002582985
57	0xbd825b30	-0.06365049
58	0xbcbac705	-0.022799978
59	0xbd21dbbf	-0.039516207
60	0x3c546f71	0.012966023
61	0x3b06f79e	0.0020594369
62	0xbdc408b3	-0.09571972
63	0xbb00ec7c	-0.0019672206
64	0xbba4f1c5	-0.005033704
65	0xbd12feeb	-0.03588764
66	0xbd162949	-0.036660466
67	0x3cfaf30c	0.030633472
68	0xbd728483	-0.059208404
69	0xbcb442ab	-0.022004446
70	0xbdc59ff8	-0.09649652
71	0xbdd128fc	-0.10212895
72	0xbd4f0d35	-0.050549705
73	0x3d0ba923	0.03409685
74	0xbd985bd7	-0.07439392
75	0xbcf4031f	-0.029786645
76	0xbd2a3e73	-0.041563462
77	0xbd94527a	-0.07242294
78	0xbdc14941	-0.094378
79	0xbb835102	-0.0040074596
80	0xbd589810	-0.052879393
81	0xbdff0d4a	-0.124537066
82	0x3cac1623	0.02100665
83	0xbdc10889	-0.09425456
84	0xbd16732c	-0.03673093
85	0x3d65576c	0.055991575
86	0xbd81b5bf	-0.063334934
87	0xbdac7dbd	-0.0842242
88	0x3cc1da11	0.023663552
89	0xbd855d5e	-0.06511949
90	0xbc5fe51e	-0.013665466
91	0x3bd13d88	0.006385509
92	0xbdea4703	-0.11439326
93	0x3cd03fd7	0.025421066
94	0xbcd496b2	-0.025950763
95	0x3d053e8d	0.032530356
96	0xbdc5f120	-0.096651316
97	0xbd4c8970	-0.049935758
98	0xbdb6630e	-0.08905612
99	0xbc7f5e44	-0.0155864395
100	0x3c3905a1	0.011292846
101	0xbe017597	-0.12642513
102	0xba86a811	-0.0010273476
103	0xbd0821e0	-0.03323543
104	0xbd54daf3	-0.05196662
105	0xbda5383d	-0.08067367
106	0xbdedb529	-0.11606819
107	0xbd28a933	-0.041176986
108	0xbc621db0	-0.013801023
109	0xbcbd6912	-0.02312139
110	0x3d01f4b5	0.03172751
111	0xbcde9ee3	-0.027175372
112	0xbcad63eb	-0.021165809
113	0x3d6bc1f7	0.057558026
114	0xbdcad17b	-0.099032365
115	0xbd21e90b	-0.039528888
116	0xba7debaa	-0.0009686301
117	0xbb931270	-0.004488282
118	0xbd3e3c7c	-0.0464444
119	0x3cce4d5b	0.02518337
120	0xbd36b743	-0.044608366
121	0xbda271f9	-0.07931895
122	0x3cb080a4	0.021545716
123	0xbb06f5b1	-0.002059322
124	0xbd40acfe	-0.04703998
125	0xbc003f66	-0.007827615
126	0xbb169537	-0.0022977123
127	0xbd6357e9	-0.05550376
128	0xbcef8859	-0.02923982
129	0xbcf033ed	-0.029321635
130	0x3ba225e3	0.004948364
131	0xbc5c4f17	-0.013446591
132	0xbc5c4cc8	-0.01344604
133	0xbd3b7fe3	-0.04577626
134	0xbe04e4fe	-0.12977979
135	0xbd8aa076	-0.06768887
136	0x3c8e911d	0.01740318
137	0xbd231f4f	-0.03982478
138	0xbd90972a	-0.07060082
139	0xbd959ec4	-0.07305673
140	0xbd0effcd	-0.03491192
141	0x3cb5d0c2	0.02219427
142	0xbd1dc71b	-0.03851996
143	0xbd14261b	-0.036169153
144	0xbda9ee97	-0.082974605
145	0x3cc1003c	0.023559682
146	0xbd18d306	-0.037310623
147	0xbce2c8fa	-0.027683724
148	0xbd9b18b5	-0.07573072
149	0x3ce18df6	0.027533513
150	0xbda0fef1	-0.07861126
151	0xbdff3311	-0.12460912
152	0xbd9785af	-0.07398545
153	0x3d92a8f6	0.07161133
154	0x3c315008	0.010822304
155	0xbd99562b	-0.07487138
156	0x3be20a6f	0.0068982164
157	0x3bbc6424	0.0057492424
158	0x3cf6de4c	0.030135296
159	0xb91b2188	-0.00014794443
160	0xbd605f31	-0.05477828
161	0x3d6c1da9	0.057645474
162	0xbe00e7ab	-0.12588374
163	0xbd86b593	-0.06577601
164	0xbd728a25	-0.059213776
165	0x3c2815e2	0.0102591235
166	0x3cd14560	0.025545776
167	0xbd926020	-0.07147241
168	0xbd159b74	-0.036525205
169	0x3d284000	0.04107666
170	0xbcf19c41	-0.029493453
171	0xbcd3dbe9	-0.025861697
172	0xbdca25db	-0.098705016
173	0xbd37dbee	-0.044887476
174	0x3c56c801	0.013109208
175	0x3c4e2afa	0.012583489
176	0xbd33f269	-0.043932352
177	0x3cba27f0	0.022724122
178	0x3bb19b6e	0.00542014
179	0x3d169d65	0.036771197
180	0xbd83f018	-0.064422786
181	0xbd3d22aa	-0.046175636
182	0xbcb5c3bd	-0.022188062
183	0x3cca2066	0.024673652
184	0xbb1c8a41	-0.0023886117
185	0xbd9d06fb	-0.07667347
186	0xbd39b422	-0.045337804
187	0xbd6b7106	-0.057480834
188	0x3d00e69d	0.03146993
189	0xbd118626	-0.035528325
190	0xbd0329bb	-0.03202222
191	0xbcaf0391	-0.021364005
192	0xbc35d95b	-0.011099185
193	0x3cac6ea1	0.021048846
194	0x3a6e859a	0.00090988877
195	0xbd1cdf06	-0.03829863
196	0x3a6ea23e	0.00091031555
197	0xbdd856ba	-0.10563417
198	0x3bdada31	0.0066788425
199	0xbc9dfd82	-0.019285921
200	0xbcb2c5d2	-0.021822844
201	0x3d797dc1	0.060910944
202	0xbcf0f0cb	-0.029411694
203	0xbd820682	-0.063488975
204	0xbd0976da	-0.03356061
205	0xbd8f7270	-0.07004249
206	0xbc1241c2	-0.008926811
207	0xbd8e3a0d	-0.06944666
208	0xbd726351	-0.059176747
209	0xbd877049	-0.066132136
210	0xbda79e57	-0.08184498
211	0xbd012d1b	-0.031537157
212	0xbd4ca73a	-0.049964167
213	0x3cbf4ccd	0.023352051
214	0x3d5927f2	0.05301661
215	0x3cdeecb8	0.027212486
216	0x3c7c5f51	0.015403585
217	0xbd9c91cc	-0.07644996
218	0x3ce8789e	0.028377827
219	0xbd78d0ce	-0.060746007
220	0xbd7ecc90	-0.062206805
221	0xbcaf62f3	-0.021409487
222	0xbd65e213	-0.056123804
223	0x3d98791c	0.07444975
224	0xbc6da7f3	-0.014505374
225	0x3d103b69	0.035212908
226	0xbc5a80ad	-0.013336343
227	0x3b797216	0.0038062385
228	0x3d6ebc97	0.058285322
229	0xbd8bb136	-0.0682091
230	0x3d02587f	0.031822678
231	0xbdab46d5	-0.083631195
232	0xbd5c5f6f	-0.05380195
233	0xbd174f27	-0.03694072
234	0x3c820f51	0.015876444
235	0xbd79af9a	-0.060958482
236	0xbd09eba1	-0.03367198
237	0x3d2f3801	0.04277802
238	0xbbe5f4f0	-0.007017724
239	0xbb916e88	-0.004438225
240	0x3d32613f	0.043549772
241	0xbabdd94c	-0.0014484315
242	0xbd42b1a6	-0.0475327
243	0x3ceb3abc	0.02871453
244	0xbc96e2aa	-0.018418629
245	0xbdcbd6a9	-0.099530526
246	0xbc017be9	-0.007903078
247	0x3cb2d00b	0.021827718
248	0xbda90e6a	-0.082547024
249	0x3d560cb2	0.0522582
250	0x3d3b0dd8	0.0456675
251	0xb9cdb2eb	-0.0003923395
252	0x3d9d6ac1	0.07686377
253	0xbd22f5b1	-0.03978509
254	0xbc8c7eb1	-0.017150255
255	0xbd4f0abf	-0.050547358

actor_mean.2.weight f4 [4, 256]
0	0x3d4e4c34	0.05036564
1	0xbd03c89b	-0.032173734
2	0x3c73a8a0	0.014871746
3	0xbd8bbff9	-0.06823725
4	0x3d4384a1	0.047733907
5	0x3da280d1	0.07934726
6	0x3dba47e6	0.09095745
7	0x3db965db	0.090526305
8	0xbcbf130f	-0.023324518
9	0xbe963377	-0.2933614
10	0xbe13b13c	-0.14423078
11	0xbd6ce7de	-0.057838313
12	0x3e687d96	0.22704157
13	0x3cf613a3	0.03003866
14	0x3d33d540	0.043904543
15	0x3e3eeeaf	0.18645738
16	0xbd7a4258	-0.061098427
17	0xbd3cdac9	-0.046107087
18	0x3c85e7fa	0.016345967
19	0xbaf60426	-0.0018769547
20	0x3e28436f	0.16431974
21	0xbe1a56d0	-0.15072179
22	0xbdf6eef9	-0.12057299
23	0x3e834a5b	0.25642666
24	0x3d17668e	0.03696304
25	0x3bcdd82b	0.0062818727
26	0xbdbd06db	-0.09229823
27	0xbef05953	-0.4694315
28	0xbe231785	-0.1592694
29	0x3c9fba3a	0.01949798
30	0x3db92077	0.09039395
31	0xbe5e8cd7	-0.21733414
32	0x3ddc793c	0.10765311
33	0x3da774c3	0.081765674
34	0xbbbf3c3a	-0.005836037
35	0xbcc26377	-0.02372907
36	0xbd409d30	-0.047024906
37	0x3e8abbec	0.27096498
38	0x3d7f333e	0.062304728
39	0xbd85020b	-0.0649453
40	0x3e662f37	0.22478949
41	0x3d272cb0	0.0408141
42	0x3e60adfb	0.21941368
43	0xbd25e60c	-0.040502593
44	0xbd3b29f0	-0.04569429
45	0xbe7dcc24	-0.24784905
46	0xbe48d4fc	-0.19612497
47	0x3e067129	0.13129105
48	0xbc6e71f9	-0.01455354
49	0x3dd5f548	0.10447174
50	0x3d1b6ae3	0.037943732
51	0x3ce89d26	0.028395247
52	0x3c3b8e9f	0.011447578
53	0xbd3b62a2	-0.04574836
54	0xbceed857	-0.029155893
55	0x3cea7f73	0.028625226
56	0xbd30cc33	-0.04316349
57	0xbeb22bf3	-0.34799156
58	0x3d8f6860	0.0700233
59	0xbdb228d9	-0.08699197
60	0xbc878304	-0.016541965
61	0xbe128cb3	-0.14311485
62	0xbe1237f8	-0.14279163
63	0x3baf5885	0.0053511285
64	0x3bf02f82	0.007329882
65	0xbdd6a52f	-0.10480725
66	0xbb892d3d	-0.004186301
67	0xbcca8738	-0.02472268
68	0x3d5a1eb6	0.053251944
69	0x3def8fb4	0.11697331
70	0xbe038ff7	-0.12847887
71	0xbc5b0601	-0.013368131
72	0xbbebf2ec	-0.0072005894
73	0x3e4e9f07	0.20177852
74	0xbe3a9886	-0.18222246
75	0x3e4994d0	0.19685674
76	0x3e057e00	0.13036346
77	0x3d931964	0.07182577
78	0xbcfe8fd2	-0.031074438
79	0xbda13721	-0.07871843
80	0x3befcbf8	0.007318016
81	0xbdf60f7f	-0.120146744
82	0x3d8f8f34	0.07009736
83	0x3e15e0f2	0.14636591
84	0xbe0a1cc2	-0.13487533
85	0x3e8b4db1	0.2720771
86	0x3d3d35d0	0.046193898
87	0x3d88838b	0.06665715
88	0x3ccd3f0e	0.02505448
89	0xbe4c92a1	-0.1997781
90	0x3d3d2a54	0.046182945
91	0xbdb6c3f8	-0.08924097
92	0x3e22a7c4	0.1588431
93	0xbd80ab30	-0.062826514
94	0xbdb9ed80	-0.09078503
95	0x3e1d8adf	0.15385006
96	0x3ee7ad84	0.4524957
97	0x3daf955a	0.085734084
98	0xbdaaad50	-0.08333838
99	0x3dff250e	0.124582395
100	0x3cc6d817	0.024272962
101	0x3d92bd2f	0.0716499
102	0xbd3a13d4	-0.045429066
103	0x3db5a485	0.0886927
104	0xbcdae9e5	-0.026722858
105	0xbe2bce16	-0.16777834
106	0xbb48e106	-0.0030651703
107	0x3d137332	0.03599853
108	0xbc29f54f	-0.0103734275
109	0x3ce96dc0	0.028494716
110	0x3e5d1fd2	0.2159417
111	0x3c9c12d4	0.019051947
112	0xbe813788	-0.2523768
113	0xbdce8ae1	-0.10085083
114	0xbdab3cc1	-0.08361197
115	0x3bf27af2	0.00739991
116	0xbd6c4e29	-0.057691727
117	0x3c9be15f	0.019028364
118	0xbe240b69	-0.16019978
119	0x3de67e15	0.11254517
120	0xbc495add	-0.01228973
121	0xbd1fa1e2	-0.038972743
122	0xbdfdc87d	-0.12391756
123	0xbd739d23	-0.05947603
124	0xbc74b32f	-0.014935299
125	0x3df9769a	0.121808246
126	0x3ce56348	0.028001443
127	0xbd77c9b6	-0.0604951
128	0x3d395845	0.045250196
129	0xbdde792b	-0.10862955
130	0x3e220e7f	0.15825842
131	0xbec6dc8e	-0.38840145
132	0x3d84cc93	0.06484332
133	0xbc0ef4f0	-0.00872539
134	0xbe28383a	-0.16427699
135	0x3d681572	0.056661077
136	0x3e003cff	0.12523268
137	0xbd8216ae	-0.06351982
138	0xbe3ae5cd	-0.18251725
139	0x3db5cd83	0.08877089
140	0xbc264484	-0.010148171
141	0x3db47270	0.0881089
142	0x3e326521	0.1742139
143	0x3d30e38c	0.043185756
144	0x3dcb56a7	0.09928637
145	0x3c5d8bd5	0.013522108
146	0xbc4fa720	-0.012674123
147	0xbe8872dd	-0.26650134
148	0x3c9456f1	0.018107863
149	0xbe78ab35	-0.2428406
150	0x3e0d09ed	0.13773318
151	0xbd29a531	-0.041417304
152	0xbb8cdf85	-0.0042991065
153	0xbdd7b66d	-0.10532842
154	0xbd2b9eb1	-0.041899387
155	0xbe9011a0	-0.28138447
156	0x3cc17642	0.02361596
157	0x3e105087	0.14093219
158	0x3d87b448	0.06626183
159	0x3e285a5a	0.16440716
160	0xbe6ee254	-0.23328525
161	0xbe4b0467	-0.19825898
162	0xbec51414	-0.3849188
163	0x3c6af791	0.014341251
164	0xbc40a39a	-0.011757756
165	0x3d25de83	0.040495407
166	0x3b45165f	0.0030073149
167	0xbe8d76e8	-0.2762978
168	0x3d393e5f	0.045225497
169	0xbd8021f3	-0.06256475
170	0xbdecd8d2	-0.11564793
171	0xbd0e69df	-0.034768935
172	0x3b39580e	0.0028281244
173	0xbe77653e	-0.24159715
174	0x3d77a588	0.060460597
175	0xbd910552	-0.07081093
176	0x3d82f6ba	0.063947156
177	0x3dc5fc05	0.096672095
178	0x3d1636c9	0.03667334
179	0xbc975008	-0.018470779
180	0x3da56642	0.08076145
181	0x3b3820cb	0.0028095718
182	0x3e548317	0.20753132
183	0x3d54cb9c	0.05195199
184	0x3db6f48b	0.089333616
185	0xbe9b8903	-0.3037797
186	0xbe05b0e9	-0.13055767
187	0xbe23a3b6	-0.1598042
188	0x3d4f2804	0.05057527
189	0xbe811d37	-0.25217602
190	0x3d79dbd7	0.06100067
191	0xbd3291b9	-0.043596003
192	0xbacfe556	-0.0015861194
193	0x3a1b937e	0.0005934759
194	0xbb8b2c57	-0.004247229
195	0xbdce08fb	-0.10060307
196	0x3e1bb7b9	0.15206803
197	0xbed3646f	-0.41287562
198	0xbc88a6aa	-0.016681034
199	0x3e56715a	0.20941678
200	0x3dea061e	0.11426948
201	0xbc4e39cd	-0.012587023
202	0xbe2bd756	-0.16781363
203	0xbd566e1c	-0.052351102
204	0xbe2aee31	-0.16692425
205	0xbd4a03ef	-0.049320158
206	0xbef845b7	-0.48490688
207	0x3d572769	0.05252782
208	0x3dfbeb97	0.123007946
209	0xbd34e1a5	-0.044160504
210	0xbe04812d	-0.12939902
211	0x3c9de400	0.019273758
212	0x3c625362	0.013813825
213	0x3d978dcc	0.074000925
214	0xbe4f9a49	-0.20273699
215	0xbc1a2ecf	-0.009410574
216	0xbd06850f	-0.03284174
217	0x3d3be5c5	0.045873422
218	0x3d018c34	0.03162785
219	0x3e4bf4f7	0.19917665
220	0xbc2d94ff	-0.0105946055
221	0x3c88ecbd	0.016714448
222	0x3b8971f0	0.0041944906
223	0xbd5f2e21	-0.05448735
224	0x3cd69d15	0.02619795
225	0xbcd9e8ee	-0.026600327
226	0xbd27b9ef	-0.040948804
227	0xbd222b28	-0.03959194
228	0x3d8806d3	0.066419266
229	0xbd82f120	-0.06393647
230	0xbdb8b6b0	-0.0901922
231	0xbda06353	-0.078314446
232	0x3dceda70	0.101002574
233	0xbe25235f	-0.16126774
234	0xbcaba981	-0.02095485
235	0xbd1bfc8d	-0.038082648
236	0x3e5e26eb	0.21694534
237	0x3dd0de9f	0.101987116
238	0x3d865560	0.06559253
239	0x3d14cf1c	0.036330327
240	0xbe02eee6	-0.12786445
241	0xbe3637e7	-0.17794763
242	0x3d3a05c7	0.045415666
243	0xbabed4ec	-0.0014559305
244	0x3c85b42d	0.016321266
245	0xbed480c1	-0.4150448
246	0xbe7705e5	-0.24123342
247	0xbe47ea51	-0.19522978
248	0x3cb23075	0.021751622
249	0x3d3e3c46	0.0464442
250	0xbc8a2958	-0.016865417
251	0x3dfddd41	0.123957165
252	0x3c7f3ba0	0.015578181
253	0x3e040506	0.12892541
254	0x3d2ef6ae	0.04271572
255	0x3cf8a0f0	0.030350178

actor_mean.2.bias f4 [4]
0	0x3c903322	0.017602507
1	0x3d7d9281	0.061907295
2	0x3d05cbab	0.032664936
3	0x3c3b2b5a	0.01142391

critic.0.weight f4 [256, 256]
0	0x3e4f629b	0.20252459
1	0x3e6666e9	0.22500195
2	0xbd0bb231	-0.034105483
3	0x3eb67c71	0.35641816
4	0xbd9e80c4	-0.07739404
5	0xbbce9c4b	-0.0063052527
6	0xbbba3734	-0.0056828503
7	0x3d5b2637	0.05350324
8	0xbe0aa7ae	-0.13540527
9	0xbde31e06	-0.11089711
10	0x3dbe736e	0.0929936
11	0x3d9a03f9	0.07520289
12	0x3d9a660f	0.075389974
13	0x3e30f62c	0.17281407
14	0xbcd7195c	-0.02625721
15	0x3e293e14	0.16527587
16	0x3d9b2170	0.07574737
17	0x3e4eca20	0.20194292
18	0x3deb4925	0.114885606
19	0x3dc4b49c	0.09604761
20	0xbca84ae6	-0.020543527
21	0x3d3b60e5	0.045746703
22	0x3e5c888a	0.2153646
23	0xbde77f0d	-0.1130353
24	0xbd59c4d2	-0.053166218
25	0x3e714377	0.23560892
26	0xbafa5169	-0.0019097748
27	0xbbff1eb4	-0.0077856425
28	0xbeb9a721	-0.36260322
29	0xbd686cbf	-0.056744333
30	0x3d3bbb95	0.04583319
31	0x3e1c1122	0.1524091
32	0x3d3aa462	0.045566924
33	0xbe10bb82	-0.14134029
34	0x3cc2a7be	0.023761626
35	0x3e15715f	0.14594029
36	0xbd285227	-0.04109397
37	0x3ccbf9b3	0.02489934
38	0xbd17a291	-0.03702027
39	0x3d9f272a	0.07771142
40	0x3d2a8188	0.041627437
41	0x3dfa52c5	0.12222818
42	0x3cdef1a0	0.027214825
43	0xbdb59038	-0.08865398
44	0x3d9f9588	0.07792193
45	0x3e9ad4e2	0.30240542
46	0xbde714d7	-0.11283272
47	0x3d29d171	0.041459505
48	0xbe042300	-0.12903976
49	0x3e58c22c	0.2116782
50	0xbd8a6f5d	-0.06759522
51	0xbd265924	-0.040612355
52	0xbdd2a69c	-0.102856845
53	0xbd45bc1c	-0.0482751
54	0xbe0ef13a	-0.13959208
55	0xbd20ceea	-0.03925983
56	0x3df5c941	0.12001277
57	0x3e9fb821	0.31195167
58	0xbd0a5ee1	-0.03378189
59	0xbb23c673	-0.002499011
60	0x3e342987	0.17593966
61	0x3cb95ce0	0.022627294
62	0xbd9b1c2f	-0.07573735
63	0x3e97a85e	0.2962064
64	0xbdc9ab8d	-0.09847174
65	0xbd225db9	-0.039640162
66	0xbc76b069	-0.015056708
67	0x3dad1341	0.08450938
68	0x3e28e4da	0.1649355
69	0x3e6004e5	0.21876867
70	0xbe1fe744	-0.15615565
71	0x3e0afba4	0.13572556
72	0xbe705b99	-0.23472442
73	0x3d1ddc1b	0.038539987
74	0x3c895fe2	0.016769353
75	0x3de56f19	0.11202831
76	0x3b56ece6	0.003279501
77	0xbd07519e	-0.03303682
78	0xbdd368dc	-0.10322735
79	0xbd1b4a35	-0.037912566
80	0x3e3c372c	0.18380421
81	0x3e0ac2e1	0.13550903
82	0x3d0a7b0c	0.033808753
83	0x3ccbb1ab	0.024864992
84	0x3e09b505	0.1344796
85	0x3d03b585	0.032155532
86	0xbe383066	-0.17987213
87	0xbc7013b2	-0.014653133
88	0xbe5ea768	-0.21743548
89	0xbd066068	-0.032806784
90	0x3e17bdc5	0.14818485
91	0x3db4f8a4	0.08836487
92	0xbdd3574d	-0.10319386
93	0xbd242506	-0.04007437
94	0x3d2efdef	0.04272264
95	0x3dd6997e	0.10478495
96	0xbe1b902c	-0.15191716
97	0x3d79e723	0.061011445
98	0xbb98f8bc	-0.0046683233
99	0x3e4eaeec	0.20183915
100	0x3e505275	0.20343955
101	0x3d9a899f	0.075457804
102	0xbbd5ffbf	-0.0065307315
103	0x3e365668	0.17806399
104	0x3e248bb7	0.16068922
105	0x3e1976a8	0.1498667
106	0x3ee59ee6	0.44847792
107	0x3d96d32b	0.07364496
108	0xbd8d9416	-0.06913011
109	0x3d98311f	0.07431244
110	0xbe199389	-0.14997686
111	0xbe33bcd9	-0.17552508
112	0xbce07e26	-0.027403902
113	0x3d587895	0.05284937
114	0xbe383b1d	-0.179913
115	0x3ceec945	0.029148707
116	0x3ec37fd1	0.38183454
117	0x3e013216	0.12616763
118	0x3cf2cd90	0.029639035
119	0x3bf1a3f2	0.00737428
120	0x3dc6eeba	0.09713502
121	0x3dec0503	0.115243934
122	0xbd40e0be	-0.04708933
123	0xbd5f41b8	-0.054506034
124	0xbd73c181	-0.05951071
125	0x3e0748b6	0.13211331
126	0xbca330ee	-0.019920792
127	0xbd006219	-0.031343553
128	0xbd074ed7	-0.033034172
129	0xbe1a7d44	-0.15086848
130	0x3da4d160	0.080477476
131	0x3d99bd92	0.07506861
132	0x3e5a3617	0.21309696
133	0xbdc7bab8	-0.09752411
134	0xbd7ac62c	-0.061224148
135	0x3de37245	0.111057796
136	0x3e394636	0.1809319
137	0x3c7ab2d0	0.015301421
138	0x3dbbed92	0.09176172
139	0x3eae7168	0.34070897
140	0x3d2a3780	0.041556835
141	0xbd8e62cb	-0.06952437
142	0x3e1f5442	0.15559486
143	0xbd365ecb	-0.044523995
144	0x3e181a76	0.14853844
145	0x3d9e6648	0.07734352
146	0xbe31824f	-0.17334865
147	0x3d119178	0.03553912
148	0xbcfc33a9	-0.030786352
149	0x3d2503c2	0.040286787
150	0xbe019f5d	-0.12658449
151	0xbda8cfe6	-0.082427785
152	0x3dd54dbd	0.10415218
153	0xbed92bc8	-0.42416215
154	0x3e076d66	0.13225326
155	0xbcdffce2	-0.027342264
156	0x3e512682	0.20424846
157	0xbd9c5919	-0.076341815
158	0x3e8d74d7	0.27628204
159	0xbce99a01	-0.028515818
160	0xbd6ad043	-0.05732752
161	0xbe2bf985	-0.16794403
162	0x3ce72c77	0.028219445
163	0xbd5d4316	-0.054019056
164	0x3c0ac5be	0.008469997
165	0xbd2d118e	-0.04225307
166	0xbd960c8e	-0.07326613
167	0xbdcdfe50	-0.10058272
168	0x3cdcc1ad	0.02694782
169	0x3eadc8d6	0.33942288
170	0x3d8d5597	0.069010906
171	0x3cb800a8	0.02246125
172	0x3de68f8d	0.11257849
173	0x3e53019b	0.20606081
174	0x3c4ef3f4	0.012631405
175	0xbe4698aa	-0.19394174
176	0x3e5edcb7	0.21763884
177	0x3e21b744	0.15792567
178	0xbe1a29a2	-0.15054944
179	0xbdec2b39	-0.115316816
180	0x3d886cd1	0.0666138
181	0xbe0d0564	-0.13771588
182	0x3d9ec284	0.07751945
183	0xbda2df5a	-0.07952757
184	0xbd78dfe3	-0.06076039
185	0x3e0a275e	0.1349158
186	0x3db3ae36	0.087734625
187	0x3e9b3538	0.3031404
188	0x3d08ecff	0.033429142
189	0xbe23d030	-0.15997386
190	0xbbc42951	-0.0059863706
191	0xbd2ff9b0	-0.04296273
192	0x3d939df2	0.0720786
193	0x3e077fc3	0.13232331
194	0xbe14cb25	-0.14530618
195	0x3d4e16a2	0.050314553
196	0xbca7615a	-0.020432163
197	0xbdb74522	-0.08948733
198	0x3e8eea71	0.2791324
199	0x3dc94d53	0.098292015
200	0xba46b13b	-0.000757951
201	0xbe4de3e4	-0.20106465
202	0xbda96c76	-0.082726404
203	0x3eacd3bf	0.337553
204	0xbcda1c33	-0.026624775
205	0x3de02839	0.10945172
206	0xbbbe453b	-0.0058065928
207	0x3d61f68b	0.055166762
208	0x3e8785c4	0.26469243
209	0xbdccafb4	-0.0999445
210	0xbd4255e5	-0.047445197
211	0xbdd2557c	-0.10270211
212	0x3db03b07	0.086050086
213	0xbde27e6d	-0.1105927
214	0xbd5e00e4	-0.054200068
215	0xbe040d86	-0.12895784
216	0xbe1e633d	-0.15467544
217	0x3c87fab7	0.016599042
218	0x3c935143	0.017983085
219	0x3c8be3e4	0.01707644
220	0xbdb5680e	-0.088577375
221	0xbd33b1fb	-0.043870907
222	0xbe11b9de	-0.14231059
223	0xbe18b05d	-0.14911027
224	0xbe816c44	-0.25277913
225	0xbe4c1ffc	-0.19934076
226	0x3dc63077	0.09677213
227	0xbdf2378b	-0.11827
228	0xbda14b5b	-0.07875701
229	0xbb43cc66	-0.002987647
230	0xbbde00b5	-0.0067749866
231	0x3c078947	0.008272476
232	0x3bf8425d	0.0075762705
233	0x3d89fe2f	0.06737935
234	0x3c25c880	0.010118604
235	0xbe8e15fb	-0.27751145
236	0x3ddf5018	0.109039485
237	0xbe386059	-0.18005504
238	0x3e477495	0.19478066
239	0xba6e7bd5	-0.0009097432
240	0xbb07f3d2	-0.0020744693
241	0x3eac98e6	0.33710402
242	0x3bfe94e6	0.007769215
243	0x3da53cf2	0.08068265
244	0xbc231e22	-0.009955915
245	0x3d5967b9	0.053077433
246	0xbd9be72b	-0.07612451
247	0x3d32c7af	0.043647464
248	0xbd807a26	-0.06273298
249	0x3df95cd0	0.12175906
250	0xbc680901	-0.014162303
251	0x3d2767af	0.040870365
252	0xbe3ddf12	-0.18542126
253	0x3dae67b7	0.08515876
254	0x3cfd770a	0.030940551
255	0x3e23f274	0.16010457

critic.0.bias f4 [256]
0	0x3d6f254b	0.058385175
1	0x3d7e4ce8	0.062085062
2	0x3e4d2f95	0.20037682
3	0x3e01575a	0.12630978
4	0x3c087de7	0.008330799
5	0xbc07fed3	-0.008300501
6	0x3cc2f368	0.023797706
7	0x3d88412a	0.06653054
8	0x3da2d630	0.07951009
9	0x3e180a17	0.14847599
10	0x3d8b656b	0.06806453
11	0xbab4aed6	-0.0013785015
12	0x3ddf3055	0.108978905
13	0x3e043aee	0.12913105
14	0x3c7f1d8a	0.0155710075
15	0x3df1d510	0.118082166
16	0xbd94500e	-0.07241832
17	0x3c402639	0.011727863
18	0x3de49ff2	0.1116332
19	0xbcf80c11	-0.030279191
20	0x3e2b4635	0.16726
21	0xbc1016d0	-0.008794501
22	0xbb24a969	-0.002512539
23	0x3dc82693	0.097729824
24	0x3ddd02f2	0.107915774
25	0x3e196962	0.14981607
26	0x3c1b4a1d	0.009478119
27	0x3bfa5127	0.0076390686
28	0x3dd84be8	0.10561353
29	0xbd3eaebe	-0.046553366
30	0x3dfdf418	0.12400073
31	0x3de9e71d	0.114210345
32	0x3ceda741	0.029010417
33	0x3d3ad8b7	0.04561683
34	0x3d7a5c47	0.06112316
35	0x3db130a7	0.08651858
36	0x3de581b3	0.11206379
37	0x3d35a400	0.044345856
38	0x3df93c16	0.121696636
39	0x3dcb1c3f	0.09917497
40	0x3d4ed8a9	0.050499592
41	0x3c4e5fb6	0.012596061
42	0x3d2242d3	0.03961451
43	0xb9b7efca	-0.00035083137
44	0x3deee349	0.11664445
45	0x3e195d2f	0.14976953
46	0x3db49b8a	0.08818729
47	0xbd223c96	-0.03960856
48	0xbd2938b8	-0.041313857
49	0xbd73450a	-0.059392013
50	0xbd7d9d24	-0.06191744
51	0x3dc876b0	0.09788263
52	0xbd35304e	-0.04423552
53	0x3d1f19c3	0.038842928
54	0xbce08b9a	-0.027410317
55	0x3e1bc664	0.15212399
56	0x3e0546e5	0.13015325
57	0x3d09577b	0.033530694
58	0x3da7cf5b	0.08193847
59	0x3d62264a	0.055212297
60	0xbd448c9b	-0.047985654
61	0x3de51569	0.11185724
62	0x3cc8936e	0.024484362
63	0x3de18d0e	0.11013232
64	0x3e0b68ad	0.1361415
65	0x3e1c65ea	0.15273252
66	0x3cda6fa3	0.02666456
67	0x3d9a82ca	0.07544477
68	0x3c86de66	0.01646347
69	0xbc9d3ad8	-0.019193098
70	0x3d8bbf10	0.06823552
71	0x3e1c066e	0.15236828
72	0xbb93b64f	-0.004507817
73	0x3d483bd2	0.048885174
74	0x3bbab495	0.0056977966
75	0x3e1d4700	0.15359116
76	0x3d3d1231	0.046159927
77	0x3b9c2d1b	0.004766119
78	0xbd8d96b9	-0.06913514
79	0x3e0490b6	0.12945828
80	0x3e144b9a	0.14481965
81	0x3ddd666a	0.108105496
82	0x3d5994da	0.05312047
83	0x3c844f09	0.016150968
84	0xbcd9a955	-0.026570002
85	0x3da6a2cb	0.08136519
86	0x3d05158d	0.032491256
87	0xbd4a44d3	-0.049382042
88	0x3d3e4e4f	0.0464614
89	0xbd74ee00	-0.059797287
90	0x3d7311a3	0.05934299
91	0x3dbc2e2e	0.091884956
92	0x3da8804b	0.08227595
93	0xbd9b2964	-0.07576254
94	0x3dcd45a2	0.10023047
95	0x3e03049a	0.12794724
96	0xbd884b13	-0.06654944
97	0xbb78948e	-0.0037930342
98	0x3db08e10	0.08620846
99	0xbd824f01	-0.06362725
100	0x3e100c42	0.14067176
101	0x3c1be4a9	0.009514966
102	0x3d9e8d78	0.07741827
103	0x3dd91b0a	0.106008604
104	0x3e197ea3	0.14989714
105	0x3d46e5cb	0.04855899
106	0xbc8c2479	-0.017107235
107	0x3ba2009e	0.004943921
108	0x3cddf379	0.027093636
109	0x3d79750d	0.060902644
110	0xbd079fc3	-0.033111345
111	0x3d87a72c	0.066236824
112	0xbd3b29ad	-0.045694042
113	0x3d7f8d55	0.062390644
114	0x3de02981	0.10945416
115	0x3dbcbb47	0.09215408
116	0x3da611b7	0.081088476
117	0x3dc4d62a	0.09611161
118	0x3dbd778a	0.09251316
119	0xbd02a665	-0.031896967
120	0x3d39dc29	0.045375977
121	0x3e367f71	0.17822053
122	0x3d89a33a	0.06720586
123	0xbc998df5	-0.018744448
124	0xbcfd90de	-0.030952867
125	0xbd7414b8	-0.05959007
126	0x3d767100	0.06016636
127	0x3d862f91	0.06552041
128	0xbc0f1228	-0.008732356
129	0x3dc88664	0.09791258
130	0x3dc75da2	0.09734656
131	0x3e660e26	0.22466335
132	0xbd5e8b9d	-0.054332364
133	0x3db8c00b	0.09021004
134	0x3ca36519	0.019945668
135	0x3de4b5af	0.11167466
136	0x3d646de2	0.055768855
137	0x3d4edfb1	0.050506297
138	0x3dbeb0d3	0.0931107
139	0x3d4c1d03	0.049832355
140	0x3d41ae43	0.04728533
141	0x3df5e93f	0.12007379
142	0x3d96ab2e	0.07356869
143	0x3d1c4355	0.03815015
144	0xbd85ab26	-0.065267846
145	0xbd75c4a8	-0.060002
146	0x3d128f43	0.035781156
147	0x3e16d3ab	0.14729182
148	0xbc897065	-0.016777227
149	0x3c0744be	0.0082561355
150	0x3df913ac	0.12161955
151	0x3deb945e	0.11502908
152	0xbcec52fd	-0.028848166
153	0x3dcb595d	0.09929154
154	0xbd5336d8	-0.051565975
155	0x3df0ea31	0.117634185
156	0x3e0a6a5b	0.13517134
157	0xbd036f46	-0.03208854
158	0x3de9369e	0.113873705
159	0x3e0996b4	0.13436395
160	0x3dde8638	0.10865444
161	0x3def48db	0.11683818
162	0x3bddef5a	0.0067729177
163	0x3df9cb97	0.12197035
164	0x3c9d9c55	0.019239584
165	0x3ddeee26	0.10885267
166	0x3e132551	0.14369704
167	0x3bb82696	0.005619834
168	0x3da78318	0.08179301
169	0x3e250859	0.16116466
170	0x3d340801	0.043952946
171	0x3beae8f1	0.007168882
172	0x3e0580f9	0.1303748
173	0xbccf36f1	-0.025294753
174	0xbcdb09dd	-0.026738102
175	0xbd2c0ea7	-0.04200616
176	0x3d063733	0.032767486
177	0x3d6c6428	0.057712704
178	0x3cab9c1f	0.020948468
179	0x3df81d37	0.12114947
180	0x3e391c08	0.180771
181	0x3ca50115	0.020142118
182	0x3d984913	0.07435813
183	0x3e259127	0.16168652
184	0x3e06b6b4	0.13155633
185	0x3d08bb54	0.033381775
186	0x3db01e0b	0.0859948
187	0x3d0381fd	0.03210639
188	0xbca367c3	-0.019946938
189	0x3c6a09fb	0.014284606
190	0x3e0ca2f8	0.13734043
191	0x3cc726d4	0.024310507
192	0x3d15a7bd	0.03653692
193	0x3d8f2a39	0.06990475
194	0xbd7ac06f	-0.061218675
195	0x3e11aa2d	0.14225073
196	0xbb5565fa	-0.0032562003
197	0xbc35ab85	-0.011088257
198	0x3d84336e	0.06455122
199	0xbd9ac6cd	-0.075574495
200	0x3d48dd7b	0.049039345
201	0x3dc5224f	0.096256845
202	0xbd0b594a	-0.0340207
203	0x3cddacc6	0.027059924
204	0x3c70b7df	0.014692276
205	0x3b2f134d	0.0026714385
206	0x3d973595	0.07383267
207	0x3d324ffc	0.04353331
208	0x3c4a1b3c	0.012335595
209	0x3d939207	0.07205587
210	0xbd111764	-0.035422698
211	0x3e1aaf65	0.1510597
212	0x3c7ff1dc	0.015621629
213	0xbb9b6fdc	-0.0047435593
214	0x3dca68e2	0.09883286
215	0xbd4297b4	-0.047507957
216	0x3da075bb	0.07834955
217	0x3d3f7580	0.046742916
218	0xbd64bfba	-0.055846907
219	0xbc4d3dee	-0.012526972
220	0xbc2aa532	-0.010415362
221	0x3d05b0ed	0.032639433
222	0x3e041504	0.12898642
223	0x3d8076b2	0.06272639
224	0x3d6eef73	0.058333825
225	0x3c5f7406	0.013638502
226	0x3e1fe5ab	0.15614955
227	0x3dcfacb6	0.10140364
228	0xbd6e6c2d	-0.058208633
229	0x3d225d54	0.039639786
230	0x3e02a59a	0.12758484
231	0x3d3673e7	0.044544127
232	0xbd96a7e9	-0.07356245
233	0x3b8cfc36	0.004302527
234	0x3ddf7504	0.10910991
235	0x3defcbf8	0.11708826
236	0xbbc12ef6	-0.0058954908
237	0x3bc3f9ef	0.005980722
238	0x3dd136cf	0.10215532
239	0x3e101697	0.14071117
240	0x3dc8fc81	0.09813786
241	0x3d3eddd3	0.046598267
242	0x3e0e797e	0.13913533
243	0x3ce6541e	0.028116282
244	0x3de001db	0.10937854
245	0x3d5b9f60	0.05361879
246	0x3d02918e	0.031877093
247	0x3ccfa1ab	0.025345644
248	0x3d094285	0.033510704
249	0xbd3e1f1a	-0.04641638
250	0xbda510dc	-0.08059856
251	0x3d919fd1	0.07110561
252	0xbd97d372	-0.07413377
253	0xbd78f53f	-0.06078076
254	0x3dcda99e	0.100421175
255	0x3d88a128	0.06671363
