best_model_episode_400.pth (torch, 561686 bytes, 10 tensors)

actor_log_std f4 [4]
000000 ae ba ae bf 35 c7 d8 bf d4 15 9f bf 6a 07 a9 bf
       -1.365072 -1.6935793 -1.2428536 -1.3205388

shared.0.weight f4 [256, 24]
000000 f3 0a 79 3c f1 f6 0d 3f 9c 6f 8e be 4b 03 e2 3e
       0.015200364 0.5545493 -0.27819526 0.44143137
000010 49 57 30 be fe d7 43 3e 87 e7 a3 bd 0c f2 00 bd
       -0.17220797 0.19125363 -0.08003145 -0.031480834
000020 6c c1 a0 3d 6d 70 15 be 35 ea 47 ba a8 93 3d 3e
       0.07849392 -0.14593668 -0.0007626147 0.18513358
000030 17 f4 9a 3e eb 76 f7 3d 75 09 d0 3d 5d 7f 45 bd
       0.3026435 0.12083229 0.10158054 -0.048217166
000040 c3 36 f0 3d 58 18 b0 bc bf b8 1b be 6c 9b bc ba
       0.11729195 -0.021495983 -0.15207194 -0.0014389581
000050 b3 30 0e be e2 b7 b9 bd 8c 9b 16 be 71 92 ff 3d
       -0.13885765 -0.09068276 -0.14707774 0.12479103
000060 c5 5b 0b bf 6f 17 86 3d db 73 00 bf 40 e0 22 be
       -0.54436904 0.06547438 -0.5017678 -0.15905857
000070 4a df 1d 3e ba 1d f0 be fe 19 75 3e 14 a2 84 be
       0.1541721 -0.4689768 0.23935696 -0.25904906
000080 c3 fc d5 3c 5c 2d a2 bd de f0 12 be cb b4 ea 39
       0.026121503 -0.07918808 -0.14349696 0.0004476666
000090 47 54 ad bd 67 bf 93 3d 23 ba aa bc 5d 7f d5 bd
       -0.0846334 0.072142415 -0.02084071 -0.10424683
0000a0 1b 10 a5 3c 99 f1 b4 bd 1d 80 4b 3d bd 2b 11 3e
       0.020149281 -0.088351436 0.049682725 0.14176841
0000b0 40 ea 90 3d b1 eb 2a be 9c b1 3c 3d 54 b0 ba 3c
       0.0707593 -0.16691472 0.04606782 0.022789158
0000c0 cf d5 b5 3e ba 61 81 be 70 e7 8c 3e dd b8 00 be
       0.35514686 -0.25269872 0.27520323 -0.1257052
0000d0 88 7c 84 be df 5b 8a 3d 27 55 70 3c d4 86 92 3d
       -0.2587626 0.06755804 0.014668739 0.07154623
0000e0 e9 5d c0 3d 05 7b b7 3c b7 fc a0 3d c2 c7 44 bd
       0.09392912 0.022397527 0.078607015 -0.048042066
0000f0 eb 63 30 3d 43 fc 03 be 45 87 56 bc a7 df 07 be
       0.04306404 -0.12889199 -0.013093774 -0.1326891
000100 b6 69 1b 3c 1a 69 c2 bd 54 b6 e7 3d 21 5d 3b be
       0.009485653 -0.09492703 0.11314073 -0.18297245
000110 d8 61 3c be 8f 90 f4 bd ab 3d 7e 3e 13 3a 35 3e
       -0.183967 -0.11941635 0.24828212 0.17697935
000120 a9 ff 91 3d c0 97 f1 be 18 f6 3a bd 20 a6 c4 be
       0.071288414 -0.4718609 -0.04564485 -0.38407993
000130 b1 74 19 be 17 95 48 3d 50 24 6e 3e c2 2c 5e 3d
       -0.1498592 0.04897031 0.2325604 0.054241903
000140 54 18 80 be a3 2b c9 be de 34 1d 3e 8e 45 b5 3c
       -0.2501856 -0.39291105 0.15352198 0.022127893
000150 4f e3 d4 3d 4d 8e 6c bc 68 8c 01 3e f7 5b 15 be
       0.10394918 -0.014438224 0.12651217 -0.14585863
000160 fc d6 ab bd 90 0f b6 3d 58 6d 9d 3d d0 c0 13 bc
       -0.083906144 0.08889687 0.07686871 -0.009018138
000170 d6 39 2e 3e 0f d6 4b 3e 34 ce 31 be 35 11 35 be
       0.1701425 0.19905876 -0.17363816 -0.17682345
000180 69 b6 d3 3e bc 90 9f bd 7b 30 7e bd 35 87 9b be
       0.41350105 -0.07791278 -0.062057953 -0.30376592
000190 9c 2e 40 be a4 f3 12 3c 86 b8 46 be fb 26 1d be
       -0.1876778 0.008969221 -0.19406328 -0.15346901
0001a0 ef 3d 0b bd 95 57 f1 bd 5f d3 a4 be ef 35 8e be
       -0.03399461 -0.11784283 -0.32192513 -0.27775523
0001b0 fd 85 79 be 2b 3a a7 3d 03 fc 81 3e da ad ad 3d
       -0.24367519 0.081653915 0.25387582 0.08480425
0001c0 63 d6 d7 3d d5 d0 19 be 32 97 be bd c0 9f b0 bc
       0.10538938 -0.1502107 -0.09306182 -0.02156055
0001d0 36 76 aa 3d ef 4e 07 be e1 fd 25 bd 67 60 52 bd
       0.08323328 -0.13213705 -0.04052532 -0.051361468
0001e0 4a 15 f2 3c 97 23 29 3e e4 c7 16 3e fb 8b a2 bd
       0.029551167 0.16517483 0.1472469 -0.079368554
0001f0 67 ae 42 be 20 03 53 be 19 25 c7 3c fc 0e 71 bd
       -0.19011842 -0.20606661 0.024309682 -0.05885218
000200 33 f7 e3 3d 10 1d a2 bd af 96 d6 3d ff c1 a1 3c
       0.11131134 -0.079156995 0.10477959 0.019745825
000210 fa fa 87 be 8b 13 48 3e 74 e4 62 bd 0d e8 97 bd
       -0.26558667 0.19538705 -0.05539365 -0.07417307
000220 be 78 2a be e5 47 50 be 16 19 65 3d e9 9f 52 bd
       -0.16647622 -0.20339926 0.055932127 -0.051422033
000230 7c 21 7e 3d 64 d5 2a be 2d 85 42 3e 1f 0c 64 bd
       0.062043652 -0.16682965 0.18996115 -0.055675622
000240 3e c7 99 bd cb df 0c bf e3 a8 39 3d 23 5f a3 3e
       -0.075087056 -0.5502898 0.04532708 0.3190852
000250 48 ca ab 3e 3e 58 97 bd e6 fa 08 be d9 79 04 be
       0.33552766 -0.07389878 -0.1337696 -0.12937106
000260 d9 b7 2c 3d b3 94 94 be b1 50 db 3d c4 68 b4 be
       0.04216752 -0.29019699 0.1070875 -0.3523618
000270 f0 50 81 3d 88 03 b7 3d 45 62 12 3d 47 dc 18 be
       0.06314266 0.089362204 0.03573825 -0.14927779
000280 4d 1e 0f 3e 7e b8 a9 bb c2 85 f5 bc 7c 5d 80 be
       0.13976403 -0.005179464 -0.029971007 -0.25071323
000290 21 67 d8 3a e5 29 07 be 8d c4 00 be e8 15 5b 3e
       0.0016510227 -0.13199575 -0.12574978 0.21395075
0002a0 38 9b 12 3e 20 d1 2e 3c 7e a1 4a be 1a 6f 28 be
       0.14317024 0.0106699765 -0.19788167 -0.16448632
0002b0 45 57 34 3e ae 72 8a bd c2 89 bb bd 54 fa 57 bd
       0.17611416 -0.06760155 -0.091571346 -0.052728966
0002c0 c0 6c 23 be c8 b1 63 3c 30 70 ad 3d 52 9f 05 be
       -0.15959454 0.013897367 0.08468664 -0.13049057
0002d0 a1 49 82 3d 2a b0 b9 3d d6 7e 59 bd d6 b6 26 be
       0.063617 0.09066804 -0.053099476 -0.16280684
0002e0 49 92 86 3c d0 89 8c 3c b6 f8 61 bc c3 17 01 be
       0.016427176 0.017155558 -0.013792207 -0.1260672
0002f0 da d4 13 be 4f 85 8d bd 8f 2c eb bd 03 7e 76 bd
       -0.14436665 -0.06910192 -0.11483108 -0.060178768
000300 7b 3d 84 3e 61 51 a8 3f ee 8f fe be f4 e9 2d 3f
       0.25828156 1.3149835 -0.49719185 0.6793511
000310 3a 92 01 3d b9 63 5e 3c 06 47 ec bd 7c 1a b6 3c
       0.031633593 0.01357358 -0.11536984 0.022229426
000320 00 52 c5 3c 7f 99 4c bd 87 e3 16 3d f1 e8 0e be
       0.024086952 -0.049951073 0.03683808 -0.13956048
000330 d1 5b c3 b9 f2 c7 59 be 16 e9 8c bd 48 bd 1b be
       -0.00037261707 -0.2126768 -0.06880395 -0.15208924
000340 9d 9f 6a bd 06 0c 8c 3d 2c f5 07 3e 0f c9 e8 3d
       -0.057281125 0.06838231 0.1327712 0.11366474
000350 36 e2 05 be cd c0 cf bd 54 ec 41 3c e1 78 86 3e
       -0.13074574 -0.10144196 0.01183613 0.26264098
000360 d4 f8 d6 3d 85 08 a1 be ba ed 2e be 6e e3 aa be
       0.10496679 -0.31451812 -0.17082873 -0.3337664
000370 89 00 85 3d eb ad 39 3e f1 3f c1 bc 87 fa 13 3d
       0.06494243 0.1813275 -0.02359006 0.036127593
000380 3e 82 9e be ae ad 42 bc 06 66 8c 3d 8d 87 c7 3c
       -0.30958742 -0.011882229 0.06855397 0.024356628
000390 92 b2 01 be 43 b6 02 be e6 18 01 be 23 7b 42 3e
       -0.12665775 -0.1276484 -0.12607154 0.18992285
0003a0 05 b3 0a 3e 44 54 58 3e f7 fc 18 3e 56 16 c4 3d
       0.13544853 0.21125895 0.14940248 0.09574573
0003b0 5b bf 17 3d 17 4f 16 be 22 4f 63 be 27 72 29 be
       0.037047725 -0.14678608 -0.22198156 -0.16547452
0003c0 94 ad b5 3e 62 a0 98 3e 97 2e a7 be ed a2 c9 be
       0.35483992 0.29809862 -0.32652733 -0.39382115
0003d0 7f 50 00 3e b7 6f ca bd cc cb 8d bd c4 2c 78 3d
       0.12530707 -0.09884589 -0.06923637 0.060589567
0003e0 fb f5 94 bd 5d 3a 3d 3d 50 64 d2 3c ea c0 2d be
       -0.072734796 0.046198238 0.025682598 -0.16968122
0003f0 fe 3e 76 3b 74 dd 4a bd 21 94 81 bd bf e5 4c be
       0.0037574167 -0.0495276 -0.063270815 -0.20009516

shared.0.bias f4 [256]
000000 9f 6a 23 be 91 db 42 3d f4 dc 11 3d c8 e1 e2 3d
       -0.15958641 0.047572676 0.035611108 0.110782206
000010 90 ec 04 be cf ef b7 3d 2d f1 0b 3e 7a 56 15 3d
       -0.12980866 0.08981287 0.1366622 0.036459424
000020 48 c3 d1 3c 91 74 84 3e 4f f1 1c be 9e 14 c1 3e
       0.025605813 0.25870183 -0.15326427 0.37711042
000030 ec 42 1b 3e 3a 18 20 3e a3 f9 82 3e 45 e5 19 3e
       0.15162247 0.15634242 0.25581083 0.15028866
000040 a1 b9 38 3e ae 94 54 3d 5c 36 82 be 3b fe 33 3e
       0.18039562 0.051899604 -0.25432098 0.1757745
000050 65 72 57 3e 83 3d 91 3d 95 04 cb 3b 04 7b 3f bd
       0.21039732 0.070918106 0.0061956146 -0.046748176
000060 0b b4 29 3e 7d f8 0e 3e 04 d4 a7 bc db 2b 90 3e
       0.16572587 0.13961978 -0.02048684 0.2815846
000070 7c 9a d1 3d 9d d4 a4 3d 7e a5 6f 3e e1 db 8f 3d
       0.10234544 0.08048365 0.23402974 0.070243604
000080 cf 94 f4 bc 57 8c 0c 3e d1 c6 2d 3e ff 8a 0b 3e
       -0.029856114 0.1372541 0.16970374 0.13627242
000090 d0 e3 22 bd d8 a9 3f 3e 8e 1b e8 bd ef 17 12 3e
       -0.03976804 0.18717134 -0.11333381 0.14266942
0000a0 18 f5 24 be a8 a9 3a 3e e3 43 85 3e a7 bf 91 bd
       -0.16109121 0.18228781 0.26028356 -0.07116633
0000b0 6a 4a 83 bd a8 78 d0 bb 38 1b 14 3d 39 f8 a1 3e
       -0.06410678 -0.0063620396 0.03615877 0.3163469
0000c0 d2 44 3e bd 58 84 cc bd f4 95 d5 bd e4 0b a5 3c
       -0.04645235 -0.0998618 -0.10428992 0.020147271
0000d0 2a 9e 50 bd 2f 28 96 bd 29 ac 91 3e 9f eb 6b 3e
       -0.050932087 -0.07331883 0.2845166 0.23039101
0000e0 c8 10 a5 3d 1f 59 57 3e b9 56 e7 bc f9 d1 b0 3d
       0.080598414 0.21030091 -0.028239595 0.08633799
0000f0 50 da 3f be de 1e 61 3e ad e5 a0 bc ba 62 d1 3c
       -0.18735623 0.21984431 -0.019640768 0.025559772
000100 17 54 81 bd e1 ae d0 bc 2d 23 33 be 1f 9f 03 be
       -0.06314867 -0.025474014 -0.17493887 -0.12853669
000110 70 12 33 be 11 ea 54 be 0d 3e b6 3c 7d 54 ec bd
       -0.17487502 -0.20792414 0.022246385 -0.11539552
000120 f0 91 2c 3e 9e 7b 1c 3e d4 ab 06 be 19 92 48 be
       0.16852546 0.15281531 -0.13151485 -0.19586982
000130 eb 94 0c be 20 c7 cb 3d 3f 2a aa 3e e5 e8 94 3d
       -0.13728683 0.099500895 0.33235356 0.072709836
000140 f4 a1 29 3e 8c ae d7 3d 05 cb 09 be d2 1e 24 3a
       0.16565686 0.10531339 -0.13456352 0.0006260696
000150 9a bc 65 be a0 3c cb 3d 49 e6 7f 3d d9 e1 79 3e
       -0.22435227 0.09923673 0.062475476 0.2440256
000160 37 f1 29 bd fc f2 9a bd ee 67 06 3e ba 50 e4 3d
       -0.041489806 -0.07565877 0.13125584 0.1114821
000170 97 a0 0c 3c f8 fd 51 be 7b dc 63 3e 4d d0 14 be
       0.0085832095 -0.20507038 0.22252075 -0.14532585
000180 1d c9 3f bc cb 8d f2 3d 02 fe 3d 3d c8 ec 66 bc
       -0.011705664 0.11843451 0.04638482 -0.014094539
000190 84 8c d9 bd 35 b7 8f 3e 09 b2 d5 3d 2d 4a 5f 3e
       -0.10622504 0.28069463 0.10434348 0.2180564
0001a0 7d 15 ec 3d 10 87 1a be 1f 80 bf bd 8f a1 49 3e
       0.11527536 -0.15090585 -0.09350609 0.19690536
0001b0 18 a2 10 be 70 4e 0d bb 1c 2a a2 3e 35 04 d2 bd
       -0.14124334 -0.0021561645 0.31672752 -0.10254709
0001c0 67 8d 85 3d 5a ae 8d 3c 7b 27 eb 3d ca 2b b5 3d
       0.06521111 0.017295051 0.1148214 0.08846243
0001d0 a1 53 e3 bd 0f 2e 0c be 41 fc 69 3e 0d 9c 99 bd
       -0.11099935 -0.13689445 0.22850133 -0.075004674
0001e0 9c 6c 6b 3e 89 60 05 3e 84 ba 5a bd a3 d5 9c 3c
       0.2299065 0.13025106 -0.05340053 0.019144839
0001f0 2f 74 9e 3a e6 1f 29 3e eb 52 4a 3e 89 ef d4 3d
       0.0012089069 0.16516075 0.19758193 0.1039725
000200 5b 6f 3d bd 72 91 80 3e 5e d7 b5 3e 09 ef a1 3e
       -0.046248775 0.25110966 0.35515875 0.31627682
000210 c9 79 e5 bb a5 46 ac 3d c5 9d 77 3c 2e 0b e6 3c
       -0.0070030433 0.08411912 0.015113299 0.028081503
000220 ed 77 da bd 17 70 70 bb 43 1a 09 3e 95 41 ca 3d
       -0.10667405 -0.0036687905 0.13388924 0.0987579
000230 c2 d0 25 3e 8d 3e 18 3e 0f b5 35 3e 31 bf d5 bd
       0.16192916 0.14867611 0.1774485 -0.104368575
000240 e5 32 86 3e 2f 2a e2 3d 66 b9 87 3d 2e 45 6b bb
       0.26210704 0.11043202 0.06627159 -0.0035899389
000250 a4 7d c3 bd b6 58 7b be 87 70 56 3d a6 59 6d 3e
       -0.095454484 -0.2454556 0.05235341 0.2317873
000260 1e bf 28 3d 7b fb 03 3e 8d 65 c3 bd 10 bb f0 bd
       0.04119789 0.12888901 -0.09540854 -0.11754429
000270 b4 4c 31 bd b9 9a 16 3e f2 b7 02 3e da a2 2c 3c
       -0.04328604 0.1470746 0.12765482 0.010536874
000280 de 14 36 3e 0a e3 b6 3d 3f a7 57 bc 30 da 80 3e
       0.17781398 0.08930023 -0.013162433 0.25166464
000290 30 67 9e bd b8 88 4c 3e 60 e1 07 3d d4 cc 91 3e
       -0.07734525 0.19974029 0.03317392 0.28476584
0002a0 95 2f 24 3e 46 10 33 3e ba 41 47 3d 88 d2 3d bd
       0.16033776 0.17486677 0.048646666 -0.046343356
0002b0 18 9e 13 bd 2d 7c 3b be e2 18 55 3e 1d b2 91 3e
       -0.03603944 -0.18309088 0.20810273 0.28456202
0002c0 2c 04 10 3e c2 3e 23 bd 0d 0e b9 3d c9 e7 ae 3d
       0.14064091 -0.039854772 0.09035883 0.08540303
0002d0 11 b1 22 be fb 30 a4 bd 41 d6 c1 3d 09 3f f9 bd
       -0.15887858 -0.08017155 0.09464694 -0.12170226
0002e0 57 27 86 3d e3 2e b8 b9 08 cb 26 3e 43 79 61 3d
       0.06550472 -0.00035130148 0.16288388 0.055047285
0002f0 4a 6d 8f bc c7 d7 7b 3e 07 a0 c5 3e 1e 24 5b 3e
       -0.017508168 0.24594031 0.38598654 0.21400496
000300 79 97 14 3e 32 32 75 3d 0a 5b 87 3e 83 6e 56 3e
       0.14510907 0.059862323 0.26436645 0.20940594
000310 ea 74 fa 3d 41 35 4b 3e 4e 4b 37 3d ae c1 4e 3e
       0.12229331 0.19844534 0.04474955 0.2019107
000320 ef 2e 12 3e f9 1b 32 3e 20 79 af bd da 26 96 bd
       0.14275716 0.17393483 -0.08568025 -0.07331629
000330 2c 76 24 be a8 37 f0 39 50 b9 61 3d 14 e4 95 3d
       -0.16060704 0.00045817834 0.05510837 0.07318893
000340 6c 18 25 be 6d 28 b9 bd 09 86 97 3e d8 d2 9f 3c
       -0.16122597 -0.09040914 0.29594448 0.019509718
000350 cd 8f 3c 3d cf 50 0e 3e 7f c2 03 bd 14 b5 38 bd
       0.046035577 0.13898014 -0.032167908 -0.045094565
000360 80 d8 40 bc 2a 2a 46 3d 94 86 37 be 36 2d e3 bd
       -0.011770368 0.048380055 -0.17922431 -0.11092608
000370 24 4d d6 3c 0b 74 e8 3c e6 bc 54 3e 4b c3 b6 3d
       0.02615983 0.028375646 0.20775184 0.08923968
000380 5b f2 85 3e ec e7 57 3e 36 ce 40 be a4 f0 c2 bc
       0.26161465 0.21084565 -0.18828663 -0.023796387
000390 f2 15 18 bd 8f 10 fd bd 73 fb af 3d 54 ed 0a 3e
       -0.037130304 -0.12356674 0.08592882 0.13567096
0003a0 92 38 62 be 74 84 5e 3d fd 28 4e be 92 d8 a5 3e
       -0.22091892 0.054325536 -0.20132823 0.32391793
0003b0 27 7b f9 3d c7 f8 0a 3d a9 4b 46 3e aa 64 1a 3d
       0.121816926 0.03392866 0.193648 0.037693657
0003c0 82 40 83 3e 51 48 b0 bb 8b bb 92 3c 95 b2 10 3e
       0.25635153 -0.0053797145 0.017911693 0.14130624
0003d0 ed d4 a5 3d ab 70 1b 3d ba 21 b6 3d bb 21 2c 3d
       0.08097253 0.037949245 0.088931516 0.042024355
0003e0 d5 a1 6f 3e 0a 3d 2a 3d 70 39 a6 bc e5 24 35 3e
       0.23401578 0.041562118 -0.02029106 0.17689855
0003f0 4b d3 0f 3c 67 64 d0 bd 42 a7 f5 3d d2 c4 9c 3e
       0.0087784035 -0.101754 0.119947925 0.30618912

actor_mean.0.weight f4 [256, 256]
000000 10 8e b9 bb 3c 99 7a bd da 50 17 3d 87 44 35 bd
       -0.005662687 -0.061181292 0.03694234 -0.044254806
000010 19 05 96 3c d7 b4 e3 bb e2 b7 2f 3d 7c d4 72 bc
       0.018312978 -0.006949048 0.042899974 -0.014821168
000020 74 d7 6f bd 5b 1c 95 bd 00 7f 7a bc e1 46 4c bd
       -0.05855508 -0.07280799 -0.015289068 -0.049872283
000030 82 71 09 3d 45 8b fe bc 0a 1b 29 bd c3 7f c2 bd
       0.033555515 -0.031072268 -0.041285552 -0.09497025
000040 ae 3f 9d bd b9 2f 36 bd a5 00 d8 bd da 28 a1 bc
       -0.076781616 -0.044479106 -0.10546998 -0.0196728
000050 79 0e 7a bd 11 d9 98 bc 0c aa 25 bd b7 bf 9d bd
       -0.06104896 -0.018658193 -0.040445372 -0.07702582
000060 e2 19 66 3d d8 69 fc 3c 82 a9 09 bb 6a a2 bf bb
       0.056177028 0.030812189 -0.0021005576 -0.0058482187
000070 71 d2 ac 3c b1 75 67 bd 1c 5f c5 bd 6e 0f 2c 3d
       0.02109644 -0.056508724 -0.09637281 0.042006902
000080 93 3d 00 be ed a2 bd 3c 66 ee 94 3b 0c 3d 1a 3d
       -0.12523489 0.023148978 0.004545021 0.037655875
000090 be 50 87 3d d9 b1 ae bd 90 36 a6 3c 8e ff d2 bd
       0.06607197 -0.085300155 0.02028969 -0.103026494
0000a0 c6 ae 1a 3b 0c 00 44 3d c2 c5 28 bd cd 18 ba 3c
       0.0023602708 0.047851607 -0.04120422 0.022716904
0000b0 f0 50 10 bd 77 39 ee bc 5e 72 62 3b 2b a9 9f bd
       -0.035233438 -0.029080136 0.0034553031 -0.07795938
0000c0 7a 5d b3 bc 74 62 c8 ba 73 4c 29 bd e2 8d 85 3d
       -0.021895159 -0.001528813 -0.041332673 0.065212026
0000d0 f3 36 77 3d 54 30 96 bd 25 15 bb 3b 46 09 71 3b
       0.060355138 -0.073334366 0.0057093077 0.003677921
0000e0 8e 79 27 3d f1 97 34 bd be 46 6f 3d 1c 74 8d bd
       0.040887408 -0.044090215 0.058417074 -0.06906912
0000f0 d6 65 8c 3d ef 58 8e bd b2 11 94 bc 22 02 25 3c
       0.06855361 -0.069505565 -0.018074844 0.010071309
000100 71 ca 30 bc 3b 56 36 bd 6d ee e8 3c 09 6d 7f bd
       -0.010790453 -0.04451583 0.028434003 -0.062359843
000110 13 89 42 bd 7b ae 19 3c 98 f6 77 3d a0 e6 11 3d
       -0.047494005 0.009379978 0.060537905 0.03562033
000120 4b 18 65 bd a0 e9 47 3c 67 49 c3 3c 74 a8 9b bc
       -0.05593137 0.012201697 0.023838712 -0.019001223
000130 f8 92 1f 3d b7 53 a6 bc 6e 5c 7c bd ac ef b4 bc
       0.03895852 -0.02030359 -0.061611585 -0.02208694
000140 37 63 1e bd 22 63 f3 3c 4f 19 30 3d 5b aa 1e bd
       -0.038668837 0.029710356 0.042992886 -0.038736682
000150 44 ee 16 bc e3 30 70 3d b7 69 fe bc c8 1a 4c bd
       -0.00921208 0.058640372 -0.031056268 -0.049830228
000160 7c 01 74 3c aa bc 5b 3d 95 ba 67 3c 2e 16 a1 bd
       0.014892932 0.05364672 0.014143606 -0.078655586
000170 56 8f 61 bd 2e 15 23 3d c2 bc 35 bc 6a fa ea 3b
       -0.055068336 0.03981512 -0.011092367 0.007170965
000180 d3 94 4a bc 0e 57 85 bd e1 d1 8c bc c4 5a 50 3d
       -0.012364584 -0.06510745 -0.017189922 0.05086781
000190 28 9f 1c bd 69 6f af 3c 59 c3 8d bc 63 36 98 bd
       -0.03823772 0.02141543 -0.017305063 -0.074322484
0001a0 0c 55 5b bd 02 fb 1f 3c ce b6 bd bd f3 f8 d6 3c
       -0.053547904 0.009764435 -0.09263383 0.026241755
0001b0 0f d7 a4 bc ca b4 f2 3b 5e 07 9a 3b e5 f8 9b 3d
       -0.02012208 0.0074068056 0.0047005853 0.07615832
0001c0 fc aa 58 bd 3a 0d 98 bd 51 b0 eb 3c 1e 1a 08 bd
       -0.05289744 -0.07424398 0.028770598 -0.033228032
0001d0 24 5d b1 bc cc ff e9 3c ad 03 cf bc 88 dc 4a bc
       -0.021650858 0.028564356 -0.025270307 -0.01238168
0001e0 1f 4e b7 bd a5 61 88 3c 3a 8e 11 3d 11 e3 09 bd
       -0.08950447 0.016648123 0.03553603 -0.033663813
0001f0 0e 3b 96 bd 3e 33 e7 3c 1d 8f 69 3c 67 84 a5 bb
       -0.073354825 0.028222676 0.014255312 -0.005051184
000200 5a eb e3 3b c6 19 7a bd b9 1b 17 3d 7c 40 5f bc
       0.0069555463 -0.061059736 0.036891673 -0.013626214
000210 48 23 40 bc 96 42 c6 bc 4a 56 3c bd 1c 2e 9a 3b
       -0.011727162 -0.024201673 -0.04598073 0.0047052037
000220 c1 8c 1d 3d ee 35 19 3d 8d 50 15 bd d1 1d 5b 3d
       0.03846431 0.037404947 -0.036453772 0.053495232
000230 a6 67 71 3c f3 d0 81 3c b6 82 03 3d 49 6e 03 bd
       0.014734184 0.015846705 0.032107078 -0.032087598
000240 c5 d4 35 bd 0b 93 45 bb ac 3e be bd c9 8d 89 3c
       -0.044392366 -0.003014746 -0.092892975 0.016791241
000250 01 f3 cc bd e7 4e 80 bd 39 b3 9a bb a6 5c 0a 3a
       -0.10007287 -0.062650494 -0.004721072 0.0005278088
000260 57 88 01 3d e0 52 4b bd 70 cc 5c bd d8 41 12 bc
       0.031624164 -0.049639583 -0.053905904 -0.008926831
000270 15 bb 73 bd ec 75 78 bd ab f4 d6 3b d9 9f 55 bd
       -0.059504587 -0.060659334 0.0065599284 -0.052154396
000280 0c ff f3 bc 43 c9 73 3c 73 c9 59 3d 25 99 79 bd
       -0.029784702 0.0148795275 0.053170633 -0.060937066
000290 a5 84 e3 3c d6 30 66 bc c1 c6 bd 3d 07 1d 81 3d
       0.02777321 -0.014049729 0.09266425 0.06304365
0002a0 6d 8d 1b bd 42 e1 8b bc 7f 1d 73 bd 3d 46 9d 3c
       -0.03797667 -0.017075185 -0.0593543 0.019198531
0002b0 88 d5 99 bd f7 7a e2 3d 0e cd ad bc b4 b0 4a 3d
       -0.07511431 0.1105861 -0.021215942 0.049484923
0002c0 9f c6 00 3d e1 aa 41 3d a6 6d a2 bd 7d 99 9c bd
       0.03143942 0.047282103 -0.0793107 -0.07646463
0002d0 c0 2b a5 bd ea 66 f5 bc 4c bb 1b 3d 44 c9 b0 3c
       -0.08064985 -0.0299563 0.038020417 0.021580346
0002e0 81 0a 18 3d 5f 7e 40 ba f3 77 93 3b 90 5d 70 bd
       0.037119392 -0.00073430495 0.004500383 -0.05868298
0002f0 b0 6b 2f 3d df eb a9 bd 1c b6 90 bd 45 ff 87 3c
       0.04282731 -0.08296942 -0.070659846 0.016601214
000300 c3 5f 11 3d 2f 0f 3c bd f5 cf e1 3c 52 f9 ea bc
       0.035491716 -0.045912918 0.027564982 -0.028683338
000310 31 52 8f bd 17 3c 13 bd 86 c8 c6 bc 91 f0 68 bd
       -0.06998099 -0.035945978 -0.024265539 -0.056870047
000320 6a cb 2e 3d 60 69 27 bd 53 c3 45 bd f0 f7 dc bc
       0.04267446 -0.040871978 -0.04828198 -0.026973695
000330 4e fb 3d bc 71 71 0b 3d 61 c7 38 bd d2 88 09 bd
       -0.01159556 0.034043733 -0.045112018 -0.033577748
000340 57 4b e5 bb a1 47 3b 3d 12 7f 3a 3c a4 1c c0 bc
       -0.0069975066 0.045722608 0.011382835 -0.023451157
000350 29 31 04 bd f5 f2 f4 3b 8b bc 68 3c 67 ca 65 3c
       -0.032273445 0.007475252 0.014205108 0.014025307
000360 a8 4f 26 3d 0d fd ee 3c 77 15 06 3b 4d d8 de 3b
       0.04060331 0.029173398 0.0020459571 0.0068006874
000370 ad e9 54 bd 77 ac 33 bd 25 f8 a2 bd 9a f3 53 ba
       -0.051980663 -0.043865647 -0.07957486 -0.00080853107
000380 e9 dd 4d bd 19 1c f6 3d 67 52 8c bd 1a 3e 7c bd
       -0.05026046 0.12017078 -0.068516545 -0.061582662
000390 23 73 b8 3c 6b 0b 77 3c a0 73 51 bd 49 8a cb bc
       0.022515839 0.015078406 -0.05113566 -0.024846213
0003a0 e9 95 be 3b 57 7e 33 bc 2f b8 de bc 88 0a 46 ba
       0.0058162105 -0.010955415 -0.027187435 -0.000755467
0003b0 8d 64 85 bc 94 38 99 bc b9 d3 ca 3c 42 d3 0a bd
       -0.016283298 -0.018703736 0.02475916 -0.033892877
0003c0 d8 3e 1e bd be 50 93 bb ee 1f 86 bd 5c f5 a2 3c
       -0.03863415 -0.004495709 -0.06549059 0.019892387
0003d0 ff 0b 72 bd 3b 82 85 bd 54 d2 c9 bb 9b 65 6a bd
       -0.05909347 -0.0651898 -0.0061591063 -0.057225805
0003e0 0b 15 27 bd f7 01 d1 3c f2 f1 46 bc 08 54 0c bd
       -0.040791553 0.025513632 -0.012142645 -0.034259826
0003f0 20 b0 1b 3c 65 00 a0 bd e6 d5 45 3b 93 5d c3 bd
       0.009502441 -0.07812575 0.0030187308 -0.09539332

actor_mean.0.bias f4 [256]
000000 0e 1a 88 bc 83 a3 ad bd f1 db ee bc d5 60 76 3d
       -0.016613986 -0.08478453 -0.02915761 0.06015094
000010 7d 1c eb 3c ee 02 31 bc 04 f4 17 bd 90 56 c5 bd
       0.028700108 -0.010803921 -0.037097946 -0.09635651
000020 4b 1f e8 3b 5f 7c 02 bc e8 fc 9e bc 5f 02 1c bd
       0.0070838085 -0.007964223 -0.019407704 -0.0380882
000030 7c c4 8b 3d 23 e7 94 bd 12 64 e1 bd ce 22 91 3c
       0.06824586 -0.07270648 -0.11005415 0.017716791
000040 6e ae 04 bd a2 54 2d bd 62 05 35 bd 7c 8f d2 bd
       -0.03239291 -0.04231704 -0.044194587 -0.10281274
000050 14 fa 8e bd 04 6b 9e bd 07 5d bf 3c 33 84 05 3b
       -0.06981292 -0.07735255 0.023359789 0.0020372986
000060 58 30 78 bd bd 62 4f bb 61 81 14 bd 49 e3 b8 bd
       -0.06059298 -0.0031644546 -0.036256198 -0.09027726
000070 3b 1e 9c bd ac 9f 27 bd 27 0a 36 bc 72 09 2c bd
       -0.076229535 -0.04092376 -0.011110819 -0.042001195
000080 e5 71 ac bd be 96 7e bd 8b 2f 97 bd cb 41 ad 3c
       -0.08420161 -0.062155478 -0.07382115 0.021149537
000090 74 5f 04 bd 38 10 b7 3c cd 92 ee 3d 47 37 cd bc
       -0.032317594 0.0223466 0.11649094 -0.025050772
0000a0 c8 33 50 bc 63 70 91 bd 99 8a 33 bd 36 8c a4 3c
       -0.012707658 -0.07101514 -0.04383335 0.020086389
0000b0 d2 a8 39 3d 0a 31 9c 3c 88 3c 5c bd b4 9f f0 bb
       0.045327015 0.019066352 -0.053768665 -0.007343257
0000c0 b3 7c 77 bd 58 a7 ea bc 9e 1d 94 bd 0f ba df 3c
       -0.060421657 -0.028644249 -0.072322115 0.0273104
0000d0 cd 62 5b bd db ca 79 bc b0 5a 09 3a 0b 14 84 bd
       -0.05356102 -0.015246118 0.0005239649 -0.064491354
0000e0 3d 6c 87 b9 a6 88 59 bd 05 6f e9 bc 36 0c c6 b7
       -0.0002582985 -0.053108834 -0.028495321 -2.3609125e-05
0000f0 94 8f a0 3c 5a 49 f1 3c 37 bb 74 bd 7c ec 00 bb
       0.019599713 0.029453922 -0.059748854 -0.0019672206
000100 c5 f1 a4 bb db 0a 4e bd 49 29 16 bd 52 e8 01 3d
       -0.005033704 -0.05030332 -0.036660466 0.0317157
000110 83 84 72 bd 1a 88 28 bc c8 06 59 bd 0d ae cc bd
       -0.059208404 -0.010286355 -0.052984983 -0.09994135
000120 35 c6 a3 bd 15 d9 63 3d d7 49 5a bd 97 0a ee bc
       -0.07996789 0.055626947 -0.053293075 -0.029057784
000130 d4 29 0a bc 01 01 79 bd 58 8a 3a bc a4 1c 97 3b
       -0.008432824 -0.060791973 -0.011385523 0.0046115685
000140 46 61 40 bd 7a 74 df bd 23 16 ac 3c e1 54 a6 bd
       -0.046967767 -0.10910888 0.02100665 -0.08121658
000150 8f 14 10 bd 05 78 7f 3d bf b5 81 bd bd 7d ac bd
       -0.035175856 0.06237032 -0.063334934 -0.0842242
000160 d4 5a 05 3d eb 9f 25 bd e9 a7 b2 3b 4a 98 d5 3c
       0.032557324 -0.040435713 0.0054521454 0.026073594
000170 3c e8 14 bd 31 03 b6 3c e0 f9 02 bd 09 67 3b 3d
       -0.03635429 0.022218319 -0.03197658 0.04575256
000180 3c 5a 9e bd f6 b7 88 3b 6e 50 74 bd 5d f6 a1 bb
       -0.077320546 0.0041723205 -0.059647016 -0.004942699
000190 a1 05 39 3c 82 f3 a4 bd dd f3 da ba 76 1c af bc
       0.011292846 -0.08054258 -0.0016704757 -0.021375876
0001a0 f3 da 54 bd 3f f6 a9 bd ca 0b 7f bd 33 a9 28 bd
       -0.05196662 -0.08298921 -0.062267102 -0.041176986
0001b0 b0 1d 62 bc 12 69 bd bc 46 80 e8 ba e3 9e de bc
       -0.013801023 -0.02312139 -0.0017738424 -0.027175372
0001c0 f6 b1 f2 bc 34 0f 87 3d 7b d1 ca bd 0b e9 21 bd
       -0.029625874 0.06594697 -0.099032365 -0.039528888
0001d0 86 76 2e bb 74 14 a4 3b ca 86 16 bd f5 b0 95 3d
       -0.0026620938 0.005007321 -0.03674964 0.073091425
0001e0 43 b7 36 bd ad 56 4a bd 47 ee 16 bc 31 07 35 3d
       -0.044608366 -0.049399067 -0.009212083 0.04419631
0001f0 fe ac 40 bd 71 7f 82 3b 37 95 16 bb e9 57 63 bd
       -0.04703998 0.0039824774 -0.0022977123 -0.05550376
000200 59 88 ef bc a7 5f a2 bc f0 28 a6 3c 68 87 de 3b
       -0.02923982 -0.019821001 0.020283192 0.006791044
000210 a6 fd ee bb e3 7f 3b bd f5 c3 40 bd 76 a0 8a bd
       -0.007293421 -0.04577626 -0.04706188 -0.06768887
000220 6f d4 46 bb ab 70 29 3c c3 2b 7a bd 8e 3f 73 bd
       -0.0030339023 0.010341804 -0.06107689 -0.059386782
000230 cd ff 0e bd 0b a5 d8 3b e1 12 2b 3c 25 02 45 bd
       -0.03491192 0.0066114715 0.010441513 -0.04809775
000240 b8 74 89 bd 3c 00 c1 3c 06 d3 18 bd a2 00 ae bc
       -0.067117155 0.023559682 -0.037310623 -0.021240536
000250 b5 18 9b bd 48 72 48 3c 9b 80 78 bd d6 cf d9 bd
       -0.07573072 0.012234278 -0.060669523 -0.10635345
000260 f2 24 72 bd d4 9f 6a 3d 08 50 31 3c b3 3a 0b bd
       -0.059117265 0.05728133 0.010822304 -0.033991527
000270 76 d6 81 3c 43 53 35 39 7e 04 0e 3d 13 3c e3 3b
       0.015849333 0.00017292523 0.034672253 0.0069346516
000280 64 44 0a bc 2a 37 61 3d 97 52 ea bd 93 b5 86 bd
       -0.008439157 0.05498425 -0.11441534 -0.06577601
000290 26 88 4b bd 82 75 78 bb 60 45 d1 3c 89 ad 47 bd
       -0.04969039 -0.0037911837 0.025545776 -0.04874948
0002a0 02 9e 4b bc da b0 85 3c fa 95 04 bd 43 14 f0 bc
       -0.012427809 0.016319681 -0.03236959 -0.029306537
0002b0 33 73 ab bd cb 6d 90 bd 01 c8 56 3c e3 12 31 3d
       -0.08371582 -0.07052191 0.013109208 0.043230902
0002c0 69 f2 33 bd e9 8d 2f 3c 6e 9b b1 3b 62 3e 96 3d
       -0.043932352 0.010714986 0.00542014 0.07336117
0002d0 49 87 67 bd 3b 67 35 bd 03 80 1e 3c a9 0e 75 3d
       -0.056525502 -0.0442879 0.009674075 0.059828434
0002e0 41 8a 1c bb 2c 7e 94 bd 58 f2 cc bb 37 c6 dc bc
       -0.0023886117 -0.07250628 -0.0062544756 -0.026949985
0002f0 46 00 12 3d 0a 55 96 bc 7a c2 08 3c 3f 31 76 bd
       0.035644792 -0.018351097 0.008347148 -0.06010556
000300 d0 89 db ba a1 6e ac 3c 9a 85 6e 3a 7a da 6f bd
       -0.0016749445 0.021048846 0.00090988877 -0.058557965
000310 cb f8 4a 3b 6e 9b ac bd 4e 1f 16 3c 1c 78 90 3b
       0.0030971046 -0.08428083 0.009162737 0.0044088494
000320 f3 71 ab bb 1a 5d 99 3d 44 6c 87 bd 82 06 82 bd
       -0.0052320897 0.07488461 -0.06612447 -0.063488975
000330 a9 2a 36 bc 70 72 8f bd 32 22 91 3b 0d 3a 8e bd
       -0.011118569 -0.07004249 0.004429125 -0.06944666
000340 2e 05 ef 3c 49 70 87 bd ac 29 ae bd 1b 2d 01 bd
       0.029177275 -0.066132136 -0.08504042 -0.031537157
000350 c8 59 70 bd 60 72 8a 3c 37 a6 97 3d f2 37 99 3c
       -0.058679372 0.016900241 0.0740475 0.018703435
000360 71 76 fc 3c cc 91 9c bd 0c 16 65 3b 0e cd dc bc
       0.030818196 -0.07644996 0.0034955768 -0.026953246
000370 a2 90 60 bd f3 62 af bc 13 e2 65 bd 50 4a 56 3d
       -0.054825433 -0.021409487 -0.056123804 0.052316964
000380 95 83 0a 3c 2f 3e 66 3d ad 80 5a bc 16 72 79 3b
       0.008454223 0.056211647 -0.013336343 0.0038062385
000390 89 dd 13 3d c2 1a 9c bc c9 34 c5 3c 36 1b 90 bd
       0.036099944 -0.019055728 0.024073021 -0.0703644
0003a0 e4 f9 3a bd f8 1c b8 bc e9 22 0e 3d 9a af 79 bd
       -0.04564847 -0.02247475 0.03470126 -0.060958482
0003b0 da 59 8a bc 99 e6 6e 3c a6 3f 30 bd 83 95 f3 3c
       -0.016888548 0.014581346 -0.04302945 0.029734379
0003c0 34 90 0d 3d 3e b2 11 bd a6 b1 42 bd 69 f0 2c 3d
       0.03456135 -0.035570376 -0.0475327 0.04222146
0003d0 ce 05 fb 3c 02 f9 d2 bd a2 18 19 bd 32 7f f9 3c
       0.030642416 -0.10301401 -0.037377007 0.03045616
0003e0 5f b5 98 bd ed 1a bf 3c 44 48 2a 3d b4 4b 09 3a
       -0.07456469 0.023328269 0.041572824 0.0005237416
0003f0 cf 91 2f 3d b1 f5 22 bd db 98 59 bc bf 0a 4f bd
       0.042863663 -0.03978509 -0.0132810725 -0.050547358

actor_mean.2.weight f4 [4, 256]
000000 34 4c 4e 3d 9b c8 03 bd a0 a8 73 3c 14 fe 9b bd
       0.05036564 -0.032173734 0.014871746 -0.07616821
000010 a1 84 43 3d d1 80 a2 3d e6 47 ba 3d db 65 b9 3d
       0.047733907 0.07934726 0.09095745 0.090526305
000020 0f 13 bf bc 61 a1 7b be cb 65 86 be de e7 6c bd
       -0.023324518 -0.2457328 -0.26249537 -0.057838313
000030 c9 24 e0 3d a3 13 f6 3c 44 a0 59 3d e8 b6 30 3e
       0.10944516 0.03003866 0.053131357 0.17257273
000040 e7 a3 2e bd c9 da 3c bd fa e7 85 3c 26 04 f6 ba
       -0.04263678 -0.046107087 0.016345967 -0.0018769547
000050 94 f1 f6 3d d0 56 1a be 42 0d 38 be c1 59 5b 3e
       0.12057796 -0.15072179 -0.17973807 0.21420957
000060 ce b4 0c 3c 2b d8 cd 3b 51 59 ee bd 3f 61 cb be
       0.008588029 0.0062818727 -0.116381295 -0.3972263
000070 85 17 23 be 19 ac 9d 3c 9b 3f 9f 3d 08 48 3f be
       -0.1592694 0.019247102 0.07775804 -0.18679821
000080 6e 72 86 3d 6b 41 8a bd 3a 3c bf bb f3 b4 07 bd
       0.065647945 -0.06750759 -0.005836037 -0.03313155
000090 e2 58 46 bd 02 ab 65 3e 03 ca 82 3d 70 21 76 bd
       -0.04842461 0.22428516 0.06386187 -0.060090482
0000a0 33 f3 55 3e b0 2c 27 3d 85 4f 26 3e f7 85 57 bd
       0.20893554 0.0408141 0.16241272 -0.052617993
0000b0 37 d0 09 bd 2c 17 4a be a9 89 5e be 0c 88 ef 3d
       -0.033645835 -0.19735402 -0.217322 0.11695871
0000c0 f9 71 6e bc 7f 3d d6 3d e3 6a 1b 3d e0 d4 b4 3c
       -0.01455354 0.10460948 0.037943732 0.022074163
0000d0 dc df a8 3c ad dc 86 bc 54 74 e8 bd 73 7f ea 3c
       0.020614557 -0.016462648 -0.11350313 0.028625226
0000e0 33 cc 30 bd ec 62 9b be 84 c1 a5 3d 60 35 d2 bd
       -0.04316349 -0.3034891 0.08093551 -0.10264087
0000f0 33 b5 81 bc e6 49 22 be ba d4 18 be 85 58 af 3b
       -0.015833473 -0.15848503 -0.14924899 0.0053511285
000100 82 2f f0 3b 36 db 2c be 3d 2d 89 bb 15 39 53 bd
       0.007329882 -0.16880497 -0.004186301 -0.05156811
000110 b6 1e 5a 3d 72 25 a8 3d 27 9d c8 bd 60 0a 8c bd
       0.053251944 0.08210267 -0.097955994 -0.068379164
000120 b5 c9 1c bd cf 3e 05 3e 36 01 06 be 0c 8c db 3d
       -0.0382783 0.13012241 -0.130864 0.10720071
000130 5f 71 12 3e 93 fb 1d 3d b9 dc d4 ba 37 7d 76 3d
       0.1430106 0.038569998 -0.0016240097 0.060178008
000140 79 25 64 ba d2 a3 a0 bd 34 8f 8f 3d 2d 6f 0f 3e
       -0.00087030936 -0.07843746 0.07009736 0.14007254
000150 6c a4 85 bd 08 b3 6f 3e d0 35 3d 3d 8b 83 88 3d
       -0.065255016 0.23408139 0.046193898 0.06665715
000160 74 3e 05 3d 29 8c 73 be 50 b0 49 3d 4d 15 9a bd
       0.032530263 -0.23783936 0.04924041 -0.07523594
000170 b4 09 00 3e 80 07 05 be 9b 8b c7 bd f1 70 15 3e
       0.12503701 -0.12991142 -0.097434245 0.14593865
000180 ce 75 1f 3e a1 85 99 3d c8 14 ff bd 07 5f d3 3d
       0.15572283 0.07496191 -0.124551356 0.103208594
000190 17 d8 c6 3c ef d5 61 bd 05 ee b0 bd da 22 07 3d
       0.024272962 -0.055135664 -0.086391486 0.03299222
0001a0 e5 e9 da bc 61 6a 02 be 5c b5 1b bd 32 73 13 3d
       -0.026722858 -0.12735893 -0.038014755 0.03599853
0001b0 4f f5 29 bc c0 6d e9 3c 1c 2a 15 3e d4 12 9c 3c
       -0.0103734275 0.028494716 0.14566845 0.019051947
0001c0 4b 6c 28 be e7 49 35 be c1 3c ab bd f2 7a f2 3b
       -0.1644756 -0.17703973 -0.08361197 0.00739991
0001d0 c8 4c 7c bb 42 92 98 3c 69 17 f1 bd a5 2c d9 3c
       -0.0038497914 0.018624429 -0.11772043 0.026510546
0001e0 dd 5a 49 bc 47 22 8e bd 58 1e aa bd 39 66 7d bc
       -0.01228973 -0.06940132 -0.08306569 -0.015466266
0001f0 2f b3 74 bc de f9 36 3e 48 63 e5 3c b6 c9 77 bd
       -0.014935299 0.17868754 0.028001443 -0.0604951
000200 45 58 39 3d 77 7d f0 bd a4 26 27 3e 7c 92 bf be
       0.045250196 -0.117426805 0.16323334 -0.37416446
000210 66 b3 ae 3c f0 f4 0e bc 62 07 3d be 72 15 68 3d
       0.021325778 -0.00872539 -0.18459848 0.056661077
000220 1e 2e 2a 3d c8 73 85 bd ca 56 3b be 5c 00 1c 3e
       0.041547887 -0.06516224 -0.18294826 0.15234512
000230 84 44 26 bc b9 e7 85 3d 20 5e 71 3d 60 ed b5 3c
       -0.010148171 0.06538338 0.058927655 0.022207916
000240 e8 eb 03 3e d5 8b 5d 3c 20 a7 4f bc 7b 21 62 be
       0.1288296 0.013522108 -0.012674123 -0.22083084
000250 f1 56 94 3c ff 68 2e be 8d c8 9c 3d bd a0 11 be
       0.018107863 -0.1703224 0.076554395 -0.14221473
000260 8c d8 34 3c 69 3e a4 bd b1 9e 2b bd 69 1e c9 be
       0.011037957 -0.08019716 -0.041899387 -0.39281014
000270 91 bf c5 3c f4 56 26 3e 88 b9 9d 3d e7 da 09 3e
       0.024139198 0.16244107 0.07701403 0.13462411
000280 38 1b 82 be 7f 60 73 be 27 88 b9 be 91 f7 6a 3c
       -0.2541139 -0.23767279 -0.36236688 0.014341251
000290 0f 25 a5 bb d5 f1 57 3d 5f 16 45 3b a6 3e 8f be
       -0.005039818 0.052720863 0.0030073149 -0.27977484
0002a0 d5 75 cf 3c c3 94 11 bd 36 35 fe bd 6d 68 2c 3d
       0.025324741 -0.03554226 -0.12412493 0.042091776
0002b0 75 06 22 bc f4 3a 49 be 88 a5 77 3d 0f 29 b1 bd
       -0.009889235 -0.19651395 0.060460597 -0.086504094
0002c0 ba f6 82 3d f2 cb 05 3d c9 36 16 3d 57 17 85 3b
       0.063947156 0.0326652 0.03667334 0.00406162
0002d0 46 ed 67 bc 9a 27 17 bd 26 dd 16 3e 36 3f d4 3d
       -0.0141556915 -0.036903 0.14732799 0.10363619
0002e0 8b f4 b6 3d 2f a3 93 be ac 40 c6 bd e1 9f 0c be
       0.089333616 -0.28835437 -0.09680304 -0.13732864
0002f0 10 71 a5 3d d9 eb 9a be 05 65 6e 3c 70 3f a6 ba
       0.080782056 -0.30258062 0.014550452 -0.0012683701
000300 b1 2b c8 ba 7e 93 1b 3a 57 2c 8b bb 7b cb 50 bd
       -0.001527181 0.0005934759 -0.004247229 -0.050975304
000310 2f dc e6 3d d8 87 c9 be 23 f9 3b 3c 55 76 06 3e
       0.112724654 -0.39361453 0.011472973 0.13131078
000320 9a c2 eb 3d 7e fa 30 bb 99 92 da bd 1c 6e 56 bd
       0.11511727 -0.0027004774 -0.106724925 -0.052351102
000330 d6 f3 62 be ef 03 4a bd 74 85 04 bf 69 27 57 3d
       -0.22163329 -0.049320158 -0.51766133 0.05252782
000340 a8 4f bf 3d a5 e1 34 bd 4c 63 ef bd 00 e4 9d 3c
       0.09341365 -0.044160504 -0.11688861 0.019273758
000350 8a d1 1e 3d 75 e7 04 3c 19 d7 79 be 75 84 f5 bc
       0.03877405 0.008111824 -0.2439846 -0.029970387
000360 3d 56 0b bd c5 e5 3b 3d b4 f3 6a 3d 9c 1c 1d 3e
       -0.03401779 0.045873422 0.05736132 0.15342945
000370 64 9d d1 3a bd ec 88 3c f0 71 89 3b db 58 8f bd
       0.0015992341 0.016714448 0.0041944906 -0.0699937
000380 63 4c 5e 3d 49 fb fc bc ef b9 27 bd 28 2b 22 bd
       0.054272067 -0.03088154 -0.040948804 -0.03959194
000390 67 9c 66 3d d1 05 d3 bd 94 dc cb bc 89 13 55 be
       0.0563015 -0.10303844 -0.024885453 -0.20808233
0003a0 45 e5 42 3d 53 3c 5e be a8 86 1d bd 8d fc 1b bd
       0.04758193 -0.217027 -0.038458496 -0.038082648
0003b0 1f be 36 3e 9a 1f 8b 3d aa 1d 1f bd 22 cb 50 bc
       0.17845963 0.06793137 -0.03884665 -0.012743743
0003c0 cd 48 81 bd c2 c1 36 be c7 05 3a 3d 7c 8a 1c bd
       -0.06312714 -0.1784735 0.045415666 -0.038218006
0003d0 af 75 3f 3b 1e 03 93 be 91 8d 90 be 8b f3 70 be
       0.0029214432 -0.28713316 -0.28233007 -0.23530404
0003e0 a5 30 b2 3c b0 12 8f 3d 67 e9 f1 ba b1 81 2e 3d
       0.021751711 0.06985986 -0.00184564 0.042604152
0003f0 6c e3 02 3d 06 05 04 3e a4 2d c3 3d f0 a0 f8 3c
       0.031955168 0.12892541 0.0953019 0.030350178

actor_mean.2.bias f4 [4]
000000 0f 71 b7 3b f9 f7 8e 3d 30 0f 04 3d 38 28 3c 3c
       0.0055981944 0.06980891 0.032241046 0.011484198

critic.0.weight f4 [256, 256]
000000 87 41 0a 3d a5 fb 16 3e 04 f2 9f bd a0 bc bc 3d
       0.033753898 0.14744432 -0.07809833 0.09215665
000010 f8 91 91 bd 2c 57 35 3b 34 37 ba bb 37 26 5b 3d
       -0.071079195 0.0027670367 -0.0056828503 0.05350324
000020 b4 c8 7a bd 35 cc e2 3c 9c 8a 00 3e 07 07 f6 3c
       -0.06122656 0.027685264 0.12552875 0.030032648
000030 7a 10 ed 3c 4c cd 30 3e 2e c1 01 3d 72 76 38 3e
       0.02893852 0.17265815 0.03167837 0.18013933
000040 77 96 2f 3d 4a 55 65 3e 04 a1 55 3d 61 57 60 3d
       0.042868104 0.22395816 0.05215551 0.05477083
000050 b1 94 87 bd e3 07 b0 bb 9c d6 35 3e 22 d9 15 be
       -0.066201575 -0.005372034 0.17757648 -0.14633611
000060 56 6f 88 3c 5d 95 d4 3c b1 aa 95 bd bc dc 61 3d
       0.016654652 0.025950128 -0.073079474 0.05514215
000070 fa 79 0f be 7d 27 c6 3b 0f 66 58 3d 62 35 22 3e
       -0.14011374 0.006047188 0.052831706 0.15840676
000080 5f 01 39 3d af 70 19 bd 46 fd 17 be e9 db 86 3d
       0.045167323 -0.03746098 -0.1484271 0.06584913
000090 65 87 65 bd 8f e7 76 3d e0 e0 af 3c 50 95 84 bc
       -0.056037325 0.060279425 0.021469533 -0.016184479
0000a0 88 ed 81 3d 43 ca f7 3d 67 5a b3 bd 8e 25 8d bd
       0.063441336 0.12099125 -0.08757477 -0.068919286
0000b0 17 ed 84 3d 4c f1 a2 3e 1b d0 90 3c 20 45 d4 bc
       0.06490534 0.3182472 0.017677357 -0.025911868
0000c0 99 4d 4f bd 69 8d 2b 3e bc 78 1c bd 71 6c 56 be
       -0.050611112 0.16753162 -0.03820108 -0.20939805
0000d0 6a 62 d4 bc a7 91 09 3d c1 8d 2a bd 40 a9 9d bd
       -0.025925834 0.03358617 -0.041639093 -0.076982975
0000e0 1a 78 5a 3d b9 c0 06 3e 29 21 6b bc 55 35 48 3d
       0.053337194 0.13159455 -0.014351168 0.048878986
0000f0 34 12 b2 3d 45 0b 02 3e 6d ec 82 bd c3 88 a3 3d
       0.08694878 0.12699611 -0.06392751 0.079850696
000100 c8 91 f5 3b ba 45 2d bd 69 b0 76 bc 66 46 d6 3c
       0.007494185 -0.042302825 -0.015056708 0.026156615
000110 37 9a 00 3e 16 ac 96 bd a0 7d 14 be b1 eb b6 bc
       0.12558828 -0.073570415 -0.14501047 -0.022329183
000120 aa 09 44 be 09 ab 1e 3c e2 5f 89 3c ab 4d db 3d
       -0.19144312 0.009684333 0.016769353 0.10708173
000130 f4 e6 32 bb dc f4 b5 3b 15 66 fe bd 1b 92 13 bd
       -0.0027298303 0.005552871 -0.12421814 -0.03602801
000140 c8 b9 21 3e ff f7 02 3e a6 f0 28 3d 31 07 a8 3d
       0.15793526 0.12789916 0.041245125 0.08204497
000150 dc f8 fa 3d 81 f2 52 bd d3 1c d5 bd 5e 24 0e bc
       0.122544974 -0.0515008 -0.104058884 -0.008675663
000160 2a b8 05 be 68 60 06 bd 27 6a d7 3d 71 8f c0 3b
       -0.13058534 -0.032806784 0.10518294 0.0058764745
000170 3b da 45 bd 06 25 24 bd 32 d7 83 bd 53 f6 b2 3d
       -0.048303824 -0.04007437 -0.064375296 0.08738389
000180 f9 1c d1 bd 83 0c 8f 3c 54 a1 8c 3d 49 81 4f 3e
       -0.10210604 0.01746202 0.068667084 0.20264162
000190 70 56 2b 3e cf ab 05 3d 5b 87 08 be 60 7c a2 3d
       0.16732192 0.032634553 -0.13332884 0.07933879
0001a0 a9 6d f1 3d fb 69 d7 bc c4 ff a3 3e 3f e8 0a 3d
       0.11788494 -0.026295653 0.3203107 0.033912893
0001b0 03 03 e0 bc 34 15 24 3c 0d ca 82 bd 14 07 2c 3c
       -0.027345186 0.010014821 -0.063861944 0.010499734
0001c0 41 0a 53 bc 6b 53 43 3d 2b a6 16 be 21 f8 48 3d
       -0.012880863 0.047686975 -0.14711826 0.04906476
0001d0 3c 87 62 3e a7 91 4c 3e d0 2a 1a 3d 6e af ba bd
       0.221219 0.19977437 0.037638485 -0.09115492
0001e0 bd e9 06 3e a9 c6 1f 3e 5d 09 55 bd 72 83 8e 3c
       0.13175102 0.15603127 -0.052010883 0.017396662
0001f0 43 6c e7 3c d7 92 8a 3d 82 61 dc bc e9 8c 1a 3d
       0.028249865 0.06766289 -0.026901964 0.03773204
000200 93 bb 66 be 20 83 fd bd 53 cc 6e bc 0d 90 8c 3d
       -0.22532491 -0.12378526 -0.014575082 0.06863413
000210 32 cc 11 3e 2f 91 f7 bc 7c 37 e4 3b 6c e8 96 3d
       0.1423805 -0.030220596 0.006964622 0.0736855
000220 65 2f 4b 3e 28 f5 1c 3d b2 e3 f8 bc 5d a5 a6 3e
       0.19842298 0.038319737 -0.030382011 0.32548037
000230 a0 01 a1 3d 3e 7a 94 bd 5b a2 96 3b cb 5e 36 bd
       0.07861638 -0.07249878 0.004596991 -0.044523995
000240 cc 03 6a 3d a7 50 a8 3d 6c a2 d8 bd fd df 96 3b
       0.057132527 0.08218508 -0.105778545 0.004604338
000250 59 e4 cb bc c2 03 25 3d 2c c0 22 be 9d 17 4e bd
       -0.024889158 0.040286787 -0.1589362 -0.050315488
000260 4e 74 51 bd 49 55 5d 3c a1 48 03 3e e2 fc df bc
       -0.051136307 0.013509103 0.12820674 -0.027342264
000270 78 ae 21 3e 0d f3 9f bd 52 8e 2c 3e 55 2b ea bc
       0.15789211 -0.0781003 0.16851166 -0.028585115
000280 f4 25 99 3c 76 6f da bd 4f 6b 6a 3d 9b be 70 3d
       0.018694855 -0.10665791 0.057231244 0.058775526
000290 7e 94 14 3d ed 50 a9 bd 85 e3 2f bd c4 5d c4 bd
       0.036274426 -0.082673885 -0.04294159 -0.09588197
0002a0 93 4c a1 bd 91 2b c9 3e bc 13 76 3c a8 00 b8 3c
       -0.078759335 0.3929105 0.0150193535 0.02246125
0002b0 e8 29 d4 3d 79 1d 37 3c 1f c8 0f 3c 15 94 97 bd
       0.103595555 0.01117646 0.00877574 -0.07401291
0002c0 5f f4 83 3e 4b a7 f8 3d 06 2a ab bd e6 31 1b be
       0.25772378 0.121412836 -0.08357625 -0.15155753
0002d0 58 9f 45 3d 84 35 c5 bd c0 5a 3d 3d 17 94 a6 bd
       0.048247665 -0.09629348 0.046229124 -0.08133715
0002e0 6e ad 10 bd bd 46 27 3e c6 45 fa 3d 04 34 80 3e
       -0.035321645 0.16335578 0.122203395 0.25039685
0002f0 ef 16 c1 bd 6c b6 a9 bd 56 a2 91 bc a2 cb c2 bc
       -0.09428202 -0.08286747 -0.017777603 -0.02377874
000300 f8 43 25 3d 64 35 3b ba 41 be 0e be de bb 7c bc
       0.040348023 -0.000714144 -0.13939764 -0.01542565
000310 d2 d0 2b bd 88 cb 23 be ff 14 47 3e 53 97 bf 3c
       -0.041947193 -0.1599561 0.19441603 0.023387587
000320 99 90 36 3d 4d a1 f2 bd 3b 2f 81 bd 6c c6 60 3e
       0.044571493 -0.11847172 -0.063078366 0.21950692
000330 88 72 c0 bd 05 f1 8e 3d ea 1c 38 bd a8 79 db bc
       -0.09396845 0.069795646 -0.04494945 -0.026791409
000340 65 de 38 3e f5 73 0a bd 47 11 d5 bc c3 b5 87 bd
       0.18053587 -0.03380199 -0.026009215 -0.06626465
000350 48 1b 09 3d 43 55 9d bd be 1a b8 bc 6c 21 00 be
       0.033473283 -0.07682278 -0.02247369 -0.1251275
000360 68 b1 3b be cf 6e 38 3d bb 4e 07 3d e4 e3 8b 3c
       -0.18329394 0.04502755 0.033034068 0.01707644
000370 32 48 7f 3d e3 f1 de bd 55 6f fe bd 84 a9 1b be
       0.06232471 -0.1088598 -0.12423579 -0.15201384
000380 80 a5 45 be 85 17 fb bd d7 7a 61 bc 1d 29 ee bd
       -0.19301414 -0.12260345 -0.013762197 -0.116289355
000390 b0 b7 f2 bd 6f 78 97 bc 4b 2b af bd 02 b1 be bc
       -0.11851442 -0.018490044 -0.08553179 -0.023277763
0003a0 0b db 59 bd 69 ba ba 3c 67 c1 8f 3d 77 e3 28 bc
       -0.05318741 0.022793965 0.070193104 -0.010308138
0003b0 a4 57 c0 3d d0 af 57 bd fd 2c 67 3d 16 ae 21 bc
       0.09391716 -0.052657902 0.05643939 -0.0098681655
0003c0 40 a8 80 bd 0a a7 82 3e 30 56 f1 bc be bb 88 3c
       -0.06282091 0.25518066 -0.029460043 0.016691085
0003d0 9e e8 b4 bd 15 c1 4b 3d 66 03 03 be 16 5f 8d 3c
       -0.08833431 0.049744684 -0.12794265 0.017257255
0003e0 e8 4c 37 bd 6e 47 d5 3d dd 73 43 bd 1f 3e af 3c
       -0.044751078 0.10414015 -0.047717918 0.021391926
0003f0 68 a4 5a bd 95 36 52 3d 1d 5d 22 bb bd af 24 3e
       -0.053379446 0.051321585 -0.0024774738 0.16082664

critic.0.bias f4 [256]
000000 84 2c 0f 3d ad 16 ce 3d f6 6e 03 3e 5b 2c b2 3d
       0.034954563 0.10062919 0.12835297 0.086998664
000010 27 af 9d 3c d9 ca b0 bc e4 36 a8 bc 84 40 eb 3c
       0.019248558 -0.0215811 -0.020533986 0.028717287
000020 90 1a 2b 3d 4f 8e 04 3e 49 a8 ff 3c 45 25 23 bd
       0.04177338 0.12944911 0.031208174 -0.039830465
000030 a4 4b df 3d 6a 6a b3 3d 8a 1d 7f 3c d8 48 85 3d
       0.10903099 0.08760531 0.0155710075 0.065080345
000040 0e 50 94 bd 39 26 40 3c d1 17 a4 3a 6c 73 dc bc
       -0.07241832 0.011727863 0.0012519305 -0.026910506
000050 17 8e 05 3e 71 d9 4e bd 77 c0 7b 3d 4a 7b 7f 3d
       0.13042484 -0.050500337 0.061462846 0.062373437
000060 cf 17 84 3d 27 ea b4 3d 42 41 31 bd 27 51 fa 3b
       0.06449854 0.088337235 -0.043275125 0.0076390686
000070 75 db 8a 3d be ae 3e bd d9 d3 04 3e 16 21 85 3d
       0.06780139 -0.046553366 0.12971438 0.06500451
000080 41 a7 ed 3c d9 24 c8 3d 54 11 da 3d 9e d8 3f 3d
       0.029010417 0.09772653 0.10647836 0.04683744
000090 2a 6e 99 3d 2b 7f f1 bc 67 ad b2 3d 76 b1 9a 3d
       0.07491715 -0.029479584 0.0872448 0.07553379
0000a0 0e 46 2f 3d dc 1e 05 3d 39 b3 11 3c 3f ce a9 3c
       0.04279142 0.032500133 0.008892828 0.020728229
0000b0 ab 61 32 3d 5a 70 b8 3d ca 83 51 3d 96 3c 22 bd
       0.043550175 0.09005804 0.051151074 -0.03960856
0000c0 b8 38 29 bd 0a 45 73 bd 24 9d 7d bd 77 df 7a 3d
       -0.041313857 -0.059392013 -0.06191744 0.06124827
0000d0 4e 30 35 bd f7 b4 f2 bc a3 47 1a bd b7 5f c3 3d
       -0.04423552 -0.029627306 -0.037665974 0.095397405
0000e0 03 4d c4 3d 16 83 13 3d 97 5e 34 3d 03 82 60 3c
       0.09585001 0.036013685 0.04403552 0.013702872
0000f0 9b 8c 44 bd 01 5a 9a 3d 6e 93 c8 3c a1 69 a2 3d
       -0.047985654 0.07536698 0.024484362 0.07930303
000100 e6 75 d3 3d da 1b 88 3d f0 80 82 3d 4e f6 43 3d
       0.10325222 0.06645937 0.06372249 0.047842316
000110 fd 71 51 bb d8 3a 9d bc 7d 11 94 3c 3b 26 ea 3d
       -0.0031958811 -0.019193098 0.018074745 0.11433073
000120 4f b6 93 bb d5 0e fb 3d 82 0b 01 bd 2e 95 e5 3d
       -0.004507817 0.12258688 -0.031505115 0.112100944
000130 45 a9 9b 3c 53 52 a9 bc 51 ec 08 bd 4c c4 b9 3d
       0.019001612 -0.020669138 -0.033428494 0.09070644
000140 d2 3b f7 3d db 8b d8 3d 98 85 ed bc ad 6b 2f 3d
       0.12071957 0.1057355 -0.028994367 0.042827297
000150 e4 a8 1f bb 13 65 68 3d 43 3d 51 3d 3f 77 dd bb
       -0.0024362141 0.056737017 0.051083814 -0.0067586
000160 6e 61 08 3d 00 ee 74 bd b4 38 43 3d 64 b9 0a bc
       0.03329604 -0.059797287 0.0476615 -0.008467052
000170 02 c8 1c 3d 64 29 9b bd 5f 5a 83 3d aa 66 7b 3d
       0.03827668 -0.07576254 0.06413721 0.061377205
000180 13 4b 88 bd b2 c1 a7 3c 88 91 23 3d d4 d8 67 bc
       -0.06654944 0.020478103 0.03993371 -0.014150817
000190 9b fa d0 3d a9 e4 1b 3c ba c9 11 3c 3b 56 bb 3d
       0.10204049 0.009514966 0.008898193 0.091473065
0001a0 7f 89 a8 3d a7 3f 12 3d 79 24 8c bc 9e 00 a2 3b
       0.0822935 0.035705235 -0.017107235 0.004943921
0001b0 58 81 89 3d a4 7c f7 3d c3 9f 07 bd c6 26 bb 3d
       0.067141235 0.1208432 -0.033111345 0.09138255
0001c0 ad 29 3b bd 08 d7 d1 3c 18 1f c4 3d 45 c1 ab 3d
       -0.045694042 0.02561523 0.09576243 0.083864726
0001d0 26 9a 3c 3d a0 9d 02 3d 6e bb 7b 3d 65 a6 02 bd
       0.046045445 0.031888604 0.061458044 -0.031896967
0001e0 22 aa b4 bb 0e 07 3c 3e 06 10 ca 3d f5 8d 99 bc
       -0.0055134455 0.18362066 0.098663375 -0.018744448
0001f0 de 90 fd bc b8 14 74 bd b4 37 47 3d df de 4b 3d
       -0.030952867 -0.05959007 0.048637107 0.049773093
000200 e1 60 c6 39 6b e5 55 3d 87 35 cb 3c e3 2b 9a 3d
       0.00037837683 0.052220743 0.024805797 0.07527902
000210 ef f1 05 bd 67 5f d3 3c 19 65 a3 3c 98 e3 2b 3e
       -0.03270143 0.025802327 0.019945668 0.16786039
000220 29 61 c0 bc 46 9f 21 3d 41 47 75 3d b6 e9 04 3d
       -0.02348383 0.039458536 0.059882406 0.032449447
000230 48 69 ba 3d cf c7 9b 3d 41 00 05 3e 39 a5 92 bb
       0.09102112 0.0760647 0.12988378 -0.0044752625
000240 26 ab 85 bd a8 c4 75 bd d6 14 d7 37 21 bd dc 3d
       -0.065267846 -0.060002 2.56397e-05 0.10778261
000250 65 70 89 bc be 44 07 3c 2d e9 07 3e bf a1 d2 3d
       -0.016777227 0.0082561355 0.13272543 0.10284757
000260 50 39 aa bc f6 f0 e5 3d d8 36 53 bd 2c 01 2f 3d
       -0.020779282 0.112276 -0.051565975 0.042725727
000270 88 ec c8 3d 46 6f 03 bd 56 d0 ed 3d 89 0c 9d 3d
       0.0981074 -0.03208854 0.116120026 0.076684065
000280 ff d5 c8 b9 c8 8d ec 3d 5a ef dd 3b 48 00 a2 3d
       -0.00038306412 0.1155048 0.0067729177 0.0791021
000290 3d 1b 9a bb 5a fe b3 3d 0d 46 a4 3d 96 26 b8 3b
       -0.004702954 0.08788748 0.080211736 0.005619834
0002a0 9b 19 9a 3c 4c 60 a6 3d f6 e4 82 3d f1 e8 ea 3b
       0.018811038 0.08123836 0.06391327 0.007168882
0002b0 59 ac bf 3d f1 36 cf bc dd 09 db bc e8 c0 28 bd
       0.093590446 -0.025294753 -0.026738102 -0.041199595
0002c0 03 f1 a1 3d 0b 25 ac 3c c3 af 8a bc 84 a9 b3 3d
       0.079072975 0.021013757 -0.016929513 0.08772567
0002d0 26 72 e2 3d 15 01 a5 3c 20 2b ad 3d 44 cf af 3d
       0.11056928 0.020142118 0.08455491 0.08584455
0002e0 1e 91 cd 3d 14 bd c8 3d 68 cf c0 3c fd 81 03 3d
       0.100374445 0.09801689 0.023536399 0.03210639
0002f0 c3 67 a3 bc d3 4a 47 3d a1 1a cb 3d b2 c3 d3 3c
       -0.019946938 0.048655342 0.099171884 0.02585015
000300 bd a7 15 3d 3f 8a 09 3d 06 9f b9 3b f1 ca d7 3d
       0.03653692 0.033579107 0.005664709 0.10536755
000310 67 2c c2 bc 85 ab 35 bc 81 75 ef 3c 03 63 8b bd
       -0.023702813 -0.011088257 0.029230835 -0.06805994
000320 d5 68 3b 3c 90 cc 73 3d 4a 59 0b bd c6 ac dd 3c
       0.011438568 0.059521258 -0.0340207 0.027059924
000330 7b e2 f2 bc 4d 13 2f 3b 0c d6 11 3d 65 46 96 3d
       -0.02964901 0.0026714385 0.03560452 0.073376454
000340 3c 1b 4a 3c 46 7f d9 3d 64 17 11 bd 82 0a 0a 3e
       0.012335595 0.106199786 -0.035422698 0.13480571
000350 84 a1 96 3d c1 b9 88 3d e9 fb a5 3d b4 97 42 bd
       0.073550254 0.06676055 0.08104689 -0.047507957
000360 e2 02 d0 3d 55 ff 43 3c 4f 65 0f bc 2e 27 a3 3c
       0.101568 0.011962731 -0.008752181 0.019916143
000370 a5 ba 9f 3c b2 87 63 3d 64 2d 10 3e 19 19 cd 3c
       0.019498179 0.05554933 0.14079815 0.025036382
000380 e3 45 48 bc 06 74 5f 3c 70 e2 7d 3d 38 5d dc 3d
       -0.012223694 0.013638502 0.061983526 0.107599676
000390 ab 2a 4a bd c5 57 ec bb 69 12 d7 3d 49 72 58 3d
       -0.049357098 -0.0072126114 0.10501558 0.052843366
0003a0 e9 a7 96 bd a1 a7 20 3d c6 35 04 3d de d9 81 3d
       -0.07356245 0.039222363 0.032277845 0.06340383
0003b0 7b cc 58 3d d0 c7 9b 3c 4a b3 9e 3d c0 88 1f 3e
       0.052929383 0.019016176 0.077490404 0.1557951
0003c0 03 1a eb 3c d3 dd 3e 3d 89 15 d1 3d 1e 54 e6 3c
       0.028698927 0.046598267 0.10209186 0.028116282
0003d0 e3 af f6 3b a3 b0 b6 3c b5 06 ae bc a5 a2 a6 3d
       0.0075282915 0.022301024 -0.021243433 0.08136491
0003e0 da 9a dd 3d 1a 1f 3e bd ca b9 91 bd c2 34 7f 3d
       0.10820551 -0.04641638 -0.071155146 0.062306173
0003f0 72 d3 97 bd 43 89 19 bd 4d 72 bb 3d 70 44 fd 3c
       -0.07413377 -0.03748442 0.091526605 0.030916423
