best_model_episode_1500.pth (torch, 561701 bytes, 10 tensors)

actor_log_std f4 [4]
0	0xbf45f96d	-0.7733372
1	0xbf894741	-1.072487
2	0xbea30f8d	-0.31847802
3	0xbf096173	-0.5366432

shared.0.weight f4 [256, 24]
0	0x3e220111	0.1582072
1	0x3c81227b	0.015763512
2	0x3db64d65	0.089014806
3	0x3e49ff1b	0.19726221
4	0x3bdc8af9	0.006730434
5	0xbd6f2c01	-0.058391575
6	0xbe6ea1ee	-0.23303959
7	0xbb46a9c5	-0.0030313593
8	0x3e310707	0.17287837
9	0xbe15eb02	-0.1464043
10	0x3e8a1e44	0.26976216
11	0x3d6b80f1	0.057496015
12	0x3e18b08e	0.149111
13	0xbca89e27	-0.020583225
14	0x3e31efa7	0.17376576
15	0x3d2da087	0.04238942
16	0x3e5fd5a2	0.21858838
17	0x3d97d515	0.07413689
18	0xbd8e541d	-0.06949637
19	0x3d7d2f63	0.06181277
20	0xbdb5a87f	-0.08870029
21	0x3c8333e7	0.01601596
22	0xbd303203	-0.043016445
23	0x3e6fb171	0.23407532
24	0xbedf5156	-0.43616742
25	0xbe04e7ae	-0.12979004
26	0xbe83aaa8	-0.25716138
27	0xbcdcfaf9	-0.026975142
28	0x3d3f26e0	0.046667933
29	0xbe857996	-0.26069325
30	0x3e909420	0.2823801
31	0xbdb18fde	-0.086700186
32	0x3e386bc9	0.18009867
33	0xbd55d453	-0.05220444
34	0xbd8c848f	-0.06861221
35	0x3d949fb9	0.07257027
36	0x3cd53e64	0.026030727
37	0xbc200cbc	-0.009768661
38	0xbd655ab5	-0.055994708
39	0xbe109f88	-0.14123356
40	0xbcb06ca4	-0.021536179
41	0xbe044bdc	-0.12919563
42	0x3ca2f078	0.019890055
43	0x3e02618a	0.1273252
44	0x3da2e28a	0.07953365
45	0xbdc4cc8c	-0.09609327
46	0x3dc6bb21	0.09703661
47	0x3dc09d87	0.09405046
48	0x3eba8c31	0.36435083
49	0xbe6d1b35	-0.2315491
50	0x3cdb0427	0.026735378
51	0x3e33fe8d	0.17577572
52	0xbe96722d	-0.29383984
53	0x3dea396e	0.11436735
54	0xbd1a2d6b	-0.03764097
55	0x3d252302	0.04031659
56	0x3d8dd44a	0.069252566
57	0x3d2aa1e0	0.041658282
58	0xbc109fc4	-0.008827154
59	0xbe356de2	-0.17717698
60	0x3a640989	0.00086989306
61	0xbcc3b63f	-0.023890613
62	0x3dfa943e	0.12235306
63	0xbc669412	-0.014073389
64	0x3ddda390	0.10822213
65	0xbc55a2e3	-0.0130393235
66	0x3e3c72d5	0.1840318
67	0xbdf4f550	-0.11960852
68	0xbe051c17	-0.12998997
69	0xbdd34349	-0.10315568
70	0x3e42ea7c	0.19034761
71	0x3e255664	0.16146237
72	0x3f07a2b5	0.52982646
73	0x3eff472c	0.49858987
74	0xbe676baa	-0.22599664
75	0xbdeed9df	-0.11662649
76	0x3d7e089d	0.062019933
77	0x3d8521ec	0.06500611
78	0x3e10706d	0.14105387
79	0x3c9aa9ad	0.018879736
80	0xbca6261f	-0.02028185
81	0xbe1604c6	-0.14650258
82	0x3d0512de	0.032488696
83	0xbcd4d425	-0.025980065
84	0x3b6dc326	0.0036279648
85	0xbcb87ecc	-0.022521399
86	0x3da19476	0.07889645
87	0xbe43212a	-0.1905562
88	0xbe048326	-0.12940654
89	0x3d21d758	0.03951201
90	0x3cabd14a	0.02097382
91	0xbd988e62	-0.07449032
92	0x3dc7a3c4	0.09748033
93	0x3ddca4d8	0.10773629
94	0xbe4cba8d	-0.19993038
95	0xbe472fc2	-0.19451812
96	0x3e912977	0.28351948
97	0xbe19a56c	-0.1500451
98	0x3d9358e7	0.07194691
99	0xbeb16ea4	-0.34654725
100	0xbea03d23	-0.31296644
101	0x3e3e0e7f	0.18560217
102	0x3cb4e352	0.022081051
103	0xbe5b3492	-0.21406773
104	0xbd9205eb	-0.07130035
105	0xbdaa7e8d	-0.08324919
106	0xbe80a51c	-0.25125968
107	0xbe292662	-0.16518548
108	0xbd51b194	-0.051194742
109	0xbbbdae48	-0.005788598
110	0x3e89f0a8	0.2694142
111	0x3dcccbca	0.09999807
112	0x3decb5d2	0.11558117
113	0xbe19a767	-0.15005265
114	0xbdd4846f	-0.10376822
115	0xbd41f3d1	-0.047351662
116	0x3d30e595	0.043187696
117	0xbe23ec72	-0.16008165
118	0xbd88284e	-0.066483125
119	0xbd54a97b	-0.05191944
120	0xbd2ab85e	-0.041679733
121	0x3df3e3e8	0.11908704
122	0xbd81c312	-0.06336035
123	0xbf017da5	-0.50582343
124	0xbe613882	-0.21994212
125	0xbe125583	-0.14290433
126	0xbe470cc1	-0.19438459
127	0xbe197552	-0.1498616
128	0x3e1444b0	0.14479327
129	0xbc144870	-0.009050474
130	0x3e444d9b	0.19170229
131	0xbc8f6e64	-0.017508693
132	0xbe0cc0db	-0.13745444
133	0x3e49512d	0.19659872
134	0xbd00db07	-0.03145888
135	0xbd7991e7	-0.06093016
136	0xbe1b47c4	-0.15164095
137	0xbe373875	-0.1789263
138	0x3db6c2d1	0.08923877
139	0xbb8d3dae	-0.0043103313
140	0x3e09a8ae	0.13443252
141	0xbdede124	-0.11615208
142	0x3e8cb666	0.2748291
143	0xbdb88a0c	-0.09010705
144	0xbee0d690	-0.43913698
145	0xbf6d4cf8	-0.9269557
146	0x3e479bcb	0.19493024
147	0x3eb50885	0.35358062
148	0x3dd615ea	0.104533985
149	0xbbc22979	-0.005925354
150	0x3e086347	0.13319121
151	0xbc24b789	-0.010053524
152	0x3cdbc8ef	0.026829211
153	0xbea2e253	-0.31813297
154	0xbc89d517	-0.016825242
155	0xbe0aa95a	-0.13541165
156	0x3960aa21	0.00021425683
157	0xbd0fbeb4	-0.035093978
158	0x3e1e2798	0.15444791
159	0xbd0324a5	-0.03201737
160	0x3e822f2c	0.25426614
161	0x3ddc5879	0.10759062
162	0x3da1a9b5	0.07893697
163	0xbe0f63be	-0.14002892
164	0x3dea7c4e	0.114494905
165	0xbce3d8d9	-0.027813362
166	0xbd91c537	-0.07117694
167	0x3e7923b8	0.24330032
168	0xbe8ea7e2	-0.2786246
169	0xbe350e55	-0.17681248
170	0xbd9baa05	-0.07600788
171	0xbd6ad966	-0.057336234
172	0x3dcc8e21	0.099880464
173	0xbdaa6759	-0.08320493
174	0x3e2463c5	0.16053684
175	0xbd61ae2d	-0.055097748
176	0xbecb95f4	-0.39762843
177	0xbd88e611	-0.06684507
178	0x3dc025eb	0.09382232
179	0xbe93b20c	-0.28846776
180	0x3c36b79e	0.011152176
181	0x3da24511	0.079233296
182	0x3d60c36d	0.054873873
183	0xbd2df83d	-0.042473067
184	0x3e1691fe	0.14704129
185	0x3e20cd2e	0.1570327
186	0x3e0d8ab7	0.13822447
187	0x3d03da87	0.032190826
188	0x3be0b779	0.006857809
189	0x3daadb7e	0.08342646
190	0xbcbe8bbc	-0.02325999
191	0x3c82d796	0.01597194
192	0x3f0f3263	0.5593626
193	0x3f6d6676	0.9273447
194	0xbe5514c9	-0.2080871
195	0xbdc9898f	-0.0984069
196	0x3e6300e7	0.22168313
197	0x3cb5d07a	0.022194136
198	0x3e15373d	0.14571853
199	0xbab86cc6	-0.0014070503
200	0xbd3339e3	-0.043756377
201	0x3b39e445	0.002836482
202	0x3d027fdc	0.031860217
203	0x3da3ea4e	0.080036744
204	0x3c34cd55	0.011035283
205	0xbe3f6637	-0.18691336
206	0xbe114a50	-0.14188504
207	0xbe48d761	-0.1961341
208	0xbd9ccd43	-0.07656338
209	0x3d76f7d5	0.060294945
210	0x3df85e98	0.12127417
211	0x3dabf03f	0.08395433
212	0xbe44c49f	-0.1921563
213	0xbe0e4eef	-0.13897298
214	0xbd8661f4	-0.06561652
215	0x3e0f44d7	0.13991104
216	0xbb9526c9	-0.0045517427
217	0xbe05f234	-0.13080674
218	0x3d7c61a5	0.06161656
219	0xbe65d228	-0.2244345
220	0x3cc3fd97	0.023924632
221	0x3dfe74fc	0.12424657
222	0xbe8fdaea	-0.28096706
223	0x3c9f6a55	0.019459883
224	0xbec2adf8	-0.38023353
225	0x3dec9ce3	0.11553361
226	0x3dbe66b9	0.092969365
227	0x3e34a12c	0.17639607
228	0xbc7607c7	-0.015016503
229	0xbe64b1f0	-0.22333503
230	0xbe20a0ff	-0.15686415
231	0x3e2a1301	0.16608812
232	0x3df06f64	0.11739996
233	0x3e4bff38	0.19921577
234	0x3e12c1fa	0.14331809
235	0x3dc79008	0.09744269
236	0x3d4472d8	0.047961086
237	0xbdcd5fa1	-0.100280054
238	0xbe40161b	-0.18758433
239	0xbe42bdd5	-0.19017728
240	0x3e357794	0.17721397
241	0xbe4c9f95	-0.1998275
242	0x3dbbcbbf	0.09169721
243	0xbe396f35	-0.18108828
244	0xbdb5e330	-0.08881223
245	0xbdc51f27	-0.096250825
246	0xbec035e9	-0.3754113
247	0x3bc7cf66	0.006097722
248	0xbd192bf5	-0.037395436
249	0x3e62b11b	0.22137873
250	0xbda4fedd	-0.08056424
251	0xbe28ccda	-0.16484395
252	0xbcf08db8	-0.029364452
253	0xbc3aeb8e	-0.0114087
254	0x3bbef2cf	0.005827285
255	0xbdfec1f9	-0.12439341

shared.0.bias f4 [256]
0	0xbda52ccb	-0.08065184
1	0x3dab3c41	0.08361102
2	0x3cf34b00	0.029698849
3	0x3da3c0b1	0.07995737
4	0xbe15958a	-0.14607826
5	0x3dab7110	0.08371174
6	0x3e22c6f1	0.15896203
7	0x3dd83aba	0.10558076
8	0xbddf2c23	-0.1089709
9	0x3e3e8230	0.1860435
10	0xbd39c377	-0.045352425
11	0x3e963c6e	0.2934298
12	0x3daeefcc	0.085418314
13	0x3e0cf103	0.13763814
14	0x3e32566e	0.17415783
15	0x3e04ffb5	0.1298817
16	0x3e315b60	0.17320013
17	0xbdc1d4e4	-0.09464434
18	0xbdb21637	-0.086956434
19	0x3dda1d32	0.106501
20	0x3eab671f	0.33477113
21	0x3df9d285	0.121983565
22	0xbdd78386	-0.10523133
23	0xbdf81d82	-0.12115003
24	0x3cad182f	0.021129696
25	0x3dbf0004	0.09326175
26	0xbdded4eb	-0.10880455
27	0x3e82c952	0.2554422
28	0x3e8e408d	0.27783623
29	0x3d09b09b	0.03361569
30	0x3e6a6cc1	0.22893049
31	0x3d3bf9d6	0.04589256
32	0xbdab126a	-0.083531216
33	0x3d45aeec	0.04826252
34	0x3e5a744d	0.21333428
35	0x3e307ba9	0.17234673
36	0xbd17586b	-0.036949556
37	0x3cebb24f	0.028771548
38	0x3daa1040	0.08303881
39	0xbc6c9fae	-0.0144423675
40	0xbe0fe71b	-0.14053003
41	0x3e387008	0.18011487
42	0x3e607ac5	0.21921833
43	0xbd8ba793	-0.068190716
44	0xbd1905bc	-0.037358984
45	0xbd05d498	-0.03267345
46	0xbde6205b	-0.1123664
47	0x3e95863d	0.29203978
48	0x3db912b8	0.090367734
49	0xbdae1fa3	-0.08502128
50	0xbe1c6776	-0.15273842
51	0xbc625920	-0.013815194
52	0xbd8b50ad	-0.06802497
53	0xbdfb96bd	-0.122846104
54	0x3e21bcf2	0.15794733
55	0x3e12dffa	0.14343253
56	0x3dc0301b	0.093841754
57	0x3e6a224c	0.22864646
58	0x3d27f396	0.041003786
59	0x3caa632d	0.020799244
60	0xbe0f52cc	-0.13996428
61	0x3e27414d	0.16333504
62	0x3d1c6d2c	0.038190052
63	0x3d219e9b	0.0394579
64	0xbda432e6	-0.080175206
65	0x3b43634b	0.0029813822
66	0xbdefb25a	-0.1170394
67	0xbdf89c84	-0.12139228
68	0x3c946d89	0.018118637
69	0xbe0f4a6d	-0.13993235
70	0xbdd40628	-0.10352737
71	0xbe32fd1d	-0.17479368
72	0x3e24b94b	0.16086309
73	0xbc93d3bd	-0.0180453
74	0xbe048ba4	-0.12943894
75	0xbe4c0cd7	-0.19926773
76	0xbd87f3f7	-0.066383295
77	0x3c88969e	0.016673382
78	0x3dc4e962	0.09614827
79	0x3cc2e769	0.023791986
80	0x3e45bcd5	0.19310315
81	0x3d23edb7	0.040021624
82	0xbda9a82b	-0.082840286
83	0x3b5d85ad	0.00338016
84	0xbe83c17c	-0.25733554
85	0x3c4e3735	0.012586405
86	0x3e21c979	0.15799512
87	0x3e602a69	0.21891178
88	0xbddfb459	-0.109230705
89	0xbdb5074f	-0.08839285
90	0x3ad31d7f	0.0016106813
91	0x3dd96d1c	0.10616514
92	0x3dcf269c	0.10114786
93	0xbe252bb2	-0.1612995
94	0x3e2d688e	0.16934416
95	0xbe2801aa	-0.16406885
96	0xbe1ffa17	-0.15622745
97	0x3e228c1c	0.1587376
98	0xbd9394b9	-0.07206101
99	0xbe0b4569	-0.13600697
100	0xbe39e5a7	-0.18154012
101	0x3e98bb58	0.29830432
102	0xbd2a6e2c	-0.041608974
103	0x3dea250a	0.11432846
104	0xbc9820ee	-0.01857039
105	0xbddc4bdb	-0.10756656
106	0x3b08d149	0.0020876697
107	0x3e1d5c3e	0.15367219
108	0xbe028661	-0.12746574
109	0x3d351bb5	0.044215877
110	0x3e06e964	0.13174969
111	0xbdf5237e	-0.1196966
112	0x3d825b81	0.06365109
113	0xbd1afcaa	-0.037838615
114	0x3dea6073	0.114441775
115	0x3e59552b	0.21223895
116	0xbdf8439a	-0.12122269
117	0xbe12696e	-0.1429803
118	0x3d7aa779	0.06119487
119	0xbd9b695e	-0.075884566
120	0x3e2b0a5a	0.16703168
121	0x3daba687	0.08381372
122	0xbcd38796	-0.025821488
123	0x3dd9c3c3	0.10633042
124	0xbdcaeaad	-0.09908042
125	0x3da73c81	0.08165837
126	0x3e542605	0.20717628
127	0x3df521a0	0.11969304
128	0xbe1dde43	-0.15416817
129	0x3e546525	0.20741709
130	0x3e8477ce	0.25872654
131	0x3e71879c	0.23586887
132	0x3d4bc17a	0.04974506
133	0xbc03f43d	-0.008053836
134	0x3d3e1599	0.046407316
135	0xbd482c53	-0.048870396
136	0xbe65309a	-0.22381821
137	0xbd390446	-0.04517009
138	0x3e96187a	0.2931555
139	0x3da6b486	0.08139901
140	0x3ddd10a4	0.107941896
141	0x3da9bd9c	0.08288118
142	0x3def1727	0.11674338
143	0xbdb095c0	-0.086223125
144	0x3e3a9ad1	0.1822312
145	0x3d9f9a01	0.07793046
146	0xbd9bc034	-0.07605019
147	0xbce51c21	-0.027967514
148	0xbde26844	-0.11055043
149	0xbdf5155d	-0.11966965
150	0xbd63d079	-0.055618737
151	0x3e8d94d8	0.2765262
152	0x3c9b5de4	0.018965669
153	0xbaffe363	-0.0019522723
154	0xbdab56b2	-0.08366145
155	0x3c9856f3	0.018596148
156	0xbd4f9b76	-0.05068537
157	0x3e82e3ce	0.25564426
158	0x3dafc8ca	0.08583219
159	0xbadfe851	-0.0017082785
160	0x3cd03e0b	0.02542021
161	0x3e0d1bb5	0.137801
162	0xbcb73bed	-0.022367442
163	0x3e77a95f	0.24185704
164	0xbd236b46	-0.039897226
165	0x3deabdef	0.11462008
166	0xbde2a36d	-0.11066327
167	0x3e830a28	0.25593686
168	0x3e2c6512	0.1683543
169	0x3c809d0c	0.015699886
170	0xbc36e319	-0.011162543
171	0x3d29f921	0.041497353
172	0xbe1c8452	-0.15284851
173	0xbe54478e	-0.20730421
174	0x3dde283e	0.10847519
175	0x3e584dcb	0.21123426
176	0x3cdb6b4e	0.026784565
177	0x3b09315d	0.0020933964
178	0x3d8888a7	0.06666689
179	0x3daadd7e	0.083430275
180	0xbdbabf0a	-0.09118469
181	0xbd5a42db	-0.053286415
182	0x3db69b20	0.089163065
183	0xbe171ecb	-0.1475784
184	0x3cf9fe53	0.030516779
185	0xbdd23784	-0.10264495
186	0x3de64891	0.1124431
187	0xbd830813	-0.063980244
188	0xbdd6f626	-0.10496168
189	0x3e58a32d	0.21155997
190	0x3e576420	0.21034288
191	0x3e1a44f9	0.15065373
192	0x3d63c97d	0.055612076
193	0xbc16b36f	-0.009198054
194	0x3d948c53	0.07253327
195	0x3e668450	0.2251141
196	0x3e299bcd	0.1656334
197	0x3e597cbc	0.21238989
198	0x3dbd92ed	0.092565395
199	0x3de658bb	0.11247393
200	0x3e68c306	0.22730646
201	0x3e281372	0.16413668
202	0xbe42c169	-0.19019093
203	0xbc172c52	-0.009226875
204	0xbdf1a5b1	-0.11799181
205	0xbd782980	-0.060586452
206	0x3dfa3e49	0.12218911
207	0xbc5e776b	-0.013578276
208	0xbeaf28ca	-0.34210807
209	0xbdc218ba	-0.094773725
210	0x3e62e98c	0.22159404
211	0x3d72cd5a	0.05927787
212	0x3cf163f3	0.029466605
213	0x3d654be9	0.055980597
214	0xbd029a18	-0.031885237
215	0xbdc698c0	-0.096971035
216	0x3d295966	0.041345023
217	0xbd15889e	-0.03650724
218	0xbe829f1b	-0.25512013
219	0xbe2a5f55	-0.16637929
220	0xbb2c6968	-0.0026307944
221	0x3dfd421d	0.12366126
222	0x3e5888e8	0.21145976
223	0xbd1b8bb2	-0.03797502
224	0x3e57ebc7	0.21086036
225	0xbb3e1145	-0.0029001993
226	0xbddb92bd	-0.107213475
227	0xbe053d23	-0.13011603
228	0xbd871040	-0.06594896
229	0xbe4a9fa6	-0.19787464
230	0x3d9e75ab	0.07737287
231	0x3c0effc3	0.0087279705
232	0xbe20e5bd	-0.15712638
233	0x3d7d687a	0.061867215
234	0xbe1ebd79	-0.15501966
235	0x3e8ec091	0.27881292
236	0x3e035c14	0.12828094
237	0x3dbb6e8f	0.09151947
238	0x3e63fd84	0.22264677
239	0xbe0fd0dd	-0.14044519
240	0x3e4a9b1d	0.19785734
241	0xbc2bf499	-0.010495328
242	0x3b5a57dd	0.003331653
243	0x3e74a64c	0.23891562
244	0xbb6056e3	-0.0034231476
245	0x3c28b6d8	0.0102975
246	0x3d8339da	0.06407519
247	0x3db1f82a	0.08689912
248	0x3e3b8669	0.18312992
249	0xbd59b434	-0.05315037
250	0xbd0dc315	-0.034609873
251	0x3d992165	0.074770726
252	0x3d2d43d7	0.042301025
253	0xbdc1ebc1	-0.094687946
254	0xbd1c1159	-0.03810248
255	0x3e47bb55	0.19505055

actor_mean.0.weight f4 [256, 256]
0	0xbdc3b3ac	-0.09555754
1	0xbceb6182	-0.028733019
2	0x3d68dd65	0.056851763
3	0xbd3ade66	-0.045622252
4	0x3d00e63a	0.03146956
5	0x3dce2ac0	0.10066748
6	0x3d1e8178	0.03869769
7	0x3d64ba60	0.055841804
8	0xbd9a02ee	-0.0752009
9	0x3ce80623	0.028323239
10	0xbda32590	-0.07966149
11	0x3b06bd43	0.0020559586
12	0x3dd21c30	0.102592826
13	0xbca17731	-0.019710155
14	0x3cde26b7	0.02711807
15	0x3cb23489	0.021753566
16	0xbdae079d	-0.08497546
17	0xbce23e5c	-0.027617626
18	0xbda45ba0	-0.080252886
19	0x3d63e3a8	0.05563703
20	0xbd6e7a10	-0.058221877
21	0xbd58e6b5	-0.052954394
22	0x3dc91686	0.09818749
23	0xbdfca16d	-0.12335477
24	0xbb14692f	-0.0022645702
25	0xbd90ea30	-0.07075918
26	0x3d2cf1fa	0.042222954
27	0x3c1b1030	0.009464309
28	0x3c780300	0.015137434
29	0xbdbacedc	-0.091214865
30	0x3c99b00b	0.018760702
31	0x3e0270ee	0.12738392
32	0x3d139898	0.036034197
33	0x3cad21b9	0.021134244
34	0x3d415a2f	0.047205146
35	0x3d46c829	0.04853073
36	0x3d77d2fd	0.06050395
37	0x3c868298	0.016419694
38	0xbd75d3b0	-0.060016334
39	0x3baf1343	0.0053428723
40	0x3d05518a	0.032548465
41	0x3daa5086	0.0831614
42	0x3c9e4a63	0.01932258
43	0x3d5675c0	0.05235839
44	0x3e0cc59e	0.1374726
45	0x3d976441	0.07392169
46	0x3e228c00	0.15873718
47	0xbd6f830b	-0.05847458
48	0xbc87ffcf	-0.016601471
49	0x3d900aad	0.07033286
50	0xbd9baa7c	-0.07600877
51	0x3d2b4a8c	0.04181914
52	0x3d5a009f	0.05322325
53	0xbe08ef27	-0.1337248
54	0xbc744810	-0.014909759
55	0x3e11f4a7	0.14253484
56	0x3db217cb	0.086959444
57	0xbceac71b	-0.028659394
58	0x3da9682d	0.08271823
59	0xbd125b52	-0.03573162
60	0x3e7b2e2e	0.24529335
61	0x3bac0257	0.0052493024
62	0xbcc2748d	-0.023737216
63	0x3cc65254	0.024209179
64	0x3d0144e8	0.031559855
65	0x3cb53993	0.02212218
66	0x3c862315	0.01637415
67	0x3d75c63d	0.060003508
68	0x3e0ba157	0.13635765
69	0x3d966a8a	0.073445395
70	0x3da8ae90	0.0823642
71	0x3b3e6550	0.0029052086
72	0xbd3486e8	-0.04407397
73	0x3a800768	0.0009767832
74	0xbdcdb950	-0.10045111
75	0x3d738ade	0.059458606
76	0x3db9b27b	0.090672456
77	0xbd480029	-0.048828278
78	0xbdc08dd8	-0.094020545
79	0xbd657dfe	-0.05602836
80	0xbb8b2e68	-0.0042474754
81	0xbd18192a	-0.037133373
82	0x3dc6be44	0.09704259
83	0xbe3e7d26	-0.18602428
84	0xbd8aca04	-0.06776813
85	0x3df52f25	0.11971883
86	0xbd8e7806	-0.069564864
87	0xbd27ccbe	-0.04096674
88	0x3d4f685c	0.050636634
89	0xbd5231fe	-0.051317208
90	0xbde330fd	-0.11093328
91	0xbe5107d9	-0.2041315
92	0xbdd74cdd	-0.105127074
93	0x3dc7630f	0.09735691
94	0x3c47a69e	0.012185721
95	0x3c9cc449	0.019136565
96	0x39f82f4b	0.00047337482
97	0x3da6aedc	0.081388205
98	0x3ac7d8b7	0.0015247081
99	0xbded1fd4	-0.11578336
100	0xbdf81009	-0.121124335
101	0x3d9db069	0.07699663
102	0xbba812fe	-0.005129217
103	0xbd88704b	-0.06662043
104	0xbd79391d	-0.060845483
105	0xbb5c5ce3	-0.00336247
106	0xbca7732d	-0.020440662
107	0x3d0e2c29	0.034710083
108	0xbe29c401	-0.16578676
109	0xbd94a979	-0.07258887
110	0x3dc39a0d	0.09550867
111	0x3e13ea99	0.1444496
112	0xbb84908a	-0.0040455507
113	0xbc8b6f76	-0.017020922
114	0x3d3c7317	0.046008196
115	0xbd8872d1	-0.066625245
116	0xbcf568f8	-0.02995728
117	0xbd12b2c9	-0.035815034
118	0xbe3d3a24	-0.1847921
119	0x3dc86483	0.09784796
120	0x3c69c99a	0.014269257
121	0x3d2f07df	0.042732116
122	0x3d9bc64d	0.07606182
123	0x3d409c53	0.047024082
124	0x3b1eb7e4	0.0024218494
125	0x3b8c5882	0.004283012
126	0x3de05152	0.109530106
127	0x3cc546c2	0.024081592
128	0xbb526745	-0.003210501
129	0xbda458f9	-0.08024783
130	0xbdd9b8e7	-0.106309704
131	0x3d306482	0.0430646
132	0xbc8e2e26	-0.01735599
133	0x3db2e316	0.087347195
134	0x3cf3e2fc	0.02977132
135	0x3da86d90	0.082240224
136	0x3dea977c	0.114546746
137	0x3dddc6e6	0.108289525
138	0xbd52134f	-0.051287945
139	0x3b11be0d	0.0022238523
140	0x3d5e268e	0.054235987
141	0x3da70ed4	0.08157125
142	0x3d613ab7	0.054987635
143	0xbe4a7461	-0.19770958
144	0xbcd32e3e	-0.025778886
145	0xbdb45d46	-0.08806853
146	0xbd93a135	-0.07208482
147	0x3dc47cf5	0.09594146
148	0xbc7198ee	-0.014745934
149	0x3e4cea90	0.20011353
150	0x3e24b003	0.16082768
151	0x3d89e367	0.06732827
152	0x3ce50d3f	0.027960418
153	0xbd9c257c	-0.07624337
154	0xbd175d54	-0.03695424
155	0x3d769dc2	0.060209043
156	0x3cd0ce80	0.025489092
157	0xbdd24aca	-0.10268171
158	0xbdb595cb	-0.08866461
159	0xbced8a20	-0.028996527
160	0x3df2bbe9	0.11852247
161	0x3d3c5988	0.04598382
162	0x3dbf1acd	0.09331284
163	0xbdfe49f1	-0.12416447
164	0x3df72892	0.12068285
165	0x3bd13c58	0.0063853674
166	0x3d120a81	0.03565455
167	0x3dfcf356	0.123511
168	0x3b38ef0d	0.0028218657
169	0xbd6d044a	-0.05786542
170	0xbcf8296a	-0.030293185
171	0x3dee87c2	0.116469875
172	0xbcae88c7	-0.021305455
173	0x3e41df4c	0.18932837
174	0x3d7677a1	0.06017268
175	0x3dff7e06	0.12475209
176	0x3e2f020c	0.17090625
177	0x3d4f8528	0.050664097
178	0xbd065b05	-0.032801647
179	0xbd66e3bc	-0.05636953
180	0x3a7e69d9	0.00097051036
181	0x3daf3399	0.08554763
182	0x3d80c83b	0.06288191
183	0xbd93acef	-0.07210719
184	0xbccca825	-0.024982521
185	0xbb98ba10	-0.0046608523
186	0xbd54313c	-0.051804766
187	0x3c3c2d5c	0.011485424
188	0xb9c1c4d5	-0.0003695848
189	0xbcf5f0b0	-0.030021995
190	0xbceddd6b	-0.029036244
191	0x3cd6a08c	0.026199602
192	0x3dc4b510	0.096048474
193	0xbda238c1	-0.07920981
194	0xbd386df2	-0.045026727
195	0xbcef3207	-0.02919866
196	0x3cc1565f	0.023600755
197	0xbda3774a	-0.07981737
198	0x3daaa84d	0.08332882
199	0x3c6874c5	0.014187996
200	0x3d860b03	0.06545069
201	0xbd809a51	-0.062794335
202	0x3d4ace6f	0.049513277
203	0xbd537740	-0.051627398
204	0xbd891e4a	-0.0669523
205	0x3dd2f5f8	0.10300821
206	0xbc5c48f3	-0.013445127
207	0xbe4ba230	-0.19886088
208	0xbd22cd99	-0.039746854
209	0xbd28b365	-0.04118671
210	0x3dfafc8f	0.12255203
211	0x3c7a59d0	0.015280202
212	0xbcec295a	-0.028828312
213	0xbd2f1224	-0.04274191
214	0x3dae5255	0.08511797
215	0x3c83d7c5	0.016094098
216	0x3da11201	0.07864762
217	0x3dd6d6f7	0.1049022
218	0xbbef05fc	-0.0072944146
219	0xbe19817e	-0.14990804
220	0x3cd5976f	0.026073186
221	0x3d043e7d	0.032286156
222	0xbcc805e7	-0.024416877
223	0xbc2aad38	-0.010417275
224	0x3c3624f0	0.011117205
225	0xbd51db34	-0.05123444
226	0xbc52f3b6	-0.012875488
227	0xbdc481d2	-0.09595074
228	0xbd5d3255	-0.05400308
229	0x3d710ca7	0.058849957
230	0xbca5c2b7	-0.020234449
231	0x3d5cf5f3	0.053945493
232	0x3dcd5b91	0.100272305
233	0x3c2f4544	0.010697667
234	0x3db892ba	0.09012361
235	0x3e200f5c	0.15630859
236	0x3dafa748	0.08576828
237	0xbc81cdfd	-0.015845293
238	0x3d6c9831	0.05776233
239	0xbdd64bb4	-0.10463658
240	0x3ca0cf0e	0.019629981
241	0xbdf9231d	-0.121649005
242	0xbc47e9d0	-0.012201741
243	0x3d18e604	0.037328735
244	0x3d128e92	0.035780497
245	0xbc1ff661	-0.009763331
246	0x3cdb691f	0.026783524
247	0x3e3bc233	0.183358
248	0xbd29d339	-0.041461203
249	0x3cd3b5ae	0.025843468
250	0x3e07ee79	0.13274564
251	0x3d75a8af	0.059975322
252	0xbc8b1374	-0.01697705
253	0x3d4ba989	0.04972223
254	0xbd37b503	-0.04485036
255	0xbdf8d262	-0.12149502

actor_mean.0.bias f4 [256]
0	0x3c84cc32	0.01621065
1	0xbd937c0a	-0.07201393
2	0x3ca14937	0.019688232
3	0x3cab3b35	0.020902256
4	0x3d6c8498	0.05774364
5	0x3ceef6e0	0.029170454
6	0x3c652aed	0.013987285
7	0xbc188825	-0.009309803
8	0x3d296c98	0.04136333
9	0x3d4c5b21	0.049891595
10	0x38bb7e3a	8.9403664e-05
11	0xbc4f1894	-0.012640137
12	0x3d20e319	0.039279077
13	0xbd06f4e7	-0.0329484
14	0xbcd4b643	-0.025965815
15	0x3c633d9f	0.013869672
16	0xbcbfa2d4	-0.023393072
17	0xbccee324	-0.025254793
18	0xbcab7b7e	-0.02093291
19	0xbcb8af22	-0.022544447
20	0xbb8c2eb7	-0.00427803
21	0xbce7e642	-0.028308038
22	0x3b2baaad	0.002619426
23	0x3d55da90	0.05221039
24	0x3cffd6e5	0.0312304
25	0x3c88ebc9	0.016713994
26	0x3c35296b	0.011057238
27	0xbd39e15d	-0.04538094
28	0x3cc7db42	0.024396542
29	0x3c487359	0.012234532
30	0x3bc106de	0.005890711
31	0xbd1314bc	-0.035908446
32	0xbd449db3	-0.048001956
33	0xbc5b5ea6	-0.013389265
34	0xbd8eb292	-0.06967653
35	0x3d24dc2c	0.040249035
36	0xbcdea90f	-0.027180223
37	0xbcf0f504	-0.029413708
38	0x3dc18dda	0.09450884
39	0xbd1acce2	-0.037793048
40	0x3c224880	0.009904981
41	0xbd16fc97	-0.036861982
42	0xbd017c9b	-0.031612974
43	0x3c678233	0.014130163
44	0x3d1916ed	0.03737538
45	0x3ce85557	0.028361006
46	0xba82017b	-0.0009918654
47	0x3bd3df65	0.0064658397
48	0xbd6ac0d0	-0.057312787
49	0xbd04df46	-0.032439493
50	0xbd0bbc41	-0.03411508
51	0x3d4f2ffb	0.050582867
52	0xbd589b1c	-0.0528823
53	0x3c871b4f	0.016492514
54	0xbc3605c0	-0.011109769
55	0xbd54adee	-0.051923685
56	0x39c65360	0.00037827622
57	0xbd3fa77b	-0.04679058
58	0xbd99b884	-0.07505897
59	0xbc116b69	-0.008875706
60	0x3d69d561	0.05708826
61	0x3d50e3da	0.050998546
62	0xbd1b542f	-0.03792208
63	0x3d049cf9	0.032376263
64	0xbc8e3d01	-0.017363073
65	0xbd1e7fec	-0.038696215
66	0xbd141a7d	-0.036158074
67	0x3d794f4b	0.060866635
68	0xbd7a30fc	-0.06108187
69	0x3cd19e3c	0.025588147
70	0xbd079815	-0.03310402
71	0xbd7b2d71	-0.061322633
72	0xbcc51517	-0.024057908
73	0x3ceb4aa5	0.028722117
74	0xbce64584	-0.02810932
75	0x3caf7694	0.021418847
76	0x3d6c5378	0.05769679
77	0x3c241fd4	0.010017354
78	0x3cedd397	0.029031558
79	0x3d43f5a0	0.047841668
80	0x3b62d3e1	0.0034611153
81	0xbd91b507	-0.07114606
82	0x3d79bad4	0.06096919
83	0xbd21e061	-0.039520625
84	0x3c0fc5d2	0.008775191
85	0x3c7f3dfa	0.015578741
86	0xbd180c93	-0.037121367
87	0xbcf41368	-0.02979441
88	0x3db97e1c	0.090572566
89	0x3c3bd01f	0.011463194
90	0x3ca18648	0.01971735
91	0x3c97e198	0.018540189
92	0x3c9b1140	0.018929124
93	0x3cccb99b	0.024990847
94	0xbb611277	-0.0034343281
95	0x3cb920f0	0.022598714
96	0xbd85af65	-0.065275945
97	0xbc886a31	-0.016652199
98	0xbcbc2355	-0.022966066
99	0x3ca03829	0.01955803
100	0x3d0642cb	0.032778542
101	0xbdbeae71	-0.09310616
102	0x3cb0a5e8	0.021563485
103	0xbd377fc8	-0.044799596
104	0xbc00f5d6	-0.007871112
105	0xbd35392a	-0.04424397
106	0xbd05f3a2	-0.03270305
107	0xbb83b3e1	-0.004019246
108	0xbb9352c0	-0.0044959486
109	0xbc915bf5	-0.017744044
110	0x3d0d5d3b	0.03451274
111	0xbccb54b1	-0.024820657
112	0xbcb897c4	-0.022533305
113	0x3d3c8866	0.046028517
114	0xbd0dc19a	-0.03460846
115	0xbcdfbcb2	-0.027311657
116	0xba512855	-0.0007978727
117	0xbc86ddb2	-0.016463134
118	0xbca93b81	-0.020658256
119	0x3d1046bf	0.03522372
120	0xbd00d4b7	-0.03145286
121	0xbd04c926	-0.032418393
122	0x3d589a9f	0.052881833
123	0x3d084145	0.03326537
124	0xbb947643	-0.0045306995
125	0x3caf6a13	0.021412885
126	0x3d182fb9	0.037154887
127	0x3cb160bc	0.021652572
128	0xbd00b207	-0.03141978
129	0xb9960336	-0.00028612622
130	0x3d6e8459	0.058231685
131	0x3d1230ad	0.035690952
132	0xbd3e94bb	-0.04652856
133	0x3cece908	0.028919712
134	0xbd1673f8	-0.03673169
135	0xbcd099a3	-0.025463885
136	0x3c4192b8	0.011814766
137	0x3d43ba14	0.04778488
138	0xbcd0d53e	-0.025492307
139	0xbd659327	-0.05604854
140	0xbcbe4f90	-0.023231298
141	0x3d7813af	0.060565647
142	0x3ce533d5	0.027978817
143	0x3bf47f0c	0.007461434
144	0x3bd44425	0.00647785
145	0x3d130f74	0.03590341
146	0xbcba8f24	-0.022773333
147	0x3cdfa74c	0.027301453
148	0xbd9b4e8a	-0.075833395
149	0x3d653391	0.05595738
150	0xbcf05590	-0.029337674
151	0xbd09b462	-0.033619292
152	0xbd807b5c	-0.06273529
153	0x3d0686c5	0.03284337
154	0xbc16d924	-0.009207044
155	0x3cdcb0f9	0.026939856
156	0x3d17f6bf	0.03710055
157	0x3a9e092e	0.0012057179
158	0x3d5ac3b4	0.053409293
159	0x3c22f1d7	0.009945354
160	0x3cc4542c	0.023965918
161	0x3d58785c	0.05284916
162	0xbd1d397e	-0.038384907
163	0xbd4e307c	-0.050339207
164	0xbce95eda	-0.028487612
165	0xbbf40f64	-0.007448124
166	0x3ca0a69d	0.019610697
167	0x380b3ced	3.3196924e-05
168	0xbd4fdb07	-0.05074599
169	0x3d50e406	0.05099871
170	0xbce313d7	-0.027719421
171	0x39d32ecd	0.00040279925
172	0xbd3a107c	-0.045425877
173	0xbd1be51c	-0.038060293
174	0x3d29bb00	0.041438103
175	0x3ccf57ff	0.025310514
176	0xbcd933f1	-0.026514025
177	0x3d3a0639	0.04541609
178	0x3d0c674c	0.0342782
179	0x3d8b2de9	0.06795866
180	0xbcf13369	-0.02944346
181	0xbd8371e5	-0.06418208
182	0x3cbf7681	0.023371937
183	0x3d1a0d8b	0.03761057
184	0x3c4ef852	0.012632446
185	0xbd39012f	-0.045167144
186	0xbd260f97	-0.04054221
187	0x3c484411	0.01222326
188	0x3d398ab3	0.04529829
189	0x3c84ba6d	0.016202176
190	0x3c776846	0.015100544
191	0xbab87e95	-0.001407581
192	0x3d668f2b	0.05628888
193	0x3d07ad3e	0.0331242
194	0x3c45e302	0.012078049
195	0xbd0fd025	-0.03511061
196	0xbbc5602c	-0.0060234275
197	0xbc314d2a	-0.01082162
198	0x3ba13a6b	0.004920294
199	0x3d845540	0.06461573
200	0x3ca0daef	0.019635646
201	0x3d8630a8	0.06552249
202	0x3ca100f8	0.019653782
203	0xbcdb03e3	-0.026735252
204	0xbd15e2e0	-0.036593318
205	0xbd3fd161	-0.04683054
206	0x3d307bcc	0.043086812
207	0x3cdd5aa9	0.02702077
208	0x3cc6812b	0.024231514
209	0xbce781a0	-0.028260052
210	0xbd208ac5	-0.03919484
211	0x3c8cd43b	0.017191043
212	0xbd249fb7	-0.04019138
213	0x3cdd2d40	0.026999116
214	0x3d8dce03	0.06924059
215	0xbc8c4d5d	-0.017126733
216	0x3d4ce7bf	0.050025698
217	0xbcb85eaa	-0.022506077
218	0x3ca01df1	0.019545527
219	0xbc432d8e	-0.011912717
220	0x3c38acb8	0.011271648
221	0xbbe2801a	-0.0069122436
222	0x3c1a7ad9	0.009428703
223	0x3d7273da	0.059192516
224	0xbcc95f31	-0.024581524
225	0x3d655fcb	0.05599956
226	0xbca2389f	-0.01980239
227	0x3cadf485	0.02123476
228	0x3d5b1efd	0.05349635
229	0xbcda30c6	-0.026634585
230	0x3d859c65	0.065239705
231	0xbdafb221	-0.08578897
232	0xbd6866f2	-0.0567388
233	0xbd2db0c8	-0.04240492
234	0x3d2ff315	0.04295643
235	0xbd376c6e	-0.04478114
236	0xbd3238bf	-0.04351115
237	0x3c839b3d	0.016065234
238	0xbd8c9875	-0.06865016
239	0x3ceb10fa	0.028694618
240	0x3d110f0a	0.035414733
241	0xbbc92d1d	-0.006139411
242	0xbca34a95	-0.019933024
243	0x3b916ecf	0.0044382582
244	0x3cc96574	0.02458451
245	0xbd66ffd4	-0.05639632
246	0x3c38b009	0.011272439
247	0x3d84c8c5	0.06483606
248	0xbd3fec22	-0.046856053
249	0x3d37c598	0.044866174
250	0x3d55ffb4	0.05224581
251	0xbd18ed07	-0.037335422
252	0x3d72fe66	0.059324645
253	0x3d44f7be	0.048087828
254	0x3bb9256f	0.0056502144
255	0xbcff6618	-0.031176612

actor_mean.2.weight f4 [4, 256]
0	0x3da7ee20	0.081997156
1	0xbe18f125	-0.1493574
2	0x3db0d8ad	0.086350776
3	0xbd56644e	-0.05234175
4	0x3e53f7e6	0.20700034
5	0x3e6c4a39	0.23075189
6	0x3ec323a1	0.3811312
7	0xbd9e2b37	-0.07723086
8	0xbe0d22b5	-0.13782771
9	0x3d28597e	0.04110097
10	0xbda89de0	-0.08233237
11	0xbe4df9f7	-0.20114885
12	0x3e7722f0	0.24134421
13	0x3c1d8e4d	0.009616447
14	0x3d2bfae3	0.04198731
15	0x3e61d390	0.22053361
16	0xbe44a02d	-0.19201727
17	0xbe3189a5	-0.17337663
18	0xbce46c5a	-0.027883697
19	0xbe00abfa	-0.12565604
20	0x3e1ae8a2	0.15127805
21	0xbc24bc9d	-0.010054735
22	0xbe163838	-0.14669883
23	0x3e143502	0.14473346
24	0x3dbe83c9	0.0930248
25	0x3d98b02b	0.074554764
26	0xbdbdb005	-0.09262089
27	0xbe2555b4	-0.16145974
28	0xbd3596f7	-0.044333424
29	0x3e133fef	0.14379857
30	0x3e61907f	0.22027777
31	0xbbc0bbe7	-0.0058817747
32	0x3dbe4c5b	0.092919074
33	0xbdf06cc4	-0.117394954
34	0x3d3bd9aa	0.045861878
35	0x3be2e040	0.0069237053
36	0xbd6ab6b4	-0.057303146
37	0x3df39e40	0.11895418
38	0x3e41dae4	0.18931156
39	0xbd7612f3	-0.060076665
40	0x3e75f6fc	0.24019998
41	0x3daa2691	0.08308137
42	0x3b8a9789	0.00422949
43	0xbd74758f	-0.059682425
44	0x3d75748b	0.059925597
45	0xbdb0bc24	-0.08629635
46	0x3db73357	0.08945339
47	0xbe4b2cfc	-0.19841379
48	0xbc953ee2	-0.018218461
49	0x3e39c141	0.18140127
50	0x3e5f1dfe	0.21788785
51	0xbe0f5b94	-0.13999778
52	0x3e46b3e5	0.19404562
53	0xbdeb1261	-0.11478115
54	0xbe20ee62	-0.15715936
55	0x3a5c242d	0.00083977246
56	0xbe20c7da	-0.15701237
57	0xbe3ee26a	-0.18641058
58	0x3de5d025	0.11221341
59	0x3dbaea1a	0.091266826
60	0xbdd02b1e	-0.10164474
61	0xbe23f23e	-0.16010377
62	0x3d7ab6ae	0.061209373
63	0xbd7b947b	-0.0614209
64	0x3e455251	0.19269682
65	0xbdbe13a9	-0.092810936
66	0x3bf2a247	0.007404599
67	0xbdde6f75	-0.108611025
68	0x3d4d0c03	0.050060283
69	0x3dda19e6	0.10649471
70	0xbd8112dd	-0.06302426
71	0xbe67acfe	-0.22624585
72	0xbd72c3c5	-0.05926873
73	0x3da0d8eb	0.07853874
74	0x3e80a6aa	0.25127155
75	0x3e53f83e	0.20700166
76	0x3dc76614	0.09736267
77	0x3e056663	0.13027339
78	0xbe192310	-0.14954782
79	0x3e44f3d7	0.19233643
80	0x3dc75750	0.097334504
81	0xbd031d25	-0.032010216
82	0x3e3ca7a1	0.1842332
83	0x3e05af59	0.13055171
84	0xbdaac8d3	-0.083390854
85	0x3e256ac6	0.16154012
86	0x3e90e402	0.28298956
87	0x3e90a7e1	0.2825308
88	0x3eaae9b2	0.3338142
89	0xbd804dde	-0.06264852
90	0x3e805616	0.25065678
91	0xbdd655ea	-0.104656056
92	0x3d131167	0.035905268
93	0xbd45641f	-0.048191186
94	0xbe03312c	-0.12811726
95	0x3e9167d2	0.2839952
96	0x3d606ddb	0.054792266
97	0x3e856514	0.2605368
98	0xbd5436d8	-0.051810116
99	0xbc8421f8	-0.016129479
100	0x3d922e19	0.07137699
101	0xbc91613e	-0.017746564
102	0xbd96cb59	-0.07363004
103	0x3c8aa03a	0.016922105
104	0xbd40d929	-0.0470821
105	0xbdfe461b	-0.12415715
106	0xbcd12395	-0.025529662
107	0x3b2555c0	0.0025228113
108	0x3d40b609	0.047048602
109	0x3d3ce01f	0.046112176
110	0x3db3ce78	0.08779615
111	0xb9447fa6	-0.0001873957
112	0x3c0a4d33	0.008441257
113	0x3caf55b8	0.021403179
114	0x3bfe6fe6	0.007764804
115	0xbcf57b77	-0.0299661
116	0xbe08e701	-0.13369371
117	0x3d770c7a	0.060314633
118	0xbd7e8c5d	-0.06214558
119	0x3e170c4f	0.14750789
120	0x3d472b69	0.048625384
121	0x3d491660	0.049093604
122	0xbdfd0bad	-0.123557426
123	0x3c330c4f	0.010928228
124	0xbe00941c	-0.12556499
125	0x3e2ca93c	0.16861433
126	0x3cde1707	0.02711059
127	0x3d2ee27e	0.04269647
128	0x3e1cc13a	0.15308085
129	0xbd74c5d0	-0.05975896
130	0xbc9e4286	-0.01931883
131	0xbdba4897	-0.09095877
132	0xbe1ddddf	-0.15416668
133	0x3e762bc6	0.24040136
134	0x3ba958d4	0.00516806
135	0x3e25844c	0.16163749
136	0x3dbe8b1b	0.09303876
137	0xbd8cc2bb	-0.068730794
138	0xbbdab299	-0.0066741225
139	0xbd6750a7	-0.0564734
140	0xbcf15d23	-0.029463356
141	0x3da24cde	0.079248175
142	0x3e89782f	0.26849505
143	0x3e6e4502	0.23268512
144	0x3e405fcc	0.18786544
145	0x3b9931de	0.004675134
146	0xbbde32ca	-0.006780957
147	0xbda890f9	-0.08230776
148	0xbdde6cf1	-0.10860623
149	0xbdaffa50	-0.08592665
150	0x3e696c61	0.2279525
151	0xbdd4985b	-0.10380622
152	0x3eaec907	0.34137747
153	0xbdf8afeb	-0.12142929
154	0xbe01ef02	-0.1268883
155	0xbe6b476e	-0.22976467
156	0x3deb42bb	0.11487337
157	0x3e7deefa	0.24798194
158	0x3c6c2266	0.014412498
159	0x3deac7fa	0.11463924
160	0xbdbb0ca2	-0.09133269
161	0xbd4d530c	-0.050128028
162	0xbdf8a10f	-0.121400945
163	0x3d0a14a7	0.0337111
164	0xbc4450d3	-0.011982161
165	0x3e8d3400	0.27578735
166	0xbd494e1d	-0.04914676
167	0xbd06423e	-0.032778017
168	0x3ac12c88	0.0014738003
169	0xbd760c97	-0.0600706
170	0xbdfee8ec	-0.1244677
171	0x3e8d87ac	0.27642572
172	0xbd08089e	-0.033211343
173	0xbcbc98cf	-0.023022084
174	0x3e815feb	0.25268492
175	0xbdcc5830	-0.09977758
176	0x3df5ee9b	0.12008401
177	0xbc213714	-0.009839792
178	0x3d8dd250	0.069248796
179	0xbb1f25db	-0.0024284038
180	0xbd3d45e0	-0.046209216
181	0x3e8f29c9	0.27961567
182	0x3e3fbad8	0.18723619
183	0x3e2f0a5b	0.17093794
184	0x3eb0c23c	0.3452319
185	0xbd238dee	-0.039930277
186	0xbe1ef217	-0.15522037
187	0xbc521302	-0.012821915
188	0x3e7e3acd	0.24827118
189	0xbe07e073	-0.13269214
190	0x3e4fdfa6	0.20300159
191	0xbd576f24	-0.052596226
192	0xbd3f70dd	-0.046738494
193	0xbd72b629	-0.059255753
194	0xbe051d85	-0.12999542
195	0x3dad8b33	0.08473816
196	0x3e65c787	0.22439395
197	0xbe12789f	-0.14303826
198	0x3ef8d23f	0.48597905
199	0xbde67be9	-0.11254103
200	0x3c4c82e5	0.01248238
201	0xbe280aae	-0.16410324
202	0x3dc34a1c	0.095356196
203	0xbd3a2b81	-0.045451645
204	0xbda0d914	-0.07853904
205	0xbdd22383	-0.102606796
206	0xbe514561	-0.20436622
207	0xbd2e9cd3	-0.042630028
208	0x3d9f41f0	0.077762485
209	0xbd351661	-0.044210795
210	0xbd4c14ad	-0.049824405
211	0x3e3af39a	0.18256989
212	0xbd822a4f	-0.06355726
213	0xbdd4e4a1	-0.1039517
214	0xbdd18540	-0.102304935
215	0xbdb0aff7	-0.08627313
216	0xbd5e58e9	-0.05428401
217	0x3d43643d	0.047703017
218	0xbd0bbe29	-0.034116898
219	0x3c700198	0.0146488175
220	0x3d772282	0.060335644
221	0x3cb60d38	0.0222231
222	0x3e22c303	0.15894704
223	0x3a92f98c	0.0011213287
224	0x3d98c070	0.074585795
225	0x3b8cbe14	0.00429512
226	0xbc389390	-0.01126565
227	0xbddeb5de	-0.10874532
228	0xbd4425ad	-0.047887493
229	0x3e8dbfcc	0.27685392
230	0xbdc73ba2	-0.09728171
231	0xbde7f03b	-0.11325117
232	0x3d78d4c6	0.06074979
233	0xbd385052	-0.044998474
234	0xbd4452f0	-0.047930658
235	0xbd03f0d3	-0.03221209
236	0x3d7cf3bf	0.061755892
237	0x3e03b4b7	0.12861906
238	0xbd9ddccd	-0.0770813
239	0xbd72fb6f	-0.059321817
240	0x3e26398c	0.1623289
241	0x3c87ccb8	0.01657711
242	0x3d246bae	0.040141754
243	0x3e07791a	0.1322979
244	0xbe2604e8	-0.16212809
245	0xbd854370	-0.06507003
246	0xbe1d1522	-0.15340093
247	0xbe35721a	-0.17719308
248	0x3ddd2298	0.10797614
249	0x3d3cae42	0.046064623
250	0x3c9fb538	0.019495592
251	0xbc6f2210	-0.0145955235
252	0x3e26ae0d	0.16277333
253	0x3e1504a3	0.1455255
254	0x3e23ae77	0.15984522
255	0x3da6b6fa	0.08140369

actor_mean.2.bias f4 [4]
0	0x3b98ba67	0.0046608928
1	0x3d6d3b75	0.05791803
2	0x3ce3759e	0.027766045
3	0x3d08763a	0.033315875

critic.0.weight f4 [256, 256]
0	0xbcc6e2ee	-0.02427813
1	0x3cc1e64e	0.023669388
2	0xbc81ad42	-0.015829686
3	0xbe45fab4	-0.19333917
4	0x3d144a5e	0.036203735
5	0xbcc744d3	-0.02432481
6	0x3df48e34	0.119411856
7	0x3e27e448	0.16395676
8	0xbe7a4ca4	-0.24443299
9	0x3cc23094	0.023704804
10	0xbdb76468	-0.08954698
11	0x3d264c0f	0.04059988
12	0x3d76b15e	0.060227744
13	0x3dcaa54e	0.098948106
14	0x3e094297	0.13404308
15	0x3e401466	0.18757781
16	0x3dac77a2	0.08421256
17	0x3ded7b92	0.11595835
18	0x3e6f30c7	0.23358451
19	0x3d9c9d1f	0.07647156
20	0xbc4f328e	-0.0126463305
21	0x3e1b32f8	0.15156162
22	0x3df2175b	0.11820861
23	0x3dba0efe	0.09084891
24	0x3def726a	0.116917446
25	0xbcd3fcc5	-0.025877366
26	0xbd5f5b42	-0.05453039
27	0x3dbc248d	0.09186659
28	0x3c3ccaef	0.0115229925
29	0x3a831862	0.0010001773
30	0x3c03a5bf	0.008035122
31	0x3df8ce4d	0.12148724
32	0xbe07982e	-0.13241646
33	0x3d3a5cf6	0.04549881
34	0xbe020718	-0.12698019
35	0x3dd4622d	0.10370288
36	0xbda7529b	-0.081700526
37	0xbc4e2165	-0.012581204
38	0xbe3428f7	-0.17593752
39	0xbd2da1c4	-0.0423906
40	0x3e269bc4	0.16270357
41	0x3dcc1996	0.09965818
42	0xbd22c63d	-0.039739836
43	0xbd9c44a3	-0.07630279
44	0x3d98e547	0.07465606
45	0x3e123658	0.14278543
46	0xbd80a922	-0.062822595
47	0x3d8b3b59	0.06798429
48	0xbc768c7e	-0.015048144
49	0xbc1dfea3	-0.00964323
50	0xbc254703	-0.010087731
51	0xbccc4869	-0.024936872
52	0xbe62bf9e	-0.22143409
53	0x3f653734	0.8953736
54	0xbc6a0638	-0.014283709
55	0xbdd423f2	-0.103584185
56	0x3d7fdb4f	0.06246501
57	0x3dd404d4	0.103524834
58	0xbd897d4c	-0.067133516
59	0x3c4883b0	0.012238428
60	0x3dabe0e9	0.083925076
61	0xbd271d50	-0.04079944
62	0x3d54d882	0.05196429
63	0xbc631cba	-0.013861829
64	0x3da29468	0.079384625
65	0xbdd63408	-0.10459143
66	0x3e543ed4	0.20727092
67	0xbd2385c0	-0.039922476
68	0x3d83e031	0.064392455
69	0xbb695fdc	-0.0035610115
70	0xbd5ddf6a	-0.054168142
71	0xbce88e5f	-0.0283882
72	0x3d8556fc	0.065107316
73	0x3d69a1d2	0.05703909
74	0x3e49fadc	0.19724602
75	0x3de5a97d	0.11213968
76	0xbbf5b4d3	-0.0074983626
77	0x3e678207	0.22608195
78	0xbe31eb28	-0.17374861
79	0xbd737538	-0.05943796
80	0x3d409c88	0.04702428
81	0x3edce09e	0.4314012
82	0xbe24a86f	-0.16079877
83	0xbe829685	-0.25505462
84	0x3c40f5e7	0.011777378
85	0x3d1ec8c0	0.03876567
86	0xbdb2ee2e	-0.087368354
87	0x3b8ac231	0.004234575
88	0xbe010b63	-0.12602
89	0x3d8c630a	0.06854828
90	0xbda86348	-0.082220614
91	0x3df1d777	0.11808675
92	0xbde85997	-0.11345213
93	0x3ea6999d	0.32539073
94	0x3cda9a73	0.026684975
95	0xbd8d9885	-0.069138564
96	0x3e97fadf	0.29683587
97	0xb97b10e4	-0.00023943518
98	0xbe497bd6	-0.19676146
99	0xbcad876b	-0.021182736
100	0x3e9cabed	0.3059992
101	0x3d936692	0.07197298
102	0x3d584e14	0.052808836
103	0x3dc91ca6	0.098199174
104	0x3de8937f	0.11356258
105	0x3dac980a	0.08427437
106	0x3dee53a4	0.11637047
107	0x3de464d6	0.111520454
108	0x3ca4db02	0.020123962
109	0x3d63a75c	0.05557953
110	0xbde1d616	-0.11027162
111	0xbcf2f7f1	-0.029659243
112	0x3e1004f8	0.14064395
113	0x3e63869c	0.22219318
114	0xbd831622	-0.06400706
115	0xbda3dbaa	-0.08000882
116	0x3ea33f0b	0.31884035
117	0x3e51a7ad	0.2047412
118	0x3c82beac	0.01596006
119	0x3d121d04	0.035672203
120	0x3d621fbd	0.05520605
121	0x3df92181	0.121645935
122	0x3ca036fc	0.019557469
123	0x3b8fc4c2	0.004387469
124	0x3d37e351	0.04489452
125	0x3e37d30a	0.17951599
126	0xbd7e2931	-0.062051002
127	0xbc9cd4f2	-0.019144509
128	0xbd7b1589	-0.061299834
129	0xbc947836	-0.018123727
130	0x3e48f57b	0.19624893
131	0x3cd77db6	0.02630506
132	0x3e45e9c0	0.1932745
133	0x3ca52f91	0.020164283
134	0x3eae7557	0.34073898
135	0x3e0579e5	0.1303478
136	0x3e567953	0.20944719
137	0x3ec620eb	0.3869699
138	0x3dbdc45e	0.0926597
139	0x3ddae5b1	0.106883414
140	0x3aa8ab5b	0.0012868451
141	0xbd19eaca	-0.037577428
142	0xbc3728c4	-0.011179153
143	0xbdb4d8bc	-0.08830401
144	0x3d66c453	0.056339573
145	0x3e1bf63c	0.1523065
146	0x3ec986a9	0.3936055
147	0x3db63967	0.088976674
148	0xbd182db5	-0.037152965
149	0x3d4d61d0	0.05014211
150	0x3cb8e6da	0.022571016
151	0x3d3bc7a7	0.0458447
152	0xbbb362d8	-0.0054744296
153	0x3e7241b8	0.23657882
154	0x3de4f7e1	0.11180092
155	0xbd819490	-0.06327164
156	0x3cca8eb1	0.024726244
157	0x3d395d7b	0.045255166
158	0x3d322548	0.043492585
159	0x3df7d0a5	0.12100343
160	0x3e1b4ab1	0.15165211
161	0x3caf8638	0.021426305
162	0xbe7d00f9	-0.24707402
163	0x3d11c87a	0.03559158
164	0xbb178047	-0.002311723
165	0x3d812928	0.06306678
166	0xbc6a6550	-0.014306381
167	0x3d92779c	0.0715172
168	0x3d5ce04b	0.05392484
169	0x3db5d004	0.088775665
170	0x3e0b533e	0.13605973
171	0xbd316275	-0.043306787
172	0x3e59c221	0.2126546
173	0xbc86d401	-0.016458513
174	0x3d8a97f2	0.067672625
175	0x3e4e8073	0.20166187
176	0xbdb179bd	-0.08665798
177	0xbca03832	-0.019558046
178	0x3d80c576	0.06287663
179	0x3e5cd763	0.21566539
180	0xbd1d4018	-0.038391203
181	0xbd98bb4e	-0.074576005
182	0x3d5bb9f3	0.053644132
183	0xbe564a94	-0.20926887
184	0xbca728a1	-0.020405116
185	0x3ebcd4ea	0.3688119
186	0x3e51c7c3	0.2048636
187	0x3d41adb0	0.047284782
188	0xbae9ecb7	-0.0017847036
189	0x3e559927	0.20859204
190	0xbd52c538	-0.051457614
191	0xbdec2b65	-0.11531714
192	0x3b6ea0ef	0.0036411842
193	0x3cddbd6e	0.027067866
194	0xbe4cd9c7	-0.2000495
195	0x3d70ff79	0.058837388
196	0xbcea02e2	-0.028565828
197	0xbd2fb8c2	-0.04290081
198	0xbb66579f	-0.003514744
199	0xbe5d4f38	-0.21612251
200	0x3d8fa10b	0.070131384
201	0x3d6adf6d	0.05734198
202	0xbe061496	-0.1309379
203	0xbd30531a	-0.043048
204	0xbb775580	-0.003774017
205	0x3e9f7ffa	0.31152326
206	0xbe70987f	-0.23495673
207	0xbda7bdee	-0.08190523
208	0x3de4b96e	0.111681804
209	0x3dd68d6b	0.10476192
210	0xbc51c840	-0.012804091
211	0x3d711cd5	0.058865387
212	0x3cb15af7	0.02164982
213	0xbcae55f6	-0.021281224
214	0x3d357189	0.04429773
215	0xbbb77aae	-0.0055993414
216	0xbddf3b46	-0.108999774
217	0x3e081470	0.13289046
218	0x3d268612	0.040655203
219	0x3d917e09	0.071041174
220	0xbdcd5845	-0.10026602
221	0xbd031cc4	-0.032009855
222	0xbdbc7b29	-0.092031784
223	0xbdd7ff51	-0.105467446
224	0xbdab1c35	-0.083549894
225	0xbd7e06c7	-0.062018182
226	0x3b9002df	0.0043948735
227	0xbe8c9cce	-0.27463382
228	0x3d34ad24	0.044110432
229	0xbd1b3734	-0.037894443
230	0x3dde5816	0.10856645
231	0x3f045d42	0.517048
232	0x3e1e94a2	0.15486386
233	0x3e14ee2a	0.14543977
234	0x3ce0d453	0.027444994
235	0xbe5e4bfe	-0.21708676
236	0x3ddb82a2	0.107182756
237	0xbdea0c5f	-0.11428141
238	0xbb547ddb	-0.0032423649
239	0x3e2758db	0.1634249
240	0xbd4dda53	-0.05025704
241	0xbd4cff7d	-0.05004834
242	0x383dc52e	4.524475e-05
243	0x3e39775c	0.18111938
244	0x3d2b631c	0.041842565
245	0xbc919bf2	-0.017774556
246	0x3dbb8454	0.09156099
247	0xbe19f59d	-0.150351
248	0x3dc19f7e	0.09454249
249	0xbe5daaee	-0.21647236
250	0xbdbcfdf3	-0.092281245
251	0x3b42c585	0.0029719782
252	0xbd6c0779	-0.057624314
253	0xbdb4fe6a	-0.08837588
254	0x3e3da47f	0.18519782
255	0xbc343e42	-0.011001172

critic.0.bias f4 [256]
0	0x3d48a984	0.048989788
1	0x3c26509f	0.0101510575
2	0x3d87e64f	0.06635725
3	0x3d9e4f22	0.07729937
4	0x3a7bb9bd	0.00096025673
5	0xbccbd279	-0.024880635
6	0x3ce52a0a	0.027974147
7	0x3c6ddfda	0.014518702
8	0x3cb54749	0.022128718
9	0x3d579b52	0.05263836
10	0xbd1d3388	-0.038379222
11	0x3cdd2ec8	0.026999846
12	0x3e1bc0bf	0.15210246
13	0x3dd92ba3	0.10604026
14	0x3dede6e8	0.116163075
15	0x3d74638c	0.059665248
16	0xbd778a45	-0.0604346
17	0x3dc3ac85	0.0955439
18	0xbc8b39d5	-0.01699535
19	0xbc24e2cb	-0.010063837
20	0x3e129562	0.14314798
21	0xbd5f1a10	-0.054468215
22	0x3ce79036	0.028267007
23	0x3d344c39	0.044018004
24	0x3cb0ce93	0.021582877
25	0x3d8f1f4d	0.06988392
26	0x3d887b97	0.06664198
27	0x3e06912c	0.13141316
28	0x3dc08ad4	0.09401479
29	0x3d9bb21e	0.076023325
30	0xbd1f7da6	-0.038938187
31	0x3d68e454	0.056858376
32	0x3e0375cc	0.12837905
33	0x3d35b09e	0.04435789
34	0x3da1bad8	0.07896966
35	0xbd13476c	-0.035956785
36	0x3dd578d6	0.10423438
37	0xbcc480f8	-0.023987278
38	0x3da1b431	0.07895697
39	0x3c23e18b	0.010002504
40	0x3a478e9f	0.00076125
41	0x3de022bc	0.10944125
42	0x3e0cc30b	0.13746278
43	0xbc88f675	-0.016719082
44	0x3cc34cdf	0.023840366
45	0x3c240d00	0.010012865
46	0xbd040a9c	-0.03223668
47	0xbcfd3e08	-0.030913368
48	0x3d860bcb	0.06545218
49	0xbc9272b5	-0.017876962
50	0x3ca78ecf	0.020453839
51	0x3a061b19	0.0005115732
52	0xbd1919be	-0.037378065
53	0xbc40e361	-0.011772961
54	0x3c85826c	0.016297542
55	0x3d8c01fa	0.068363145
56	0x3d87fb9c	0.066397876
57	0x3d2f3a15	0.04278
58	0x3d7ed5f0	0.062215745
59	0x3cc9df07	0.02464248
60	0xbd232e14	-0.039838865
61	0x3d87ddb8	0.06634086
62	0x3e076b1e	0.13224456
63	0x3d427e76	0.047483884
64	0x3df9eebe	0.122037396
65	0x3cd74f29	0.026282864
66	0x3d23cdab	0.039991062
67	0x3d8512e5	0.064977445
68	0xbd0e04fc	-0.034672722
69	0x3d9f5cc9	0.07781369
70	0x3d4e0d92	0.05030591
71	0x3de778d5	0.11302344
72	0x3c11937f	0.008885263
73	0x3d599caa	0.053127922
74	0x3c44ebe0	0.012019128
75	0x3cf6b214	0.030114211
76	0xbd576fc4	-0.052596822
77	0x3d4f1eb1	0.05056638
78	0xbddaca92	-0.106831685
79	0x3d7a8a7d	0.06116723
80	0x3d90adf1	0.07064427
81	0x3d926d8c	0.07149801
82	0x3d1a9def	0.037748273
83	0xbd9c0bb9	-0.076194234
84	0xbd0dc954	-0.03461583
85	0x3c0433d2	0.008068996
86	0x3d84b443	0.06479695
87	0xbd0a29db	-0.033731323
88	0x3d259fb7	0.04043552
89	0x3c48c132	0.012253093
90	0x3d45486b	0.048164766
91	0xbc4d24f6	-0.012521019
92	0x3d2a98ad	0.04164951
93	0xbd66c1bb	-0.0563371
94	0x3d8e85f6	0.06959145
95	0x3d3d4165	0.046204943
96	0xbd6c1596	-0.057637773
97	0x3ca8ae91	0.020591052
98	0x3d709ae3	0.05874146
99	0x3bcff52c	0.0063463654
100	0x3da3a2d8	0.07990044
101	0x3c9e294e	0.019306805
102	0x3cbec7f8	0.023288712
103	0x3d4df58f	0.05028301
104	0x3d4ccc19	0.04999933
105	0x3baa7726	0.005202192
106	0x3d8fddad	0.07024703
107	0x3da9d885	0.08293251
108	0x3ca2d68d	0.019877696
109	0x3d8e4c6d	0.06948171
110	0xbccb7278	-0.024834856
111	0x3d1ab39a	0.037768938
112	0x3d6c69a2	0.057717927
113	0xbd0162a6	-0.03158822
114	0x3e0782de	0.13233516
115	0xbcc425fa	-0.02394389
116	0x3d6e450e	0.058171324
117	0x3ccedae7	0.025250865
118	0x3d4d4f05	0.050124187
119	0xbc8fe095	-0.017563144
120	0x3c45b06f	0.012065991
121	0x3d63c8a9	0.055611286
122	0x3d00fd4c	0.031491563
123	0x3dab30bf	0.08358907
124	0x3dab3d6b	0.08361324
125	0xbd5402fa	-0.05176065
126	0x3d3765c7	0.044774797
127	0xbcf032e7	-0.029321147
128	0xbd226def	-0.039655622
129	0x3c1e6811	0.009668366
130	0x3d4a2547	0.049351957
131	0xbc168668	-0.009187318
132	0xbcc17459	-0.02361505
133	0xbc6e8658	-0.014558397
134	0x3de37d11	0.11107839
135	0x3d9d9c20	0.07695794
136	0x3c190d05	0.009341483
137	0x3c98ee6c	0.018668376
138	0x3da84f6b	0.08218273
139	0xbbb6169e	-0.0055568954
140	0x3d8286ae	0.06373344
141	0x3d0ae20e	0.03390699
142	0x3d433f6b	0.047667902
143	0x3dbc610e	0.09198199
144	0x3d2f90d1	0.042862717
145	0x3d0e098c	0.034677073
146	0x3d072d65	0.033002276
147	0x3e0f4c9d	0.1399407
148	0xbc74f2d6	-0.014950475
149	0x3c971282	0.018441442
150	0x3d8e6cd0	0.06954348
151	0x3b9067f3	0.004406923
152	0xbd2d1761	-0.042258624
153	0x3c204bb0	0.00978367
154	0xbd4c528f	-0.04988342
155	0x3d77bb69	0.060481463
156	0x3e081bba	0.13291827
157	0x3d745fb8	0.059661597
158	0xbcc70905	-0.024296293
159	0x3d6f23ec	0.058383867
160	0xbd0baf7c	-0.0341029
161	0x3cc72d22	0.024313513
162	0x3dc1e8ba	0.09468217
163	0x3d29b5f0	0.041433275
164	0xbce042e1	-0.02737564
165	0x3c1fa42a	0.00974373
166	0x3d9b3d44	0.07580045
167	0x3dd7d0d8	0.10537881
168	0x3d54131b	0.051776033
169	0x3ceefacf	0.02917233
170	0xbba9b430	-0.0051789507
171	0x3dfa469b	0.12220498
172	0x3df18d9b	0.11794587
173	0xbce90369	-0.028444009
174	0xbceaa369	-0.028642373
175	0xbd3afb65	-0.045649905
176	0x3c5cb193	0.013470071
177	0xbe1572a5	-0.14594515
178	0x3d08b006	0.033370994
179	0x3d1fec35	0.039043624
180	0x3d5ce46d	0.05392878
181	0x3dfaa6e7	0.12238865
182	0x3cb61442	0.022226457
183	0x3d830fc9	0.06399495
184	0x3e034e9d	0.12822957
185	0x3d66fcd0	0.056393445
186	0xbc2adf41	-0.010429204
187	0x3d832d0a	0.06405075
188	0x3d942593	0.07233729
189	0x3da3f7f9	0.080062814
190	0x3d8ee0d3	0.069764756
191	0x3c5fe601	0.013665677
192	0x3e0a721b	0.1352009
193	0xbd1facee	-0.038983278
194	0xbd2afdb3	-0.041745853
195	0xbcfaeb75	-0.030629853
196	0xbd046b87	-0.03232911
197	0xbbac6718	-0.005261313
198	0xbb874bad	-0.0041288943
199	0x3d1b5062	0.037918456
200	0x3ce0aedf	0.027427135
201	0x3d03b51d	0.032155145
202	0x3d906f6f	0.07052504
203	0x3cec7dfb	0.028868666
204	0xbcc63850	-0.024196774
205	0x3d9f85b1	0.077891715
206	0x3dca76f4	0.0988597
207	0x3da2fe69	0.07958681
208	0x3ddc7228	0.10763961
209	0x3d9614a8	0.073281586
210	0x3d6e3f59	0.05816588
211	0x3d920dac	0.07131514
212	0x3d33cfad	0.043899227
213	0x3d3f6818	0.04673013
214	0x3cda590b	0.026653787
215	0x3d1a993c	0.037743792
216	0x3d6e8f1f	0.05824196
217	0x3d009108	0.031388313
218	0xbcaadddd	-0.020857746
219	0xbd92ceab	-0.07168325
220	0xbc31eea5	-0.01086012
221	0x3d9d28a9	0.07673771
222	0x3e257d45	0.16161068
223	0x3d9027bf	0.07038831
224	0xbd167df6	-0.03674122
225	0x3dd686c9	0.10474927
226	0x3d8032c1	0.062596805
227	0x3e05c419	0.13063087
228	0xbd363c7e	-0.044491284
229	0xbd082c98	-0.033245653
230	0xbbced95e	-0.0063125333
231	0x3caa92db	0.02082198
232	0xbd8569f2	-0.06514348
233	0xbca57223	-0.020196026
234	0x3d6216e6	0.05519762
235	0x3d1b65a5	0.037938733
236	0xbb8b4de7	-0.00425123
237	0x3de97e94	0.11401096
238	0x3d7703b4	0.060306266
239	0x3da01d08	0.07818037
240	0x3d399629	0.04530922
241	0x3c16c7f9	0.009202951
242	0x3cef5c90	0.029218942
243	0x3e09d941	0.13461782
244	0x3ce3787c	0.027767412
245	0xbcf04725	-0.0293308
246	0xbcd1b9cb	-0.025601288
247	0x3cf8e58e	0.030382898
248	0x3cc48b4c	0.023992203
249	0xbd17a62e	-0.037023716
250	0x3ce59fbe	0.028030273
251	0x3cf79f38	0.030227289
252	0xbdb5f493	-0.088845395
253	0xbd1306e6	-0.03589525
254	0x3db15a73	0.0865983
255	0x3c96a848	0.01839079
