best_model_episode_350.pth (torch, 561686 bytes, 10 tensors)

actor_log_std f4 [4]
-1.2210073 -1.619914 -1.1230155 -1.2258096
00000000: f849 9cbf 5859 cfbf f9be 8fbf 54e7 9cbf

shared.0.weight f4 [256, 24]
0.048491087 0.5298878 -0.26516482 0.38100162 -0.18030539 0.2220437 -0.1373108 -0.0070720464
0.058640283 -0.16502494 0.010061826 0.19786471 0.27681974 0.08582518 0.092565626 -0.052440695
0.11729059 -0.019761404 -0.14940739 -0.000115315226 -0.14246164 -0.09502749 -0.14478016 0.14260896
-0.5027575 0.053465847 -0.46968275 -0.0885492 0.1626635 -0.461647 0.24692735 -0.25302944
0.080171466 -0.08222444 -0.13880809 0.038965836 -0.11562777 0.101179354 -0.022107936 -0.106480695
0.015860619 -0.09444354 0.041510437 0.13004889 0.054527003 -0.18172997 0.039300255 0.021878786
0.35392335 -0.25234395 0.24899179 -0.13796125 -0.2639814 0.06371649 -0.011792815 0.07314076
0.095203295 0.012148428 0.05494877 -0.050521005 0.047252495 -0.1349297 -0.016152892 -0.13988896
0.00073081977 -0.10191272 0.109195955 -0.18247694 -0.17640921 -0.116193935 0.24204534 0.1677569
0.078300856 -0.5243789 -0.010327109 -0.38447812 -0.18181825 0.08115236 0.20603345 0.026003616
-0.22710803 -0.34997094 0.18874641 0.08226575 0.09860361 0.06490113 0.14025155 -0.13245212
-0.07006616 0.10485878 0.095630884 0.01270706 0.19386405 0.21714422 -0.15203315 -0.14558627
0.4049246 -0.078689195 -0.026134634 -0.2892925 -0.18751216 0.044814803 -0.21847637 -0.15601495
-0.05298348 -0.11215386 -0.33241504 -0.25412577 -0.23719837 0.06618393 0.2481085 0.07999969
0.101914786 -0.15288544 -0.09490959 -0.023080494 0.08218946 -0.13130164 -0.036637314 -0.046917263
0.048587486 0.08047077 0.15830316 -0.08845642 -0.2175855 -0.22615679 0.023781607 -0.052058578
0.1346734 -0.06588375 0.1381829 0.033333424 -0.25284958 0.18070327 -0.046768267 -0.06729708
-0.15944839 -0.19557203 0.065280445 -0.038531356 0.08087867 -0.149284 0.20406419 -0.04394574
-0.041709773 -0.51259404 0.088471755 0.32350403 0.32717344 -0.12169886 -0.15561439 -0.09526189
0.047124762 -0.2932004 0.11039024 -0.33506986 0.043809116 0.104931034 0.043276038 -0.14182015
0.14714609 0.002224423 -0.022566095 -0.2436092 0.0084684 -0.12558565 -0.11781005 0.22613728
0.14317024 0.0106699765 -0.19788167 -0.16448632 0.17611416 -0.06760155 -0.091571346 -0.052728966
-0.15959454 0.013897367 0.08468664 -0.13049057 0.063617 0.09066804 -0.053099476 -0.16280684
0.016427176 0.017155558 -0.013792207 -0.1260672 -0.14436665 -0.06910192 -0.11483108 -0.060178768
0.26300287 1.2480925 -0.5166447 0.61575335 0.03899824 0.022908805 -0.14194742 0.0072450796
-0.0005463907 -0.082047224 0.045575343 -0.1551063 -0.0004655618 -0.3055138 -0.09050117 -0.1692792
-0.07051954 0.0563991 0.11953834 0.09482925 -0.1592256 -0.122572176 0.0028709352 0.2658638
0.051382538 -0.33614823 -0.19971341 -0.18608698 0.071950965 0.045902476 0.05314786 0.08114376
-0.2577277 0.012326683 0.13044491 0.005836975 -0.16861086 -0.05730896 -0.14414117 0.16932018
0.11367153 0.18973488 0.12841235 0.076271124 0.01944063 -0.16097304 -0.22773576 -0.17923081
0.35611802 0.24809784 -0.29452375 -0.36319435 0.10518119 -0.03128685 -0.014065663 -0.012621758
-0.071405046 0.016026195 -0.023662359 -0.1289111 -0.0038507015 -0.06381161 -0.09815576 -0.23484233
00000000: 979e 463d baa6 073f afc3 87be a512 c33e
00000010: faa1 38be 6c5f 633e 349b 0cbe a0bc e7bb
00000020: cb30 703d 4cfc 28be 5bda 243c 0c9d 4a3e
00000030: 51bb 8d3e 1dc5 af3d 0c93 bd3d 0ecc 56bd
00000040: 0d36 f03d abe2 a1bc 40fe 18be 64d5 f1b8
00000050: 77e1 11be c69d c2bd 4041 14be 1508 123e
00000060: b7b4 00bf 01ff 5a3d 427a f0be 4859 b5bd
00000070: 4391 263e ff5c ecbe 86da 7c3e 138d 81be
00000080: f030 a43d 4a65 a8bd b523 0ebe a49a 1f3d
00000090: 41ce ecbd 1f37 cf3d b41b b5bc 8d12 dabd
000000a0: 21ee 813c 9d6b c1bd d906 2a3d 892b 053e
000000b0: b557 5f3d 6c17 3abe 4ef9 203d 243b b33c
000000c0: 7135 b53e 3a33 81be b4f7 7e3e b745 0dbe
000000d0: 9228 87be cb7d 823d a736 41bc d3ca 953d
000000e0: f2f9 c23d 330a 473c f611 613d 1def 4ebd
000000f0: d58b 413d 032b 0abe 1253 84bc 0d3f 0fbe
00000100: 7c94 3f3a 9eb7 d0bd 21a2 df3d 3cdb 3abe
00000110: 9ea4 34be 16f7 edbd bcda 773e 77c8 2b3e
00000120: 335c a03d b23d 06bf 0933 29bc 51da c4be
00000130: 902e 3abe 3533 a63d 6ffa 523e 8905 d53c
00000140: 028f 68be 642f b3be bd46 413e f27a a83d
00000150: b1f0 c93d e2ea 843d 1a9e 0f3e 87a1 07be
00000160: d97e 8fbd 33c0 d63d 20da c33d 4631 503c
00000170: 4c84 463e 0e5b 5e3e 94ae 1bbe 9114 15be
00000180: 4752 cf3e cd27 a1bd 4d18 d6bc 261e 94be
00000190: 3003 40be ba8f 373d 45b8 5fbe 62c2 1fbe
000001a0: 3505 59bd ecb0 e5bd 4e32 aabe c61c 82be
000001b0: 21e4 72be 718b 873d 2810 7e3e e1d6 a33d
000001c0: b3b8 d03d 008e 1cbe f65f c2bd 4e13 bdbc
000001d0: f352 a83d f073 06be 0211 16bd 512c 40bd
000001e0: ac03 473d dccd a43d 391a 223e a428 b5bd
000001f0: bcce 5ebe a595 67be a5d1 c23c 603b 55bd
00000200: d3e7 093e 0fee 86bd d17f 0d3e a188 083d
00000210: 8075 81be 470a 393e 1590 3fbd 0dd3 89bd
00000220: 7046 23be 0944 48be c1b1 853d 0ed3 1dbd
00000230: b7a3 a53d e8dd 18be 34f6 503e 7300 34bd
00000240: ded7 2abd 5d39 03bf ae30 b53d 52a2 a53e
00000250: 4783 a73e 403d f9bd 6159 1fbe aa18 c3bd
00000260: e505 413d 5d1e 96be 4714 e23d 478e abbe
00000270: 3071 333d 15e6 d63d 3742 313d 4d39 11be
00000280: 77ad 163e a0c7 113b 88dc b8bc b174 79be
00000290: 0bbf 0a3c 8699 00be 6546 f1bd 8890 673e
000002a0: 389b 123e 20d1 2e3c 7ea1 4abe 1a6f 28be
000002b0: 4557 343e ae72 8abd c289 bbbd 54fa 57bd
000002c0: c06c 23be c8b1 633c 3070 ad3d 529f 05be
000002d0: a149 823d 2ab0 b93d d67e 59bd d6b6 26be
000002e0: 4992 863c d089 8c3c b6f8 61bc c317 01be
000002f0: dad4 13be 4f85 8dbd 8f2c ebbd 037e 76bd
00000300: 50a8 863e 7fc1 9f3f d442 04bf 03a2 1d3f
00000310: 9ebc 1f3d 3fab bb3c aa5a 11be 2268 ed3b
00000320: a93b 0fba 6008 a8bd 36ad 3a3d 30d4 1ebe
00000330: a616 f4b9 4e6c 9cbe ad58 b9bd 8757 2dbe
00000340: 8c6c 90bd be02 673d 84d0 f43d d635 c23d
00000350: 090c 23be 1f07 fbbd 4d26 3c3b 4d1f 883e
00000360: 7f76 523d 9f1b acbe ac81 4cbe 968d 3ebe
00000370: 075b 933d 3c04 3c3d 92b1 593d b32e a63d
00000380: e3f4 83be dbf5 493c 5a93 053e 1844 bf3b
00000390: 53a8 2cbe cdbc 6abd be99 13be 4562 2d3e
000003a0: 9ecc e83d dc49 423e 877e 033e 0934 9c3d
000003b0: f541 9f3c 1ed6 24be 9033 69be 4888 37be
000003c0: 1a55 b63e 5c0d 7e3e d1cb 96be 9cf4 b9be
000003d0: 3c69 d73d a426 00bd ab73 66bc 7dcb 4ebc
000003e0: cf3c 92bd 5e49 833c 90d7 c1bc 4501 04be
000003f0: 0d5c 7cbb a9af 82bd e305 c9bd 827a 70be

shared.0.bias f4 [256]
-0.14245823 0.046638127 0.029353568 0.14161888 -0.12536407 0.10204992 0.14882277 0.036459424
0.028120736 0.24492855 -0.120126605 0.35163325 0.14221099 0.18518119 0.26009196 0.13481434
0.16195178 0.060960118 -0.26870915 0.17658648 0.20335396 0.09578679 -0.0051705977 -0.037716884
0.15776847 0.14564683 -0.027378023 0.27342463 0.07657155 0.10623405 0.23776923 0.07307052
-0.020329941 0.12969688 0.15455791 0.12461846 -0.026368214 0.17469081 -0.097064465 0.13929252
-0.16027582 0.2106651 0.26713288 -0.07360969 -0.03394551 -0.007331199 0.007439444 0.32119006
-0.04285833 -0.10787437 -0.07547443 0.023415564 -0.07318812 -0.07052008 0.2942487 0.19986981
0.108857095 0.18485148 -0.028239595 0.082492344 -0.2154325 0.1968111 -0.023133485 0.019406425
-0.048010375 -0.0069642304 -0.17493887 -0.12725657 -0.17487502 -0.17862661 -0.011406227 -0.10722884
0.17214762 0.15427192 -0.13151485 -0.1711893 -0.14174892 0.1102351 0.31802386 0.0836039
0.1751941 0.09577911 -0.11862683 0.028900977 -0.21033703 0.0939407 0.07388373 0.24459256
-0.04882098 -0.07565877 0.12825853 0.09297623 0.009651903 -0.20507038 0.2481099 -0.13475196
-0.009859438 0.12794998 0.025668185 0.030298168 -0.09633913 0.27160797 0.10942556 0.22837032
0.11362931 -0.1300164 -0.04814572 0.20466268 -0.13086368 -0.0027248657 0.31912002 -0.13681594
0.07790616 0.0148549825 0.0896477 0.11754843 -0.110786825 -0.12769708 0.23636292 -0.059737626
0.23011167 0.13430548 -0.060773905 0.019144839 0.028918259 0.15803117 0.19098994 0.09710146
-0.023181414 0.23477651 0.34962028 0.3062565 0.053744026 0.08303488 0.0132208215 0.0073881336
-0.1224958 0.014457848 0.16272542 0.13547657 0.13362719 0.15198867 0.18103358 -0.104368575
0.27769077 0.10418785 0.053157754 0.016274478 -0.07090117 -0.2454556 0.029451462 0.23035043
0.03438631 0.13188913 -0.07971963 -0.11754429 -0.046249203 0.14278422 0.12765482 -0.008773494
0.16513854 0.0785299 -0.013162433 0.24450667 -0.073429644 0.22160049 0.030195203 0.27712554
0.15370421 0.15397061 0.03354505 -0.046343356 -0.017416747 -0.16701183 0.19677511 0.2813553
0.12866998 -0.066964805 0.08789208 0.07886336 -0.16185454 -0.0881586 0.12545328 -0.11852916
0.07095384 0.0073841335 0.17465313 0.052501854 0.01028508 0.22878708 0.38479903 0.17521966
0.11939878 0.0366415 0.25968248 0.2345519 0.11787427 0.20512977 0.03570204 0.21703702
0.13663656 0.19163358 -0.06196776 -0.061931975 -0.16569512 0.008383287 0.07737647 0.08076506
-0.15475927 -0.062261738 0.2732766 -0.0027677338 0.022481777 0.13833034 -0.045184378 -0.028080167
0.010220462 0.05970614 -0.15897305 -0.09728867 0.023358999 0.021080753 0.24070813 0.09162536
0.24253844 0.23504815 -0.18828663 -0.061017476 -0.008828958 -0.100688614 0.08285215 0.13667992
-0.20818977 0.04763733 -0.18478025 0.3525671 0.121816926 0.031593136 0.22457613 0.03355483
0.24764374 0.008888682 0.02805892 0.16423184 0.09983436 0.050677974 0.076196626 0.040499162
0.24867135 0.053078104 -0.022214718 0.16106395 -0.017040456 -0.14705709 0.13365114 0.27313033
00000000: 92e0 11be 9f07 3f3d e576 f03c 8a04 113e
00000010: 705f 00be 8cff d03d ff64 183e 7a56 153d
00000020: 755d e63c 8dce 7a3e f004 f6bd 4609 b43e
00000030: c29f 113e 23a0 3d3e c62a 853e c50c 0a3e
00000040: b0d6 253e 51b1 793d 3f94 89be 16d3 343e
00000050: 053c 503e dd2b c43d 1e6e a9bb 057d 1abd
00000060: 0f8e 213e 7124 153e e047 e0bc 50fe 8b3e
00000070: 8bd1 9c3d 3d91 d93d c779 733e ffa5 953d
00000080: fa8a a6bc 42cf 043e 6e44 1e3e f737 ff3d
00000090: 2702 d8bc 26e2 323e bcc9 c6bd b3a2 0e3e
000000a0: 581f 24be 98b8 573e a4c5 883e adc0 96bd
000000b0: 720a 0bbd 8e3a f0bb 94c6 f33b 0673 a43e
000000c0: 378c 2fbd 3ded dcbd 5792 9abd ffd1 bf3c
000000d0: a7e3 95bd d56c 90bd c4a7 963e acaa 4c3e
000000e0: 78f0 de3d b549 3d3e b956 e7bc bff1 a83d
000000f0: 569a 5cbe d988 493e 6f82 bdbc 39fa 9e3c
00000100: 87a6 44bd 3334 e4bb 2d23 33be 8c4f 02be
00000110: 7012 33be e5e9 36be 2fe1 3abc cb9a dbbd
00000120: 7747 303e 75f9 1d3e d4ab 06be 3f4c 2fbe
00000130: a126 11be f1c2 e13d 06d4 a23e 8638 ab3d
00000140: 1566 333e d727 c43d a0f2 f2bd bec1 ec3c
00000150: 9762 57be fb63 c03d 5a50 973d 7976 7a3e
00000160: 82f8 47bd fcf2 9abd 3456 033e 526a be3d
00000170: 0423 1e3c f8fd 51be 8610 7e3e 6bfc 09be
00000180: 7b89 21bc 5205 033e 1646 d23c dd33 f83c
00000190: 734d c5bd 3310 8b3e 821a e03d e9d9 693e
000001a0: 7cb6 e83d 0523 05be 7234 45bd 1893 513e
000001b0: 2101 06be a993 32bb b363 a33e 7a19 0cbe
000001c0: 448d 9f3d 5062 733c 3799 b73d 3bbd f03d
000001d0: 34e4 e2bd 06c3 02be 1f09 723e 71af 74bd
000001e0: 65a2 6b3e 6087 093e 0fee 78bd a3d5 9c3c
000001f0: fce5 ec3c ecd2 213e de92 433e 21dd c63d
00000200: f3e6 bdbc 4169 703e 6e01 b33e a7cd 9c3e
00000210: b222 5c3d 310e aa3d 259c 583c 2818 f23b
00000220: 14df fabd 9ce0 6c3c 7ea1 263e 5fba 0a3e
00000230: 91d5 083e eba2 1b3e de60 393e 31bf d5bd
00000240: 7c2d 8e3e 7160 d53d f2bb 593d 0e52 853c
00000250: a234 91bd b658 7bbe 3144 f13c fce0 6b3e
00000260: a9d8 0c3d f20d 073e 0c44 a3bd 10bb f0bd
00000270: ce6f 3dbd 0736 123e f2b7 023e b3be 0fbc
00000280: 141a 293e 49d4 a03d 3fa7 57bc f55f 7a3e
00000290: 4862 96bd 3deb 623e ee5b f73c 66e3 8d3e
000002a0: a364 1d3e 79aa 1d3e 8966 093d 88d2 3dbd
000002b0: 91ad 8ebc 2605 2bbe 6a7f 493e cd0d 903e
000002c0: 10c2 033e d824 89bd c300 b43d 1d83 a13d
000002d0: 32bd 25be 7f8c b4bd d376 003e 6bbf f2bd
000002e0: 3f50 913d 9af6 f13b 45d8 323e 2f0c 573d
000002f0: c182 283c 2947 6a3e 6104 c53e c86c 333e
00000300: 5987 f43d 6615 163d 1af5 843e 602e 703e
00000310: 1168 f13d 8a0d 523e 4d3c 123d f43e 5e3e
00000320: 74ea 0b3e 983b 443e e8d1 7dbd 62ac 7dbd
00000330: fbab 29be 0e5a 093c 8e77 9e3d 2768 a53d
00000340: 3779 1ebe 2a06 7fbd e9ea 8b3e de62 35bb
00000350: b42b b83c 78a6 0d3e 4113 39bd 6108 e6bc
00000360: ba73 273c 6d8e 743d d5c9 22be 483f c7bd
00000370: 5f5b bf3c 8bb1 ac3c 317c 763e 14a6 bb3d
00000380: ff5b 783e 76b0 703e 36ce 40be 76ed 79bd
00000390: 55a7 10bc d535 cebd 63ae a93d d2f5 0b3e
000003a0: b32f 55be 5c1f 433d 0937 3dbe ad83 b43e
000003b0: 277b f93d ce67 013d 49f7 653e ca70 093d
000003c0: 5296 7d3e d6a1 113c d2db e53c 642c 283e
000003d0: f575 cc3d b593 4f3d fa0c 9c3d 73e2 253d
000003e0: b4a3 7e3e 6d68 593d a4fb b5bc f3ed 243e
000003f0: 6d98 8bbc 2296 16be d8db 083e bdd7 8b3e

actor_mean.0.weight f4 [256, 256]
-0.005662687 -0.061181292 0.03694234 -0.044254806 0.018312978 -0.006949048 0.042899974 -0.014821168
-0.05855508 -0.07280799 -0.015289068 -0.049872283 0.033555515 -0.031072268 -0.041285552 -0.09497025
-0.076781616 -0.044479106 -0.10546998 -0.0196728 -0.06104896 -0.018658193 -0.040445372 -0.07702582
0.056177028 0.030812189 -0.0021005576 -0.0058482187 0.02109644 -0.056508724 -0.09637281 0.042006902
-0.12523489 0.023148978 0.004545021 0.037655875 0.06607197 -0.085300155 0.02028969 -0.103026494
0.0023602708 0.047851607 -0.04120422 0.022716904 -0.035233438 -0.029080136 0.0034553031 -0.07795938
-0.021895159 -0.001528813 -0.041332673 0.065212026 0.060355138 -0.073334366 0.0057093077 0.003677921
0.040887408 -0.044090215 0.058417074 -0.06906912 0.06855361 -0.069505565 -0.018074844 0.010071309
-0.010790453 -0.04451583 0.028434003 -0.062359843 -0.047494005 0.009379978 0.060537905 0.03562033
-0.05593137 0.012201697 0.023838712 -0.019001223 0.03895852 -0.02030359 -0.061611585 -0.02208694
-0.038668837 0.029710356 0.042992886 -0.038736682 -0.00921208 0.058640372 -0.031056268 -0.049830228
0.014892932 0.05364672 0.014143606 -0.078655586 -0.055068336 0.03981512 -0.011092367 0.007170965
-0.012364584 -0.06510745 -0.017189922 0.05086781 -0.03823772 0.02141543 -0.017305063 -0.074322484
-0.053547904 0.009764435 -0.09263383 0.026241755 -0.02012208 0.0074068056 0.0047005853 0.07615832
-0.05289744 -0.07424398 0.028770598 -0.033228032 -0.021650858 0.028564356 -0.025270307 -0.01238168
-0.08950447 0.016648123 0.03553603 -0.033663813 -0.073354825 0.028222676 0.014255312 -0.005051184
0.0069555463 -0.061059736 0.036891673 -0.013626214 -0.011727162 -0.024201673 -0.04598073 0.0047052037
0.03846431 0.037404947 -0.036453772 0.053495232 0.014734184 0.015846705 0.032107078 -0.032087598
-0.044392366 -0.003014746 -0.092892975 0.016791241 -0.10007287 -0.062650494 -0.004721072 0.0005278088
0.031624164 -0.049639583 -0.053905904 -0.008926831 -0.059504587 -0.060659334 0.0065599284 -0.052154396
-0.029784702 0.0148795275 0.053170633 -0.060937066 0.02777321 -0.014049729 0.09266425 0.06304365
-0.03797667 -0.017075185 -0.0593543 0.019198531 -0.07511431 0.1105861 -0.021215942 0.049484923
0.03143942 0.047282103 -0.0793107 -0.07646463 -0.08064985 -0.0299563 0.038020417 0.021580346
0.037119392 -0.00073430495 0.004500383 -0.05868298 0.04282731 -0.08296942 -0.070659846 0.016601214
0.035491716 -0.045912918 0.027564982 -0.028683338 -0.06998099 -0.035945978 -0.024265539 -0.056870047
0.04267446 -0.040871978 -0.04828198 -0.026973695 -0.01159556 0.034043733 -0.045112018 -0.033577748
-0.0069975066 0.045722608 0.011382835 -0.023451157 -0.032273445 0.007475252 0.014205108 0.014025307
0.04060331 0.029173398 0.0020459571 0.0068006874 -0.051980663 -0.043865647 -0.07957486 -0.00080853107
-0.05026046 0.12017078 -0.068516545 -0.061582662 0.022515839 0.015078406 -0.05113566 -0.024846213
0.0058162105 -0.010955415 -0.027187435 -0.000755467 -0.016283298 -0.018703736 0.02475916 -0.033892877
-0.03863415 -0.004495709 -0.06549059 0.019892387 -0.05909347 -0.0651898 -0.0061591063 -0.057225805
-0.040791553 0.025513632 -0.012142645 -0.034259826 0.009502441 -0.07812575 0.0030187308 -0.09539332
00000000: 108e b9bb 3c99 7abd da50 173d 8744 35bd
00000010: 1905 963c d7b4 e3bb e2b7 2f3d 7cd4 72bc
00000020: 74d7 6fbd 5b1c 95bd 007f 7abc e146 4cbd
00000030: 8271 093d 458b febc 0a1b 29bd c37f c2bd
00000040: ae3f 9dbd b92f 36bd a500 d8bd da28 a1bc
00000050: 790e 7abd 11d9 98bc 0caa 25bd b7bf 9dbd
00000060: e219 663d d869 fc3c 82a9 09bb 6aa2 bfbb
00000070: 71d2 ac3c b175 67bd 1c5f c5bd 6e0f 2c3d
00000080: 933d 00be eda2 bd3c 66ee 943b 0c3d 1a3d
00000090: be50 873d d9b1 aebd 9036 a63c 8eff d2bd
000000a0: c6ae 1a3b 0c00 443d c2c5 28bd cd18 ba3c
000000b0: f050 10bd 7739 eebc 5e72 623b 2ba9 9fbd
000000c0: 7a5d b3bc 7462 c8ba 734c 29bd e28d 853d
000000d0: f336 773d 5430 96bd 2515 bb3b 4609 713b
000000e0: 8e79 273d f197 34bd be46 6f3d 1c74 8dbd
000000f0: d665 8c3d ef58 8ebd b211 94bc 2202 253c
00000100: 71ca 30bc 3b56 36bd 6dee e83c 096d 7fbd
00000110: 1389 42bd 7bae 193c 98f6 773d a0e6 113d
00000120: 4b18 65bd a0e9 473c 6749 c33c 74a8 9bbc
00000130: f892 1f3d b753 a6bc 6e5c 7cbd acef b4bc
00000140: 3763 1ebd 2263 f33c 4f19 303d 5baa 1ebd
00000150: 44ee 16bc e330 703d b769 febc c81a 4cbd
00000160: 7c01 743c aabc 5b3d 95ba 673c 2e16 a1bd
00000170: 568f 61bd 2e15 233d c2bc 35bc 6afa ea3b
00000180: d394 4abc 0e57 85bd e1d1 8cbc c45a 503d
00000190: 289f 1cbd 696f af3c 59c3 8dbc 6336 98bd
000001a0: 0c55 5bbd 02fb 1f3c ceb6 bdbd f3f8 d63c
000001b0: 0fd7 a4bc cab4 f23b 5e07 9a3b e5f8 9b3d
000001c0: fcaa 58bd 3a0d 98bd 51b0 eb3c 1e1a 08bd
000001d0: 245d b1bc ccff e93c ad03 cfbc 88dc 4abc
000001e0: 1f4e b7bd a561 883c 3a8e 113d 11e3 09bd
000001f0: 0e3b 96bd 3e33 e73c 1d8f 693c 6784 a5bb
00000200: 5aeb e33b c619 7abd b91b 173d 7c40 5fbc
00000210: 4823 40bc 9642 c6bc 4a56 3cbd 1c2e 9a3b
00000220: c18c 1d3d ee35 193d 8d50 15bd d11d 5b3d
00000230: a667 713c f3d0 813c b682 033d 496e 03bd
00000240: c5d4 35bd 0b93 45bb ac3e bebd c98d 893c
00000250: 01f3 ccbd e74e 80bd 39b3 9abb a65c 0a3a
00000260: 5788 013d e052 4bbd 70cc 5cbd d841 12bc
00000270: 15bb 73bd ec75 78bd abf4 d63b d99f 55bd
00000280: 0cff f3bc 43c9 733c 73c9 593d 2599 79bd
00000290: a584 e33c d630 66bc c1c6 bd3d 071d 813d
000002a0: 6d8d 1bbd 42e1 8bbc 7f1d 73bd 3d46 9d3c
000002b0: 88d5 99bd f77a e23d 0ecd adbc b4b0 4a3d
000002c0: 9fc6 003d e1aa 413d a66d a2bd 7d99 9cbd
000002d0: c02b a5bd ea66 f5bc 4cbb 1b3d 44c9 b03c
000002e0: 810a 183d 5f7e 40ba f377 933b 905d 70bd
000002f0: b06b 2f3d dfeb a9bd 1cb6 90bd 45ff 873c
00000300: c35f 113d 2f0f 3cbd f5cf e13c 52f9 eabc
00000310: 3152 8fbd 173c 13bd 86c8 c6bc 91f0 68bd
00000320: 6acb 2e3d 6069 27bd 53c3 45bd f0f7 dcbc
00000330: 4efb 3dbc 7171 0b3d 61c7 38bd d288 09bd
00000340: 574b e5bb a147 3b3d 127f 3a3c a41c c0bc
00000350: 2931 04bd f5f2 f43b 8bbc 683c 67ca 653c
00000360: a84f 263d 0dfd ee3c 7715 063b 4dd8 de3b
00000370: ade9 54bd 77ac 33bd 25f8 a2bd 9af3 53ba
00000380: e9dd 4dbd 191c f63d 6752 8cbd 1a3e 7cbd
00000390: 2373 b83c 6b0b 773c a073 51bd 498a cbbc
000003a0: e995 be3b 577e 33bc 2fb8 debc 880a 46ba
000003b0: 8d64 85bc 9438 99bc b9d3 ca3c 42d3 0abd
000003c0: d83e 1ebd be50 93bb ee1f 86bd 5cf5 a23c
000003d0: ff0b 72bd 3b82 85bd 54d2 c9bb 9b65 6abd
000003e0: 0b15 27bd f701 d13c f2f1 46bc 0854 0cbd
000003f0: 20b0 1b3c 6500 a0bd e6d5 453b 935d c3bd

actor_mean.0.bias f4 [256]
-0.016613986 -0.08478453 -0.02915761 0.06281139 0.028700108 -0.010803921 -0.037097946 -0.090517074
0.012972312 0.015556105 -0.03282201 -0.0380882 0.07025414 -0.07270648 -0.07281585 -0.0062988796
-0.026016964 -0.04231704 -0.044194587 -0.09330244 -0.064374104 -0.07735255 0.025914483 -0.012133357
-0.047537077 -0.0031644546 -0.008399989 -0.10021062 -0.052698534 -0.037261613 -0.02039083 -0.045842137
-0.11126201 -0.05259465 -0.07382115 0.021149537 -0.032317594 -0.016051432 0.122827776 -0.020859908
-0.005857584 -0.07101514 -0.021692786 0.018942006 0.05707026 0.006093666 -0.07180408 -0.0006934479
-0.060421657 -0.041916046 -0.072322115 0.040441032 -0.05356102 0.0010181259 0.0017220137 -0.064491354
-0.0002582985 -0.07814835 -0.062212408 -0.016105607 0.019599713 0.021213027 -0.055646073 -0.0019672206
-0.005033704 -0.050425895 -0.036660466 0.042951677 -0.059208404 -0.033228036 -0.05539397 -0.09994135
-0.040934775 0.03365628 -0.0315696 -0.013643651 0.00035183044 -0.077676974 -0.010418589 0.0046115685
-0.046967767 -0.08892726 0.02100665 -0.08945342 -0.035175856 0.051419113 -0.063334934 -0.0842242
0.034061544 -0.05641747 0.002884269 0.04142874 -0.02395427 0.019785708 -0.02408741 0.047107328
-0.057281777 0.00940049 -0.05049643 -0.0025169023 0.011292846 -0.06848557 0.032957952 -0.039080728
-0.05196662 -0.083511874 -0.054499906 -0.041176986 -0.013801023 -0.02312139 0.007845836 -0.027175372
-0.0105030425 0.05243401 -0.099032365 -0.039528888 -0.0019878757 0.005007321 -0.04951623 0.055964943
-0.044608366 -0.049424324 -0.016524937 0.05797667 -0.04703998 -0.010768517 -0.0022977123 -0.05550376
-0.02923982 -0.019821001 0.010617277 -0.0022665884 -0.03078682 -0.04577626 -0.047128875 -0.06768887
0.0030824232 0.01600425 -0.06107689 -0.059491035 -0.03491192 0.009070959 0.024395363 -0.03505236
-0.046142895 0.023559682 -0.037310623 -0.021256458 -0.07573072 0.028049316 -0.075794 -0.0979025
-0.06819383 0.042019386 0.010822304 -0.050793007 0.015849333 -0.0015245801 0.040142793 0.007968879
-0.009799118 0.07599186 -0.10939321 -0.06577601 -0.04969039 -0.0055481433 0.025545776 -0.04075254
-0.015232245 0.039814778 -0.03832947 -0.029306537 -0.06931631 -0.05447803 0.013109208 0.03779244
-0.043932352 0.013460906 0.00542014 0.093159966 -0.04127417 -0.03996837 -0.021194156 0.035355974
-0.0023886117 -0.06363441 -0.004340123 -0.020143991 0.03142895 -0.0046938895 -0.007509198 -0.02686595
-0.0016749445 0.021048846 0.00090988877 -0.028144723 -0.0053732013 -0.09529968 0.01105505 -0.004531567
0.036516976 0.07010718 -0.049131446 -0.063488975 -0.020596685 -0.060538456 0.011831328 -0.06944666
0.009870583 -0.066132136 -0.07582124 -0.031537157 -0.059733346 0.029387388 0.06932262 0.00064414064
0.039859883 -0.07644996 0.016426763 -0.043036528 -0.054825433 -0.021409487 -0.056123804 0.063605204
-0.009776627 0.059835937 -0.013336343 0.0038062385 0.020558974 -0.02355866 0.04593111 -0.112796694
-0.023492202 -0.043183617 0.03238141 -0.060958482 -0.012921705 0.026237376 -0.038887292 0.032672826
0.04447601 -0.023682151 -0.0475327 0.048492722 0.014021592 -0.12427223 -0.03416474 0.046719253
-0.07456469 0.046361096 0.03066864 -0.029800547 0.07364118 -0.03026295 -0.013138265 -0.050547358
00000000: 0e1a 88bc 83a3 adbd f1db eebc 42a3 803d
00000010: 7d1c eb3c ee02 31bc 04f4 17bd 0461 b9bd
00000020: d289 543c 09df 7e3c 5f70 06bd 5f02 1cbd
00000030: 67e1 8f3d 23e7 94bd 7a20 95bd d566 cebb
00000040: 8721 d5bc a254 2dbd 6205 35bd 5a15 bfbd
00000050: 92d6 83bd 046b 9ebd 9c4a d43c fdca 46bc
00000060: 3db6 42bd bd62 4fbb 1ca0 09bc 3a3b cdbd
00000070: 6bda 57bd a29f 18bd ab0a a7bc f7c4 3bbd
00000080: 56dd e3bd 7d6d 57bd 8b2f 97bd cb41 ad3c
00000090: 745f 04bd 4b7e 83bc 218d fb3d 66e2 aabc
000000a0: faf0 bfbb 6370 91bd 12b5 b1bc 442c 9b3c
000000b0: 81c2 693d 60ad c73b 040e 93bd 80c8 35ba
000000c0: b37c 77bd 29b0 2bbd 9e1d 94bd 7fa5 253d
000000d0: cd62 5bbd a372 853a 31b5 e13a 0b14 84bd
000000e0: 3d6c 87b9 3e0c a0bd 70d2 7ebd e8ef 83bc
000000f0: 948f a03c f1c6 ad3c 23ed 63bd 7cec 00bb
00000100: c5f1 a4bb 628b 4ebd 4929 16bd 19ee 2f3d
00000110: 8384 72bd 1f1a 08bd cae4 62bd 0dae ccbd
00000120: 39ab 27bd 2bdb 093d 204f 01bd 9f89 5fbc
00000130: e275 b839 1b15 9fbd bbb2 2abc a41c 973b
00000140: 4661 40bd 7f1f b6bd 2316 ac3c 5b33 b7bd
00000150: 8f14 10bd d99c 523d bfb5 81bd bd7d acbd
00000160: 1e84 0b3d 0116 67bd 0106 3d3b 2fb1 293d
00000170: bf3b c4bc a315 a23c f652 c5bc 9df3 403d
00000180: 4ca0 6abd 8304 1a3c 58d5 4ebd 9df2 24bb
00000190: a105 393c 2a42 8cbd ebfe 063d 1d13 20bd
000001a0: f3da 54bd 4608 abbd 4b3b 5fbd 33a9 28bd
000001b0: b01d 62bc 1269 bdbc d28b 003c e39e debc
000001c0: f414 2cbc 0bc5 563d 7bd1 cabd 0be9 21bd
000001d0: 0547 02bb 7414 a43b 88d1 4abd 7f3b 653d
000001e0: 43b7 36bd 2971 4abd 4e5f 87bc f278 6d3d
000001f0: feac 40bd 6f6e 30bc 3795 16bb e957 63bd
00000200: 5988 efbc a75f a2bc 16f4 2d3c 0b8b 14bb
00000210: a434 fcbc e37f 3bbd 350a 41bd 76a0 8abd
00000220: 7b02 4a3b 581b 833c c32b 7abd dfac 73bd
00000230: cdff 0ebd 5c9e 143c c9d8 c73c 1093 0fbd
00000240: 5500 3dbd 3c00 c13c 06d3 18bd 0622 aebc
00000250: b518 9bbd aec7 e53c e239 9bbd 1b81 c8bd
00000260: 35a9 8bbd 851c 2c3d 0850 313c 540c 50bd
00000270: 76d6 813c 6bd4 c7ba c56c 243d e78f 023c
00000280: 7b8c 20bc 9fa1 9b3d 8c09 e0bd 93b5 86bd
00000290: 2688 4bbd 33cd b5bb 6045 d13c 23ec 26bd
000002a0: ab90 79bc d214 233d 5dff 1cbd 4314 f0bc
000002b0: b6f5 8dbd 5b24 5fbd 01c8 563c 3fcc 1a3d
000002c0: 69f2 33bd 228b 5c3c 6e9b b13b a7ca be3d
000002d0: 1b0f 29bd e0b5 23bd 5e9f adbc 6dd1 103d
000002e0: 418a 1cbb c252 82bd 9737 8ebb 0305 a5bc
000002f0: a5bb 003d 33cf 99bb b80f f6bb fb15 dcbc
00000300: d089 dbba a16e ac3c 9a85 6e3a c38f e6bc
00000310: ae11 b0bb 7b2c c3bd 3e20 353c 8a7d 94bb
00000320: d392 153d 5a94 8f3d 0e3e 49bd 8206 82bd
00000330: 61ba a8bc 2cf7 77bd 30d8 413c 0d3a 8ebd
00000340: 3ab8 213c 4970 87bd 2b48 9bbd 1b2d 01bd
00000350: f4aa 74bd d2bd f03c 05f9 8d3d 8cdb 283a
00000360: 1e44 233d cc91 9cbd 6b91 863c 1247 30bd
00000370: a290 60bd f362 afbc 13e2 65bd 7243 823d
00000380: 252e 20bc 8716 753d ad80 5abc 1672 793b
00000390: 4b6b a83c 17fe c0bc 4222 3c3d f401 e7bd
000003a0: b872 c0bc 4ee1 30bd 5fa2 043d 9aaf 79bd
000003b0: 8fb5 53bc c4ef d63c 4848 1fbd f1d3 053d
000003c0: 7a2c 363d 1201 c2bc a6b1 42bd 4ea0 463d
000003d0: d2ba 653c 7082 febd 54f0 0bbd b05c 3f3d
000003e0: 5fb5 98bd 22e5 3d3d cd3c fb3c 4720 f4bc
000003f0: 30d1 963d 02ea f7bc e141 57bc bf0a 4fbd

actor_mean.2.weight f4 [4, 256]
0.05036564 -0.032173734 0.014871746 -0.0622208 0.047733907 0.07934726 0.09095745 0.0904146
-0.02338537 -0.24277252 -0.22551514 -0.057838313 0.09935772 0.03003866 0.07441996 0.15245545
-0.028919451 -0.046107087 0.016345967 -0.0018319963 0.17281726 -0.15072179 -0.18158054 0.19880578
-0.008631905 0.0062818727 -0.10054734 -0.37200567 -0.15881559 0.024416566 0.063799225 -0.10330382
0.088846266 -0.028329145 -0.005836037 -0.03313155 -0.04842461 0.1915291 0.06495179 -0.050385665
0.22459523 0.0408141 0.14214453 -0.104947455 -0.017771957 -0.1924676 -0.13898268 0.13021077
-0.01455354 0.051116303 0.037943732 0.0037393237 0.020614557 -0.036159314 -0.15979576 0.028625226
-0.04316349 -0.222468 0.062714785 -0.12681764 -0.015833473 -0.15969245 -0.10125213 0.0053511285
0.007329882 -0.15660627 -0.004186301 -0.06251303 0.053251944 0.11514391 -0.11186544 -0.068379164
-0.04511001 0.1072549 -0.066200346 0.13148797 0.12669902 0.032303583 0.0048130723 0.060178008
-0.00087030936 -0.068587326 0.07009736 0.12299123 -0.065255016 0.21746683 0.046193898 0.06665715
0.034321103 -0.20989716 0.039352193 -0.09640582 0.110237926 -0.12357357 -0.09102389 0.14701818
0.14930105 0.053863805 -0.061074276 0.097377725 0.024272962 -0.09035405 -0.08310785 -0.01291307
-0.026722858 -0.0865705 -0.044716302 0.03599853 -0.0103734275 0.028494716 0.14807537 0.019051947
-0.16943178 -0.18308996 -0.08361197 0.00739991 -0.030325355 0.018624429 -0.071569525 0.03653678
-0.01228973 -0.07762291 -0.042849433 -0.03209242 -0.014935299 0.17345284 0.028001443 -0.0604951
0.045250196 -0.117426805 0.15362771 -0.35772014 0.010281649 -0.00872539 -0.18574148 0.056661077
0.09793516 -0.06428731 -0.18294826 0.1642277 -0.010148171 0.09154913 0.050867513 0.02527013
0.11873915 0.013522108 -0.012674123 -0.16363758 0.018107863 -0.17036253 0.052202675 -0.13374394
-0.031717192 -0.086921364 -0.041899387 -0.384284 0.024139198 0.1735506 0.08747183 0.16137111
-0.23675098 -0.19235225 -0.3661588 0.014341251 -0.005039818 0.053554963 0.0030073149 -0.2346794
0.03587238 -0.072547466 -0.12179597 0.042091776 -0.012819482 -0.16700764 0.060460597 -0.085715935
0.063947156 0.037002984 0.03667334 0.021977466 -0.033280667 0.033865504 0.100225054 0.08935637
0.089333616 -0.25504604 -0.06736119 -0.100828566 0.06063467 -0.2426188 0.011952586 0.017827457
-0.001527181 0.0005934759 -0.004247229 -0.042279232 0.106649704 -0.34029406 0.033565458 0.11694574
0.092308186 0.009872367 -0.0645819 -0.052351102 -0.20963015 -0.05868752 -0.4236009 0.05252782
0.08401551 -0.044160504 -0.11698803 0.019273758 0.011680376 0.02050863 -0.24907859 -0.051169608
-0.036198754 0.045873422 0.06278307 0.012351315 0.0015992341 0.016714448 0.0041944906 -0.0047460496
0.06300462 -0.0326113 -0.040948804 -0.03959194 0.03391406 -0.08363824 -0.035822105 -0.062853806
0.07737878 -0.17450991 -0.022822313 -0.038082648 0.14740501 0.062328994 -0.013752468 -0.023782726
-0.058768306 -0.12411617 0.045415666 -0.043070883 0.039997075 -0.26181585 -0.2634244 -0.24315661
0.021751711 0.06141913 -0.003917948 0.049901366 0.019829638 0.13801609 0.0815508 0.030350178
00000000: 344c 4e3d 9bc8 03bd a0a8 733c 3ddb 7ebd
00000010: a184 433d d180 a23d e647 ba3d 4a2b b93d
00000020: ad92 bfbc 5c99 78be 71ed 66be dee7 6cbd
00000030: 0f7c cb3d a313 f63c 7e69 983d 481d 1c3e
00000040: 7ce8 ecbc c9da 3cbd fae7 853c 981f f0ba
00000050: 02f7 303e d056 1abe 40f0 39be be93 4b3e
00000060: d56c 0dbc 2bd8 cd3b c4eb cdbd 8777 bebe
00000070: 8ea0 22be 4005 c83c 2ba9 823d f490 d3bd
00000080: 08f5 b53d 8612 e8bc 3a3c bfbb f3b4 07bd
00000090: e258 46bd 3420 443e 7205 853d 3361 4ebd
000000a0: 4bfc 653e b02c 273d 568e 113e b1ee d6bd
000000b0: 7f96 91bc 3a16 45be 7a51 0ebe f955 053e
000000c0: f971 6ebc 545f 513d e36a 1b3d 710f 753b
000000d0: dcdf a83c ca1b 14bd 80a1 23be 737f ea3c
000000e0: 33cc 30bd a7ce 63be 9c70 803d 7cdc 01be
000000f0: 33b5 81bc 6b86 23be 475d cfbd 8558 af3b
00000100: 822f f03b 655d 20be 3d2d 89bb d506 80bd
00000110: b61e 5a3d 92d0 eb3d b519 e5bd 600a 8cbd
00000120: 46c5 38bd 75a8 db3d 0c94 87bd c8a4 063e
00000130: 63bd 013e c350 043d fab6 9d3b 377d 763d
00000140: 7925 64ba 8377 8cbd 348f 8f3d d3e2 fb3d
00000150: 6ca4 85bd a0af 5e3e d035 3d3d 8b83 883d
00000160: 4994 0c3d 48ef 56be c42f 213d 6a70 c5bd
00000170: 6cc4 e13d 2414 fdbd bc6a babd ef8b 163e
00000180: 60e2 183e 4ba0 5c3d 0529 7abd f96d c73d
00000190: 17d8 c63c 8b0b b9bd 7334 aabd 5791 53bc
000001a0: e5e9 dabc e04b b1bd 7128 37bd 3273 133d
000001b0: 4ff5 29bc c06d e93c 12a1 173e d412 9c3c
000001c0: 867f 2dbe ef7b 3bbe c13c abbd f27a f23b
000001d0: e16c f8bc 4292 983c 0b93 92bd 97a7 153d
000001e0: dd5a 49bc c3f8 9ebd e382 2fbd 5773 03bd
000001f0: 2fb3 74bc 9f9d 313e 4863 e53c b6c9 77bd
00000200: 4558 393d 777d f0bd 9550 1d3e 1827 b7be
00000210: 5d74 283c f0f4 0ebc 0433 3ebe 7215 683d
00000220: 3b92 c83d 11a9 83bd ca56 3bbe 4e2b 283e
00000230: 8444 26bc 1c7e bb3d 745a 503d 4e03 cf3c
00000240: 832d f33d d58b 5d3c 20a7 4fbc 9c90 27be
00000250: f156 943c 8473 2ebe 79d2 553d 2cf4 08be
00000260: e3e9 01bd d403 b2bd b19e 2bbd dfc0 c4be
00000270: 91bf c53c 40b7 313e 6e24 b33d 783e 253e
00000280: d96e 72be fdf7 44be 2b79 bbbe 91f7 6a3c
00000290: 0f25 a5bb 735c 5b3d 5f16 453b cc4f 70be
000002a0: ebee 123d c493 94bd 2a70 f9bd 6d68 2c3d
000002b0: ce08 52bc 0d04 2bbe 88a5 773d d68b afbd
000002c0: baf6 823d 7190 173d c936 163d 160a b43c
000002d0: 4f51 08bd 8eb6 0a3d cb42 cd3d 7900 b73d
000002e0: 8bf4 b63d 6595 82be aaf4 89bd 357f cebd
000002f0: 0f5c 783d 1071 78be c7d4 433c e30a 923c
00000300: b12b c8ba 7e93 1b3a 572c 8bbb fd2c 2dbd
00000310: 296b da3d 063b aebe ef7b 093d 4081 ef3d
00000320: 130c bd3d b5bf 213c 8443 84bd 1c6e 56bd
00000330: 49a9 56be 5362 70bd 38e2 d8be 6927 573d
00000340: 5310 ac3d a5e1 34bd 6c97 efbd 00e4 9d3c
00000350: 0c5f 3f3c b701 a83c 750e 7fbe 3997 51bd
00000360: 2545 14bd c5e5 3b3d 6994 803d 2b5d 4a3c
00000370: 649d d13a bdec 883c f071 893b c084 9bbb
00000380: 9108 813d 6d93 05bd efb9 27bd 282b 22bd
00000390: 78e9 0a3d 874a abbd 33ba 12bd 7fb9 80bd
000003a0: c478 9e3d bab2 32be dcf5 babc 8dfc 1bbd
000003b0: 57f1 163e b04c 7f3d 0852 61bc fed3 c2bc
000003c0: 09b7 70bd 9e30 febd c705 3a3d 186b 30bd
000003d0: f9d3 233d ba0c 86be 90df 86be 0cfe 78be
000003e0: a530 b23c a092 7b3d 2162 80bb 6065 4c3d
000003f0: c471 a23c 1754 0d3e 1b04 a73d f0a0 f83c

actor_mean.2.bias f4 [4]
0.010809332 0.07796423 0.03523539 0.01944548
00000000: a019 313c b6ab 9f3d fc52 103d 214c 9f3c

critic.0.weight f4 [256, 256]
0.01931837 0.122109644 -0.06861541 -0.070828706 -0.087363735 -0.007703561 -0.0056828503 0.05350324
-0.07711544 -0.032474875 -0.023437595 -0.009270164 0.022695327 0.15848866 0.0048070517 0.0066991374
-0.047217615 0.2288496 -0.015906168 0.03980022 -0.103580534 0.0008834221 0.15688972 -0.12651016
0.009603336 -0.036829453 -0.08041323 0.07313097 -0.09056131 -0.041035958 0.042681143 0.15712182
0.036922656 0.017755626 -0.06452036 0.046492778 -0.068318084 0.049020015 -0.022829935 -0.022220839
-0.00091643777 0.09921029 -0.14158137 -0.078433335 0.06299968 0.2552385 -0.021380693 -0.07555207
-0.018578952 0.12768923 0.060581673 -0.21500735 -0.13509686 0.040351063 -0.15185814 -0.08396327
0.03566834 -0.030747563 -0.014351168 -0.044079233 0.122509986 0.12447365 -0.04381227 -0.115215465
-0.044678103 0.0049814903 -0.015056708 -0.02786244 0.12558828 -0.21229546 -0.12624463 -0.031006219
-0.115650825 0.055250753 0.016769353 0.09784139 -0.0012070162 -0.03507699 -0.17587079 -0.014099255
0.13712084 0.10607374 0.094031334 -0.10665869 0.018871035 0.021580737 -0.053819496 0.0138982115
-0.1557957 -0.032806784 0.09799389 -0.022168037 -0.051673394 -0.04007437 0.024787897 0.02165606
-0.09638232 0.01746202 0.027178822 0.17688027 0.20992185 0.012836725 -0.14365333 0.030450575
0.10205642 -0.033632837 0.31517732 0.016631417 -0.038455684 -0.00050199736 -0.015487696 0.010499734
0.11040377 0.032026708 -0.10966356 0.04668959 0.21214521 0.086614795 0.0044302912 -0.1662614
0.09584285 0.12282337 -0.050478496 0.017396662 0.036529936 0.026952341 -0.031980943 0.061781652
-0.20846331 -0.043539733 -0.050821524 0.081606336 0.07852352 -0.06106707 -0.083755955 -0.021180356
0.1959701 -0.009464984 -0.048232984 0.33802995 0.087036975 -0.14926311 0.040677123 -0.044523995
0.091531694 0.09921431 -0.13109785 -0.00077026774 -0.03908091 0.040286787 -0.14729148 -0.12435898
-0.08921293 0.057193402 0.107411936 -0.027342264 0.12714323 -0.07865495 0.16851166 0.0064447583
0.038368274 -0.06728202 0.057231244 -0.05127563 0.0062969946 -0.14482498 0.01728983 -0.11276785
-0.08100194 0.23277387 -0.0030082064 0.02246125 0.042280477 0.006277625 -0.044995546 -0.058798574
0.24446554 0.036561757 -0.0982657 -0.13644665 0.04561971 -0.16118859 0.03132756 -0.01640543
-0.011975 0.16444129 0.04895227 0.24121776 -0.094725676 -0.11140256 -0.02716111 -0.09463173
0.09694095 -0.18056904 -0.14641316 0.0014103821 -0.092733435 -0.14520006 -0.008567726 0.00032149648
-0.05900485 -0.121493764 -0.082743675 0.24996077 -0.09039994 0.10575073 0.04705108 -0.026778048
0.10745581 -0.10224756 -0.02091437 -0.0423058 -0.028668495 -0.0793971 -0.03572377 -0.12994242
-0.1539093 0.051746044 0.06787759 0.01707644 0.057442173 -0.12041787 -0.13075617 -0.1338435
-0.24977945 -0.08456638 -0.013762197 -0.090848684 -0.02360416 -0.029979328 -0.04968493 -0.03853688
-0.019345675 -0.017411653 0.06761309 -0.02076696 0.09391716 -0.031224094 0.05316543 -0.010376044
0.0109666735 0.14621182 -0.041861337 -0.025567347 -0.0054248855 0.0342941 -0.1571625 0.028221281
-0.007975777 0.041529033 -0.0450951 -0.08070142 -0.00044977013 -0.060755726 -0.016000098 0.14140324
00000000: 8f41 9e3c 9f14 fa3d 3c86 8cbd a40e 91bd
00000010: c2eb b2bd 276e fcbb 3437 babb 3726 5b3d
00000020: b3ee 9dbd 6004 05bd 3300 c0bc e3e1 17bc
00000030: 8deb b93c da4a 223e 7984 9d3b 7084 db3b
00000040: 4267 41bd 8d57 6a3e a74d 82bc 8e05 233d
00000050: 0822 d4bd 7495 673a b3a7 203e e18b 01be
00000060: 5057 1d3c 7bda 16bd b1af a4bd b1c5 953d
00000070: 3578 b9bd 5215 28bd 6cd2 2e3d 8be4 203e
00000080: 363c 173d 3f74 913c 4023 84bd 366f 3e3d
00000090: 5aea 8bbd 36c9 483d d805 bbbc 7a08 b6bc
000000a0: 193d 70ba c42e cb3d b5fa 10be a8a1 a0bd
000000b0: fa05 813d 9fae 823e 9026 afbc 0bbb 9abd
000000c0: e332 98bc f7c0 023e 7d24 783d e32a 5cbe
000000d0: d556 0abe 2847 253d b380 1bbe eff4 abbd
000000e0: f718 123d 50e2 fbbc 2921 6bbc 6d8c 34bd
000000f0: 84e6 fa3d 0aec fe3d 7f74 33bd 16f6 ebbd
00000100: 6300 37bd c53b a33b 69b0 76bc c63f e4bc
00000110: 379a 003e fb63 59be 4646 01be c100 febc
00000120: 57da ecbd 9d4e 623d e25f 893c 1161 c83d
00000130: be34 9eba e4ac 0fbd 7917 34be 9000 67bc
00000140: 6869 0c3e 303d d93d 8093 c03d df6f dabd
00000150: 6e97 9a3c 16ca b03c d571 5cbd 53b5 633c
00000160: e888 1fbe 6860 06bd 05b1 c83d be99 b5bc
00000170: 7ba7 53bd 0625 24bd fd0f cb3c 0d68 b13c
00000180: 1864 c5bd 830c 8f3c 1fa6 de3c 1a20 353e
00000190: c1f5 563e 2151 523c dc19 13be 7c73 f93c
000001a0: f502 d13d 96c2 09bd ec5e a13e 9c3e 883c
000001b0: b583 1dbd 7998 03ba 1bc0 7dbc 1407 2c3c
000001c0: 5f1b e23d 702e 033d 4a97 e0bd 953d 3f3d
000001d0: 983c 593e 1963 b13d fa2b 913b 6e40 2abe
000001e0: 4249 c43d d28a fb3d 8ac2 4ebd 7283 8e3c
000001f0: 6aa0 153d 28cb dc3c 73fe 02bd c20e 7d3d
00000200: 6877 55be b856 32bd 3b2a 50bd 3921 a73d
00000210: f0d0 a03d 7721 7abd 3e88 abbd 6d82 adbc
00000220: 63ac 483e 0513 1bbc f38f 45bd 4312 ad3e
00000230: 7140 b23d 6ed8 18be 0e9d 263d cb5e 36bd
00000240: f874 bb3d df30 cb3d 843e 06be cbeb 49ba
00000250: 4e13 20bd c203 253d 94d3 16be ecaf febd
00000260: 45b5 b6bd a143 6a3d cafa db3d e2fc dfbc
00000270: d631 023e d915 a1bd 528e 2c3e 8d2e d33b
00000280: 0d28 1d3d 28cb 89bd 4f6b 6a3d 6506 52bd
00000290: 0557 ce3b 004d 14be 67a3 8d3c d5f2 e6bd
000002a0: 58e4 a5bd 465c 6e3e 5425 45bb a800 b83c
000002b0: 4b2e 2d3d 89b4 cd3b 404d 38bd c6d6 70bd
000002c0: 2d55 7a3e c8c1 153d 873f c9bd acb8 0bbe
000002d0: bcdb 3a3d 9f0e 25be 5451 003d ae64 86bc
000002e0: ca32 44bc 4c63 283e 2d82 483d ca01 773e
000002f0: 89ff c1bd 0627 e4bd fa80 debc 48ce c1bd
00000300: fa88 c63d 17e7 38be 55ed 15be 92dc b83a
00000310: 07eb bdbd 53af 14be a65f 0cbc 878e a839
00000320: 12af 71bd b9d1 f8bd 8475 a9bd b7f5 7f3e
00000330: 9b23 b9bd d793 d83d a2b8 403d a35d dbbc
00000340: cb11 dc3d 2b67 d1bd 9d54 abbc d948 2dbd
00000350: 31da eabc f29a a2bd 1653 12bd a00f 05be
00000360: 669a 1dbe a9f3 533d 6803 8b3d e4e3 8b3c
00000370: 7c48 6b3d a59d f6bd f2e4 05be 450e 09be
00000380: 2fc6 7fbe 2331 adbd d77a 61bc e00e babd
00000390: 835d c1bc 3597 f5bc 6d82 4bbd d9d8 1dbd
000003a0: d27a 9ebc e2a2 8ebc bb78 8a3d 791f aabc
000003b0: a457 c03d acc9 ffbc fec3 593d 4800 2abc
000003c0: 90ad 333c 8db8 153e cb76 2bbd 9d72 d1bc
000003d0: 3dc3 b1bb f877 0c3d 35ef 20be 5130 e73c
000003e0: d5ac 02bc 591a 2a3d a4b5 38bd c946 a5bd
000003f0: 20cf ebb9 ffda 78bd a312 83bc 03cc 103e

critic.0.bias f4 [256]
0.023134373 0.082580745 0.13406119 0.119111285 0.036719684 -0.024150595 -0.018399337 0.014690665
0.027961072 0.11900189 0.017206838 -0.051995236 0.098318465 0.0819555 0.02475012 0.07006933
-0.07241832 0.011727863 0.025966587 -0.026910506 0.11751809 -0.04635206 0.061462846 0.053083602
0.090631336 0.12581353 -0.043275125 0.0076390686 0.053905107 -0.046553366 0.14025116 0.079095006
0.029010417 0.09549525 0.13942403 0.034463387 0.061347015 -0.019975822 0.074530564 0.051990405
0.05355081 0.032318126 -0.008507842 0.017627794 0.05773068 0.110436045 0.037249673 -0.03960856
-0.03874748 -0.059392013 -0.06191744 0.04778366 -0.04423552 0.0035956246 -0.04980364 0.104270205
0.1332506 0.036013685 0.03047981 0.020848846 -0.047985654 0.061829932 0.024484362 0.0705722
0.090908125 0.09355316 0.006144249 0.03481291 0.023575589 -0.019193098 0.04331872 0.1004177
-0.004507817 0.11408323 -0.045605022 0.10505664 0.02957246 -0.037318364 -0.0766105 0.09070644
0.1270064 0.13064739 -0.028994367 0.046090044 -0.012700087 0.06150413 0.02055068 0.0075453334
0.051669948 -0.059797287 0.044594064 0.024080295 0.039643418 -0.07576254 0.050737474 0.0701576
-0.06654944 0.020478103 0.01937106 -0.031484466 0.10204049 0.009514966 0.069096826 0.09749528
0.10666639 0.066421784 -0.017107235 0.004943921 0.070600785 0.13058801 -0.033111345 0.10622089
-0.045694042 0.011903071 0.083583534 0.07531323 0.033374187 0.059933398 0.050026745 -0.031896967
0.031422973 0.1543508 0.09912944 -0.018744448 -0.030952867 -0.05959007 0.030173272 0.033945087
-0.005080802 0.07334579 0.03402348 0.050261322 -0.03270143 0.036236927 0.019945668 0.11767494
-0.016890584 0.00762875 0.082659446 0.028336192 0.10897564 0.08290873 0.14316137 -0.0046996623
-0.065267846 -0.060002 -0.009828238 0.10170339 -0.016777227 0.017057884 0.12663083 0.08760565
-0.03404012 0.13217808 -0.051565975 0.07746039 0.08461752 -0.03208854 0.13432933 0.08618835
0.037429195 0.0937969 0.0067729177 0.08250237 -0.032840118 0.06465062 0.08686466 0.005619834
0.032813158 0.08123836 0.055862166 0.007168882 0.07989006 -0.025294753 -0.026738102 -0.055524256
0.072527684 0.011785226 -0.03039596 0.11031293 0.11056928 0.020142118 0.08309138 0.09444826
0.08927433 0.10285008 0.047575556 0.03210639 -0.019946938 0.078635395 0.099171884 0.06857014
0.03653692 0.0158543 0.014438541 0.07308476 0.037055444 -0.011088257 0.016945869 -0.06805994
-0.001809283 0.046428427 -0.0340207 0.027059924 0.0052924105 0.0026714385 0.021468544 0.073376454
0.012335595 0.13086127 -0.035422698 0.13319479 0.068624504 0.098451704 0.08092593 -0.047507957
0.09991458 -0.0008288029 -0.008752181 0.049655963 0.044489067 0.080849096 0.10557309 0.01112138
0.03024867 0.013638502 0.0940933 0.09239394 -0.049357098 -0.0072126114 0.114809945 0.044235986
-0.07356245 0.0066087893 0.032277845 0.06032758 0.0607701 0.019016176 0.09192046 0.12881511
0.028698927 0.046598267 0.08810678 0.028116282 0.04092554 0.0033063905 0.015326568 0.08743722
0.08105941 -0.037023716 -0.071155146 0.07120387 -0.07413377 -0.03748442 0.14063711 0.030916423
00000000: 4c84 bd3c 1820 a93d 5647 093e 9ef0 f33d
00000010: 6167 163d 78d7 c5bc 35ba 96bc 1db1 703c
00000020: 9e0e e53c 43b7 f33d 5bf5 8c3c f5f8 54bd
00000030: 315b c93d 49d8 a73d c3c0 ca3c 8280 8f3d
00000040: 0e50 94bd 3926 403c e1b7 d43c 6c73 dcbc
00000050: 53ad f03d a8db 3dbd 77c0 7b3d 316e 593d
00000060: ec9c b93d 43d5 003e 4241 31bd 2751 fa3b
00000070: 9acb 5c3d beae 3ebd 009e 0f3e 90fc a13d
00000080: 41a7 ed3c 0393 c33d 2cc5 0e3e 7b29 0d3d
00000090: 0247 7b3d 56a4 a3bc 7ba3 983d e4f3 543d
000000a0: 1858 5b3d 0360 043d 7a64 0bbc 2a68 903c
000000b0: 0177 6c3d 4b2c e23d 1d93 183d 963c 22bd
000000c0: adb5 1ebd 0a45 73bd 249d 7dbd cdb8 433d
000000d0: 4e30 35bd 92a4 6b3b e7fe 4bbd 9e8b d53d
000000e0: d872 083e 1683 133d cbb0 f93c 33cb aa3c
000000f0: 9b8c 44bd 6241 7d3d 6e93 c83c 2888 903d
00000100: 0a2e ba3d cd98 bf3d b255 c93b fb97 0e3d
00000110: 9821 c13c d83a 9dbc f86e 313d cca7 cd3d
00000120: 4fb6 93bb 78a4 e93d 55cc 3abd f027 d73d
00000130: f241 f23c 24db 18bd f7e5 9cbd 4cc4 b93d
00000140: f70d 023e 6ec8 053e 9885 edbc eac8 3c3d
00000150: 0714 50bc c1eb 7b3d e659 a83c d83e f73b
00000160: dea3 533d 00ee 74bd 44a8 363d 0a44 c53c
00000170: 2361 223d 6429 9bbd 19d2 4f3d caae 8f3d
00000180: 134b 88bd b2c1 a73c 0fb0 9e3c dbf5 00bd
00000190: 9bfa d03d a9e4 1b3c a382 8d3d 9bab c73d
000001a0: e973 da3d 2508 883d 7924 8cbc 9e00 a23b
000001b0: 2597 903d ddb8 053e c39f 07bd 578a d93d
000001c0: ad29 3bbd 1905 433c d82d ab3d d33d 9a3d
000001d0: 5fb3 083d b97c 753d d8e8 4c3d 65a6 02bd
000001e0: 60b5 003d 230e 1e3e 6004 cb3d f58d 99bc
000001f0: de90 fdbc b814 74bd f02d f73c 010a 0b3d
00000200: db7c a6bb 5136 963d 345c 0b3d d1de 4d3d
00000210: eff1 05bd 2c6d 143d 1965 a33c 8fff f03d
00000220: 1f5e 8abc 98fa f93b 5b49 a93d 4d21 e83c
00000230: 9f2e df3d 0dcc a93d e598 123e a0ff 99bb
00000240: 26ab 85bd a8c4 75bd 9e06 21bc de49 d03d
00000250: 6570 89bc fabc 8b3c 83ab 013e 976a b33d
00000260: a76d 0bbd b159 073e d836 53bd 8ea3 9e3d
00000270: f34b ad3d 466f 03bd a18d 093e 8583 b03d
00000280: 5b4f 193d 9718 c03d 5aef dd3b 01f7 a83d
00000290: 5c83 06bd 8b67 843d 19e6 b13d 9626 b83b
000002a0: 1767 063d 4c60 a63d bacf 643d f1e8 ea3b
000002b0: 669d a33d f136 cfbc dd09 dbbc 676d 63bd
000002c0: 6589 943d d216 413c f300 f9bc bfeb e13d
000002d0: 2672 e23d 1501 a53c d02b aa3d 176e c13d
000002e0: 76d5 b63d 10a3 d23d 96de 423d fd81 033d
000002f0: c367 a3bc 980b a13d a11a cb3d 806e 8c3d
00000300: bda7 153d e1e0 813c a18f 6c3c 76ad 953d
00000310: 73c7 173d 85ab 35bc 10d2 8a3c 0363 8bbd
00000320: 7725 edba bc2b 3e3d 4a59 0bbd c6ac dd3c
00000330: f56b ad3b 4d13 2f3b cdde af3c 6546 963d
00000340: 3c1b 4a3c 7f00 063e 6417 11bd 3764 083e
00000350: 018b 8c3d 0ca1 c93d 7ebc a53d b497 42bd
00000360: 04a0 cc3d 0544 59ba 4f65 0fbc 0d64 4b3d
00000370: 2b3a 363d 3694 a53d b436 d83d 7336 363c
00000380: 0fcc f73c 0674 5f3c fdb3 c03d 0939 bd3d
00000390: ab2a 4abd c557 ecbb 7a21 eb3d cb30 353d
000003a0: e9a7 96bd 8b8e d83b c635 043d 0d1a 773d
000003b0: 12ea 783d d0c7 9b3c cb40 bc3d 1ce8 033e
000003c0: 031a eb3c d3dd 3e3d 5471 b43d 1e54 e63c
000003d0: 8aa1 273d 07b0 583b 491c 7b3c 4912 b33d
000003e0: 7a02 a63d 2ea6 17bd cab9 91bd 56d3 913d
000003f0: 72d3 97bd 4389 19bd 2d03 103e 7044 fd3c
